04_Models_Weekly/20250811_182923_HBEA_Weekly_NoSentiment/best_model.pth (torch, 263989 bytes, 11 tensors)

lstm.weight_ih_l0 f4 [256, 49]
0.09458281 0.10492998 -0.012870476 0.11261776 0.035483863 0.025223836 -0.06085688 0.13464087
0.12855047 -0.049136266 0.16141511 0.10541768 0.12268011 0.07776358 0.109814644 -0.02786571
0.17583907 0.06523791 0.005624848 0.042664565 -0.023340425 0.012284656 -0.026987 0.089399174
-0.090909265 -0.0726571 -0.005796782 -0.08373972 0.11405968 -0.06284014 0.1087064 -0.11036576
0.1086068 0.17099006 0.013413474 0.089347124 0.018496092 0.13049552 0.0066719837 -0.023008535
0.035760712 -0.03165545 0.042368677 0.20774592 0.085895866 -0.08024623 0.08431807 -0.008345156
0.09176202 -0.002730777 -0.05303429 -0.04739613 -0.065859735 0.23185582 0.036003917 0.051776692
0.11617979 0.015468394 0.18940033 0.024837691 0.08365608 -0.096494764 0.14561184 0.065015264
0.093962654 0.119383074 0.19285494 0.018243978 -0.019592345 0.005873285 0.14612316 0.071361974
0.22444698 -0.062338997 -0.071277596 -0.06693776 -0.013221308 0.20530687 -0.033547126 0.17828792
0.00986913 -0.028378537 0.16679847 0.059391104 0.13270092 0.017362608 0.10236348 -0.02946921
0.0012061272 0.09064334 0.11630003 0.015689516 0.16891591 0.052633632 -0.056055352 -0.046411704
0.14626189 -0.01885673 -0.11603109 -0.1927518 -0.043343958 0.029696386 -0.004876872 -0.09073575
0.0029320866 -0.08874086 -0.08474519 -0.07628663 -0.11514502 -0.052866608 0.14926305 0.011267255
0.032835454 -0.108203694 -0.13046218 -0.047263447 0.017959615 -0.12188451 -0.05698893 -0.05471607
0.026983282 -0.06273885 -0.0043018945 -0.039272398 -0.05669978 -0.06776617 0.07436901 -0.11178327
0.11892393 -0.010692738 0.11672409 0.09949373 -0.10424859 0.095678896 -0.030002603 -0.018816128
-0.09164353 -0.12960267 0.022904506 -0.009178807 0.06740944 -0.086556196 0.1349308 -0.09223861
-0.015424515 0.023465578 0.07613627 0.13894275 0.15090062 -0.1837728 -0.043531008 0.0053418884
-0.013698101 -0.09356126 0.18000363 -0.056549706 0.11598094 0.08829404 0.09529781 -0.023265587
0.16786285 0.07251912 0.069685966 -0.036612716 0.054432534 0.031122489 -0.032886658 0.15668643
0.061579734 -0.026432237 -0.04076507 0.013037536 0.08298661 -0.03291782 -0.040372137 -0.040706776
-0.13058992 0.077178724 0.12935467 -0.10601388 0.081412315 0.042782478 0.034332443 -0.0022493878
0.064266555 0.09818738 0.018953754 -0.024118675 0.005947811 0.048372872 -0.007836665 -0.06820656
0.117945455 0.13095073 0.031168489 -0.0035083797 -0.0039977673 -0.014318143 -0.014275457 -0.003921456
-0.09034146 -0.04612972 0.10526618 0.056534406 -0.003938414 -0.042947337 -0.04827087 -0.10924636
-0.0943735 0.057030424 0.09504527 0.071977206 -0.078214034 -0.066767864 -0.018690035 0.1162693
0.04723702 -0.037638094 0.041021526 -0.053522684 -0.1108787 0.09633258 -0.08987534 -0.018087843
-0.26465452 0.032654516 0.10684134 0.057693023 -0.10789691 -0.053977244 -0.13681541 0.0724749
0.070166744 0.07215041 0.08007417 0.015648598 0.03918326 -0.096151575 -0.119281694 -0.15140001
0.045564245 -0.057242356 -0.029918462 -0.06614147 -0.026639638 -0.15246147 -0.14081518 -0.00374981
-0.10049765 0.073077366 -0.040101096 -0.091695905 -0.03885966 -0.07188276 -0.07377965 -0.1314019
00000000: a2b4 c13d 88e5 d63d b0de 52bc 24a4 e63d
00000010: 8757 113d 38a2 ce3c 1045 79bd 4cdf 093e
00000020: bca2 033e 1c43 49bd 014a 253e 3ae5 d73d
00000030: b63f fb3d 8342 9f3d 80e6 e03d a146 e4bc
00000040: 280f 343e 749b 853d a550 b83b 0ac1 2e3d
00000050: 6b34 bfbc 9545 493c d713 ddbc ea16 b73d
00000060: a32e babd 3fcd 94bd eff2 bdbb bb7f abbd
00000070: 1f98 e93d 55b2 80bd 76a1 de3d 7207 e2bd
00000080: 3e6d de3d 0518 2f3e 30c4 5b3c a0fb b63d
00000090: 1e85 973c 9ea0 053e a8a0 da3b 657c bcbc
000000a0: d379 123d 25a9 01bd c78a 2d3d 59bb 543e
000000b0: 2cea af3d 2358 a4bd f4ae ac3d 1fba 08bc
000000c0: baed bb3d d6f6 32bb 7c3a 59bd 7222 42bd
000000d0: 78e1 86bd 9d6b 6d3e d878 133d cc13 543d
000000e0: abef ed3d 266f 7d3c 29f2 413e 6a78 cb3c
000000f0: e153 ab3d 0c9f c5bd 451b 153e b926 853d
00000100: 7e6f c03d 1d7f f43d c47b 453e 6574 953c
00000110: 2080 a0bc af74 c03b 4fa1 153e 3a26 923d
00000120: 6ed5 653e 2d57 7fbd fdf9 91bd aa16 89bd
00000130: 2f9e 58bc f73b 523e b668 09bd 1c91 363e
00000140: 22b2 213c 1b7a e8bc 38cd 2a3e 1644 733d
00000150: c0e2 073e 073c 8e3c f2a3 d13d 6a69 f1bc
00000160: ea16 9e3a 37a3 b93d b62e ee3d 4d87 803c
00000170: 4bf8 2c3e 5d96 573d 4c9a 65bd 331a 3ebd
00000180: adc5 153e 6e79 9abc b5a1 edbd ba60 45be
00000190: 6f89 31bd d645 f33c 2bce 9fbb aad3 b9bd
000001a0: 4028 403b c5bd b5bd e38e adbd 2a3c 9cbd
000001b0: 27d1 ebbd a88a 58bd 6ad8 183e 4b9a 383c
000001c0: 787e 063d e699 ddbd e197 05be 5197 41bd
000001d0: 0b20 933c 969e f9bd 396d 69bd f51d 60bd
000001e0: 0b0c dd3c 3a7d 80bd e8f6 8cbb 18dc 20bd
000001f0: 073e 68bd fdc8 8abd c84e 983d a1ee e4bd
00000200: 648e f33d 9830 2fbc 0a0d ef3d 5ec3 cb3d
00000210: 4980 d5bd 4cf3 c33d 05c8 f5bc 4824 9abc
00000220: 9aaf bbbd 90b6 04be 3ba2 bb3c b562 16bc
00000230: f60d 8a3d 6044 b1bd 4d2b 0a3e 99e7 bcbd
00000240: 1bb7 7cbc e23a c03c 55ed 9b3d 0247 0e3e
00000250: b185 1a3e f02e 3cbe 924d 32bd 020b af3b
00000260: 006e 60bc 0c9d bfbd df52 383e aaa0 67bd
00000270: 6a87 ed3d 81d3 b43d 802b c33d 7997 bebc
00000280: 3de4 2b3e e884 943d 84b7 8e3d 37f7 15bd
00000290: a6f4 5e3d 97f4 fe3c 29b4 06bd 6872 203e
000002a0: 083b 7c3d 6b88 d8bc 46f9 26bd 649b 553c
000002b0: e2f4 a93d d6d4 06bd 415d 25bd 26bc 26bd
000002c0: 5db9 05be e10f 9e3d 8d75 043e ce1d d9bd
000002d0: 80bb a63d ae3c 2f3d 2da0 0c3d 776a 13bb
000002e0: 2f9e 833d 7716 c93d e744 9b3c 8794 c5bc
000002f0: dbe5 c23b a222 463d 5b65 00bc e2af 8bbd
00000300: 638d f13d f317 063e 0f55 ff3c d8ec 65bb
00000310: b4ff 82bb a596 6abc 9be3 69bc 8f7f 80bb
00000320: f204 b9bd 84f2 3cbd cc95 d73d 9f90 673d
00000330: d00d 81bb 8ce9 2fbd adb7 45bd 8ebc dfbd
00000340: e546 c1bd bc98 693d 18a7 c23d c968 933d
00000350: ae2e a0bd 97bd 88bd d81b 99bc 991e ee3d
00000360: 9b7b 413d 672a 1abd 3006 283d 9a3a 5bbd
00000370: 5f14 e3bd 044a c53d 9010 b8bd f52c 94bc
00000380: cc80 87be bec0 053d a2cf da3d 854f 6c3d
00000390: 0ef9 dcbd 3e17 5dbd 5719 0cbe b86d 943d
000003a0: 95b3 8f3d 98c3 933d edfd a33d 7d31 803c
000003b0: a07e 203d 1eeb c4bd f649 f4bd 9b08 1bbe
000003c0: 93a1 3a3d f676 6abd 9017 f5bc 2e75 87bd
000003d0: 5f3b dabc dc1e 1cbe db31 10be 5fbf 75bb
000003e0: b6d1 cdbd 96a9 953d 0c41 24bd 10cb bbbd
000003f0: 4f2b 1fbd 4537 93bd c919 97bd 388e 06be

lstm.weight_hh_l0 f4 [256, 64]
0.053678904 0.08315498 0.090043284 0.10701212 -0.018174725 -0.051513363 -0.09064479 -0.03487642
-0.019797442 -0.08516874 -0.030728102 -0.091111995 0.12986954 0.062560886 0.10489643 0.059037708
-0.030845117 0.05633472 -0.118575275 -0.080060504 -0.06439832 0.11366987 0.060680594 -0.09754529
-0.10516035 0.12971845 0.011351968 -0.13079196 0.0073422366 -0.006130166 0.026166525 -0.15561824
-0.036395285 0.10767346 0.08640116 -0.053633187 0.034025777 0.023272844 0.07344114 0.03792978
0.029665316 0.10042334 0.06668393 -0.13139607 -0.07226668 0.08959974 0.03629164 -0.09369841
-0.012444416 -0.078771025 -0.08090612 0.060573373 0.04607182 -0.108923994 0.037546594 0.019877665
0.0100222025 -0.17564099 -0.08233796 0.02722865 -0.058906257 0.042936392 -0.12550308 0.12586631
0.13195363 0.13110954 0.07562183 -0.24949123 -0.17382126 0.037297234 -0.069404624 0.21380927
0.12465394 0.16593064 -0.08336391 -0.12633537 0.02094673 0.07879087 -0.15961494 0.12964554
0.12902232 -0.048361037 0.09822916 -0.28210533 -0.051201608 0.018784963 0.12848054 0.10469663
-0.034324415 0.19334914 0.036139242 -0.04504896 0.17799465 0.015917525 0.0020120502 -0.0972237
-0.043276146 0.02907391 0.11736886 -0.11956533 0.02620984 -0.03218396 -0.13263415 -0.120314844
0.19550855 -0.14679429 0.058824357 -0.045688156 -0.06351821 0.015126947 -0.09652999 0.17541069
-0.10589674 -0.11056419 0.047065265 0.061368972 0.01883989 0.02423152 0.0021899166 0.09697842
0.03041683 -0.021842007 -0.08744815 0.058569837 -0.119975105 -0.17339255 0.058244865 -0.13015303
-0.15683834 -0.13245232 0.040164016 -0.03173539 0.14784405 0.011899723 -0.08397227 -0.13626489
-0.09067771 0.073004596 -0.073767565 -0.12221446 0.0011394594 0.019616416 -0.06157815 -0.07362476
0.046892233 -0.020860177 0.05524598 -0.030614343 -0.106408514 -0.07016415 0.10645927 0.0125192525
0.038727432 0.0342597 0.018000314 0.0801848 0.116899826 0.07501926 0.058492705 0.027321734
0.013842316 -0.1528137 -0.0294153 -0.002096918 0.097504064 -0.020181343 0.08921357 0.02522043
-0.1347047 0.018787617 -0.070025414 -0.07050795 0.12612137 0.051530078 0.047586467 -0.054919597
0.011472699 -0.05954409 -0.05962523 0.1348356 0.040295873 0.04122265 -0.098079585 -0.106127456
0.036772307 0.06329584 -0.14402546 -0.11290502 0.020944403 0.12666781 -0.114942305 0.13237958
0.12136932 0.05712485 -0.0025628523 -0.06664856 -0.012861859 0.040227808 0.07150839 -0.0044463337
0.0200627 -0.006051949 -0.011406503 -0.020518916 0.019397952 0.01847511 -0.17979045 0.069286086
0.14311458 0.004637624 0.1564727 -0.055912558 0.07723294 0.0019288278 0.14776798 -0.04994967
0.13187955 0.08124838 0.06362992 0.06539075 -0.08301482 -0.03164705 -0.14686416 -0.013450198
0.056487504 0.105038755 0.116350085 -0.091721505 -0.008784803 0.03587935 -0.1215568 -0.1170821
0.07281239 -0.1375609 0.062112227 0.041694723 0.0087715555 -0.17571783 0.027015386 -0.017995123
-0.14263624 -0.087408654 0.0032952996 0.10575443 -0.0050094775 -0.07255805 -0.07637757 0.066243224
-0.045397617 0.0027932168 -0.030859148 -0.053898953 0.013204181 -0.13363469 -0.037918955 0.005442039
00000000: 69de 5b3d 284d aa3d 9d68 b83d 2c29 db3d
00000010: 29e3 94bc adff 52bd faa3 b9bd 94da 0ebd
00000020: 3f2e a2bc f36c aebd 80b9 fbbc ed98 babd
00000030: 85fc 043e ec1f 803d f1d3 d63d 86d1 713d
00000040: e6ae fcbc 3cbf 663d 98d7 f2bd c3f6 a3bd
00000050: 44e3 83bd c0cb e83d 378c 783d d3c5 c7bd
00000060: 4f5e d7bd ead4 043e 9bfd 393c 54ee 05be
00000070: 2597 f03b 8fdf c8bb 2e5b d63c 635a 1fbe
00000080: 3913 15bd e783 dc3d 17f3 b03d 79ae 5bbd
00000090: 9d5e 0b3d b1a6 be3c 4f68 963d 425c 1b3d
000000a0: ad04 f33c c1aa cd3d 9691 883d b18c 06be
000000b0: 8e00 94bd 1280 b73d 8ba6 143d f4e4 bfbd
000000c0: aae3 4bbc b452 a1bd 1cb2 a5bd c91b 783d
000000d0: ceb5 3c3d 8b13 dfbd 75ca 193d 7cd6 a23c
000000e0: 2a34 243c 3bdb 33be cea0 a8bd 9e0e df3c
000000f0: b047 71bd 12de 2f3d e183 00be 19e3 003e
00000100: da1e 073e 9441 063e 9edf 9a3d a17a 7fbe
00000110: 33fe 31be fcc4 183d 0324 8ebd d1f0 5a3e
00000120: 914a ff3d b9e9 293e b3ba aabd 0f5e 01be
00000130: 7a98 ab3c 1c5d a13d 1972 23be cdc1 043e
00000140: 6d1e 043e 3916 46bd 5f2c c93d 1c70 90be
00000150: c7b8 51bd ece2 993c 6790 033e 306b d63d
00000160: c297 0cbd 51fd 453e be06 143d 4285 38bd
00000170: 3b44 363e 7865 823c 9adc 033b 381d c7bd
00000180: 5442 31bd 692c ee3c 165f f03d abde f4bd
00000190: 05b6 d63c 54d3 03bd 3fd1 07be a167 f6bd
000001a0: 6533 483e 3e51 16be cff1 703d 8123 3bbd
000001b0: d615 82bd 04d7 773c 84b1 c5bd dc9e 333e
000001c0: 64e0 d8bd 7a6f e2bd 82c7 403d 085e 7b3d
000001d0: 1d56 9a3c 2e81 c63c b484 0f3b 9f9c c63d
000001e0: b72c f93c 02ee b2bc 0418 b3bd ede6 6f3d
000001f0: 82b5 f5bd d18d 31be 2b92 6e3d d646 05be
00000200: 3b9a 20be 95a1 07be 0683 243d f8fc 01bd
00000210: 6e64 173e 0ef7 423c a7f9 abbd 0689 0bbe
00000220: 3cb5 b9bd 6f83 953d 7313 97bd 934b fabd
00000230: ea59 953a 9bb2 a03c 5f39 7cbd 94c8 96bd
00000240: 1212 403d f6e2 aabc 9c49 623d eeca fabc
00000250: b5ec d9bd 39b2 8fbd 5107 da3d 8d1d 4d3c
00000260: a8a0 1e3d e653 0c3d 6575 933c ee37 a43d
00000270: 2d69 ef3d b3a3 993d 0c96 6f3d d4d1 df3c
00000280: e2ca 623c 327b 1cbe 5bf8 f0bc 726c 09bb
00000290: 36b0 c73d 5853 a5bc 9bb5 b63d 139b ce3c
000002a0: 07f0 09be 7de8 993c 7c69 8fbd 7966 90bd
000002b0: f625 013e 3411 533d 07ea 423d 5ff3 60bd
000002c0: fdf7 3b3c 81e4 73bd 9639 74bd 5812 0a3e
000002d0: 490d 253d 15d9 283d f3dd c8bd 5a59 d9bd
000002e0: 8f9e 163d 40a1 813d 697b 13be bf3a e7bd
000002f0: 9993 ab3c 35b5 013e df66 ebbd 838e 073e
00000300: 7a90 f83d bffb 693d 87f5 27bb 0a7f 88bd
00000310: 8cba 52bc eac5 243d fe72 923d 8db2 91bb
00000320: 885a a43c 6e4f c6bb 57e2 3abc 4917 a8bc
00000330: 74e8 9e3c 1d59 973c fd1a 38be dde5 8d3d
00000340: a18c 123e 36f7 973b 613a 203e 9104 65bd
00000350: 4e2c 9e3d b9d0 fc3a 7d50 173e 0698 4cbd
00000360: 6f0b 073e 8d65 a63d 6750 823d 96eb 853d
00000370: ad03 aabd 56a0 01bd 8f63 16be 385e 5cbc
00000380: 715f 673d 8f1e d73d f448 ee3d 7cd8 bbbd
00000390: 22ee 0fbc 3af6 123d c6f2 f8bd bdc8 efbd
000003a0: aa1e 953d c4dc 0cbe 6469 7e3d 16c8 2a3d
000003b0: 92b6 0f3c 60ef 33be 5f4f dd3c 826a 93bc
000003c0: 3c0f 12be 4f03 b3bd f4f5 573b c795 d83d
000003d0: 8b26 a4bb 5199 94bd d86b 9cbd 87aa 873d
000003e0: daf2 39bd 670e 373b 53cc fcbc 26c5 5cbd
000003f0: 5956 583c 88d7 08be e850 1bbd 2253 b23b

lstm.bias_ih_l0 f4 [256]
-0.03367019 0.15888818 -0.06634639 -0.07119654 0.08508944 -0.0799087 0.10730493 -0.05262641
0.06963865 -0.07394997 -0.14493819 -0.044720456 0.005917079 0.08099383 -0.049343247 0.018449008
-0.032261375 -0.0831353 0.047543876 0.098870136 0.09120204 -0.08742311 -0.065606706 0.099391006
-0.09534053 -0.053420223 -0.07230037 0.044171058 -0.07697496 -0.10828085 -0.0016358456 0.021529393
0.0035634357 0.007885313 0.12921298 -0.08168707 -0.030865606 -0.0772439 -0.017343378 -0.0884284
0.09195512 0.025035523 0.11106466 -0.03184634 -0.1048587 0.019160884 0.09533906 0.11973668
0.040377717 -0.06044412 -0.09175823 0.07812295 0.08496337 0.11465469 -0.08973452 -0.08852015
-0.09132926 -0.01272557 -0.018090295 0.12437915 -0.038237717 0.04744095 -0.12483057 -0.029505031
-0.07395982 0.051979683 0.14658974 -0.016844705 0.01098119 -0.03353014 -0.0042464123 0.012639086
0.027284702 0.024114093 0.10615241 0.11181218 0.04949425 -0.11102507 -0.105035074 -0.07811876
-0.032961126 -0.023880234 0.06280662 -0.09665807 -0.005485648 0.02045233 0.017867241 0.028532363
0.036526382 -0.0095812315 -0.007603039 0.016610399 -0.07392344 0.046553247 0.03887542 -0.0884686
-0.03317095 -0.1231209 -0.028751513 0.075630285 0.08375424 0.057276506 -0.01535659 -0.0132488115
0.09177674 -0.046456434 0.09269254 0.06378108 0.033895418 -0.084448114 -0.11203113 -0.07154399
-0.100910634 -0.077816926 -0.1108058 -0.10513943 -0.00701079 0.094385974 0.016759347 -0.1427279
0.12680271 -0.095343396 -0.109071225 0.095227845 -0.024814215 -0.077840924 -0.04125077 -0.082923
-0.0022038731 0.004296365 0.06960254 0.10760856 -0.11799003 0.04917636 -0.0130035905 -0.03142865
-0.041246243 -0.12412262 0.09374163 0.08161103 -0.072203346 -0.046274975 0.059732735 0.0066897958
0.028883737 0.070423625 -0.02674182 -0.061455477 -0.11329645 0.059733927 0.050584164 -0.02335874
-0.07096897 -0.05146862 -0.088993266 -0.07988595 0.121639594 -0.10595069 0.1172734 0.0709419
0.02193489 0.0876095 -0.0069337054 0.0035700295 -0.014404354 0.12969655 -0.007239409 -0.06661604
-0.10837187 0.016189976 -0.019889044 0.03806516 0.064816244 0.0039742733 -0.009410954 0.07488704
0.065644756 0.11275294 0.06004853 0.07325166 0.08608756 -0.110153496 -0.072909586 -0.033578753
0.0401913 -0.07448699 0.0065653506 -0.0012447847 0.07579157 0.09575187 0.010637311 -0.03978243
0.07717591 -0.005802496 0.121801145 -0.03446807 0.08650938 0.09999727 0.09212322 0.15124904
-0.00058482663 0.10999265 -0.10436663 -0.10669968 -0.10054249 -0.087421924 0.03683939 -0.074129686
0.030504154 -0.07727431 -0.05800087 -0.11138012 -0.13607946 0.15007603 -0.11017596 -0.047188718
-0.07442857 -0.075656645 -0.059626956 -0.021025868 0.042876363 0.070639774 0.08671966 0.04251549
-0.0746492 -0.10075195 0.070556186 -0.114365324 -0.14637844 -0.055815812 -0.06928485 0.12617223
0.0012136154 0.11299355 0.14626405 0.025806425 -0.057830133 0.087804265 -0.032607168 0.024806466
-0.0052220435 -0.11430372 0.11162139 0.03219004 0.038214996 -0.05728362 -0.03908079 0.084538236
-0.031577364 -0.03473224 0.12364759 0.15080331 0.13035671 0.08456912 0.03080711 -0.019153966
00000000: c1e9 09bd 95b3 223e 9ee0 87bd 7ecf 91bd
00000010: 5f43 ae3d 2ca7 a3bd b0c2 db3d ca8e 57bd
00000020: b59e 8e3d 1573 97bd ad6a 14be cc2c 37bd
00000030: 0ee4 c13b 18e0 a53d 251c 4abd 6022 973c
00000040: 8124 04bd d742 aabd 5ebd 423d 6d7c ca3d
00000050: 23c8 ba3d e30a b3bd cf5c 86bd 838d cb3d
00000060: e541 c3bd 2acf 5abd 3712 94bd b6ec 343d
00000070: 0ca5 9dbd 5ac2 ddbd df69 d6ba 695e b03c
00000080: 8888 693b 6631 013c 6850 043e 8d4b a7bd
00000090: ded9 fcbc 0d32 9ebd b313 8ebc f319 b5bd
000000a0: f752 bc3d 4c17 cd3c de75 e33d 4f71 02bd
000000b0: 28c0 d6bd 49f7 9c3c 2041 c33d 8138 f53d
000000c0: 1b63 253d 4194 77bd bdeb bbbd edfe 9f3d
000000d0: 4601 ae3d 14d0 ea3d bbc6 b7bd 0d4a b5bd
000000e0: d60a bbbd e97e 50bc 1932 94bc 7fba fe3d
000000f0: 279f 1cbd 7151 423d 2ba7 ffbd 89b4 f1bc
00000100: 3f78 97bd a6e8 543d 9f1b 163e e8fd 89bc
00000110: 73ea 333c e656 09bd 7d25 8bbb 2b14 4f3c
00000120: 2b84 df3c eb8a c53c 6f66 d93d c9fd e43d
00000130: 7cba 4a3d 1d61 e3bd a11c d7bd bafc 9fbd
00000140: 3f02 07bd 7ba0 c3bc c2a0 803d abf4 c5bd
00000150: f3c0 b3bb a58b a73c 525e 923c b4bc e93c
00000160: b09c 153d 99fa 1cbc ea22 f9bb 8812 883c
00000170: 2c65 97bd 9eae 3e3d d53b 1f3d 062f b5bd
00000180: 43de 07bd cf26 fcbd 4b88 ebbc 0de4 9a3d
00000190: 5887 ab3d c59a 6a3d 359a 7bbc 8b11 59bc
000001a0: 72f5 bb3d 1a49 3ebd 96d5 bd3d a89f 823d
000001b0: ecd5 0a3d 22f3 acbd 9470 e5bd a885 92bd
000001c0: 3caa cebd 7b5e 9fbd 27ee e2bd 5753 d7bd
000001d0: c5ba e5bb 6f4d c13d e64a 893c 4327 12be
000001e0: 92d8 013e 6643 c3bd bc60 dfbd d106 c33d
000001f0: 2e47 cbbc 106b 9fbd 91f6 28bd 89d3 a9bd
00000200: db6e 10bb 86c8 8c3b c78b 8e3d e061 dc3d
00000210: c2a4 f1bd 276d 493d 030d 55bc 54bb 00bd
00000220: d2f1 28bd 0034 febd 9dfb bf3d af23 a73d
00000230: 59df 93bd d48a 3dbd 50aa 743d 1336 db3b
00000240: 969d ec3c 433a 903d a911 dbbc bdb8 7bbd
00000250: f807 e8bd 90ab 743d 5731 4f3d d45a bfbc
00000260: 2e58 91bd c2d0 52bd 1a42 b6bd 3f9b a3bd
00000270: 2e1e f93d adfc d8bd 092d f03d fd49 913d
00000280: ccb0 b33c 9c6c b33d 2334 e3bb 28f7 693b
00000290: 3d00 6cbc 2ccf 043e 9038 edbb fe6d 88bd
000002a0: 12f2 ddbd d7a0 843c 59ee a2bc 37ea 1b3d
000002b0: 61be 843d 9f3a 823b 6730 1abc 605e 993d
000002c0: c270 863d 03eb e63d 73f5 753d f704 963d
000002d0: ad4e b03d 2898 e1bd 9f51 95bd e089 09bd
000002e0: a29f 243d a38c 98bd 2722 d73b 0b28 a3ba
000002f0: 9c38 9b3d 8e19 c43d 1e48 2e3c e7f2 22bd
00000300: 670e 9e3d dd22 bebb e172 f93d 642e 0dbd
00000310: d42b b13d 5ecb cc3d 19ab bc3d 07e1 1a3e
00000320: 0d4f 19ba d443 e13d 2cbe d5bd 5d85 dabd
00000330: 39e9 cdbd 440a b3bd e6e4 163d 4ed1 97bd
00000340: d9e3 f93c fe41 9ebd 5292 6dbd 431b e4bd
00000350: 6a58 0bbe 88ad 193e efa3 e1bd f548 41bd
00000360: 026e 98bd dff1 9abd 653b 74bd 713e acbc
00000370: 209f 2f3d 96ab 903d 149a b13d b924 2e3d
00000380: aee1 98bd 0a57 cebd c37f 903d 5e38 eabd
00000390: 3be4 15be 1f9f 64bd 37e5 8dbd 4b33 013e
000003a0: 2d12 9f3a 2a69 e73d 3ec6 153e ff67 d33c
000003b0: 4adf 6cbd b9d2 b33d 188f 05bd ee36 cb3c
000003c0: ad1d abbb 1218 eabd c199 e43d b4d9 033d
000003d0: 5487 1c3d 3ba2 6abd 2e13 20bd 6222 ad3d
000003e0: 4457 01bd 6543 0ebd f33a fd3d 2f6c 1a3e
000003f0: 3b7c 053e 9332 ad3d 315f fc3c c7e8 9cbc

lstm.bias_hh_l0 f4 [256]
0.07320974 -0.02155312 -0.040164106 -0.011479302 -0.10764271 -0.039105874 0.0680893 0.06104556
0.02558656 0.1109722 -0.08747526 -0.029868122 -0.017731603 0.096661784 0.04428075 -0.10031933
0.14959076 -0.048533518 0.09062544 -0.043635603 0.045229502 0.0018685317 0.03502208 0.11619243
0.004440729 0.048077878 -0.03140986 0.048814893 -0.0063358336 -0.031855773 0.014124212 0.079189636
-0.005639644 -0.068262845 0.031225182 0.0395691 -0.13819984 -0.097541966 -0.03509989 -0.02814964
-0.014455915 -0.003037224 0.08611584 -0.07956505 -0.11061484 0.089496225 0.04608959 -0.05243269
-0.0039750943 -0.11124893 0.03993424 -0.114499345 -0.07898425 0.10126156 -0.06483296 -0.13040887
0.04991259 -0.05324048 0.049903538 0.12985805 0.045771748 -0.08646252 -0.00070319313 0.032671038
0.116621085 -0.03312838 -0.070302665 -0.006873492 -0.08629531 -0.06516363 0.0754842 0.05222887
0.10022692 -0.08235446 0.03385607 0.0054520797 -0.112157315 -0.087817855 -0.029172802 0.06353209
0.0734602 -0.13423029 0.001872639 0.05202199 -0.09507972 -0.013148416 -0.0636662 -0.11660727
0.09472363 -0.09859141 0.058591142 -0.03880953 -0.10832999 0.037148744 -0.041490678 -0.010020613
-0.08999107 -0.02269063 0.10583586 0.013634004 -0.13513921 -0.13865426 -0.10921149 0.06718586
0.034799155 -0.07144972 0.06798671 -0.05910586 -0.016723258 -0.11599563 -0.016370382 0.12515002
0.00023888476 0.11236353 0.06878243 -0.01958137 0.09575172 -0.042657413 0.12627958 -0.030343603
-0.11796406 0.009222962 0.025520818 -0.07140111 0.08503156 -0.06793922 -0.12166805 -0.018542666
0.0074476902 0.08260879 -0.05645301 -0.07609996 0.013513883 0.108383305 0.10235075 -0.047612086
-0.0127059575 -0.025013076 0.11076468 0.007259247 0.021622187 0.021904303 -0.08420676 -0.016241455
-0.08453425 0.05121431 0.10997496 0.045737334 -0.04024751 0.09653998 0.010627667 -0.10375077
-0.112789 0.040347867 0.09914044 0.105450094 0.030485623 -0.08086554 -0.07378221 0.027652733
0.05553759 -0.033118565 0.0311482 0.07732718 0.07174498 -0.025525142 -0.034897342 -0.06047461
0.0016857916 -0.09656434 0.076102726 0.019855455 0.046916176 0.1006029 -0.009376048 -0.013401409
-0.044754725 0.054280344 0.034126602 0.06512488 0.007359765 0.03956487 -0.071888596 -0.05900522
-0.09794243 0.06878086 -0.11778951 -0.08191902 -0.023010442 -0.0019091859 0.069401756 0.11247096
-0.026550347 0.03985086 -0.07257067 -0.034390707 -0.052344523 -0.04204791 0.08187566 0.022461044
0.03113977 -0.08523181 -0.06649096 0.026108744 -0.057124052 0.14204307 -0.017176734 0.081038475
0.09976886 0.030235497 -0.13485469 0.07151664 -0.11869299 0.15094718 0.105377845 -0.041944094
0.003426384 0.0793448 -0.09179003 0.014920259 0.01766385 0.0020564012 0.092929274 -0.070712805
-0.1398777 -0.06933039 0.057581853 -0.028031714 -0.10399467 -0.08595782 0.057314966 -0.07259745
0.11665512 0.08132138 0.013989476 -0.02771297 -0.0059132488 0.06193298 0.021033302 -0.05641334
0.098774925 -0.031464122 0.06212886 0.10229683 0.05564723 0.10449887 -0.01334961 -0.10253161
0.08359243 0.086379826 0.13225232 0.14995675 0.07283826 -0.09232109 0.09700562 0.11960222
00000000: fdee 953d 2b90 b0bc 1e83 24bd af13 3cbc
00000010: c873 dcbd 7b2d 20bd 6772 8b3d e90a 7a3d
00000020: e89a d13c 6545 e33d 3b26 b3bd fead f4bc
00000030: de41 91bc 9df6 c53d bb5f 353d 3974 cdbd
00000040: 522e 193e 15cb 46bd d599 b93d 3fbb 32bd
00000050: 9242 393d 85e9 f43a 5073 0f3d 4cf6 ed3d
00000060: 8983 913b 4fed 443d a0a7 00bd 20f2 473d
00000070: d39c cfbb 337b 02bd 3d69 673c 2d2e a23d
00000080: c3cc b8bb 64cd 8bbd f4cb ff3c 3513 223d
00000090: 4284 0dbe 15c4 c7bd e7c4 0fbd 139a e6bc
000000a0: 81d8 6cbc 2a0c 47bb 805d b03d 00f3 a2bd
000000b0: 098a e2bd cc49 b73d 70c8 3c3d a9c3 56bd
000000c0: 8241 82bb 7bd6 e3bd 1692 233d a27e eabd
000000d0: 7fc2 a1bd 3962 cf3d 25c7 84bd e789 05be
000000e0: 2571 4c3d b112 5abd a767 4c3d 82f9 043e
000000f0: 287b 3b3d 4313 b1bd 7e56 38ba 11d2 053d
00000100: 09d7 ee3d a0b1 07bd d8fa 8fbd 083b e1bb
00000110: 98bb b0bd 8274 85bd 7697 9a3d f1ed 553d
00000120: c543 cd3d 75a9 a8bd aaac 0a3d 5ca7 b23b
00000130: bcb2 e5bd d9d9 b3bd cdfb eebc 1d1d 823d
00000140: 4d72 963d aa73 09be 5773 f53a 0315 553d
00000150: 28b9 c2bd 746c 57bc 6d63 82bd cbcf eebd
00000160: 76fe c13d 4bea c9bd 44fd 6f3d bef6 1ebd
00000170: 1ddc ddbd 4829 183d 21f2 29bd 7f2d 24bc
00000180: 3d4d b8bd b3e1 b9bc 79c0 d83d 2861 5f3c
00000190: ef61 0abe 62fb 0dbe 46aa dfbd bd98 893d
000001a0: 8f89 0e3d 3b54 92bd 9e3c 8b3d fc18 72bd
000001b0: 37ff 88bc 1e8f edbd 2e1b 86bc 5427 003e
000001c0: 247d 7a39 da1e e63d cddd 8c3d 1c69 a0bc
000001d0: 7a19 c43d 8ab9 2ebd 6f4f 013e 2693 f8bc
000001e0: 2497 f1bd e81b 173c 0911 d13c bf3a 92bd
000001f0: 0725 ae3d b823 8bbd 192d f9bd cae6 97bc
00000200: c10b f43b cc2e a93d 453b 67bd 4cda 9bbd
00000210: 5569 5d3c 11f8 dd3d 459d d13d e404 43bd
00000220: a62c 50bc 39e8 ccbc 98d8 e23d fade ed3b
00000230: 0321 b13c a770 b33c 9874 acbd cd0c 85bc
00000240: 4b20 adbd 19c6 513d 8d3a e13d 1257 3b3d
00000250: 93da 24bd c1b6 c53d ab1f 2e3c 497b d4bd
00000260: ebfd e6bd ce43 253d 250a cb3d 38f6 d73d
00000270: fcbc f93c d59c a5bd 211b 97bd fc87 e23c
00000280: 627b 633d 55a7 07bd 832a ff3c b65d 9e3d
00000290: 08ef 923d 1a1a d1bc 84f0 0ebd 3ab4 77bd
000002a0: c8f5 dc3a 86c3 c5bd bfdb 9b3d e8a7 a23c
000002b0: 2d2b 403d e508 ce3d ff9d 19bc 9591 5bbc
000002c0: bb50 37bd 1155 5e3d 56c8 0b3d 3160 853d
000002d0: 2f2a f13b c60e 223d 543a 93bd 75af 71bd
000002e0: 0a96 c8bd fbdc 8c3d a03b f1bd 29c5 a7bd
000002f0: 6580 bcbc a63d faba 8222 8e3d 2d57 e63d
00000300: 1d80 d9bc a83a 233d ee9f 94bd 45dd 0cbd
00000310: 3667 56bd 6e3a 2cbd 6dae a73d 3900 b83c
00000320: d518 ff3c 048e aebd 6a2c 88bd 01e2 d53c
00000330: e9fa 69bd bd73 113e 39b6 8cbc 80f7 a53d
00000340: 9e53 cc3d 6fb0 f73c 5917 0abe 5177 923d
00000350: 4f15 f3bd e691 1a3e 57d0 d73d 92cd 2bbd
00000360: 2f8d 603b 877f a23d 69fc bbbd 1a74 743c
00000370: c7b3 903c b0c4 063b b451 be3d e0d1 90bd
00000380: 1a3c 0fbe 17fd 8dbd f3da 6b3d c4a2 e5bc
00000390: 28fb d4bd a70a b0bd 19c3 6a3d f9ad 94bd
000003a0: e1e8 ee3d d38b a63d 1d34 653c 4f06 e3bc
000003b0: edc3 c1bb 70ad 7d3d 084e ac3c ad11 67bd
000003c0: 824a ca3d 86e0 00bd d57a 7e3d 0081 d13d
000003d0: 5aee 633d 8103 d63d 53b8 5abc 18fc d1bd
000003e0: 8232 ab3d e8e7 b03d 276d 073e 438e 193e
000003f0: 3a2c 953d d712 bdbd e2aa c63d 02f2 f43d

lstm.weight_ih_l1 f4 [256, 64]
-0.14026023 0.006499568 0.057892084 -0.055321395 0.037030675 -0.0070139887 0.015281092 -0.08014362
-0.050913706 -0.038452666 -0.047266275 0.054746892 -0.01797015 -0.03252796 -0.117327444 0.08228324
-0.045348372 0.06752437 0.09153941 -0.14401335 -0.079009 -0.08369561 -0.05615757 0.027427115
-0.109937795 0.18476796 -0.084289834 0.002071532 0.10742128 0.033905692 0.032436058 0.057113774
0.098826304 0.18696024 -0.032792248 -0.1293924 0.008673408 -0.07242674 -0.0029541415 -0.107342966
-0.12174346 -0.03965515 0.08344201 0.12538706 -0.07750325 0.046761435 -0.082297385 0.010551167
-0.18935953 0.13345377 -0.13812222 0.0405199 -0.08462993 0.06927613 -0.10791629 0.037259035
-0.10904085 0.010410788 0.025871774 0.1220426 0.017334305 0.11649956 0.03504404 0.11672503
0.09534158 -0.01258425 0.0335718 -0.14817788 0.0047896337 0.0938728 0.05386419 -0.08237721
-0.06409302 0.07700866 -0.08491681 0.09805857 -0.048423205 0.03503666 -0.045406405 0.004275414
-0.07505969 -0.025236852 -0.013820261 0.007176069 0.008060123 -0.04414627 0.09871657 0.111614324
-0.07901478 0.060808938 -0.03258579 0.08873934 0.03554113 -0.028457994 -0.058223035 -0.042630613
-0.11882278 -0.07607907 0.07316018 -0.045022003 -0.08914757 -0.011811087 -0.025220621 0.034954328
0.095687434 0.08336109 0.045897175 0.12567128 0.10195149 -0.031131456 -0.1596301 0.007416858
0.041627273 0.058435183 -0.038532436 -0.01577177 0.060799204 0.035085127 0.099091694 0.06952002
-0.038934942 -0.09744006 0.030629808 -0.08926039 -0.05054613 0.0140455235 -0.040303368 -0.08432683
0.047714993 0.064062715 -0.014968873 -0.025473049 -0.03031068 0.07392779 0.06817813 -0.13735272
-0.07481755 -0.002934279 -0.11828795 -0.11905378 0.026176002 -0.044088576 -0.098985575 0.11466295
-0.10124343 -0.12485347 0.022232268 -0.10589577 0.12553065 -0.00058872276 -0.027152238 0.015433741
-0.06275208 0.04376296 0.07544956 0.109324954 -0.058401078 0.05906118 -0.13173983 0.06458845
-0.09375041 -0.020406809 -0.14687793 0.05955513 0.08170621 0.025771027 0.13581319 -0.0990206
-0.13089003 0.0794854 0.047209207 0.042998962 -0.048687328 -0.05303795 0.13300072 0.011644638
-0.13980561 0.08950561 -0.014487237 -0.10655282 -0.028603727 -0.121819325 -0.04096507 -0.0046715154
-0.04605352 0.06483986 -0.08436756 0.136682 -0.118416496 -0.10141172 -0.02618793 0.0996062
-0.017406018 -0.03417985 0.08609809 0.0034632797 -0.12775871 -0.10201883 0.07761545 0.07121193
0.08893294 -0.027136702 -0.052206982 0.10778475 0.100830585 -0.08776388 -0.036647957 0.114909016
0.15963086 -0.16399533 0.11210224 -0.075769514 0.14922284 -0.1204131 -0.007972978 0.16329831
-0.020218646 -0.05866781 0.095035754 0.0068726386 0.11687526 -0.043640837 0.010018176 0.009584623
-0.021612233 0.1251528 0.025338598 -0.073292 0.02890932 0.053261153 -0.104610495 -0.031127391
0.15562509 -0.10139226 0.07086378 0.100434646 0.036535807 -0.04337342 -0.016554302 0.1695659
-0.025283542 -0.058205925 0.12525737 0.013147179 0.059959725 -0.12513532 -0.0046811397 -0.11197223
-0.10985261 0.14664778 0.007625639 -0.13498843 -0.13511415 -0.0077872076 -0.08819243 -0.1264387
00000000: 61a0 0fbe 54fa d43b 4020 6d3d b098 62bd
00000010: 7aad 173d 9ad5 e5bb 8c5d 7a3c 5722 a4bd
00000020: e48a 50bd 8b80 1dbd 489a 41bd 473e 603d
00000030: 2336 93bc 0a3c 05bd 5f49 f0bd 1e84 a83d
00000040: 37bf 39bd 384a 8a3d 0479 bb3d 3c78 13be
00000050: 78cf a1bd 9b68 abbd 7b05 66bd d4ae e03c
00000060: 1127 e1bd d033 3d3e 26a0 acbd 8ac2 073b
00000070: b0ff db3d b2e0 0a3d acdb 043d 22f0 693d
00000080: 7265 ca3d 8172 3f3e 2a51 06bd 717f 04be
00000090: e91a 0e3c 7854 94bd 459a 41bb a1d6 dbbd
000000a0: a354 f9bd 706d 22bd a5e3 aa3d 7765 003e
000000b0: 06ba 9ebd eb88 3f3d 888b a8bd cdde 2c3c
000000c0: 77e7 41be 1ba8 083e e96f 0dbe 32f8 253d
000000d0: 7552 adbd a5e0 8d3d 3703 ddbd ee9c 183d
000000e0: cf50 dfbd 0292 2a3c 0bf1 d33c 78f1 f93d
000000f0: ac00 8e3c 5297 ee3d 578a 0f3d 880d ef3d
00000100: 7242 c33d 2c2e 4ebc 9582 093d f1bb 17be
00000110: 5cf2 9c3b 6240 c03d b2a0 5c3d 62b5 a8bd
00000120: 3443 83bd b7b6 9d3d dde8 adbd eed2 c83d
00000130: 6957 46bd 9a82 0f3d 11fc 39bd c618 8c3b
00000140: e5b8 99bd 84bd cebc 606e 62bc 3b25 eb3b
00000150: 9b0e 043c b8d2 34bd ea2b ca3d 0d96 e43d
00000160: 80d2 a1bd cb12 793d ad78 05bd f9bc b53d
00000170: 9393 113d bd20 e9bc 477b 6ebd 709d 2ebd
00000180: 5c59 f3bd 58cf 9bbd 01d5 953d fe68 38bd
00000190: 0093 b6bd 4a83 41bc 7a9b cebc 452c 0f3d
000001a0: c6f7 c33d 38b9 aa3d adfe 3b3d f9af 003e
000001b0: f1cb d03d 6507 ffbc 1376 23be 1d09 f33b
000001c0: 5c81 2a3d bb59 6f3d 30d4 1dbd cd33 81bc
000001d0: 9608 793d 6cb5 0f3d 96f0 ca3d 8360 8e3d
000001e0: 3f7a 1fbd a78e c7bd 5deb fa3c 27ce b6bd
000001f0: 7509 4fbd 321f 663c 2515 25bd 8cb3 acbd
00000200: cc70 433d 5033 833d 0140 75bc dbac d0bc
00000210: 1a4e f8bc 7467 973d faa0 8b3d 31a6 0cbe
00000220: f239 99bd 084d 40bb f440 f2bd 78d2 f3bd
00000230: 0e6f d63c 3996 34bd f3b8 cabd 69d4 ea3d
00000240: b758 cfbd 2db3 ffbd 7220 b63c e2df d8bd
00000250: 1b8b 003e 8454 1aba 5f6e debc cddd 7c3c
00000260: 2a84 80bd ca40 333d 4d85 9a3d c3e5 df3d
00000270: f835 6fbd 23ea 713d cee6 06be f346 843d
00000280: 3700 c0bd 2e2c a7bc 2b67 16be 14f0 733d
00000290: 9655 a73d c31d d33c 9d12 0b3e 50cb cabd
000002a0: 0908 06be 3ec9 a23d 715e 413d ae1f 303d
000002b0: 5d6c 47bd 523e 59bd 5731 083e 27c9 3e3c
000002c0: 3429 0fbe b84e b73d e05b 6dbc 5d38 dabd
000002d0: 5d52 eabc 697c f9bd fdca 27bd 8313 99bb
000002e0: 9ea2 3cbd c3ca 843d e6c8 acbd 5ef6 0b3e
000002f0: 5984 f2bd f3b0 cfbd 1288 d6bc 56fe cb3d
00000300: 1197 8ebc 2c00 0cbd 3254 b03d 31f8 623b
00000310: 2ed3 02be 40ef d0bd d9f4 9e3d 8fd7 913d
00000320: 7922 b63d ca4d debc fdd6 55bd 40be dc3d
00000330: 4480 ce3d 8dbd b3bd 2b1c 16bd 6b55 eb3d
00000340: 4676 233e 64ee 27be dc95 e53d 0c2d 9bbd
00000350: dfcd 183e 259b f6bd 18a1 02bc ac37 273e
00000360: 93a1 a5bc a84d 70bd 1ba2 c23d df33 e13b
00000370: 4c5c ef3d bcc0 32bd 4723 243c d308 1d3c
00000380: 230c b1bc 0e28 003e e492 cf3c 1e1a 96bd
00000390: 3dd3 ec3c 5e28 5a3d 073e d6bd dffe febc
000003a0: 2f5c 1f3e bfa6 cfbd 0821 913d aeb0 cd3d
000003b0: 92a6 153d 54a8 31bd e39c 87bc afa2 2d3e
000003c0: 6e1f cfbc 5669 6ebd 7843 003e 4467 573c
000003d0: 5498 753d 7923 00be 3f64 99bb b251 e5bd
000003e0: 68fa e0bd d62a 163e 7fe0 f93b 683a 0abe
000003f0: 5d5b 0abe d52b ffbb 3c9e b4bd 2679 01be

lstm.weight_hh_l1 f4 [256, 64]
-0.08018293 -0.015184278 -0.12221734 -0.03809564 -0.07202421 -0.12767409 -0.04463773 0.07307555
0.024680816 0.11547132 -0.04900665 -0.108895645 0.019874781 0.025540862 -0.043994334 0.05406418
-0.0034616056 0.10277386 -0.16763756 0.011285251 -0.050658662 -0.088283196 0.0023602415 -0.008769755
0.10066167 -0.098018415 -0.12814887 0.15427972 -0.04101711 0.016010307 -0.18590511 0.018961268
0.057488732 0.12182628 -0.07471264 -0.1125086 0.018125834 -0.087145865 -0.15844615 -0.16910693
-0.023698153 -0.11698377 -0.039932705 -0.17746265 -0.10877193 -0.01336874 0.012107576 -0.13915923
0.0025910535 0.02689968 -0.06954118 0.11635736 0.029948626 0.090359144 -0.043073427 0.050769266
0.14896068 -0.08678479 0.13270637 -0.14100686 -0.11159985 0.10268734 -0.13499252 0.09617211
-0.0659955 0.10146748 -0.01927021 0.15318634 -0.03248361 0.0033181896 -0.07042873 -0.113478325
-0.17400889 0.04478091 0.17509656 -0.06773088 0.1527029 -0.12594463 -0.085457005 0.03966288
-0.025307281 -0.07329224 -0.19937113 0.055622518 -0.09574465 -0.01715041 0.060174983 0.05965517
-0.12514631 -0.05275327 -0.010531222 0.15697479 0.067778625 0.031191515 0.007688594 -0.1528036
-0.09825764 0.0100813955 -0.08701429 -0.11244999 0.14071418 -0.091020934 -0.012111403 0.038283665
0.071805626 -0.09485079 -0.06478723 0.040801536 -0.05688244 -0.07673623 0.014670635 -0.028085496
0.06818092 -0.03618367 0.034895107 0.2110093 0.11214189 -0.022528779 0.09425282 0.076923236
0.037654035 0.14136308 0.087964214 -0.13309559 0.0010907303 -0.08037323 -0.08249196 -0.12508883
0.08211709 -0.08213538 0.04970941 -0.09435856 0.015440409 -0.119622506 -0.012567054 -0.07709362
0.07785537 -0.10427748 0.12704892 0.11112844 -0.04822668 -0.10140322 -0.06597837 -0.122614145
0.06224014 -0.015783092 0.105235934 -0.009005916 0.0022556763 0.027218152 0.14348064 0.07202758
0.04598823 -0.10226331 0.09816584 -0.032001846 -0.011968948 0.07702018 0.13395517 0.07403698
0.093281865 0.0071633803 -0.115009494 -0.023844562 0.092817344 0.08957239 -0.03631484 0.120578505
0.009956347 -0.08021801 -0.13198338 0.042331614 -0.011900777 -0.0929985 -0.08920801 -0.053257577
0.10355458 -0.09865476 -0.09501473 -0.057747826 -0.11678765 -0.08974158 -0.10723729 0.0029379865
-0.10336434 -0.010967101 -0.0653374 0.04729956 0.098152116 -0.0940759 -0.03593702 -0.062044676
0.052333463 0.07410778 0.0047226446 -0.06722822 0.11306742 0.059829604 0.053603005 -0.12165585
0.051371474 -0.011104465 0.027563961 -0.16757771 0.114211865 0.052801065 -0.033621743 0.058433656
0.1687766 0.007927762 -0.14825019 -0.122044764 0.030929469 -0.15322883 0.023299422 -0.011234229
0.055392396 -0.093102776 -0.16632593 0.07790664 0.042778928 0.03744032 0.024039317 0.010888421
-0.012245918 -0.11991706 -0.002374133 -0.06770825 0.035733078 0.0038257844 0.04311699 -0.06493714
0.015596419 -0.022956865 0.002748104 -0.018045073 -0.13610782 -0.053632837 0.0066666636 0.035407934
0.01620982 -0.1058205 -0.1422344 0.12654495 -0.09024523 -0.064307675 -0.09859205 0.1503385
0.048022836 0.016646985 -0.1376991 -0.041486975 0.15450004 0.028851314 0.05351582 -0.069404066
00000000: f336 a4bd 7ac7 78bc 164d fabd 2c0a 1cbd
00000010: 6e81 93bd ffbc 02be 0dd6 36bd a2a8 953d
00000020: 6c2f ca3c 3a7c ec3d 32bb 48bd ae04 dfbd
00000030: 70d0 a23c 123b d13c 6733 34bd 6772 5d3d
00000040: 1bdc 62bb 1a7b d23d 2ea9 2bbe c6e5 383c
00000050: 757f 4fbd d2cd b4bd 48ae 1a3b 05af 0fbc
00000060: b527 ce3d e1bd c8bd 7539 03be 81fb 1d3e
00000070: 8f01 28bd 0c28 833c e95d 3ebe a954 9b3c
00000080: 4e79 6b3d 0f80 f93d f102 99bd e96a e6bd
00000090: a17c 943c 8879 b2bd b53f 22be 5e2a 2dbe
000000a0: a122 c2bc 3095 efbd 7a90 23bd c5b8 35be
000000b0: d1c3 debd 8f08 5bbc db5e 463c c27f 0ebe
000000c0: aace 293b b85c dc3c 9b6b 8ebd c44c ee3d
000000d0: d256 f53c 370e b93d c36d 30bd 6ff3 4f3d
000000e0: 2689 183e 39bc b1bd 2ee4 073e 1a64 10be
000000f0: 768e e4bd bd4d d23d 7b3b 0abe e2f5 c43d
00000100: a628 87bd 2fce cf3d 8fdc 9dbc e1dc 1c3e
00000110: 890d 05bd fc75 593b f03c 90bd 5367 e8bd
00000120: 632f 32be 306c 373d 834c 333e 7db6 8abd
00000130: 265e 1c3e a1f7 00be 1504 afbd 8b75 223d
00000140: 3751 cfbc 3e1a 96bd f227 4cbe 70d4 633d
00000150: c515 c4bd 047f 8cbc 0b7a 763d fb58 743d
00000160: 5b26 00be d013 58bd 268b 2cbc 00be 203e
00000170: 85cf 8a3d 5985 ff3c 9af0 fb3b 8c78 1cbe
00000180: 4d3b c9bd 702c 253c 8c34 b2bd 2e4c e6bd
00000190: 6117 103e 2f69 babd e86e 46bc 55cf 1c3d
000001a0: d40e 933d 2241 c2bd 2baf 84bd 831f 273d
000001b0: 90fd 68bd e227 9dbd 1a5d 703c 8e13 e6bc
000001c0: 70a2 8b3d 5435 14bd 2cee 0e3d d212 583e
000001d0: a6aa e53d 468e b8bc 9f07 c13d ee89 9d3d
000001e0: 1e3b 1a3d 7cc1 103e 9526 b43d 364a 08be
000001f0: d6f6 8e3a b89a a4bd 8bf1 a8bd 4917 00be
00000200: 012d a83d 9836 a8bd 189c 4b3d 103f c1bd
00000210: c5f9 7c3c a5fc f4bd 0be6 4dbc 43e3 9dbd
00000220: a372 9f3d 6e8f d5bd 1d19 023e 4f97 e33d
00000230: 5789 45bd 7eac cfbd ab1f 87bd 201d fbbd
00000240: 84ef 7e3d 8b4b 81bc f085 d73d 8d8d 13bc
00000250: f8d3 133b 9af8 de3c 97ec 123e 3283 933d
00000260: 275e 3c3d 6d6f d1bd 2c0b c93d 5e14 03bd
00000270: 6819 44bc c2bc 9d3d 8b2b 093e b3a0 973d
00000280: 900a bf3d caba ea3b 198a ebbd ac55 c3bc
00000290: 0517 be3d bb71 b73d dfbe 14bd ddf1 f63d
000002a0: f21f 233c 5749 a4bd a726 07be ea63 2d3d
000002b0: 7afb 42bc ff75 bebd b0b2 b6bd 9e24 5abd
000002c0: 6c14 d43d 820b cabd 1597 c2bd fc88 6cbd
000002d0: 5d2e efbd 6fca b7bd 399f dbbd 3c8b 403b
000002e0: afb0 d3bd 5baf 33bc 9dcf 85bd 2fbd 413d
000002f0: fa03 c93d deaa c0bd b232 13bd 8f22 7ebd
00000300: 9d5b 563d d2c5 973d 6ac0 9a3b f3ae 89bd
00000310: e48f e73d e30f 753d d38e 5b3d b426 f9bd
00000320: e56a 523d 81ef 35bc d1cd e13c 7e99 2bbe
00000330: e9e7 e93d ee45 583d f4b6 09bd 2158 6f3d
00000340: c6d3 2c3e 72e3 013c e6ce 17be 9bf2 f9bd
00000350: cc5f fd3c 05e8 1cbe 6ede be3c c60f 38bc
00000360: 23e3 623d abac bebd 5851 2abe 848d 9f3d
00000370: f538 2f3d 055b 193d 1aee c43c 5965 323c
00000380: 1aa3 48bc 1397 f5bd 5897 1bbb 9faa 8abd
00000390: d95c 123d 03ba 7a3b 719b 303d c3fd 84bd
000003a0: 1f88 7f3c 0910 bcbc 8919 343b 43d3 93bc
000003b0: d95f 0bbe 1bae 5bbd 0774 da3b e907 113d
000003c0: 75ca 843c 6bb8 d8bd e5a5 11be 0095 013e
000003d0: 7ed2 b8bd beb3 83bd a1ea c9bd 56f2 193e
000003e0: 98b3 443d 425f 883c fe00 0dbe 3fee 29bd
000003f0: 4235 1e3e 9759 ec3c 6833 5b3d b823 8ebd

lstm.bias_ih_l1 f4 [256]
-0.011699864 0.14289486 0.06109367 0.0284173 0.048693877 0.07019183 -0.07260125 0.04322005
0.006587062 0.077743694 0.007735863 -0.07524984 0.05370151 -0.1155901 0.04773706 -0.09056428
0.04107056 -0.07610505 0.08433638 0.08732586 -0.0069111804 -0.022807965 -0.06544955 -0.015799768
0.029881805 -0.054144304 -0.12679091 -0.08768644 0.0031920925 0.00038225504 -0.04958838 -0.031686336
0.116996475 -0.104470134 0.07170749 0.0097699985 -0.021030124 -0.013858625 -0.022001538 0.0015810666
-0.088654466 0.06689852 0.05831277 -0.079317674 -0.1341921 -0.06939362 0.09086039 -0.038472317
0.024276057 -0.03981244 0.07877552 0.06960435 0.00024929715 0.0246361 0.11321415 -0.05857519
0.05724008 0.07498903 -0.040316712 0.06298351 0.04486732 -0.04385398 0.0769612 0.050315633
0.0693121 -0.023531642 -0.0751292 -0.082148425 0.03834617 -0.015583576 -0.044577148 -0.06713673
-0.08689508 -0.04651218 0.0119580515 0.06259182 -0.113521 -0.016509471 0.05404201 0.08093492
0.089530386 -0.059899513 0.007754808 -0.008584295 -0.09394462 0.05655009 0.053297326 -0.046743125
0.051785633 -0.060007345 -0.05014437 -0.03399706 0.03812376 -0.026795808 0.028545525 -0.017424399
0.017682133 -0.05338501 0.0047222595 0.011856926 -0.06651488 -0.059787277 0.06308131 0.09303279
-0.08664369 0.08054589 -0.08844365 -0.08584002 -0.014805053 -0.11855843 -0.04081464 -0.10291075
0.029280424 -0.09514442 0.012291125 0.036721457 -0.03367659 0.11697953 0.12727258 0.13142988
0.13101918 -0.0010546772 0.02503908 -0.031841073 0.052057624 0.08925026 -0.12665753 0.015040871
0.112119466 -0.023906628 -0.061318967 0.10574195 0.0106029995 -0.10623273 0.026309296 -0.042909175
-0.05075066 -0.04976656 -0.02534715 -0.04571277 0.07778345 0.08505549 -0.010552974 -0.03721854
0.08172327 0.02709094 0.034667652 -0.058705762 -0.0010166906 0.006400529 0.10808836 0.031836975
-0.0019409265 -0.09621416 -0.036618665 0.06984988 -0.03964412 -0.076207094 -0.11160763 -0.10006658
0.018665044 0.023350053 -0.03793122 -0.09391108 0.11391306 0.08089224 0.07829147 -0.06526626
-0.035464816 0.011092614 -0.0928776 -0.033403903 -0.052493572 0.07524089 -0.017548352 -0.12500165
-0.03306852 0.07801259 -0.051697955 0.08982552 -0.043792535 -0.044017285 -0.06925133 -0.014487463
0.051474057 0.040275514 0.092832 0.06395622 -0.05813426 -0.12137031 -0.11865341 -0.025597954
0.040668156 -0.010244987 -0.07358854 -0.0966138 0.10447359 -0.019409101 -0.0590061 -0.008006603
-0.1525684 0.10311142 0.036556866 0.018329944 0.11143063 -0.11007167 0.030892849 0.086691484
-0.069495976 -0.03901507 -0.06325169 -0.04174493 0.12629944 0.0005500856 0.024063045 -0.002615871
-0.054637846 0.014650079 -0.122907236 0.034434885 0.117101036 -0.047843628 0.010481752 0.0720402
0.12385249 -0.063410394 0.070862025 0.096089154 -0.09480496 -0.053398345 0.084144324 0.086034134
0.06415298 0.034170188 -0.012471892 -0.059934776 0.010662979 0.08207806 -0.0012979289 -0.103009805
-0.091159366 -0.07636462 -0.045212053 0.15837802 0.025187371 0.062181056 -0.06541103 0.14579809
0.10937955 0.11839355 0.012567268 0.0028815423 0.08958207 -0.053281594 -0.05244731 0.084323116
00000000: c9b0 3fbc 0853 123e 5b3d 7a3d 66cb e83c
00000010: 3b73 473d bcc0 8f3d f7af 94bd 8207 313d
00000020: 48d8 d73b 1638 9f3d 1f7d fd3b 971c 9abd
00000030: 1df6 5b3d 81ba ecbd ef87 433d c479 b9bd
00000040: 9b39 283d f7dc 9bbd 8db8 ac3d e7d7 b23d
00000050: 2f77 e2bb c5d7 babc 6a0a 86bd 846e 81bc
00000060: b0ca f43c 6bc6 5dbd 7ad5 01be f394 b3bd
00000070: 6d32 513b 6769 c839 2f1d 4bbd 88c9 01bd
00000080: d99b ef3d 70f4 d5bd 60db 923d 5812 203c
00000090: 5e47 acbc 490f 63bc 923c b4bc cb3b cf3a
000000a0: 7990 b5bd 1702 893d 5fd9 6e3d 4e71 a2bd
000000b0: a769 09be 3e1e 8ebd 0315 ba3d 2695 1dbd
000000c0: 95de c63c 5e12 23bd 0f55 a13d ba8c 8e3d
000000d0: 19b4 8239 a5d1 c93c d2dc e73d 8aec 6fbd
000000e0: 9374 6a3d d993 993d 2323 25bd 80fd 803d
000000f0: ccc6 373d 3ba0 33bd d59d 9d3d c417 4e3d
00000100: 81f3 8d3d 6ec5 c0bc 57dd 99bd 6f3d a8bd
00000110: e010 1d3d 4152 7fbc 8796 36bd fb7e 89bd
00000120: 0cf6 b1bd 8e83 3ebd b4eb 433c 2430 803d
00000130: b37d e8bd df3e 87bc 285b 5d3d 35c1 a53d
00000140: b55b b73d 3159 75bd 0b1c fe3b 25a5 0cbc
00000150: 0966 c0bd 11a1 673d 4c4e 5a3d b875 3fbd
00000160: 2c1d 543d 43ca 75bd 2f64 4dbd 8040 0bbd
00000170: a927 1c3d e282 dbbc 4ed8 e93c 9dbd 8ebc
00000180: 1fda 903c 3eaa 5abd 2fbd 9a3b 8d43 423c
00000190: f438 88bd 81e3 74bd c630 813d fa87 be3d
000001a0: 3f72 b1bd 3ef5 a43d f221 b5bd e4cc afbd
000001b0: e590 72bc c3ce f2bd 402d 27bd dfc2 d2bd
000001c0: 80dd ef3c 14db c2bd b760 493c 3d69 163d
000001d0: 77f0 09bd f792 ef3d be53 023e 8e95 063e
000001e0: e429 063e 183d 8aba c21e cd3c c96b 02bd
000001f0: 603a 553d d7c8 b63d 83b2 01be fc6d 763c
00000200: e49e e53d d5d7 c3bc 9929 7bbd 3c8f d83d
00000210: 34b8 2d3c 8c90 d9bd 9886 d73c 88c1 2fbd
00000220: eddf 4fbd 05d8 4bbd d4a4 cfbc 503d 3bbd
00000230: ee4c 9f3d 9331 ae3d 62e6 2cbc 7872 18bd
00000240: 885e a73d d2ed dd3c abff 0d3d 7475 70bd
00000250: 7a42 85ba 87bb d13b 6e5d dd3d 7d67 023d
00000260: b066 feba ee0b c5bd 74fd 15bd 740d 8f3d
00000270: df61 22bd 7712 9cbd 8b92 e4bd b5ef ccbd
00000280: 6fe7 983c 9c48 bf3c c45d 1bbd 7454 c0bd
00000290: 404b e93d d5aa a53d 4757 a03d 51aa 85bd
000002a0: 8e43 11bd ccbd 353c 9c36 bebd 88d2 08bd
000002b0: 8003 57bd e517 9a3d 90c1 8fbc 6f00 00be
000002c0: db72 07bd 11c5 9f3d 3cc1 53bd 71f6 b73d
000002d0: cd5f 33bd 784b 34bd a4d3 8dbd d35c 6dbc
000002e0: 76d6 523d f0f7 243d b41e be3d 7bfb 823d
000002f0: 311e 6ebd ff90 f8bd 8f00 f3bd cdb2 d1bc
00000300: a793 263d 97da 27bc 97b5 96bd 75dd c5bd
00000310: 40f6 d53d d6ff 9ebc 61b0 71bd 212e 03bc
00000320: e43a 1cbe 152c d33d a7bc 153d ae28 963c
00000330: be35 e43d 416d e1bd 0013 fd3c 4e8b b13d
00000340: e853 8ebd 44ce 1fbd 1a8a 81bd bbfc 2abd
00000350: a454 013e 9f33 103a dd1f c53c 086f 2bbb
00000360: efcb 5fbd e306 703c cab6 fbbd 980b 0d3d
00000370: abd2 ef3d aef7 43bd a8bb 2b3c d089 933d
00000380: 60a6 fd3d 4fdd 81bd 1c20 913d 64ca c43d
00000390: 1a29 c2bd 39b8 5abd dc53 ac3d aa32 b03d
000003a0: a362 833d 0af6 0b3d e856 4cbc 2b7e 75bd
000003b0: c7b3 2e3c 8b18 a83d 441f aaba cef6 d2bd
000003c0: c3b1 babd 0e65 9cbd 4630 39bd d92d 223e
000003d0: bf55 ce3c 90b1 7e3d 38f6 85bd 184c 153e
000003e0: 6302 e03d 5178 f23d f1e6 4d3c 42d8 3c3b
000003f0: ce76 b73d cd3d 5abd fed2 56bd 99b1 ac3d
