04_Models/weekly/HBEA/sentiment/best_model.pth (torch, 945013 bytes, 11 tensors)

lstm.weight_ih_l0 f4 [512, 63]
0	0x3d1b6158	0.03793463
1	0xbbe6c9e2	-0.0070431093
2	0xbd92688f	-0.07148849
3	0x3daca0bc	0.08429095
4	0x3d63ac8d	0.05558448
5	0x3d84a600	0.064769745
6	0xbd117bb9	-0.03551838
7	0x3d7d2116	0.06179913
8	0x3d72f736	0.05931779
9	0x3c5a4236	0.01332145
10	0xbd4b54fb	-0.04964159
11	0xbc0e2d16	-0.0086777415
12	0x3cc6b401	0.024255754
13	0xbd4390db	-0.047745567
14	0x3d79a012	0.06094367
15	0x3d3254c4	0.04353787
16	0xbcf3006b	-0.029663285
17	0x3d8b9fd5	0.06817595
18	0x3d9f6a5c	0.07783958
19	0xbd7377f8	-0.059440583
20	0xbd5a1465	-0.053242106
21	0xbc530785	-0.012880211
22	0xbcd07f1a	-0.025451232
23	0x3daa1438	0.08304638
24	0x3d3aee35	0.04563733
25	0x3d9e5fcd	0.07733116
26	0xbbd0764e	-0.0063617593
27	0x3cda8eb1	0.026679369
28	0x3cac76ee	0.021052804
29	0x3d4ebf5b	0.05047546
30	0x3d60dc63	0.054897677
31	0x3d27eef1	0.040999357
32	0x3d9806ef	0.074231975
33	0xbd5d5385	-0.05403473
34	0xbcdbd7ac	-0.026836239
35	0x3c47b73e	0.012189684
36	0x3c924f4c	0.017860077
37	0xbd4626d8	-0.048376888
38	0x3d12e498	0.035862535
39	0x3dc76b89	0.097373076
40	0xbcfe33d6	-0.031030577
41	0x3d795e39	0.060880873
42	0x3cac3918	0.021023318
43	0xbc65a08b	-0.014015327
44	0x3d996e54	0.074917465
45	0x3d97c3c4	0.07410386
46	0x3d52273c	0.051306948
47	0x3d300c8b	0.042980712
48	0xbb98c4b1	-0.0046621193
49	0x3d80c687	0.06287866
50	0xbd1c3e42	-0.03814531
51	0xbd78b160	-0.060716033
52	0xbce72ed4	-0.028220572
53	0x3d8cf6b3	0.06882992
54	0x3c93d1bf	0.01804435
55	0x3c1020b3	0.008796859
56	0x3cd8f20b	0.026482603
57	0x3b5f02b7	0.0034028718
58	0x3cdc3b90	0.02688387
59	0x3be4a4f1	0.0069776704
60	0xbd906673	-0.07050791
61	0xbd68e08f	-0.05685478
62	0x3dbee397	0.09320753
63	0xbda399dd	-0.079883315
64	0x3d8bef66	0.06832771
65	0x3d039e1a	0.0321332
66	0xbd7987c5	-0.060920496
67	0xbcfd8991	-0.030949386
68	0xbd89da17	-0.067310505
69	0xbd333500	-0.043751717
70	0x3c733e55	0.014846404
71	0x3d3f572e	0.046714
72	0xbd34624a	-0.04403905
73	0xbdb70203	-0.089359306
74	0xbda3a468	-0.079903424
75	0x3d7f3087	0.06230214
76	0xbc4ffed6	-0.012695035
77	0x3b77ee47	0.0037831233
78	0x3d74ad9f	0.05973589
79	0xbd4615f2	-0.048360772
80	0x3cd770ba	0.02629887
81	0x3d2f805c	0.042847022
82	0x3d22b5aa	0.03972403
83	0xbd2c41db	-0.042054992
84	0xbd1c0ac4	-0.038096204
85	0xbdca43d3	-0.09876218
86	0xbdb52ed8	-0.08846825
87	0x3c60fa52	0.013731556
88	0xbb54a46b	-0.0032446634
89	0x3d914118	0.07092494
90	0xbd2d6b05	-0.04233839
91	0x3d16a7d6	0.036781155
92	0x3d825fbe	0.063659176
93	0xbcf9cdee	-0.030493703
94	0x3be8b530	0.0071016774
95	0xbc74937f	-0.014927744
96	0x3d1e1d69	0.038602266
97	0xbd841fa5	-0.06451348
98	0xbbb8a756	-0.0056351824
99	0xbda835bc	-0.08213374
100	0x3c6751ed	0.014118654
101	0xbce7a25d	-0.028275663
102	0xbcaa9ea7	-0.020827604
103	0xbd51280c	-0.051063582
104	0x3d7c2fee	0.061569147
105	0x3d18a7a6	0.037269257
106	0x3d805997	0.06267088
107	0xbcc7c0b0	-0.024383873
108	0xbd382220	-0.04495442
109	0xbc825d7e	-0.015913721
110	0xbce43946	-0.027859341
111	0xbd9b97e7	-0.075973324
112	0x3d6a4bd3	0.057201218
113	0x3d066866	0.032814406
114	0xbd4ed9d1	-0.050500695
115	0x3c9a2c94	0.018820085
116	0x3d8d2bf0	0.06893146
117	0xbcd1a192	-0.025589738
118	0x3d887f6a	0.06664927
119	0x3cbad8f3	0.022808528
120	0x3b0a24f3	0.0021079152
121	0x3d8f0859	0.06984014
122	0x3a9ff90f	0.0012204963
123	0x3cdc6f5a	0.026908565
124	0x3c43de60	0.011954874
125	0x3d2a3f2e	0.04156416
126	0xbcba095e	-0.022709545
127	0xbd03b844	-0.03215815
128	0xbd38f397	-0.04515418
129	0x3d164951	0.036691014
130	0x3da76de0	0.08175254
131	0xbd3a42a7	-0.04547372
132	0x3d1dbe21	0.0385114
133	0xbd9164d8	-0.070993125
134	0xbc931888	-0.017956033
135	0xbd2f9997	-0.042871084
136	0x3c894bb3	0.016759729
137	0x3dc15422	0.09439875
138	0x3d3e1e9b	0.046415906
139	0xbbf8360e	-0.007574803
140	0xbcf9f282	-0.030511145
141	0x3b4f05e6	0.003158921
142	0xbda3a3df	-0.0799024
143	0xbca32f47	-0.019920005
144	0xbc896610	-0.0167723
145	0x3d609b1f	0.054835435
146	0xbd3ff125	-0.046860833
147	0x3dad5096	0.08462636
148	0x3d7b0c44	0.061290994
149	0xbd448a5e	-0.04798352
150	0x3dab89a7	0.083758645
151	0xbb4ff9a9	-0.0031734502
152	0x3d34afae	0.044112854
153	0x3cf56a7b	0.029958
154	0x3ca9fd67	0.020750714
155	0x3c869f56	0.0164334
156	0x3a4bb912	0.0007771413
157	0xbd474daa	-0.04865805
158	0x3dbaa045	0.091126
159	0xbc4b0aa4	-0.012392674
160	0xbd6ae307	-0.057345416
161	0xbd7dabbf	-0.061931368
162	0xbd507c93	-0.050900053
163	0xbd806d25	-0.06270818
164	0x3cb7af67	0.022422506
165	0x3accfd9d	0.0015639547
166	0xbc98e382	-0.018663172
167	0xbd931c40	-0.07183123
168	0xbc480c8d	-0.012210024
169	0x3d15badb	0.036555152
170	0x3cbd5c0a	0.023115177
171	0x3d3acae8	0.045603663
172	0xbc2a6afe	-0.0104014855
173	0x3cc7bdf3	0.024382567
174	0x3d920bf7	0.07131188
175	0x3d99ff3e	0.07519387
176	0xbac877a6	-0.0015294447
177	0x3dbfe2a9	0.09369404
178	0x3c9bbfcc	0.019012354
179	0xbd992e3b	-0.07479521
180	0xbc586b3a	-0.013209159
181	0xbda41d5c	-0.08013412
182	0x3a3c30f0	0.0007178923
183	0x3d1c6ea4	0.038191453
184	0x3dd25252	0.102696076
185	0x3d8b120e	0.06790553
186	0xbdab435f	-0.083624594
187	0xbd0d5148	-0.034501344
188	0x3d09c135	0.033631522
189	0x3d7eb0cf	0.062180337
190	0x3c8735b9	0.01650511
191	0xbb9113f2	-0.0044274265
192	0xbd68282e	-0.056678943
193	0x3daa0e99	0.083035655
194	0x3d727adf	0.05919921
195	0x3c82b894	0.015957154
196	0xbbd1d290	-0.006403275
197	0x3db18a01	0.086689
198	0x3d89bf50	0.06725943
199	0x3b514cc6	0.003193663
200	0x3cc05de5	0.023482272
201	0x3cf9ea31	0.030507179
202	0xbceeadf1	-0.029135676
203	0xbd820977	-0.063494615
204	0x3d485f7f	0.048919197
205	0x3cd93eff	0.026519297
206	0x3ca75a98	0.02042894
207	0x3d9cfde7	0.076656155
208	0x3d7e99f2	0.062158532
209	0x3c860ba2	0.016362969
210	0x3daa09db	0.08302661
211	0x3d6e1e31	0.05813426
212	0xbd321d1d	-0.043484796
213	0x3ae6f808	0.0017621526
214	0xbca52bd5	-0.020162502
215	0x3dbe599a	0.09294434
216	0xbb13509c	-0.0022478467
217	0x3cec6b2c	0.028859697
218	0x3cb0caf8	0.021581158
219	0x3d859185	0.06521896
220	0xbc78544c	-0.015156817
221	0xbda003ef	-0.0781325
222	0x3d003951	0.03130466
223	0xbd2d902a	-0.042373814
224	0x3ce55ad7	0.027997417
225	0xbcc22d2c	-0.02370318
226	0x3d966216	0.07342927
227	0xbdb1a8c8	-0.086747706
228	0xbcba6298	-0.022752091
229	0x3caaa445	0.020830283
230	0xbdbd06b9	-0.09229798
231	0xbd48d3d2	-0.049030133
232	0xbb93faa4	-0.0045159627
233	0xbb9ee742	-0.0048493454
234	0x3caad95e	0.020855602
235	0x3b83a386	0.0040172962
236	0xbd37972c	-0.044821903
237	0xbd98283b	-0.07429548
238	0xbc4c0265	-0.012451743
239	0x3d46783d	0.048454512
240	0x3bdf68b4	0.0068179015
241	0x3cfc27b0	0.030780643
242	0x3d441d62	0.047879584
243	0xbd807fbf	-0.06274366
244	0xbcbc2592	-0.022967134
245	0x3cb567a6	0.02214415
246	0x3d0c6ff3	0.03428645
247	0x3d8e2e5d	0.06942437
248	0xbd3c179e	-0.04592096
249	0x3cec6213	0.02885536
250	0xbd341d96	-0.043973528
251	0xbd19353e	-0.03740429
252	0x3da390a9	0.07986576
253	0xbdace685	-0.084424056
254	0xbd208cc4	-0.039196745
255	0xbce30895	-0.027714053

lstm.weight_hh_l0 f4 [512, 128]
0	0xbbe25291	-0.0069068153
1	0x3d41ab42	0.047282465
2	0xbd5366bc	-0.051611647
3	0xbc9a5e8c	-0.018843912
4	0xbd2fe6ce	-0.042944722
5	0x3d8d4cd7	0.06899422
6	0x3d60804a	0.054809846
7	0xbd10ca07	-0.03534892
8	0x3d0e678f	0.03476673
9	0xbd75eac9	-0.06003836
10	0xbdc75e9e	-0.09734844
11	0x3daddfad	0.084899284
12	0x3d5e2a25	0.05423941
13	0xb917e9f0	-0.0001448763
14	0xbd2bcfee	-0.041946344
15	0xbdc3e41c	-0.09564993
16	0x3d169121	0.0367595
17	0x3d8b53a4	0.068030626
18	0x3cb634be	0.022241946
19	0x3cee1f77	0.029067738
20	0xbc311cfb	-0.010810132
21	0x3d87b9cf	0.06627237
22	0xbda15d77	-0.07879155
23	0x3da75e88	0.08172327
24	0xbdc1a7f0	-0.0945586
25	0x3d5eec54	0.0544246
26	0xbc8ee80c	-0.017444633
27	0x3d6a4a14	0.057199553
28	0x3c9cc69f	0.019137679
29	0xbd3e5fbc	-0.04647802
30	0x3d79fb43	0.061030637
31	0x3d78784c	0.0606616
32	0xbd79548b	-0.060871642
33	0xbb72fa87	-0.0037075595
34	0xbd5fbda7	-0.054624226
35	0xbd50c584	-0.050969616
36	0xbd34d78d	-0.044150878
37	0xbd0da700	-0.03458309
38	0x3d85bfce	0.065307245
39	0x3da5d222	0.0809672
40	0x3b791cae	0.003801148
41	0xbd82da3a	-0.0638928
42	0x3d5e1813	0.054222178
43	0x3d33533b	0.043780547
44	0x3ccd4b52	0.02506033
45	0x3d9ecf38	0.077543676
46	0xbdac9a5e	-0.08427881
47	0x3db438ab	0.08799871
48	0xbd1db36f	-0.0385012
49	0xbd3b7188	-0.04576257
50	0xbd13de27	-0.036100533
51	0x3c78ea30	0.015192553
52	0xbd2b8ce1	-0.0418824
53	0xbd9fa4a7	-0.07795077
54	0xbcb828f3	-0.022480464
55	0x3bc04072	0.0058670575
56	0x3c3fe135	0.011711408
57	0xbb65e242	-0.0035077487
58	0xbd155440	-0.0364573
59	0xbca78e5a	-0.02045362
60	0x3d096d7d	0.03355168
61	0x3d8064b5	0.06269208
62	0x3c59b518	0.013287805
63	0x3cd81ddb	0.026381424
64	0x3d078fd3	0.033096146
65	0xbc8aef0b	-0.016959688
66	0xbd94337d	-0.07236383
67	0xbd5b39f5	-0.05352207
68	0x3d567b0e	0.052363448
69	0xbd1e317d	-0.038621414
70	0x3d979fd6	0.07403533
71	0x3da17d0e	0.078851804
72	0x3d6dd6ca	0.058066167
73	0xbacaa12c	-0.001545941
74	0xbd032816	-0.03202065
75	0x3b12c4f4	0.0022395225
76	0xbb2bc25e	-0.0026208381
77	0xbd90dbb7	-0.07073157
78	0x3c9c096b	0.01904746
79	0xbc906283	-0.017625099
80	0x3db0c88d	0.08632002
81	0xbd1b33f2	-0.037891336
82	0xbd4e2053	-0.050323796
83	0xbd568472	-0.052372403
84	0xbd750bb2	-0.059825607
85	0x3c72067c	0.014772054
86	0x3da81827	0.08207732
87	0xbdc46958	-0.09590405
88	0xbd2e8a03	-0.042612087
89	0x3d8e77c4	0.06956437
90	0x3d6e5cd5	0.058194
91	0x3d24bfe7	0.040222075
92	0xbd333ff8	-0.043762177
93	0x3a818342	0.0009881037
94	0x3ba657d5	0.0050763884
95	0x3ca5cc83	0.02023912
96	0xbda50231	-0.080570586
97	0x3d125e48	0.035734445
98	0xbc621508	-0.01379896
99	0x3bb607d1	0.005555131
100	0xbdbca4e0	-0.09211135
101	0x3d8e003d	0.06933639
102	0x3d8a4b44	0.06752637
103	0xbc272cb6	-0.010203531
104	0x3da44a43	0.08021977
105	0x3d0e821d	0.034792054
106	0x3cf0d8dc	0.029400282
107	0xbd59f6a4	-0.05321373
108	0xbda839ba	-0.082141355
109	0x3cd099b7	0.025463922
110	0xbd3b3686	-0.045706294
111	0xbd634932	-0.055489726
112	0x3d14a747	0.03629234
113	0xbd142ff6	-0.03617855
114	0xbd4dc601	-0.05023766
115	0x3cdd9cff	0.0270524
116	0x3d734c8f	0.059399184
117	0xbda9ded2	-0.08294453
118	0xbca7a45a	-0.020464111
119	0x3d12e5dd	0.035863746
120	0x3d116bfd	0.035503376
121	0x3d112bf2	0.0354423
122	0x3cda7176	0.02666543
123	0xbda063d7	-0.07831543
124	0xbc2a7716	-0.010404369
125	0xbdd5f2df	-0.104467146
126	0xb9fc6704	-0.00048141938
127	0xbdc22ed9	-0.09481592
128	0xbd69e71e	-0.057105176
129	0xbd79541a	-0.06087122
130	0xbd3fff6d	-0.046874452
131	0x3d8f3fae	0.06994568
132	0xbcbb10e1	-0.022835197
133	0x3c75faa0	0.015013367
134	0xbd4aab42	-0.04947973
135	0x3ce8ee96	0.02843408
136	0xbad803a2	-0.0016480575
137	0x3bc9fb70	0.006164007
138	0xbd88df49	-0.06683213
139	0x3d8b51b1	0.06802691
140	0x3c74fea8	0.014953293
141	0xbda0e1e4	-0.07855585
142	0xbd684a62	-0.056711562
143	0x3d22dd56	0.039761864
144	0x3db42418	0.08795947
145	0x3d914ff9	0.07095332
146	0xbd92bbc9	-0.071647234
147	0x3ca8e742	0.020618085
148	0x3d6d3ddc	0.05792032
149	0xbc93cf4e	-0.018043187
150	0xbd611e54	-0.054960564
151	0x3d3e4546	0.046452783
152	0x3d22af88	0.03971818
153	0x3d29864f	0.041387852
154	0xbc172475	-0.009225001
155	0x3d1dfa1f	0.038568612
156	0xbd61bf3e	-0.055114023
157	0x3d96a8b8	0.07356399
158	0x3d2c0deb	0.04200546
159	0xbd68744d	-0.056751538
160	0xbd54e55c	-0.051976547
161	0xbbe30084	-0.0069275517
162	0xbd95995b	-0.07304641
163	0x3d48d707	0.04903319
164	0xbd58c50e	-0.0529223
165	0x3d477b20	0.048701406
166	0x3cdbdef9	0.02683972
167	0x3d3238d1	0.043511216
168	0x3d80810f	0.06274616
169	0xbdc2dcc7	-0.09514766
170	0x3d84983d	0.0647435
171	0x3bb6d950	0.005580105
172	0xbbd2affa	-0.0064296694
173	0x3d411b56	0.04714521
174	0x3d216aae	0.03940838
175	0xbd78ba84	-0.06072475
176	0xbd64b8f3	-0.055840444
177	0x3d7d589a	0.061852075
178	0x3cdb1b17	0.026746316
179	0xbdca1c93	-0.09868731
180	0x3d5ad81e	0.05342876
181	0x3d2e1cdd	0.042507995
182	0xbb75ed84	-0.0037525604
183	0x3c6c12b9	0.014408761
184	0x3c6095b4	0.013707567
185	0xbd83d81c	-0.06437704
186	0xbc27746a	-0.010220626
187	0x3c30fed0	0.0108029395
188	0x3d53b92e	0.051690273
189	0x3d4ca082	0.04995776
190	0x3ce9f59b	0.028559497
191	0x3c0e81d7	0.008697948
192	0x3d71c646	0.05902698
193	0xbced36eb	-0.028956851
194	0x3da52786	0.08064179
195	0xbdc86a78	-0.09785932
196	0x3c685357	0.014180026
197	0xbd837931	-0.064196
198	0x3d93d2ae	0.07217918
199	0xbd3e5cf6	-0.046475373
200	0xbd55b4ca	-0.052174367
201	0x3dd05e97	0.101742916
202	0x3c74adb6	0.014933994
203	0x3d524a0c	0.051340148
204	0x3d5246cd	0.051337052
205	0x3d85a29b	0.06525155
206	0x3d957894	0.07298389
207	0xbd3b3ba1	-0.045711163
208	0x3c538198	0.0129093155
209	0x3d9d07bc	0.07667491
210	0xbdb05c52	-0.08611359
211	0xbb51c278	-0.0032006782
212	0x3cb74ba5	0.022374937
213	0x3d08f6f8	0.033438653
214	0x3d80feff	0.06298637
215	0x3bde4f2f	0.0067843418
216	0x3d28ca04	0.041208282
217	0xbd84aacb	-0.06477889
218	0x3d81343d	0.06308792
219	0xbc93b272	-0.018029425
220	0x3cd2543f	0.025674937
221	0xbc97f83f	-0.01855099
222	0xbb3d5ae0	-0.0028893277
223	0xbb9d8107	-0.004806641
224	0x3cd678da	0.026180673
225	0xbd596239	-0.053072188
226	0x3dae68ff	0.0851612
227	0xbdadd520	-0.08487916
228	0xbd7ad9a5	-0.06124272
229	0xbd0d2b43	-0.034465086
230	0xbd0dae8c	-0.03459029
231	0xbce4efa2	-0.027946297
232	0x38e09168	0.000107082364
233	0xbdcb1a14	-0.099170834
234	0x3d2f5ef1	0.042815153
235	0x3d797d0e	0.060910277
236	0x3d532655	0.05155023
237	0xbd602e4b	-0.05473165
238	0x3d850a32	0.06496085
239	0x3b994e40	0.0046785176
240	0xbd1a0591	-0.037602965
241	0xbcbe2572	-0.023211215
242	0x3c4661f2	0.012108313
243	0x3bff5554	0.0077921543
244	0x3cafac0c	0.021444343
245	0x3c1f0d0e	0.009707702
246	0xbd42906d	-0.047501016
247	0xbd820741	-0.0634904
248	0x3d23131f	0.039813157
249	0xbd129852	-0.035789795
250	0xbca16ce2	-0.01970524
251	0x3d984655	0.0743529
252	0x3dcd3414	0.10019699
253	0xbbc6a6e7	-0.006062377
254	0xbd1e05e0	-0.03857982
255	0x3d3b09d4	0.04566367

lstm.bias_ih_l0 f4 [512]
0	0xbd81a723	-0.06330707
1	0x3cf50d06	0.029913437
2	0xbd525c4d	-0.051357556
3	0x3bca0222	0.006164805
4	0xbcbc4072	-0.022979949
5	0x3d2feab6	0.042948447
6	0x3dbadc3d	0.09124038
7	0x3af339aa	0.0018556614
8	0x3d9b63a9	0.07587368
9	0xbd3c438c	-0.045962855
10	0xbd12d7b0	-0.035850227
11	0xbb1c3562	-0.002383553
12	0xbd1dc5b7	-0.038518634
13	0x3d92fb61	0.07176853
14	0x3cd9d285	0.026589641
15	0x3bedb1b7	0.0072538513
16	0x3b3374b0	0.0027382784
17	0xbd39c12b	-0.045350235
18	0x3da17840	0.07884264
19	0xbd52dc20	-0.05147946
20	0x3c1041f5	0.008804788
21	0x3dc35c75	0.09539119
22	0x3d8150f5	0.063142695
23	0xbd91ebff	-0.07125091
24	0xbd85c9bc	-0.065326184
25	0x3cf73554	0.030176796
26	0x3d017f7b	0.031615715
27	0xbd55dc48	-0.05221203
28	0x3ce9dbf0	0.028547257
29	0x3cf77bb0	0.030210346
30	0xbdb5dbe2	-0.0887983
31	0x3d88e8d1	0.06685031
32	0xbd81dfcd	-0.06341515
33	0xbbb30847	-0.005463633
34	0x3dc3e8d4	0.09565893
35	0xbce0cfd4	-0.02744285
36	0x3d262e36	0.040571414
37	0x3c8820c2	0.016617183
38	0x3d404a66	0.046945952
39	0x3c092ac8	0.008372016
40	0xbce5c2b5	-0.028046945
41	0x3d61e342	0.05514837
42	0x3d4da5f1	0.050207082
43	0x3d689e07	0.05679133
44	0x3d89b480	0.06723881
45	0xbd7e062e	-0.062017612
46	0x3d10cbda	0.035350658
47	0xbcbac85a	-0.022800613
48	0x3c3a57c7	0.011373467
49	0x3dc4e0d6	0.096131966
50	0x3c89cc12	0.016820941
51	0xbcf7b050	-0.03023544
52	0xbd73387c	-0.05938004
53	0xbd3c27c3	-0.045936357
54	0xbd2b067a	-0.041754223
55	0xbd8d55f9	-0.069011636
56	0x3da32241	0.07965518
57	0xbd0fbdcf	-0.035093125
58	0xbd37e272	-0.04489369
59	0xbd86c482	-0.0658045
60	0x3ce63fb8	0.028106555
61	0x3d9b6d1e	0.07589172
62	0x3da35f77	0.07977193
63	0xbd90bfd9	-0.07067842
64	0x3d873a9a	0.06602974
65	0x3d912293	0.07086673
66	0xbd520a70	-0.051279485
67	0xbd96d2ae	-0.07364403
68	0xbce09288	-0.027413622
69	0xbb3fde06	-0.0029276623
70	0xbd1da597	-0.038487997
71	0x3d877c11	0.06615461
72	0xbd2826be	-0.041052572
73	0xbd68b7b2	-0.05681581
74	0xbd9c6866	-0.076371
75	0x3d995266	0.074864194
76	0xbc3357b9	-0.010946208
77	0x3a001ecd	0.0004887402
78	0x3cdc4394	0.026887693
79	0x3d3f0050	0.046631157
80	0x3c146778	0.009057872
81	0x3d1857be	0.037193052
82	0xbda1c7f9	-0.0789947
83	0x3c6f59b2	0.014608787
84	0x3d89996e	0.067187175
85	0xbdb5c123	-0.088747285
86	0x3db72882	0.08943273
87	0x3d8de9b6	0.069293424
88	0x3b9a6686	0.004711929
89	0xbced0cbb	-0.028936734
90	0x3c30b411	0.010785119
91	0xbd56f850	-0.052482903
92	0x3d5bb00f	0.0536347
93	0xbdb56d37	-0.08858722
94	0xbd3587bb	-0.044318896
95	0xbd82fcdf	-0.063958876
96	0xbc14e395	-0.009087463
97	0xbc589c09	-0.013220795
98	0xbd396007	-0.045257594
99	0x3ca24e91	0.019812854
100	0xbd9a8abf	-0.07545995
101	0x3c91a39f	0.017778216
102	0xbbaa7a24	-0.0052025486
103	0x3b9b8462	0.004746006
104	0xbd1b43c2	-0.037906416
105	0xbd5ede46	-0.054411195
106	0xbce81484	-0.028330095
107	0xbcfb51f9	-0.030678736
108	0x3d751a6c	0.05983965
109	0xbba7637c	-0.005108295
110	0xbbc9d3f7	-0.0061593014
111	0xbd8dcb11	-0.069234975
112	0x3c19b640	0.009381831
113	0xbdb282c2	-0.08716346
114	0x3cc8fdbf	0.024535058
115	0xbd4d7acd	-0.05016594
116	0xbcd43f45	-0.025909076
117	0xbd2fe052	-0.042938538
118	0x3bb58ddd	0.005540593
119	0xbd2123f9	-0.039340947
120	0xbbec452e	-0.0072103953
121	0xbcc1222f	-0.02357587
122	0xbd9e6f3a	-0.077360585
123	0xbd0a4dd6	-0.033765636
124	0x3cc0902d	0.023506248
125	0xbd42ab81	-0.04752684
126	0xbd8d6015	-0.06903092
127	0x3cf58ee0	0.029975355
128	0xbd712dc3	-0.058881532
129	0x3d68aada	0.05680356
130	0xbd6f7a5e	-0.058466308
131	0x3b2af81b	0.0026087824
132	0x3b95ac8f	0.0045676897
133	0xbd84eb65	-0.064902104
134	0x3d1959e9	0.03743926
135	0xbcb376c0	-0.02190721
136	0x3d082c5e	0.033245437
137	0x3dc8cd49	0.0980478
138	0xbd341b81	-0.043971542
139	0xbd9a9d60	-0.07549548
140	0x3d5c196c	0.05373518
141	0x3b31da3c	0.0027138134
142	0x3db0cc46	0.08632712
143	0x3d48eb80	0.049052715
144	0x3d8899a5	0.0666993
145	0x3bbc1fb8	0.005741086
146	0x3d891204	0.06692889
147	0x3d1d134a	0.038348474
148	0xbd5a209f	-0.053253766
149	0x3d12ddc8	0.03585604
150	0xbda253a4	-0.079261094
151	0x3d6431a2	0.055711396
152	0xbc048063	-0.00808725
153	0xbd100434	-0.03516026
154	0xbdd39289	-0.10330684
155	0xbce7c7f3	-0.028293585
156	0x3d66898f	0.05628353
157	0x3cfb53de	0.03067964
158	0x3cfdc9ac	0.030979954
159	0x3d0aaee0	0.03385818
160	0xbd1a123b	-0.037615042
161	0xbd0b89db	-0.034067016
162	0x3dd15e89	0.10223109
163	0xbd8870b4	-0.066621214
164	0x3cdac4f9	0.026705252
165	0x3dfa7e9e	0.122311816
166	0xbd92a148	-0.07159668
167	0xbdafc226	-0.08581953
168	0xbbdc27e0	-0.0067186207
169	0xbd8512fe	-0.06497763
170	0x3c8cd06f	0.017189233
171	0xbcb26fdf	-0.02178186
172	0x3d504804	0.05084993
173	0xbccf4639	-0.02530204
174	0x3d93f887	0.07225137
175	0xbc7b4155	-0.015335401
176	0xbd605e42	-0.05477739
177	0x3d351564	0.044209853
178	0x3bf2e56c	0.007412603
179	0x3d12d72b	0.03584973
180	0x3d031225	0.031999726
181	0xbcee4527	-0.029085709
182	0xbdcb4650	-0.099255204
183	0xbd82c596	-0.06385343
184	0x3d979b1c	0.07402632
185	0xbd781db1	-0.06057519
186	0xbce52c16	-0.027975123
187	0xbda7393a	-0.08165212
188	0x3d513a61	0.051081065
189	0x3d6f8ec2	0.058485754
190	0xbd5f5d8c	-0.054532573
191	0x3cd94d94	0.02652625
192	0x3d160858	0.03662905
193	0x3c49aa4f	0.012308671
194	0xbca7199e	-0.020397957
195	0x3ca96cba	0.020681728
196	0xbcca70bc	-0.024711959
197	0x3c2ea40f	0.010659232
198	0xbd88d3e2	-0.066810384
199	0xbba68e13	-0.0050828545
200	0xbc61ec86	-0.013789302
201	0xbd9f314d	-0.07773075
202	0x3d3ce2a2	0.04611457
203	0xbd04ce55	-0.032423336
204	0x3c59ceda	0.013293946
205	0xbc9ae925	-0.01891
206	0xbd4fe66c	-0.050756857
207	0x3dd68fde	0.10476659
208	0x3af88f32	0.0018963574
209	0xbd075888	-0.033043414
210	0x3d2a3797	0.04155692
211	0xbd1c2058	-0.038116783
212	0x3b3512d5	0.0027629633
213	0xbccc75a2	-0.024958435
214	0xba46a3a1	-0.0007577483
215	0x3baa3edd	0.005195482
216	0xbdbca77c	-0.092116326
217	0xbd84469d	-0.06458781
218	0xbd7d9b60	-0.061915755
219	0xbc2d7488	-0.010586865
220	0x3d6d9433	0.058002662
221	0x3cc5a5f7	0.02412699
222	0x3d2b2d2b	0.041791122
223	0x3d46233c	0.048373446
224	0x3cd125aa	0.025530655
225	0x3c9d3ac0	0.019193053
226	0x3d9afb3c	0.075674504
227	0x3c7ba2bb	0.015358622
228	0xbd1c33a0	-0.03813517
229	0xbdacb3a8	-0.08432704
230	0xbc253a4f	-0.010084703
231	0xbc804c9f	-0.015661536
232	0xbce344b8	-0.027742729
233	0xbca034a1	-0.019556345
234	0xbc451677	-0.012029282
235	0xbd8716c0	-0.06596136
236	0x3d352729	0.0442268
237	0x3cf06c06	0.029348385
238	0x3cf85f04	0.030318744
239	0x3d94ca97	0.072652034
240	0x3daa1b45	0.083059825
241	0xbcd31fd2	-0.025772009
242	0xbd52189e	-0.051293008
243	0x3de52de2	0.11190392
244	0xbdae754e	-0.08518468
245	0x3ce40ee7	0.027839137
246	0xbd9cbdcb	-0.07653388
247	0x3d7c5660	0.06160581
248	0x3d9dba23	0.077015184
249	0x3d8018cf	0.06254732
250	0x3bf03557	0.0073305774
251	0xbb65af71	-0.0035047198
252	0x3b8e7cd3	0.0043483763
253	0xbdaa074c	-0.08302173
254	0xbd3ad740	-0.045615435
255	0x3d9d7867	0.076889805

lstm.bias_hh_l0 f4 [512]
0	0x3d4e400b	0.050354045
1	0xbd969ab5	-0.07353727
2	0xbb0d56be	-0.0021566595
3	0x3d7b5ef9	0.06136987
4	0xbd82db1b	-0.06389447
5	0xbd808bcc	-0.06276664
6	0xbc4c4831	-0.012468384
7	0x3c4f764e	0.012662483
8	0xbd1f0c43	-0.038830053
9	0x3d80660a	0.062694624
10	0xbd9784e6	-0.07398395
11	0x3d8283d4	0.063728005
12	0x3d58c15b	0.052918773
13	0x3cc452a6	0.023965191
14	0xbc949f2b	-0.018142303
15	0x3d3bf43d	0.04588722
16	0xbc8085e9	-0.015688853
17	0xbcda8ee6	-0.026679467
18	0x3da24863	0.07923963
19	0xbda1fc1d	-0.07909415
20	0x3d90ed12	0.070764676
21	0x3db32a79	0.087483354
22	0x3d88c3e9	0.06677992
23	0x3d8735b8	0.06602043
24	0xbd3221ae	-0.04348915
25	0x3d8f9a14	0.0701181
26	0xbce88dae	-0.02838787
27	0xbd362c1f	-0.04447567
28	0xbc0a365e	-0.008435814
29	0xbcb524fe	-0.022112366
30	0xbd12a2a4	-0.035799637
31	0xbcea58d5	-0.028606812
32	0x3d4de050	0.05026275
33	0xbdadf1af	-0.08493363
34	0x3d50a442	0.0509379
35	0x3d28e349	0.04123238
36	0xbc8bbc35	-0.017057518
37	0x3d7122ad	0.05887096
38	0xbd0ceeeb	-0.034407537
39	0x3d6bc6fa	0.057562806
40	0xbd545b96	-0.051845156
41	0x3dc5517b	0.09634682
42	0xbc488ed0	-0.01224108
43	0x3cf5bbf0	0.029996842
44	0x3d5f3403	0.05449296
45	0xbdc0bccf	-0.094110124
46	0x38810370	6.1518396e-05
47	0xbdb1b81e	-0.08677696
48	0x3d801127	0.062532715
49	0x3d8722df	0.06598448
50	0x3bb464fb	0.005505202
51	0xbd918ba7	-0.07106715
52	0x3da2d99d	0.07951663
53	0x3dd351c0	0.10318327
54	0xbd55799c	-0.05211793
55	0xbda5a465	-0.080879964
56	0xbb5914e6	-0.0033124029
57	0xbd8a3743	-0.067488216
58	0x3d9cc4fc	0.07654759
59	0x3d2e6f6a	0.04258672
60	0x3dd75452	0.1051413
61	0x3c136ef3	0.00899862
62	0xbdb57dba	-0.08861871
63	0xbc459136	-0.012058547
64	0x3cd7ccfa	0.026342858
65	0x3d0e92e0	0.03480804
66	0xbc811022	-0.015754763
67	0xbd06f0ef	-0.032944616
68	0x3caceff9	0.021110522
69	0x3dba5d19	0.09099788
70	0x3d15ec9b	0.036602598
71	0xbd9fdee9	-0.078061886
72	0xbd49ec44	-0.049297586
73	0xbd702bc4	-0.05863549
74	0xbbe535d3	-0.0069949417
75	0x3d396935	0.04526635
76	0x3d4fe898	0.050758928
77	0xbdad7b5d	-0.08470795
78	0x3ae54c4a	0.0017494049
79	0x3df0aab2	0.117513075
80	0xbd646d3d	-0.05576824
81	0x3c3a016f	0.011352881
82	0xbd83fa2c	-0.06444201
83	0xbd808296	-0.06274907
84	0x3ca2918f	0.019844798
85	0xbcfe8ca5	-0.031072924
86	0x3da679d0	0.08128703
87	0xbd0b09db	-0.033944946
88	0xbd28fb3c	-0.04125522
89	0x3d8a8810	0.06764233
90	0x3d8c8d9d	0.06862948
91	0xbdaa877b	-0.08326622
92	0x3a7b8886	0.0009595234
93	0x3c235b7c	0.009970542
94	0x3a25b291	0.0006320859
95	0xbda20c3b	-0.07912489
96	0xbd865b24	-0.065603524
97	0xbba40752	-0.0050057555
98	0x3da1859a	0.078868106
99	0xbd7f01ca	-0.062257566
100	0x3d895319	0.06705303
101	0x3c9d1969	0.019177156
102	0x3d0cdf8d	0.034392882
103	0x3cb6d600	0.02231884
104	0x3d895225	0.06705121
105	0xbda7ec4d	-0.08199368
106	0x3d6d7c34	0.057979777
107	0xbcc942a4	-0.02456791
108	0xbd9d017b	-0.07666298
109	0xbd25328b	-0.040331405
110	0xbc9107fc	-0.017704003
111	0x3d46f2ea	0.048571505
112	0xbd8a72d1	-0.06760181
113	0x3b9b6f8f	0.0047435234
114	0x3d85f83c	0.065414876
115	0xbc41d0bc	-0.011829551
116	0x3da777f6	0.081771776
117	0xbdb5f215	-0.08884064
118	0x3d54fdf4	0.052
119	0x3d2c2b2b	0.042033356
120	0xbd959a2b	-0.07304796
121	0x3d31377e	0.043265812
122	0x3d201477	0.039082017
123	0xbd74029e	-0.05957281
124	0x3c8d01fd	0.017212862
125	0x3db910a4	0.09036377
126	0xbdae382c	-0.08506808
127	0xbc52142a	-0.01282219
128	0xbd1df90e	-0.038567595
129	0xbd9abb65	-0.07555274
130	0x3d898b28	0.06715995
131	0x3d2889e4	0.041147128
132	0xbcb147e0	-0.021640718
133	0x3da41f6b	0.08013805
134	0x3dcb5626	0.09928541
135	0x3dadf44f	0.08493864
136	0xbd2188a1	-0.03943694
137	0xbc4622a7	-0.012093223
138	0x3da936e3	0.08262422
139	0x3cb781bc	0.02240073
140	0xbda36098	-0.07977408
141	0xbda5f95e	-0.08104204
142	0x3cb87153	0.022514975
143	0xbb97f79a	-0.0046376707
144	0xbd1e20e4	-0.038605586
145	0x3da59352	0.0808474
146	0x3d936c93	0.07198443
147	0x3d7b553e	0.06136059
148	0x3d862c2a	0.065513924
149	0x3d146d48	0.03623703
150	0xbd68e73c	-0.056861147
151	0xbdce0d6f	-0.10061156
152	0xbd3bfafa	-0.045893647
153	0x3da5bb79	0.08092398
154	0xbd22c1f6	-0.039735757
155	0xbc277ccb	-0.010222624
156	0x3d83413e	0.06408928
157	0xbcfcee64	-0.030875392
158	0x3cc7e2f3	0.02440021
159	0x3d95ac71	0.07308281
160	0x3d8da86e	0.06916891
161	0x3d28f9e6	0.041253947
162	0xbd40fb22	-0.0471145
163	0xbd94c555	-0.072642006
164	0xbdab711f	-0.083711855
165	0x3df5c2a0	0.120000124
166	0x3d7ec37c	0.062198147
167	0x3d870c12	0.06594099
168	0x3d45a6f1	0.04825491
169	0xbd99d6ac	-0.075116485
170	0x3c01edf0	0.007930264
171	0xba619ad2	-0.0008606139
172	0x3d1259e6	0.035730265
173	0xbd59f131	-0.053208534
174	0xbd71f744	-0.0590737
175	0x3d715962	0.058923133
176	0x3c8cf578	0.017206892
177	0x3d1745e6	0.036931895
178	0x3a8f45d6	0.0010930847
179	0x3d196bc0	0.037456274
180	0x3d2a5a5d	0.041590083
181	0xbcbc6c4a	-0.023000855
182	0xbd05896c	-0.03260176
183	0x3d781089	0.060562644
184	0xbd37ec5a	-0.044903137
185	0x3d5cc219	0.053896043
186	0xbdb0647e	-0.08612917
187	0xbd8b3549	-0.06797273
188	0xbd1bc79f	-0.03803217
189	0x3caee334	0.021348573
190	0xbc8f149b	-0.01746588
191	0xbd649dc2	-0.055814512
192	0xbcf485b1	-0.029848905
193	0xbbb267fa	-0.005444524
194	0x3dd6bcd2	0.10485233
195	0x3d07ce13	0.033155512
196	0xbd9fec0a	-0.07808693
197	0xbd8bf858	-0.06834477
198	0xbd78d6c7	-0.060751703
199	0x3d92371d	0.07139418
200	0xbca316ca	-0.019908328
201	0x3c5474d0	0.012967303
202	0xbce91d63	-0.028456395
203	0x3d4c7547	0.049916532
204	0xbcb601c5	-0.02221764
205	0xbd9e5c3f	-0.07732438
206	0xbc884cfa	-0.016638268
207	0x3db9913e	0.09060906
208	0x3d0dffa6	0.034667633
209	0x3cbef4e5	0.023310134
210	0xbd66ad3d	-0.056317557
211	0x3d6e5de7	0.05819502
212	0x3db720f7	0.089418344
213	0x3c2f0cd1	0.010684208
214	0x3d8a16a9	0.06742603
215	0xbc8d6ff8	-0.017265305
216	0x3d8fa661	0.07014156
217	0x3dc12fa6	0.09432916
218	0x3d29485f	0.041328784
219	0x3d4fd04c	0.050735757
220	0x3a67406b	0.00088215497
221	0xbc0fc6a4	-0.008775387
222	0x3bad87c3	0.005295725
223	0xbc8224a2	-0.015886609
224	0xbd4f36b6	-0.050589286
225	0xbc49f37b	-0.012326117
226	0x3bb1dd52	0.0054279948
227	0x3d7a956a	0.06117765
228	0x3d404dad	0.046949077
229	0x3d8375df	0.064189665
230	0x3d956f01	0.07296563
231	0xbd4942cc	-0.049135968
232	0x3d150dbf	0.036390062
233	0xbd9903ba	-0.07471414
234	0xbd520e59	-0.051283214
235	0xbce0df71	-0.027450295
236	0xbd793d82	-0.060849674
237	0xbcf59d49	-0.029982226
238	0x3db0c4eb	0.08631309
239	0x3d10ab26	0.03531947
240	0xbd63bb3e	-0.05559849
241	0x3d1a6918	0.03769788
242	0x3c399a11	0.011328236
243	0x3d23a19b	0.03994904
244	0xbda8d392	-0.08243479
245	0x3b8d90b8	0.0043202303
246	0xbd96d4fc	-0.07364842
247	0xbd43deb6	-0.047819816
248	0x3ca0378b	0.019557735
249	0xbdadd9c8	-0.08488804
250	0xbd9cf229	-0.07663376
251	0x3c0ed5a1	0.008717925
252	0xbcfcdffe	-0.030868527
253	0x3d89b5be	0.06724118
254	0xbd409155	-0.0470136
255	0x3da3d221	0.07999063

lstm.weight_ih_l1 f4 [512, 128]
0	0x3d813fe8	0.06311017
1	0xbc275c37	-0.010214857
2	0xbca0806e	-0.01959249
3	0x3d0f39dc	0.03496729
4	0x3cb744b2	0.022371624
5	0xbc737433	-0.014859247
6	0x3d3c3ac2	0.045954473
7	0x3d45ea53	0.048319172
8	0xbc2ab090	-0.010418072
9	0x3b1ea58f	0.0024207567
10	0xbdad7e54	-0.08471361
11	0xbd8b8cfa	-0.068139985
12	0x3d44260d	0.04788785
13	0x3d88deb2	0.06683101
14	0xbcbc79fa	-0.023007382
15	0xbd30ef89	-0.04319719
16	0x3d184c2e	0.037182026
17	0xbd9a941e	-0.07547782
18	0x3a6fb51a	0.00091441127
19	0xbd87f047	-0.06637626
20	0xbc6f0551	-0.01458867
21	0x3bb9c331	0.0056690206
22	0xbc30d057	-0.01079186
23	0xbc12ebb4	-0.008967329
24	0xbb7f633d	-0.0038969063
25	0x3da96bf5	0.08272544
26	0xbd347121	-0.0440532
27	0xbd1e38ad	-0.03862827
28	0xbd316858	-0.0433124
29	0xbd2fe1b4	-0.042939857
30	0xbc595157	-0.013264022
31	0x3d66124d	0.056169797
32	0xbd43c4be	-0.04779505
33	0x3d57be08	0.052671462
34	0xbc7dcf5e	-0.015491335
35	0xbcc248fc	-0.023716442
36	0xbd703eba	-0.05865357
37	0x3d516f39	0.05113146
38	0xbcd40635	-0.025881866
39	0x3d4ca99b	0.049966436
40	0xbd789738	-0.06069109
41	0x3c22740c	0.009915363
42	0xbc5c5a42	-0.0134492535
43	0x3c2ebc3b	0.010664995
44	0x3d4a7d2a	0.049435772
45	0xbd71634e	-0.058932595
46	0xbd428012	-0.04748542
47	0x3c8ecba9	0.017431097
48	0x3d7c1744	0.061545625
49	0x3dc4994d	0.09599552
50	0x3da07a71	0.07835854
51	0xbca1ce66	-0.019751739
52	0xbc671d5d	-0.014106122
53	0x3dbbde54	0.09173265
54	0x3db94205	0.09045795
55	0xbb12b63d	-0.0022386455
56	0xbc7836e1	-0.015149803
57	0xbb1749c9	-0.002308475
58	0xbd19d185	-0.03755333
59	0xbd936ae7	-0.071981244
60	0xbdaa83bf	-0.0832591
61	0x3dc3281d	0.095291354
62	0xbbd9f9fb	-0.0066521144
63	0xbd471176	-0.048600636
64	0x3a3483c7	0.00068860914
65	0x3d8906d7	0.06690758
66	0x3d37e248	0.044893533
67	0xbd23b0f6	-0.039963685
68	0x3d1013a1	0.03517497
69	0xbd10fae1	-0.035395507
70	0xbd9d2810	-0.07673657
71	0xbcfd93d4	-0.030954279
72	0xbc1a8793	-0.0094317375
73	0xbd360bec	-0.044444963
74	0x3ca25057	0.0198137
75	0x3d81d56d	0.06339536
76	0x3cbda0bf	0.023147939
77	0xbd8b8d40	-0.06814051
78	0x3cf35887	0.029705299
79	0xbc957b70	-0.018247336
80	0x3d639b23	0.05556787
81	0xbcd0aa26	-0.025471758
82	0xbc6e77e5	-0.014554952
83	0xbd51e560	-0.05124414
84	0xbbd9ab25	-0.0066427165
85	0x3b98db77	0.004664834
86	0x3c6260c5	0.013817017
87	0xbd9e80e0	-0.07739425
88	0xbcee8300	-0.0291152
89	0x3cb439a5	0.022000143
90	0xbcfda7e3	-0.030963844
91	0x3ce3f873	0.02782843
92	0xbd9cc887	-0.07655435
93	0xbd84d88b	-0.06486615
94	0x3b78d926	0.0037971227
95	0x3d2402ae	0.040041618
96	0x3d32a6ec	0.04361622
97	0xbd94848e	-0.07251845
98	0x3c4f8a1f	0.012667208
99	0x3c6fdfd4	0.014640767
100	0x3abe7ebd	0.001453362
101	0x3d9e2be3	0.077232145
102	0xbbaab27b	-0.005209265
103	0xbca6c58a	-0.020357866
104	0xbd91ed63	-0.07125356
105	0xbd0aad3b	-0.03385661
106	0xbc8d2e35	-0.017233947
107	0xbd89152f	-0.066934936
108	0xbda2267d	-0.07917497
109	0xbc7e2ccd	-0.015513611
110	0x3d374263	0.044741046
111	0x3d31d1aa	0.04341284
112	0x3d043afa	0.032282807
113	0x3d1bb5e9	0.03801528
114	0xbca4839b	-0.020082286
115	0xbd6483b8	-0.05578968
116	0xbd8c2b9c	-0.06844255
117	0xbc50b7fb	-0.012739177
118	0x3d60b436	0.054859363
119	0x3d89542c	0.06705508
120	0xbd20451a	-0.0391284
121	0xbc529ef7	-0.012855283
122	0xbae9152b	-0.0017782798
123	0x3d1dcf34	0.038527682
124	0x3d402198	0.046907037
125	0x3d1d8376	0.03845545
126	0x3bc90186	0.006134215
127	0xbd309ca7	-0.043118145
128	0x3caaa332	0.02082977
129	0xbd99a691	-0.07502473
130	0xbb42d98e	-0.0029731723
131	0xbd6fde54	-0.058561638
132	0x3d0f1e1d	0.034940828
133	0xbd9a7541	-0.07541896
134	0xbd402c0b	-0.046917003
135	0x3d25a1b6	0.040437423
136	0xbc6fa6ce	-0.014627172
137	0xbd76c0c1	-0.06024242
138	0xbcfe5624	-0.031046934
139	0xbd103bd4	-0.035213307
140	0x3d9bb033	0.07601967
141	0xbcd28f8c	-0.025703214
142	0x3cca80be	0.024719592
143	0x3ce4207e	0.027847525
144	0x3c4f0a3a	0.012636716
145	0x3aadedec	0.0013269759
146	0xbd64b913	-0.055840563
147	0xbd8c90dd	-0.06863568
148	0x3c7c8c8c	0.015414368
149	0xbbf05952	-0.0073348666
150	0x3d004f59	0.03132567
151	0x3830a018	4.211077e-05
152	0xbd854637	-0.06507533
153	0x3b985310	0.0046485737
154	0x3cfe12b8	0.031014785
155	0x3b8c6108	0.004284028
156	0xbd9a2fea	-0.0752867
157	0x3bf0e888	0.0073519386
158	0x3d2b50ed	0.041825224
159	0x3d25cfd6	0.04048141
160	0xbceaea32	-0.028676126
161	0x3d33ff95	0.043944914
162	0x3dc3ff6f	0.095702045
163	0xbc2f0a79	-0.010683649
164	0x3a98226a	0.0011606936
165	0xbce9e7d5	-0.028552929
166	0xbc471946	-0.012152022
167	0xbd3e99ea	-0.046533503
168	0xbd8812ac	-0.066441864
169	0x3d22bc23	0.039730202
170	0x3b11ecda	0.0022266419
171	0xbc11e2b3	-0.008904147
172	0xbdaf48d6	-0.08558814
173	0x3da139f5	0.078723826
174	0x3c3eb040	0.011638701
175	0x3bb54ae8	0.005532611
176	0x3d951bc0	0.072806835
177	0xbd34405b	-0.044006687
178	0xbcd5635d	-0.026048357
179	0x3d8b4681	0.06800557
180	0xbda6cbfb	-0.08144375
181	0x3cccf65f	0.025019823
182	0xbd350d80	-0.044202328
183	0x3d083232	0.033250995
184	0x3d831e9e	0.06402324
185	0x3d362c8b	0.044476073
186	0xbd81013e	-0.06299065
187	0xbd3da326	-0.04629817
188	0xbd9320cf	-0.07183992
189	0x3c973cae	0.018461552
190	0xbd4934ea	-0.04912273
191	0x3c2de20b	0.010612975
192	0xbd89143f	-0.06693315
193	0xbc91a680	-0.017779589
194	0xbda67229	-0.08127243
195	0xbd22b3c1	-0.039722208
196	0x3d162543	0.03665663
197	0x3dc2332f	0.09482419
198	0xbb071be4	-0.002061599
199	0xbd811532	-0.06302871
200	0xbd7b3626	-0.061330937
201	0x3c3b2185	0.011421566
202	0x3d626e7e	0.055281155
203	0x3d804a10	0.06264126
204	0xbb45a423	-0.0030157648
205	0x3d45b973	0.04827256
206	0x3c879b87	0.016553653
207	0xbc9c14c8	-0.019052878
208	0x3d710bd1	0.05884916
209	0xbda77aa5	-0.081776895
210	0x3bb4371c	0.0054997336
211	0x3d59eb6f	0.053203043
212	0x3d92e95b	0.07173415
213	0xbd8481b2	-0.0647005
214	0x3dc40b6d	0.09572492
215	0xbd639b93	-0.05556829
216	0xbd3aa236	-0.045564853
217	0xbcd93c0e	-0.026517894
218	0x3c1f6051	0.009727553
219	0x3d7ea22f	0.06216639
220	0x3d47cf05	0.048781414
221	0xbd32cae6	-0.04365053
222	0x3c110b84	0.008852843
223	0xbd73b631	-0.059499923
224	0x3d832df0	0.06405246
225	0xbdc23db3	-0.094844244
226	0xbd89af29	-0.06722862
227	0xbba8cb9e	-0.005151226
228	0xbcfec6e5	-0.0311007
229	0xbda9fb3e	-0.08299874
230	0x3d7b1581	0.061299805
231	0xbcb6ad67	-0.022299482
232	0xbc9b8557	-0.01898448
233	0x3d87ccba	0.06630845
234	0xbc436a34	-0.011927176
235	0xb9cad368	-0.00038685952
236	0x3ca8f826	0.020626139
237	0xbcebface	-0.028806116
238	0xbd6a29bf	-0.05716872
239	0xbaa8ce1e	-0.001287881
240	0xbd837190	-0.06418145
241	0x3d0158c6	0.0315788
242	0x3d74c7f7	0.059761014
243	0xbcda2b42	-0.026631955
244	0xbd1e9468	-0.03871575
245	0x3d707029	0.058700714
246	0xbd2cbc14	-0.042171553
247	0x3d7bf0a4	0.06150879
248	0xbd2bb5ef	-0.041921552
249	0xbb9175e4	-0.0044391025
250	0x3c4c768f	0.012479438
251	0x3c79bcd3	0.015242773
252	0x3c2e951e	0.0106556695
253	0xbc93913f	-0.018013595
254	0x3d0bcc83	0.034130584
255	0x3cf2451b	0.029573968

lstm.weight_hh_l1 f4 [512, 128]
0	0xbd87259e	-0.06598972
1	0xbd09fa56	-0.033686005
2	0xbc5e10c0	-0.013553798
3	0x3c5eced7	0.013599119
4	0xbd8ce24e	-0.06879102
5	0xbbdbd749	-0.0067090136
6	0x3d121032	0.035659976
7	0xbb065658	-0.0020498242
8	0x3c9f17d9	0.019420551
9	0x3cead873	0.028667664
10	0xbd2dfc06	-0.042476676
11	0x3d95e9f7	0.07320016
12	0x3c0b7016	0.00851061
13	0xbcd40e88	-0.025885835
14	0xbb9cb14e	-0.0047818786
15	0x3c153ef3	0.009109247
16	0x3d85cf58	0.06533688
17	0x3da13c18	0.0787279
18	0xbda66a72	-0.081257716
19	0xbd614a8d	-0.055002738
20	0x3d636a18	0.0555211
21	0xbd9932a5	-0.07480363
22	0xbd1866f8	-0.037207574
23	0x3d4a2f5c	0.04936157
24	0x3d3e1c6a	0.046413817
25	0x3d9d042f	0.076668136
26	0x3db38743	0.087660335
27	0xbd1d6fd9	-0.038436744
28	0x38f67304	0.000117516174
29	0x3cbf526c	0.023354732
30	0x3ab2ef77	0.0013651688
31	0x3d2192f7	0.039446797
32	0x3d455490	0.04817635
33	0x3bc7d9fe	0.0060989847
34	0x3d9b1f7d	0.07574365
35	0xbab9bc0c	-0.0014170422
36	0x3cb2de54	0.02183453
37	0x3cb29137	0.02179776
38	0x3d85a771	0.065260775
39	0xbce0f5f6	-0.027461033
40	0x3d7789b6	0.060434066
41	0xbd1cdaa8	-0.038294464
42	0x3d56d50a	0.052449264
43	0xbd8f5290	-0.069981694
44	0x3cd44a67	0.025914384
45	0x3d8a036b	0.06738933
46	0xbcdd3d99	-0.027006911
47	0x3bdeb2c8	0.0067962147
48	0xbd5b67c1	-0.053565744
49	0x3d5c3928	0.053765446
50	0xbdadf52e	-0.0849403
51	0xbc2ce083	-0.010551575
52	0x3aa52915	0.0012600744
53	0xbc02c4e5	-0.007981514
54	0x3d84d576	0.06486027
55	0x3cdaf60e	0.026728656
56	0x3ad7eb8e	0.0016473399
57	0xbb1a1171	-0.002350893
58	0xbc99c139	-0.018768894
59	0x3da2fdd2	0.07958569
60	0x3d81499b	0.06312867
61	0x3d7fa779	0.062415574
62	0x3d5b1d0c	0.053494498
63	0x3ca2fc79	0.019895779
64	0x3d9748d8	0.07386941
65	0x3d38a9c6	0.045083784
66	0x3d8c3b6a	0.0684727
67	0x3da40e48	0.080105364
68	0x3d572404	0.05252458
69	0xbc4453a9	-0.011982837
70	0x3db71ff2	0.0894164
71	0xbd80bf07	-0.062864356
72	0x3caeda87	0.021344436
73	0x3d57b745	0.052665014
74	0xbc84362a	-0.016139109
75	0x3cb0e0b7	0.021591527
76	0x3d418b74	0.047252133
77	0xbd1dced5	-0.03852733
78	0xbc7a9c48	-0.015296049
79	0x3c601170	0.013676032
80	0x3d0567a5	0.032569546
81	0xbc633653	-0.013867932
82	0xbca723e0	-0.020402849
83	0x3caa92c5	0.020821938
84	0xbd8ae353	-0.0678164
85	0xbd8331f2	-0.06406011
86	0x3ce8488d	0.028354907
87	0x3c24c912	0.0100577045
88	0x3c6dc527	0.014512337
89	0x3c899ded	0.016798938
90	0x3d671a87	0.056421783
91	0x3d0955a6	0.033528946
92	0x3d8de8b1	0.06929148
93	0x3d78fe5c	0.06078945
94	0xbd685262	-0.05671919
95	0x3b30c46e	0.002697255
96	0xba6e9108	-0.0009100591
97	0x3b0c8299	0.0021440147
98	0x3d0b3cdf	0.033993598
99	0x3d995e0e	0.07488643
100	0xbd52f56a	-0.051503576
101	0xbd27a46f	-0.0409283
102	0xbd0ae84c	-0.03391294
103	0x3d9e4866	0.07728653
104	0x3a0fd77a	0.00054871256
105	0x3d97d830	0.07414281
106	0xbd076f5a	-0.033065178
107	0xbcfecb08	-0.031102672
108	0xbd242f3c	-0.04008411
109	0xbba18114	-0.0049287174
110	0x3cdb07a6	0.026737045
111	0xbd8c7e46	-0.06860022
112	0xbd31aa3f	-0.04337525
113	0xbd68aa6b	-0.05680315
114	0x3d87987f	0.06620883
115	0x3d06ec5c	0.032940254
116	0xbdbde986	-0.09273057
117	0x3aa173fd	0.0012317892
118	0xbd6d55b8	-0.057943076
119	0xbd4528fc	-0.04813479
120	0xbc06b18a	-0.00822104
121	0xbd9a7578	-0.07541937
122	0xbcf45291	-0.029824527
123	0xbda0bf63	-0.07849004
124	0xbce74b34	-0.028234102
125	0xbcea2d96	-0.02858619
126	0xbd45ebc8	-0.04832056
127	0x3d8958b8	0.06706375
128	0xbd319ef9	-0.0433645
129	0x3d10ab79	0.03531978
130	0x3d42b56b	0.047536295
131	0x3d4029f2	0.046915002
132	0x3d545949	0.05184296
133	0xbdb8d247	-0.09024482
134	0x3d2b8a80	0.04188013
135	0x3db35e8d	0.087582685
136	0xbd2dd855	-0.04244264
137	0xbc6bf021	-0.014400513
138	0xbd484f58	-0.048903793
139	0xba9c806a	-0.0011940126
140	0xbae23c3d	-0.0017260384
141	0x3c0550bc	0.008136924
142	0xbd269547	-0.040669706
143	0xbd912660	-0.070873976
144	0xbd69d086	-0.05708363
145	0x3d0f779a	0.03502617
146	0x3cef3f83	0.02920509
147	0xbd68ec1e	-0.056865804
148	0x3c4e4067	0.012588597
149	0x3cb8d430	0.022562116
150	0xbd294138	-0.041321963
151	0x3d65b3ef	0.0560798
152	0xbd9ebbb4	-0.07750645
153	0x3d4dd127	0.05024829
154	0xbd848e9d	-0.06472514
155	0xbced98e0	-0.02900356
156	0x3d05bc4c	0.032650277
157	0xbc7ebd58	-0.015548073
158	0x3d4902c0	0.04907489
159	0x3cf0928b	0.029366752
160	0xbc451a12	-0.012030141
161	0x3db8b9ed	0.090198375
162	0xbc735b28	-0.014853276
163	0x3af75b1e	0.001887176
164	0xbccf8428	-0.025331572
165	0x3bcffe23	0.006347434
166	0xbd6e4670	-0.058172643
167	0x3da10f6a	0.07864268
168	0x3c6fa6fb	0.014627214
169	0xbd7399b5	-0.05947276
170	0xbda39eda	-0.07989283
171	0xbdb6003a	-0.08886762
172	0x3ca801ed	0.02050873
173	0xbc8ec1c7	-0.017426385
174	0x3b839db5	0.004016603
175	0xbd21a70b	-0.039465945
176	0xbbb5eccc	-0.00555191
177	0x3b441cdd	0.002992443
178	0x3dcd455d	0.100229956
179	0xbc432caf	-0.011912509
180	0x3d43b9ad	0.047784496
181	0xbd9ad233	-0.075596236
182	0x3d10a792	0.035316058
183	0xbd015658	-0.031576484
184	0x3d5064f4	0.050877526
185	0x3c3b4ffb	0.011432643
186	0x3d9f2c9d	0.07772181
187	0x3d270674	0.04077764
188	0xbd486cf8	-0.048932046
189	0x3d9d58ee	0.076829776
190	0xbccfdee7	-0.025374843
191	0x3d9546ca	0.072888926
192	0x3d976610	0.07392514
193	0x3d11e42a	0.035617985
194	0x3d9e93bf	0.07743024
195	0xbc4056a8	-0.01173941
196	0xbcd8d536	-0.026468854
197	0xbc5510e0	-0.013004512
198	0x3dab4dc4	0.08364442
199	0x3da44aef	0.08022105
200	0x3d9274bf	0.07151174
201	0x3dbc2260	0.09186244
202	0xbccd204e	-0.025039818
203	0xbd843b24	-0.06456593
204	0xbc2f02af	-0.010681792
205	0x3b5ed232	0.0033999798
206	0xbd23e452	-0.040012665
207	0xbd01784f	-0.031608876
208	0xbb2bc94a	-0.0026212507
209	0x3bc6418c	0.0060502943
210	0x3d1c7be3	0.038204085
211	0x3d656fcd	0.056014825
212	0x3dae1473	0.08499994
213	0xbc22199f	-0.009893804
214	0xbce66085	-0.028122196
215	0xbd46d4fd	-0.048542965
216	0xbd9d4e72	-0.07680978
217	0x3d952162	0.07281758
218	0xbd861cbf	-0.06548452
219	0xbd4ad6ac	-0.049521133
220	0xbd9f376d	-0.077742435
221	0xbcd47e99	-0.025939273
222	0xbdb2f9af	-0.087390296
223	0xbd408898	-0.047005266
224	0x3cdf1e3b	0.027236095
225	0x3c788936	0.015169432
226	0x3dcb213e	0.0991845
227	0x3dad1b7f	0.0845251
228	0xbd94052d	-0.0722755
229	0x3d4d7343	0.05015875
230	0x3d5c1004	0.05372621
231	0xbd909ac3	-0.070607685
232	0x3d9cfdac	0.076655716
233	0xbc0e9c66	-0.0087042805
234	0x3d20c5ea	0.039251246
235	0x3d9f9ecd	0.07793961
236	0x3c90246c	0.017595492
237	0x3cc10331	0.023561092
238	0xbd5042a3	-0.0508448
239	0xbbd87bca	-0.0066065537
240	0x3d9e2ba7	0.0772317
241	0x3db40a2d	0.087910034
242	0xbd0077c9	-0.031364236
243	0x3d3256b1	0.043539707
244	0xbc5e31e1	-0.013561697
245	0xbd6ba4c1	-0.05753017
246	0x3d677bd0	0.05651456
247	0x3d833151	0.06405891
248	0xbdaf7634	-0.08567467
249	0x3d323467	0.043507006
250	0x3d8ec29e	0.06970714
251	0x3da4fd22	0.08056094
252	0x3c96c97a	0.018406618
253	0x3c53e6d5	0.012933453
254	0xbd39449f	-0.045231458
255	0x3d07b2b4	0.03312941

lstm.bias_ih_l1 f4 [512]
0	0xbbff57ff	-0.0077924724
1	0xbcc69cd9	-0.024244713
2	0xbd4635de	-0.048391216
3	0x3d2a3a84	0.04155971
4	0xbd9d7ef1	-0.07690228
5	0xbd07e2e3	-0.03317536
6	0xbd6e79f6	-0.05822178
7	0x3cd52607	0.02601911
8	0xbcb4dfea	-0.022079427
9	0xbce8b49c	-0.028406434
10	0x3d2d3ee1	0.042296294
11	0xbc97338d	-0.018457199
12	0xbb720cce	-0.0036933902
13	0x3d58e0c1	0.052948717
14	0xbd70c5ce	-0.05878239
15	0x3dd713a7	0.10501795
16	0xbd82bf95	-0.063841976
17	0x3c273273	0.010204899
18	0x3b818d0c	0.0039535817
19	0x3d012f0b	0.031539004
20	0xbd8597f7	-0.065231256
21	0x3d70eaac	0.05881755
22	0xbd329149	-0.043595586
23	0xbcd94082	-0.026520018
24	0xbd9b8841	-0.07594348
25	0xbd01b66c	-0.03166811
26	0xbd53a96b	-0.05167524
27	0x3d7f9f46	0.062407754
28	0xbb466ebb	-0.0030278403
29	0xbc77e1ca	-0.015129516
30	0xbd7cb0dc	-0.061692104
31	0xbd414625	-0.047186036
32	0xbd5398a5	-0.051659245
33	0xbdb810ee	-0.08987604
34	0x3c24b149	0.010052034
35	0x3cd6bccf	0.026213078
36	0xba6f3818	-0.0009125485
37	0x3d765c6e	0.06014674
38	0xbd177051	-0.036972348
39	0x3dd1afdd	0.102386214
40	0x3cafb608	0.021449104
41	0xbd8f3e11	-0.0699426
42	0x3dcf8f79	0.10134787
43	0x3c88e5dd	0.01671117
44	0xbd19dcaa	-0.037563957
45	0xbc3b4c4b	-0.011431764
46	0xbd0ee626	-0.034887455
47	0xbd36faa3	-0.04467262
48	0xbd96d99b	-0.07365724
49	0xbd65416d	-0.055970598
50	0x3d81373f	0.063093655
51	0xbd0999ed	-0.03359406
52	0x3da31172	0.07962312
53	0xbce93d23	-0.028471535
54	0x3d8073b1	0.062720664
55	0xbd69c391	-0.057071272
56	0xbc122d17	-0.008921883
57	0xbd6dfc24	-0.05810179
58	0x3d8112db	0.063024245
59	0x3d6101d9	0.054933403
60	0xbba292d8	-0.004961353
61	0xbc77774f	-0.015104129
62	0x3d551dcd	0.052030373
63	0xbd6c3d4d	-0.05767565
64	0xbd991599	-0.074748226
65	0x3d96584e	0.073410615
66	0x3db9b98b	0.09068593
67	0xbd93c300	-0.07214928
68	0x3d7bdc3f	0.06148934
69	0x3d4929fc	0.049112305
70	0x3bc1a249	0.0059092385
71	0x3d2092cb	0.039202493
72	0x3cb11935	0.021618465
73	0xbd151ae2	-0.03640259
74	0x3d7d67bb	0.061866503
75	0x3d023cbc	0.031796202
76	0xbda62f45	-0.08114485
77	0x3d3cb21b	0.046068292
78	0x3cfe8ce3	0.03107304
79	0xbd91d3c3	-0.071204685
80	0xbd31b1db	-0.043382507
81	0xbd990a4c	-0.07472667
82	0x3b003817	0.0019564682
83	0xbdb380c9	-0.08764798
84	0xbda9cfcc	-0.08291587
85	0x3da7c274	0.08191386
86	0xbd7a762e	-0.06114786
87	0xbcd7eaa3	-0.026357
88	0x3da4743c	0.080299824
89	0xba216585	-0.000615679
90	0x3cf5f2e1	0.03002304
91	0xbd84112f	-0.0644859
92	0x3d29291d	0.041298974
93	0xbc3cecfe	-0.011531113
94	0x3c1cf848	0.009580679
95	0xbcadb605	-0.021204958
96	0x3cb08d65	0.021551797
97	0x3ce5a581	0.02803302
98	0x3d38a7a9	0.04508177
99	0x3d2ce185	0.04220726
100	0xbd29e944	-0.041482225
101	0x3c9e4cb0	0.019323677
102	0xbd5e3bca	-0.054256238
103	0xbd808e89	-0.062771864
104	0xbc29c3ed	-0.010361654
105	0x3d6fe859	0.058571193
106	0x3da290ef	0.079378
107	0xbd84a30f	-0.064764135
108	0x3daa9841	0.083298214
109	0x3d514484	0.051090732
110	0xbd0d9498	-0.03456554
111	0x3d41baa6	0.047297142
112	0xbb5cc3b1	-0.0033685977
113	0xbd2182eb	-0.039431494
114	0xbd605e82	-0.05477763
115	0x3d12cb79	0.035838578
116	0x3d855150	0.0650965
117	0x3d3e3a4a	0.046442308
118	0xbdb5c86f	-0.0887612
119	0xbcf310b7	-0.029671056
120	0xbd70b619	-0.05876741
121	0x3cb03457	0.021509333
122	0x3c75e581	0.015008331
123	0x3d7b846a	0.061405577
124	0xbcfe24c7	-0.031023396
125	0x3d70011c	0.058594808
126	0x3da4fc1a	0.08055897
127	0xbab2f79a	-0.0013654113
128	0xbbde48bb	-0.0067835725
129	0xbd1746c6	-0.03693273
130	0x3d80f1b5	0.06296102
131	0xbd6247a8	-0.055244118
132	0x3ca6a11c	0.020340495
133	0xbd7cb87b	-0.06169937
134	0xbc9562f1	-0.018235656
135	0xbd6a145a	-0.057148315
136	0xbd830e0c	-0.063991636
137	0xbdaa339d	-0.08310626
138	0x3ce4511b	0.027870705
139	0xbd8ba9f6	-0.06819527
140	0x3c9eaf3c	0.019370668
141	0xbd807ffc	-0.06274411
142	0xbb9d19c6	-0.004794332
143	0xbc0b8048	-0.008514471
144	0x3bb5385b	0.0055303997
145	0x3d1c605f	0.038177844
146	0xbce411ed	-0.027840579
147	0x3d88b1bc	0.06674525
148	0xbbe5253f	-0.0069929655
149	0xbc999f39	-0.018752681
150	0x3d775696	0.06038531
151	0x3d788c06	0.06068041
152	0xbc840e67	-0.016120149
153	0x3d8044d0	0.06263125
154	0x3dbabde2	0.091182485
155	0xbd288502	-0.04114247
156	0x3d375238	0.044756144
157	0x3cbd531e	0.023110922
158	0x3d869c20	0.06572747
159	0xbd3c6209	-0.04599193
160	0xbd813d90	-0.0631057
161	0x3d0ca1f0	0.034334123
162	0xbd497132	-0.049180217
163	0x3d46e67c	0.04855965
164	0x3d027d49	0.031857762
165	0x3d720326	0.059085034
166	0x3c04e2b4	0.008110691
167	0x3c5288f7	0.012850038
168	0xbdc0a8da	-0.09407206
169	0x3d28c45b	0.041202884
170	0x3d038292	0.032106943
171	0x3d0460ab	0.032318752
172	0x3c9a82ba	0.018861163
173	0x3d682cae	0.056683235
174	0x3dcd928d	0.10037718
175	0x3be2ea2d	0.0069248886
176	0xbda8e336	-0.08246462
177	0xbc8ad5bb	-0.016947618
178	0x3d30dd67	0.043179896
179	0x3d9d4786	0.07679658
180	0xbd339300	-0.043841362
181	0xbd05c930	-0.03266257
182	0x3ace7e25	0.0015754147
183	0x3d383196	0.044969164
184	0xbd4e0950	-0.05030185
185	0xbdad0045	-0.08447317
186	0x3d2a8323	0.041628968
187	0x3d6f0af6	0.058360063
188	0x3dbbee13	0.091762684
189	0xbdbbab24	-0.09163502
190	0x3cd01c31	0.025404068
191	0x3d6df742	0.05809713
192	0xbcfb9ca6	-0.030714344
193	0x3d793b33	0.060847472
194	0x3d716363	0.058932673
195	0x3d607059	0.054794643
196	0x3d116e76	0.035505734
197	0x3967b1e0	0.0002209614
198	0x3d2e848d	0.04260688
199	0xbd35e37c	-0.0444064
200	0xbd36a282	-0.044588573
201	0xbd18dae6	-0.037318133
202	0x3b01c7dc	0.0019802963
203	0x3d61b247	0.05510166
204	0x3d8ed0a0	0.06973386
205	0x3d649825	0.05580916
206	0xbb294c22	-0.0025832732
207	0xbd9f7af2	-0.07787122
208	0xbd3aef95	-0.04563864
209	0xbcfe7d10	-0.031065494
210	0x3d2cf72c	0.04222791
211	0xbd7e93b6	-0.062152587
212	0x3d524ff3	0.051345777
213	0x3da3984b	0.07988032
214	0xbd3c1f36	-0.045928203
215	0x3d9f9c5c	0.07793495
216	0xba6fdce1	-0.000915004
217	0x3d9225b5	0.07136098
218	0xbd8399a7	-0.06425791
219	0x3d653b02	0.055964477
220	0xbd38cf70	-0.045119703
221	0x3d94cbf8	0.072654665
222	0x3da8a3ad	0.08234344
223	0x3d88d7ee	0.0668181
224	0x3d47b2aa	0.04875437
225	0xbdbeeba7	-0.09322291
226	0xbd81ac02	-0.06331636
227	0x3d64a8aa	0.055824913
228	0x3bea5261	0.0071509336
229	0x3a8dbb27	0.0010813222
230	0x3d334c24	0.043773785
231	0x3d9424cc	0.07233581
232	0xbd0df1bb	-0.03465436
233	0xbdae408d	-0.08508406
234	0xbd3382d5	-0.043825943
235	0xbb1024b6	-0.0021994538
236	0xbd24e251	-0.040254895
237	0xbd43290c	-0.047646567
238	0x3c310a4a	0.010805676
239	0x3da459d1	0.080249436
240	0x3ce4404d	0.027862692
241	0xbc9a394e	-0.018826153
242	0x3c215a4d	0.00984819
243	0xbc9807b4	-0.01855836
244	0x3d96e8da	0.07368632
245	0x3c65d9e2	0.014028998
246	0xbda0442c	-0.07825503
247	0xbd9d9267	-0.0769394
248	0xbd0c0986	-0.03418877
249	0xbca2f518	-0.01989226
250	0xbc967e90	-0.018370897
251	0xbd27fc60	-0.041012168
252	0xbd096a4f	-0.03354865
253	0xbd870ba0	-0.06594014
254	0x3d4ccce7	0.050000098
255	0xbc167c7b	-0.009184952
