04_Models/weekly/HBEA/sentiment/best_model.pth (torch, 946869 bytes, 11 tensors)

lstm.weight_ih_l0 f4 [512, 64]
00000000: e6d3 d23d 51c7 113e bf2c 03be 8a40 063d
00000010: 6848 753d b1d4 14bd 3ffa 4fbd 4b3c 60bd
00000020: eb91 1dbd 9637 763d e270 8abc e6d5 833c
00000030: e63e 01bc f515 d53d 2171 d0bc f5b5 7e3d
00000040: 5c4e 9a3d e340 a53d 4d2e bf3d d202 c23a
00000050: f3ad d23d 7988 3b3d 6731 733d 99cb 2f3d
00000060: 9723 873c e75f 2f3d c633 d03c 1cfe ef3d
00000070: ea17 8fbd d517 ed3d f4da c83d 1220 923d
00000080: df14 de3d f809 6b3d 1e83 693c 9781 c43d
00000090: 091a 063d 5326 833d 7bb0 a53d bc16 f53d
000000a0: 7d36 663d 81fd 47bd 6c42 6c3d 7967 2dbe
000000b0: 3bd6 983d 2352 01be 096f cbbd f668 1c3d
000000c0: efc0 30bd 5ab7 fc3d 7fe6 4a3d b0c4 2e3d
000000d0: e5ac cd3d 2f4a b2bb 17ff 1abd e247 60bd
000000e0: a732 383d 4283 29bc 3093 aabc 8faa 49bc
000000f0: 8b69 1a3e 00cd 4dbd 6c74 133c 4298 4f3d
00000100: d001 9f3c 99cb c33b 782d 7cbd dfaf 1ebd
00000110: 37c5 b9bd 003a a8bd 7ff5 57bc 5c56 5abd
00000120: 3429 89bc 3da2 0abc 9e5b d33c 61dd 10bc
00000130: a1f4 89bd f0b9 f7ba 3238 88bd 51ca 1b3d
00000140: cd33 55bd 8789 773d c3df 93bd 645a 8dbd
00000150: 69cb 613d e85e bebd 5b8f 80bd 8004 c1bc
00000160: 4454 1f3d cf5e bdbd 0671 093c 4c20 2d3d
00000170: c267 9fbc cdae b43d 37cb 87bd a7b1 db3b
00000180: a26b 16bd 4d0c ab3d 2431 463d 204b b13c
00000190: 8059 2f3c 4a2e cbbd 77cb 7e3d 5e2c 7abd
000001a0: 5093 41bd 9164 043c b085 7d3d bc68 203b
000001b0: 62d2 22bd 4dcc f53c 92b0 003d 420b 39bd
000001c0: 574f a4bd b45e c13c dddd 45bd 1c8f 5d3c
000001d0: bd72 bfbd 7bee 8bbc 4013 63bd a001 58bd
000001e0: 1918 7f3c 8b1f 533d 87a6 d1bc ea5d afbd
000001f0: 2c67 f93c 27d9 41bd e4e6 80bc 275b 7abb
00000200: 311d b53c 9735 31bd 7028 16be 405a aebd
00000210: b5b2 b5bc a900 0b3c 92d2 92bd f341 813d
00000220: c4af bfbc b100 1fbd e5ab f6bc 6d21 a73c
00000230: bcaf 613d 55b1 abbd 2742 98bd fa57 b4bd
00000240: 5954 6e3d f469 13bd d414 59bd ec76 a3bd
00000250: e009 0bbe bb2e e7bc 87c1 64bc ebca c73c
00000260: c2a4 093d b5dd 9dbd b78c 533d fe29 f03c
00000270: fbd3 87bd 74bc 34bd 446f 7d3c 23ef 92bb
00000280: 53e3 c73c f090 c23a f936 013d df92 b33c
00000290: e867 9e3d 00e7 71ba 39c9 ae3a 61f5 4fbd
000002a0: ba78 37bc cec0 343d 558e 0c3d a57c a83d
000002b0: 2608 39bd a3b2 113e f73e fc3d 24e6 693d
000002c0: 7c1a a73d d4ad 273d a51b 8dbd 28e7 3ebd
000002d0: 5c2a 01bd 3f08 6e3d 098a 713d 1a89 b33b
000002e0: 15c3 07bb b95f 9e3c c72b 05bd fd7e 44be
000002f0: 820a dd3c 3d35 b8bc 68b8 403d daf2 a1bd
00000300: 0285 cd3b 7a2e 693d aaf4 4cbd 4194 ae3c
00000310: 8a58 f13c 551e 5abd c55b dfbc 50a0 fb3d
00000320: f2c9 e03d efd3 d43c 7576 f53d d292 ad3d
00000330: df59 28bd 769f 32bc 5930 aa3b b7ae 033e
00000340: 2e07 8e3d 1066 b73d 6583 bfbb a970 f43d
00000350: 6b9f 8b3c b3b8 5bbc b9a0 823b fbdf e43c
00000360: 6705 c93c 4c40 e33d 3e7a 263d abc1 663d
00000370: dacd c5bd 1870 3d3d 408a 0d3e a052 9f3d
00000380: 58be 853d e6e1 eebc 5805 35bb 9c1c 99bb
00000390: 802c b93d b2b9 973c e92e 5d3d 8001 103e
000003a0: ec63 a3bd c079 1c3d a1bf 943c 1619 11be
000003b0: be72 c83c 3311 7f3d 8107 e1bc 4187 2a3d
000003c0: 955b f7bd 5e87 fc3c 8328 af3d c8ab b83d
000003d0: dcab 113d 4900 6abd e2e7 adbc 7da6 0b3c
000003e0: d88c afbc 7b3e 473d 2aca b63d a358 103c
000003f0: db58 a53d 9075 f0bc 4186 7f3d 714e a33d
0.10294323 0.1423619 -0.12810038 0.032776393 0.059883505 -0.03633565 -0.050775763 -0.054745
-0.038469236 0.060111605 -0.01689953 0.016093206 -0.007888531 0.104045786 -0.025444569 0.062185246
0.07534477 0.08069017 0.09335003 0.0014801866 0.102870844 0.045784447 0.059373286 0.042918775
0.016496463 0.04281607 0.025415312 0.117183894 -0.06986983 0.11576811 0.09807387 0.07135023
0.108438246 0.057382554 0.014252452 0.0959503 0.032739673 0.06403794 0.080903016 0.11967227
0.056204308 -0.048825745 0.057680532 -0.16934003 0.07462736 -0.12628989 -0.09933288 0.038186036
-0.043152746 0.12339659 0.049536224 0.042668045 0.10042743 -0.0054409723 -0.03784093 -0.054756053
0.04497018 -0.010346236 -0.020822138 -0.012308731 0.15079324 -0.05024433 0.008999925 0.050682314
0.019410044 0.0059751985 -0.0615668 -0.038741942 -0.09070819 -0.082141876 -0.013181089 -0.053305015
-0.01674328 -0.008461532 0.025800522 -0.008841843 -0.067361124 -0.0018900018 -0.066513434 0.03803474
-0.052051354 0.06043389 -0.072204135 -0.06902006 0.055125628 -0.09295446 -0.06277343 -0.023561716
0.03889872 -0.09246599 0.008388763 0.04226713 -0.019458655 0.08822403 -0.06630557 0.0067045274
-0.03672374 0.083519556 0.048386708 0.021642268 0.010702491 -0.09920938 0.062205758 -0.061077468
-0.04725963 0.0080806175 0.061895072 0.002447649 -0.039751418 0.030004645 0.03141839 -0.045176752
-0.080229454 0.023604728 -0.04830729 0.013522889 -0.093480565 -0.01708149 -0.05543828 -0.052735925
0.01556971 0.051543754 -0.025592102 -0.085628346 0.030444704 -0.047326233 -0.015735097 -0.0038201304
0.022108646 -0.043263998 -0.14663863 -0.085133076 -0.02217994 0.008484044 -0.07169069 0.06311407
-0.023399241 -0.03881902 -0.030111263 0.02040168 0.055099234 -0.08383433 -0.074344926 -0.08805843
0.05818591 -0.035989717 -0.05299838 -0.07981667 -0.13577986 -0.028220525 -0.013962156 0.024388751
0.03360439 -0.07708303 0.051647868 0.029316898 -0.06632229 -0.044125035 0.015468422 -0.0044840737
0.024400389 0.001484422 0.031546567 0.02192062 0.07734662 -0.0009227842 0.0013335116 -0.05077112
-0.011198217 0.044129185 0.034315426 0.08226899 -0.045173787 0.14228301 0.12316697 0.057104245
0.08159348 0.04093726 -0.068900384 -0.046607167 -0.031534538 0.058113333 0.05896953 0.0054789903
-0.0020715643 0.019332753 -0.032512452 -0.19189067 0.02698255 -0.022486323 0.047050864 -0.079076484
0.0062719593 0.05692909 -0.050038017 0.021310927 0.029461164 -0.053251583 -0.027265439 0.122864366
0.10976018 0.025979964 0.119854845 0.084752694 -0.041101333 -0.010902276 0.005193752 0.12859617
0.06934963 0.08955014 -0.005844521 0.11935551 0.01704379 -0.013410735 0.003986445 0.027938833
0.024538709 0.11096248 0.040643923 0.05633704 -0.09658404 0.04624948 0.1382227 0.07779431
0.06530446 -0.029160451 -0.0027621593 -0.0046726 0.09041691 0.018521164 0.053999815 0.14063072
-0.07978043 0.038202047 0.018157782 -0.14169726 0.024468776 0.06227226 -0.027469398 0.041632894
-0.12078015 0.030826267 0.08552649 0.0901714 0.03556429 -0.05712918 -0.021228734 0.008523581
-0.021429464 0.04864357 0.089252785 0.008810195 0.080735885 -0.029352933 0.062383894 0.07973946

lstm.weight_hh_l0 f4 [512, 128]
00000000: 8bae 983c 233a 933c 4c29 ed3b 075d 90bd
00000010: d659 7cbd c084 a0bd 755a ddbc 5a60 bdbc
00000020: d191 11bd cc5b 7dbd 18f5 a9bd 483e 89bd
00000030: 7cac 83bd c5d4 6f3d dea2 9b3d a86f 493d
00000040: bc85 b13c eebd b23c 6444 bd3d 913b 30bd
00000050: 04a4 4ebd 6967 58bd e53d 9c3d 9974 7f3d
00000060: 0af0 17be 2dcc a43b ce88 5bbd a280 a63b
00000070: acb3 89bd fb45 d3bd 59df 19bd e671 6f3d
00000080: 608e 49bc 7ad7 91bd 2fdd 74bd 03ef 5abc
00000090: a87d 54bd e89c 1a3d 9c24 2ebd b1f8 693d
000000a0: 1353 ca3d 76a7 4bbd fe9e eebd cbdd 08bd
000000b0: 09ad c03d fba8 53bc 5e73 3a3d fc34 30bd
000000c0: 8a50 d13d 3ae8 c3bc 5236 0bbd 75de 61bd
000000d0: 8416 82bc eb57 3f3d 5ba7 29bd d0c3 ffbd
000000e0: bfd2 f83b 0d02 413d 842f 85bd f6d8 0b3b
000000f0: 528f 8a3c f3a8 d43c 0a1d 0e3c 9768 803c
00000100: 2fc1 8d3d 4f08 04be ee5c 893c 8f08 cbbb
00000110: 0c02 b53d 11b1 36bd 14e2 9b3c a99b 02be
00000120: c7ed a13b c985 043e 4ebf 1d3d b14f 213d
00000130: e967 2b3d 3692 6abd e2c4 333c a162 3a3d
00000140: a1c3 05bd 4b11 abbb cca8 8abd 38b3 ffbc
00000150: cc21 873d 2408 4ebc 56ad cc3c 4d22 3bbd
00000160: c0d1 ab3d 7939 12bd 4708 91bd c83c 0fbe
00000170: 238e c3bc f5ab e9bb 26dd 43bc e165 d1ba
00000180: d18c 58bd a9b8 a93d 5612 0ebc 787f 653d
00000190: b0c0 6ebd ccf4 1cba 89fa 8bbc 5ad0 bcbd
000001a0: 9179 52bd 142f 5b3d d088 8d3c f934 66bc
000001b0: 347c 7b3c eaec adbb 0369 e93c c4ee abbd
000001c0: 93a2 15bd 1f16 a63d dce1 0a3e 3716 4bbd
000001d0: 4911 ca3d b192 163d 0d19 093d 3569 b43d
000001e0: 9746 90bd ff5a 983d d35b 8a3c 84a4 04bd
000001f0: c093 a4bd 1555 7cbd f8f5 67bb 3556 74bc
00000200: 8926 3abb 6002 9a3d 3c09 24bd 03ef 4e3d
00000210: 483a 473d ad74 3e3c 1980 26bd e687 87bd
00000220: fc9b f63c af1b c6bc 5ecd c33d e9a4 9cbd
00000230: f507 6fbc d733 b5bd 229f 8c3d 191c 473d
00000240: 6152 903d 2ca0 6cbd 5a8d 94bc 27fd 17bd
00000250: df37 d5bc 3534 c1bd de8b ba3d 72fc 9b3d
00000260: b74b e2bc 2859 643d b026 59bd 4934 ae3c
00000270: 01e2 993d bb2b 94bd 668f a93d eb0e 9abd
00000280: e89a fd3c 117e ddbc 340d d63d e2ba 903c
00000290: 7dc2 303d f709 3cbd f15a b73c f3d6 32bd
000002a0: fb16 393c 2f48 2bbc 1278 a4bd fada 8e3d
000002b0: 537b aebd e806 aebd 72e6 c3bd 827e 83bd
000002c0: df5f 3bbd c45d f43c 775d 663d aa06 88bd
000002d0: 300d 09bd 645b 013c 297e af3c 7fe7 ffbc
000002e0: 1050 e8bc 63c8 6cbc 1aa3 fc3c 48d2 d73b
000002f0: 09a2 073d f5fd 0f3d 1b56 f73c 049b 813d
00000300: 9bc3 b7bd ae56 393d f7ef 27bc 168c 3ebd
00000310: 6f65 70bd 7005 bebd 8977 b7bc ca6d a83d
00000320: fd64 0fbd 4e81 3dbd 5369 0b3d 2123 843d
00000330: 150b 553d e2b9 81bd 3504 df3c 4326 863d
00000340: f0e4 e13c 2b01 6f3a ca52 f23d 0499 a1bb
00000350: cdda f23c 381d aa3d 4aae b93d 73e0 b3bd
00000360: d58a 493d 1cd8 fb3b f0e9 cabd 2bc2 323c
00000370: 2dc9 313c 2c18 9f3d dd42 a13c 2778 8abd
00000380: 0b6f ac3d 367a 25bd 9301 423c e62b 72bd
00000390: 80da 473a 4c46 d6bb 7acf e63b ecbe 2cbd
000003a0: 8bff 4e3d 6997 5a3d 20c5 18bd 2295 f0bb
000003b0: 46f0 c33c 66a8 823d 4e04 3f3c 79b4 3fbd
000003c0: 7ae9 893d 349d 653d 6b2a 3bbb 3ad7 c43d
000003d0: a98a 563b e116 693d ad4e 8c3d ce0d 5dbd
000003e0: 8523 a2bd 62a6 793d f77b 3abd 5789 90bd
000003f0: d26b 873d 8ebf 46bd 030a 773d 2e2a 0dbc
0.018637916 0.017972058 0.007237589 -0.070489936 -0.06160911 -0.0783782 -0.027020672 -0.023117233
-0.035539452 -0.061855122 -0.08298701 -0.06701332 -0.06429383 0.058552522 0.07599424 0.04917875
0.021670215 0.021819081 0.0924156 -0.043025557 -0.050449386 -0.052832995 0.07628993 0.062367056
-0.14837661 0.0050292225 -0.053597264 0.005081252 -0.06723723 -0.10316082 -0.037566517 0.05845823
-0.012302011 -0.07121177 -0.05978125 -0.013362649 -0.051877648 0.037747294 -0.042515382 0.057121936
0.098791264 -0.04972025 -0.11651419 -0.033414643 0.09408004 -0.012918706 0.04552018 -0.04301928
0.1022044 -0.023914445 -0.03398735 -0.055143792 -0.015879877 0.046714704 -0.04141937 -0.1248852
0.0075934823 0.047121096 -0.065032035 0.0021339036 0.016914044 0.025959468 0.008673916 0.015674872
0.069216125 -0.12893794 0.016767945 -0.0061960886 0.08838281 -0.044602457 0.0190287 -0.12754692
0.0049416753 0.1294166 0.03851252 0.03938264 0.041847143 -0.057268344 0.0109722335 0.045504216
-0.03265727 -0.0052205673 -0.06770477 -0.031213388 0.06598243 -0.012575183 0.024984997 -0.04568701
0.08389616 -0.03569934 -0.07081657 -0.1398803 -0.023871487 -0.0071310946 -0.011954581 -0.0015975797
-0.052868668 0.08287174 -0.008671364 0.056029767 -0.05828923 -0.00059874053 -0.017087238 -0.092194274
-0.051385466 0.053511694 0.017277151 -0.014050716 0.015349437 -0.0053077834 0.028492456 -0.0839515
-0.036531996 0.08109688 0.13562721 -0.049581733 0.09866578 0.03676099 0.033471156 0.08809129
-0.07044714 0.07439231 0.016889488 -0.032383457 -0.080359936 -0.061604578 -0.0035394412 -0.0149131315
-0.0028404316 0.07519984 -0.04004787 0.050520908 0.048639566 0.011624497 -0.040649507 -0.066177174
0.030103676 -0.024183122 0.09560655 -0.076486416 -0.014589299 -0.08847778 0.0686629 0.04861078
0.070469625 -0.05776994 -0.018133808 -0.03710666 -0.026027618 -0.09433786 0.09108709 0.076165095
-0.027623994 0.05574909 -0.05301541 0.021265166 0.0751381 -0.072349034 0.08279304 -0.075223766
0.030957654 -0.027037652 0.10451737 0.017667238 0.04315423 -0.04590794 0.022382231 -0.043662023
0.011296983 -0.010454222 -0.08030714 0.0697536 -0.08519616 -0.08497411 -0.09565438 -0.06420614
-0.045745727 0.029829867 0.05624148 -0.06641896 -0.033459842 0.007895324 0.021422463 -0.031238316
-0.02835849 -0.014452073 0.030839492 0.006586347 0.033113513 0.0351543 0.030192425 0.06328395
-0.08972856 0.04524868 -0.010250083 -0.046520315 -0.058690485 -0.09278381 -0.022395866 0.082240656
-0.03500842 -0.046265893 0.034035992 0.06452013 0.05201252 -0.063342825 0.027223686 0.065502666
0.027574986 0.00091173005 0.11832197 -0.004931571 0.029645348 0.08306354 0.09066446 -0.08783045
0.049204666 0.0076856744 -0.09907901 0.010910551 0.010851187 0.07768282 0.019685203 -0.067611985
0.08419617 -0.040399753 0.011841196 -0.059123896 0.00076238066 -0.0065391418 0.007043776 -0.042174265
0.050536674 0.053367052 -0.037297368 -0.0073419968 0.023918282 0.06379776 0.011658741 -0.04680297
0.06733985 0.056058124 -0.0028559219 0.09611364 0.0032736456 0.056906585 0.06850944 -0.053968243
-0.07916931 0.06094969 -0.04552838 -0.070574455 0.06612362 -0.048522525 0.060312282 -0.008616013

lstm.bias_ih_l0 f4 [512]
00000000: 9b2c 78bc eb95 48bc 9654 863c 266e 8a3b
00000010: d5ef 763d 6897 373d 650e 993d d658 3abd
00000020: 0983 003e e6a9 f1bc 1881 e63d 1df6 fb3c
00000030: 8b1c 88bd 32b3 c1bd 103b 663d 5245 9bbc
00000040: 43c5 98bd a2ee 5cbd ec81 fabb e1b4 f3bd
00000050: 1e61 593d 4021 94bd 0bcb cabc 4b9b 16bd
00000060: b32e 8abc 663a b63c 92a6 db3d 0acc 863c
00000070: 8a3b ab3d 92a3 e33d 785a aebb 5b07 3f3d
00000080: 6537 eb3c b61e 1f3a f4e4 25bd 22c3 96bc
00000090: c7ca 43bc b58e ef3c 1630 973d 51fd 83bb
000000a0: 5cba 6c3d c4f0 18bd 6f26 f3bd 49c6 5e3d
000000b0: 53a1 89bb e912 9fbc 6346 7fbd b509 683a
000000c0: 8774 a03d 7829 af3c dbd1 9d3d 4150 c13d
000000d0: bf9c f53d e828 503d 50c8 99bd a671 9fbd
000000e0: 4a1d e7bc 5d6f a83d 0c23 abbc 3dad 8c3d
000000f0: ebb8 79bb bea0 9aba a556 963d 6ec8 6cbd
00000100: 1610 bebc 0ea2 c4bd 5144 a03d 67f7 d03d
00000110: 4fff d4bd 112d d13d 9c82 c43c 4912 b039
00000120: 350a 0b3c 4a61 eabc 3f3c 45bd 49df a3bc
00000130: 741f 08bd 38cb d73c 5f66 da3d 2c8a b43d
00000140: 5f46 ef3d 08fa 703c 1d99 96bd 9191 9ebd
00000150: 2f5d fbbb 0d19 2fbd 58a5 833d 4e01 f8bb
00000160: 61ce 6c3a 1df0 cf3a 7305 023c 9947 ba3d
00000170: 46e0 d63c 2fe2 993b 85ef 763c 275a f6bc
00000180: 9ef4 353c 49b7 db3d a51c e43c 2cc0 b3bc
00000190: 1eaa ea3d 80d8 9d3c c10d fd3d 1c86 8c3d
000001a0: 0131 9fbc 9a9c a73d c33f 32bd 1807 afbc
000001b0: df6b 563d 5db1 ad3d d3bc c13d b1a7 5ebc
000001c0: 00ee 8cbd 23da 48bd b554 d4bd 8c7b c8bd
000001d0: 1ae6 f2bb 5cbd 9ebc 9d11 5a3b 6640 22bd
000001e0: 5aa3 97bd 932b bd3d 4dc6 223d c89b 853a
000001f0: a0b4 8c3c 088b 4abd cc77 c73d c0c4 713c
00000200: ec07 92bd c6e9 a73b 1af1 b2bc e1b9 6a3d
00000210: fd6b 55bd 601a 8e3d 8b3c 7fbc 22d4 acbc
00000220: 5508 5f3d 550f 80bd a0ea f53c 57e8 b2bd
00000230: ba9b 8b3d 277d 99bd 4d4c a73c c0e0 19bc
00000240: e3ed 39bc c4b8 30bd a9f6 263d 139a d7bd
00000250: ec9a dc3d a9cf f73c eb69 813d 004e aebd
00000260: 4206 383d 5346 a23d e6bd 583c ab63 8abc
00000270: 1ad3 ee3c 93b9 71bd 700e 723d 5a2d 363d
00000280: d06f 6ebd 88c1 64bd c2a4 f3bc ffe9 153c
00000290: 108f 883c 3ca7 a2bc dc8c 813d 3d31 a5bd
000002a0: a3aa 65bd 6f87 df3d f364 00be 9485 5d3d
000002b0: a796 02bd c604 093c 46cd 4cbd 6017 263d
000002c0: f956 ae3d 8594 0f3c 367b 2a3d cbe5 353d
000002d0: d0ac a73d 1cc8 e9bc 97ec a4bd 5808 9a3d
000002e0: fa55 203d 8d6f 973d 9bda 14bd 9582 3b3c
000002f0: b4e7 c43d a97d bf3a acb3 13bd d512 54bb
00000300: f6f4 4b3d 9c5a 84bc 8e96 92bd 6344 a43d
00000310: 10e8 69bd 6aa4 813d 0704 31bd 15ce 953d
00000320: 016d 80bd 4c49 293d 98af ac3d 42d3 34bd
00000330: b43c cb3b 632c 87bb facc debc 61c6 2bbd
00000340: aefc 623d beee b2bd c175 d53c f957 1a3d
00000350: 275b 653d 9e65 f9bc b1c4 06bd c6e7 dd3c
00000360: caae f93c ec56 6438 39ed e73d e426 963d
00000370: 5698 663d 137b 753d 9c2d d8bc 4ac0 943d
00000380: 0900 d73d 6615 973d 905b bf3b 66b0 c5bd
00000390: c046 d33d 0ebe 163c 26fc 863d f37d dcbc
000003a0: 08c0 5dbd 1d9b 59bd 6d3e 483d dfe4 823d
000003b0: 2d12 e03d 8e0d 283d 9d6e dc3a 4e23 653d
000003c0: 16c9 ccbb feeb 05bc 099d b7bd 812e 9cbd
000003d0: 9165 973d bc6f 55bc 116e 61bc 702c 033d
000003e0: c868 afbc 9642 4f3d 0bc1 283d 7aa2 bfbc
000003f0: bd77 aa3d 9479 abbc 1ea7 223b b7a7 0fbd
-0.0151473535 -0.0122427745 0.016397756 0.0042245565 0.060287315 0.044822127 0.07473449 -0.045494877
0.12549986 -0.02949996 0.112550914 0.030757004 -0.06646069 -0.09458007 0.05620867 -0.018953953
-0.074595 -0.053938515 -0.0076448824 -0.11899734 0.053071134 -0.072329044 -0.024755022 -0.036769193
-0.016867971 0.022244643 0.1072513 0.016454715 0.083609655 0.11115183 -0.0053208433 0.046637874
0.028712938 0.0006069945 -0.04050155 -0.018403593 -0.011950201 0.029242853 0.073822185 -0.0040280004
0.057794914 -0.037338987 -0.11872565 0.05438832 -0.0042001395 -0.019418197 -0.062322985 0.0008851544
0.07834726 0.021382079 0.077060424 0.09439135 0.119927876 0.05082026 -0.0750891 -0.077853486
-0.028212208 0.08224366 -0.020890735 0.0686898 -0.0038104604 -0.0011797172 0.07340745 -0.057808332
-0.02320103 -0.09601222 0.0782553 0.10203438 -0.10400259 0.10213674 0.02398806 0.0003358296
0.00848632 -0.028610844 -0.04815316 -0.020003932 -0.03323312 0.02634202 0.10664057 0.08815417
0.11683344 0.01470805 -0.07353423 -0.07742608 -0.0076710205 -0.0427485 0.06428021 -0.007568515
0.00090334384 0.0015864406 0.0079358695 0.090956874 0.026229989 0.0046961526 0.015071754 -0.030072285
0.011105685 0.10728318 0.02784569 -0.02194222 0.114582285 0.019268274 0.12356139 0.06861517
-0.019432547 0.08184166 -0.04351784 -0.021365687 0.052348968 0.08481095 0.094598435 -0.013589785
-0.068813324 -0.049036156 -0.10367719 -0.0978919 -0.007412684 -0.019377403 0.0033274658 -0.039612196
-0.07404204 0.09236827 0.039739896 0.0010193521 0.017175972 -0.049448997 0.09739646 0.0147563815
-0.07130417 0.0051243035 -0.021843482 0.057306174 -0.05210494 0.069386244 -0.015578399 -0.021097247
0.054451305 -0.06252924 0.030019104 -0.087357216 0.06816812 -0.07494574 0.020422125 -0.0093919635
-0.0113482205 -0.043144956 0.040762577 -0.10527434 0.107717365 0.030250387 0.063190304 -0.08510971
0.044927843 0.079235695 0.013228869 -0.016893229 0.029153395 -0.059014868 0.0590958 0.044476844
-0.0582121 -0.05584863 -0.029741649 0.009150027 0.01666978 -0.019855134 0.06325695 -0.08066032
-0.056070935 0.10914504 -0.12538509 0.05408247 -0.031881955 0.0083629545 -0.05000045 0.040549636
0.085126825 0.008763437 0.04162141 0.0444086 0.08187258 -0.028537802 -0.080529384 0.07521123
0.039144494 0.073943235 -0.03634129 0.011444707 0.09614506 0.0014609593 -0.03606002 -0.0032359858
0.04979416 -0.016156487 -0.07157622 0.08020856 -0.057106078 0.063301876 -0.04321673 0.07314698
-0.06270791 0.041329667 0.08431929 -0.044146784 0.0062023047 -0.0041251644 -0.02719735 -0.041937236
0.055416755 -0.08736943 0.026057126 0.037681554 0.055995133 -0.030443963 -0.032902423 0.027088057
0.030478854 5.444039e-05 0.113245435 0.073316365 0.056297623 0.059931826 -0.026388936 0.07263239
0.104980536 0.07377128 0.0058397725 -0.09652786 0.10316229 0.009200586 0.06591062 -0.026915526
-0.054138213 -0.053126443 0.04888766 0.0639131 0.10940967 0.04102855 0.0016817633 0.055941872
-0.0062495572 -0.008173941 -0.08965499 -0.076260574 0.07392419 -0.013027128 -0.013759152 0.0320248
-0.021412268 0.05060061 0.041199725 -0.023392905 0.083236195 -0.020931996 0.0024818848 -0.035072055

lstm.bias_hh_l0 f4 [512]
00000000: 0c00 ee3d 07e4 213d b62b 313d 3464 9d3d
00000010: bb4e ce3c e096 a73d 175e 44bd 8d1f 88bd
00000020: 32bd 7e3d 9465 f9bc be04 b53c 8d0f 53bd
00000030: 21aa 7f3d e33b 763d 88ff c23c eb03 c83c
00000040: 0e76 cdbd ff5f 8c3c 625b 2c3d 2ce5 7b3c
00000050: 4487 453d 1a2f a83d fb78 4ebc bab3 72bd
00000060: ed78 5cbb e73d ab3d 6f04 06bd abcf d83c
00000070: c7d8 8fbd b8e3 443d 1208 e53c a2ac b2bd
00000080: cc30 da3d ea01 3a3c 3a4f 8cbd fc12 a6bc
00000090: 7cdd a43d b88e 9fbc fe08 32bd 8931 3ebd
000000a0: 88b0 4e3d 9d42 56bc 57ea fabd b785 a23d
000000b0: 18f2 b5bd 6a6c 143d 6e9e 993d 284b fbbc
000000c0: c805 8e3d 86a8 b3bd 00ab 45bd ca2b 153d
000000d0: 7d05 cf3d 3409 a13c 5358 8e3c 2419 003c
000000e0: 195b 133d e0dc 0abd 5e25 c8bc 9c59 6e3d
000000f0: 8068 1b3d 92a9 f13c 9e12 a5bd cfe6 103d
00000100: 8769 9c3d c057 7c3d 0eca 883d 86e7 f13d
00000110: 3b5b 1f3d f167 61bc 8f0c a3bd 20e8 cabc
00000120: 3562 713d 342c 083b 381a a23d badd ff3b
00000130: ebe3 083d c3df 3fbc af88 9b3d 5818 293b
00000140: dd34 d83c 0bfd c0bb 8c04 c33c 596a 163c
00000150: f309 583d c298 053d fe18 273d 0629 6c3c
00000160: 7438 de3d 895b 0c3c 06b3 9e3d 0508 2e3d
00000170: 3afd 833d 9095 f0bc 04c5 86bd ba1d 413d
00000180: b868 413d 8562 d3bc 13e6 2c3d 4529 c4bd
00000190: 0486 e93c e229 4a3d 932f 193d 5acf 93ba
000001a0: ab0b 513d 92f5 6bbc 688e e43d d468 303c
000001b0: fd75 673d 0268 26bd 90e1 0dbd 5f66 84bd
000001c0: 18bb 9d3c b349 4fbd 5e76 afbd 13a0 9e3c
000001d0: 0d98 2bbd 11af 6a3d efeb 0c3d 086e b4bb
000001e0: dad7 66bd edda b73d 461f 8b3d 2903 763c
000001f0: 0800 ab3d 1150 f3bc 5af8 4bbc fe44 33bc
00000200: 5092 9a3d 6e00 4a3d 1dc5 06bb e7d1 e53c
00000210: cdea 68bd dbbf 9cba b1df 60bd 1fee a53d
00000220: 6d11 bdbc d71d 16bd 3d91 47bc 9924 c4bd
00000230: a90f d43a 1e04 dbbc 98f7 e73b 7b25 a43d
00000240: 4b32 fdbc 98e2 9abd c137 37bd ce26 1a3d
00000250: 7dbc 4bbd 2287 5bbd 28dc 253d adba 97bd
00000260: 5a59 66bd 98e0 26bd 3aa2 15bd 833f ad3d
00000270: 6db9 1b3d 8188 d5bc e384 8bbd a5d9 003d
00000280: 4f1d 4ebd 4c59 133d 06bc d7bd 204b 8b3d
00000290: d259 893d 11fa debc bb2f f13c 75d5 383d
000002a0: aed0 80bd df19 52bc 60c1 423d f5ac 6dbd
000002b0: 3379 b0bd db50 87bd d678 9c3d d85a 87bd
000002c0: cd50 8abd 18c7 1a3d 90bf 563d 8d0b 92bd
000002d0: 4364 963d 17d0 3ebc ff29 8c3d 4438 a0bd
000002e0: 10ad a83c 8f6a 74bd 5af5 05bd d19a 573d
000002f0: 527d 193d e39e 3d3d 2b16 433d a017 a13d
00000300: 00b4 e036 55cb e5bc f086 92bc be35 a33d
00000310: 2884 0e3d 5b27 fcbc fe75 40bd 0946 40bc
00000320: 5159 443d 09c9 883d a87e b03d 5e96 a9bc
00000330: 9eab 483c 0f7b 1dbd 233a 9c3d 6e9b ba3c
00000340: 12b4 993d d406 ad3c 5a86 3b3d 49fe c5bd
00000350: 5865 5a3d 8a62 a0bd 6a89 0dbc ff44 943d
00000360: d763 50bc 65f6 b03d f8a9 52bd fafe 8a3d
00000370: ddc5 97bc 0d08 84bc 706f 16ba 0658 71bd
00000380: 8fa9 473c e923 82bd e8b8 8b3d 783c a53c
00000390: f68e 4ebd 9831 9fbd 775b 67bd b174 1fbd
000003a0: fb93 843c 08f5 6ebd ca42 2e3d eca3 a1bd
000003b0: 7e6f 743c 3396 bfbd 7e7e 0c3d 514d 8e3d
000003c0: 0a0b 373b 2b2f 98bd df09 8b3c e9a4 a7bd
000003d0: aad5 71bd 5a8b d03d d048 1ebd 150d 7fbd
000003e0: 8db0 4cbd 91f6 483d 8979 a63d 47d5 d0bc
000003f0: 1b22 2cbc 1271 66bd 5a80 593d ead7 203d
0.11621103 0.039524104 0.043254577 0.07685128 0.025184026 0.08183074 -0.047941294 -0.06646643
0.06219215 -0.030443944 0.022096988 -0.051528502 0.062418107 0.060115706 0.023803487 0.02441593
-0.10032283 0.017135618 0.042079337 0.015374463 0.048224702 0.08212109 -0.012602086 -0.05925343
-0.0033641413 0.08361416 -0.032719072 0.026466211 -0.07023769 0.048068732 0.02795795 -0.08724333
0.106538385 0.011352995 -0.06851049 -0.020272724 0.08050057 -0.019477233 -0.043465607 -0.04643396
0.050461322 -0.013077405 -0.12251728 0.0793566 -0.08884066 0.036236204 0.07500921 -0.030675486
0.069346964 -0.08772378 -0.04825878 0.036418714 0.10108469 0.019657709 0.0173761 0.007818494
0.03597555 -0.03390205 -0.02443188 0.058190927 0.037941456 0.029499803 -0.080601916 0.035376366
0.07637315 0.061607122 0.06679164 0.11811738 0.038905364 -0.013757692 -0.0796138 -0.024768889
0.05893155 0.00207783 0.07915157 0.0078084143 0.033420485 -0.011711064 0.0759443 0.0025801864
0.026392395 -0.00588954 0.023805879 0.009180629 0.052743863 0.032616384 0.04079532 0.014414078
0.10850611 0.008566746 0.0774899 0.042488117 0.064447835 -0.029368192 -0.065805465 0.04714749
0.04721901 -0.025803814 0.042211603 -0.09578184 0.028506286 0.04935635 0.037398886 -0.0011277006
0.051036518 -0.01440181 0.11159974 0.0107671805 0.056509007 -0.040626533 -0.03463894 -0.06464838
0.019254252 -0.050607394 -0.085674986 0.019363439 -0.041893054 0.057295863 0.03440469 -0.005506281
-0.056358196 0.08977304 0.06793074 0.015015402 0.08349615 -0.029701265 -0.012449348 -0.010941742
0.07547438 0.049316816 -0.0020564266 0.02805419 -0.05686455 -0.0011959033 -0.05490083 0.081020586
-0.023079598 -0.03664955 -0.012180624 -0.09577293 0.0016178983 -0.026735362 0.007079076 0.08014961
-0.03090777 -0.075627506 -0.044730905 0.037634663 -0.049740303 -0.05359567 0.04049316 -0.074086525
-0.056237556 -0.040741533 -0.036531664 0.084593795 0.038018633 -0.026066067 -0.068124555 0.031457562
-0.05032092 0.035973832 -0.105339095 0.06801438 0.06706585 -0.02721885 0.029441705 0.045125443
-0.062898025 -0.012823551 0.047547698 -0.058026273 -0.08616867 -0.06607219 0.07640235 -0.06609124
-0.06753693 0.037787527 0.052428782 -0.071311094 0.07343342 -0.011646292 0.068439476 -0.07823232
0.020590335 -0.059671935 -0.03270469 0.05263788 0.03747303 0.046294104 0.047628563 0.07865834
6.696675e-06 -0.028051058 -0.017886609 0.07969235 0.034794003 -0.030780485 -0.046987526 -0.011735448
0.04793674 0.066789694 0.08617908 -0.020701583 0.012247948 -0.038447436 0.07628276 0.022779193
0.07505049 0.02112142 0.045782425 -0.09667642 0.053319305 -0.07831295 -0.008638719 0.072397225
-0.012719116 0.08640746 -0.051431626 0.06786914 -0.018526966 -0.01611712 -0.00057386514 -0.058921836
0.012186422 -0.063545056 0.068223774 0.020170435 -0.050429307 -0.07773131 -0.056483712 -0.038929645
0.016183844 -0.05833915 0.042544164 -0.07892594 0.01491916 -0.0935482 0.03430032 0.06948341
0.0027930164 -0.074308716 0.01697248 -0.08185751 -0.059041657 0.10182829 -0.03864366 -0.062268335
-0.04997306 0.04906327 0.0812865 -0.025492324 -0.010506178 -0.056260176 0.05310092 0.03926841

lstm.weight_ih_l1 f4 [512, 128]
00000000: 22b8 a03d 3a21 a13d 7923 80bd 417f b2bd
00000010: 4b24 0d3d 2a4b 633d 6e0f 20be 67b8 843c
00000020: fddb 9d3d 11ee cd3d a195 8cbd 9255 193d
00000030: 65e8 0ebc cd40 cdbd 30bf 1cbc 0a01 c3bc
00000040: 8a49 293c 4679 13bd 702a 123e 29ab 81bd
00000050: 704a 3d3c 7dd5 c3bc 086a 0dbd 529b 61bd
00000060: a617 5c3d 7a2c b3bd d068 113d 0986 d63b
00000070: e6ae 9c3c 0a1b 503d 9798 efbd 2230 a9bc
00000080: 6a6f 45bd ae58 b2bd 5798 1b3d 1652 1e3d
00000090: d110 9dbd 69ee 103d 9078 903c d262 b7bd
000000a0: 1369 663d ff3b 05bd 5165 893d 118b 8fbd
000000b0: 373b 8e3d 48e6 4ebc 7188 90bd bae2 6a3c
000000c0: 7124 d8bc 9d6d 88bd 00f5 9f3d e85b 82bd
000000d0: 1270 1b3c 83df fd3c f0df fc3c 542d 853d
000000e0: 771c 3cbc 6974 fbbc 293d 63bc d995 55bd
000000f0: 88e4 493d 989c 2bbc a6b3 babd f83c 05bd
00000100: bb9d 66bc ca5e b03d d492 72bd 57fc 10be
00000110: 7502 d0bc 5f21 2d3e ae78 8fbd fd54 9bbd
00000120: 9cb0 cfbd a56d a53d 319c 5fbc 71b8 f0bd
00000130: d1db ef3d 84cc 04be cf52 22bd 77ba 923d
00000140: 2dd0 233d ffa0 803d 2ea9 b83d b7a3 413c
00000150: 7e3c f53d c0e1 003c 7504 dbbc acda e2bd
00000160: 7188 313d ab66 d63d 7458 873b 7d8b cabd
00000170: ebac ae3d b8a3 193d 9272 5cbc 9171 753d
00000180: 167f 4bbd af9d fa3d fa8b 8cbc c9ce 8e3d
00000190: 0041 d63c d518 373c 87b0 153e 31c1 85bd
000001a0: 71bc b2bd df16 d9bc 4af6 c6bd 350d c13d
000001b0: f34e 53bc dba7 a8bd 03a9 0cbd 42ae 893d
000001c0: 49b3 e33d 9903 f13d ee2a 153d 5cac d0bd
000001d0: 1450 c4bc a1d9 9d3c a6e6 7d3d 9851 1c3d
000001e0: 6a15 7c3d 2775 b4b9 2ed5 373d 7560 8d3d
000001f0: 229e 80bd ab3d 3bbd 6f75 2ebd 49e7 853c
00000200: 7e47 e1bc 9a9c 8cbd 4561 48bd 5517 02be
00000210: 6980 28bd 40a6 8f3d 7c8b 01be 3e93 663d
00000220: fe1a 8cbb 33b3 96bc 5458 2bbe 2cad a03c
00000230: 47e8 4c3d 25bf 7e3d 0063 d4bc 7431 863d
00000240: 1681 09bd 3530 86bb b982 493d 91a7 063c
00000250: f366 d3bd 0d62 94bc d4be babc 0bce 243d
00000260: 2b59 b13c 39b5 86bd 0d67 ea3d 5fa4 8c3d
00000270: 36a3 2c3e 984c a63b f773 5abc 911f aabc
00000280: f692 2dbd 4afe d8bd c535 56bd 2a8f d2bc
00000290: f4ed b43d c8f8 aabd 0af1 acbd 5473 40bd
000002a0: db60 633d f45f 07be ee2d b1bc 7de4 39bd
000002b0: 5126 143d 8af7 bc3d 3ac0 07bd b948 c5b9
000002c0: 91b8 4fbd 5b45 663d 7c5f 88bd b624 e6bd
000002d0: e087 d5bd 6624 153d 8772 09bd 2d21 e33c
000002e0: 345b 02bd 846f 5d3d 390f 9bbb 7a97 49bd
000002f0: edcb 75bd 4085 5a3d 944f f83b 0db3 10bd
00000300: e7e4 90bd d3f7 163c 0f91 c7bc 0cb0 8b3c
00000310: c244 703c 7f4f 9bba 5d21 563d 2479 f8bd
00000320: 8b7f bfbd 7378 62bd fb18 32bc def1 9dbd
00000330: eb87 243d 3de9 a4bd ef33 bcbd 7729 453d
00000340: b8fa 3f3d f4cb ecbc 9304 693d 7699 483d
00000350: fbd9 6e3d e061 10bc 71e7 6f3c e811 42bd
00000360: 48a7 f9bc 49d2 993d 48b3 6ebc 45d3 dabd
00000370: 36ac 4c3d 9217 e3bd c699 9a3d d16b 1dbd
00000380: 3401 9dbd 7ba8 8f3d 9ea6 0abd 3e03 923d
00000390: 95d1 aabd 0b93 bfbd 6121 5abd f2f7 d0bd
000003a0: a7b4 873d 745f cf3d 3ffa 923d 97c8 b7bd
000003b0: ee7e e6bd 47c2 4ebd 95b1 e5bd feb1 9abc
000003c0: c4df 94bc d7bb e2bc cd3c 733d f059 af3c
000003d0: 0098 7f3d fc81 0c3d adeb 4ebc 3c61 8b3d
000003e0: f30a cd3d 7391 efbc 3acb 743d 4f4e ac3d
000003f0: b4be 13bb 5209 653d 05a7 233d 7412 9bbd
0.078476205 0.078676656 -0.06256766 -0.08715678 0.03445844 0.055491604 -0.15630886 0.016201211
0.07707975 0.10055173 -0.06864477 0.03743512 -0.008722399 -0.100221254 -0.009567067 -0.023804206
0.0103324745 -0.036004327 0.14274001 -0.06331474 0.011553392 -0.02390551 -0.034524947 -0.055079766
0.05373349 -0.087487176 0.035500348 0.00654674 0.019126367 0.050807036 -0.11699026 -0.020652834
-0.048201956 -0.087083206 0.03798708 0.038652502 -0.07669223 0.035383616 0.017635614 -0.08954395
0.05625255 -0.03252792 0.06708778 -0.07008947 0.06944888 -0.0126281455 -0.07057274 0.014336282
-0.026384564 -0.06661532 0.07810402 -0.06365186 0.009487169 0.030990368 0.0308685 0.06502786
-0.011481396 -0.030695157 -0.013869562 -0.05214486 0.04929021 -0.010474347 -0.091162965 -0.032528847
-0.014075692 0.086118296 -0.059222057 -0.1415876 -0.025391797 0.16907261 -0.0700544 -0.075845696
-0.101411074 0.08077554 -0.013648079 -0.117539294 0.117118485 -0.12968642 -0.039629754 0.071644716
0.039993454 0.062807076 0.090166435 0.011818818 0.119744286 0.007866323 -0.026735524 -0.110768646
0.04334301 0.10468801 0.0041304175 -0.098898865 0.08529075 0.03750965 -0.01345505 0.05992276
-0.049681745 0.12237107 -0.01715659 0.06973035 0.026154041 0.011175354 0.14618121 -0.06530989
-0.087273486 -0.026500164 -0.09714945 0.09426347 -0.012897241 -0.08235141 -0.03434087 0.0672269
0.1111818 0.11768264 0.036417894 -0.10189125 -0.023963965 0.019268813 0.06198754 0.03816375
0.06154386 -0.0003441956 0.04488104 0.06903163 -0.062801614 -0.045713108 -0.042592462 0.016345637
-0.02749991 -0.06865807 -0.04892089 -0.12704213 -0.041138086 0.070141315 -0.12650865 0.056292765
-0.0042756787 -0.018395996 -0.16732913 0.019613825 0.050026204 0.06219401 -0.025926113 0.06552401
-0.03357037 -0.004095102 0.049196932 0.008218662 -0.103223704 -0.01811316 -0.022796072 0.04023556
0.021648964 -0.06577534 0.114454366 0.06867289 0.16859135 0.0050750487 -0.013333312 -0.020767005
-0.04237648 -0.10595377 -0.052297372 -0.025703032 0.088344485 -0.083482325 -0.08444412 -0.046984985
0.05551229 -0.13220197 -0.021628346 -0.04538392 0.036169354 0.09226902 -0.033142306 -0.0003762895
-0.050713126 0.056218486 -0.06658837 -0.11237471 -0.10426307 0.036411665 -0.033556487 0.02772578
-0.03182526 0.054061428 -0.0047320393 -0.049216725 -0.060008932 0.053349733 0.007577846 -0.035327006
-0.0707491 0.009214359 -0.024361162 0.01705172 0.014664831 -0.0011849253 0.05227791 -0.12132481
-0.09350499 -0.05529065 -0.010870214 -0.07712148 0.040168684 -0.08052299 -0.09189593 0.048135247
0.046869963 -0.028905846 0.056889128 0.048974477 0.05831335 -0.008812398 0.014642582 -0.047380358
-0.030475274 0.07510812 -0.014569111 -0.10684828 0.04996892 -0.1108848 0.07548861 -0.0384329
-0.07666245 0.07014557 -0.033850305 0.07129525 -0.08340756 -0.09354218 -0.05325449 -0.10203542
0.066262536 0.10125628 0.07176637 -0.08973806 -0.11254679 -0.050478246 -0.11215512 -0.018883701
-0.018173106 -0.02767746 0.059384156 0.02140519 0.062400818 0.03430365 -0.012629432 0.06805655
0.10011854 -0.02924416 0.059764124 0.08413374 -0.0022544088 0.05591709 0.039954204 -0.07571879

lstm.weight_hh_l1 f4 [512, 128]
00000000: cf04 613c 86bd b73d 9fcf 6b3d 3238 95bd
00000010: 36cf 02bd 208d 6f3d 7ba3 643c 05c6 8c3c
00000020: 5e63 c43d 147d cbbd 41b8 b43d 40d2 8b3a
00000030: c4a8 b73d fd78 863d 7c01 31bd 839c a03d
00000040: 13b8 013c 36e7 3e3b 8c97 073d b1d4 c7bd
00000050: 7621 9e3d 01b7 273d 3486 523d fabf 653d
00000060: 8073 43bd 50cf 173d 30bf 1f3d faab 393d
00000070: 590c 553c b3e6 0bbd 1cfc b6bd 3fd3 ef3d
00000080: b6e5 9b3d 9367 99bd bcd3 f53d f6e5 953d
00000090: aebf 54bd 4191 6dbd a6c4 d03d 93e4 b9bd
000000a0: 7c09 c13c 9fe3 fabc 9c22 c03d 662f b73d
000000b0: 3a04 9f3d 2a30 743d caf7 07bb 7afe dc3c
000000c0: bd59 94bc d9a1 3fbc 7dfb 9a3c 9c11 0bbc
000000d0: c1b7 b9bb 6434 b93d ea08 173c 6e68 883a
000000e0: 5ab9 8fbd 55b3 7fbd 028f 373d 0620 b9bb
000000f0: 1ab2 67bd 9f1c 423c 1dfc b8bc 0a9e 2dbd
00000100: 3ae1 6bbd f337 aa3d 5caf acbd a4ca 58bd
00000110: c21f 583d 9cfa 0ebb f4cc cd3d 4238 1dbc
00000120: e7f1 903d 2fde bd3d f200 b9bd 23ac 3f3b
00000130: d6dd f93b ad92 c53c 9db9 69bd 4d18 f8bc
00000140: 4237 4cbd 6357 553d 6894 593c ca38 06bd
00000150: b5bc 933b e85b e9bc 8660 5d3d f250 3ebd
00000160: 393d 63bd 375c 63bd da0b 553b f1d9 81bc
00000170: fd6d 3a3d 1118 e33c 207c a33d 26d1 4bbd
00000180: f5e6 3fbc 7a05 8e3d 4534 403c c0e4 50bd
00000190: de08 21bc f13c 3a3d 5c7b 1f3d 6d79 87bd
000001a0: d586 c2bd 8328 7dbd eb43 69bd 789e b43d
000001b0: 95f0 93bd 6da6 07bd ef30 b03d 99cf b13c
000001c0: 61d2 80bd 7ef1 483d 5098 2139 08e9 a8bc
000001d0: 2309 003d 05bb 863c e8b9 8bbd 2147 843b
000001e0: 2d26 6e3d 0f8c afbd eb1c 323d b2d9 8fbd
000001f0: 0eac 3b3d f429 b4bd a1e2 95bd 675a 063d
00000200: 0254 b33d eff3 c33d 2237 813d 82d2 82bd
00000210: 94d8 d53d f1b4 c4bc 410d f5ba 4e68 29bb
00000220: c5d1 173c dcbc 06bd 4217 9bbd 921b 113c
00000230: 0c54 d53d 18c3 16bc c247 d0bd edbd 3dbd
00000240: b46f 0b3d e2d7 71bb 0ebe 903c eaf0 97bd
00000250: 4489 d33d 1c7c b83d 901f 693d 98f5 4d3d
00000260: 8532 dbbd 8b54 0d3d 0a7f d73c 8a0b 13bc
00000270: 91c6 183c 14cd 2d3d 844c 87bd c416 8abd
00000280: 724b e93d 375f 61bb 5a64 bcbd 6fdb 563d
00000290: 5af8 adbd 0be4 74bd 303a 66bd 53bc a7bd
000002a0: eddb 38bd 6732 67bc e785 28bc 5272 413c
000002b0: 94bf 863c 9e0a b8bd 53e5 f73c 12ed 633c
000002c0: 26be debd 6a42 c0bc ca05 bcbb 47fa a5bc
000002d0: be62 72bc e5eb 8a3c 658d 99bd 4e95 69bd
000002e0: 7753 a33d e9e9 2e3b bf86 b2bd aedd 123c
000002f0: 34c4 a8bc 41a7 a43d 308a 343d 8d67 59bd
00000300: 4bf1 f73c f90d 00bd 93ac c43d cffd ac3d
00000310: 978a 96bd 9e7c 503b 65d5 243c 9ba9 bcbd
00000320: 9e38 113d 796f fabc 54e3 043d 036c 6b3d
00000330: 0833 553c 2bff c2bd f5b3 253c 2e99 d1bd
00000340: bbe4 013d 2dca 293d 2016 af3d 60d6 97bd
00000350: 77a2 32be 62ab 203d bbaf d93d c42b c23d
00000360: 17b8 56bb b58a 91bd e499 833d a99f 31bd
00000370: b15d 6f3a df11 d3bd 9461 e1bc 27d2 a0bc
00000380: fe8e 393d afde 8a3c 9067 a53d fc7b b5bd
00000390: 14f8 3e3b 73db 41bd 31cc 553c 9079 d83c
000003a0: 85a2 f5bc 3fd0 02be e6f7 db3c 25e4 1d3d
000003b0: 5194 58ba d608 ea3c 536e 88bc 5602 043e
000003c0: b657 8d3c a24e 86bd c6b4 583d 4bcf bb3c
000003d0: 44ad a7bd 6e25 1cbd 0fab 9e3d 8afa 2abd
000003e0: 5655 a63b f5ab b3bd 9c5a a7bc 023a a0bc
000003f0: 413e 973d b8fd eebc 38e6 00bd ff4f 933d
0.013734057 0.089716956 0.05757105 -0.07286109 -0.031935893 0.058484197 0.013954992 0.017184267
0.09589265 -0.09935966 0.08824206 0.0010667518 0.08967736 0.065660454 -0.043214306 0.07842352
0.007917422 0.0029129512 0.03310351 -0.097573645 0.07721226 0.04094601 0.051397517 0.056091286
-0.04771757 0.037062943 0.03900069 0.045330025 0.013003432 -0.03415556 -0.08934805 0.11710214
0.07612173 -0.07490458 0.12003276 0.07319252 -0.051940612 -0.057999853 0.10193758 -0.090768
0.023564093 -0.030626116 0.09381601 0.089445874 0.07764478 0.059616245 -0.002074706 0.026976813
-0.018109197 -0.011696302 0.018918747 -0.008488085 -0.005667657 0.09043196 0.009218434 0.0010407099
-0.07017775 -0.062426884 0.044814117 -0.0056495694 -0.056566335 0.011847644 -0.022581154 -0.042387046
-0.05758784 0.08311453 -0.08431885 -0.05292763 0.05276466 -0.0021816855 0.10048857 -0.009595932
0.07077389 0.09270894 -0.090333834 0.0029246889 0.007625322 0.024117792 -0.05706178 -0.030285025
-0.049857385 0.05208529 0.013280012 -0.032769002 0.0045085796 -0.028486207 0.05404713 -0.046463914
-0.05547831 -0.055507865 0.0032508285 -0.015850993 0.04551505 0.027721437 0.07982659 -0.049760006
-0.011712779 0.06934638 0.011731212 -0.050999403 -0.009828774 0.045468275 0.038936004 -0.06614957
-0.094983734 -0.061806213 -0.056949537 0.08819288 -0.07223622 -0.0331177 0.08603083 0.021705436
-0.062901266 0.04905843 0.00015410897 -0.02061893 0.031258713 0.0164466 -0.06822568 0.0040367995
0.058141876 -0.08571636 0.04348461 -0.07023944 0.04581838 -0.087970644 -0.07318617 0.03280106
0.087562576 0.09568011 0.06309344 -0.063878074 0.104416996 -0.02401206 -0.0018695967 -0.0025849524
0.009266322 -0.032894954 -0.075727955 0.008856671 0.10416421 -0.009201787 -0.10169937 -0.046323705
0.034042075 -0.0036902358 0.01766875 -0.074189976 0.10328916 0.09008047 0.056914866 0.050283045
-0.10702995 0.034504455 0.026305694 -0.008974919 0.009324686 0.042431906 -0.06606391 -0.067426234
0.11391343 -0.0034389028 -0.09198828 0.052455362 -0.08494635 -0.05978779 -0.056207836 -0.08190217
-0.045131613 -0.014111138 -0.010285831 0.011807041 0.016448773 -0.089864 0.030260717 0.013911502
-0.10876112 -0.023469169 -0.005737995 -0.020260943 -0.01479405 0.016958186 -0.07497672 -0.057027154
0.07974904 0.0026689714 -0.08717107 0.008963985 -0.02060137 0.08039714 0.0440771 -0.05307727
0.030266425 -0.031263325 0.096032284 0.08446848 -0.07350653 0.003181256 0.010060643 -0.09212037
0.035454385 -0.030570732 0.03244336 0.057476055 0.013012655 -0.09521326 0.010113706 -0.10234295
0.031712275 0.041452575 0.08549142 -0.07413936 -0.17444788 0.039225943 0.10629221 0.09481004
-0.0032763535 -0.071065344 0.06425837 -0.043365154 0.00091310876 -0.10306143 -0.02751235 -0.019631458
0.045302384 0.016951887 0.080763936 -0.08861539 0.0029139565 -0.047328424 0.013049171 0.026425153
-0.029984722 -0.12774752 0.026851606 0.038547654 -0.0008261847 0.028568666 -0.01665417 0.12891516
0.017253738 -0.06557967 0.052906774 0.022925993 -0.08187345 -0.038121633 0.077474706 -0.04174284
0.005076091 -0.087730326 -0.020428948 -0.01955891 0.07384921 -0.029173717 -0.031469554 0.071929924

lstm.bias_ih_l1 f4 [512]
00000000: 45ce 6e3c 4cfb 32bd 5d23 babb ff90 67bc
00000010: f364 8abd 95ea 30bd 5773 0ebc 392e 9bbc
00000020: b83f 9abd 2158 a0bc 3138 5a3d d161 4fbd
00000030: 12ac 0fbd 3541 68bc 2dd4 dcbd 9bf7 d5bc
00000040: b9a0 fb3b 8710 66bd 259a 3ebc 26ab 92bc
00000050: d3bf c03d f281 7b3d bda2 09bd d7cc 6bbd
00000060: dfad 513d b865 68bd 5ba1 d4bc 254a 32bd
00000070: b6bc 823d 9b1d ac3c 54f4 873d 6c9d 20bd
00000080: 23e6 bb3d b264 bf3d 0d61 9fbd 18fe 993c
00000090: 7e1a 623d 6a84 e2bc 9aa6 41bd 56fa e0bc
000000a0: 3534 173d 342c 8ebd 949e 64bd f24a e33d
000000b0: 84bb 9d3d 8f0d be3d f95e 9bbc 52e9 413d
000000c0: 3258 d83c 0fab 193d 8e65 a13d bed6 85bc
000000d0: 1a8c 603d 6930 153d 6ae7 b63d b79e dd3d
000000e0: 6525 99bd 09cc a03d 8f4c f93c 5960 db3d
000000f0: ddb8 39bd 91a0 9d3c 5da5 5f3d be22 a93d
00000100: 2edc 593d 983b bdbd 5850 15bd be55 b03d
00000110: a13f 8b3d 4996 6ebc 55d7 01bd 1b6b d6bd
00000120: be08 663d cbb5 6e3d 359b 5dbd e95b 69bd
00000130: cd2f 1abd 82ea 87bd c4b9 a038 1d2b 183d
00000140: b5ae 18bd 6ec3 cf3b 54cc e83d 9677 b13d
00000150: 1c22 68bc 25aa 1d3d f9bc d43c b0d6 ad3d
00000160: 2a6d 76bd bc76 82bd ad97 99bd d304 8b3c
00000170: 1de5 b83d b86c 6f3a 5a70 15bd 5341 d7bc
00000180: 45b3 5ebd 8d1a ca3d f6b3 713c dce4 c3bc
00000190: 6209 b33d 661d 9bbc dfd3 35bc 5a45 233d
000001a0: af7e 80bd fcca 063d 1245 8d3d 952e 5dbd
000001b0: f7ca c23d 2920 cd3d 8969 89bd b857 163d
000001c0: 7ba0 153d 400e b4bc b7f0 ec3b 04f9 96bd
000001d0: 64a7 81bc 4663 6abd 98f5 273b e3d5 84bd
000001e0: 1872 433c d60a 973c b15f f23b 30a0 a63c
000001f0: 5490 06bd 3d0b 0a3e 1d38 0f3d 32eb a5bd
00000200: 6f05 44bd 4a8f 1d3d 7ba2 a7bc 70a8 ac3d
00000210: 6cfe a1bd 7d06 263c f076 433d e330 adbd
00000220: f15b 803d 65fa 5ebd 2dc1 1a3d 44ef ac3d
00000230: 877d 6cbd 0696 343c 6b56 dc3c 5c2b 0cbb
00000240: c851 ef3d 8f5a 713d 9e36 a7bd 62af 6e3b
00000250: 28ed a73d fa3f 073c 95f7 03be 737b 8fbd
00000260: 41c8 afbc 5de4 8fbb 908d 9fbd ccd9 e9bd
00000270: 41a1 243d 31d5 15bd b711 1f3b e4da e83c
00000280: 76af 9c3d 9e32 ca3b d746 433c b381 af3b
00000290: c988 973d f059 f43b a841 583d 4a0a 7f3d
000002a0: edfb 813d 2e43 b7bc d8a6 a6bc 079d 393d
000002b0: 484c b43c 7075 a43d a08e 3dbd 5f6d a13c
000002c0: ef1f ac3d 4e46 643c 412b 503d a22d 4f3d
000002d0: ac73 72bc e6a7 a93d 85a2 f4bb 56d0 1fbd
000002e0: 0386 923c 4753 53bd 4c48 193d c565 22bd
000002f0: bbf9 b53b bd65 96bd f6dd c93c 83c5 b93c
00000300: c2ff eaba f1c7 d0bd df16 33bd 1051 90bd
00000310: c883 8e3c 44e2 59bc 967a 3b3c ec95 10bd
00000320: 676e 32bd 480c c2bc bafb e53b 281a f2ba
00000330: 6bd6 653d defd 90bd 7d36 9f3d da68 96bd
00000340: 3ab7 07bd c83b 65bd 9bb2 263d 27e8 873b
00000350: d813 a4bd 5ab5 433d 16e9 e73b 826c be3c
00000360: 80cc 48bc 620e 6b3c ec75 7c3a 0d14 a33c
00000370: 4b37 98bd 821c 5f3d 2de4 a73d f910 80bc
00000380: c7a7 2abd 895c 503d 96b1 893c 1e25 473d
00000390: c846 613d fe6d 04be 48d2 ffbc 5adc 3f3d
000003a0: 7ef0 9e3d 16a2 903b 0ecb 3f3d de3e a13d
000003b0: bf03 39bd f3da a93c bb6a c7bd 7f0a 423d
000003c0: 84dd 9bbd 140b 9bbc a54e 50bd 5818 5abc
000003d0: 1378 86bd 723c 71bd 7dc6 4c3c 5290 373d
000003e0: 0f39 c73c 8348 ba3c 93a6 b1bc d59c 323d
000003f0: 5e35 b5bc 6210 cc3d d88a b63d 8f71 68bd
0.014575546 -0.043696687 -0.005680485 -0.014133691 -0.06757536 -0.043192465 -0.008694491 -0.01894294
-0.07531685 -0.019573273 0.053276245 -0.050630394 -0.03507621 -0.014175703 -0.10782657 -0.026119044
0.0076790717 -0.056168105 -0.011633431 -0.017903876 0.094115876 0.061403222 -0.033602465 -0.057568397
0.051191207 -0.05673763 -0.025955847 -0.04352774 0.0638365 0.02101021 0.06638399 -0.03921263
0.091747545 0.09345378 -0.07782183 0.01879792 0.055201046 -0.02765103 -0.047278024 -0.02746312
0.036915023 -0.06942025 -0.055815294 0.11098279 0.077017814 0.0927993 -0.018966185 0.047341652
0.026409242 0.03751665 0.07880698 -0.016337749 0.05482111 0.03642312 0.089308575 0.10821288
-0.074778356 0.078514166 0.030432014 0.10711736 -0.045342315 0.019241603 0.054601062 0.0825858
0.053188495 -0.09239882 -0.036453575 0.08610104 0.067992456 -0.014562198 -0.031699497 -0.104696475
0.05616068 0.05827884 -0.054103095 -0.056972418 -0.037643243 -0.06636526 7.663996e-05 0.03715049
-0.03727599 0.0063404357 0.113670975 0.08665387 -0.014168289 0.03849234 0.025969015 0.08488214
-0.0601627 -0.06370303 -0.07499633 0.016970074 0.09028075 0.0009133327 -0.0364841 -0.026276266
-0.054370183 0.098683454 0.014752379 -0.02391284 0.08742024 -0.018934917 -0.011097877 0.03986106
-0.06274163 0.032908425 0.0689794 -0.053999502 0.09511369 0.100159 -0.06709582 0.03670475
0.03653 -0.021979451 0.007230844 -0.07371715 -0.015826888 -0.05722358 0.0025628563 -0.06486108
0.011929058 0.018437784 0.007396661 0.020340055 -0.032852486 0.1348085 0.034965623 -0.081015006
-0.047856744 0.03846673 -0.020463219 0.084305644 -0.07909855 0.010133383 0.04772085 -0.0845659
0.062675364 -0.054438014 0.037781883 0.08444074 -0.0577369 0.0110220965 0.026896676 -0.002138815
0.116855204 0.058924254 -0.08164714 0.0036420454 0.08199531 0.008254999 -0.12887414 -0.07005968
-0.021457793 -0.0043912367 -0.07790673 -0.114184946 0.040192846 -0.03658027 0.0024272033 0.028424688
0.07650654 0.006170585 0.011918745 0.0053560375 0.073991366 0.0074570104 0.05279699 0.06226567
0.06346879 -0.022370901 -0.02034323 0.04531577 0.02200903 0.08030212 -0.046278596 0.019705473
0.08404528 0.013932778 0.0508225 0.05058063 -0.014798086 0.08283977 -0.007465663 -0.039017044
0.017886167 -0.05159309 0.037422463 -0.039647836 0.005553452 -0.07343624 0.024641972 0.022677189
-0.0017929005 -0.10194386 -0.043722983 -0.070467114 0.017396823 -0.013298575 0.011442801 -0.035299227
-0.04356232 -0.023687497 0.0070185335 -0.001847093 0.056112688 -0.07079671 0.07774065 -0.073442176
-0.033133723 -0.055965215 0.040697675 0.0041475478 -0.080115974 0.047780372 0.0070773466 0.0232451
-0.012255788 0.014346691 0.0009630609 0.019907022 -0.07432421 0.054470547 0.08197818 -0.015633093
-0.04166391 0.0508695 0.016808312 0.048619382 0.054999143 -0.12932584 -0.0312282 0.046841003
0.07760714 0.0044138534 0.046824507 0.07873319 -0.04516959 0.020734286 -0.09737154 0.04737329
-0.0761061 -0.01892618 -0.05085625 -0.013311468 -0.06565871 -0.058895536 0.012498495 0.04481537
0.0243192 0.022739654 -0.021685874 0.043606598 -0.022120174 0.09964062 0.08913201 -0.056748923
