04_Models_Sentiment/20250811_165207_HBEA_LSTM_Sentiment/best_model.pth (torch, 892725 bytes, 47 tensors)

lstm.weight_ih_l0 f4 [256, 63]
-0.12104361 -0.0880672 -0.025706824 -0.097536154 -0.13028863 0.07972233 -0.00223168 -0.08547122
0.05763845 0.11920947 0.005262906 0.053673737 -0.07493295 0.0143134305 0.025049321 -0.077248655
-0.17486458 0.032144796 -0.083593436 -0.05132252 -0.113806725 -0.026450992 -0.05144194 0.0044329287
-0.02710301 0.032086335 0.0033520982 0.04758726 -0.08028335 -0.106511846 0.022171693 0.0013984826
-0.11188143 -0.16157515 -0.07127791 -0.06080942 -0.052696727 -0.045115303 7.730888e-05 0.046131253
-0.0061046164 -0.064049855 -0.040379386 -0.01190233 -0.074191645 -0.04817301 -0.07529951 0.028097829
0.011077697 -0.11130577 -0.04763412 -0.061878603 0.035995275 -0.07921591 -0.1328616 -0.0519204
0.07833788 -0.00069722324 -0.059003748 -0.07728721 -0.046998978 -0.10826218 -0.13783765 -0.009564631
0.006963775 -0.05254923 -0.07346442 0.04026165 -0.027577627 -0.08655107 -0.031157006 0.058482997
0.10677038 -0.012545905 0.038728673 0.03690396 0.073103204 0.0704945 0.09837652 -0.025177395
0.0030942834 0.050466176 0.14956094 0.06937401 -0.011035447 0.038461126 -0.12678303 0.0057687126
-0.13380073 -0.05740355 -0.03214166 -0.07192632 -0.022098187 0.019127527 -0.019180888 0.094846085
-0.07870929 0.12948851 0.0985226 0.10040089 -0.04497972 0.030781884 -0.08527042 -0.02770566
-0.0051258025 0.028409492 -0.009923176 -0.028230272 0.11493785 -0.03129838 0.12536632 0.083909556
0.13124348 0.023041362 -0.02289359 0.04570739 0.0152929975 -0.024922447 0.06298531 0.05483843
-0.046041314 -0.04488106 0.033423252 -0.009857032 0.064409584 0.014454591 0.036396008 0.05885888
-0.04012632 -0.04083826 0.049017746 -0.042781845 0.044801313 0.07565427 0.09632401 0.025942555
-0.063022755 -0.044646043 0.0042195497 0.027635528 -0.08363972 0.008679366 0.04487047 0.046694517
-0.03450398 -0.11639735 -0.05660032 0.10952731 0.009046101 -0.018291183 0.00826841 -0.013007017
-0.0318268 -0.020248633 0.020616267 0.010572272 -0.13650905 0.052362826 0.06663984 0.06164124
-0.0007405374 -0.018240005 0.015671875 0.09223867 0.14716263 -0.06862095 -0.018944502 0.052894063
0.05657574 -0.1123472 0.028866276 0.035649035 0.1396403 0.03162219 0.052834257 -0.0010976406
-0.058609962 0.03610882 -0.07499338 -0.09405551 -0.011560144 0.061388496 -0.041789968 0.08519142
0.06940548 -0.09548605 0.054100744 -0.0077454653 0.08464759 -0.025407482 -0.04487257 0.0073614777
-0.08688824 -0.015359648 -0.058649782 -0.03902032 -0.0949041 0.037933853 -0.037167072 0.111120805
0.04425021 0.04278916 -0.12031355 -0.021294527 0.0077398126 -0.00075270806 0.019486414 -0.08723776
-0.08524826 0.0039768433 0.06342725 -0.009587115 -0.010116628 0.00630001 0.040300027 0.004109004
0.0022452888 0.08359335 0.03083377 -0.06428006 0.006475229 0.09767571 0.08528607 -0.049822014
0.080548346 0.17374983 -0.01823432 0.13914485 -0.043892454 0.11910625 -0.13264787 -0.0019861169
0.13592122 -0.015815947 -0.110979214 -0.028504375 -0.04480291 -0.09166326 0.025356712 0.050167657
0.022003599 -0.07231559 -0.1005093 -0.058878385 -0.008804823 0.043719355 -0.03218086 -0.026784195
0.08575812 0.081639014 0.030089378 0.073415026 -0.023052566 0.06675328 0.058282867 -0.039340395
00000000: b6e5 f7bd 935c b4bd 1e97 d2bc 09c1 c7bd
00000010: 626a 05be 7645 a33d 6141 12bb 890b afbd
00000020: 4c16 6c3d 1824 f43d 7574 ac3b fed8 5b3d
00000030: 7276 99bd e182 6a3c 3c34 cd3c 8b34 9ebd
00000040: b30f 33be 43aa 033d 0933 abbd 9037 52bd
00000050: 8013 e9bd c0af d8bc c9b4 52bd 1a42 913b
00000060: 2207 debc f66c 033d e0ae 5b3b dcea 423d
00000070: 996b a4bd e222 dabd 69a1 b53c 4a4d b73a
00000080: 1722 e5bd f573 25be 27fa 91bd 4c13 79bd
00000090: 86d8 57bd d3ca 38bd e420 a238 20f4 3c3d
000000a0: 3c09 c8bb 922c 83bd db64 25bd fe01 43bc
000000b0: caf1 97bd 1051 45bd a136 9abd 6b2d e63c
000000c0: 3b7f 353c 48f4 e3bd ff1b 43bd 6b74 7dbd
000000d0: c86f 133d f33b a2bd df0c 08be 7caa 54bd
000000e0: 9c6f a03d dcc5 36ba eaad 71bd c248 9ebd
000000f0: 0082 40bd 90b8 ddbd 5025 0dbe f8b4 1cbc
00000100: 6130 e43b dd3d 57bd 8474 96bd 66e9 243d
00000110: 7aea e1bc b041 b1bd fa3c ffbc de8b 6f3d
00000120: 6eaa da3d 578d 4dbc f5a1 1e3d 9b28 173d
00000130: 22b7 953d 6c5f 903d a179 c93d d340 cebc
00000140: 76c9 4a3b 9fb5 4e3d 8126 193e f613 8e3d
00000150: 05ce 34bc 6a89 1d3d 69d3 01be 7807 bd3b
00000160: 0f03 09be fc1f 6bbd f9a6 03bd 1b4e 93bd
00000170: 4207 b5bc 55b1 9c3c 3d21 9dbc aa3e c23d
00000180: 5632 a1bd a398 043e 38c6 c93d fb9e cd3d
00000190: a83c 38bd 4a2a fc3c 42a2 aebd fbf6 e2bc
000001a0: 59f6 a7bb 06bb e83c d194 22bc 2c43 e7bc
000001b0: 8964 eb3d bb32 00bd 0760 003e c6d8 ab3d
000001c0: b164 063e 3dc1 bc3c 578b bbbc ac37 3b3d
000001d0: 7b8f 7a3c 292a ccbc 71fe 803d 439e 603d
000001e0: d195 3cbd 34d5 37bd d2e6 083d 647f 21bc
000001f0: 2ce9 833d f3d2 6c3c fb13 153d 0216 713d
00000200: 7f5b 24bd 0546 27bd d5c6 483d 043c 2fbd
00000210: 9581 373d a0f0 9a3d 8645 c53d 7b85 d43c
00000220: 1312 81bd c5de 36bd 2644 8a3b e763 e23c
00000230: 4d4b abbd e633 0e3c 19ca 373d c042 3f3d
00000240: 0c54 0dbd bc61 eebd bdd5 67bd db4f e03d
00000250: 1936 143c 64d7 95bc 3a78 073c 621b 55bc
00000260: d25c 02bd 76e0 a5bc 72e3 a83c 5337 2d3c
00000270: 07c9 0bbe 677a 563d 787a 883d 867b 7c3d
00000280: a020 42ba 106c 95bc 4e62 803c a1e7 bc3d
00000290: cdb1 163e 2489 8cbd 8031 9bbc 72a7 583d
000002a0: f7bb 673d 4a16 e6bd f878 ec3c b904 123d
000002b0: defd 0e3e 4586 013d bc68 583d b5de 8fba
000002c0: 0011 70bd d8e6 133d 2196 99bd 2da0 c0bd
000002d0: c266 3dbc 8172 7b3d f52b 2bbd d778 ae3d
000002e0: 7624 8e3d 318e c3bd be98 5d3d accd fdbb
000002f0: b75b ad3d 5a23 d0bc 4dcc 37bd 8d38 f13b
00000300: 76f2 b1bd 08a7 7bbc c13a 70bd c5d3 1fbd
00000310: 155d c2bd 8760 1b3d 803c 18bd 4e93 e33d
00000320: b53f 353d b043 2f3d f366 f6bd dc71 aebc
00000330: 419e fd3b 6251 45ba f9a1 9f3c b6a9 b2bd
00000340: a496 aebd 2e50 823b 25e6 813d 4613 1dbc
00000350: 37c0 25bc 5070 ce3b a411 253d d3a4 863b
00000360: b225 133b fe32 ab3d 1a97 fc3c 44a5 83bd
00000370: 282e d43b 340a c83d 77aa ae3d 2b12 4cbd
00000380: 88f6 a43d 7aeb 313e 2460 95bc fd7b 0e3e
00000390: 93c8 33bd faed f33d d8d4 07be 8329 02bb
000003a0: ef2e 0b3e 7290 81bc 1249 e3bd 0282 e9bc
000003b0: 4283 37bd f2b9 bbbd e1b8 cf3c 9a7c 4d3d
000003c0: e440 b43c 321a 94bd d2d7 cdbd 762a 71bd
000003d0: 1b42 10bc 1113 333d 14d0 03bd 876a dbbc
000003e0: f4a1 af3d 5b32 a73d 007e f63c 9e5a 963d
000003f0: bcd8 bcbc f2b5 883d 04ba 6e3d 6523 21bd

lstm.weight_hh_l0 f4 [256, 64]
-0.00786603 -0.097663924 -0.07059772 0.058266293 0.07255672 0.06981721 -0.07137657 0.17515306
0.009983291 -0.038383547 0.12583832 -0.11890293 -0.0069615366 -0.06613261 -0.09243076 0.19722202
-0.040230658 0.08616898 0.00424325 0.041150965 -0.022902524 0.121791214 0.08574589 0.06498389
-0.09131167 0.05915988 0.18448533 0.063977726 -0.01616049 -0.032659113 0.019581331 -0.017441016
0.054569494 -0.1020125 0.038131244 -0.05448913 -0.053604513 -0.14491935 -0.11262556 -0.0017759419
0.08374853 0.12585603 -0.116273284 -0.06302004 0.047602165 0.09626511 -0.00555331 -0.0520621
0.15808438 0.08988883 0.083111666 0.03163126 -0.028402437 0.11799994 0.108393915 0.15577585
0.036396787 0.07797936 0.015229996 0.13539141 -0.06575398 -0.023362527 0.099206686 -0.019608116
0.09464884 0.061964005 -0.12320418 0.02261994 -0.16688979 0.07004972 -0.13147596 0.0008421546
0.013849497 0.032765295 -0.018126057 0.01126151 0.02345159 -0.026466178 0.14159638 -0.08220955
0.037901282 -0.010898634 0.08409996 -0.029140875 -0.0058184965 -0.062238365 -0.026841432 0.0022833643
0.004589656 -0.031332843 -0.058647692 0.023618909 0.035132125 0.056058872 -0.0040324447 0.10001449
-0.03342781 0.12782714 -0.05660648 0.027437165 0.041401155 0.06798211 0.079129405 0.034090925
0.0032381269 0.04328466 0.059861656 -0.018624732 -0.040735535 0.019587602 -0.06348229 0.051711645
0.11237266 -0.0068164747 0.052449077 0.04126187 -0.0006609619 -0.02504339 -0.11429016 -0.0065122484
0.0019789354 0.085527465 0.053873103 -0.11853346 0.14223613 0.042571947 0.113169536 -0.14963208
-0.001107523 0.10521126 -0.0024518427 0.0297585 -0.06658776 0.05857103 0.015875254 0.09364153
-0.058436606 0.077250466 0.103232235 -0.016162654 0.045792766 0.007924189 0.025910487 -0.04037347
0.00818123 0.048979968 -0.010976661 -0.04800833 0.04777195 0.08111821 0.02678002 0.06382009
-0.0086269975 0.030552823 0.05903273 -0.01224234 -0.04503852 0.12904723 0.07324431 -0.018704275
0.015699843 -0.05270425 -0.08588499 0.013214449 0.050696116 0.0028573638 -0.042703137 -0.06421463
0.049489994 0.012240759 0.08005633 0.04170215 0.04678679 -0.037097238 -0.00025155416 -0.0972642
-0.091357194 0.024595734 -0.14943732 0.06820314 -0.096651204 0.062453944 -0.021618938 -0.059416343
-0.009614378 0.044843763 0.033411276 0.00094361434 -0.041218154 0.14736319 -0.018501217 -0.009763116
-0.06845866 -0.011801146 -0.023021687 0.0051152306 0.083204836 -0.024765568 0.0278159 0.05320806
-0.0015692237 -0.068419464 0.02249607 0.020505069 0.057007853 0.036527883 0.03015633 0.12109861
0.03596902 0.08709068 -0.017346412 0.057230067 0.09777249 0.004057999 -0.06373001 -0.020330977
0.031242691 0.06390895 0.16345543 -0.01937647 -0.07152553 0.057260178 0.14898743 -0.064618036
-0.052512605 -0.004016079 0.13035256 -0.10085553 0.07631363 -0.02922912 -0.06796003 -0.02318101
0.08117148 -0.04507939 -0.08809181 0.0019346091 0.030196054 -0.0875623 0.12072152 -0.11549654
0.009385771 0.11272954 -0.028992975 -0.017779866 0.024407923 -0.044625625 -0.089016765 0.14111845
-0.0019409013 -0.12035032 0.016937329 0.0010710125 0.03585085 -0.11806119 0.10187231 -0.09884555
00000000: 85e0 00bc 0604 c8bd 8a95 90bd a3a8 6e3d
00000010: 9e98 943d 53fc 8e3d e12d 92bd 535b 333e
00000020: f590 233c 1138 1dbd c3db 003e 6183 f3bd
00000030: 9a1d e4bb 8970 87bd 574c bdbd 92f4 493e
00000040: e7c8 24bd 5d79 b03d f60a 8b3b ea8d 283d
00000050: 139e bbbc ac6d f93d 8b9b af3d 4616 853d
00000060: 9d01 bbbd a151 723d b9e9 3c3e c106 833d
00000070: 0163 84bc 90c5 05bd 0769 a03c 76e0 8ebc
00000080: 4384 5f3d eeeb d0bd 822f 1c3d fe2f 5fbd
00000090: 6890 5bbd bd65 14be 3ba8 e6bd b9c6 e8ba
000000a0: 5984 ab3d 67e0 003e b020 eebd a710 81bd
000000b0: 7dfa 423d a426 c53d 8af8 b5bb 123f 55bd
000000c0: dfe0 213e a317 b83d 7336 aa3d c88f 013d
000000d0: 3aac e8bc f4a9 f13d a1fd dd3d b483 1f3e
000000e0: cc14 153d a5b3 9f3d 3c87 793c 0ca4 0a3e
000000f0: 06aa 86bd c562 bfbc e02c cb3d 33a1 a0bc
00000100: 40d7 c13d f8cd 7d3d 7952 fcbd 744d b93c
00000110: 28e5 2abe 3a76 8f3d a2a1 06be 0ac4 5c3a
00000120: 00e9 623c e734 063d 197d 94bc 3282 383c
00000130: 8d1d c03c 99cf d8bc a4fe 103e 7b5d a8bd
00000140: 603e 1b3d 2f90 32bc 9a3c ac3d d8b8 eebc
00000150: 16a9 bebb a8ed 7ebd 90e2 dbbc 7fa4 153b
00000160: d364 963b de56 00bd 9038 70bd 717c c13c
00000170: b4e6 0f3d fd9d 653d 9922 84bb 66d4 cc3d
00000180: 99eb 08bd 1ee5 023e 32dc 67bd e8c3 e03c
00000190: 4294 293d 343a 8b3d 990e a23d eda2 0b3d
000001a0: c136 543b 414b 313d 7f31 753d e592 98bc
000001b0: 4eda 26bd 2e76 a03c 0103 82bd 97cf 533d
000001c0: a323 e63d bc5c dfbb d8d4 563d 3502 293d
000001d0: 6744 2dba cc27 cdbc f610 eabd b364 d5bb
000001e0: 07b1 013b 0629 af3d 0baa 5c3d acc1 f2bd
000001f0: 59a6 113e ec5f 2e3d 6ec5 e73d 2739 19be
00000200: 4e2a 91ba 0079 d73d 18af 20bb 19c8 f33c
00000210: 2a5f 88bd 2de8 6f3d d20c 823c 21c7 bf3d
00000220: 395b 6fbd 7e35 9e3d 6c6b d33d 8b67 84bc
00000230: 3291 3b3d 75d4 013c 3b42 d43c a75e 25bd
00000240: 910a 063c 389f 483d 74d7 33bc 62a4 44bd
00000250: 85ac 433d 4e21 a63d c661 db3c 1bb4 823d
00000260: 4058 0dbc ea49 fa3c 4ecc 713d 1894 48bc
00000270: 507a 38bd f524 043e 1d01 963d b539 99bc
00000280: f59c 803c 69e0 57bd 78e4 afbd 6b81 583c
00000290: bba6 4f3d 9c42 3b3b 7ce9 2ebd f682 83bd
000002a0: 05b6 4a3d 778d 483c 93f4 a33d e0cf 2a3d
000002b0: 81a3 3f3d 46f3 17bd 07e3 83b9 7432 c7bd
000002c0: 7b19 bbbd fe7c c93c 1906 19be 16ae 8b3d
000002d0: 11f1 c5bd b5cf 7f3d 331a b1bc 8d5e 73bd
000002e0: a085 1dbc 18ae 373d 43da 083d e35c 773a
000002f0: 5ed4 28bd 60e6 163e dd8f 97bc 7af5 1fbc
00000300: 0e34 8cbd 9859 41bc fa97 bcbc aa9d a73b
00000310: 4c67 aa3d 29e1 cabc 2cde e33c b2f0 593d
00000320: 69ae cdba 811f 8cbd ae49 b83c 3ffa a73c
00000330: 1181 693d 439e 153d 680a f73c 8c02 f83d
00000340: 4054 133d 995c b23d 101a 8ebc 136a 6a3d
00000350: f13c c83d f6f8 843b e184 82bd 268d a6bc
00000360: acf0 ff3c b2e2 823d dc60 273e 67bb 9ebc
00000370: fa7b 92bd a689 6a3d 2990 183e 7656 84bd
00000380: 7517 57bd 5099 83bb 247b 053e 588d cebd
00000390: 524a 9c3d e871 efbc a12e 8bbd 1ae6 bdbc
000003a0: 3c3d a63d 2ba5 38bd 7b69 b4bd b692 fd3a
000003b0: b75d f73c dd53 b3bd d83c f73d 7389 ecbd
000003c0: c7c6 193c bfde e63d ad82 edbc 15a7 91bc
000003d0: 20f3 c73c 5cc9 36bd 6c4e b6bd 5b81 103e
000003e0: d765 feba 3b7a f6bd 27c0 8a3c 3761 8c3a
000003f0: 57d8 123d 11ca f1bd 6ea2 d03d 896f cabd

lstm.bias_ih_l0 f4 [256]
-0.28204834 1.1005726 1.000273 -0.7359063 1.6481645 -0.9433306 0.35837454 1.5959305
-1.96995 0.44561118 -0.5677406 -1.1871092 -0.40549377 0.22773989 1.5978469 -0.95196843
1.8777969 -0.4247871 0.47949135 -0.75703067 0.41545182 0.92255175 2.0361807 -0.3955025
-0.70930916 -0.9092233 -0.7665736 0.13637972 0.36230853 0.2194388 -0.08887061 0.514768
-1.9173751 -0.914473 0.13953069 0.41482735 -0.030843943 0.53795224 1.8841972 0.42398438
1.6058675 1.1894112 0.11534014 -0.47148517 -1.3011259 -1.017979 0.63171226 -0.29485527
-0.64831746 0.6858957 2.1844754 0.6029766 -0.21922344 -0.3559861 1.2633829 -1.090244
-0.27017787 0.1672501 -1.4597429 -1.1970257 1.576971 0.0047462424 1.9363165 -0.1996441
0.9644717 0.1280177 1.5881824 0.79197437 -0.895829 1.1018653 0.3646788 -1.1650177
-2.172726 1.3702966 -0.37731245 -0.70277107 0.025172187 -0.56337583 -0.17287618 -0.18814208
0.028745594 -1.1117703 0.43901289 -0.21610783 0.18452531 1.6908406 0.036414295 1.3618686
-1.5002021 1.4952238 0.4755429 -0.93163705 1.004565 -0.9176052 1.0222963 -1.1002016
-0.59421074 0.57786006 -1.3544221 1.2771837 -1.2361829 0.13566133 0.04654387 1.2848926
-0.4592724 -0.8591326 -0.5176301 -2.592166 0.22918738 -0.44068244 -2.0883663 -0.42944327
-1.0908042 -1.4091157 -0.7829523 -0.057957686 -0.55122405 1.6909992 -0.092887305 2.017061
0.72756237 0.019703055 -0.15112258 -1.9754838 -0.046078444 -0.13691916 0.9836631 -0.59005135
0.58828104 0.39938024 0.9517824 -1.323415 -0.65692014 -0.35580817 0.6744937 -0.99967206
-0.44690964 0.47534406 -0.33356735 0.31827417 0.15935443 -0.15038276 1.078997 -0.8227368
0.42119625 0.26963085 1.0921494 -0.44796047 0.7126092 -0.81916237 -0.915752 0.44890037
2.195344 0.2960024 -0.95664954 -1.7536432 -0.9677977 -0.39656365 -0.8559413 -1.1907947
0.95612544 0.06455094 0.5611267 0.077413194 0.8680152 0.2806731 -0.7094318 0.19271074
0.6193294 -0.8635539 -0.08810032 0.9582143 -0.41656953 0.068165496 0.6635525 1.4198515
0.85494274 -1.6224786 1.3242103 -1.4636347 -0.63539684 -2.6215649 0.15176779 -0.33503884
-0.81255364 0.39160514 1.7127951 -0.22041826 1.3129866 1.4853418 -0.47063512 -0.24071851
-0.005192101 -0.81126827 0.6336726 0.4127782 -0.9802679 0.46100995 0.9935291 0.57995135
-1.1432531 -1.705929 0.47792915 0.1686465 2.0264864 0.6134126 0.4831147 -0.2628586
-1.8531225 1.9300971 -1.1724919 1.1190304 0.291488 -1.9789073 1.0511957 1.3665624
0.58754665 -0.44344783 -0.19279914 1.611884 -1.5054638 -0.22542714 0.33909667 -0.6686666
-0.764817 -0.25174013 1.4533546 -0.7579891 -0.37678853 0.74088246 -1.661668 -1.152302
-0.07275835 -0.19887206 -0.8102402 -0.3260729 0.6839262 0.5698153 0.84319365 1.1023734
-0.5328737 -0.13938761 -0.96737576 0.10164767 1.457236 1.1879467 0.2491109 -0.79777884
-0.4861673 0.6671659 0.5470499 0.2707548 -1.8477215 -0.08265255 0.85574585 2.6605222
00000000: a468 90be 90df 8c3f f208 803f 5b64 3cbf
00000010: 0ef7 d23f 1d7e 71bf de7c b73e 7347 cc3f
00000020: 5227 fcbf 2627 e43e 7357 11bf 32f3 97bf
00000030: e19c cfbe a534 693e 3f86 cc3f 34b4 73bf
00000040: a65b f03f b27d d9be e47f f53e c3cc 41bf
00000050: 1ab6 d43e 5a2c 6c3f c950 0240 4e7f cabe
00000060: 4995 35bf dcc2 68bf 2b3e 44bf 20a7 0b3e
00000070: 8180 b93e 91b4 603e cb01 b6bd d6c7 033f
00000080: 8c6c f5bf e71a 6abf 22e1 0e3e 4064 d43e
00000090: 70ac fcbc 3db7 093f 602d f13f 7b14 d93e
000000a0: 118d cd3f a03e 983f 7437 ec3d 8166 f1be
000000b0: 4b8b a6bf 234d 82bf e5b7 213f 45f7 96be
000000c0: 22f8 25bf dc96 2f3f 72ce 0b40 ad5c 1a3f
000000d0: 1c7c 60be cf43 b6be 88b6 a13f 1e8d 8bbf
000000e0: c154 8abe 9c43 2b3e dbd8 babf 2338 99bf
000000f0: 30da c93f 5e86 9b3b 38d9 f73f 816f 4cbe
00000100: 9ee7 763f 1217 033e 9049 cb3f d5be 4a3f
00000110: 0d55 65bf ec09 8d3f 2eb7 ba3e 4d1f 95bf
00000120: f10d 0bc0 e165 af3f 192f c1be cee8 33bf
00000130: e735 ce3c 6639 10bf 7406 31be 51a8 40be
00000140: e17b eb3c 7d4e 8ebf 4cc6 e03e 5f4b 5dbe
00000150: 34f4 3c3e 776d d83f 2827 153d b651 ae3f
00000160: 9f06 c0bf 7e63 bf3f 5c7a f33e c47f 6ebf
00000170: 9695 803f 2de8 6abf 9bda 823f 68d3 8cbf
00000180: 321e 18bf a3ee 133f b45d adbf c17a a33f
00000190: 3e3b 9ebf ceea 0a3e c9a4 3e3d 5c77 a43f
000001a0: c125 ebbe 1df0 5bbf 6883 04bf 0ce6 25c0
000001b0: 19b0 6a3e 21a1 e1be cba7 05c0 fddf dbbe
000001c0: 799f 8bbf e75d b4bf 906f 48bf 0a65 6dbd
000001d0: 051d 0dbf a972 d83f b33b bebd 8717 0140
000001e0: 8741 3a3f 4d68 a13c e1bf 1abe a7dc fcbf
000001f0: c0bc 3cbd 8934 0cbe 58d1 7b3f 9b0d 17bf
00000200: 9699 163f 917b cc3e 03a8 733f aa65 a9bf
00000210: eb2b 28bf 7d2c b6be 9eab 2c3f 82ea 7fbf
00000220: 57d1 e4be 4c60 f33e 57c9 aabe d5f4 a23e
00000230: cf2d 233e f0fd 19be 931c 8a3f e19e 52bf
00000240: 09a7 d73e 0e0d 8a3e 8dcb 8b3f 135b e5be
00000250: 8e6d 363f a0b4 51bf b96e 6abf 45d6 e53e
00000260: 8480 0c40 a08d 973e fce6 74bf 6177 e0bf
00000270: 97c1 77bf 640a cbbe f81e 5bbf f66b 98bf
00000280: a3c4 743f 4933 843d 00a6 0f3f cf8a 9e3d
00000290: 3f36 5e3f 62b4 8f3e 539d 35bf f755 453e
000002a0: 5f8c 1e3f de11 5dbf f16d b4bd 884d 753f
000002b0: 9a48 d5be 5a9a 8b3d 94de 293f b2bd b53f
000002c0: 87dd 5a3f 61ad cfbf b97f a93f 6258 bbbf
000002d0: 5ea9 22bf b8c7 27c0 0469 1b3e 368a abbe
000002e0: 8403 50bf 7880 c83e df3c db3f 53b5 61be
000002f0: f20f a83f ae1f be3f 16f7 f0be ea7e 76be
00000300: 8022 aabb 47af 4fbf 5e38 223f aa57 d33e
00000310: d6f2 7abf 7f09 ec3e ec57 7e3f b177 143f
00000320: 1e56 92bf e25b dabf 21b3 f43e abb1 2c3e
00000330: f4b1 0140 9c08 1d3f cf5a f73e 6795 86be
00000340: 1e33 edbf 6c0d f73f 3714 96bf 633c 8f3f
00000350: ea3d 953e d64c fdbf 958d 863f 84eb ae3f
00000360: 7569 163f 980b e3be 236d 45be 3752 ce3f
00000370: 0ab3 c0bf 5fd6 66be 149e ad3e bc2d 2bbf
00000380: 0ccb 43bf 15e4 80be 8607 ba3f 930b 42bf
00000390: 6dea c0be 79aa 3d3f 89b1 d4bf a27e 93bf
000003a0: 5402 95bd 1ea5 4bbe e76b 4fbf 07f3 a6be
000003b0: ca15 2f3f 6adf 113f 8adb 573f 921a 8d3f
000003c0: 696a 08bf a0bb 0ebe f0a5 77bf a72c d03d
000003d0: b686 ba3f a30e 983f ee16 7f3e 3c3b 4cbf
000003e0: ecea f8be 62cb 2a3f 760b 0c3f 60a0 8a3e
000003f0: 2382 ecbf bd45 a9bd 2912 5b3f ff45 2a40

lstm.bias_hh_l0 f4 [256]
0.7960647 -0.47382325 0.8805491 0.3874072 0.62792706 -1.5191764 1.4264972 1.0241139
0.14889051 2.0129433 -0.27108088 -0.80198044 -1.2485065 -0.21466094 0.42716113 -1.0849156
1.480878 -0.9131637 0.10928988 -0.2090451 -0.30087915 -0.600034 -0.19157824 0.9340554
-0.8212468 1.0105346 -0.05481662 -0.277879 0.6113991 2.031194 1.3488094 0.24178119
-0.7379107 0.5191124 -0.6567762 -1.896165 -1.0280591 -0.77993363 -2.0198352 -0.6488763
0.48341212 0.13446485 -0.9329812 -0.60229915 -0.34125414 1.8799068 0.8835824 0.31055132
-0.70784175 0.42936626 -1.4944105 2.202575 -0.14596532 0.6239056 0.19057323 1.3752515
1.2839928 0.19013713 0.015991203 0.13264057 -0.93839645 -0.16222982 0.73595893 0.12457668
0.43830273 -1.4826629 0.12833747 -1.5918418 -0.99551535 -0.7758628 0.6639226 1.1496034
-1.0913674 -0.6540056 -0.8436899 -1.4749755 1.4006537 -0.7624119 0.91335016 -0.42569876
-0.09864252 0.393854 -0.5917729 0.28269196 -0.13390587 0.82419825 -0.97415555 1.4185389
0.38410947 -0.30449995 1.5671191 -0.38495338 0.43169442 0.39276722 0.39037505 -0.34507373
-1.0138993 -1.2761456 -2.596901 0.91101086 -0.9199255 1.162776 0.22965895 2.1405838
0.2363922 2.1076634 2.1764584 3.227664 -0.99884355 0.6069389 1.9359139 -0.51353806
-1.0000186 -2.8389382 1.2959083 0.3778921 -2.0201745 -1.5250859 -1.2043437 0.5034398
-1.1842719 -0.6268191 2.3548462 -0.19708776 2.7887533 0.70206493 -1.2831653 0.4184613
1.8057665 0.202882 0.45052314 -0.578113 0.35192063 0.38886404 0.41756782 -1.5339416
-0.92256266 -0.48538926 0.9799772 1.8132757 -1.2109023 -0.16868526 0.9508207 1.0410831
0.09633349 -0.36559904 -0.08508073 -0.5918768 0.3110895 0.11997043 1.4235947 -0.5751238
0.33745652 -0.8244104 -0.68109477 0.07257802 0.31915808 -0.051271345 -0.37621772 2.3260896
-1.2895453 0.65539384 -0.45982108 1.6024555 0.025487393 1.6552767 1.1928889 -0.7459947
-0.95966566 0.07339598 1.0441186 -0.85678655 -0.48532963 -0.6690798 -0.8223455 -0.75625795
-1.6485922 0.8137146 -0.5700255 -1.164714 0.5440301 -0.058181588 -1.2014158 -0.62441224
0.15868738 -0.3314978 -0.06792447 -0.41194078 -0.26071152 0.6644498 -0.82159907 0.7932057
0.90768915 0.36739045 -0.2645075 0.22373542 0.56680226 -0.0044866316 0.8688723 -1.5288738
-0.30389655 1.970155 0.2830117 -1.4745306 -0.081867345 -1.5785984 -1.8297714 0.4388666
-0.54940015 1.5012367 -1.1002316 -0.9066639 -0.17273019 0.5883141 0.18940187 2.9836981
-0.05024407 -1.4707198 0.9213229 0.36472845 0.6397573 0.5927123 -0.6500728 -1.3798214
-1.8295149 -0.59168065 1.0690131 1.1656644 -0.8298505 -0.6060925 -0.6368581 -1.786894
0.30042475 -0.6046849 0.19678453 0.10265278 -0.046032496 0.44514018 2.1545198 -0.101743005
-0.054734763 1.1167991 0.39064243 1.0316381 1.3743671 -0.41431502 0.3907524 1.096552
-0.41688612 -1.0103121 -1.2530639 1.126991 1.3383114 1.42299 0.4732565 -0.04621007
00000000: e5ca 4b3f f698 f2be aa6b 613f 3d5a c63e
00000010: d4bf 203f 5f74 c2bf 7697 b63f 2a16 833f
00000020: c176 183e 10d4 0040 1dcb 8abe 974e 4dbf
00000030: 10cf 9fbf 14d0 5bbe ddb4 da3e 84de 8abf
00000040: 698d bd3f 19c5 69bf 5fd3 df3d eb0f 56be
00000050: d50c 9abe d49b 19bf 162d 44be 411e 6f3f
00000060: 3b3d 52bf 3359 813f 6487 60bd 2846 8ebe
00000070: a784 1c3f 15ff 0140 c9a5 ac3f 7d95 773e
00000080: b7e7 3cbf 8de4 043f 7c22 28bf 89b5 f2bf
00000090: 7197 83bf bba9 47bf fb44 01c0 c21c 26bf
000000a0: cb81 f73e 27b1 093e dbd7 6ebf 4730 1abf
000000b0: ddb8 aebe c9a0 f03f 7532 623f 9500 9f3e
000000c0: 1e35 35bf e5d5 db3e d848 bfbf fdf6 0c40
000000d0: ef77 15be 47b8 1f3f a125 433e 3e08 b03f
000000e0: e059 a43f 4fb3 423e fcff 823c eed2 073e
000000f0: c03a 70bf 931f 26be ce67 3c3f 0f22 ff3d
00000100: 3769 e03e e6c7 bdbf e66a 033e 79c1 cbbf
00000110: 18da 7ebf f29e 46bf d5f6 293f 3426 933f
00000120: edb1 8bbf e96c 27bf 10fc 57bf ffcb bcbf
00000130: 9f48 b33f 6d2d 43bf 51d1 693f 30f5 d9be
00000140: 1705 cabd 3ba7 c93e 6e7e 17bf 00bd 903e
00000150: 9f1e 09be a8fe 523f 4262 79bf af92 b53f
00000160: ffa9 c43e 6be7 9bbe 5c97 c83f 9c18 c5be
00000170: 0d07 dd3e c918 c93e 3ddf c73e 81ad b0be
00000180: 74c7 81bf bd58 a3bf a033 26c0 0238 693f
00000190: 3d80 6bbf d8d5 943f b72b 6b3e 53ff 0840
000001a0: cc10 723e f5e3 0640 184b 0b40 0c92 4e40
000001b0: 36b4 7fbf 5960 1b3f 07cc f73f 3b77 03bf
000001c0: 9c00 80bf 2ab1 35c0 53e0 a53f 137b c13e
000001d0: 8a4a 01c0 0436 c3bf ef27 9abf 6ee1 003f
000001e0: 3996 97bf 3777 20bf cdb5 1640 60d1 49be
000001f0: ef7a 3240 87ba 333f c33e a4bf 8f40 d63e
00000200: 5b23 e73f 4dc0 4f3e f8aa e63e 37ff 13bf
00000210: f12e b43e 3019 c73e 73cb d53e 3358 c4bf
00000220: 112d 6cbf f184 f8be c9df 7a3f 6b19 e83f
00000230: d9fe 9abf d4bb 2cbe fc68 733f 3642 853f
00000240: 7e4a c53d cc2f bbbe ce3e aebd 3d85 17bf
00000250: 1f47 9f3e 0fb3 f53d 5a38 b63f 503b 13bf
00000260: 1ac7 ac3e 8f0c 53bf 3a5c 2ebf c9a3 943d
00000270: b068 a33e e701 52bd 9c9f c0be a7de 1440
00000280: d20f a5bf e4c7 273f ab6d ebbe 431d cd3f
00000290: f0ca d03c 1be0 d33f 95b0 983f 82f9 3ebf
000002a0: a6ac 75bf a250 963d aea5 853f 5d56 5bbf
000002b0: 207d f8be d048 2bbf 3c85 52bf 1f9a 41bf
000002c0: 1205 d3bf 9a4f 503f 31ed 11bf 5915 95bf
000002d0: 8e45 0b3f d14f 6ebd fec7 99bf 7bd9 1fbf
000002e0: f27e 223e 14ba a9be fc1b 8bbd e7e9 d2be
000002f0: fb7b 85be 6219 2a3f 5154 52bf 870f 4b3f
00000300: 515e 683f 9a1a bc3e 876d 87be e61a 653e
00000310: f419 113f 9804 93bb 6a6e 5e3f 23b2 c3bf
00000320: 5498 9bbe 0a2e fc3f e9e6 903e 6bbd bcbf
00000330: 11aa a7bd 830f cabf f335 eabf 1fb3 e03e
00000340: 7da5 0cbf 8628 c03f 64d4 8cbf 201b 68bf
00000350: 2fe0 30be c19b 163f 90f2 413e e9f4 3e40
00000360: bacc 4dbd 8c40 bcbf d1db 6b3f b0bd ba3e
00000370: 22c7 233f febb 173f 2c6b 26bf fd9d b0bf
00000380: 8b2d eabf 6278 17bf 6cd5 883f 7e34 953f
00000390: 1571 54bf e128 1bbf 2209 23bf f1b8 e4bf
000003a0: 46d1 993e a1cc 1abf e281 493e 9f3b d23d
000003b0: 928c 3cbd 6ae9 e33e a7e3 0940 a35e d0bd
000003c0: 8f31 60bd 46f3 8e3f 4902 c83e b80c 843f
000003d0: 43eb af3f 1921 d4be b310 c83e d15b 8c3f
000003e0: 1972 d5be e851 81bf 6664 a0bf 3e41 903f
000003f0: ca4d ab3f 8924 b63f ad4e f23e c546 3dbd

lstm.weight_ih_l1 f4 [256, 64]
-0.070450366 -0.016137864 0.08208539 0.011356952 -0.056973156 -0.046663966 0.086011596 -0.036995664
0.013618797 0.10025616 0.04362363 0.030149188 0.09997012 -0.047135033 0.033725437 -0.083195865
0.13557383 0.15518826 -0.11680958 0.05015424 -0.018112974 -0.008733123 -0.009207191 0.04434227
-0.0043270653 0.052863486 -0.028556326 0.0127251325 0.10297227 0.01684211 0.020231055 0.115094796
0.022224896 0.11484878 -0.021556005 0.054285936 -0.12357163 -0.039636202 0.04019584 -0.17040142
-0.08075015 -0.055984426 -0.0019873583 0.13832079 0.01853169 0.06792897 -0.044358317 0.06994908
-0.118312724 0.014319965 0.11365188 -0.15699041 0.05602696 0.06720173 0.08286675 0.059264753
0.017452091 0.0005611574 0.12973502 -0.027298927 -0.047500663 -0.04032946 -0.044653133 0.067027494
-0.026659815 -0.046893045 -0.007933831 -0.06828586 -0.033617593 0.11906738 -0.0035774922 -0.09227412
0.05524848 0.02326313 -0.04354029 0.030691495 0.07833807 -0.029431492 -0.024071679 -0.037345313
0.09135316 -0.13191889 0.008400095 0.042670134 -0.072399855 0.022398125 -0.0014618133 -0.0063210665
-0.06505986 0.063107245 0.12610877 -0.04307409 -0.13244008 0.0059653395 0.054518115 0.030766545
0.096333355 0.011764906 0.04229702 -0.0065288246 -0.00570596 -0.012908415 0.046249468 0.061128333
0.14393026 0.054975174 -0.056498047 0.04257125 -0.10023808 0.047265954 0.03242231 -0.07333695
-0.025632543 -0.04377409 -0.062240005 0.076731965 0.049099855 0.09187202 0.039147012 0.09503367
0.026671572 -0.023948852 0.051062137 0.064262286 -0.022204852 -0.09781714 -0.0043934076 -0.027055224
-0.05045447 -0.06304816 0.038375873 -0.013818282 -0.03733859 -0.03184924 0.027136939 -0.06404232
-0.002040198 -0.042123176 0.05120417 -0.094429165 -0.10914178 -0.04964315 0.029118625 -0.060487572
-0.06608178 0.06505493 -0.066470206 0.10073561 0.017318932 0.07051915 0.13232218 -0.12955984
-0.016167754 -0.072571516 0.044657398 -0.105767034 -0.0768794 -0.05596751 -0.005530286 -0.10795797
0.008245368 0.10481666 0.058330137 -0.06888047 0.004560543 0.033448756 0.05357175 0.07317719
-0.031001488 0.08587189 0.036077935 -0.09546725 -0.14328267 -0.13408719 0.01811644 -0.05514571
0.06485038 0.038275417 -0.035595566 -0.07466223 -0.007835594 0.00646108 0.024535315 0.024845297
-0.01670836 -0.062105425 0.024800424 -0.0184429 0.045485415 0.00798293 0.08076187 0.0070535596
0.049323276 0.012519684 -0.053161353 -0.010773375 0.087776914 -0.0068827206 -0.20230742 0.009995939
-0.13063467 -0.031004855 0.059429176 -0.032437906 0.01734065 0.053287942 0.048728123 0.09115784
-0.04023264 0.094577126 -0.0100607 0.085932456 0.054264687 0.03271406 0.056868 0.07182021
-0.021805294 -0.03373353 -0.10118326 0.03068235 -0.028617362 0.0050218836 -0.09971181 -0.09844453
-0.03679113 0.06888972 -0.066416465 0.018236611 0.07313917 0.07110266 0.09939674 -0.00945262
-0.0836682 -0.01535785 0.036900725 0.08450579 -0.08698037 -0.08794698 0.003934545 0.13892327
-0.005612373 -0.026108108 -0.0879825 -0.04438309 -0.05566974 0.07508001 0.11450481 0.009483333
-0.019771501 0.008855206 0.00086840044 -0.03333727 -0.015244705 0.021700623 0.059710607 0.04178667
00000000: 4848 90bd 8e33 84bc 631c a83d 8212 3a3c
00000010: af5c 69bd b722 3fbd d926 b03d c488 17bd
00000020: 6021 5f3c 1a53 cd3d b1ae 323d 6efb f63c
00000030: 22bd cc3d aa10 41bd af23 0a3d 9862 aabd
00000040: ded3 0a3e ace9 1e3e dc39 efbd 886e 4d3d
00000050: a961 94bc 5f15 0fbc c2d9 16bc 3da0 353d
00000060: 0eca 8dbb 6287 583d f5ee e9bc 137d 503c
00000070: 20e3 d23d 77f8 893c 99bb a53c d2b6 eb3d
00000080: fc10 b63c d635 eb3d 3896 b0bc ee5a 5e3d
00000090: 1f13 fdbd 9259 22bd 65a4 243d b67d 2ebe
000000a0: 5660 a5bd ed4f 65bd 573e 02bb f7a3 0d3e
000000b0: c5cf 973c 581e 8b3d 11b1 35bd 7741 8f3d
000000c0: f14d f2bd 499e 6a3c 51c2 e83d 18c2 20be
000000d0: 877c 653d 10a1 893d 0bb6 a93d 99bf 723d
000000e0: b0f7 8e3c a31a 133a 42d9 043e 00a2 dfbc
000000f0: 0e90 42bd 8130 25bd 34e6 36bd b645 893d
00000100: af65 dabc ec12 40bd e6fc 01bc 75d9 8bbd
00000110: 9ab2 09bd 99d9 f33d 5c74 6abb 37fa bcbd
00000120: 3b4c 623d 5292 be3c 4e57 32bd bb6c fb3c
00000130: b66f a03d 501a f1bc f831 c5bc 66f7 18bd
00000140: 5e17 bb3d bf15 07be 8da0 093c e1c6 2e3d
00000150: 6046 94bd 467c b73c 519a bfba f320 cfbb
00000160: 1b3e 85bd 5f3e 813d a822 013e 756e 30bd
00000170: 5f9e 07be e578 c33b 634e 5f3d 1f0a fc3c
00000180: 6c4a c53d 98c1 403c a43f 2d3d c0ef d5bb
00000190: 10f9 babb d17d 53bc 1570 3d3d b461 7a3d
000001a0: 7462 133e a62d 613d 7f6a 67bd 315f 2e3d
000001b0: 9f49 cdbd f299 413d 42cd 043d af31 96bd
000001c0: 57fb d1bc 764c 33bd 60ef 7ebd a625 9d3d
000001d0: ee1c 493d 6627 bc3d 9e58 203d 03a1 c23d
000001e0: 577e da3c 6230 c4bc 8826 513d f29b 833d
000001f0: f3e6 b5bc 5a54 c8bd 93f6 8fbb eba2 ddbc
00000200: 59a9 4ebd 651f 81bd 0530 1d3d 1366 62bc
00000210: 59f0 18bd 5974 02bd 494e de3c 9f28 83bd
00000220: d8b4 05bb 5a89 2cbd 77bb 513d 1464 c1bd
00000230: ba85 dfbd 9e56 4bbd 2f8a ee3c d1c1 77bd
00000240: e255 87bd 853b 853d 8821 88bd 794e ce3d
00000250: 6fe0 8d3c 586c 903d 777f 073e 56ab 04be
00000260: 3d72 84bc 60a0 94bd adea 363d 639c d8bd
00000270: f272 9dbd 303e 65bd 6737 b5bb 1119 ddbd
00000280: 9417 073c 1eaa d63d 95eb 6e3d 3411 8dbd
00000290: 9c70 953b 9001 093d 0d6e 5b3d ecdd 953d
000002a0: d5f6 fdbc 9add af3d 75c6 133d 5584 c3bd
000002b0: b1b8 12be 274e 09be ee68 943c 78e0 61bd
000002c0: 47d0 843d afc6 1c3d a8cc 11bd 83e8 98bd
000002d0: dd60 00bc 78b7 d33b 49fe c83c 5d88 cb3c
000002e0: f8df 88bc 4262 7ebd 422a cb3c 9115 97bc
000002f0: ea4e 3a3d d6ca 023c 7b66 a53d 8c21 e73b
00000300: 3407 4a3d 5c1f 4d3c b8bf 59bd cf82 30bc
00000310: 62c4 b33d 7288 e1bb ad29 4fbe 02c6 233c
00000320: 18c5 05be e5fd fdbc 026c 733d 9cdd 04bd
00000330: fb0d 8e3c 7544 5a3d 2497 473d f6b0 ba3d
00000340: fbca 24bd a7b1 c13d a2d5 24bc 5bfd af3d
00000350: a644 5e3d 2eff 053d 6cee 683d 7916 933d
00000360: 04a1 b2bc 2c2c 0abd 2b39 cfbd 8d59 fb3c
00000370: f56e eabc 9d8e a43b b535 ccbd 499d c9bd
00000380: 4cb2 16bd 0e16 8d3d 5b05 88bd f264 953c
00000390: fdc9 953d 459e 913d 8590 cb3d 29df 1abc
000003a0: 3c5a abbd 7e9f 7bbc 3725 173d 5f11 ad3d
000003b0: c422 b2bd 8c1d b4bd 5bed 803b e741 0e3e
000003c0: ffe7 b7bb ace0 d5bc 2b30 b4bd 0bcb 35bd
000003d0: f405 64bd 8cc3 993d 7f81 ea3d fb5f 1b3c
000003e0: d8f7 a1bc 6d15 113c 5ea5 633a a98c 08bd
000003f0: edc4 79bc 81c5 b13c 1c93 743d 8028 2b3d

lstm.weight_hh_l1 f4 [256, 64]
0.052962102 0.16123952 0.03967996 0.06485957 -0.0903172 -0.036293313 -0.083075725 0.120578974
0.03186687 0.10141414 0.042931926 -0.01210705 0.03793456 -0.07516624 -0.06209885 0.02262212
-0.013727309 -0.007789325 0.042054545 0.14876185 -0.04082284 0.037917476 -0.032435488 0.02337419
-0.025322683 0.009788515 -0.038402632 -0.07125195 0.09891821 -0.05094236 -0.026481517 0.05852533
0.017049847 -0.0055008433 0.005072297 -0.057050303 -0.13426293 -0.062916026 -0.053753126 0.060687836
-0.06933744 0.0043990077 -0.0027037042 -0.16037491 0.027416436 -0.023462888 0.066293426 -0.032435317
0.09895066 -0.072130725 0.12746787 -0.015272156 0.023658963 0.09637265 -0.04943798 -0.057395637
0.18791676 -0.044498842 -0.028458942 -0.045428526 0.051685385 -0.16754813 0.12769504 -0.017971823
0.034620535 -0.031926643 -0.022901673 0.028587867 -0.061993524 -0.029087357 0.06446814 -0.0015819247
-0.045627892 0.020938309 0.1386149 -0.001313626 -0.0430393 -0.08674106 -0.019989274 0.026320994
0.008931595 -0.04505542 -0.00954572 0.0389201 0.13379954 0.04159493 -0.026257705 0.058458745
0.105059825 0.21411736 -0.013957191 0.018213984 0.072966106 -0.10528285 -0.029466696 -0.058246758
-0.12217143 0.039059445 -0.08788799 0.04786643 0.08922455 -0.087995805 -0.10436169 0.060075846
0.004373271 0.016020237 0.010094847 0.059052292 -0.019562555 0.025281597 0.07576669 0.029718189
0.028712928 0.07454663 -0.053863954 0.08901996 -0.04010684 0.061225448 0.08479779 -0.08432022
0.029967694 0.023515515 -0.044304714 0.05686058 0.16763708 -0.018911738 -0.21487752 -0.083364904
0.0017613845 0.0045030667 0.07900705 0.012440946 0.047844753 0.076021224 -0.04158443 -0.037103705
-0.06737019 -0.02477495 -0.059781034 -0.10589145 -0.037402354 -0.24243708 -0.17183292 0.11690322
-0.008354367 -0.041068804 0.040102344 -0.020507472 0.012833568 0.07310887 -0.12654327 0.003222896
0.020227104 -0.009928224 -0.016338358 0.021057613 0.031929124 -0.10067413 -0.069373555 0.07233695
-0.043657597 0.033858687 0.1215207 0.0018291285 0.016683158 -0.06873197 -0.0029005595 -0.021270273
-0.032898452 0.019629724 0.06379318 0.0015061961 0.1455253 -0.0173166 -0.046638373 -0.022095973
-0.092669874 0.061089985 0.06490873 0.09561687 -0.074119955 -0.068301454 0.079472885 -0.060401812
0.11649519 0.02307848 -0.118663006 -0.075454414 -0.01113077 0.039669998 0.036487352 -0.08675232
0.09009061 -0.011540611 0.058327608 0.082735315 -0.090710014 -0.050420657 -0.0035498247 -0.15528795
0.0010512965 -0.076739036 -0.12384141 0.052715015 -0.0038077375 -0.10263945 0.0010814138 0.0052741277
-0.13923208 0.18140838 -0.13399105 0.01419557 -0.102737956 -0.12352539 -0.03223126 0.08724038
-0.008954517 -0.0025369592 0.013935912 -0.081994906 -0.050690632 -0.03571474 0.005395917 0.05409351
-0.040375177 0.007366759 -0.0120461555 0.08170915 -0.004107771 -0.03298162 -0.0038033188 -0.028544884
-0.030188095 0.03448798 -0.06861623 -0.00905011 0.014475273 0.06107544 0.0072352733 0.01111459
0.08041691 0.01028081 0.1127909 0.009610822 -0.09331995 0.018116208 -0.019083427 -0.024515834
0.07483294 -0.054484718 -0.042590823 -0.034933206 -0.068314016 -0.018388748 -0.10693341 -0.008352768
00000000: caee 583d f91b 253e 7487 223d 18d5 843d
00000010: 39f8 b8bd 4ca8 14bd 9b23 aabd 1cf2 f63d
00000020: d686 023d 37b2 cf3d 63d9 2f3d a65c 46bc
00000030: 4561 1b3d c2f0 99bd 5d5b 7ebd 0652 b93c
00000040: 82e8 60bc 983d ffbb 6341 2c3d 0755 183e
00000050: da35 27bd 5b4f 1b3d 13db 04bd 3b7b bf3c
00000060: 8471 cfbc 0260 203c 144c 1dbd 8bec 91bd
00000070: a195 ca3d f0a8 50bd c4ef d8bc 42b8 6f3d
00000080: 1fac 8b3c 6b40 b4bb 8335 a63b 94ad 69bd
00000090: 397c 09be 1eda 80bd 3d2c 5cbd cf93 783d
000000a0: ca00 8ebd 8d25 903b a130 31bb 5239 24be
000000b0: 6f98 e03c 3e35 c0bc d9c4 873d e5da 04bd
000000c0: a5a6 ca3d 46b9 93bd f086 023e 1138 7abc
000000d0: 71d0 c13c 065f c53d 7b7f 4abd b017 6bbd
000000e0: 406d 403e 6b44 36bd ba22 e9bc 4313 3abd
000000f0: 0eb4 533d bd91 2bbe 7dc2 023e a539 93bc
00000100: 43ce 0d3d 83c5 02bd 4a9c bbbc 1a31 ea3c
00000110: ecec 7dbd 9c48 eebc df07 843d 9658 cfba
00000120: 50e4 3abd d186 ab3c 10f1 0d3e f92d acba
00000130: fa49 30bd 4ca5 b1bd 8cc0 a3bc 209f d73c
00000140: d355 123c 088c 38bd a765 1cbc af6a 1f3d
00000150: bf02 093e 725f 2a3d 661a d7bc 7072 6f3d
00000160: 9b29 d73d 9541 5b3e b4ac 64bc 7e35 953c
00000170: 416f 953d 899e d7bd 2464 f1bc 2794 6ebd
00000180: 0435 fabd ccfc 1f3d 9efe b3bd 970f 443d
00000190: 5cbb b63d 2537 b4bd 95bb d5bd 1712 763d
000001a0: a84d 8f3b df3c 833c db64 253c d1e0 713d
000001b0: a741 a0bc 5a1b cf3c 912b 9b3d 8f73 f33c
000001c0: 6037 eb3c e7ab 983d 73a0 5cbd 1950 b63d
000001d0: 1247 24bd 89c7 7a3d 77aa ad3d 14b0 acbd
000001e0: cf7e f53c 9ca3 c03c dc78 35bd a4e6 683d
000001f0: 0ea9 2b3e caec 9abc da08 5cbe 38bb aabd
00000200: 42de e63a 768e 933b 73ce a13d 1cd5 4b3c
00000210: dcf8 433d 04b1 9b3d 6f54 2abd 0efa 17bd
00000220: 62f9 89bd d6f4 cabc f5dc 74bd 9edd d8bd
00000230: 3633 19bd 6d41 78be f8f4 2fbe f56a ef3d
00000240: c1e0 08bc c337 28bd 5b42 243d 49ff a7bc
00000250: e343 523c 1aba 953d 8f94 01be 3937 533b
00000260: 50b3 a53c fda9 22bc 05d8 85bc 0481 ac3c
00000270: 1dc8 023d 3d2e cebd b913 8ebd 6525 943d
00000280: 4fd2 32bd 68af 0a3d d8df f83d 5ebf ef3a
00000290: 1eab 883c 59c3 8cbd 5017 3ebb ff3e aebc
000002a0: 87c0 06bd 84ce a03c 00a6 823d 8e6b c53a
000002b0: 9604 153e 8bdb 8dbc e107 3fbd 9d02 b5bc
000002c0: b4c9 bdbd 7e39 7a3d deee 843d c7d2 c33d
000002d0: 34cc 97bd a2e1 8bbd aec2 a23d e467 77bd
000002e0: 0895 ee3d 150f bd3c 9705 f3bd d887 9abd
000002f0: d55d 36bc 027d 223d c373 153d 33ab b1bd
00000300: 6d81 b83d d514 3dbc eee8 6e3d 2271 a93d
00000310: 2cc6 b9bd e485 4ebd 2da4 68bb ce03 1fbe
00000320: a8cb 893a 5b29 9dbd 91a0 fdbd b3eb 573d
00000330: 3c8b 79bb a234 d2bd 3abe 8d3a 97d2 ac3b
00000340: db92 0ebe 1ec3 393e f334 09be 8994 683c
00000350: 4768 d2bd e1fa fcbd ed04 04bd 16ab b23d
00000360: f7b5 12bc 1d43 26bb 7453 643c f2ec a7bd
00000370: fba0 4fbd 9f49 12bd 3cd0 b03b 2891 5d3d
00000380: 7160 25bd da64 f13b 3d5d 45bc 2057 a73d
00000390: 7b9a 86bb bc17 07bd 1a41 79bb f6d6 e9bc
000003a0: 064d f7bc 4543 0d3d aa86 8cbd ea46 14bc
000003b0: b229 6d3c 3e2a 7a3d df15 ed3b f819 363c
000003c0: 9fb1 a43d d870 283c eafe e63d b676 1d3c
000003d0: 881e bfbd 7168 943c d954 9cbc 6ed5 c8bc
000003e0: 0342 993d 5e2b 5fbd b773 2ebd 1f16 0fbd
000003f0: 38e8 8bbd 00a4 96bc e7ff dabd 0cda 08bc

lstm.bias_ih_l1 f4 [256]
-0.32680282 -0.32053703 0.0116924355 -0.20138709 -0.27261356 -2.0757718 2.6995964 0.026541157
-1.5421016 -0.6014896 1.0592202 0.10738954 -0.6532933 -0.52621806 -1.6979705 -1.6330923
0.62954557 -0.39189228 -0.9310956 0.7619189 0.34628728 1.6465311 0.14059183 0.7459777
2.3054216 -0.09013879 -1.2646557 -1.1385969 -0.7098267 2.0921721 1.3714404 1.350547
0.22625297 -1.5826023 0.84664404 0.71290976 -0.143039 -2.7873762 -0.61964506 -0.35288754
1.8391813 -1.4819045 -1.2508371 0.80424464 -0.5949103 1.332105 -0.41887617 -0.21416965
0.3654883 -0.15330866 -0.4300008 -0.79758507 -0.28234348 0.49132118 0.023598166 -1.6766359
-0.45586944 -2.3612137 1.4117632 0.9776957 -1.3681306 -0.1963091 0.26347405 -0.17759942
-1.7692823 0.5048712 -0.56380755 0.21556596 0.42163208 0.74130416 -1.658083 0.42093107
0.20739096 0.18184476 -0.032679845 -1.7120062 -0.21772924 0.534437 0.61275727 1.1525289
-1.0087287 -1.0910174 -1.981663 1.596526 -0.224842 -0.6484093 0.31051096 0.09043065
1.1409503 -0.31326604 -1.3151875 -0.05643025 -1.3548225 -0.5667482 -0.54865754 0.51597387
-0.035180375 0.03248811 1.3718683 -0.35563532 0.23151644 -1.4144781 -0.8873124 1.5846338
-0.038241103 -0.24679098 -1.42271 -0.602523 -0.13911109 -0.8236701 1.0944325 -0.35548583
1.9723736 -0.11461416 1.3467366 -1.0670599 -0.64689213 -1.4856868 1.635232 -2.1151645
0.9673188 -0.07404222 0.88999206 -1.0419707 -0.71848893 0.6107928 -0.0016540153 1.0569457
-1.1259356 -0.94354504 -0.6442674 -0.21744801 -0.5218507 1.0360284 0.11693433 1.4372305
0.7509518 0.6572792 -0.18679886 1.6848494 1.4002681 -0.6418592 0.99267274 -0.7155008
0.9326693 -2.191989 -1.8159536 -0.13578789 1.3833632 -0.036699884 2.2207863 0.4522264
-0.36887947 -0.30886844 1.6722571 1.4461018 0.45199355 0.9519392 -0.5165755 0.11797412
-0.12625417 -1.3992269 -0.6098595 -0.40745905 -1.4400272 -0.5637579 0.4016898 -0.91653097
-1.1310143 -0.45852724 -0.84620166 -1.1832242 -0.754712 0.9160744 1.048356 -0.059226964
-1.0384926 -0.6864185 1.0558242 -1.5124166 0.75557196 0.4450658 0.3626788 0.07878013
-1.1137493 -0.49253225 1.5796707 -0.0049936585 -1.5217838 0.11145935 -0.2952638 -1.3775433
1.2344419 -0.23738976 -0.920973 -0.03201254 -1.5728383 -1.5990489 -0.48245353 0.4860539
0.1761725 0.31511837 0.7917316 -0.72995216 -1.2777715 -0.22453626 1.3344158 0.17426096
-1.0637375 0.3099328 0.061412357 0.7654581 -0.56467676 -0.9307411 2.1237977 0.5521192
-0.5016996 1.3445529 -0.40235886 -0.014448981 -1.2626171 0.41088957 -1.4930848 0.2702471
0.04239153 1.0193795 -0.4020322 0.87076926 -0.2396301 0.18939197 1.3909453 -0.49943534
-0.18246523 0.54451066 -0.14634544 -0.4291894 -1.9091191 -1.2371088 -0.55557305 1.1476661
-0.32211468 -0.30007598 -1.1489798 -0.6661721 -0.7315956 1.0996674 1.0704778 -0.6925117
-0.39682662 0.18491648 1.3913466 0.22639792 -1.0225177 -0.8462082 -1.0478516 -0.7886238
00000000: b352 a7be 6e1d a4be a191 3f3c 6b38 4ebe
00000010: 0194 8bbe 72d9 04c0 30c6 2c40 d76c d93c
00000020: 9663 c5bf 39fb 19bf 8794 873f 0cef db3d
00000030: 3b3e 27bf 3ab6 06bf 1957 d9bf 2b09 d1bf
00000040: e629 213f 1ba6 c8be 485c 6ebf 1e0d 433f
00000050: 914c b13e 88c1 d23f 4ef7 0f3e 65f8 3e3f
00000060: 078c 1340 b09a b8bd 3de0 a1bf 8bbd 91bf
00000070: 34b7 35bf 26e6 0540 5c8b af3f b9de ac3f
00000080: dcae 673e b692 cabf aabd 583f 4181 363f
00000090: d178 12be 5f64 32c0 0fa1 1ebf adad b4be
000000a0: 4b6a eb3f 0caf bdbf 6e1b a0bf fae2 4d3f
000000b0: 0b4c 18bf 6b82 aa3f f076 d6be 4a4f 5bbe
000000c0: 4821 bb3e f2fc 1cbe 1129 dcbe 892e 4cbf
000000d0: 538f 90be 738e fb3e f150 c13c 019c d6bf
000000e0: b867 e9be 201e 17c0 a8b4 b43f 444a 7a3f
000000f0: e71e afbf 4105 49be 12e6 863e 9fdc 35be
00000100: d877 e2bf 3d3f 013f b155 10bf 53bd 5c3e
00000110: 29e0 d73e 1cc6 3d3f 103c d4bf 4784 d73e
00000120: 4c5e 543e 8335 3a3e 4ddb 05bd 0523 dbbf
00000130: 6af4 5ebe ddd0 083f a9dd 1c3f 1186 933f
00000140: 061e 81bf 75a6 8bbf 22a7 fdbf f75a cc3f
00000150: fb3c 66be 27fe 25bf 4bfb 9e3e b433 b93d
00000160: a90a 923f 6864 a0be 1058 a8bf 6823 67bd
00000170: d36a adbf 6916 11bf d274 0cbf dd16 043f
00000180: 4c19 10bd 4112 053d 6199 af3f d515 b6be
00000190: a512 6d3e 9e0d b5bf e826 63bf 48d5 ca3f
000001a0: b4a2 1cbd c6b6 7cbe 5c1b b6bf f33e 1abf
000001b0: 2373 0ebe 0bdc 52bf 5d16 8c3f 3d02 b6be
000001c0: bd76 fc3f d4ba eabd dd61 ac3f 6b95 88bf
000001d0: b99a 25bf fc2a bebf 484f d13f db5e 07c0
000001e0: 34a2 773f 73a3 97bd 85d6 633f 4c5f 85bf
000001f0: e4ee 37bf eb5c 1c3f 8bcb d8ba ff49 873f
00000200: a81e 90bf 2b8c 71bf b5ee 24bf b1aa 5ebe
00000210: 0298 05bf 949c 843f 447b ef3d 2bf7 b73f
00000220: 613e 403f 7343 283f 3348 3fbe 25a9 d73f
00000230: fc3b b33f e250 24bf cd1f 7e3f 0f2b 37bf
00000240: 6ac3 6e3f 8c49 0cc0 2b71 e8bf fb0b 0bbe
00000250: 0c12 b13f 9e52 16bd 5d21 0e40 388a e73e
00000260: c5dd bcbe 0124 9ebe 850c d63f dd19 b93f
00000270: b36b e73e 4ab2 733f 4b3e 04bf 6a9c f13d
00000280: c648 01be de19 b3bf c11f 1cbf 799e d0be
00000290: d052 b8bf 7052 10bf 49aa cd3e c6a1 6abf
000002a0: 14c5 90bf 15c4 eabe aca0 58bf e473 97bf
000002b0: ce34 41bf da83 6a3f 8830 863f f997 72bd
000002c0: 53ed 84bf 1fb9 2fbf 3f25 873f de96 c1bf
000002d0: 2a6d 413f aadf e33e 09b1 b93e 7a57 a13d
000002e0: 568f 8ebf 302d fcbe a632 ca3f d8a1 a3bb
000002f0: d0c9 c2bf cd44 e43d d12c 97be 5753 b0bf
00000300: 3102 9e3f 4d16 73be e3c4 6bbf 951f 03bd
00000310: c452 c9bf a2ad ccbf 2604 f7be 0fdc f83e
00000320: 9066 343e 3257 a13e ecae 4a3f 25de 3abf
00000330: 048e a3bf d5ec 65be 23ce aa3f 7771 323e
00000340: 8d28 88bf 83af 9e3e 868b 7b3d 10f5 433f
00000350: a88e 10bf 0c45 6ebf 4dec 0740 af57 0d3f
00000360: 636f 00bf 4f1a ac3f fb01 cebe 6bbb 6cbc
00000370: 709d a1bf 1e60 d23e 671d bfbf d45d 8a3e
00000380: bea2 2d3d 077b 823f 2ad7 cdbe bcea 5e3f
00000390: 9861 75be f8ef 413e 7f0a b23f fdb5 ffbe
000003a0: 2ad8 3abe 0d65 0b3f 94db 15be b7be dbbe
000003b0: 045e f4bf 9559 9ebf 093a 0ebf b9e6 923f
000003c0: 37ec a4be 8fa3 99be c511 93bf 418a 2abf
000003d0: d949 3bbf e7c1 8c3f 6b05 893f 7248 31bf
000003e0: dc2c cbbe bf5a 3d3e a517 b23f dbd4 673e
000003f0: dce1 82bf 1aa1 58bf 0020 86bf 40e3 49bf

lstm.bias_hh_l1 f4 [256]
-0.10126112 1.4837292 -1.1581346 -0.2870046 1.0369015 -1.2417535 0.58299106 0.69412106
2.020899 0.8929247 -0.89019984 0.28965616 0.63785166 -0.12315212 0.8721487 0.60064316
-0.98717207 -0.3927227 0.07339731 -0.8026385 -0.41955 -0.059301 -0.58640903 1.6458801
-1.9637125 -1.0429738 0.08422186 1.281039 -2.2050138 -1.140913 -1.213968 0.60437876
0.3952238 1.4399766 0.051361773 -0.72653174 -0.45042387 1.7161218 -1.0677476 -0.2384341
1.4322382 -0.15414149 -0.8753287 -0.39052293 1.7820956 -0.4446337 -0.9582112 1.2827768
-1.3146411 0.83902836 1.1050581 0.9905367 -0.06488075 -1.6189146 -0.029262729 1.1674474
0.58259755 1.7451371 -0.19327317 0.07287622 -1.4690194 -0.063882105 -0.29171407 -0.81047213
1.1005152 1.1270156 0.49828485 -0.4554001 -0.53490937 0.3332162 -1.8628579 -0.7227437
0.18383883 -1.7690752 0.26174423 -1.1511738 0.83070046 -0.046071682 0.4959155 0.9446786
-0.9506082 0.010303478 1.9249976 -0.86149603 -2.5875268 -0.3731088 0.7408102 -1.2105236
-0.96047884 -0.035649545 0.56992203 -0.13669552 0.2530399 -0.1417165 0.27920967 0.6700005
0.60965484 0.89272845 -0.5750939 0.86385417 0.12445701 2.1004882 0.22044091 0.30877614
-0.25226325 -1.3662572 -1.3329664 1.610203 0.12119427 0.30340186 0.5129004 1.2393913
-1.1133474 -0.45949367 -0.7483177 2.2078125 0.1282855 0.25935802 1.266082 0.27745742
-0.6307527 0.8974252 -0.083851546 -0.22266363 -0.6134748 -0.7663358 -0.51554626 -1.7048205
-0.50238144 0.94411224 0.24118356 -0.8011276 0.23232134 -0.2053144 1.0099772 1.0680364
0.77236056 0.3960753 0.34198126 1.2908945 -1.0912436 2.0710773 1.9064039 -0.4754998
1.0044824 -1.6176298 -1.8737234 -0.29772344 1.3276074 -0.058139328 0.6836939 -1.5150902
1.0570637 -0.87678957 -0.39450586 0.090059124 -1.21197 0.61586255 -0.48595133 -2.1671758
0.4809237 -0.48466513 -1.598684 -0.95816207 0.76867646 2.2374203 -0.7538951 -1.4831486
0.5263345 -0.47230047 0.6761287 1.5242034 -1.3316047 -1.8398838 0.2702905 -0.095122784
-0.9830134 0.21205603 0.84474826 0.8426265 0.37406823 -0.39782372 -1.3374628 0.09618428
0.41464582 0.95567745 -0.5024699 -0.4282275 -0.36685562 0.18195462 -0.17241915 0.70948243
-1.6620882 0.14129436 -0.21609403 -1.3161738 0.80609673 1.6069931 -0.968046 0.12168126
0.20931847 -1.913349 -1.5110747 -1.2577999 -3.1618254 0.3014005 -0.31753764 0.17108257
-0.56690645 0.1530553 1.745748 1.2905195 1.4943645 1.2922388 0.14160176 -0.15291263
0.30777445 -0.046841003 0.64238 -1.5870903 1.5640403 -0.44132695 0.5787314 -0.12327233
-0.06102222 -1.0616105 -0.74975574 -0.04284433 -1.0372589 -0.9306965 -0.57966787 -2.349317
-0.19943465 0.14575386 -2.0260794 -0.25592053 0.59736776 -0.020222425 -0.7103702 0.2734863
-2.277954 -0.97770417 -0.9657392 -0.7576837 0.30429864 -2.0360339 -0.5140853 -0.8695387
-0.14017883 -0.27576265 0.4447143 0.3557784 -0.8657166 -1.5129833 0.15203534 0.16560175
00000000: fd61 cfbd d7ea bd3f c13d 94bf 44f2 92be
00000010: 30b9 843f c7f1 9ebf e73e 153f ebb1 313f
00000020: 6956 0140 b796 643f 23e4 63bf d04d 943e
00000030: 3f4a 233f 2e37 fcbd 2345 5f3f c0c3 193f
00000040: 4fb7 7cbf f312 c9be 5451 963d b779 4dbf
00000050: 42cf d6be 9be5 72bd e71e 16bf 33ac d23f
00000060: ee5a fbbf 2a80 85bf 837c ac3d 16f9 a33f
00000070: f21e 0dc0 7009 92bf 4e63 9bbf 91b8 1a3f
00000080: c65a ca3e 2751 b83f b960 523d fcfd 39bf
00000090: f59d e6be e1a9 db3f f4ab 88bf 1228 74be
000000a0: 9553 b73f 44d7 1dbe 8b15 60bf 9ff2 c7be
000000b0: b51b e43f 07a7 e3be 544d 75bf 0832 a43f
000000c0: 2946 a8bf 90ca 563f 8b72 8d3f d093 7d3f
000000d0: 33e0 84bd 9838 cfbf 64b8 efbc eb6e 953f
000000e0: 1d25 153f a760 df3f 67e9 45be 2140 953d
000000f0: d408 bcbf 9fd4 82bd 8c5b 95be 1a7b 4fbf
00000100: afdd 8c3f 0c42 903f 311f ff3e 342a e9be
00000110: d2ef 08bf 509b aa3e 2172 eebf bb05 39bf
00000120: 3f40 3c3e 0e71 e2bf 5703 863e aa59 93bf
00000130: c9a8 543f a9b5 3cbd a3e8 fd3e 75d6 713f
00000140: 0f5b 73bf ebcf 283c 5266 f63f 018b 5cbf
00000150: 0a9a 25c0 1e08 bfbe bda5 3d3f 70f2 9abf
00000160: f1e1 75bf 4205 12bd 69e6 113f e9f9 0bbe
00000170: 728e 813e 211e 11be 92f4 8e3e 2785 2b3f
00000180: 5712 1c3f da89 643f 5b39 13bf 8c25 5d3f
00000190: 51e3 fe3d 666e 0640 43bb 613e e817 9e3e
000001a0: a628 81be 84e1 aebf a59e aabf 221b ce3f
000001b0: b434 f83d 7d57 9b3e 714d 033f 60a4 9e3f
000001c0: 2b82 8ebf c142 ebbe c091 3fbf cd4c 0d40
000001d0: 465d 033e 93ca 843e fa0e a23f e60e 8e3e
000001e0: 0279 21bf a8bd 653f 5cba abbd ef01 64be
000001f0: af0c 1dbf 952e 44bf d7fa 03bf 8f37 dabf
00000200: 129c 00bf 57b1 713f d3f8 763e b316 4dbf
00000210: a5e5 6d3e f03d 52be ef46 813f 6bb5 883f
00000220: 6cb9 453f 62ca ca3e 2b18 af3e 083c a53f
00000230: dfad 8bbf 888c 0440 0b05 f43f b674 f3be
00000240: e192 803f 7e0e cfbf 2bd6 efbf 356f 98be
00000250: 0aef a93f 8123 6ebd 9006 2f3f 7aee c1bf
00000260: dd4d 873f 4875 60bf acfc c9be eb70 b83d
00000270: d521 9bbf 2ba9 1d3f 9dce f8be 02b3 0ac0
00000280: a23b f63e 0726 f8be ada1 ccbf 1c4a 75bf
00000290: fbc7 443f e531 0f40 45ff 40bf d0d7 bdbf
000002a0: dcbd 063f 5ed1 f1be c516 2d3f 1919 c33f
000002b0: 0672 aabf 5081 ebbf 8463 8a3e bccf c2bd
000002c0: c4a6 7bbf 3725 593e 6c41 583f 5fb6 573f
000002d0: df85 bf3e 8daf cbbe fb31 abbf 44fc c43d
000002e0: 754c d43e 47a7 743f dea1 00bf a340 dbbe
000002f0: 80d4 bbbe 5052 3a3e a58e 30be a4a0 353f
00000300: 4ebf d4bf 78af 103e c147 5dbe 6278 a8bf
00000310: 5b5c 4e3f f3b1 cd3f ddd1 77bf 0634 f93d
00000320: 9557 563e 9fe8 f4bf e56a c1bf 96ff a0bf
00000330: 595b 4ac0 2b51 9a3e 4b94 a2be 4530 2f3e
00000340: c820 11bf 87ba 1c3e ac74 df3f be2f a53f
00000350: 5647 bf3f 1568 a53f 0d00 113e 2195 1cbe
00000360: 9d94 9d3e 5adc 3fbd 0473 243f c625 cbbf
00000370: 7932 c83f 9bf5 e1be be27 143f 3476 fcbd
00000380: 6ff2 79bd dae2 87bf feef 3fbf 897d 2fbd
00000390: e6c4 84bf 2042 6ebf 1d65 14bf 365b 16c0
000003a0: 9938 4cbe 8040 153e 49ab 01c0 0408 83be
000003b0: 18ed 183f 80a9 a5bc d2da 35bf 6506 8c3e
000003c0: 00ca 11c0 d24a 7abf af3a 77bf 8ff7 41bf
000003d0: 08cd 9b3e 614e 02c0 189b 03bf 179a 5ebf
000003e0: 0a8b 0fbe c330 8dbe 98b1 e33e 9628 b63e
000003f0: 9a9f 5dbf 70a9 c1bf 27af 1b3e 8193 293e
