04_Models/20250809_011907_HBEA_LSTM_Classification/best_model.pth (torch, 855458 bytes, 47 tensors)

lstm.weight_ih_l0 f4 [256, 51]
000000 10 04 15 be d2 df 4d bb 68 9a 9f bc 60 cb 3b bd
       -0.14552331 -0.0031413925 -0.019482806 -0.04584825
000010 f6 f3 16 3d 48 40 f9 ba 35 f3 af bc 4c 43 bc 3b
       0.036853753 -0.001901635 -0.021478275 0.005745327
000020 ca af 8c bd bd fc fa 3a 0a 3b ca 3d 4b 56 17 3d
       -0.068694666 0.0019148808 0.09874542 0.03694753
000030 a4 60 10 3d d1 0d 84 bd d9 99 12 bc 30 84 b6 3d
       0.035248414 -0.06447948 -0.008947813 0.089119315
000040 19 55 b2 bd c3 e1 18 3c dc 65 f3 bd ad 3d 43 3d
       -0.08707637 0.00933117 -0.118846625 0.04766624
000050 87 8a 6d bd b9 36 6c bc b2 bf d8 bc 83 e3 aa 3d
       -0.057993438 -0.014417344 -0.026458595 0.08344176
000060 f1 b5 38 bd 6b ac 60 bc 6b 68 cd bd 90 7d 0f bd
       -0.045095388 -0.013712983 -0.10029682 -0.035031855
000070 33 4d 8a bd 97 1a 29 3d d1 2f d7 bc a7 4d e5 3c
       -0.06753006 0.041285124 -0.026267918 0.02799113
000080 eb 09 2f bd 5a 16 81 3d 79 09 19 3b f6 d8 c5 bd
       -0.042734068 0.06303091 0.0023351593 -0.09660523
000090 02 60 88 3c 53 dc 51 bc 78 09 29 bd 94 0d 02 3d
       0.016647343 -0.012808877 -0.041268796 0.03175123
0000a0 cf 21 41 bd 67 b3 c4 bc 63 43 83 3c 77 d4 9f bc
       -0.047151383 -0.024011327 0.016023343 -0.01951049
0000b0 a0 71 5e 3d 08 7a 2e 3c 63 30 88 bd 97 66 61 bd
       0.05430758 0.010649212 -0.06649854 -0.055029478
0000c0 06 09 3f 3d a4 58 9b bd e7 f9 6a 3c 69 00 43 bd
       0.046639465 -0.07585266 0.014341808 -0.047607813
0000d0 3d 1d 53 bc bc ca 78 3c ef e6 03 3d f2 0b e2 bc
       -0.012885389 0.015185054 0.032202657 -0.027593587
0000e0 f8 cc 14 be da bf 25 bd fb c4 9f bd 1c 39 17 bc
       -0.14531314 -0.040466167 -0.07801243 -0.0092299245
0000f0 ef 7b 22 bc d3 0f 06 3e 1c de 97 3d 65 42 7f 3d
       -0.009917243 0.13091974 0.07415411 0.062319178
000100 c9 68 89 bd 5e 9d 62 bd df b2 fe bb 46 ff 34 bd
       -0.06709439 -0.05532586 -0.007772788 -0.04418876
000110 2a e3 32 bc 55 7e ba 3c 88 6c 6c 3c 5b 62 83 bc
       -0.010918418 0.022765318 0.014430173 -0.01603811
000120 de 9c 0e bd 22 e6 19 3d 5a d5 bd bd 9e 4f df 3d
       -0.03481757 0.037572987 -0.09269209 0.10903858
000130 1e 4b 65 bd 5d 7a 42 bd 98 f0 d4 bd dc b4 64 3d
       -0.05597984 -0.047479976 -0.10397452 0.055836543
000140 6f ca aa 3d 75 67 57 3d 73 54 f9 bc 42 55 58 3b
       0.083393924 0.0525889 -0.030435776 0.0033009802
000150 a1 65 7d bb 91 c9 be bd ad 8a 66 3d ed 69 21 bd
       -0.0038665312 -0.093157895 0.056284595 -0.03940766
000160 01 c9 8d bd a5 d0 55 bd d8 d2 87 3d 21 5b dd 3d
       -0.06923104 -0.052200932 0.06632012 0.10808397
000170 56 52 06 3c 31 f5 82 3d 6e fd ce ba 4f c0 d9 3d
       0.008198341 0.06394423 -0.0015792081 0.10632383
000180 a3 7c 43 3d 6a 7c 80 bd 54 66 27 bc 95 3f 02 be
       0.047726285 -0.0627373 -0.010217268 -0.12719567
000190 47 20 34 bd 1d 58 9b 3d 94 ee eb bc 49 e3 5a bd
       -0.043976095 0.07585166 -0.028800286 -0.053439412
0001a0 8c d8 e6 bc 56 4e 30 bd c4 66 5a be f2 5c 56 bd
       -0.02817943 -0.043043457 -0.21328264 -0.052334733
0001b0 d1 66 ea bd c1 da 09 bc 70 83 5b bb 7e 16 10 bd
       -0.11445392 -0.008413971 -0.003349509 -0.0351777
0001c0 ee 6c 5c 3d d3 ec b9 bd fe f7 a5 3c 54 03 43 3a
       0.05381482 -0.09078374 0.020259853 0.00074391556
0001d0 ea c4 46 3d de a2 f2 bd e9 cd 96 3d 08 ad cc 3b
       0.048527636 -0.11847471 0.07363493 0.006246213
0001e0 bb 6c d8 bc 68 fb cb bb 2c 03 a5 3b 73 2b 9d bd
       -0.026419034 -0.0062250383 0.0050357785 -0.07674303
0001f0 d8 f1 4d bd a2 90 65 bc b9 aa de bc ac 6e 37 3d
       -0.05027947 -0.014011534 -0.027181016 0.04478328
000200 21 17 16 3e 37 50 19 3c 17 d6 57 bd 97 b3 8e 3c
       0.1465726 0.009357504 -0.052694406 0.01741962
000210 82 0a 39 3d 2b e4 0a bd ba 63 91 3c 7d c6 8e bc
       0.045176037 -0.033909004 0.017747749 -0.017428631
000220 12 35 3d 3d 4f 27 95 3d 3a d7 f9 bb c1 b1 6b bd
       0.04619319 0.07282888 -0.007624534 -0.057542566
000230 92 89 46 bd a1 31 f7 bc ab 6e 4f 3d 46 88 42 bd
       -0.04847104 -0.030175032 0.05064265 -0.04749324
000240 c0 9a 22 bd 37 5e a5 bd aa 7a 05 3d d5 72 1f 3d
       -0.039698362 -0.08074611 0.032587685 0.03892787
000250 c7 da e8 3d f6 ce 22 3d c3 7f 3c bd ef a7 7d 3c
       0.113698535 0.039748155 -0.04602028 0.015481933
000260 a2 e9 f2 bc bf ba 2c 3c 15 8d 6c bd a3 99 10 3d
       -0.02965242 0.010542571 -0.057751734 0.03530277
000270 fb eb 27 bd 59 1e 9f bd 99 77 6c bd 80 d8 3c bd
       -0.040996533 -0.0776946 -0.057731245 -0.046104908
000280 aa 29 ae bd d2 cb 97 bd e5 67 25 3c 59 fc 03 3b
       -0.085040405 -0.074119225 0.010095571 0.0020139425
000290 48 aa 2c bd 1b 29 f6 3d ce cb 30 3d eb b1 9f 3c
       -0.04215458 0.12019559 0.043163113 0.019494018
0002a0 b3 74 bc 3c b2 66 24 3c b7 e6 29 3c ba 30 c8 bc
       0.023004865 0.01003425 0.010369948 -0.024437297
0002b0 20 5c f6 3c 58 ae 52 3d 09 2a d3 3c a6 1a a8 bc
       0.030073225 0.0514358 0.02577688 -0.02052052
0002c0 4f 68 8e bd f2 af 62 bd dd 3e 9c bd e8 33 fa bd
       -0.06953489 -0.055343576 -0.07629178 -0.122169316
0002d0 49 f6 92 3c f3 05 79 bd a5 14 21 3d 13 36 b1 bc
       0.017939704 -0.06079669 0.03932633 -0.02163223
0002e0 a3 78 2d bd af 0d 52 3d d5 93 0d 3c 32 2d c9 bd
       -0.042351376 0.05128258 0.008641203 -0.098230734
0002f0 b7 2f 70 3d ad a6 6d 3e 5e d0 bf 3d 14 1c e8 3d
       0.058639254 0.23208113 0.09365915 0.113334805
000300 c1 72 13 3e 40 22 d3 bd 87 f0 b4 3d 4f 80 ee bc
       0.14399244 -0.10309267 0.088349395 -0.029113917
000310 4a 49 9a bb 67 fb c0 bd d2 7e 0d bc aa b4 bd ba
       -0.004708444 -0.09422951 -0.008636193 -0.0014473398
000320 14 ab 86 bd 11 ed 0d 3d ce c5 bd 3d ab 71 a5 bd
       -0.06575599 0.034649912 0.09266244 -0.08078321
000330 01 82 b1 bd f0 a6 ed 3b 07 ed 74 bd 13 b4 37 be
       -0.086673744 0.0072525665 -0.05979636 -0.17939787
000340 39 02 5b bd 78 56 aa 3c a1 06 e0 3c dc 9b 15 3d
       -0.053468917 0.020793185 0.02734691 0.036525592
000350 26 eb e3 3c 8b 9b e2 3d 8a a1 09 3d 1f c7 89 3d
       0.027822088 0.11064824 0.03360132 0.067274325
000360 ab a7 b8 3c 15 8e 26 3e 77 a3 cf bc 80 0f 88 3d
       0.022540888 0.16265137 -0.0253465 0.066435814
000370 ed 60 40 bc 3a 0e 5c 3d 1f 07 7a 3c 66 23 e9 3c
       -0.011741859 0.053724505 0.015260487 0.028459262
000380 e8 66 a1 3c 2b 8a 11 bd a6 1a 1b bc 20 13 05 bd
       0.01970239 -0.035532158 -0.009466803 -0.032488942
000390 a2 87 e2 bc b6 49 97 3a 4a 56 da bd 5a af 07 3d
       -0.027652565 0.0011542353 -0.106609896 0.033126213
0003a0 41 d4 a5 3d 71 3d fd 3c 5f 36 5d 3d 99 40 cc 3c
       0.08097125 0.030913087 0.05400693 0.024933146
0003b0 7b 47 93 bd 05 5d 34 bc fd 4d 2d bd 26 d7 86 3d
       -0.07191368 -0.011008506 -0.042310704 0.06584005
0003c0 9b 88 41 3c 40 e0 89 bd d4 08 20 bd 02 1f 40 bd
       0.011812354 -0.067322254 -0.03907092 -0.04690457
0003d0 6f 1e e5 3d 8b 2b fa bc 25 d3 46 3d f6 cb 08 3d
       0.11187445 -0.030538341 0.048541207 0.033397637
0003e0 6a 42 85 3c 3e 7f d5 3d b1 71 cd bd dc df 58 bd
       0.01626702 0.1042466 -0.100314505 -0.052947864
0003f0 56 95 4c bd ae 34 61 3d 29 dd b2 bc 4b 78 ad bd
       -0.049947105 0.05498188 -0.021833973 -0.0847021

lstm.weight_hh_l0 f4 [256, 64]
000000 8a e7 6a bd 68 32 a5 3d c2 bb 84 bd 9f be 22 3d
       -0.05734972 0.08066255 -0.064811245 0.03973257
000010 5a 68 ca bc 19 26 8d ba 8c 7d d1 bc fe 49 a6 bd
       -0.024707962 -0.00107688 -0.02557256 -0.08119582
000020 46 95 bd 3d 9a 4c 67 3c 1e 6d 27 3d 73 e5 08 3d
       0.09256987 0.014117384 0.040875547 0.033421945
000030 6b fb 81 3d 9e f3 fa 3d f8 1f 0e be bf 29 ac 3d
       0.06346782 0.122534975 -0.13879383 0.084064
000040 ed c3 83 bb ac 72 b3 bd 2d 4e a6 bc e8 d8 a6 bd
       -0.004021159 -0.08762106 -0.020300949 -0.0814684
000050 06 6b 03 bd 8d 75 e5 3c b5 d4 63 bd 90 8b 4c 3c
       -0.032084487 0.028010154 -0.055622775 0.012484446
000060 4b 13 81 3d 0c b0 9d bd 7d 3a 1a 3e fd b0 30 bd
       0.06302508 -0.07699594 0.15061374 -0.04313754
000070 1d 28 88 3d a3 7b 8b 3d 7b ed a3 3c e5 46 c6 bb
       0.06648276 0.06810691 0.0200107 -0.0060509318
000080 cf 47 1a 3d 19 b8 91 bd f5 8b 99 bc 4f ba a8 bc
       0.03766614 -0.07115192 -0.018743495 -0.020596651
000090 17 b0 e5 3c 36 22 d6 3b 04 dd b9 bd 08 7c 30 3d
       0.028038068 0.00653484 -0.090753585 0.043087035
0000a0 05 de 3a bc 33 c0 89 3d 7f 1a 18 bd e2 2e d6 bc
       -0.011405473 0.06726112 -0.037134644 -0.026145402
0000b0 c1 fa 52 3c 94 43 2c bd c9 1e 53 bc bb b6 44 3e
       0.012877167 -0.042056635 -0.012885758 0.19210331
0000c0 1e eb 7e bd f9 c5 24 bd a7 9a 8f 3d ab f6 7e bd
       -0.062235944 -0.040227864 0.070119195 -0.06224696
0000d0 83 ad 95 3d 24 42 c8 bd f5 5d fd 3d 2e 56 1a bd
       0.07308485 -0.0977824 0.123714365 -0.037679844
0000e0 cf 7a 5a 3c ea d0 9a bd 15 2c f8 bd 76 17 53 bd
       0.013334944 -0.075593784 -0.12117783 -0.051536046
0000f0 74 04 b3 3d 84 9d e6 bc 56 12 a1 3c 7e da 06 3d
       0.08741084 -0.028151281 0.019662064 0.032923214
000100 75 52 b0 3d fa a6 18 bd 54 3a c4 3d f8 b7 90 3d
       0.086094774 -0.037268616 0.09581438 0.07066339
000110 1a f3 d2 ba 4c 69 05 3e 6f 78 fd bd f5 d2 41 bd
       -0.0016094178 0.13028449 -0.123764865 -0.047320325
000120 ff 67 37 3d 39 5f 95 bd be 7d d0 bc 4c 14 11 3d
       0.044776913 -0.07293553 -0.025450584 0.035419747
000130 c8 62 73 bd 85 06 80 bc ee 2a e1 3c 52 23 35 3b
       -0.059420377 -0.015628109 0.02748629 0.002763946
000140 0b 16 e6 bc 78 32 b7 bc a3 2c b4 bc 10 84 fe 3d
       -0.028086683 -0.022362933 -0.02199394 0.12427533
000150 45 36 06 bd 3a 20 c1 bd dc d3 52 bd 71 a9 59 3b
       -0.0327666 -0.09429975 -0.051471576 0.0033212567
000160 ef 20 46 3d c1 39 54 bd ec f9 73 3d 46 bd ad bd
       0.04837125 -0.05181289 0.059564516 -0.08483367
000170 36 4b 84 bd 04 2a a8 3c 20 3a af bd 7e 59 f2 bd
       -0.06459658 0.020527847 -0.08556008 -0.118334755
000180 68 93 b2 b9 20 32 1d 3d cf 6b 10 3c 1e 52 2c 3d
       -0.00034060632 0.03837788 0.008814766 0.0420705
000190 45 c4 4d bb 11 57 8c 3d 01 cc c7 bc b6 27 3f 3d
       -0.0031397503 0.06852544 -0.024389269 0.04666873
0001a0 b3 8b 9a bd c6 14 59 3e 88 bf 1d 3e b4 19 9a bd
       -0.07546177 0.2119933 0.15405095 -0.07524434
0001b0 58 03 e6 bc 83 19 ae 3c c4 8e 85 3d 19 56 36 3b
       -0.028077766 0.0212524 0.06521371 0.0027822314
0001c0 6d cf 92 3d fe 15 42 3d 07 c7 90 bd bb f3 bf 3c
       0.071684696 0.047384255 -0.070692115 0.02343165
0001d0 c6 a8 a7 bd d7 bb 18 3e c5 a0 78 3c 12 dd f3 3b
       -0.08186488 0.14915405 0.015175049 0.007442125
0001e0 85 3a 34 bd 7d cb 18 bd 5a 58 9b bd 9d 96 f0 3c
       -0.04400112 -0.037303437 -0.07585211 0.029368693
0001f0 62 4b 39 bd 4c 3d 04 bd 3c 6a ba 3c ad 53 b6 3d
       -0.045237906 -0.03228502 0.022755735 0.08902679
000200 cc 9e 41 3d 31 be d8 3c d4 bc a6 3d 95 1d b4 bc
       0.04727058 0.026457878 0.08141485 -0.021986762
000210 78 bd 20 be 02 86 7f 3d ef 55 35 3b a3 96 3e 3d
       -0.15697277 0.06238366 0.0027669629 0.046530377
000220 56 54 28 3d fd 23 8b 3a eb 15 28 bd 5d e8 4b bd
       0.041096054 0.0010615584 -0.041036528 -0.049782146
000230 0e 7f c4 3b 6b 03 25 3c e0 c7 4b be 6b 79 93 bd
       0.0059965914 0.010071616 -0.19900465 -0.07200893
000240 87 68 a9 3d 78 3d 9d 3d b0 19 e3 bc 90 86 92 3c
       0.0827189 0.0767774 -0.02772221 0.01788643
000250 e0 96 ce bd 64 87 09 be dd 21 39 3d 6d dc 8f 3d
       -0.10087371 -0.13430554 0.04519831 0.07024465
000260 4d 9c 93 3c 62 fd 0e bd bb 4c 88 bd d5 75 1e 3d
       0.018018866 -0.034909613 -0.0665526 0.038686592
000270 b1 b9 9e bd e4 14 8f bd 1f 3a 18 3e c0 6e 72 bc
       -0.077502616 -0.069864064 0.14865921 -0.014796913
000280 b2 46 a1 3d a3 04 d1 3c 55 ad 80 3d 80 cd 08 bd
       0.07874812 0.025514906 0.062830605 -0.033399105
000290 45 e3 44 bd ac 7f e5 bc f5 1d cb 3c 1e a2 67 3c
       -0.048068304 -0.02801498 0.024794558 0.014137773
0002a0 86 d5 27 3d 7a 0a 37 bd ec 3e b3 3d 63 20 52 3d
       0.040975116 -0.044687726 0.08752236 0.051300418
0002b0 c0 df 95 bd 00 05 1f bd 0e fd 09 bc c4 5e 74 bd
       -0.073180676 -0.038823128 -0.008422149 -0.059660688
0002c0 15 18 8b 3d 9a c6 5c bc 24 c9 7e 3b c9 25 08 3e
       0.06791703 -0.013475085 0.0038877213 0.13295664
0002d0 f9 f5 e8 3b 68 17 85 3d e3 ae 48 bd 8d 30 79 bd
       0.0071094004 0.06498605 -0.04899491 -0.060837317
0002e0 77 39 53 3d 08 cb 0a bd 3b 10 53 3d cd 49 d3 3c
       0.051568475 -0.033885032 0.05152915 0.025792027
0002f0 2c 2b 92 3b 10 21 ba bc f5 31 8f bd a6 61 e3 3c
       0.004460713 -0.022720844 -0.069919504 0.027756523
000300 8f d7 01 3d de d2 17 3d 41 01 9b 3d fd 99 5a bd
       0.031699713 0.037066333 0.075685985 -0.05336951
000310 d1 6c 3e 3b 6e 8a 80 bd 35 8b 9c bc 1d 9a 38 3b
       0.002905656 -0.06276403 -0.019109348 0.002816803
000320 9a 45 8c bd 4e 2d 54 bd 1b 39 b6 bd b4 d2 4e 3c
       -0.06849213 -0.05180102 -0.08897611 0.012623478
000330 cd f5 e3 3d ac d4 19 bd 4c 97 d5 bd 52 d6 a6 3d
       0.11130867 -0.037556335 -0.10429248 0.08146347
000340 77 c4 2f bc 11 61 e0 bd 96 17 67 3c 38 f2 f5 3d
       -0.010727993 -0.10956014 0.014104744 0.1200909
000350 bb f2 11 3e 10 cd 85 bd b0 56 a1 bd a5 e8 a9 bd
       0.1425275 -0.06533253 -0.078778625 -0.082963265
000360 3c aa 49 3d b3 f1 77 bd 85 20 2e bd 15 a1 1b be
       0.049234614 -0.060533237 -0.04251148 -0.15198167
000370 ef 3c ee bc d8 0d 03 3d 4f ec d4 3c ce 73 a1 bc
       -0.02908179 0.031995624 0.025991587 -0.01970854
000380 fd a9 0e bd 8d 2d 59 3d e9 f7 b4 bd ef b1 30 3c
       -0.034830082 0.053021956 -0.088363476 0.01078461
000390 73 27 1c bd cb b8 cc 3d 23 3a bd bd c4 15 bd 3c
       -0.03812356 0.09996184 -0.09239604 0.023081668
0003a0 3a bc 02 3d 69 b3 39 3b 34 f6 6c ba ea d3 10 bd
       0.031917788 0.0028335697 -0.00090393727 -0.035358347
0003b0 cd 34 c1 3d ad fb d0 3c 59 e7 39 bd a3 cf df bc
       0.09433899 0.025510633 -0.045386646 -0.027320689
0003c0 23 70 b0 bc ff f9 bd bd d1 04 e9 3c b6 cf df 3c
       -0.021537846 -0.092761986 0.02844468 0.027320724
0003d0 91 fb cf bc e9 d2 50 bd e2 64 81 bc f6 ff 7f bd
       -0.02538851 -0.05098239 -0.015795175 -0.062499963
0003e0 8b 1d 00 bc 68 df b9 3d ed 7f 3c 3d 9f 2c 15 3d
       -0.007819544 0.090758145 0.046020437 0.036419507
0003f0 66 2a 9b 3a 6b 20 ab 3c b0 d6 ae 3c d9 6d af 3b
       0.0011838197 0.020889482 0.021342605 0.005353671

lstm.bias_ih_l0 f4 [256]
000000 a2 89 03 3f c0 c2 d1 bf 1c 28 2f 3f 8a a7 8a bf
       0.51381886 -1.6387558 0.6842058 -1.0832379
000010 06 ce b1 3f ea 6e 06 3f 6c 81 ce bf 0c b7 fd bf
       1.3890998 0.5251299 -1.6133246 -1.9821486
000020 c0 a2 0c 3e 81 56 f5 bd 39 1f aa 3f 8d f2 1a 40
       0.13733959 -0.1197939 1.3290778 2.4210541
000030 35 cf 5b be 0d 12 38 bf 4e 9e c5 bc ee 7d 1f bf
       -0.21465762 -0.71902543 -0.024123337 -0.6230153
000040 64 3c f5 3e 70 f6 aa 3f 21 fd d2 3f c4 73 6a be
       0.47897637 1.3356457 1.6483499 -0.22895724
000050 6e de 9d bf 2d cc aa 3d 66 b2 cc bf 59 bf 62 be
       -1.2333505 0.08339725 -1.5991943 -0.22143306
000060 eb 8b 91 3f 29 12 d9 3f 41 7a 64 be 86 96 8c bf
       1.1370825 1.6958667 -0.22312261 -1.0983436
000070 9d ed 53 c0 e6 60 6a bf 60 62 25 40 6b 60 b4 bf
       -3.3113778 -0.91554105 2.5841293 -1.4091924
000080 48 67 66 3f 08 28 0b 3f 96 2d 82 bf c7 7a 26 3f
       0.90001345 0.5435796 -1.0170162 0.65031093
000090 61 46 62 bf b4 de 88 bf 07 58 37 be b1 06 37 3f
       -0.8838864 -1.0692964 -0.17904674 0.71494585
0000a0 4a c2 35 bf 7d 0b d9 3f cb 38 99 bf 54 3f cf 3e
       -0.70999587 1.6956631 -1.1970457 0.40478003
0000b0 ca b9 15 bd 1c 03 8d 3f ef 72 29 bf c3 88 58 3f
       -0.036554135 1.1016574 -0.66191 0.8458368
0000c0 97 c1 60 3f 7d 2b 10 3d c9 71 91 3f a6 27 28 bf
       0.87795395 0.035197724 1.136285 -0.656855
0000d0 c7 8a 80 bf 13 67 ae 3f 9e 27 5c bf 61 e4 89 be
       -1.0042351 1.3625206 -0.8599795 -0.26932052
0000e0 f8 9f e5 be 76 e3 f9 bd 75 67 d2 3e f7 78 91 3f
       -0.4484861 -0.12201588 0.41094556 1.136504
0000f0 d7 ba c7 3f 10 25 92 bf 70 1e 2c bf 9a 07 43 3f
       1.5603894 -1.141756 -0.67233944 0.76183474
000100 47 78 a6 3f a9 20 67 3f 56 21 88 be ac 1e af 3f
       1.3005456 0.9028421 -0.26587933 1.3681235
000110 11 67 36 3f 12 98 61 bf 40 b5 88 3d c5 d1 a3 3e
       0.71251017 -0.88122666 0.06675196 0.3199598
000120 08 74 df be c7 23 57 bf c1 b7 66 bf 09 e3 a7 3e
       -0.43643212 -0.84038967 -0.90124136 0.32790402
000130 ab e5 db bd a9 69 4c 3f 0a 7f 07 3d da b2 85 3e
       -0.10737165 0.79848725 0.03308014 0.26113015
000140 be ad ad bf ae 7a fa bf 18 28 95 3f 49 53 6d be
       -1.3568647 -1.9568689 1.1652861 -0.23176302
000150 fc 44 6b 3d 21 a3 f6 bf 94 25 5b 3e 6c 02 3b 3e
       0.057438836 -1.9268533 0.21401054 0.18262643
000160 d8 7f 8b bf bb 62 9c 3f 1f 81 dd be 4f f9 30 3f
       -1.089839 1.221763 -0.43262574 0.69130415
000170 f7 95 91 3e 9c 23 35 be c9 68 03 bf 91 33 c3 3f
       0.28434727 -0.17689365 -0.51331764 1.5250112
000180 cf ba cd be cf 46 96 3f 3c 51 b3 3f ea 7b 13 bf
       -0.40181586 1.1740359 1.4009166 -0.5761095
000190 66 ee 25 3f 74 92 04 40 a1 f6 0f bf 92 7f c1 be
       0.6481689 2.0714388 -0.562357 -0.3779264
0001a0 6f 99 02 be 3f 6f 97 bf fa df 9e 3f 44 ba 3a bf
       -0.12753843 -1.1830825 1.2412102 -0.7294047
0001b0 04 f1 7c 3f 9b a3 4b 3f ae 2d ed be e4 fe 2f bf
       0.9880526 0.7954652 -0.46323913 -0.6874831
0001c0 fc 8b 87 3f ca 9f 79 be 84 36 a4 bf 3a 48 45 3e
       1.0589595 -0.24377361 -1.2829137 0.19265833
0001d0 a7 65 41 3d 24 17 cf bf 8e 68 77 be 6d ae 50 be
       0.047216084 -1.6178937 -0.24160978 -0.20379038
0001e0 a1 a9 64 3f 3d 72 60 bf 5e 50 b1 be ca a1 96 bf
       0.89321333 -0.87674314 -0.34631628 -1.1768124
0001f0 9b df c5 be 6b f4 cb be e2 d8 d1 bf 5b 30 f6 3e
       -0.3864716 -0.39834914 -1.6394312 0.48083767
000200 da 80 f3 bf 8f cb ce bd 98 c9 93 3d 0c 78 ad 3d
       -1.9023697 -0.100974195 0.07216185 0.08470163
000210 41 50 50 bf 44 aa aa 3f d0 1d 06 bf b8 9f ad be
       -0.8137246 1.3333211 -0.5238924 -0.33910918
000220 9e a8 88 be 01 44 40 be df 89 92 3f e6 fd c8 bf
       -0.26691145 -0.18775941 1.1448325 -1.5702484
000230 58 7b c0 3f e1 ec 23 bf 5c fe 9e 3f 22 0a 9c 3d
       1.5037642 -0.64033324 1.2421374 0.0761912
000240 83 74 2b 3f fa c8 03 bf db 86 c0 3e 65 c5 05 3f
       0.6697466 -0.5147854 0.37602887 0.52254325
000250 1d 01 27 c0 2d a0 0a 3f 04 38 ea 3f c6 f7 06 bd
       -2.609443 0.5415066 1.8298345 -0.03295114
000260 5d 9a f5 be 72 60 8d bf 2e 61 ba bd 79 ee 43 3f
       -0.47969332 -1.1045058 -0.09100567 0.76535755
000270 1f a5 96 bf 77 06 27 bf 27 eb 9e bf 7e cc e3 be
       -1.1769141 -0.6524424 -1.2415513 -0.44491953
000280 b4 38 e5 bf 41 e0 d8 3e 82 8c 8a bd fc 47 e5 3e
       -1.790793 0.42358592 -0.06765081 0.44781482
000290 b2 96 8e 3f 8d 7c b5 bf 0e 00 a5 bf 16 52 f5 be
       1.1139739 -1.4178635 -1.2890642 -0.4791419
0002a0 fa 56 8d bf d6 82 eb 3e fc e0 5f bf b7 76 d9 bd
       -1.1042168 0.45998257 -0.87452674 -0.10618346
0002b0 db c7 99 be 3c 50 c8 3d db 03 cd 3e 57 4c 65 bf
       -0.3003529 0.097809285 0.40042004 -0.8956961
0002c0 d0 08 ca 3f 83 24 aa bf 23 02 a7 3e 1a fb e8 be
       1.5783939 -1.3292392 0.32618818 -0.45504075
0002d0 ea d3 e2 3f 8a 7f 3c 3e 1e fe a2 3f c0 91 e9 be
       1.7720921 0.18408027 1.27338 -0.4561901
0002e0 3d 69 7a 3f 37 45 07 c0 7a a1 05 3f be be 55 bf
       0.9781683 -2.1135995 0.5219952 -0.83494174
0002f0 f9 e4 24 3e 5b f1 6e bf 79 6c 79 bf 35 71 a7 bf
       0.16102971 -0.9333703 -0.9743114 -1.3081423
000300 5c cc 84 3f 7e ac 7e 3f dd 87 5f 3f 3d 47 12 3f
       1.0374866 0.9948195 0.87316686 0.5713995
000310 9c ce 0b 3f 08 e1 7b bf c0 b5 cc bf d0 de 7e bf
       0.54612136 -0.98390245 -1.5992966 -0.99558735
000320 af f9 83 3f 74 3f 7a bf 54 4e 10 3f 4c 77 73 3f
       1.0310572 -0.9775307 0.5636952 0.9510391
000330 d4 e2 fd be 30 07 7d 3e 0b 76 a9 bf ed 4b 8a be
       -0.4958712 0.24709773 -1.3239149 -0.27011052
000340 15 73 5a bf 28 13 7b 3f 3e 11 ca 3e 31 d3 41 bf
       -0.8533185 0.98076105 0.3946628 -0.7571288
000350 0a 5e 03 c0 7c 87 8a bc 29 82 31 bf 0f ea 8d 3e
       -2.0526147 -0.016910307 -0.69339234 0.27717635
000360 38 57 96 3f b0 61 d3 3f 5e 7f cd bf 21 74 c4 bf
       1.1745367 1.6514187 -1.6054494 -1.534794
000370 2b 72 ab be 54 b1 42 be 58 5f be bd eb 58 0b 3f
       -0.3348554 -0.19012958 -0.09295529 0.54432553
000380 2e d8 f5 3e 38 31 52 bf 1b 8a aa bc 8b f6 ec 3d
       0.48016495 -0.8210635 -0.020817807 0.11570462
000390 a5 72 50 bf dc 43 91 3d 6f 6d cc 3f d7 16 b2 be
       -0.81424934 0.07093021 1.5970896 -0.3478305
0003a0 b8 e9 cc bf 2d 2c 03 c0 56 5a d3 3f 14 de 76 bf
       -1.6008825 -2.0495713 1.6511943 -0.96432614
0003b0 2e 31 f3 be 29 54 d3 be 75 e0 cd be a8 95 a3 bd
       -0.4749846 -0.41275147 -0.4021031 -0.07987529
0003c0 a9 f6 9a 3f f0 fa 76 be bd b9 79 be 42 40 43 bf
       1.2106525 -0.24119163 -0.2438726 -0.76269925
0003d0 72 f0 9a bf cf 86 5a 3f 43 2e 36 bf 0a 36 02 40
       -1.2104628 0.8536195 -0.7116434 2.0345483
0003e0 f0 79 b1 be 8d a8 3b 3e ac 1f 81 3f 5d db e1 3f
       -0.34663343 0.18326016 1.008779 1.7645069
0003f0 de bf 8a bf 49 f5 23 3f 3d bf 09 40 e2 f6 84 3f
       -1.0839803 0.6404615 2.1522973 1.0387843

lstm.bias_hh_l0 f4 [256]
000000 71 ef bb 3e 10 d0 6d bf 48 b3 d7 bf 14 bb f2 bf
       0.36706117 -0.92895603 -1.6851587 -1.8963342
000010 4f fd 0d 3f a5 52 b2 3f 89 81 31 bf a1 01 28 bf
       0.55464643 1.3931471 -0.6933828 -0.65627486
000020 19 0f 29 3f 57 62 29 40 6e 63 3e bf f6 98 8c 3f
       0.6603866 2.6466272 -0.7437047 1.098418
000030 1e f0 26 bf 67 4e 9b 3e 5b d7 c1 3f 15 f7 6d 3f
       -0.6521014 0.30333254 1.5143846 0.9295514
000040 40 e8 3f 40 72 b0 8b 3f bf 6e f0 3d e1 b5 6d 3e
       2.9985504 1.0913222 0.11739873 0.23213913
000050 37 35 e5 be a4 34 7a 3f 54 45 44 3f da 70 97 bf
       -0.44767162 0.97736573 0.76668286 -1.1831315
000060 4d 1c 28 c0 78 eb 07 3f 6b 7a 18 3f 85 2d 93 3f
       -2.6267273 0.5309367 0.59561795 1.1498266
000070 bb 7b 73 bf 80 bc d1 3e f8 2d aa 3d 77 10 5c 3f
       -0.9511067 0.40964127 0.08309549 0.85962623
000080 dc 74 a0 bf 84 98 9c bf 42 b2 8d be 60 fa cd be
       -1.2535663 -1.2234044 -0.27675062 -0.40230083
000090 a8 8c 2e 3f ca d2 c0 bd 1a 18 12 40 26 4f ea 3c
       0.68183374 -0.09415205 2.282721 0.028602194
0000a0 7f 05 ff 3e eb 33 28 3f 50 de 0c bf 78 3c b5 3f
       0.4980888 0.6570422 -0.5502672 1.4159079
0000b0 e4 aa ce bf 60 ed c7 3e 53 fe f9 3e 23 45 34 3f
       -1.6145902 0.3904829 0.48826846 0.70417994
0000c0 96 ac 04 c0 de d4 04 c0 12 4c b4 3e e7 62 4b c0
       -2.0730338 -2.0754924 0.35214287 -3.1779115
0000d0 a1 84 7f 3f c2 a9 94 3f 60 66 12 bf be fb e5 bd
       0.9981175 1.1614306 -0.5718746 -0.11229657
0000e0 b7 de c4 be 05 4d 3b 3d 3e 9a 92 bf b4 f2 c5 3f
       -0.38451168 0.04572775 -1.1453321 1.5464692
0000f0 c1 91 ac 3f 98 44 68 3e 2f 12 d6 bd a9 90 2d 3f
       1.348198 0.22682416 -0.10452687 0.6779886
000100 39 e7 08 c0 af de 8f 3f 2e 52 a6 3e 84 2d 25 3f
       -2.1391127 1.1239833 0.32484573 0.64522576
000110 7b 90 11 bf 12 9a f1 bf 0b fa a9 bf 22 b5 eb 3e
       -0.56861085 -1.8875144 -1.3279432 0.4603663
000120 05 b2 f1 3e 8c 09 3b 3f 75 41 3c 3e 90 c4 ba 3d
       0.4720613 0.7306144 0.18384345 0.091195226
000130 d2 61 e5 3f 14 06 81 bd 40 4c da 3f e4 92 72 bf
       1.7920477 -0.062999874 1.705452 -0.9475539
000140 11 36 8c bf ef 83 3f bf a4 53 b2 bf d8 d7 48 be
       -1.0954 -0.7481069 -1.3931775 -0.19613588
000150 6f c9 06 3e f4 8c 16 bf 28 b6 b8 be c6 dc 55 3d
       0.13162778 -0.5880883 -0.36076474 0.0522125
000160 da 63 ab 3d 7a d9 af bf 45 fa 8f 3f 0d 0e 24 3d
       0.083686545 -1.3738244 1.1248251 0.040052462
000170 d5 e4 8d 3f b9 9f 2c 3f d3 a1 05 3f 20 66 cc be
       1.1085459 0.6743122 0.5220005 -0.39921665
000180 8b fb 70 be cb 80 fd 3d 11 7b a8 be 87 90 7a bf
       -0.23533456 0.12378081 -0.32906392 -0.9787678
000190 8e 3d cf bf 4c bf c5 be cb 67 94 bf 32 c7 3b 3f
       -1.619066 -0.3862251 -1.1594175 0.7335082
0001a0 f0 cc 80 3f b5 56 8c 3f 5d d3 e8 be 0c fb 19 be
       1.0062542 1.0963961 -0.45473757 -0.15037173
0001b0 be 3f ee 3e 45 8a 07 40 55 f3 26 bf fe ec 34 bf
       0.46533006 2.1178143 -0.65215045 -0.7067412
0001c0 ef 8e 39 3f ee 25 d1 be 77 02 ee bf d7 7d f7 be
       0.72483724 -0.4084925 -1.8594502 -0.48338196
0001d0 3c 6d eb be c1 25 2c 3d 7e 53 7b bf 79 4c 69 bf
       -0.45981777 0.042028192 -0.98174274 -0.91132313
0001e0 32 c6 0c bf fc df e7 3f b3 aa 0a 3f 9b fe 01 bf
       -0.5498992 1.811523 0.54166716 -0.5077912
0001f0 1a d8 93 3f 1d 41 19 bd 7e f8 ad be 43 77 a0 3f
       1.1550324 -0.037415612 -0.33978647 1.2536396
000200 78 d3 3b 40 6f 04 b6 3e b6 25 5f 3e 6d 23 47 3f
       2.934782 0.35550258 0.2179173 0.7778843
000210 0c 93 67 3d 6c 41 cd 3d 34 22 90 bf 4e 0e ac bf
       0.05653672 0.10022244 -1.1260438 -1.3441865
000220 83 1a 31 be 3c 05 f8 3e 68 8d 58 3e 17 c1 5d bf
       -0.1729527 0.48441494 0.21147692 -0.86622757
000230 6e bd d6 bf 47 2f d1 bf f4 43 98 bf 8c a5 a4 bf
       -1.6776559 -1.6342553 -1.1895738 -1.2863021
000240 1a cd 98 bf 94 2c 6b 3f e9 3d 88 bf 2c 25 44 3e
       -1.1937592 0.91864896 -1.0643893 0.19154805
000250 c1 3e ee 3f ba cc b4 3e d9 4a 9c 3f b4 cb de bf
       1.8612901 0.35312444 1.2210342 -1.7405915
000260 94 63 0d 3e bc dc 9d 3e 1a d4 ae 3f 3d 54 23 bf
       0.13807517 0.3083247 1.3658478 -0.6380041
000270 83 5a 26 bf 43 45 b2 3e cf 5e 3f 3e 62 b3 c8 3f
       -0.6498186 0.34818467 0.1868851 1.5679743
000280 70 d2 b0 bf 90 a2 39 3f cb ac b9 bf a6 b3 55 be
       -1.381422 0.72513676 -1.4505857 -0.20869312
000290 c3 74 d8 bf 9d 40 ca bf d9 01 99 3f ef 02 79 bf
       -1.6910633 -1.5800968 1.1953689 -0.972701
0002a0 29 64 7f 3f a4 d6 da bf 25 a2 61 3f 2f 2e b3 3e
       0.9976221 -1.7096753 0.8813804 0.34996173
0002b0 f5 82 74 be 1f b4 9e be 43 9c b5 bf 75 6c d0 be
       -0.23878081 -0.30996796 -1.4188312 -0.40707746
0002c0 18 35 85 be a1 79 07 40 f4 cc 89 3e c8 4e f3 be
       -0.2601707 2.1167986 0.2691418 -0.47521043
0002d0 e1 91 b1 bf 64 3e 61 40 b4 f2 a5 be c0 af a1 3f
       -1.3872644 3.519433 -0.3241173 1.263176
0002e0 af 69 65 bf 40 5e 1b bf e0 3e 41 3f a6 bf a2 3f
       -0.89614385 -0.6069069 0.75486565 1.2714736
0002f0 4e ba f8 be f7 99 b1 be bd b2 ca 3c 52 b0 63 3f
       -0.4857964 -0.34687778 0.024743432 0.8894092
000300 b2 79 c2 be 9a 57 c0 be 52 5e 02 3e 6c 1a 56 3f
       -0.3798347 -0.37566835 0.12731293 0.83634067
000310 b6 32 85 be 8f 22 b0 be 77 62 51 be a8 75 42 3f
       -0.26015252 -0.34401366 -0.20447718 0.7596078
000320 c6 31 a7 3f e3 f1 bd 3f 42 fd 03 40 ae 11 ac be
       1.3062065 1.4839443 2.0623326 -0.3360724
000330 89 cc 78 3e e8 8f eb bd 40 e0 17 40 6b ac 68 be
       0.24296774 -0.11502057 2.3730621 -0.22722022
000340 96 c6 87 be f8 f7 5f bf 2a 0a ed 3c e9 9d 9d bf
       -0.26518697 -0.87487745 0.02893551 -1.2313815
000350 74 a2 b0 3f 02 3f 1d bf 2d 36 54 3f 26 8a c9 bf
       1.3799577 -0.6142427 0.82895166 -1.5745285
000360 be 88 ea be b1 47 13 bf c7 3a 50 bd 4f fa 01 40
       -0.4580745 -0.5753127 -0.050837304 2.0309026
000370 2c 87 63 bf 49 21 2e bf 76 f8 eb 3f 34 03 c1 3e
       -0.8887813 -0.6801954 1.8435199 0.37697756
000380 0a 6e e3 3d ab e8 36 3f d8 4b 0c be 5b 98 2a be
       0.11104973 0.71448773 -0.13700807 -0.16659681
000390 d5 9d 8c 3f 62 0c d0 bf 80 d9 b3 be 4e d6 c5 3e
       1.0985667 -1.6253779 -0.35126877 0.38640064
0003a0 31 74 75 be 62 61 9e bf 60 4c 7e be 17 9f 07 3f
       -0.23970105 -1.2373469 -0.24833822 0.52977127
0003b0 b2 f1 8e 3f 1b f1 c4 be 7d fa c4 be 2a b1 ad 3e
       1.116751 -0.384652 -0.38472357 0.33924228
0003c0 6a a0 79 3e f4 e5 1c 3f 4e 52 86 be 33 5d 10 3e
       0.243776 0.6128838 -0.26234668 0.14098053
0003d0 18 f8 8f bd 06 df 34 3f ff 0b 59 bf 6c 60 87 3f
       -0.07029742 0.70652807 -0.8478393 1.0576301
0003e0 85 9c 03 c0 32 d3 9f 3f e4 9e ed 3e 04 54 32 40
       -2.0564282 1.2486327 0.46410286 2.786378
0003f0 8d 51 e3 3e a4 ad b8 be 21 18 06 c0 fa fa 29 40
       0.44398156 -0.36069977 -2.0952227 2.6559434

lstm.weight_ih_l1 f4 [256, 64]
000000 7d c3 d4 ba 35 5b 6d bd 6f 75 8c 3a 4d 88 6b 3c
       -0.0016232576 -0.05794831 0.001071615 0.014375758
000010 eb 9c 5c 3d bc 93 0b be 22 33 c8 3d cd 41 9f bd
       0.053860586 -0.13630575 0.09775378 -0.077762224
000020 32 2b 19 3c 02 46 1c bd a8 98 43 3d 68 9e 5a 3d
       0.0093486775 -0.038152702 0.047753006 0.053373724
000030 64 7d 1a 3c c1 5b c6 3d 51 34 f1 3d 1d 99 88 bd
       0.0094293095 0.096854694 0.11777557 -0.06669829
000040 cb 4b 02 bd c5 ec 99 bd 11 fe 27 3c 77 d0 19 3d
       -0.031810563 -0.07515863 0.010253445 0.037552323
000050 06 00 eb 3c 98 42 93 3c ee a6 0b 3d e5 0d 8a bc
       0.028686535 0.01797609 0.034094743 -0.016852329
000060 cc 6f fe 3d 1b d9 b7 bd 99 54 81 3d 82 e6 b8 3d
       0.12423667 -0.089769565 0.06314964 0.09028341
000070 0f 6c 0f be 88 bb cb bd b7 d8 31 3d 01 58 0b bd
       -0.14006065 -0.09947878 0.043419566 -0.034019474
000080 94 2a ce 3c 09 87 7c 3d be 3c 3a bd 26 9e 8b bd
       0.025166787 0.061652217 -0.045468085 -0.06817274
000090 ef fe 9d bd 6f b9 ac 3d 65 d1 fd 3b e8 df 32 bd
       -0.0771464 0.08433806 0.007745909 -0.043670565
0000a0 af be fb 3c f1 92 a3 bd 5d c0 92 3d 2e 46 23 3d
       0.030730573 -0.07987011 0.07165597 0.03986185
0000b0 55 31 83 bc ac 65 46 bd f6 7a 9d bc ff 68 55 3d
       -0.016014734 -0.048436806 -0.019223671 0.052102085
0000c0 04 db 94 bc cf a9 14 3c 68 9f ff bb ed 41 13 3d
       -0.018170841 0.009073689 -0.007800985 0.035951544
0000d0 3b 93 fa bc c2 a4 64 3d cf b0 b0 3c b8 02 ce bd
       -0.030587783 0.055821188 0.021568684 -0.10059112
0000e0 f1 d7 17 bb 84 de 7b b8 1e d6 d9 bd 16 60 8f 3b
       -0.0023169483 -6.0050297e-05 -0.10636543 0.004375468
0000f0 69 8f 3f 3c 65 e5 92 bd 20 40 1b 3b 05 71 49 bc
       0.0116919065 -0.0717266 0.0023689345 -0.012295012
000100 07 68 e2 3b 78 f7 1b bd 96 e0 a6 3d ea 83 9b bd
       0.0069093737 -0.0380778 0.08148305 -0.0759352
000110 89 6d c3 3d 1f 6f 5f bd 08 c9 a0 bd 15 05 fd 3d
       0.095423765 -0.054549333 -0.07850844 0.12354485
000120 45 a8 77 3d d8 53 86 bd d1 99 a6 3d dc 0f a7 3c
       0.06046321 -0.06558961 0.08134807 0.020393305
000130 1c 03 f7 3c e0 62 b8 bd a1 d8 23 3d e2 a8 a8 3d
       0.03015285 -0.09003234 0.040001515 0.08235337
000140 42 af cb 3d 9d ee 77 3c 30 05 2b 3b 48 91 97 3d
       0.09945537 0.015132573 0.0026095621 0.07400757
000150 7e df 41 3d e9 c9 9c 3d d9 eb 4c 3d 40 a9 14 3d
       0.04733228 0.07655699 0.05002961 0.036294222
000160 3a 91 99 3d b4 06 4e bd b9 9d d3 3a 23 4e e2 bc
       0.07498403 -0.05029936 0.0016145027 -0.02762515
000170 34 92 5a bb d2 95 88 bc c0 cb 2e bd a6 7b d0 3c
       -0.0033351304 -0.016673002 -0.04267478 0.025449585
000180 75 1d 46 bc bc 7b c6 bc 58 c0 a1 3a 76 a2 9e 3d
       -0.012091984 -0.024228923 0.0012340648 0.07745831
000190 97 cf 6d 3b 5f 54 19 be 94 93 c1 3d ee 27 5a bd
       0.0036287063 -0.14973591 0.094519764 -0.053260736
0001a0 00 58 70 3d cd f2 c8 3d 7e 4e 13 be 1a 65 db bc
       0.058677673 0.098119356 -0.14385411 -0.026781607
0001b0 4c fb 18 3d f1 4a 8f bd 7c e5 3f bd a5 c1 fe 3d
       0.03734903 -0.06996716 -0.046849713 0.124392785
0001c0 d1 46 91 3d 5e 71 47 3d 42 2f 8c bc 66 1e e1 3c
       0.07093585 0.0486921 -0.017112378 0.027480315
0001d0 72 95 80 bb 67 3d 4c bd cb 61 b2 bc e2 81 2f 3d
       -0.0039240653 -0.049863245 -0.021775147 0.042848475
0001e0 b6 f9 1b 3e a4 c4 a5 3b aa 90 82 3d 80 e5 ed bc
       0.15231976 0.005058842 0.06375249 -0.029040098
0001f0 72 d7 0f 3d cf e6 87 bd 0b a6 f1 3c 8e 89 09 bd
       0.035117574 -0.0663582 0.02949812 -0.033578448
000200 7d 56 8d 3d fc cb 31 bd c9 14 ba bd 59 22 03 bd
       0.06901262 -0.043407425 -0.09085996 -0.03201518
000210 24 a9 00 bd 17 4c 80 3d 0f 54 7f bc 13 22 13 be
       -0.031411305 0.06264513 -0.015584006 -0.14368467
000220 2a 77 92 3d 27 c1 24 bc 11 79 37 bb 68 c7 66 bc
       0.07151635 -0.010055817 -0.0027995745 -0.014085628
000230 3f 4f 7e 3c 3c 48 a6 bc 18 ce fb bc 29 12 c4 3b
       0.015521823 -0.020298116 -0.030737922 0.00598361
000240 76 8e 87 3d 16 e0 01 bd e8 20 39 bd 67 dc 31 bc
       0.06618969 -0.031707846 -0.045197397 -0.010855771
000250 69 d1 ff bc 78 26 a4 3c fc ba 1b 3d 7e a5 1a bc
       -0.031227784 0.020037875 0.03802012 -0.0094388705
000260 7e dd 9e bd ba 32 d9 bc 07 ed 22 3d e2 f8 be bc
       -0.0775709 -0.026513446 0.03977683 -0.023312036
000270 2a 7f 95 bb 02 9c 1d 3e 4a fa 06 3c 80 f5 c5 3d
       -0.0045622783 0.15391544 0.0082383845 0.09665966
000280 81 fc 79 3b 51 a7 81 bc a8 29 59 3d a3 ed bc 3d
       0.0038144889 -0.015826853 0.053018242 0.09225013
000290 cc 70 f9 bc d2 bf d2 3c a4 c1 6a bc c3 73 57 bc
       -0.030449294 0.025726233 -0.014328394 -0.013150158
0002a0 e4 fb 0e 3e 4d e1 a9 3d b1 d4 9e 3c d3 02 b4 bd
       0.13963276 0.08294926 0.019388529 -0.08789601
0002b0 86 26 05 bd 48 41 1f bd f3 d8 84 3c 8b 71 a5 3b
       -0.032507442 -0.038880616 0.01621673 0.005048936
0002c0 21 4b fe 3a 5f 42 8a bd 09 28 68 3d 56 69 41 bd
       0.0019401052 -0.067509405 0.056678806 -0.047219597
0002d0 ae be 83 3c b6 32 91 bd 73 6e ac 3d d5 9a 2d bc
       0.016082134 -0.070897505 0.08419504 -0.010595997
0002e0 ce df 9e bd fd c7 5f 3a 55 5f 9d bd 31 95 a4 3d
       -0.07757531 0.00085365755 -0.07684199 0.080362685
0002f0 7c 79 08 bc 25 a2 36 bd 64 24 d2 3b a0 01 2f bd
       -0.008329745 -0.044588227 0.0064130295 -0.04272616
000300 95 5b c2 bd 1f f8 51 3d 1c 8a 53 bd 48 d1 5b bc
       -0.09490124 0.051262017 -0.051645383 -0.013416596
000310 15 5c 5f 3c df 5d 3a 3d 86 b2 01 3e 18 4d 0d 3d
       0.013632794 0.04549968 0.12665758 0.03449735
000320 75 8e 95 bd d3 48 a6 3c bc 10 95 3d 76 dd 09 be
       -0.07302562 0.020298397 0.072785825 -0.13463387
000330 4a 6c dd bc 00 a9 d7 3d 49 80 31 3c 0a e4 15 bc
       -0.027029175 0.10530281 0.010833808 -0.009148607
000340 69 35 a4 bd 2e 5b d6 bc 67 e6 c2 3d 4b 8e 31 3d
       -0.08018 -0.026166525 0.09516602 0.04334859
000350 6d 05 03 bd f4 f0 4e 3d 53 1c 72 bd 3a 24 3e 3d
       -0.031987596 0.05052276 -0.059109043 0.046421267
000360 ef 70 17 3d fc b0 01 be 60 c0 22 bc 39 b1 53 3d
       0.036972936 -0.1266517 -0.009933561 0.051682685
000370 55 2d fc 3c 55 48 de bb 64 a0 8f 3c c2 99 5c bd
       0.030783335 -0.006783525 0.017532535 -0.053857572
000380 77 89 17 3d c8 05 80 ba ee 39 85 bd 91 ef ab bd
       0.03699633 -0.0009767348 -0.0650519 -0.08395303
000390 d0 42 06 bd 00 6e ef 3d f8 ba 4f bd 2a f2 a7 3c
       -0.03277856 0.11690903 -0.050715417 0.020501215
0003a0 ed 59 8a 3d e3 7e ba 3c f1 3a 94 bc b1 55 e2 bc
       0.06755433 0.022765582 -0.018094512 -0.027628751
0003b0 5d 0b e3 bc 03 69 73 bd 5c fd 06 3b 9c dd 09 bd
       -0.02771538 -0.05942632 0.0020597791 -0.03365861
0003c0 db 3c 91 bd 48 00 ce ba c8 66 d9 3c 06 e0 74 bd
       -0.070916854 -0.0015716637 0.026538268 -0.059783958
0003d0 20 fa 79 bd ef 24 f0 bd f2 67 78 3c 72 09 31 3d
       -0.061029553 -0.117257945 0.015161501 0.0432219
0003e0 3b be 86 bd 55 40 33 bb ca f7 6d bd f6 91 c0 bd
       -0.06579252 -0.0027351577 -0.05809764 -0.0940284
0003f0 7f c4 98 bd 73 57 28 bd 20 82 05 bd 60 ff ef bd
       -0.07459354 -0.041099023 -0.0325948 -0.11718631

lstm.weight_hh_l1 f4 [256, 64]
000000 e7 cf d2 b9 52 69 23 bd b2 bf 93 3d 99 a9 9e 3d
       -0.0004020922 -0.039895363 0.07214297 0.07747192
000010 02 8f a3 3c b7 cb b7 3c e1 2c 3f be 28 d6 bb bc
       0.019965652 0.022436006 -0.18669464 -0.022929266
000020 a8 d9 30 bd 11 2b 17 3e 7e c4 0e 3c 9c 93 00 3d
       -0.043176323 0.14762522 0.00871384 0.03139077
000030 e5 bd 6f bc c4 4b 91 bc 2c 6c 82 3d d4 83 3b bd
       -0.014632677 -0.017736323 0.063682884 -0.045780018
000040 9c 3f 4e 3c e5 b9 62 3d 2e a6 0e 3d ed 84 ba bd
       0.012588408 0.055353064 0.03482645 -0.09107385
000050 ac 43 0d bd ef 09 8a bc 26 7a 86 3d cb df f2 bc
       -0.034488365 -0.01685044 0.06566267 -0.029647728
000060 57 c9 c5 bc 0b 8b f3 3c 41 7a 0c 3e 70 33 8c 3d
       -0.024143858 0.029729387 0.13718511 0.068457484
000070 bb d5 9d 3d 04 93 c8 3d c0 bf 49 bd f7 d4 94 3d
       0.077067815 0.09793666 -0.049255133 0.07267182
000080 d9 88 2c 3d e6 03 47 bd 52 0a 27 3d e7 49 c1 bd
       0.042122696 -0.048587702 0.040781327 -0.09437924
000090 6c 8c 58 3d d8 6a a2 bc 55 0d 23 3e 0b 88 c9 ba
       0.05286829 -0.019826338 0.15923055 -0.0015375627
0000a0 73 4d e8 3c 19 50 55 3d 3d f2 e5 bb 15 9d 6f bd
       0.028357243 0.05207834 -0.0070174024 -0.058499414
0000b0 17 3e 9f 3d fd 39 c0 3c fc 32 33 3d 10 8a 45 3d
       0.077755146 0.023465151 0.043749794 0.04822737
0000c0 92 32 b5 3b e8 fb 81 3c 08 e7 b5 3c b1 90 8c 3c
       0.00552971 0.015867189 0.02220489 0.017158838
0000d0 a5 f9 d1 bd 1d 13 c6 bd 78 68 56 bd 4c 2c 00 3d
       -0.10252694 -0.09671614 -0.052345723 0.031292245
0000e0 db 37 ee 3b 17 73 f4 bc d4 ca ca bc 8b 42 f3 bc
       0.007269842 -0.029840035 -0.02475492 -0.029694816
0000f0 47 1b 2e bc 33 5e 7f 3b 01 e0 a1 3d 6e ec 87 bc
       -0.010626621 0.003896606 0.079040535 -0.01659223
000100 89 50 81 bd c2 88 91 bd 70 d0 39 3d 6e 8c c2 3c
       -0.06314189 -0.071061626 0.045364797 0.023748603
000110 2e e1 54 3a 35 e2 fb 3d 00 28 9f 3c c8 1b 95 bd
       0.00081207126 0.12299005 0.019428253 -0.072806895
000120 a0 b1 c8 bc af 09 4e 3d 6a 5e a8 bb 57 f4 07 be
       -0.02449876 0.050302204 -0.005138208 -0.13276802
000130 a0 c2 43 bd 8d e4 f3 3b 22 8a c7 bd 93 2a 2b bc
       -0.04779303 0.007443017 -0.097431436 -0.010447162
000140 b9 95 3d bd 36 33 b6 3d 26 aa 0a 3d f1 0f 13 be
       -0.046285365 0.088964865 0.033853672 -0.1436155
000150 cc 22 c7 bd e1 4a 49 3c 68 ba 31 bd 8e ee 34 3c
       -0.09723434 0.012285919 -0.04339066 0.011043204
000160 bf fd 15 bd 17 ce b5 3c 14 6d 28 bd 94 da e7 3c
       -0.036618944 0.022192998 -0.04111965 0.028302468
000170 ec 9b bc bd 85 41 6b 3d 3c 2c 48 3c b9 99 2e bd
       -0.09209427 0.05743553 0.012217578 -0.04262707
000180 8e ca 1a 3d 9f d8 97 3d b0 f9 a4 3d d3 d9 e7 bd
       0.037790827 0.07414364 0.080554366 -0.113208435
000190 c4 5d 69 3d 35 b4 7b 3c 40 d6 f2 bc 65 79 ba bd
       0.056974187 0.015362789 -0.029643178 -0.091051854
0001a0 54 39 62 bd b7 b0 d4 bc c3 51 36 be 8f 9d a0 ba
       -0.055230454 -0.02596317 -0.17804627 -0.0012253987
0001b0 2a 1a 8b 3c 2c a5 17 be 2b 48 bc 3d 08 96 14 3d
       0.01698025 -0.14809102 0.091934524 0.036275893
0001c0 03 59 9c 3d 35 2f ef 3d 36 fb 25 bd 87 5d 5e bd
       0.07634165 0.11678926 -0.040522777 -0.054288413
0001d0 12 50 3b 3d 0a dc 87 bc 00 7d cd bb 29 c5 14 be
       0.045730658 -0.016584415 -0.0062710047 -0.14528336
0001e0 4e 98 b3 3d bf c5 ed bd 2b ad 83 3c f2 f6 22 bd
       0.08769284 -0.11609983 0.016073784 -0.039786287
0001f0 e7 30 af 3d 6d 7f 4d 3d 0f f5 51 3d e4 b5 0f bd
       0.08554249 0.05017035 0.051259097 -0.035085574
000200 6c 29 3a 3d 80 61 1c bd 9c fb 2d 3c c9 39 18 bd
       0.04544966 -0.03817892 0.01061907 -0.037164483
000210 0b 91 9e 3d de 6a a2 bb 2d 1c b4 3d dc b6 5d be
       0.077425085 -0.004956587 0.087944366 -0.21651787
000220 e0 55 5d 39 01 82 87 bc 81 96 c0 3d 06 b5 a3 3d
       0.00021108193 -0.016541483 0.09403706 0.07993512
000230 ce 11 95 bd 32 a4 2a bd 95 cd 2e bd c0 93 d4 3c
       -0.072787866 -0.041660495 -0.042676527 0.025949359
000240 91 b3 ea bd ca ee 3c bd 3e 77 3e 3d 36 33 db bc
       -0.11460031 -0.046126164 0.046500437 -0.026757818
000250 8b a2 81 3c 69 55 de 3b b5 e6 3c 3c b8 d2 46 bc
       0.015824577 0.006785084 0.011529614 -0.0121352
000260 8f db 2e bd 60 c9 d0 bd 2b 8b 56 bb a5 3c b3 bd
       -0.042689856 -0.10194659 -0.003273676 -0.087518014
000270 2c b3 aa 3d a2 f4 ba 3d 86 fc 8f 3d ef 5f db bd
       0.083349556 0.09128691 0.07030587 -0.10711657
000280 69 c8 c9 bd f1 d0 02 bc 41 cf 4b 3e 1f 28 bd 3c
       -0.09852678 -0.007984386 0.1990328 0.02309042
000290 89 57 49 3d 85 86 a9 bd 7a f5 c3 39 03 4b f3 bc
       0.049155746 -0.08277611 0.00037376193 -0.029698854
0002a0 be 87 4f bb 35 6e 1e 3d f2 a0 b1 bd 81 0a 63 3c
       -0.0031666602 0.03867932 -0.08673276 0.013857485
0002b0 55 78 a1 bd 9a ec 1d be cd 9a 04 3c 58 23 d6 bb
       -0.0788428 -0.15422288 0.008093548 -0.006534975
0002c0 46 2a c4 bd 73 29 ba 3d ac 28 e1 3b fd 8c ff bc
       -0.095783755 0.09089937 0.0068713035 -0.031195158
0002d0 65 aa 0b bd ad 76 f1 3d 3e 9f de 3d 33 fb f8 bd
       -0.034098048 0.11790214 0.10870217 -0.121572874
0002e0 95 56 d6 3c d2 14 80 3d 08 4b a8 3d 1d 22 55 3d
       0.026164332 0.06253971 0.08217436 0.052034486
0002f0 19 78 a4 bd ee 21 84 bc a2 13 3e 3d 5b 3a ee bd
       -0.08030719 -0.01612946 0.046405442 -0.11632224
000300 da a1 8a 3d 9c 9b d4 3d fb cf 5f bc e4 06 f1 3d
       0.06769152 0.10381243 -0.013660426 0.117688924
000310 c9 6d a0 3c 71 c8 1f bc 7d ba 12 bb 17 57 ee 3d
       0.0195836 -0.009752379 -0.0022388988 0.11637705
000320 2e 78 a1 3d 99 80 a8 3c 4a a5 6c 3d 95 e4 3f 3c
       0.078842506 0.020569133 0.05777482 0.011712213
000330 4f fe 67 bd 31 cf e0 3c ec b5 a2 bd 2f d8 8f 3d
       -0.056639012 0.027442547 -0.07944855 0.070236556
000340 82 66 2b 3e 19 cf a2 bc f7 a9 e3 3d bb 72 9a 3c
       0.16738322 -0.019874142 0.111164026 0.018853536
000350 26 d0 ab 3c f8 13 ca 3c 87 cf 8b 3c 5a a1 b7 bd
       0.020973276 0.024667725 0.01706673 -0.08966322
000360 0d a9 ac bd 3a 04 7b 3d 14 b8 ea 3b 7d fc a9 3d
       -0.084306814 0.061283328 0.007163057 0.083001114
000370 c9 9a 7c 3b 53 56 a8 bc 1f a4 ba bc df e5 6a 3b
       0.0038544408 -0.020548975 -0.022783337 0.003584258
000380 2e 93 d4 bd 08 db 56 bd 83 19 44 bd 9d 91 9e bd
       -0.10379635 -0.05245498 -0.047875892 -0.07742617
000390 f6 4d 98 3d 22 89 c4 bc af 71 8b 3d 8b 85 96 3c
       0.07436745 -0.023991171 0.06808793 0.018374225
0003a0 74 5d 71 bd d4 3b b1 3c 04 ab 9e bc b2 15 47 3d
       -0.058927014 0.021634974 -0.019368656 0.048604675
0003b0 8c ee 36 3a 30 8e 8f 3c b2 16 88 3d a3 af 9f bd
       0.0006978295 0.017523855 0.06644954 -0.07797172
0003c0 27 37 4c bd 14 a6 1e be 87 0d a4 3d 32 14 a0 bc
       -0.049857285 -0.15493041 0.08010393 -0.01954088
0003d0 d4 af 39 3d c3 89 d4 3c ce cd 2a 3d 6f e0 0c 3e
       0.0453337 0.025944596 0.041700177 0.1375749
0003e0 93 ee 40 bd 7b a2 c6 bd 1d ef af 3d ed d3 7d 3d
       -0.047102522 -0.096989594 0.08590529 0.061969686
0003f0 32 e6 25 bc 4b 92 10 3d 50 b1 14 3d 31 05 d9 bc
       -0.010125684 0.035295766 0.03630191 -0.026491733

lstm.bias_ih_l1 f4 [256]
000000 f9 28 2d 3e fc 98 e2 be f8 89 cd be c0 49 df bf
       0.16910161 -0.44257343 -0.40144324 -1.7444382
000010 74 58 e9 3c f0 b8 ec 3e f0 93 af bf 6c 9a 84 bf
       0.02848456 0.46234846 -1.3717022 -1.0359626
000020 44 1c fe be bc a8 02 bf 20 0f d9 bc ee d2 75 bf
       -0.4963094 -0.5103872 -0.02649647 -0.9602498
000030 5f d7 ad 3f 1f 08 db be df 14 9b bf e7 af 4a 3f
       1.3581351 -0.42779633 -1.2115744 0.79174656
000040 d9 fa 0f 3f 08 39 07 3d c2 90 ee be 1d 04 7c 3f
       0.5624214 0.033013374 -0.46594816 0.98443776
000050 5e 01 ff 3e f6 dd 51 3f 4a 6e 40 3f bf 4a c3 bc
       0.4980573 0.8197931 0.7516829 -0.023839353
000060 25 fe b5 bf ab bd fc bd f4 90 e8 3f cf 4a f3 3d
       -1.4218184 -0.12340864 1.8169236 0.11879503
000070 3c 33 3c bf cc b3 8d 3e b8 0d 8d 3f a4 1e b7 3d
       -0.7351568 0.27676237 1.1019812 0.08941391
000080 6f 97 a1 be ac d6 1c 3e 4e 9f 45 be 77 09 3f 3f
       -0.31560847 0.15316266 -0.19299051 0.7462382
000090 dc a1 fe 3e 07 d8 45 3e 59 8a d8 3e fe 74 ea 3f
       0.49732864 0.19320689 0.4229305 1.8316953
0000a0 89 dc f2 be fe cd 3c bf 56 fd 98 3e 76 c3 6e be
       -0.4743388 -0.7375182 0.2988078 -0.2331675
0000b0 0d fc ce bf 10 26 f1 be 0f 67 46 3f d0 b8 00 bf
       -1.617067 -0.47099352 0.77501005 -0.50282
0000c0 09 4b 2b bf 6c 6d a7 3e 82 04 c5 3f 94 fc a0 3e
       -0.6691137 0.3270067 1.5392001 0.31442702
0000d0 e0 96 2c bf 44 7c e9 be 95 2b 2d bf e7 6c 2f bf
       -0.67417717 -0.4560262 -0.67644626 -0.68525547
0000e0 49 93 dd 3e 87 ae 93 3e 8f 2c a2 bf eb 38 04 40
       0.43276432 0.2884409 -1.2669848 2.065974
0000f0 48 51 bf 3c 88 4a 13 3f 2b b0 93 bf 0f af b1 3e
       0.023354188 0.575356 -1.1538137 0.34703872
000100 e4 21 4d 3f 5f 1b a8 3d 1a 6d 04 c0 e7 bd 6e 3f
       0.8012984 0.082083456 -2.069159 0.9325852
000110 b8 8d 15 be 5e c1 49 bf 56 2e ce 3f db 1e b3 bf
       -0.14604843 -0.7881068 1.6107891 -1.3993791
000120 dc fa c3 3f b2 3e 3a 3b 3c ab 65 c0 3e 29 e5 3e
       1.5310931 0.0028418717 -3.5885763 0.44758028
000130 2c 2c f3 bf 65 cd 13 bf 27 72 6a 3f a6 f0 c1 bf
       -1.8997855 -0.5773528 0.9158043 -1.5151565
000140 93 d5 5c 3f 22 7e 47 bf ca 1b eb 3e b5 f4 03 3d
       0.8626339 -0.7792684 0.4591964 0.032215793
000150 fe ff 49 3f 19 ab 77 3f af be 8f 3e dd 5a b7 3d
       0.7890624 0.9674545 0.28075168 0.08952878
000160 af f9 d4 3f 6b 2e 61 bf 41 b3 a4 3c f4 08 f2 be
       1.6638697 -0.87961453 0.020105006 -0.47272456
000170 e0 5d 5f be 17 bb c4 be a0 29 b7 3e 07 fb 1f 40
       -0.21813154 -0.38423988 0.35773945 2.4996965
000180 fe a6 97 3e b9 7c 26 bf b9 ed 88 be d0 03 ac bf
       0.29619592 -0.6503406 -0.26743868 -1.3438663
000190 d8 c2 84 bf 06 85 99 be 25 05 99 bf 64 79 2b be
       -1.0371962 -0.299843 -1.1954695 -0.16745526
0001a0 12 a7 18 3f 94 9b 1d bd 45 f6 cc 3f 9b 23 62 3f
       0.5962993 -0.03847845 1.6012655 0.8833558
0001b0 2b 1a 55 bd 71 ac 6d be b7 66 99 3f ba d7 8d bf
       -0.05202691 -0.23210312 1.1984471 -1.108146
0001c0 da ae 76 3f 14 20 16 bd da d1 20 be 3e a0 1b 3f
       0.9636055 -0.036651686 -0.15705052 0.60791385
0001d0 38 01 c0 3c b1 2a 30 bd 43 6a 91 3e 88 6d 94 3f
       0.023438081 -0.043009464 0.28401384 1.1595926
0001e0 2c 08 4b 3f bd ca 6e 3f eb f9 c6 be d7 8c a1 3d
       0.79309344 0.93278104 -0.38862547 0.07888191
0001f0 2b 73 f6 be 6d 5d 31 bf 23 c2 1d 3e d7 67 7d 3f
       -0.4813474 -0.6928318 0.15406089 0.9898657
000200 e8 11 14 40 90 65 8b 3e ac 8c 8c 3e 26 3f 32 3f
       2.313593 0.27225924 0.27451074 0.69627607
000210 2c 66 94 3f e5 b7 1e 3e 06 66 46 bf e7 1b 9d 3e
       1.159368 0.15499838 -0.77499425 0.3068535
000220 12 39 2e bf d1 1e 86 3e f9 5f b1 3e b7 19 d2 be
       -0.6805583 0.26195386 0.34643534 -0.41035244
000230 d5 f3 97 bf fc ab 3f be e4 3c 55 3e 19 08 eb bf
       -1.1871287 -0.1871795 0.20824009 -1.8361846
000240 b1 34 6f 3f d1 0a 4c 3e bb ca be bf 62 93 f8 be
       0.93439776 0.19926001 -1.4905618 -0.48549944
000250 cb a6 4f 3d 25 f3 43 be 87 4d 30 3f 5c 55 0f 40
       0.050696176 -0.19135721 0.688683 2.239585
000260 41 ba 51 be 09 5b 6b bf 96 c7 70 3f ca f2 f4 3f
       -0.20481206 -0.91935784 0.94054544 1.9136593
000270 e1 43 e6 be 4b b7 23 c0 94 9d 59 bf 69 41 c9 bf
       -0.44973662 -2.5580623 -0.8500607 -1.5723087
000280 f0 b5 aa be 4c 5d 74 be 26 6b 8a 3f 0c 3e 27 3c
       -0.33341932 -0.23863715 1.0813949 0.010207664
000290 cd 21 a7 be 95 e1 cd be 8c f5 b3 3f bb f0 c1 3f
       -0.32642975 -0.40211168 1.405931 1.515159
0002a0 06 fd 94 bf f3 50 af be b3 eb a5 be 22 0a 79 be
       -1.1639717 -0.34241447 -0.32406387 -0.24320272
0002b0 cc cf 9c be 1a cb 7f bf 46 fd 95 bf a9 2b aa 3f
       -0.30627286 -0.99919283 -1.1717918 1.3294574
0002c0 d7 b4 b5 be 4e 0a 30 3f 14 58 8c 3f 43 59 ab be
       -0.35489532 0.68765724 1.0964379 -0.3346654
0002d0 0f 31 18 be 5e 5a d8 3e 59 a2 0e 40 e4 68 63 3e
       -0.14862464 0.42256445 2.228659 0.22207981
0002e0 77 bd 25 40 8b 02 f2 be 41 64 aa 3f 64 89 01 40
       2.589689 -0.47267565 1.3311845 2.0240107
0002f0 a5 89 29 be 68 df bb 3e 65 41 5c be c4 dc 5b 3f
       -0.16556413 0.36693883 -0.21509321 0.85883737
000300 4b 13 00 bf b7 d6 9d 3e 24 13 d1 3f 12 58 a0 bf
       -0.5002944 0.30827877 1.6333966 -1.2526877
000310 80 39 e6 be a9 fa 50 bf fa bc c9 bf 0b ba 48 3f
       -0.44965744 -0.8163248 -1.5760796 0.7840888
000320 33 2f d4 3e 81 d7 09 3f e9 6b f1 3f cf 89 7f bf
       0.4144226 0.5384446 1.8861057 -0.99819654
000330 2e 46 17 40 8d e6 57 bf d6 76 57 3f da 70 a8 bf
       2.3636584 -0.8433617 0.84165704 -1.315944
000340 e1 4b 09 3f 1d 3a 76 3f bb 69 69 3f d9 4a d7 be
       0.5363141 0.96182424 0.91176957 -0.42049292
000350 1f d0 1c 3c 52 5f 88 bf a2 b7 d3 3f ca f1 8e 3d
       0.009571104 -1.065409 1.6540415 0.06979711
000360 d5 8b b5 3f b0 31 e7 be 9b 14 c2 bf ff e8 89 bf
       1.4183298 -0.45155096 -1.5162538 -1.077423
000370 9c 43 02 bf 4e 6c 4d bf 7e 2b cb bc ff 1d 76 3f
       -0.50884414 -0.80243385 -0.024801012 0.9613952
000380 0c de 2b 3d 29 aa a0 3f ba 23 f7 be 90 f1 73 bf
       0.041959807 1.2551929 -0.48269445 -0.9529047
000390 0a a4 77 3f 83 be 87 3e 2b a8 85 3f 8a 73 3b 3f
       0.9673468 0.26512536 1.0441946 0.73223174
0003a0 31 89 ba 3f 02 e2 d3 bf 98 b3 49 3f 14 52 b0 bf
       1.4573117 -1.6553347 0.78789663 -1.3775048
0003b0 96 33 c6 3d 81 d4 01 3f 7d 39 6d 3f 5d e7 1e bf
       0.09677808 0.5071488 0.92665845 -0.6207178
0003c0 17 14 b1 3f d0 9f ba 3e d1 bb d6 3f 1e fe b8 3e
       1.3834256 0.36450052 1.6776067 0.36131376
0003d0 82 bc d2 3f f1 32 33 3e 9a 15 8f 3f cf 57 e6 3f
       1.6463778 0.17499901 1.1178467 1.7995547
0003e0 ae 8d 0b 40 d2 6c 9f bf 74 d4 31 3f c5 77 96 3e
       2.1805224 -1.2455084 0.694648 0.29388252
0003f0 86 0d ba 3e c4 33 14 be ba 4c 8e bd a8 34 d8 bf
       0.36338443 -0.14472872 -0.06948228 -1.689107
