04_Models_Weekly/20250811_212709_HBEA_Weekly_WithSentiment/best_model.pth (torch, 945013 bytes, 11 tensors)

lstm.weight_ih_l0 f4 [512, 63]
000000 76 93 ac 3c 68 f8 eb 3c 38 99 27 bd 14 e7 52 3d
       0.021066409 0.028804973 -0.040917605 0.051489905
000010 f2 24 5c bc b0 1c 92 3c a6 42 30 bd bd eb 6c 3d
       -0.013436543 0.017835945 -0.04303231 0.057842005
000020 ab 63 70 3d ed 3a 8f bd 4b 82 9d 3d 64 48 08 3d
       0.0586888 -0.06993661 0.07690867 0.033272162
000030 65 33 a3 3d bc 40 5c 3c 0f 4f 4c 3d 50 a3 f7 bc
       0.07968787 0.013443168 0.049880084 -0.03022924
000040 4c 7f 91 3d ef 6c 91 ba fd eb 09 bd 4a 92 78 ba
       0.07104358 -0.0011095087 -0.03367232 -0.0009482248
000050 1f cc 4b bd 80 a0 a9 bc 55 e0 52 bd 73 92 ef 3c
       -0.049755212 -0.020706415 -0.05148347 0.029244637
000060 67 e5 cb bd d0 9f a6 bd 16 20 08 bd 46 88 af bd
       -0.099558644 -0.081359506 -0.033233725 -0.08570914
000070 34 1d 98 3d 2b 5d b0 bd 6c 75 4c 3d 6a 05 d7 bd
       0.07427445 -0.086115204 0.04991667 -0.104990795
000080 a1 83 29 3d 52 84 9a 3d f0 64 54 bd e1 76 e3 3c
       0.041385297 0.07544769 -0.051854074 0.027766647
000090 2e 42 02 bc 3f 4f 81 3d a5 62 b3 bc 52 3c 98 bd
       -0.007950349 0.06313943 -0.021897623 -0.0743338
0000a0 74 9c 45 bd 38 00 73 bc 4a 8c 07 3d 72 13 e7 3d
       -0.04824491 -0.014831595 0.033092774 0.11283006
0000b0 68 96 90 3d 18 5f 19 3c 3e 0c be 3d 98 c8 53 3c
       0.07059938 0.009361051 0.09279679 0.012926243
0000c0 55 cd c6 3d 05 9e 28 bd cc 9a d8 bd d8 33 60 bd
       0.09707133 -0.041166324 -0.105764 -0.054736942
0000d0 b2 94 b1 bd 98 27 e1 3d 6b 41 9d 3d 80 8c 6a 3c
       -0.086709395 0.1099388 0.07678493 0.014315724
0000e0 ad 8c 05 3b 92 bd 63 3c d2 96 46 3d 40 ef cb bd
       0.0020378039 0.013900178 0.048483677 -0.09957743
0000f0 8f 85 e6 3a d0 f4 c1 bd c5 b2 dd 3c 9a cd 96 bc
       0.0017587411 -0.094705224 0.027062783 -0.018408585
000100 66 0c 00 3d ba d5 db bd 1a 2c 91 bc ff 4f 41 3a
       0.031261824 -0.107341245 -0.017721225 0.0007374286
000110 4c eb 57 bd a3 ee 57 bd 13 50 1d 3e 43 5b 21 3d
       -0.05271463 -0.052717816 0.15362577 0.039393675
000120 38 c7 00 3e 45 87 1c bd b4 4d a4 bd c7 51 94 bd
       0.12575996 -0.03821494 -0.08022633 -0.0724216
000130 c2 1b cc bc 4f f7 c3 3d 30 83 28 3e ea 2a ee 3d
       -0.02491558 0.09568655 0.16456294 0.11629279
000140 80 9a c8 bc fb 54 db 3b 30 47 ac 3d 18 8f 10 3c
       -0.024487734 0.00669348 0.084120154 0.008823179
000150 9f f9 8d 3d 22 00 09 3d 30 9d 91 3d 93 0e c9 bd
       0.06932377 0.033447392 0.07110059 -0.09817233
000160 9c 59 d9 bc 02 38 06 bd c9 9c e5 3b ad c6 75 bc
       -0.026531987 -0.032768257 0.0070072156 -0.015000981
000170 53 c3 1a bd 55 cd 42 3d 95 ed 9c bd 77 5a 87 bd
       -0.037783932 0.0475591 -0.07662503 -0.06609052
000180 b7 ca 81 bd 5e de ef bc 36 c6 4d bd 2e 85 d5 bd
       -0.06337493 -0.029280838 -0.050237857 -0.10425793
000190 51 f6 e1 bd 2f ba c4 3b c8 76 13 bc e2 27 13 bd
       -0.11033309 0.00600364 -0.009000488 -0.035926707
0001a0 f9 2d 73 3d 29 bc 8b bc 5a b4 1f bd a6 b0 70 3d
       0.059370015 -0.017057495 -0.038990356 0.058762215
0001b0 d8 49 b9 3c 2c 6a 82 bb e6 79 d2 3d 10 0e 41 3d
       0.02261822 -0.003979942 0.102771565 0.04713255
0001c0 1f a9 b5 3d 72 e9 6f bd d3 59 d1 bc 8b 2b 9a 3a
       0.08870148 -0.05857224 -0.025555527 0.0011762244
0001d0 8e e9 68 3c 12 19 89 bd 77 c8 83 3b 29 f3 19 bd
       0.01421584 -0.06694235 0.0040217 -0.03758541
0001e0 8d 76 85 bd ac 9d 15 bd 6e ab 33 3d d5 f9 19 bd
       -0.065167524 -0.03652732 0.04386466 -0.037591774
0001f0 4b 0a 3a bc 8f 7b 34 bd 49 37 a1 bd 75 f6 f3 bd
       -0.011354993 -0.044063147 -0.07871873 -0.11912242
000200 a8 f1 c1 3c 5a c3 a5 bd 81 b1 7f 3d 0a 9c e1 3c
       0.023674801 -0.08093901 0.06242514 0.027540226
000210 60 49 99 bd 73 51 71 3d 40 4f 2a bd 8d 9a 4f bd
       -0.07484698 0.058915567 -0.041579485 -0.0506845
000220 90 bc c9 bd 00 b6 c9 bd 46 b9 39 bb 1d fd 2d bd
       -0.098504186 -0.09849167 -0.0028339191 -0.042477716
000230 43 d8 c8 3c 40 1f 83 bd 3d 73 f9 3c ff 80 8f bd
       0.024517184 -0.06402445 0.030450458 -0.07007026
000240 ea 6f a1 bc da 67 ae bb 59 e8 db 3c 2c 66 5d 3d
       -0.019706685 -0.0053224387 0.02684419 0.054052517
000250 3d 38 96 3d 02 b2 c2 bd ed 77 36 bc 89 a7 8f bd
       0.07334945 -0.095066085 -0.011136991 -0.07014377
000260 dd f8 36 bd 0c b1 e8 bd a8 8a a9 3d 4f 00 30 be
       -0.04467093 -0.11361894 0.082784 -0.17187618
000270 10 bb bf 3b ff 29 29 bc c6 b0 77 bb 04 84 9b bd
       0.005851157 -0.010324954 -0.0037794574 -0.07593539
000280 30 8e b3 3d da 46 56 bc 3d 59 06 bd 53 2c e7 bd
       0.087673545 -0.013078416 -0.032799948 -0.11287751
000290 39 c0 c4 bb f7 80 af bc 6a 57 b5 bc 1a bd 88 3d
       -0.00600436 -0.0214238 -0.022136409 0.06676693
0002a0 50 a4 f5 3b c5 5f 5b bd e5 6a 27 bd bd 3b 80 3b
       0.007496394 -0.05355813 -0.040873427 0.0039133714
0002b0 15 79 56 3d 12 ce 0e bd 5f 09 62 bd 37 65 12 bd
       0.052361567 -0.034864493 -0.05518472 -0.035741057
0002c0 19 56 a8 bd ba 5a 5a 3c 4f 0b 40 3d 4f 40 c9 bd
       -0.08219547 0.013327295 0.046885785 -0.09826719
0002d0 5d 88 7c 3c 81 5e c9 3c 90 ce 79 bc 78 2b 52 bc
       0.015413371 0.024581196 -0.015247002 -0.012827747
0002e0 aa 0b 28 3d a8 5a 0b 3d a6 a8 f5 3b 02 49 09 bd
       0.04102675 0.034022003 0.007496911 -0.03351689
0002f0 27 c6 4b bd bf e3 b7 bd 49 a2 ea bd c2 41 b5 bc
       -0.04974952 -0.08978986 -0.11456735 -0.022126082
000300 98 43 ed 3c ed 79 8e 3d 0d 5d 0f bc 5f 1e a2 bc
       0.028962895 0.06956849 -0.008750212 -0.019789873
000310 7c dc 11 bb ce b7 2c bc d9 4c a3 bc af 13 5c bb
       -0.0022256663 -0.010541869 -0.019934105 -0.0033581068
000320 96 6c b1 bd 62 af 26 bd ce f2 52 3d 25 95 94 3c
       -0.08663289 -0.0406946 0.051501088 0.018137524
000330 ef 48 87 bc ab 94 fc bd 52 7f 8c bd 66 49 ac bd
       -0.01651427 -0.12333044 -0.06860222 -0.08412437
000340 d9 ed af bd 73 7d 0d bc 73 fc 56 3d 74 3c 1c 3d
       -0.08590288 -0.008635866 0.052486848 0.03814359
000350 9e f7 d5 bd 6d e7 97 bd 46 91 05 bd 05 e6 93 3d
       -0.1044762 -0.07417188 -0.032609247 0.07221607
000360 91 30 d5 bc bf 02 a8 3c cf 63 3a bd ea 94 93 bd
       -0.026024135 0.020509122 -0.04550534 -0.072061375
000370 f2 cc c3 bd 4e e3 45 3d cf 5f d4 3c 3a e3 97 bc
       -0.095605746 0.048312478 0.025924591 -0.018540967
000380 2e 42 d5 bd ba 6c 87 3c 3b df 5b 3d b4 4c e5 bb
       -0.104130134 0.016531337 0.053679686 -0.006997669
000390 79 1a c1 bd 01 4c 56 bd 05 4c d6 bd 67 c4 87 3d
       -0.094288774 -0.052318577 -0.10463718 0.06629258
0003a0 b4 1e 8e 3d 12 d3 84 3d 43 0d 5e 3d 73 84 14 3c
       0.0693945 0.06485571 0.054211866 0.0090647815
0003b0 5e fa 1a ba 0b 28 98 bd 8a ff ce bd f8 e4 b7 bd
       -0.00059119414 -0.074295126 -0.10107334 -0.08979219
0003c0 7b cc f8 3c e6 fb 44 bd c4 dd f9 bc b4 81 84 bd
       0.030370941 -0.04809179 -0.030501254 -0.064700514
0003d0 6f 49 e0 bc 35 be c3 bd 46 f8 2e bc ce e0 91 3d
       -0.027378766 -0.095577635 -0.01067931 0.07122956
0003e0 0c de a7 bd 1c ee 68 ba e2 57 c9 bd 85 06 da bd
       -0.08196649 -0.0008885579 -0.098312154 -0.10645775
0003f0 ce 0c ed bc e6 e1 5d bd 28 cb 4b bd 5e 09 d0 bd
       -0.02893677 -0.05417051 -0.04975429 -0.10158037

lstm.weight_hh_l0 f4 [512, 128]
000000 a4 77 cf 3c 3c e2 72 bd fa 94 c6 3d c8 9c 19 3d
       0.025325604 -0.059297785 0.09696384 0.037503034
000010 e8 e7 b2 bd d2 20 a7 3d 76 60 88 bd d3 41 d0 bc
       -0.08735639 0.08160557 -0.066590235 -0.025422012
000020 ac 7d 8a bc 2b fe 39 bc c8 7e ce 3c a1 13 f3 3c
       -0.016905628 -0.011352102 0.025206938 0.029672446
000030 38 c1 6a 3d 47 15 f0 3c 9b 26 c6 bd 37 94 1d 3d
       0.057313174 0.02930702 -0.09675332 0.038471427
000040 28 4d 20 3d 0a f4 ba 3b e9 eb 62 bd 98 97 8b bd
       0.039136082 0.0057053613 -0.055400763 -0.068160236
000050 3d dc 78 3d 1e c7 93 bd 19 42 08 3d ae 44 ab 3d
       0.06075691 -0.07215713 0.03326616 0.08362709
000060 c9 ef 92 3d 19 d2 83 bc 6e aa 1b bd 94 da a2 3d
       0.07174642 -0.016091393 -0.03800433 0.07951847
000070 f0 ff 80 3d cb 71 8f 3d 8c 02 87 3d 6d 54 74 bd
       0.06298816 0.07004126 0.06592283 -0.059650827
000080 73 94 06 3b cd d8 a7 bd 30 d3 1f 3d e7 91 02 3d
       0.002053526 -0.08195648 0.039019763 0.031877425
000090 00 db a3 bd 29 16 75 bc e2 23 82 bb 71 6b b2 bc
       -0.08000755 -0.014958897 -0.0039715627 -0.021779748
0000a0 99 58 3a 3d 87 9a 87 bd 3f 45 14 bd f5 79 39 3d
       0.04549465 -0.066212706 -0.03619885 0.045282323
0000b0 c9 e4 8e 3d d3 6e 67 bd 41 17 82 3d d5 fb 3e 3d
       0.06977231 -0.056502175 0.063520916 0.046626884
0000c0 d7 e0 b7 3d 9d fd fb bb 19 5f 9b bd 70 e5 ba 3c
       0.08978432 -0.007690145 -0.07586498 0.022814482
0000d0 a1 6f d3 3b 4c 25 1e 3d 29 24 5b 3c ba c9 84 3d
       0.006452516 0.038609788 0.0133753205 0.06483789
0000e0 95 ad b2 ba 12 9f bd bc 50 db 29 3c 48 5b 82 3d
       -0.0013632054 -0.02314714 0.01036723 0.06365067
0000f0 2e a3 28 3d ab b4 76 bd 0d e8 85 3c 8f 3f 91 3d
       0.041171245 -0.060230892 0.016346002 0.07092201
000100 ed 1a 88 3d 85 d0 8c 3c 06 d1 c9 bd db 35 2f 3d
       0.06645761 0.017189274 -0.09854321 0.04277597
000110 5c 5e fc 3c 4c 5d 4e bd 71 c2 8e bc 60 6c b0 bb
       0.030806713 -0.050381944 -0.017426701 -0.005384013
000120 69 ca 83 3d 47 1a 86 bd b7 ea 31 3a 20 a3 21 3d
       0.06435091 -0.06547981 0.00067869894 0.03946221
000130 94 30 93 3d b9 85 4b 3d 4f 05 89 3d 30 d8 b1 bd
       0.07187 0.049688075 0.06690466 -0.086838126
000140 e8 67 b6 bb 05 13 58 bd a6 66 4a bc b2 b3 a2 3d
       -0.005566586 -0.052752513 -0.012353575 0.079444304
000150 1a 36 a3 3d e8 ae 58 3d f5 94 2d bd b8 dc 03 bb
       0.079693034 0.05290118 -0.042378385 -0.0020120572
000160 36 6a 77 3d de 50 1e 3c ec 05 94 bd 21 56 aa 3d
       0.060404025 0.009662835 -0.07227692 0.08317209
000170 51 fd 95 bc ba c9 94 3d 5e 65 86 bc 06 00 22 3d
       -0.018309267 0.07265039 -0.016405758 0.039550804
000180 38 ee 89 bc f8 bb 68 bd 58 1c 98 3b f9 04 ab 3c
       -0.016837224 -0.056819886 0.0046420507 0.020876395
000190 a3 53 ec bc b1 c6 78 3d 0a fa 97 bd cd 3a 22 bc
       -0.028848475 0.060736362 -0.07420738 -0.0099017145
0001a0 54 1d a3 bd 11 fd 28 bd 76 af a0 3d cd b0 a3 3d
       -0.07964578 -0.041256968 0.078459665 0.079927064
0001b0 35 a8 44 bd e5 47 19 3d d1 60 86 3d f6 a1 63 bd
       -0.048011977 0.03742208 0.06561435 -0.05557438
0001c0 59 f1 b8 bd b3 00 87 3d b8 56 8c bd be 73 b4 3c
       -0.090304084 0.0659193 -0.06852478 0.022027846
0001d0 fd 5c a1 3d 81 48 ab bb 09 af 0d 3d 93 6f 68 3d
       0.07879064 -0.005227149 0.034590755 0.05674703
0001e0 73 6f 60 3d df 76 3c bd 26 2e 0d bd d3 21 c0 bd
       0.054793786 -0.0460118 -0.03446784 -0.093814515
0001f0 a7 b0 37 bd 79 a0 3f 3d ec dc 54 3d 87 c4 e4 bc
       -0.044846203 0.046783898 0.0519685 -0.027925743
000200 66 34 23 3d d3 f9 af bd cb ce db bb 59 b7 96 bd
       0.039844893 -0.08592572 -0.0067080013 -0.073591895
000210 e9 aa e5 ba 3a 7f ca bc b6 f8 98 bd 93 b9 c9 bd
       -0.0017522249 -0.02471887 -0.07469313 -0.098498486
000220 f5 f4 ac 3c ee f0 cd bd f7 35 e0 bc ab 3e 7a bd
       0.021112898 -0.10055719 -0.027369482 -0.06109492
000230 d0 f4 2c 3d cb 09 1e bd 5d d5 54 3d f3 5b 78 bc
       0.04222566 -0.038583558 0.05196129 -0.015158641
000240 61 50 24 ba ac e8 0b 3e 2f dc c4 bd a1 fa d7 bc
       -0.0006268081 0.13662976 -0.09612309 -0.026364626
000250 dc 93 5c 3d be 18 3a bd 4c 63 1c bb f7 24 6d bd
       0.053851947 -0.045433752 -0.0023862896 -0.05789658
000260 b8 a7 59 bd 1a fa 56 bd 0b 3f a4 bc 0c 68 8e bd
       -0.053138465 -0.05248461 -0.020049592 -0.06953439
000270 87 3c ad bc ac 13 cb bb 14 84 92 3b 35 d5 6f bd
       -0.021147026 -0.0061974134 0.0044713113 -0.05855294
000280 cd 90 36 3c c6 af c5 bd 79 25 22 3d 4f 53 82 3c
       0.011142922 -0.09652667 0.039586518 0.015908865
000290 1b 2c c4 3d 0b ec 88 3a a6 6b 13 3e cb 2b 48 bd
       0.09578725 0.0010446323 0.14396533 -0.04886989
0002a0 a0 b8 96 bc ca ae c1 bd cc aa 2b bc ab 52 e0 bd
       -0.018398583 -0.094571665 -0.010477733 -0.10953268
0002b0 30 8e 1c 3d 21 61 cc bd 34 bd b4 bc 09 25 83 bd
       0.038221538 -0.09979463 -0.022062875 -0.06403548
0002c0 5b f2 8d 3d 70 da 7a bd 19 27 04 bd 29 eb 51 bc
       0.06930991 -0.061243474 -0.03226385 -0.012812414
0002d0 3c a3 1e be 9a 31 8f 3d 4d 20 6c 3d 35 a9 59 3c
       -0.15491956 0.069918826 0.057647992 0.013284971
0002e0 2d 57 c3 bd 1e 43 7b 3c 47 38 15 be c5 49 e1 bd
       -0.09538112 0.015335826 -0.1457225 -0.110003985
0002f0 89 0a cf bd c1 be 2e 3e 75 6d 25 bc c7 20 0c 3d
       -0.10109431 0.17064954 -0.010096897 0.034210946
000300 fe 71 8f 3a 54 03 b1 3c a1 44 f0 bd 45 5a 98 3d
       0.0010944006 0.021608032 -0.1173184 0.074390925
000310 6c e9 e7 3b 7b 99 69 bd 1c 6b 2f be 69 55 80 3d
       0.0070773866 -0.057031136 -0.17130703 0.06266291
000320 aa 73 e7 3c 0b 06 a6 bc b1 a8 54 3c ba dc c2 bc
       0.028253395 -0.020266553 0.012979672 -0.023786891
000330 ea a9 84 3c 48 90 08 3e 5e b6 d9 bb b2 e3 d8 3c
       0.016194303 0.13336289 -0.0066440543 0.026475761
000340 25 e2 34 bd 43 25 ac bc 2a 5b 4b 3c 04 d4 98 3c
       -0.04416098 -0.021013862 0.012411872 0.018655784
000350 ff a9 ef 3c 8c ff 65 bc 0b 71 18 bd 2e e6 f8 bd
       0.029255865 -0.014037978 -0.03721718 -0.12153278
000360 74 35 e2 3d 7c 4d 8f 3d 35 e7 5f 3d 6f 83 b3 3a
       0.110453516 0.06997201 0.054663856 0.0013695786
000370 52 c2 06 3e 3a f1 eb bd 7b 4a e7 bd 64 f1 38 bd
       0.13160065 -0.1152062 -0.11293503 -0.045152083
000380 b3 0e b5 bd c0 43 69 bd 0f a6 96 3b cd b8 b4 bd
       -0.08840694 -0.056949377 0.0045974324 -0.088243105
000390 8a 0e c4 bc 16 04 6c bd cc 66 77 3d e1 ac 7e 3c
       -0.023932714 -0.057621084 0.06040077 0.015544147
0003a0 0e b8 28 3d 6e ac 70 bc d2 ae 0e bd 52 8e db 3c
       0.041191153 -0.014689548 -0.03483469 0.026801262
0003b0 03 83 96 3c 23 93 77 bd b4 49 cf bd 65 92 9a bc
       0.018373018 -0.060443055 -0.1012148 -0.018868634
0003c0 39 03 65 3d 98 6f 19 be 0a 4e 03 3d 20 0d ae bd
       0.055911276 -0.14983976 0.032056846 -0.08498597
0003d0 55 3a 12 3d bd e5 db 3d 83 31 78 3c 95 44 70 3c
       0.03570016 0.107371785 0.015148523 0.014664789
0003e0 0a 5d fc 3c c8 61 44 bd 87 de 19 bd f0 1f 62 bb
       0.030806083 -0.047944814 -0.037565734 -0.00345039
0003f0 3a 30 14 bd 73 5f 2f bc 2b cb ce bd 12 00 c7 3d
       -0.036178805 -0.010703909 -0.10097345 0.0971681

lstm.bias_ih_l0 f4 [512]
000000 5e d1 5d bd 01 3b 3b 3d 56 83 b5 bd 0f 3b 5f 3d
       -0.054154746 0.045710567 -0.08862941 0.054499682
000010 be 2e 81 bd f0 43 66 bd 9c aa 86 bc c2 0b 7d bc
       -0.063077435 -0.056217134 -0.016438775 -0.015444698
000020 e3 bf 93 bd 5f b0 a5 bd 0e 24 d2 bd 2f 73 91 3d
       -0.07214334 -0.08090281 -0.10260783 0.07102048
000030 cf f2 00 be 05 50 78 3d 39 40 e7 bd a6 be 2e 3d
       -0.12592624 0.060623188 -0.112915464 0.042662285
000040 86 a8 d8 3c 64 10 5b 3b 4a 7b f1 bd 78 33 12 3d
       0.026447546 0.0033426518 -0.11791094 0.035693616
000050 21 b4 9b bd d0 1d b8 bd 5a ca ae bd e7 16 7a bc
       -0.07602716 -0.08990061 -0.08534689 -0.015264249
000060 a1 30 2b bd 6f 6a 04 bd 17 41 45 bc 67 c1 89 bd
       -0.041794423 -0.032328065 -0.012039444 -0.06726342
000070 7a 38 c9 3c 3e 8b 12 3d b4 e3 cd bd e2 38 13 3c
       0.024563063 0.035777323 -0.100531965 0.00898573
000080 8c 19 9a bb a8 23 f4 3c 95 84 18 3d 09 94 7c 3c
       -0.0047027525 0.029802158 0.037235815 0.015416154
000090 63 7d 80 bc b4 ab aa 3c 6e d5 80 bd 8a da 45 bd
       -0.015684789 0.020833828 -0.062907085 -0.04830412
0000a0 e1 9f 80 bc cd 22 03 3d 54 16 80 bd c6 46 98 3c
       -0.015701236 0.03201561 -0.06254259 0.018588435
0000b0 a4 29 5f bd dd 13 70 bd 94 d7 26 bd 09 71 ef bc
       -0.05448307 -0.058612693 -0.040732935 -0.029228704
0000c0 be fc e1 bd ed 9a 61 3d 79 2a bb bd 2d 55 b6 bb
       -0.11034535 0.05507939 -0.091389604 -0.005564353
0000d0 9d 86 b9 bb fe 1c 28 3e 3c c6 d5 bd 01 fd 9c bc
       -0.005661799 0.1641731 -0.10438201 -0.01916361
0000e0 cc 33 c8 bd 8f ce a2 3d 40 ed 00 3e d6 ea b7 bd
       -0.097755045 0.07949554 0.12590504 -0.08980338
0000f0 46 45 2b bc 2a 53 4b 3c 80 7f 11 3d c2 18 5e bc
       -0.010453528 0.012409965 0.035521984 -0.013555707
000100 e8 c2 82 3d 9b 3c 6c bd b6 3a 4b 3d ec 16 95 bd
       0.06384832 -0.057674985 0.049616538 -0.072797626
000110 dc 0f 64 3d 80 48 8f bc d1 e0 82 3d 5e ba 3e b9
       0.055679187 -0.017490625 0.063905366 -0.00018189239
000120 cd 9f b1 bd 72 ce b3 3d a5 db 7c 3d 7e eb a1 bd
       -0.08673058 0.08779611 0.061732907 -0.07906245
000130 26 0d 2f bd 3e e9 67 3d 26 6f 72 bd 10 2d b9 3d
       -0.04273715 0.05661892 -0.05918803 0.09041798
000140 fa 0a 18 bd 88 f8 73 bd ae dd 88 bd a6 51 b2 bd
       -0.037119843 -0.05956319 -0.06682907 -0.087069795
000150 94 c4 00 bd 02 bb 77 bd 31 0a e3 bd 86 1b 69 bb
       -0.03143747 -0.06048108 -0.11085928 -0.0035569384
000160 91 3c c8 3d 80 a9 11 3d fc bf 6b bc 6a 06 8a bd
       0.09777177 0.03556204 -0.014389034 -0.06739505
000170 6f a2 6f bd 8c df bb bc 45 71 84 3d db d5 b5 bd
       -0.058504518 -0.022933744 0.06466917 -0.0887868
000180 2f 62 91 bc ec 28 f3 3c d4 11 79 bd a4 51 11 bd
       -0.017747013 0.029682599 -0.060808018 -0.03547825
000190 94 23 05 3d 8e 04 08 bc a7 68 7d bd 76 b7 9c 3d
       0.032504633 -0.008301867 -0.061867382 0.0765218
0001a0 27 e6 d9 3c df 14 95 3d dc 61 8d bc 07 9b 21 3d
       0.026599003 0.072793715 -0.017258577 0.039454486
0001b0 bb 98 83 3c 89 20 ad bd 90 0a c3 bd 55 93 0e be
       0.016064039 -0.08453471 -0.09523499 -0.1392339
0001c0 da 73 8c bd 82 7b 58 bb 52 be 29 3d 5e ec 5f bc
       -0.068580344 -0.00330326 0.04144127 -0.013667194
0001d0 be d1 28 3b e3 11 41 bc 39 0c 26 3d 12 a0 cf 3c
       0.0025759782 -0.01178405 0.040539 0.025344882
0001e0 94 b4 4b bd c0 fb 50 bd 2b 00 b6 bc d8 bd 0d bd
       -0.04973276 -0.051021338 -0.022216877 -0.034604877
0001f0 ba c4 32 ba 71 83 59 bd ce 0b 84 3c ff 41 79 3d
       -0.00068194757 -0.053103868 0.01611891 0.060853954
000200 4f 64 23 3d 68 3b b3 bd e3 ca d0 bb e2 a8 e0 bc
       0.039890584 -0.08751565 -0.006371842 -0.02742428
000210 87 37 97 bd f9 ea a5 bd 53 f4 9b bb 64 12 d7 bc
       -0.07383638 -0.08101458 -0.0047593503 -0.026253887
000220 f2 da c0 bb 5d fa 73 bd 86 33 13 3c 45 de 30 bd
       -0.0058854753 -0.059564937 0.008984452 -0.043180723
000230 31 1e dd bc 70 59 43 bd b6 53 d1 3b 9c ce f8 3d
       -0.026991935 -0.047692716 0.006388153 0.121487826
000240 07 bc b4 bd 53 96 3f 3d 31 40 d6 bd ee af be 3d
       -0.08824926 0.04677422 -0.10461462 0.093109
000250 6b f8 9b bd d6 73 e7 bd 8a 46 7e bd b9 cc 90 bd
       -0.07615741 -0.11301391 -0.06207899 -0.07070298
000260 c3 de 96 3d 65 86 6e 3c 12 f8 b2 bd e4 58 c4 bd
       0.07366707 0.014558409 -0.08738722 -0.09587267
000270 fb e0 3d bb 5d 0e a0 3b 5b 68 8b bd f6 f4 57 bc
       -0.002897321 0.0048845247 -0.068070136 -0.013180962
000280 12 ad 8e bd 50 15 36 3d 1b 01 8c 3d 78 31 d7 bd
       -0.06966604 0.04445392 0.06836148 -0.10507482
000290 a6 8d 2f bd b0 1f ad 3d 67 2a be bd 07 25 a5 bd
       -0.042859696 0.084533095 -0.09285431 -0.08063703
0002a0 58 7d 39 bc a1 cd bd bc dc f6 82 bb 58 6e 6c bd
       -0.011321388 -0.02316934 -0.003996713 -0.05772242
0002b0 dc 47 75 3d f8 8b 30 3d 14 35 9e bd 9e d4 00 3c
       0.059882984 0.043102235 -0.077249676 0.007863192
0002c0 a0 ba 99 bd 0a 4d 05 bd 02 5a a4 3a 48 12 fd 3c
       -0.07506299 -0.032544173 0.0012539031 0.030892506
0002d0 76 d6 fc bd 0d 22 b1 bc 9f 0c a8 bd 1d 9c 82 3d
       -0.12345593 -0.021622682 -0.08205532 0.063774325
0002e0 e7 e1 3d 3d a1 9f af bb cd ed ac bd e6 2d cf bc
       0.046358015 -0.0053596054 -0.084437944 -0.02529044
0002f0 98 b4 98 bc f4 bf 6b bd c0 da 16 bd 15 ab 5a bd
       -0.018640801 -0.057556108 -0.03682971 -0.053385813
000300 a5 95 ab 3c 01 e9 a3 3c 91 c6 62 3c 88 8e 71 3d
       0.02094538 0.020008566 0.013841287 0.05897382
000310 23 ef 4c 3a 87 5c d6 bc 68 d8 68 3d f9 38 83 bd
       0.00078176166 -0.026167167 0.056847006 -0.06407351
000320 12 51 04 be 7f e3 0f 3b ac 19 32 bd ca 4e 4f 3d
       -0.12921551 0.0021955667 -0.043481514 0.05061225
000330 8c af ff 3c fb 18 4a bd d1 0e 85 3d 64 ef 92 bd
       0.031211637 -0.04934023 0.06496967 -0.071745664
000340 1d 0e d8 bc c2 37 62 bb 72 20 ac 3d f9 84 d5 bd
       -0.026373917 -0.0034518098 0.08404626 -0.10425753
000350 eb ed 54 bd 35 91 5f bc 83 85 f5 bc 15 fe 71 bc
       -0.05198471 -0.01364546 -0.02997089 -0.0147700505
000360 a6 13 f4 bc 19 b6 0a bd b8 77 94 3d c9 f8 16 bc
       -0.029794525 -0.033865068 0.07249397 -0.009214588
000370 e0 6b e8 3b a9 b9 56 bd 19 f6 72 3c e6 85 fc bc
       0.007092938 -0.052423153 0.014829182 -0.030825567
000380 d2 f8 34 bd 83 8a 43 3d fe 10 1d bd 5e 41 5b bc
       -0.044182606 0.047739517 -0.038346283 -0.013382284
000390 85 55 6e bd 64 d0 9d 3d 05 97 b6 bd 76 e7 c1 3c
       -0.058187027 0.07705763 -0.089155234 0.02366994
0003a0 d4 22 ab bd 47 b6 10 3d c6 47 ab bd 88 66 80 bd
       -0.08356252 0.035330083 -0.08363299 -0.06269556
0003b0 f3 34 a7 3d 90 f8 bc bd 91 73 5a bc a2 0d e2 bd
       0.08164396 -0.09227097 -0.013333217 -0.110377565
0003c0 03 90 52 3d de 1f e7 3b 63 82 91 bd dc f0 f9 3c
       0.05140687 0.0070533594 -0.071049474 0.030510359
0003d0 93 f2 92 bd 04 ac 62 bd 79 dc a5 bc 57 22 98 3d
       -0.071751736 -0.055339828 -0.020246731 0.07428425
0003e0 97 5d 8f bd bc d1 67 bd 43 ed e1 bc 57 7f 04 be
       -0.07000273 -0.056596503 -0.027578956 -0.12939201
0003f0 ea 24 55 bc 12 c1 d4 bd 87 6c 68 bc 26 75 87 bd
       -0.013009289 -0.10388388 -0.014186031 -0.06614141

lstm.bias_hh_l0 f4 [512]
000000 5a 19 b6 3c 82 3a 5c 3c 36 ae 2e bd 51 05 e7 bc
       0.022228885 0.013441684 -0.04264661 -0.028200777
000010 6d 10 8d bc e9 84 90 3d 91 0b a6 3d f7 9d fe bd
       -0.017219746 0.070566006 0.08107675 -0.12432473
000020 6d ec a4 bd 01 7c 98 bd 8b b0 42 bd 43 be 18 bd
       -0.08052907 -0.07445527 -0.047531646 -0.037290823
000030 8a 04 00 bb 78 1b be bd 95 1b 61 3d b3 27 1a bc
       -0.0019533955 -0.09282583 0.054957945 -0.009408879
000040 d0 fc 51 3d 9a 88 22 3d 48 fe 4d bd 60 3f 99 3d
       0.05126649 0.039681055 -0.05029133 0.07482791
000050 3b 51 43 bc f8 96 56 3d 7c 21 3d 3d b2 98 88 bd
       -0.011921222 0.05239007 0.04617451 -0.06669749
000060 1d 5d c6 3d e7 ef 7c bd 9e ad 6f 3d f3 29 32 3d
       0.09685729 -0.061752226 0.058515184 0.043497037
000070 5f 21 ce 3d 43 85 e0 bc 83 81 98 bd 03 fd 2f bd
       0.10064959 -0.027407294 -0.074465774 -0.0429659
000080 4a 50 aa bd e6 ce 8b bc 9f 54 a5 bd 99 bd b7 3c
       -0.08316095 -0.01706643 -0.08072781 0.022429274
000090 f9 a3 12 bd 66 d9 91 3d ab 00 a9 bd f1 bc 86 bd
       -0.035800908 0.071215436 -0.082520805 -0.065790065
0000a0 e0 df 3c 3d 31 bc c1 bd c0 2a 8b 3c 2e 46 33 3d
       0.04611194 -0.09459723 0.016988158 0.0437681
0000b0 09 ed 97 bd 8d 43 a2 3c a7 bf 85 3d 58 74 97 3d
       -0.07418258 0.019807601 0.065306954 0.07395238
0000c0 4f e1 3c bd 2d 94 71 3d c3 ff 9e 3d 13 79 9e bd
       -0.04611331 0.058979202 0.077636264 -0.07737937
0000d0 c3 26 d1 bc 07 19 15 3e e0 fa 93 bd c5 ed ae 3c
       -0.025531178 0.14560328 -0.07225585 0.021353612
0000e0 16 53 80 3c 06 e2 ca 3c 28 5e f2 bb 3d b4 ab ba
       0.015664618 0.02476598 -0.007396478 -0.001309998
0000f0 2c e8 a5 bd 42 7f 55 bd 8b 54 c7 bc bd f9 95 bd
       -0.08100924 -0.052123316 -0.024332305 -0.073230244
000100 d9 2c 9e 3d 69 9d de bd 4e e0 c3 bd 80 5a be bd
       0.07723398 -0.10869867 -0.09564267 -0.09294605
000110 75 26 57 bd 62 40 32 3d d9 95 75 bd 18 f7 42 3d
       -0.05252691 0.04351843 -0.05995736 0.04759893
000120 9b 1c 0c bd 87 bf 7e 3d 7d 07 d8 b9 40 cb b2 bd
       -0.034206968 0.062194373 -0.0004120431 -0.08730173
000130 ac a3 6e 3d 3f 37 2a bb 84 31 13 bd af 39 83 3c
       0.05826156 -0.002597287 -0.035935894 0.016018717
000140 e6 17 bb 3d 6f 9e b0 bd 31 7e 8b bd 47 fe 01 bd
       0.09135418 -0.08623969 -0.068111785 -0.03173664
000150 20 35 61 3c 1e fe a3 bc 66 b5 d5 bd c0 37 d7 bd
       0.013745576 -0.020018633 -0.1043499 -0.1050868
000160 86 2c 96 bc 70 85 b6 bd 3d cc 88 3d 6f 78 11 bd
       -0.018331777 -0.0891217 0.0667958 -0.035515245
000170 39 74 93 bd fc ae 64 bd 32 a3 91 3d f8 e9 92 bc
       -0.07199902 -0.05583094 0.07111205 -0.01793383
000180 e7 93 16 3d 82 64 ad bd 06 bd 34 bd 67 f1 4c ba
       0.036762144 -0.08466436 -0.04412558 -0.0007817954
000190 ae 01 a7 3d 33 9e 63 bd 79 02 54 bd b5 13 ab 3c
       0.08154617 -0.055570792 -0.05176017 0.02088342
0001a0 2c f7 22 bd 6f 05 96 bd ec 4a 71 3d 5f 9a b2 bb
       -0.039786503 -0.07325255 0.05890934 -0.0054505314
0001b0 9d 69 45 bd 80 c2 c2 3b 06 39 8b 3d b5 6d 6a bd
       -0.048196424 0.0059435964 0.06797986 -0.05723353
0001c0 9f 3a a4 bd c2 19 cd 3c 87 44 8e bc f1 9c 75 bd
       -0.080189936 0.025036696 -0.01736666 -0.059964124
0001d0 d5 61 8e bd a3 28 b3 bd 18 b8 cc bc 79 5e 84 3d
       -0.06952254 -0.08747985 -0.024990126 0.06463332
0001e0 85 04 42 3d 92 72 d0 bd 67 70 95 3d 67 23 87 bd
       0.04736759 -0.101781026 0.0729683 -0.06598549
0001f0 79 22 8a bd 56 8a 66 bc 7f 55 50 bd 9c 2e 3f bc
       -0.067448564 -0.014071068 -0.050862785 -0.011668827
000200 43 74 92 3d 9c 09 ac 3c 5a 79 ce bc eb 51 9c 3b
       0.071510814 0.021000676 -0.02520435 0.0047705076
000210 a2 68 e4 3b 03 6c ee 3c 55 78 9b 3c 0c 80 cd bd
       0.006970481 0.029104238 0.018978277 -0.10034189
000220 67 2b a4 ba c2 42 97 3d 6a 66 24 bd dc d1 21 bd
       -0.0012525142 0.0738578 -0.040136732 -0.039506778
000230 25 87 fd 3c bb b7 8c bd 66 20 7b 3d c6 6e 07 3e
       0.030948231 -0.06870981 0.061310194 0.1322585
000240 94 cc 05 3d f8 aa ad bc 77 2f 2e 3d 04 b1 ee 3a
       0.032665804 -0.021199688 0.042525735 0.0018210714
000250 be 2d 4f 3d f1 fc d7 bd c2 e9 82 bd 10 c6 a4 3c
       0.050580733 -0.105462916 -0.06392242 0.020113975
000260 4b 92 31 3d 1a 9b 45 3d 32 60 14 3d 00 f0 d7 bd
       0.043352406 0.04824362 0.03622455 -0.10543823
000270 d6 c7 c6 3d 93 dc ab bd 3f f1 06 3d 8a 66 d5 bd
       0.097060844 -0.083916806 0.032944914 -0.104199484
000280 4d 80 54 bd 97 f9 c8 3b bf 6e 74 bd ba df 3a 3d
       -0.05188017 0.006133269 -0.05967593 0.04562352
000290 90 c1 a8 bd 18 20 8c bd 36 1a cc bd 72 f4 5f 3d
       -0.08240044 -0.06842059 -0.09965937 0.05467648
0002a0 98 f0 35 3d 2b cb cb bc 8a 5b ab bd b4 13 74 bb
       0.0444189 -0.024877151 -0.08367069 -0.003724319
0002b0 40 3c d3 3c 2d c3 2c bd 1e d5 50 3d bd 4a 7e bd
       0.025785565 -0.04217832 0.050984494 -0.062082995
0002c0 a9 48 6d bd ff dd 92 3d bc e8 1a bd cb 7a 83 3d
       -0.057930622 0.07171249 -0.03781961 0.06419905
0002d0 94 5a 49 3c 9b 87 1f bc c3 16 84 bd 21 eb 43 bd
       0.012289662 -0.009736921 -0.06449654 -0.04783166
0002e0 61 4d 14 3d 3b 95 4b bc 7c 4e ba bc 9e a8 4d bc
       0.036206607 -0.012425716 -0.022742502 -0.0125524085
0002f0 cd de 50 bb 17 61 ae bd dd 25 58 3c 0c a5 01 3d
       -0.003187108 -0.08514612 0.013192621 0.03165154
000300 75 d6 af 3b ee 58 9c bd ba 42 9d bd f2 1f 6e bd
       0.0053661414 -0.076341495 -0.07678743 -0.058135934
000310 86 ce 59 bd b2 a9 24 bd b9 d0 60 3d f1 b7 78 bd
       -0.05317547 -0.040200897 0.054886553 -0.060722295
000320 ba 06 cf bd c6 9e c3 bc bd 6d 1d 3c 05 85 82 3d
       -0.10108705 -0.02387942 0.009608683 0.06373028
000330 3a d7 d5 3c 97 59 83 bd 51 d6 85 bd a7 d8 aa bc
       0.026103605 -0.06413572 -0.06535018 -0.020855261
000340 61 f3 ab 3d 7d b4 ed 3c 9c 50 67 3c cf 5d 6f 3c
       0.0839603 0.029016728 0.01411834 0.014609768
000350 dc 38 b8 3d 59 26 96 3c 5d dc 82 bb c6 9c da bd
       0.0899522 0.018328832 -0.0039935545 -0.106744334
000360 45 a1 9c bc 40 f2 8f bd 7c d6 9e bd ec 6e 2c bd
       -0.019119868 -0.070286274 -0.077557534 -0.04209797
000370 a8 73 83 bd cd de 32 3d f0 97 2a 3d 50 56 c7 bb
       -0.06418544 0.04366951 0.041648805 -0.0060832873
000380 54 7f 89 3c 14 79 cb bd 0f 59 aa 3c 9f 4e ab bd
       0.016784348 -0.09935203 0.02079442 -0.08364605
000390 cd 12 fd bc 48 da 41 ba 5d 77 64 bd 85 58 19 3d
       -0.030892754 -0.0007394892 -0.055777896 0.037437934
0003a0 86 67 0f 3d 94 60 b2 3d a1 ae 59 bd af 92 b1 bd
       0.035010837 0.08709827 -0.053145055 -0.08670556
0003b0 94 09 8d 3d 63 3a ad bd 48 d4 3e 3d 77 c6 66 3c
       0.068865925 -0.08458402 0.046589166 0.014085404
0003c0 a0 7a 7b bd 6b b1 c7 3d 17 24 65 bd 99 58 1b bd
       -0.06139624 0.09750637 -0.05594262 -0.03792629
0003d0 fb 91 92 3d fe 9e d2 bd 62 7c 53 3c 6d 80 8f 3d
       0.0715675 -0.102842316 0.012908073 0.07006917
0003e0 92 77 7d bc 1a e1 27 bd 6b 40 76 bd a7 83 34 bc
       -0.015470402 -0.040986158 -0.060120028 -0.0110177165
0003f0 85 32 7f bc 70 ae 57 bc e0 0d 84 3d 4f db 73 bd
       -0.01557601 -0.013164148 0.06447959 -0.05953532

lstm.weight_ih_l1 f4 [512, 128]
000000 72 1f 3d 3d 2c 0d 51 b8 15 cd 2b bb d3 a2 72 bd
       0.046172567 -4.984175e-05 -0.0026214768 -0.059237313
000010 fe 23 01 3d 67 d6 99 bd 68 8b 32 3d 86 db 38 ba
       0.031528465 -0.07511597 0.04358998 -0.00070517545
000020 d7 5a c1 3c 70 d4 6c bd e2 32 92 bd 33 e7 d8 bc
       0.023602886 -0.057819784 -0.071386114 -0.026477432
000030 46 0c 8c bc 4f 24 c2 3c dc 22 f7 3c 93 e1 8f 3c
       -0.017095696 0.023698954 0.03016799 0.017563617
000040 0c 42 84 3d 51 ea 1b 3d 4e 82 94 bd 30 c7 ab bd
       0.0645791 0.03806526 -0.07251416 -0.083876014
000050 8e 34 4d 3d 0a b2 6a 3d 38 ec 04 bc 8a dc e0 bc
       0.05009895 0.057298698 -0.00811296 -0.027448911
000060 3b 3d e3 bd 1f 02 6d 3b 23 06 0c 3d 77 6a b1 bd
       -0.11095663 0.0036164594 0.03418554 -0.08662885
000070 11 c2 f3 3c aa 89 93 bc 84 20 84 3d 57 d4 07 3b
       0.029755624 -0.01800998 0.06451514 0.002072593
000080 3d bc 86 bd 02 f7 8d 3b 29 18 37 bd 77 62 99 bd
       -0.06578872 0.004332424 -0.044700775 -0.07489484
000090 6c cf 92 3d 22 ac da bc ad 63 2b 3d f8 a1 fd bd
       0.07168469 -0.026693407 0.041843105 -0.12384409
0000a0 3d b9 0e bd 1b eb c0 3d c3 f3 85 bc 6c 89 f6 bd
       -0.034844626 0.09419843 -0.016351586 -0.1203793
0000b0 a7 dd 64 bd 30 ed 9a bc 31 34 89 bd 3d da 13 3d
       -0.055875447 -0.018911928 -0.06699408 0.0360968
0000c0 d0 d9 99 3d eb bf 1f bd 59 b8 c9 bd 67 58 c8 bd
       0.075122476 -0.039001387 -0.09849615 -0.097824864
0000d0 6c 27 1e bd 88 53 80 bd e0 a2 ec 3c 69 90 78 bc
       -0.038611814 -0.06265932 0.028886259 -0.015171149
0000e0 20 49 60 3c 6a 9d 38 3c 9d b0 ba 3b be b6 9c 3c
       0.013689309 0.011267999 0.0056973235 0.019130107
0000f0 9b 99 ab 3a e6 ad 9f 3c 14 1c 7a 3d 96 9b fe 3c
       0.0013092043 0.0194921 0.061061934 0.031080049
000100 a8 ed 1f bd c6 8a 52 bd d0 e0 fd bc f6 94 dc bd
       -0.039045006 -0.051401876 -0.030990988 -0.107705995
000110 1b 6d 33 bd 4b 08 a0 3d 75 4e 1c 3d bb b2 a8 bd
       -0.043805223 0.07814082 0.03816076 -0.08237215
000120 68 71 84 3d 66 85 ad 3d 85 7a b3 bd 32 2d ec bc
       0.06466943 0.08472709 -0.08763603 -0.028830145
000130 82 67 d0 3b 5a a4 bf 3c 6a 27 7f bd 4e e0 99 3d
       0.0063599953 0.023393799 -0.062293448 0.07513486
000140 6d 17 b3 3c c2 a3 23 3b 51 77 4b 3d f7 85 a3 3d
       0.021861756 0.0024969433 0.049674336 0.07984536
000150 e2 bd 24 bc 1e 72 a2 3d 5f cd a3 bd 03 9c 4a 3d
       -0.010055037 0.079319224 -0.07998156 0.04946519
000160 cd 77 38 3d ee ef 9f 3d fe 3b cc bc 4f f8 62 bd
       0.045036126 0.07809435 -0.02493095 -0.055412587
000170 38 6b 83 3d a5 42 13 bc 48 b1 bd 3c d3 1b 8b bd
       0.06416935 -0.008988057 0.023155823 -0.067924164
000180 92 e4 3f bd 3a 9f a9 bc f9 f3 a1 bd df a8 fe bc
       -0.04684884 -0.020705808 -0.07907862 -0.031086383
000190 83 2d 45 bc de 07 7f 3d 41 99 8b bd 4a fd 62 3d
       -0.012034777 0.062263362 -0.0681634 0.055417337
0001a0 47 58 81 bd 35 e0 dd 3d e9 f1 d0 bd 9d 57 0b bc
       -0.06315666 0.1083378 -0.10202391 -0.008504775
0001b0 28 37 6e bd 97 8e cb 3c 4b 39 44 bd 75 cc 93 bd
       -0.05815807 0.024848266 -0.0479062 -0.072167315
0001c0 c1 ad b3 3c 67 35 28 bd c9 ed 91 3d 40 0f 6c 3d
       0.021933438 -0.041066553 0.07125432 0.05763173
0001d0 61 11 61 bd e6 2b e2 3b 32 c8 83 bc aa 7a 8c bd
       -0.054948214 0.0069022058 -0.016086672 -0.06859334
0001e0 3d 04 3a bc 50 1e 31 ba 40 ae 5a 3d 1f f3 2b 3c
       -0.01135355 -0.0006756531 0.053388834 0.010494976
0001f0 ca cc 6a bd ea 5d 07 3c 74 a9 2a 3d 60 ea 7f bd
       -0.05732421 0.008262137 0.04166551 -0.062479377
000200 de e8 d9 3d 6a 7c d0 bd 55 56 93 3d be 78 56 3d
       0.10640119 -0.1017998 0.07194201 0.052361242
000210 17 50 ad 3d e0 36 2c bc aa 41 43 bd f9 dc b7 3c
       0.084625416 -0.01051113 -0.047670044 0.022444235
000220 0f e9 2c 3d 89 17 c6 bd 90 46 10 bc 9c d2 b6 bc
       0.04221445 -0.09672458 -0.008805886 -0.022317223
000230 af 5c 30 bd f3 86 9a 3d 1e 0a ab 3d d8 40 b9 3c
       -0.04305714 0.07545271 0.08351539 0.022613928
000240 30 44 d8 3c 44 f5 0d bb 60 af 89 3d f1 7f 98 3c
       0.026399702 -0.0021661082 0.06722903 0.018615695
000250 fd b1 85 bc a5 ff df 3d f3 1a 9b bc 0b 44 e2 3d
       -0.016320223 0.10937432 -0.018933749 0.110481344
000260 31 e5 bd ba f5 a4 ca bc 48 69 c5 bd f1 01 6f 3d
       -0.001448786 -0.02473686 -0.096392214 0.05835146
000270 b8 5a 92 3a c3 76 79 3c da 92 50 3d a4 6d bf 3b
       0.0011165952 0.015226069 0.0509213 0.0058419276
000280 87 4c 47 3d 46 45 c0 3b 55 74 49 3d 07 df d2 3c
       0.048656967 0.005867633 0.04918321 0.025741113
000290 1e c2 2d bd ae 91 4b bd 26 a0 84 3c b3 6e 93 bd
       -0.042421453 -0.049699478 0.016189646 -0.071988486
0002a0 42 75 e3 ba c9 fa 48 3d 4c b9 65 bd 7a 67 23 bc
       -0.0017353671 0.049067292 -0.056084916 -0.009973401
0002b0 00 2f 65 bd 1e ea 39 bc 7a bd 15 bd 72 b0 b4 3b
       -0.055953026 -0.011347322 -0.036557652 0.005514198
0002c0 ec 72 6c bd 3a d1 79 bd 10 91 02 be 50 e4 e0 bc
       -0.057726786 -0.06099055 -0.1275065 -0.027452618
0002d0 4b 27 26 3c 7b c4 b9 3d 2f b4 15 3d ad d4 ed bc
       0.010141204 0.09070679 0.03654879 -0.029032076
0002e0 8d d9 43 bd e7 9e b1 3d 74 24 12 3d b1 c6 8c bd
       -0.047814894 0.08672886 0.035679296 -0.06873835
0002f0 4e da 13 3b 04 47 16 bc b0 65 93 3d 67 47 d2 3b
       0.002256054 -0.009172205 0.0719713 0.006417203
000300 4c 65 72 bd 64 fb ef 3a 02 b5 97 bc 88 59 89 bd
       -0.059178635 0.0018309173 -0.018518928 -0.0670653
000310 38 75 ed 3c cd 2b 15 bd ac 71 26 bd 04 d6 03 be
       0.028986558 -0.036418725 -0.04063575 -0.12874609
000320 d9 1a c0 bd c4 73 16 3e e3 40 84 3d ae 6f b0 3c
       -0.09380121 0.14692599 0.06457689 0.021537628
000330 6b 36 aa bd 69 13 e0 3d 24 13 9b bd 8a d1 87 bd
       -0.08311161 0.10941202 -0.0757201 -0.06631763
000340 f4 d7 3c bd 85 c5 0f 3d b1 3f 23 3d f7 12 1d bb
       -0.046104386 0.03510048 0.039855663 -0.0023967603
000350 a3 78 22 bd 92 57 81 bd da 01 23 3d 19 63 6a bd
       -0.03966583 -0.06315531 0.039796688 -0.057223413
000360 f2 26 a2 3d 59 98 1b 3d 98 51 61 bc f0 a5 4f 3d
       0.079175845 0.037987087 -0.013752364 0.05069536
000370 46 28 8c 3c 7b e7 22 bd 74 f2 50 3d c1 18 86 3d
       0.017109048 -0.03977154 0.05101247 0.0654769
000380 9f 40 8c bd 58 f6 82 bd 9a db 3e 3d ce f2 44 3c
       -0.06848263 -0.063946426 0.046596147 0.01202078
000390 a2 6b d0 bc 37 c7 9e 3c e3 22 d3 3d 79 18 32 bd
       -0.025441948 0.019382102 0.103093885 -0.04348037
0003a0 11 8a c8 bc 2a 2b 44 3d 9e 96 83 3d 32 a0 37 bd
       -0.024479898 0.047892727 0.06425212 -0.04483051
0003b0 ac a2 11 3d 44 bd 53 bd ce d4 95 bd e7 de 17 bc
       0.035555527 -0.05169417 -0.0731598 -0.009269453
0003c0 31 45 28 3c 38 e1 7c 3c f5 ef 18 bd be 6a b1 3c
       0.010270403 0.015434556 -0.037338216 0.021657344
0003d0 cd 48 2f bc d6 3e bc bd a7 99 a3 3d 60 99 07 3d
       -0.010698509 -0.091916725 0.07988291 0.033105254
0003e0 c4 f8 ad bd 9a 85 8d bd 27 72 01 3d 55 ab f4 3a
       -0.08494714 -0.06910248 0.031603005 0.0018666784
0003f0 cc 62 17 3d d8 08 ab 3d f7 bb 41 3c e6 e6 5c 3d
       0.036959454 0.08351296 0.0118245995 0.05393114

lstm.weight_hh_l1 f4 [512, 128]
000000 bb cc 5a 3d fe 10 f3 bb f6 f1 08 bd 13 51 52 3c
       0.053417902 -0.007417797 -0.033433877 0.012836712
000010 8f 07 2a 3d a2 51 e2 3c 54 43 93 3d d4 1a ba bd
       0.041511115 0.027626816 0.07190576 -0.09087148
000020 de 20 16 bd e8 6a a0 bc e4 d6 90 bb 36 10 50 3d
       -0.03665244 -0.019582227 -0.004420148 0.05079671
000030 e0 16 84 3c fb e6 62 bd c6 ea 79 bd da db 65 3d
       0.016124189 -0.05539606 -0.061014913 0.05611787
000040 26 0b 66 3d 99 40 90 bd 12 30 84 3d ec 43 42 bd
       0.056162976 -0.07043571 0.06454481 -0.047428057
000050 81 65 86 3a fb 59 2c bd 22 38 81 bb d1 ee 73 bd
       0.0010253639 -0.042078 -0.003943459 -0.059553925
000060 bc d7 c1 bd be cb a7 3d 23 37 04 bb 4a 49 a1 3d
       -0.09464976 0.081931576 -0.0020174466 0.07875307
000070 bb 1d f1 3c 85 df 9b 3d 80 25 df bc fd aa 7a 3d
       0.029433122 0.07610992 -0.027239561 0.061198223
000080 6d 39 90 bd a1 0b 9b bd 0c 3a 14 bd 0d 03 0d 3d
       -0.07042203 -0.075705774 -0.03618817 0.034426738
000090 44 29 9d 3c 38 a0 aa 3d 99 3c 4a 3d bb 6d 50 3d
       0.019184716 0.083313406 0.049374197 0.050885897
0000a0 74 24 dd bc c6 ba b0 3d 9e 08 03 3c 87 c1 65 3d
       -0.026994921 0.08629374 0.00799766 0.056092765
0000b0 d3 39 9d 3c 04 22 06 bd 63 f5 bd 3c 1c 7e 86 bd
       0.019192612 -0.032747284 0.023188299 -0.06567022
0000c0 03 e8 ac 3d 9b dd 95 3d 66 5e 78 3c ca 8e fb bb
       0.0844269 0.073176585 0.015159225 -0.007676934
0000d0 53 32 d9 3c 24 23 19 bd 97 44 a4 bd c4 2f 79 bc
       0.026513254 -0.03738703 -0.08020895 -0.015209142
0000e0 40 9e 2b bd 9e a5 da 3b 66 55 8e 3d e3 46 0e bd
       -0.041898966 0.006672575 0.06949882 -0.03473557
0000f0 62 17 15 bc 2c 34 a9 bc 95 7e b4 bd f7 6e 06 3d
       -0.009099813 -0.02065476 -0.08813206 0.032820668
000100 14 75 75 bc ec f5 8e 3d 9a 4d a6 bd a8 0c ae bd
       -0.014981527 0.069804996 -0.0812027 -0.08498508
000110 07 54 af 3d 69 85 d9 bd 23 7e 3d bd 4f 68 3d 3d
       0.08560949 -0.10621149 -0.04626287 0.046242055
000120 70 ad 17 bd a9 ae 06 bd bc 9f 97 3c 5c d0 69 3a
       -0.037030637 -0.032881413 0.018508784 0.00089192926
000130 23 32 af bb 56 67 c5 3d 1e 12 6a bd 6c 63 09 3c
       -0.005346553 0.096388504 -0.057146184 0.00838552
000140 6d 4f 4a 3d af d8 17 3d 89 60 1e 3c d4 8c ab bd
       0.049392153 0.03707188 0.00966657 -0.0837647
000150 17 85 25 bd 6c 32 93 3d 2a c6 fd 3c 1a 20 bf 3c
       -0.040410127 0.071873516 0.030978281 0.023330737
000160 ba b8 98 bd 02 52 5c bd f8 6a a1 3d c5 6e fb 3c
       -0.07457109 -0.053789146 0.07881731 0.030692467
000170 44 69 a5 bc aa 6a a8 3d e1 ef 97 3d 20 f9 96 bd
       -0.020191796 0.082234696 0.074188 -0.073717356
000180 66 a7 8d 3d 12 e9 2e bd de dd ed bc 41 a9 c5 bb
       0.06916694 -0.042702742 -0.029036459 -0.0060321395
000190 a9 7d 4a bd 6b ca 7a b9 1a fb f2 bd f7 90 aa 3c
       -0.049436245 -0.00023917264 -0.118643 0.020821078
0001a0 9e 31 ba bd 59 61 9a 3d 19 5a 8a bd 6c 99 5c bd
       -0.09091495 0.07538099 -0.06755466 -0.053857252
0001b0 88 5d 7f bd 41 35 88 3d 1a a6 d3 3b 7a ed 9d 3d
       -0.062345058 0.066507824 0.00645901 0.07711311
0001c0 10 3c 99 3d c8 27 16 bc 02 52 95 3d 8b 26 2f bc
       0.07482159 -0.009164758 0.072910324 -0.010690342
0001d0 14 73 9a 3d 24 f7 94 3c 09 6e 89 3d 2e 59 7c bd
       0.07541481 0.018184252 0.06710441 -0.061608486
0001e0 30 3d 9b ba 8d 6b 5a 3c d5 5b 27 3d 5e 45 30 bd
       -0.0011843797 0.013331306 0.040859062 -0.043034904
0001f0 b0 69 1f bc 61 95 4d bd 42 38 7f bb 22 d3 21 3d
       -0.009729788 -0.050191287 -0.0038943444 0.039507993
000200 7f b2 8c 3c ee 3e a4 3d 3a 11 59 3d e7 62 a4 bd
       0.017174957 0.080198154 0.052994944 -0.080266766
000210 87 ef 90 bc 66 f3 39 bd a8 24 9f bb 99 53 72 bd
       -0.01769234 -0.04539814 -0.0048566647 -0.059161756
000220 4f 11 8f 3c 2d 92 d9 3c c8 be da bc da 7d c3 bc
       0.017464308 0.02655896 -0.0267023 -0.023863722
000230 20 64 00 bd cc d3 f7 3c 4a a5 54 3d 16 04 6c bd
       -0.031345487 0.03025236 0.051915444 -0.057621084
000240 bd 10 57 bc 40 86 37 bd 55 10 95 bd 31 fd 99 3d
       -0.013126549 -0.044805765 -0.07278506 0.075189956
000250 e3 04 b6 bc be 87 33 bc c8 66 86 3d 62 7e c1 3d
       -0.022219127 -0.010957656 0.06562573 0.09447934
000260 83 1b 0b bd 4b 05 be 3c b1 0a 7a bd d0 8e 27 bd
       -0.033961784 0.023195883 -0.061045352 -0.04090768
000270 0c 5c a1 bd e4 35 29 3d 88 1c e7 bc 15 1c f7 3c
       -0.07878885 0.04131116 -0.028211847 0.030164758
000280 d6 f5 b7 3d 1e 7b 94 3d a9 37 b3 3c ce 26 9d bd
       0.08982436 0.07250045 0.021877127 -0.07673417
000290 a3 a4 2c 3d 93 89 71 bd b5 1f 3e bd 5e 1e f6 3c
       0.042149197 -0.05896909 -0.046416957 0.030043777
0002a0 85 06 03 3d 2f 29 0f bd 30 be 38 bd f4 25 88 3d
       0.03198864 -0.034951385 -0.045103252 0.06647864
0002b0 e3 b0 48 3b 15 1e b4 bd b6 3f aa bc 63 23 51 bc
       0.003062301 -0.087948 -0.020782333 -0.0127647845
0002c0 82 92 e0 bc df 27 ad 3d 06 05 c1 3d 84 5f 46 3d
       -0.02741361 0.084548704 0.09424786 0.048430935
0002d0 82 c8 1b bd fb 07 91 3b 92 24 43 3d 17 4a 56 bd
       -0.038033016 0.004426 0.047642298 -0.05231675
0002e0 dc 12 af 3d 28 47 7c 3c ea a6 88 3d 1a cc 56 bd
       0.08548519 0.015397824 0.06672461 -0.05244074
0002f0 fc e3 4b bd 95 d4 cd bb 37 94 84 3c 0c 9c 7b bd
       -0.04977797 -0.0062814453 0.016183956 -0.061428115
000300 6a ea d7 bc 66 e6 22 3d 78 1b 45 bc 32 0f a9 bd
       -0.026356895 0.039770506 -0.012030475 -0.082548514
000310 bc 6a 9c bc 60 ad 12 bd 42 d0 51 bd 23 89 56 3d
       -0.019093864 -0.035809875 -0.051224 0.052376878
000320 b7 6d 82 3c a5 5e 3b bd 88 c8 a3 3d db de 43 bd
       0.015921457 -0.045744557 0.07997233 -0.047819953
000330 38 3b 3c bd d8 4e e8 3b 30 fb 4e bb 88 8b f3 3c
       -0.045954913 0.007089477 -0.0031582825 0.02972962
000340 ad 73 35 3c 9d 8b 12 bd 20 ef a6 3d 54 8f a2 bd
       0.011074943 -0.035777677 0.08151078 -0.07937494
000350 b1 12 a0 3d 1f 5c b6 3b 2b f7 5e 3d 81 f4 3b bd
       0.07816065 0.005565181 0.054434936 -0.045887474
000360 56 61 d8 bd 3b 65 ac bd 4e 58 ef bb da b3 25 3d
       -0.1056544 -0.08417746 -0.007304228 0.040454723
000370 56 7d bd 3d 37 27 fa 3d ae 36 d6 3c b4 68 d7 3c
       0.092524216 0.12214511 0.02614912 0.026295044
000380 10 d8 09 3d 94 fc 42 3d 85 4f e3 3d b1 2f 2e bd
       0.03365332 0.04760416 0.110991515 -0.04252595
000390 04 08 80 3d ef 79 5f 3d 8a 13 9e bd 1e 5c a1 3d
       0.06251529 0.054559644 -0.077185705 0.07878898
0003a0 e0 fe 57 bc b3 b3 ad 3d 21 bb 5b 3d 3e ab aa 3d
       -0.0131833255 0.084815405 0.053645257 0.08333443
0003b0 99 60 8e 3d 87 35 37 bd 06 2d 80 bc 8c 3a c4 3d
       0.06952018 -0.044728782 -0.015646469 0.095814794
0003c0 d4 f7 b5 bd e4 ed 28 3b 5f 09 00 bc 21 42 2b bc
       -0.0888516 0.002577656 -0.007814734 -0.010452778
0003d0 9d 09 a0 3d b3 3b 45 bd 90 e9 dc 3d 95 8b a4 3d
       0.078143336 -0.048152637 0.10786736 0.08034436
0003e0 2d d9 b6 3c c3 97 c5 3d 94 b1 bd bd d7 4d af 3d
       0.022320354 0.09648087 -0.09262386 0.08559769
0003f0 ff be 4c bd 04 01 72 bc 0f 14 9e bd 40 28 fe bc
       -0.049986836 -0.01477075 -0.077186696 -0.031025052

lstm.bias_ih_l1 f4 [512]
000000 22 3f 3c 3d c3 81 92 3d ee 0b 0e 3d 77 08 79 3c
       0.045958646 0.07153656 0.034679346 0.015199772
000010 b7 4e 7c bd 8a ad 30 bd b7 76 b1 3d 79 e8 76 bc
       -0.061598506 -0.04313425 0.08665221 -0.015070074
000020 42 95 70 3d 87 b1 0e bd 4c cb 96 bb 77 0d 5b bd
       0.058736093 -0.034837272 -0.0046018716 -0.053479638
000030 76 28 32 bd de 48 31 bd 9c a4 0e bb 72 b8 7a 3d
       -0.043495618 -0.043282382 -0.0021765595 0.061211057
000040 f8 b1 60 bc 46 65 0d bd db 9e 8c 3d b8 d9 2f bd
       -0.013714306 -0.03452041 0.06866237 -0.042932242
000050 a7 a1 1b 3d c3 8c 3e bd c0 fb 7d 3c 21 65 48 3d
       0.03799596 -0.04652096 0.015501916 0.04892457
000060 ce 27 62 bd da 56 8c bd 31 92 52 3d 24 6c 2b 3d
       -0.055213742 -0.06852503 0.05140895 0.041851178
000070 a9 50 6b bc 26 2a 55 ba d5 cc 8e bd 00 bb 96 3c
       -0.014362493 -0.0008131586 -0.06972662 0.018399715
000080 e3 b0 98 ba 32 91 6a 3b 03 80 ad bb 00 48 8c bd
       -0.0011649396 0.003579211 -0.005294801 -0.068496704
000090 6b a7 84 bd b4 40 25 3d d3 31 8a bd b5 03 0e bd
       -0.06477245 0.04034491 -0.067477845 -0.034671504
0000a0 2b e8 6d bd 18 af 0a bd e4 0f 8d bc c3 f2 a9 3c
       -0.05808274 -0.03385839 -0.017219491 0.02074564
0000b0 7b 31 6f 3d 3e b5 12 bd b5 82 a1 bb 6e 56 96 bd
       0.058396798 -0.035817377 -0.0049289116 -0.07340704
0000c0 1d f2 b2 bc 04 65 a4 bd 81 b4 34 3c a5 e5 56 bd
       -0.021843964 -0.0802708 0.011029364 -0.0524651
0000d0 03 73 b1 bd 69 9a 8a bb 31 50 74 bd 2a b9 b2 bd
       -0.08664515 -0.004229833 -0.05964679 -0.087267235
0000e0 5b 83 8f 3c f1 f4 98 bd 8f 30 34 3d d5 81 03 be
       0.01751869 -0.07468594 0.04399162 -0.12842496
0000f0 78 dd e6 3c 76 0d ea bc f5 32 c9 3b 9d 0a a0 3d
       0.028181776 -0.028570872 0.0061401078 0.07814524
000100 ea 2f 25 3d 92 5e 1f 3d 4e de ed bd 99 fa 5c 3d
       0.040328898 0.03890855 -0.11614667 0.053949926
000110 71 44 b9 3c 2f bd 4f bb f0 65 14 3d 37 c1 cd 3c
       0.022615643 -0.0031698456 0.036230028 0.025116546
000120 b6 88 01 3d 01 15 85 3c 39 3d 8c bd 8a 3e 6e 3c
       0.03162452 0.016245367 -0.06847615 0.014541278
000130 1c 59 83 bd e8 a4 85 bd 37 02 f4 bd 51 0a 4f 3d
       -0.06413481 -0.06525594 -0.11914485 0.050546948
000140 56 df 99 3d 60 20 63 bd f9 d6 9e 3c b8 08 98 bc
       0.07513301 -0.055450797 0.019389616 -0.018558845
000150 d1 aa 4c 3d d1 c8 d8 bd bf 9b 81 bd 89 06 a1 bd
       0.04996759 -0.10585178 -0.06328534 -0.078625746
000160 95 2c a9 bd 6f c6 1c bd 37 5a f4 ba 7c 40 f2 bd
       -0.082604565 -0.03827518 -0.0018642609 -0.11828706
000170 fe 07 a4 bd 48 96 7b bd 22 16 5e bd 19 dc c8 3d
       -0.08009337 -0.061422616 -0.054220326 0.09807605
000180 d4 81 61 3d 32 9c 6b 3d eb 97 9c bd c4 0e 11 bd
       0.055055454 0.057522006 -0.076461636 -0.035414472
000190 69 d5 d6 bc eb 0f 85 3d 6b a8 68 3d a2 9e 41 bd
       -0.026224809 0.06497177 0.05680124 -0.047270425
0001a0 88 e4 60 bd 7a 8a be bd 4e bd 91 bd 06 c1 03 bd
       -0.054905444 -0.09303756 -0.07116185 -0.032166503
0001b0 89 6f 6c bd 3b a5 55 bd 70 3a 38 3d df 42 67 3d
       -0.057723556 -0.05215953 0.044977605 0.056460258
0001c0 f5 ac 4e 3d 98 31 85 bd c6 5e ab 3c cb 98 ba bd
       0.050457913 -0.065036 0.020919215 -0.09111174
0001d0 08 d5 ef bd d8 17 72 3b b6 3f 0c bb 84 52 b2 bd
       -0.11710554 0.0036940482 -0.002140028 -0.08707145
0001e0 83 d9 23 bd c5 d5 48 bb 96 2c fe bc 92 56 61 bd
       -0.040002357 -0.0030644995 -0.03102712 -0.0550142
0001f0 10 9e 6d bd 17 e1 3b bc a0 71 c6 bc d1 19 e4 bc
       -0.05801207 -0.01146724 -0.024224102 -0.027844341
000200 d2 65 84 bd f5 8f 8b 3b f3 27 37 bd 10 2b 5d 3b
       -0.06464733 0.0042591044 -0.044715833 0.003374759
000210 71 be 34 3d 7e 78 ce bc 7a 3a 43 3d a8 68 03 3d
       0.04412693 -0.02520394 0.04766319 0.03208223
000220 33 24 f3 bd 71 b4 83 bb f2 b9 03 3d a2 f5 c0 3d
       -0.11872139 -0.004019313 0.032159753 0.09421851
000230 fd b3 b1 3d c8 03 97 bd dc 4e 99 bc d2 93 ce ba
       0.08676908 -0.07373768 -0.01871436 -0.0015760607
000240 36 3b b3 bd e4 a3 b7 bd b7 3a 4b bd 59 f4 e1 3c
       -0.08751528 -0.089668065 -0.04961654 0.027582334
000250 37 b2 cc bb 03 08 36 3c ad 16 dc 3c fa 41 b0 3c
       -0.006246831 0.011110309 0.026866281 0.021515835
000260 66 9a 91 bd c3 38 21 bc 73 33 93 3b df 14 bc bc
       -0.07109527 -0.009840193 0.004492217 -0.02295917
000270 76 56 52 3d ff b4 80 3d c0 46 9a bd 41 fe 65 bd
       0.051351987 0.06284522 -0.07533026 -0.05615068
000280 2a 72 ca 3c 2e 89 23 bd 83 fd 79 bd dd ee b6 bd
       0.02471264 -0.039925747 -0.061032783 -0.08932278
000290 d9 d3 9a bc 05 12 48 3d b6 18 66 bd 4e bb f3 bd
       -0.018899845 0.04884531 -0.05617591 -0.1190096
0002a0 2e 04 b3 bd ca 9c f0 3c 23 89 a7 39 0a 0b 05 bc
       -0.087410316 0.029371638 0.00031954897 -0.008120308
0002b0 be 72 96 bd 57 92 ad bb e9 f7 c6 bc 5e c9 c9 bd
       -0.07346104 -0.005296986 -0.024288135 -0.09852861
0002c0 11 ca f0 bd f5 8b 63 bc ce ba 88 3d a6 10 db bb
       -0.11757291 -0.013888349 0.06676255 -0.0066853343
0002d0 03 15 ea bc 89 e0 b4 bc 1e 99 a4 bd 63 0f 53 bc
       -0.028574472 -0.022079723 -0.08037017 -0.012882086
0002e0 f5 59 74 3d 66 7a 83 bd 6b c7 1e 3c f8 b1 5d 3c
       0.059656102 -0.0641983 0.0096911 0.013531201
0002f0 5e 28 3e bd a9 9e b9 3d ff 5a 8a bd 2a e4 1f 3d
       -0.046425216 0.09063465 -0.067556374 0.039035954
000300 a5 fc f0 3b 31 48 af 3b 01 dd 2a bd 33 05 08 3d
       0.0073543363 0.005349182 -0.041714672 0.033208083
000310 c8 0c 73 3b 73 30 36 bd 62 8a 65 bc 27 3d 8b bd
       0.0037086476 -0.0444798 -0.014010044 -0.06798773
000320 dc 8a e5 bc 76 2a db bd 23 8e b3 3d 54 4f ba 3d
       -0.028020315 -0.10701458 0.08767345 0.09097162
000330 73 4b 87 bc 7f 16 0b be 8d a8 7f bd ba 45 51 bc
       -0.01651547 -0.135828 -0.062416602 -0.012772972
000340 d0 c9 5b bd 03 c2 9d bd 94 75 88 bc 46 24 ee bc
       -0.05365926 -0.077030204 -0.016657628 -0.02907003
000350 ee 07 2d 3d 4f a2 d3 bd 63 df 85 3d ee 08 3f bd
       0.04224389 -0.10333692 0.06536748 -0.046639375
000360 3d 94 65 bd 6f b0 a4 bd d5 4d 58 3d e6 90 8a bd
       -0.056049574 -0.080414645 0.0528086 -0.067659184
000370 51 3e e7 3c 11 2d 9a bd 48 17 ab bc 00 7f bc bc
       0.028227957 -0.07528127 -0.020885125 -0.023009777
000380 c8 e3 10 bc e8 53 9c bd 99 dc ab bb d5 1e 91 bc
       -0.00884337 -0.07633191 -0.005244803 -0.017714897
000390 e2 7e 48 bd 0e e9 18 bd cf a1 29 bb a5 f3 a4 3c
       -0.04894913 -0.037331633 -0.00258838 0.02013571
0003a0 f5 c0 62 bd 42 6f 94 bd c9 e3 33 3d ba 9f 87 bd
       -0.0553598 -0.07247783 0.043918405 -0.06622262
0003b0 1f 9e 70 bd e7 06 6d 3d 64 27 91 bd f5 2c 0b bd
       -0.058744546 0.05786791 -0.07087591 -0.03397842
0003c0 1a b9 82 bc 9c cb 9b bd 35 de 1d bd 80 87 ad 3d
       -0.015957404 -0.07607195 -0.03854199 0.0847311
0003d0 11 97 b3 bb c3 a6 aa bc ff cc 0a bc 7a e5 04 bd
       -0.005480655 -0.020831471 -0.008471726 -0.03244541
0003e0 48 c1 e6 3c 35 de 86 3d 47 fd 8d bd 96 ab a9 3b
       0.028168336 0.065853514 -0.069330744 0.0051779253
0003f0 c6 32 dd bc 99 65 55 3d c8 ca ee bc 69 35 5c bd
       -0.02700175 0.052098844 -0.029149428 -0.053761873
