04_Models/20250810_155551_GDEA_LSTM_Classification/best_model.pth (torch, 849717 bytes, 47 tensors)

lstm.weight_ih_l0 f4 [256, 49]
-0.07598678 -0.0568229 0.05820477 -0.09677957 -0.008568322 -0.16430815 -0.08042252 -0.09310412
0.028325535 0.15346122 -0.17171656 -0.027736777 -0.009788469 -0.010095676 -0.12295877 0.096806385
-0.09052058 -0.018142726 -0.03357105 0.057176713 0.092336714 0.015560169 -0.033375148 -0.056695223
0.054296676 0.03305909 -0.04456067 -0.021068383 -0.18346444 -0.001780084 -0.1001008 -0.012383519
0.024390401 0.11066408 -0.009952079 0.028985586 0.0033769244 0.045472596 0.002968346 0.103442974
0.028709227 -0.031815283 -0.022978812 -0.07547255 -0.041508388 0.116822705 -0.030911813 0.025323823
-0.070793584 0.1272828 0.05465255 0.095304295 0.19933847 0.0020222254 0.06148422 0.057604156
0.08163253 0.017307794 -0.0032345129 0.09920597 0.07405401 0.104620546 0.12001755 0.10349466
0.092597954 0.07341172 0.042660654 -0.016482538 0.0387391 0.20174874 0.015849762 0.0009249914
0.0015183266 -0.09712568 0.021618426 -0.035929844 0.017877063 0.0047092056 -0.01716466 -0.042311877
0.056857303 -0.01905569 0.026371336 0.17472787 0.002280383 0.16851303 0.008112232 0.13034952
0.106368184 0.13243453 0.06557457 -0.09957343 0.09194299 -0.005468949 0.10264796 -0.050731342
0.014301226 0.026526215 -0.02615728 -0.00014071798 0.059052978 0.058113065 0.11251176 -0.009806074
-0.075277686 0.0028678414 -0.11849538 0.110711545 0.060214713 -0.05437979 0.048510525 -0.07891456
-0.02733688 0.0011929105 -0.027082715 -0.06937634 0.07582477 0.011140103 -4.1023846e-05 0.0135742575
-0.07633598 -0.08176582 0.015027859 -0.09093939 0.052448086 -0.056348667 0.077429 0.026352346
-0.016913826 0.07590233 -0.008129627 -0.036344543 -0.08392073 0.041115496 -0.034122627 -0.09348802
0.086443916 -0.049697515 0.03355933 -0.005192456 -0.015063075 -0.06566217 -0.050860386 -0.121656
0.007832811 -0.12523893 -0.031246563 -0.13315341 -0.15028062 0.084198974 0.0669977 0.032728013
-0.023289807 -0.0470989 -0.05058324 -0.036075134 -0.07789633 0.07377592 -0.09970298 -0.016646123
-0.11251634 -0.10491231 -0.07819782 -0.043342974 -0.048825894 -0.020440435 -0.049279734 -0.048976734
-0.06600938 -0.0055859354 0.02695665 -0.03872187 -0.091238484 -0.032652408 -0.028978288 -0.032657184
-0.06545987 0.053139735 -0.06762697 -0.12514327 0.058977123 -0.11343396 -0.07155882 0.013388005
0.106926695 -0.13730305 -0.039485335 0.018515393 -0.055591494 -0.017064061 -0.021344537 0.069331
-0.0598298 0.051757507 0.10774429 -0.090586916 0.015452632 -0.069918364 0.15958044 0.019132663
0.041011613 0.14532915 0.032133702 -0.031703807 0.012286392 -0.1330369 -0.105437964 0.066941775
-0.033615105 0.00030425668 -0.053198267 0.0313346 0.015320081 0.10208495 -0.116272315 0.093270145
-0.019632088 -0.0075187567 0.05026227 0.0020245023 0.19759272 0.033259016 -0.10220337 0.09708912
-0.031778887 0.14383541 -0.014446487 -0.113821335 -0.05614916 -0.034534846 0.116356246 0.10022273
-0.089326985 0.01688193 -0.00027141222 0.0789094 0.09540345 -0.012047747 -0.0042147487 -0.069349006
0.047687884 -0.09988735 -0.07503049 -0.010558545 0.05697315 -0.05707931 -0.07922879 -0.012375877
0.039391473 -0.07354965 -0.088168934 -0.10943051 -0.07786663 0.022230474 -0.02889664 0.017444072
00000000: f59e 9bbd 21bf 68bd 2068 6e3d 5e34 c6bd
00000010: 2662 0cbc 6540 28be 90b4 a4bd 5fad bebd
00000020: f40a e83c f024 1d3e 77d6 2fbe 3d38 e3bc
00000030: d15f 20bc 5668 25bc cfd1 fbbd 6d42 c63d
00000040: db62 b9bd 0ea0 94bc cc81 09bd 2132 6a3d
00000050: 081b bd3d 14f0 7e3c 61b4 08bd 4039 68bd
00000060: 3166 5e3d f868 073d 4085 36bd 9a97 acbc
00000070: 1ade 3bbe b551 e9ba a601 cdbd 3ee4 4abc
00000080: 61ce c73c d9a3 e23d 0b0e 23bc 2e73 ed3c
00000090: 644f 5d3b 7941 3a3d 9588 423b e9d9 d33d
000000a0: 9d2f eb3c be50 02bd 103e bcbc 5a91 9abd
000000b0: b304 2abd be40 ef3d c53a fdbc e873 cf3c
000000c0: 3afc 90bd 6c56 023e 5adb 5f3d e62e c33d
000000d0: 621f 4c3e 5087 043b e1d6 7b3d 56f2 6b3d
000000e0: f52e a73d 13c9 8d3c 1ffa 53bb 802c cb3d
000000f0: a1a9 973d 4c43 d63d c3cb f53d 02f5 d33d
00000100: ffa3 bd3d e258 963d f0bc 2e3d 6306 87bc
00000110: e4ac 1e3d 3997 4e3e 5cd7 813c 1f7b 723a
00000120: 9602 c73a d4e9 c6bd 2019 b13c 2c2b 13bd
00000130: eb72 923c ae4f 9a3b e79c 8cbc 384f 2dbd
00000140: 34e3 683d ae1a 9cbc b308 d83c ddeb 323e
00000150: 7a72 153b ae8e 2c3e 2be9 043c 587a 053e
00000160: 90d7 d93d eb9c 073e f64b 863d 28ed cbbd
00000170: 9b4c bc3d df34 b3bb 1839 d23d abcb 4fbd
00000180: b04f 6a3c 814d d93c cb47 d6bc b28d 13b9
00000190: 89e1 713d f707 6e3d 916c e63d a8a9 20bc
000001a0: 302b 9abd 65f2 3b3b b5ad f2bd bcbc e23d
000001b0: b4a3 763d 58bd 5ebd f9b2 463d f59d a1bd
000001c0: 98f1 dfbc 6f5b 9c3a 92dc ddbc 2f15 8ebd
000001d0: 044a 9b3d fb84 363c 0511 2cb8 9066 5e3c
000001e0: 0a56 9cbd d774 a7bd 6937 763c 6e3e babd
000001f0: ced3 563d dccd 66bd 1893 9e3d e0e0 d73c
00000200: dd8e 8abc ae72 9b3d 2132 05bc 04de 14bd
00000210: a2de abbd b968 283d 2bc4 0bbd a676 bfbd
00000220: 8209 b13d 9f8f 4bbd 8275 093d 7a25 aabb
00000230: 1ecb 76bc e379 86bd fb52 50bd c826 f9bd
00000240: 3155 003c a23e 00be cbf8 ffbc 5e59 08be
00000250: 2ae3 19be 8370 ac3d 1736 893d cf0d 063d
00000260: 44ca bebc c7ea 40bd 5f30 4fbd 85c3 13bd
00000270: 1c88 9fbd d417 973d 1331 ccbd 735d 88bc
00000280: f86e e6bd 44dc d6bd 2e26 a0bd 6788 31bd
00000290: a9fd 47bd b372 a7bc 8cd9 49bd d49b 48bd
000002a0: ed2f 87bd 390a b7bb 31d4 dc3c d39a 1ebd
000002b0: 3edb babd 88be 05bd e063 edbc 8ac3 05bd
000002c0: d30f 86bd 0da9 593d 0280 8abd 8f25 00be
000002d0: ff91 713d 1050 e8bd 6e8d 92bd 5d59 5b3c
000002e0: 62fc da3d 2c99 0cbe 60bb 21bd 98ad 973c
000002f0: e8b3 63bd eec9 8bbc bdda aebc 69fd 8d3d
00000300: 1810 75bd aeff 533d 0aa9 dc3d a285 b9bd
00000310: 092d 7d3c 5c31 8fbd 0e69 233e 1abc 9c3c
00000320: cbfb 273d 2ad1 143e a19e 033d dadb 01bd
00000330: dd4c 493c d33a 08be dcef d7bd c518 893d
00000340: feaf 09bd a484 9f39 6de6 59bd b658 003d
00000350: 1401 7b3c ea11 d13d 2e20 eebd 6b04 bf3d
00000360: 79d3 a0bc e75f f6bb cfdf 4d3d 83ad 043b
00000370: bf55 4a3e 9b3a 083d 0050 d1bd a9d6 c63d
00000380: 942a 02bd 9749 133e f5b0 6cbc 291b e9bd
00000390: a9fc 65bd 6974 0dbd 2f4c ee3d 9341 cd3d
000003a0: 11f1 b6bd f94b 8a3c 554c 8eb9 409b a13d
000003b0: e262 c33d ea63 45bc e01b 8abb da06 8ebd
000003c0: 5f54 433d bd91 ccbd 96a9 99bd bffd 2cbc
000003d0: ae5c 693d ffcb 69bd b442 a2bd 31c4 4abc
000003e0: f458 213d 33a1 96bd ea91 b4bd 1a1d e0bd
000003f0: 8a78 9fbd af1c b63c a5b8 ecbc dfe6 8e3c

lstm.weight_hh_l0 f4 [256, 64]
-0.088445365 -0.032695353 -0.021501416 -0.14185189 -0.13090272 0.06485442 -0.09876811 -0.036497798
-0.053820916 -0.050525006 0.07302709 0.028681846 0.009318664 0.108208224 0.10938988 -0.10399008
0.031599842 0.07075507 0.0053213984 0.03223863 -0.005182013 -0.08546625 -0.02283792 0.011141186
0.018612225 -0.051678933 0.0641541 0.09838382 -0.009379638 -0.030342935 0.07972281 0.101808734
-0.023641115 0.027580399 0.021358503 0.041129593 0.02924024 0.04016699 0.06383594 -0.059309416
0.017912721 0.07236203 -0.008305374 -0.027647607 -0.09465259 0.06452013 -0.017923929 0.001961565
0.055085994 0.010515547 0.11047986 -0.02502846 0.0902724 0.050234977 0.030213408 0.08509771
-0.04941106 -0.04557601 -0.0024251107 0.072921365 -0.08306405 -0.01518499 -0.056580164 0.061366178
0.05554967 -0.11246169 0.0062863585 -0.040192693 0.12312644 0.019093903 0.01471156 -0.020244287
0.09230839 0.018704807 0.00022343357 -0.08882173 0.021791678 0.13761985 -0.0002157506 -0.004116744
0.12614746 0.13597523 0.046819847 -0.08200226 0.032513738 -0.058858614 -0.04309501 0.061293527
0.046993013 -0.02356553 -0.122084945 0.07634935 -0.013370264 0.016360197 -0.019777248 -0.0025161956
0.04336347 0.03852796 0.045498498 0.052243154 -0.11719024 -0.12848997 0.13785917 0.0002021686
-0.07606536 -0.009744589 -0.0152196195 0.103811696 -0.07055625 -0.05953142 -0.044817947 0.014368095
0.043272566 0.031479917 -0.08142966 -0.01487853 -0.009286057 0.011762619 0.04849024 0.07514835
-0.0027777217 0.012918699 -0.02216152 0.0065061543 0.08374347 0.0008096716 0.069193535 -0.026483474
0.07242991 -0.070403956 -0.058086377 -0.06334001 0.007286095 -0.10056126 -0.05557422 0.031488907
0.032877427 -0.0743064 -0.06356941 -0.004871031 -0.099323586 0.01436018 -0.03926693 0.0852084
-0.10366542 -0.12151762 0.032465193 -0.0585022 0.10757975 -0.08787017 0.12552269 -0.09753678
-0.054253522 0.038093977 0.08625138 0.06274096 0.18180099 0.016282104 0.008652488 0.046691444
-0.038758587 0.045601405 -0.044694487 0.11156094 0.067247234 -0.06024141 -0.089246914 -0.073199704
-0.1219283 0.050860316 -0.0840951 0.07415522 0.03587037 -0.03272102 -0.019319221 -0.018112335
0.008370435 -0.043309927 0.004797155 -0.06477175 -0.064082384 0.032418784 0.005884561 -0.13992068
-0.015761977 0.045516867 -0.023983477 0.051162113 -0.040797357 -0.07072281 -0.027586466 0.11085842
0.020120902 -0.007946398 0.024657032 -0.03988578 -0.045284882 -0.020419601 0.00523855 0.022261739
-0.019157786 -0.07849943 0.08851831 0.0028099972 -0.052545 -0.029672373 0.025483083 0.04136611
0.004486819 -0.0021749504 -0.027649723 0.07145285 0.07185226 0.0020419466 0.1298767 -0.08385073
-0.060674433 -0.0340496 0.05594668 0.012682933 -0.009461026 0.014364235 -0.011199724 -0.14283507
-0.19431937 -0.06565768 -0.023953518 -0.016109131 -0.004478451 0.053666722 -0.11697477 0.14050922
-0.013286867 -0.035945367 -0.15666327 -0.055916194 0.049965683 0.106054716 -0.068245985 0.01191035
0.10043872 0.007994615 0.09999684 -0.013665632 -0.039215893 0.040681493 0.04906685 0.019836942
-0.021470344 1.9538973e-05 -0.10994661 0.06040924 -0.003196992 -0.061438188 -0.045454685 0.010043323
00000000: d822 b5bd 90eb 05bd bd23 b0bc 9f41 11be
00000010: 5d0b 06be 65d2 843d ef46 cabd b77e 15bd
00000020: 5273 5cbd 4ff3 4ebd 3a8f 953d 31f6 ea3c
00000030: 4fad 183c 469c dd3d cd07 e03d c0f8 d4bd
00000040: d66e 013d 09e8 903d 205f ae3b a70c 043d
00000050: e0cd a9bb ee08 afbd 9716 bbbc 8589 363c
00000060: aa78 983c 4aad 53bd 3a63 833d 757d c93d
00000070: 0ead 19bc bf91 f8bc b645 a33d 1981 d03d
00000080: 03ab c1bc 4af0 e13c 07f8 ae3c 8177 283d
00000090: 3a89 ef3c 2486 243d 6bbc 823d 6eee 72bd
000000a0: b3bd 923c 8b32 943d 4313 08bc 3c7d e2bc
000000b0: 38d9 c1bd 2123 843d 34d5 92bc 9a8d 003b
000000c0: daa1 613d 6749 2c3c 4443 e23d 7c08 cdbc
000000d0: bce0 b83d 31c3 4d3d 1c82 f73c b547 ae3d
000000e0: 4063 4abd e9ad 3abd 9bee 1ebb cc57 953d
000000f0: 7c1d aabd 77ca 78bc 9ac0 67bd 1a5b 7b3d
00000100: 0d88 633d 5152 e6bd ccfd cd3b 18a1 24bd
00000110: b729 fc3d d16a 9c3c c108 713c 59d7 a5bc
00000120: 2e0c bd3d d33a 993c 7e49 6a39 2be8 b5bd
00000130: 7684 b23c 38ec 0c3e 1c3b 62b9 c0e5 86bb
00000140: cd2c 013e 173d 0b3e 2bc6 3f3d cdf0 a7bd
00000150: 202d 053d bb15 71bd 6584 30bd ec0e 7b3d
00000160: bf7b 403d 800c c1bc ac07 fabd 0c5d 9c3d
00000170: f40e 5bbc d205 863c e503 a2bc c2e6 24bb
00000180: e59d 313d 7fcf 1d3d a25c 3a3d ebfc 553d
00000190: 7001 f0bd e092 03be f42a 0d3e 38fd 5339
000001a0: 28c8 9bbd c5a7 1fbc b65b 79bc 3a9b d43d
000001b0: cc7f 90bd 38d7 73bd 0693 37bd 2968 6b3c
000001c0: 933e 313d 16f1 003d 98c4 a6bd 14c5 73bc
000001d0: 8c24 18bc 00b8 403c b49d 463d 61e7 993d
000001e0: 700a 36bb f3a8 533c 138c b5bc 9431 d53b
000001f0: b281 ab3d 2440 543a 57b5 8d3d dff3 d8bc
00000200: 2256 943d f32f 90bd fbeb 6dbd 68b8 81bd
00000210: 32c0 ee3b 10f3 cdbd cba1 63bd 83fa 003d
00000220: 7baa 063d f42d 98bd ae30 82bd 2b9d 9fbb
00000230: 2a6a cbbd f646 6b3c 5cd6 20bd be81 ae3d
00000240: 894e d4bd 3bde f8bd 39fa 043d 01a0 6fbd
00000250: c652 dc3d 47f5 b3bd 0589 003e 5dc1 c7bd
00000260: f138 5ebd 6e08 1c3d 90a4 b03d 557e 803d
00000270: 0a2a 3a3e 0c62 853c 2ac3 0d3c 873f 3f3d
00000280: 53c1 1ebd 8ac8 3a3d 9111 37bd 107a e43d
00000290: ebb8 893d b2bf 76bd 16c7 b6bd bae9 95bd
000002a0: 8bb5 f9bd e852 503d 0d3a acbd b1de 973d
000002b0: cfec 123d 7a06 06bd 5843 9ebc 5260 94bc
000002c0: 2624 093c c065 31bd 7431 9d3b 0da7 84bd
000002d0: a03d 83bd 8fc9 043d 47d3 c03b 5e47 0fbe
000002e0: 431f 81bc e56f 3a3d ff78 c4bc 5d8f 513d
000002f0: 211b 27bd 1fd7 90bd 03fd e1bc bd09 e33d
00000300: 97d4 a43c 9c31 02bc 8bfd c93c 465f 23bd
00000310: a47c 39bd 0247 a7bc 24a8 ab3b 405e b63c
00000320: caf0 9cbc 4fc4 a0bd 1649 b53d ee27 383b
00000330: 6d39 57bd 7a13 f3bc e6c1 d03c 836f 293d
00000340: 2a06 933b 9d89 0ebb ac81 e2bc df55 923d
00000350: 4727 933d 2ed2 053b 66fe 043e eeb9 abbd
00000360: c185 78bd 9877 0bbd 5928 653d 14cc 4f3c
00000370: 6b02 1bbc f857 6b3c 0c7f 37bc 5b43 12be
00000380: a8fb 46be 8977 86bd 2b3a c4bc 4cf7 83bc
00000390: f8bf 92bb a3d1 5b3d 7890 efbd a6e1 0f3e
000003a0: 29b1 59bc 733b 13bd 566c 20be 6108 65bd
000003b0: d1a8 4c3d 3733 d93d 8dc4 8bbd a123 433c
000003c0: d1b2 cd3d d8fb 023c 25cb cc3d d1e5 5fbc
000003d0: d8a0 20bd a3a1 263d 52fa 483d 1581 a23c
000003e0: 93e2 afbc a0e7 a337 b02b e1bd ae6f 773d
000003f0: a084 51bb 9ca6 7bbd b12e 3abd c08c 243c

lstm.bias_ih_l0 f4 [256]
0.058502693 -1.0702184 0.17728838 -0.6369693 -0.101179205 -0.8190313 0.9978317 0.4562078
0.33227795 -0.48351726 0.8135648 -0.5317863 0.45838287 -0.75066 -0.91666067 1.0297102
-2.7127264 0.4392849 2.663986 -0.423946 -0.024674663 -0.2716981 -0.43317318 -0.04840347
0.61223805 0.09180737 1.0334741 0.49680227 -0.18209954 0.69627064 -0.32445538 2.548583
-2.103641 -1.400644 -0.4575992 0.89036757 -0.3675117 0.21861316 -0.5497942 0.31582028
0.7719199 -1.680368 -0.06285033 -0.33639598 -2.439347 0.38742682 0.22519656 0.84244096
-0.8834325 1.1624404 -1.4666309 -0.34697995 -0.2188807 -0.39890984 -0.38609204 -2.050695
0.41777724 0.21380617 0.106053986 0.08684171 0.70347065 -0.12787785 1.9440037 -0.1980119
-0.5723544 -0.5007859 1.4196024 0.7516295 0.091969326 0.36201435 0.25413966 0.103662714
-2.593012 1.3158817 -1.5983591 -1.2132056 1.1930534 -1.9110727 0.70963305 0.3523451
-1.2480462 2.2456188 0.20620205 -0.318299 -0.9134232 -0.5176083 -1.3260766 -0.4670952
-0.28014302 -0.31630865 0.58681166 -0.5171422 1.1696934 1.0201023 0.09210669 0.86063933
-1.3078676 0.3352935 -0.49907282 0.40446925 1.350045 -0.11118072 0.5417861 -0.14121218
-1.4408581 0.28902093 1.1442628 -0.2763641 1.4839351 0.032964 1.1734091 -0.22970422
-0.8997148 -0.16446386 2.078483 -0.3750159 0.9736557 -0.7193898 0.259771 0.8103536
0.6047215 0.42115763 0.28116137 -0.19468646 0.013048904 0.11946276 2.067737 0.4882352
1.2183236 0.0743135 0.17282203 -0.60618764 0.45610383 0.33764532 -1.0624828 1.2144915
-1.3678985 0.1524847 -1.1591911 -0.043363143 0.5354983 -0.013754741 1.5504932 1.7738788
0.51705456 -0.19884326 0.08848781 -0.9392954 -0.2561568 0.26812842 -1.239665 -0.2556664
0.85564786 0.6154018 -1.7366873 -1.5063647 1.1195924 -0.8784541 -2.7023373 -0.350784
-0.2225662 0.80005944 0.20781216 -0.47693813 -0.8104391 0.19936231 0.7345426 -0.29051828
-1.5554917 0.36950758 0.7531029 -0.43461436 0.21513726 -1.5615833 2.5436206 0.63577497
-0.7267329 -0.15280135 -0.62254745 0.8920508 0.5865918 -0.16827767 0.63468194 -0.30539858
2.5738995 0.4439305 2.202138 0.36443084 0.31604943 0.97467494 0.87335604 0.37380227
-0.20171398 0.6567874 -0.9313187 0.90407866 0.62088656 1.2144622 -0.6373888 1.3248467
-0.012287096 0.91963 -0.0017322057 -1.6291904 -0.9848898 2.3784356 0.61083305 0.21939312
-0.22496301 2.5565984 0.9294654 0.013092888 0.5284159 -0.48632893 1.2010362 0.10391048
1.4114835 -0.87859166 -0.028025871 0.16295238 -0.25262007 -0.0064803967 0.15419938 -0.4100192
1.0476819 -0.3005728 -0.88149697 0.061287627 -0.79930294 1.0580993 -0.92780066 0.16740808
-0.8521974 -0.03532581 -0.3444438 0.73802847 0.5134389 -1.6468217 0.38458034 -1.5353559
-0.56052625 -1.7512066 1.9003183 -1.128985 -0.33291373 0.14751771 -0.018596934 -0.996785
-1.3510041 0.4911527 -1.1451277 2.066748 -0.9518773 -0.35830617 1.6648828 -1.0108957
00000000: 85a0 6f3d ebfc 88bf 168b 353e 6c10 23bf
00000010: 0b37 cfbd 09ac 51bf e671 7f3f 1294 e93e
00000020: 5620 aa3e 938f f7be c845 503f 2623 08bf
00000030: 29b1 ea3e 412b 40bf 46aa 6abf 8bcd 833f
00000040: 4f9d 2dc0 f3e9 e03e bf7e 2a40 730f d9be
00000050: 8522 cabc 031c 8bbe e0c8 ddbe b842 46bd
00000060: a2bb 1c3f 8105 bc3d e148 843f de5c fe3e
00000070: 4d78 3abe cb3e 323f 041f a6be fc1b 2340
00000080: 0ea2 06c0 4d48 b3bf 714a eabe 21ef 633f
00000090: 7e2a bcbe 21dc 5f3e 50bf 0cbf 32b3 a13e
000000a0: 8b9c 453f 4c16 d7bf acb7 80bd 183c acbe
000000b0: 431e 1cc0 cf5c c63e ed99 663e 36aa 573f
000000c0: a228 62bf d9ca 943f 90ba bbbf 5ba7 b1be
000000d0: 4322 60be e93d ccbe dbad c5be 963e 03c0
000000e0: e6e6 d53e 01f0 5a3e d532 d93d 11da b13d
000000f0: a716 343f 69f2 02be 1dd5 f83f a2c3 4abe
00000100: d185 12bf 8133 00bf 88b5 b53f ca6a 403f
00000110: 6a5a bc3d f259 b93e 981e 823e 1e4d d43d
00000120: e9f3 25c0 d06e a83f 0897 ccbf 524a 9bbf
00000130: f9b5 983f 089e f4bf 83aa 353f 9466 b43e
00000140: fabf 9fbf 38b8 0f40 a126 533e 16f8 a2be
00000150: 1ad6 69bf fa81 04bf e1bc a9bf 1a27 efbe
00000160: e86e 8fbe 35f3 a1be 4a39 163f 6e63 04bf
00000170: 83b8 953f b692 823f 6fa2 bc3d dc52 5c3f
00000180: 3568 a7bf 97ab ab3e 7986 ffbe 9816 cf3e
00000190: 46ce ac3f b8b2 e3bd 7eb2 0a3f ed99 10be
000001a0: 0a6e b8bf 8dfa 933e 3477 923f 987f 8dbe
000001b0: 96f1 bd3f 4205 073d 4532 963f 9537 6bbe
000001c0: b653 66bf 3769 28be de05 0540 1602 c0be
000001d0: 8041 793f ee29 38bf b400 853e 5573 4f3f
000001e0: 07cf 1a3f f9a1 d73e 62f4 8f3e e35b 47be
000001f0: 12cb 553c e4a8 f43d ce55 0440 f7f9 f93e
00000200: 07f2 9b3f ad31 983d 42f8 303e 1d2f 1bbf
00000210: 7186 e93e d9df ac3e 70ff 87bf 7574 9b3f
00000220: 4c17 afbf f324 1c3e 6060 94bf 8d9d 31bd
00000230: 6b16 093f 915b 61bc 9076 c63f 760e e33f
00000240: b05d 043f 919d 4bbe 1939 b53d aa75 70bf
00000250: fc26 83be 2148 893e 58ad 9ebf b5e6 82be
00000260: bd0b 5b3f f98a 1d3f c54b debf 8fd0 c0bf
00000270: ce4e 8f3f 5ee2 60bf 18f3 2cc0 f699 b3be
00000280: 65e8 63be b2d0 4c3f b6cc 543e 3c31 f4be
00000290: f078 4fbf a225 4c3e fc0a 3c3f d0be 94be
000002a0: 5a1a c7bf 1930 bd3e 5acb 403f c685 debe
000002b0: f14c 5c3e f6e1 c7bf aeca 2240 26c2 223f
000002c0: 2b0b 3abf f577 1cbe 455f 1fbf 715d 643f
000002d0: e12a 163f fb50 2cbe 847a 223f 345d 9cbe
000002e0: c5ba 2440 dc4a e33e d4ef 0c40 ae96 ba3e
000002f0: 3bd1 a13e 4c84 793f 4394 5f3f 0363 bf3e
00000300: 1c8e 4ebe 3823 283f e76a 6ebf b371 673f
00000310: 6cf2 1e3f 7f73 9b3f ea2b 23bf 9494 a93f
00000320: d14f 49bc df6c 6b3f 2e0b e3ba 5089 d0bf
00000330: bd21 7cbf 4a38 1840 8e5f 1c3f 97a8 603e
00000340: b45c 66be 4f9f 2340 72f1 6d3f 8d83 563c
00000350: 4446 073f 1b00 f9be 8ebb 993f 05cf d43d
00000360: 7eab b43f 62eb 60bf 8396 e5bc fddc 263e
00000370: 6b57 81be 8259 d4bb 71e6 1d3e 09ee d1be
00000380: 711a 863f aee4 99be c9a9 61bf bc08 7b3d
00000390: 1e9f 4cbf cc6f 873f 5884 6dbf 066d 2b3e
000003a0: 9c29 5abf ccb1 10bd f05a b0be 6fef 3c3f
000003b0: bb70 033f 0ecb d2bf b7e7 c43e 8b86 c4bf
000003c0: a67e 0fbf 8a27 e0bf a13d f33f 9582 90bf
000003d0: ab73 aabe e20e 173e 9958 98bc 4d2d 7fbf
000003e0: b4ed acbf 5e78 fb3e 8b93 92bf 9945 0440
000003f0: 3bae 73bf e873 b7be e11a d53f 0865 81bf

lstm.bias_hh_l0 f4 [256]
1.7440424 1.2737442 -1.3564053 1.9347656 -0.37569383 0.19715878 -1.0601157 -0.32699767
-1.8363073 -0.4305793 -0.374387 0.17181791 1.0619242 -1.1719297 0.18894468 -0.4024695
-1.7619344 1.7445004 0.34691522 0.8679224 -0.89799726 0.8266124 -0.049157936 -0.47292757
-1.1079803 -0.9100943 -0.5414864 0.5038846 -0.38559484 -0.7195659 0.3938465 -0.98874485
2.5626562 0.008757956 0.64983886 -0.59090626 -1.7974311 1.1863962 -0.32286972 -0.18909445
0.47082043 1.5484732 -3.0086582 0.7299603 -1.0342047 1.2857262 0.85479295 -0.9154176
-0.8178426 0.39583457 0.57051146 0.22328734 0.37322053 -0.21035865 0.37456858 -0.11793094
2.4868953 -1.4408673 1.1062568 -0.060698807 1.6839969 -1.9666404 -1.8550586 -0.5274442
-0.7937631 -1.9382534 0.24667591 -0.47447777 -1.0679677 0.6298031 -1.4021075 -0.9252544
-0.562645 0.5561131 1.5941825 -0.05485702 -0.6066043 -0.75374323 0.3230073 -0.49306163
0.22581539 -0.22274157 0.7465205 1.2983311 1.7477598 0.20259716 0.5309789 -0.8953216
1.5880052 0.58259195 0.28200677 -0.00042311763 -0.6087754 0.68177515 -0.3335756 -0.96633375
0.04632617 1.2328091 -1.3934598 -0.5315317 -0.83405155 -0.36961028 -0.79472584 0.6333871
1.528965 -0.5662777 3.3644924 0.009560029 0.036880407 -0.16195689 0.055013128 0.51306367
1.0472282 1.1232498 0.8818842 -0.09447741 0.10275966 -0.22239366 1.092067 -0.123971365
-0.39003068 -0.17388816 -0.6262112 0.22336107 0.18952096 1.2025993 0.64613557 -0.96606785
0.5752548 -0.35095865 -0.5327718 0.31463784 2.3574739 2.7475936 -0.050868947 0.37130144
0.9314971 0.8584378 0.8471032 -1.1948273 0.6655144 -0.020273255 0.3314263 -0.08475596
1.6456898 0.6353449 1.4499646 1.204583 -2.9985726 0.23210901 -0.63877726 0.92706305
1.5571283 -0.807205 -1.3300688 -0.0089820875 -0.52000755 2.2043056 0.18830986 3.462308
1.2760314 0.07794508 1.5339216 0.46356863 -1.5927249 0.21745166 0.26682007 -1.2357601
0.42449364 -0.40824917 -0.46950418 0.8734959 -1.6794811 -0.51196146 -0.4854062 1.2781111
-1.7936546 0.98961633 -0.45941567 0.66157967 -0.11180115 -0.45140755 0.56830764 0.83785087
0.7279155 2.9282298 -0.3058887 1.1699045 2.116364 -0.473215 1.2609534 -1.2161633
0.3187106 -0.18802123 0.1838979 0.8199302 -1.6261132 0.1266219 -1.9735277 1.2962679
-0.6925088 -0.30199274 0.20211735 -0.43106195 -1.9955444 0.43047234 -0.85269856 -0.102056675
0.15655276 0.3191181 0.21387634 0.4034779 -0.71347517 -0.018311104 -0.2558319 -0.22970326
0.32328218 -0.39753592 1.351607 1.1632767 1.2492049 -0.34789038 -0.19489616 -0.7995772
0.35371354 0.20479015 -0.6288247 -0.26905432 -0.44948363 0.6151382 -1.1312219 0.9390126
0.36391184 -0.48321962 -1.2152959 3.0637696 -0.48757535 -0.08164771 -0.21235134 0.15867971
0.6101649 0.89869386 -0.23626153 -0.023846766 -0.63134605 -0.27240816 -1.5883988 1.3401395
0.54263955 -0.5438164 0.8080976 0.5717474 -0.20881972 0.82197756 -0.43810603 -0.31803483
00000000: c83c df3f 0d0a a33f b09e adbf 66a6 f73f
00000010: f15a c0be fee3 493e dfb1 87bf 3d6c a7be
00000020: 1e0c ebbf e474 dcbe a7af bfbe 09f1 2f3e
00000030: 22ed 873f cb01 96bf b77a 413e 7b10 cebe
00000040: 1187 e1bf ca4b df3f df9e b13e 2a30 5e3f
00000050: 26e3 65bf df9c 533f d559 49bd 9023 f2be
00000060: 4cd2 8dbf f1fb 68bf da9e 0abf 95fe 003f
00000070: b06c c5be 7935 38bf 40a6 c93e 621e 7dbf
00000080: 8f02 2440 887d 0f3c d75b 263f a245 17bf
00000090: 3912 e6bf d5db 973f 2e4f a5be faa1 41be
000000a0: 600f f13e 5f34 c63f db8d 40c0 aede 3a3f
000000b0: d260 84bf ad92 a43f b6d3 5a3f cf58 6abf
000000c0: 225e 51bf d4aa ca3e 0a0d 123f 70a5 643e
000000d0: c316 bf3e 4268 57be 74c7 bf3e c785 f1bd
000000e0: 4b29 1f40 576e b8bf d399 8d3f 509f 78bd
000000f0: 368d d73f dfba fbbf 8f72 edbf 9506 07bf
00000100: 0f34 4bbf b018 f8bf 9c98 7c3e c0ee f2be
00000110: 2ab3 88bf c73a 213f 4278 b3bf 79dd 6cbf
00000120: 8109 10bf 6e5d 0e3f 2c0e cc3f c1b1 60bd
00000130: 6b4a 1bbf 51f5 40bf 3661 a53e 9372 fcbe
00000140: 263c 673e 5e16 64be f81b 3f3f b72f a63f
00000150: 98b6 df3f a175 4f3e 3cee 073f cc33 65bf
00000160: c143 cb3f bf24 153f 3163 903e e3d5 ddb9
00000170: b4d8 1bbf d188 2e3f 6cca aabe a661 77bf
00000180: 83c0 3d3d b0cc 9d3f e45c b2bf 7612 08bf
00000190: 6784 55bf 8f3d bdbe 2773 4bbf a825 223f
000001a0: 20b5 c33f 93f7 10bf d853 5740 aba1 1c3c
000001b0: e90f 173d 07d8 25be 7255 613d 2458 033f
000001c0: 930b 863f a6c6 8f3f 2ac3 613f 5f7d c1bd
000001d0: a873 d23d 2abb 63be dac8 8b3f b3e4 fdbd
000001e0: 1ab2 c7be bd0f 32be 614f 20bf c4b8 643e
000001f0: c811 423e c6ee 993f 2469 253f 3950 77bf
00000200: e643 133f dab0 b3be bc63 08bf 3618 a13e
00000210: dae0 1640 93d8 2f40 f55b 50bd 391b be3e
00000220: 9876 6e3f 94c2 5b3f c1db 583f 1af0 98bf
00000230: 275f 2a3f 1914 a6bc b5b0 a93e 8894 adbd
00000240: f7a5 d23f f7a5 223f 7198 b93f c72f 9a3f
00000250: 9de8 3fc0 fcad 6d3e e886 23bf 0154 6d3f
00000260: fb4f c73f fda4 4ebf b23f aabf 9b29 13bc
00000270: 371f 05bf 5813 0d40 4dd4 403e 7496 5d40
00000280: ff54 a33f aca1 9f3d 8b57 c43f de58 ed3e
00000290: 69de cbbf a6ab 5e3e a49c 883e 632d 9ebf
000002a0: 3b57 d93e 0906 d1be da62 f0be 6d9d 5f3f
000002b0: 3df9 d6bf e80f 03bf 2987 f8be 2599 a33f
000002c0: 7996 e5bf 7f57 7d3f 8838 ebbe 495d 293f
000002d0: 00f8 e4bd e41e e7be 9c7c 113f 657d 563f
000002e0: ac58 3a3f 1e68 3b40 729d 9cbe 6ebf 953f
000002f0: 8272 0740 3d49 f2be ec66 a13f 3dab 9bbf
00000300: 092e a33e a388 40be bb4f 3c3e f2e6 513f
00000310: 7a24 d0bf 2ca9 013e 8e9c fcbf 1bec a53f
00000320: 4248 31bf cb9e 9abe daf7 4e3e 27b4 dcbe
00000330: 006e ffbf df66 dc3e 744a 5abf 1703 d1bd
00000340: 5e4f 203e 7363 a33e 6602 5b3e a894 ce3e
00000350: 4fa6 36bf 2b01 96bc 66fc 82be 5537 6bbe
00000360: 3e85 a53e d489 cbbe 7501 ad3f 40e6 943f
00000370: f2e5 9f3f b01e b2be dc92 47be 17b1 4cbf
00000380: f119 b53e 82b4 513e a8fa 20bf 7dc1 89be
00000390: b822 e6be b279 1d3f e1cb 90bf 2163 703f
000003a0: a752 ba3e 9068 f7be d18e 9bbf cd14 4440
000003b0: 7aa3 f9be ea36 a7bd a172 59be ef7c 223e
000003c0: c433 1c3f cd10 663f 8bee 71be 4b5a c3bc
000003d0: e59f 21bf 1579 8bbe a750 cbbf b189 ab3f
000003e0: 6dea 0a3f 8d37 0bbf 7cdf 4e3f 0a5e 123f
000003f0: d6d4 55be 1f6d 523f 6f4f e0be 76d5 a2be

lstm.weight_ih_l1 f4 [256, 64]
0.052498687 -0.0054214466 -0.012055675 0.0702471 0.047544677 0.045362685 0.0670233 0.031896684
0.007867288 0.079269096 0.06479798 -0.012926103 0.07297102 -0.016562125 -0.008863399 -0.03621787
-0.07855145 -0.039330818 0.08204484 0.14424837 0.0063700676 0.011037242 0.052597445 -0.030235969
-0.05285129 -0.18766151 0.012299196 -0.0695962 0.006265023 -0.032254875 0.05308136 0.11772433
-0.070581555 0.022073451 0.0625398 0.001457846 -0.031053564 0.026315263 0.16613919 -0.053239908
0.06740505 0.043421865 -0.08030515 -0.06146821 0.046597846 -0.020908784 -0.009424498 0.14482373
-0.124762595 -0.033207346 -0.13433838 -0.0998373 0.02647134 0.08082706 -0.02096908 -0.12786916
0.107405774 0.11173604 0.00036880566 -0.012509959 0.11409567 0.028893976 -0.03225372 0.055253647
-0.046855256 -0.0055502136 0.031047653 0.011226426 0.048191592 0.06726115 -0.05301067 -0.006394417
-0.005243748 0.008029901 0.01772158 -0.06124309 0.051922653 -0.005075487 -0.0138411205 -0.042521413
-0.029196484 0.041092727 0.15503505 0.033668354 0.119207904 -0.112046435 0.02963033 -0.011942776
0.105674505 0.01835877 0.0191096 0.14559501 -0.051678654 -0.0017290427 0.022599418 -0.056975145
0.01879034 -0.00962379 -0.015055843 -0.013988231 0.010886356 0.019249847 0.059500102 0.10098918
0.043168776 0.05983696 0.06078888 -0.055809114 0.017354377 -0.115695156 -0.08569851 0.010172447
-0.13969953 0.09060115 0.0075963344 -0.14299189 -0.0022766967 0.13327062 -0.032514438 0.022408318
0.029054886 -0.007307761 -0.11086847 -0.04088328 0.001048655 0.020547885 0.14999895 0.12207141
-0.028011 -0.019634992 -0.026470546 0.03504024 0.051745802 0.07572455 0.10086946 0.04182184
0.12010568 0.10693383 0.059490822 0.017469777 0.0013334581 -0.048147887 0.008489555 0.10088183
-0.018314462 -0.04101981 -0.08423531 0.09124992 0.035436336 -0.098144285 0.06220185 -0.040833265
-0.0061183055 -0.08555548 0.16923752 -0.027873633 -0.017842809 0.020683728 -0.00077166036 -0.04232892
-0.05275083 -0.02330685 -2.5954032e-05 0.0020654723 -0.059674088 0.020030428 -0.03824534 -0.1197248
-0.0054663117 0.002442644 0.04527092 0.007888664 -0.0009619651 0.05055967 -0.101623446 -0.0916895
0.016695013 0.020971972 0.116469 0.10359345 -0.07466752 0.0194053 -0.056285568 0.04791862
-0.069820285 -0.01647643 0.087832205 -0.061125427 0.080861434 -0.07047826 0.02603059 0.020088155
0.05552851 0.020749483 -0.008480216 0.11480621 0.006005916 0.113746576 -0.062021133 -0.0058804303
-0.13072501 -0.120522045 -0.01757005 0.018265652 0.10970484 -0.028192395 0.037524372 -0.01727602
-0.06700916 0.03327842 -0.046821993 0.07902626 0.0028624926 -0.078596205 -0.12772548 -0.083088875
-0.074656 -0.045559246 0.012819326 0.023790218 -0.039136913 -0.051966168 -0.013174409 0.050748747
0.11832661 0.020567965 -0.039481677 -0.039809957 -0.005844217 0.06814599 0.016985519 -0.04563516
0.01530995 0.02938856 -0.10611586 0.01911039 -0.088671535 -0.123807676 -0.06286132 -0.01838487
-0.11200508 0.086639196 0.1358661 0.018967588 0.055850293 -0.10254629 -0.034947805 0.022680718
-0.0356448 -0.08045559 -0.015127838 -0.10872714 -0.06809197 0.056893833 0.064018846 0.084438026
00000000: dd08 573d 64a6 b1bb 2a85 45bc b6dd 8f3d
00000010: 35be 423d 39ce 393d 8343 893d 19a6 023d
00000020: cce5 003c d657 a23d ceb4 843d 01c8 53bc
00000030: d571 953d 4bad 87bc ca37 11bc 3059 14bd
00000040: 95df a0bd 5a19 21bd 2007 a83d d8b5 133e
00000050: 00bc d03b 8cd5 343c 6b70 573d 6cb1 f7bc
00000060: 987a 58bd 572a 40be 9182 493c 7488 8ebd
00000070: d24a cd3b b01d 04bd d76b 593d 7419 f13d
00000080: 108d 90bd 62d3 b43c de14 803d 3215 bf3a
00000090: 0b64 febc 1b93 d73c 6420 2a3e 1712 5abd
000000a0: a90b 8a3d 20db 313d 0777 a4bd 17c6 7bbd
000000b0: 62dd 3e3d e648 abbc 3669 1abc ac4c 143e
000000c0: 8883 ffbd 6d04 08bd 0090 09be 8077 ccbd
000000d0: 6cda d83c a888 a53d 59c7 abbc 22f0 02be
000000e0: 8ff7 db3d ddd5 e43d 425c c139 92f6 4cbc
000000f0: feaa e93d 0fb3 ec3c 7a1c 04bd a651 623d
00000100: 4ceb 3fbd 91de b5bb a657 fe3c 0bef 373c
00000110: 8c64 453d 37c0 893d b721 59bd 4288 d1bb
00000120: bfd3 abbb d98f 033c d92c 913c 09da 7abd
00000130: d9ac 543d 4550 a6bb dec5 62bc ef2a 2ebd
00000140: 772d efbc d950 283d 82c1 1e3e d4e7 093d
00000150: 4623 f43d 9a78 e5bd 4ebb f23c a2ab 43bc
00000160: e06b d83d 2265 963c bc8b 9c3c dc16 153e
00000170: ffac 53bd 0ca1 e2ba 6a22 b93c c55e 69bd
00000180: 33ee 993c 1aad 1dbc c8ac 76bc e52e 65bc
00000190: b05c 323c dbb1 9d3c 61b6 733d 6ad3 ce3d
000001a0: bed1 303d 9a17 753d c3fd 783d 1998 64bd
000001b0: c42a 8e3c 95f1 ecbd b382 afbd 56aa 263c
000001c0: 650d 0fbe 198d b93d acea f83b 776c 12be
000001d0: a234 15bb 1878 083e dc2d 05bd a691 b73c
000001e0: 8304 ee3c f175 efbb 020f e3bd 3a75 27bd
000001f0: 0673 893a 0a54 a83c 5399 193e 9300 fa3d
00000200: 5377 e5bc 90d9 a0bc c2d8 d8bc 5b86 0f3d
00000210: 68f3 533d 7915 9b3d a694 ce3d 614d 2b3d
00000220: f7f9 f53d 2000 db3d a6ac 733d c71c 8f3c
00000230: 6ec7 ae3a b836 45bd c617 0b3c 229b ce3d
00000240: 3608 96bc 6304 28bd 9083 acbd 3de1 ba3d
00000250: b125 113d dfff c8bd 5ec7 7e3d c840 27bd
00000260: 117c c8bb b637 afbd 9a4c 2d3e 3f57 e4bc
00000270: 152b 92bc ec70 a93c 4049 4aba 1761 2dbd
00000280: 4111 58bd 02ee bebc dcb7 d9b7 e05c 073b
00000290: d16c 74bd da16 a43c 25a7 1cbd 4732 f5bd
000002a0: bf1e b3bb c414 203b 006e 393d 743f 013c
000002b0: 632c 7cba a817 4f3d f41f d0bd b4c7 bbbd
000002c0: fbc3 883c 6acd ab3c 4d87 ee3d cd28 d43d
000002d0: 49eb 98bd ddf7 9e3c b28b 66bd 5146 443d
000002e0: f0fd 8ebd 94f9 86bc 5fe1 b33d a85e 7abd
000002f0: ae9a a53d e856 90bd 1b3e d53c ea8f a43c
00000300: dd71 633d d2fa a93c 9bf0 0abc 851f eb3d
00000310: 46cd c43b f7f3 e83d df09 7ebd a0b0 c0bb
00000320: c7dc 05be 43d4 f6bd 11ef 8fbc d9a1 953c
00000330: eeac e03d bdf3 e6bc 28b3 193d 7186 8dbc
00000340: 193c 89bd f44e 083d 6bc8 3fbd 85d8 a13d
00000350: a898 3b3b 0cf7 a0bd 78ca 02be 802a aabd
00000360: 3fe5 98bd 559c 3abd 2608 523c b4e3 c23c
00000370: 074e 20bd 7ada 54bd 7ad9 57bc ebdd 4f3d
00000380: 3955 f23d 267e a83c 8ab7 21bd c40f 23bd
00000390: d880 bfbb 2090 8b3d 3725 8b3c efeb 3abd
000003a0: 96d6 7a3c 47c0 f03c 4653 d9bd 658d 9c3c
000003b0: 6c99 b5bd e18e fdbd 70bd 80bd de9b 96bc
000003c0: eb62 e5bd e46f b13d 7c20 0b3e ea61 9b3c
000003d0: 47c3 643d ca03 d2bd 6e25 0fbd eacc b93c
000003e0: 4800 12bd e6c5 a4bd c0da 77bc 56ac debd
000003f0: ce73 8bbd 8209 693d 501c 833d d8ed ac3d

lstm.weight_hh_l1 f4 [256, 64]
-0.06287087 -0.009538006 -0.06008026 0.003921011 0.045982406 0.024518788 -0.0047014365 0.02880597
-0.17218524 -0.08053529 -0.013278176 0.022922847 0.05679096 0.1601783 0.0044262176 -0.03400049
-0.07811585 0.020278143 -0.07739479 0.0886388 -0.05313217 -0.053432252 0.057992943 0.02774618
-0.062481984 -0.034741286 0.044151194 -0.0027263071 0.020147894 -0.0019630706 0.006819246 0.04043407
-0.0135431085 0.02113893 0.07599651 0.01926881 -0.05195214 -0.040268566 0.051254336 0.11712867
-0.06275804 0.098572336 -0.035436247 0.07034367 -0.056486785 -0.024377134 -0.069550976 0.04165738
-0.006667549 0.018365353 -0.04146093 0.017974377 0.06266865 0.06571645 -0.05673924 -0.13224415
-0.08190574 -0.0037229138 0.18220894 -0.10292476 0.13478124 0.01905496 -0.04297357 -0.009640497
-0.015947314 -0.036286585 -0.086977884 0.008257633 -0.018017411 -0.01855226 -0.050521757 -0.014928308
-0.06462052 0.051755775 0.013652743 -0.080552265 0.025874766 0.0028485802 0.030995961 -0.022309702
0.020733096 -0.11631503 0.03534182 0.16738594 -0.10281321 -0.06395035 -0.1302884 0.04488333
-0.04458778 -0.103587516 0.05020499 -0.04196271 -0.06872202 0.07596838 0.0046932297 0.10757996
-0.06380578 0.06359065 0.04854228 -0.0772701 0.053214423 0.06337471 0.080125205 0.1078064
-0.089219734 -0.004673014 0.02309726 0.048747573 0.018201154 -0.12519802 -0.11666594 -0.06868042
0.030433204 -0.043064304 -0.0033966857 0.14166892 -0.010520122 0.14967094 0.089145795 0.12095936
0.054731797 0.04713647 -0.09799071 0.0074193226 -0.09630141 0.16142857 0.02579811 0.0521903
0.09458482 -0.051632904 0.0056887316 -0.059531286 0.03363814 0.033576455 -0.076075695 0.09891709
0.0098085515 -0.073733315 0.026196448 0.13629046 0.051353056 -0.0020189858 -0.13608025 0.09347315
-0.0024019938 -0.080166526 -0.032910727 0.08282711 0.025222907 -0.057064448 0.025441317 -0.084535785
-0.028551407 -0.15424106 -0.01619095 0.061300974 -0.0027306213 -0.019516135 -0.02578713 -0.13133465
0.08463765 0.088318296 -0.05565176 -0.071287714 -0.16301677 0.045197364 0.09789357 0.032990776
-0.001750095 0.05293005 -0.06189135 -0.04887035 0.053835623 -0.06317903 -0.010385127 -0.13074268
-0.05374766 0.075476296 -0.13122249 -0.14179756 0.004981154 -0.0042940835 0.094731994 0.11427339
0.041103575 -0.06414793 0.09499613 0.084825605 -0.008987338 0.079206266 -0.11258856 -0.0990994
-0.003636724 -0.06636781 0.004489579 -0.009832818 0.066824235 -0.089261666 -0.10500185 -0.011942998
-0.033170115 0.02239508 -0.058779433 -0.07289929 0.09515046 -0.01924681 -0.048598576 -0.054841217
0.021753322 0.11670837 -0.08392686 0.023449812 -0.036691982 -0.019831639 0.0028159576 0.04244382
0.0034984355 -0.05784232 0.015323193 0.04186323 -0.054672383 -0.02953642 0.082064696 0.12118847
-0.08766413 0.027204454 -0.0054389634 0.004116503 0.06906764 0.0371113 0.028997121 0.09942752
-0.060948174 0.12175548 -0.040926464 0.05607761 -0.04135961 -0.016345475 -0.017333886 0.032336432
0.01960701 0.12837785 0.055698458 -0.057726495 -0.0457958 -0.023616128 0.06917012 0.17952043
0.13343817 -0.16862975 -0.09330327 -0.06693616 -0.06956258 -0.08575512 0.023734901 0.074831575
00000000: 71c2 80bd 4c45 1cbc b816 76bd d37b 803b
00000010: 0c58 3c3d a0db c83c 820e 9abb 7ffa eb3c
00000020: 5451 30be b0ef a4bd b58c 59bc b2c8 bb3c
00000030: a39d 683d c805 243e ce09 913b 1944 0bbd
00000040: 34fb 9fbd 591e a63c 2981 9ebd 4288 b53d
00000050: 1ea1 59bd c7db 5abd 028a 6d3d f54b e33c
00000060: 1ced 7fbd e14c 0ebd e2d7 343d d8ab 32bb
00000070: 320d a53c dca6 00bb fb73 df3b 329e 253d
00000080: eae3 5dbc 8d2b ad3c 0fa4 9b3d a0d9 9d3c
00000090: c4cb 54bd a7f0 24bd 11f0 513d 28e1 ef3d
000000a0: 4a87 80bd 4be0 c93d 9925 11bd 5810 903d
000000b0: b05e 67bd 8eb2 c7bc be70 8ebd eea0 2a3d
000000c0: 747b dabb f072 963c f0d2 29bd 003f 933c
000000d0: 6c58 803d 5996 863d 6867 68bd 036b 07be
000000e0: 32be a7bd 21fc 73bb fb94 3a3e 37ca d2bd
000000f0: 1804 0a3e 2619 9c3c 0e05 30bd 2df3 1dbc
00000100: f1a3 82bc 3ea1 14bd 7621 b2bd 064b 073c
00000110: 4099 93bc e9fa 97bc e7ef 4ebd dd95 74bc
00000120: c357 84bd ddfd 533d c1af 5f3c 96f8 a4bd
00000130: 51f7 d33c 3faf 3a3b 3eeb fd3c d6c2 b6bc
00000140: 74d8 a93c 9336 eebd 96c2 103d 3867 2b3e
00000150: bb8f d2bd 67f8 82bd 536a 05be 95d7 373d
00000160: ada1 36bd b125 d4bd bfa3 4d3d 17e1 2bbd
00000170: 21be 8cbd 4f95 9b3d aac9 993b e252 dc3d
00000180: 9bac 82bd d13b 823d 45d4 463d c93f 9ebd
00000190: 5ef7 593d 9aca 813d af18 a43d 9ac9 dc3d
000001a0: d6b8 b6bd 1520 99bb 7736 bd3c 89ab 473d
000001b0: 961a 953c e933 00be 8dee eebd 52a8 8cbd
000001c0: 0e4f f93c 3264 30bd ee9a 5ebb a811 113e
000001d0: 975c 2cbc 5743 193e 1292 b63d 8ab9 f73d
000001e0: 732e 603d 2c12 413d 5aaf c8bd ca1d f33b
000001f0: ac39 c5bd 884d 253e 8f56 d33c 7fc5 553d
00000200: b0b5 c13d 067d 53bd 8a68 ba3b 14d7 73bd
00000210: 25c8 093d 7787 093d 93cd 9bbd 0b95 ca3d
00000220: 0cb4 203c 7e01 97bd ef99 d63c ba8f 0b3e
00000230: 9557 523d f650 04bb 9f58 0bbe da6e bf3d
00000240: c56a 1dbb 592e a4bd 66cd 06bd 43a1 a93d
00000250: 45a0 ce3c 69bc 69bd 4f6a d03c 1921 adbd
00000260: a4e4 e9bc 5ef1 1dbe e2a2 84bc bb16 7b3d
00000270: 39f4 32bb 4de0 9fbc 883f d3bc 977c 06be
00000280: 8156 ad3d 39e0 b43d 1af3 63bd 4bff 91bd
00000290: deed 26be df20 393d 6d7c c83d 5621 073d
000002a0: 7263 e5ba 2ecd 583d c981 7dbd 472c 48bd
000002b0: be82 5c3d 0264 81bd 6126 2abc 69e1 05be
000002c0: 8226 5cbd 5193 9a3d 305f 06be 6133 11be
000002d0: f338 a33b 62b5 8cbb d902 c23d 2b08 ea3d
000002e0: 395c 283d fd5f 83bd 558d c23d 0cb9 ad3d
000002f0: a13f 13bc e536 a23d d594 e6bd a0f4 cabd
00000300: 1b56 6ebb d9eb 87bd 511d 933b d419 21bc
00000310: 25db 883d d2ce b6bd 360b d7bd 90ac 43bc
00000320: 63dd 07bd e375 b73c b4c2 70bd 394c 95bd
00000330: 3fde c23d 7cab 9dbc 4d0f 47bd 2fa1 60bd
00000340: 0634 b23c cc04 ef3d d8e1 abbd d219 c03c
00000350: 554a 16bd f675 a2bc ee8b 383b 92d9 2d3d
00000360: 0246 653b 12ec 6cbd 210e 7b3c c778 2b3d
00000370: 26f0 5fbd 5df6 f1bc 8911 a83d a931 f83d
00000380: 4089 b3bd e0db de3c 5539 b2bb bbe3 863b
00000390: 5673 8d3d 0502 183d 5f8b ed3c a8a0 cb3d
000003a0: cba4 79bd f05a f93d 82a2 27bd a3b1 653d
000003b0: b268 29bd f2e6 85bc cbff 8dbc 3573 043d
000003c0: e19e a03c 7c75 033e 1124 643d 9e72 6cbd
000003d0: 6094 3bbd 9c76 c1bc 10a9 8d3d 34d4 373e
000003e0: 04a4 083e 47ad 2cbe c915 bfbd d315 89bd
000003f0: d376 8ebd 61a0 afbd b26f c23c 4c41 993d

lstm.bias_ih_l1 f4 [256]
0.8441749 -0.6305513 1.0605961 2.033505 1.3813704 1.8814607 -0.5815678 1.3171355
0.9115468 -0.12928015 0.2979922 -0.02150474 0.35621545 -0.13719648 2.5507848 -0.3969864
0.30792034 -0.1995037 -0.5558522 0.96383053 0.28790122 -0.09634121 0.50819093 -0.88020784
0.3677277 1.8888487 -0.92990804 0.19742106 -0.09908558 -0.34686893 1.2920675 -0.08056498
1.3829702 1.0490563 -0.4065017 -0.8661487 1.052061 -1.5447998 -1.5122297 -1.387245
-1.807695 -1.8614885 0.7111175 0.37738568 1.4127749 0.36799133 0.73475105 1.3472921
0.23171733 -0.15492357 -0.3014808 -1.2353913 0.33514723 1.539761 1.4616328 2.0837243
-1.0666057 -0.28028113 -0.03458268 0.45752865 -1.5924245 1.0185338 -0.61300206 -0.21391462
0.5856825 -0.97016644 0.94652474 2.3714783 -0.09527326 0.23952067 -1.4168122 -0.4197406
1.0743668 1.8856077 0.9487936 2.1262665 -0.37824392 -0.37722173 -1.4483533 -0.61552495
0.50936913 0.40399462 -0.17417893 1.1301022 0.36051184 -0.64336765 -0.60286003 -0.18173283
-0.66124463 0.1697375 1.9075599 -0.2958621 -1.0102105 -0.7562611 -0.27060303 1.1988336
0.26863 0.06699127 0.28773695 -0.0617344 -1.3845325 0.018696927 -0.39032525 -0.808859
-0.5755924 -0.82059944 -1.4471642 0.8284129 -0.16620158 0.4989226 0.32861006 0.7174469
-0.23207407 0.35747677 -0.7330227 -0.9652712 -1.339326 0.8026724 -0.958779 0.81662893
0.62550646 0.07004404 1.068627 0.24857888 -1.2310302 -1.1318765 2.6483781 -0.17458634
-0.34615463 0.5588988 -0.4581804 -0.6373456 2.0998025 0.50594825 0.098300755 -1.2813933
0.072305486 1.3095713 -1.3030128 0.15490031 -0.72942305 -0.94117385 1.4516926 -1.3243933
-1.8552696 2.4623199 0.69498515 0.40450096 0.40846285 1.5541546 -0.31716675 1.8939999
0.45682594 0.20596986 -0.73594224 -0.7036266 -0.44604015 -1.1664855 -1.26212 0.7695644
-1.534626 0.61967546 0.6247386 1.0076537 0.2897042 -0.95855254 -0.9941504 1.4444234
-0.17734243 -0.67716825 2.346236 0.23896241 -0.48153803 -0.35130966 0.07416162 1.7163363
0.76912993 -1.163658 1.3796055 0.07039383 -0.19433054 0.06362917 -0.8611835 -0.9488403
-1.8628906 -0.02440399 -0.6809945 -0.94265586 1.0783732 0.74307984 0.43904027 0.10094283
-0.61201656 1.9162364 -0.604985 -0.35541052 -1.7729245 0.18616092 -0.12744275 0.13181348
-0.009791496 0.5694569 0.1535908 -0.35058 1.2664305 2.0537002 0.7330766 -0.66123223
-0.80103576 1.5038978 -2.1210184 0.0024058064 0.10884087 0.71448535 -0.36917064 1.1898584
-0.30316624 -1.2375867 -0.45250288 -0.6605152 0.034963783 -1.2121407 -0.20571373 -0.78660226
-1.5801747 0.9669344 0.33745313 -0.330526 0.77898544 -1.2593997 -1.0414084 0.8285594
-0.8773529 -0.31815276 -0.5620125 -0.19991086 -0.94614184 1.7594907 -0.60809004 0.38287908
-0.22241841 -0.20902787 0.46491343 0.46574444 0.5223343 1.783028 -0.9059396 -1.0127239
-0.4672346 0.47417158 -1.3735429 1.1733404 0.9933226 0.61820185 -1.4928519 0.47963578
00000000: d91b 583f cf6b 21bf 9dc1 873f f224 0240
00000010: bfd0 b03f b4d3 f03f a1e1 14bf e597 a83f
00000020: 225b 693f 0462 04be 6f92 983e b52a b0bc
00000030: df61 b63e 3c7d 0cbe 0f40 2340 cd41 cbbe
00000040: bca7 9d3e b34a 4cbe 544c 0ebf 99bd 763f
00000050: ca67 933e 8a4e c5bd cd18 023f 4d55 61bf
00000060: ce46 bc3e cbc5 f13f 740e 6ebf bf28 4a3e
00000070: 61ed cabd ce98 b1be 7862 a53f 41ff a4bd
00000080: 2b05 b13f 7a47 863f fe20 d0be ecbb 5dbf
00000090: efa9 863f 00bc c5bf be90 c1bf 3f91 b1bf
000000a0: 8d62 e7bf 4145 eebf cc0b 363f b238 c13e
000000b0: cfd5 b43f 5c69 bc3e a518 3c3f 1174 ac3f
000000c0: 4f47 6d3e 49a4 1ebe b15b 9abe 4d21 9ebf
000000d0: 6b98 ab3e e316 c53f c916 bb3f bd5b 0540
000000e0: 8986 88bf 0281 8fbe 91a6 0dbd 3241 ea3e
000000f0: 91d4 cbbf 515f 823f b4ed 1cbf 6f0c 5bbe
00000100: 4aef 153f d45c 78bf 724f 723f 4dc6 1740
00000110: a01e c3bd e844 753e 1a5a b5bf 3de8 d6be
00000120: da84 893f 985b f13f 23e4 723f c014 0840
00000130: 30a9 c1be 3523 c1be a463 b9bf 0b93 1dbf
00000140: 0466 023f 62d8 ce3e f65b 32be 30a7 903f
00000150: 0295 b83e beb3 24bf 0955 1abf 2c18 3abe
00000160: 5447 29bf abcf 2d3e ec2a f43f 3d7b 97be
00000170: 944e 81bf 549a 41bf 7b8c 8abe 6173 993f
00000180: df89 893e b832 893d 4252 933e 36dd 7cbd
00000190: 5c38 b1bf 4c2a 993c b6d8 c7be 6211 4fbf
000001a0: 065a 13bf ce12 52bf ad3c b9bf de12 543f
000001b0: bf30 2abe c872 ff3e 943f a83e 9aaa 373f
000001c0: d3a4 6dbe 3207 b73e 60a7 3bbf 031c 77bf
000001d0: 096f abbf f07b 4d3f 8a72 75bf 980e 513f
000001e0: 3121 203f 4073 8f3d c5c8 883f 768b 7e3e
000001f0: 6692 9dbf 54e1 90bf 077f 2940 c3c6 32be
00000200: 2e3b b1be fe13 0f3f 9f96 eabe 1529 23bf
00000210: 2a63 0640 d385 013f e851 c93d b204 a4bf
00000220: e614 943d 08a0 a73f 20c9 a6bf 309e 1e3e
00000230: 78bb 3abf c5f0 70bf 10d1 b93f b885 a9bf
00000240: 7979 edbf a696 1d40 8cea 313f c01a cf3e
00000250: 0b22 d13e 8aee c63f ae63 a2be 976e f23f
00000260: 17e5 e93e c3e9 523e b666 3cbf df20 34bf
00000270: 605f e4be 664f 95bf 268d a1bf 2c02 453f
00000280: a06e c4bf 0da3 1e3f deee 1f3f ccfa 803f
00000290: 1c54 943e b363 75bf a480 7ebf dee2 b83f
000002a0: 4199 35be e65a 2dbf bb28 1640 90b2 743e
000002b0: 278c f6be dcde b3be 0ce2 973d e8b0 db3f
000002c0: b3e5 443f bff2 94bf ea96 b03f a42a 903d
000002d0: 96fe 46be 0350 823d 8676 5cbf 33e7 72bf
000002e0: 3373 eebf e0ea c7bc a855 2ebf e551 71bf
000002f0: 2208 8a3f 7b3a 3e3f e3c9 e03e 1dbb ce3d
00000300: 1ead 1cbf 3c47 f53f 4ce0 1abf 5ef8 b5be
00000310: 31ef e2bf f8a0 3e3e 5a80 02be 1dfa 063e
00000320: 836c 20bc edc7 113f e846 1d3e 397f b3be
00000330: 651a a23f d36f 0340 e8aa 3b3f 8446 29bf
00000340: ae10 4dbf b97f c03f c4be 07c0 bcaa 1d3b
00000350: f6e7 de3d 83e8 363f ef03 bdbe 484d 983f
00000360: 9b38 9bbe 3e69 9ebf 75ae e7be 8617 29bf
00000370: 2f36 0f3d 6d27 9bbf 9fa6 52be c45e 49bf
00000380: 2a43 cabf 0389 773f a8c6 ac3e b43a a9be
00000390: 976b 473f 0234 a1bf df4c 85bf 781c 543f
000003a0: 339a 60bf ebe4 a2be 0de0 0fbf 6fb5 4cbe
000003b0: 5a36 72bf fe36 e13f caab 1bbf ba08 c43e
000003c0: a7c1 63be 670b 56be 2209 ee3e 0e76 ee3e
000003d0: b3b7 053f 433a e43f a8eb 67bf f0a0 81bf
000003e0: 6039 efbe 9ec6 f23e 41d0 afbf 0530 963f
000003f0: 644a 7e3f 7a42 1e3f c515 bfbf d292 f53e

lstm.bias_hh_l1 f4 [256]
-1.6619258 -0.5034774 0.41602778 -0.8455526 -1.056696 -1.4410453 0.28330868 -0.18619384
-0.27674216 0.17761879 0.964485 0.05707481 -0.12837 1.0782877 0.008668567 -1.4437578
0.8484524 1.263782 2.114002 0.037646633 -0.10508129 0.017866373 -1.8654314 0.9736785
0.46400443 -1.8372645 1.6166787 -1.5889094 1.1058321 0.22653295 0.9681089 -1.7971028
0.113284014 0.5949504 -0.32440972 1.2293929 -0.7122057 -0.38252735 1.124114 1.1702534
0.5306844 0.40841106 0.6657051 -1.043932 0.3891695 1.0279284 -0.26328224 -0.9300737
0.9780444 1.1996034 -0.7090116 -0.48658994 -1.3033167 0.6150688 0.37201166 0.66649985
-0.71752936 -0.2699142 -1.433919 -2.2608871 1.0316637 0.07646337 -0.092816114 -0.23918904
0.20966679 0.061877042 0.046347063 0.4030198 0.7777142 -1.289478 -0.6850582 0.15470423
0.34534484 -0.5457214 2.147163 -0.40083224 1.3013816 0.10627495 2.0510664 0.20143321
-0.48654372 0.9829412 0.94921184 1.3422841 0.35307842 0.58734125 1.1431992 -0.7051299
-1.061017 -0.058684178 0.4541445 0.31156656 -2.4288502 -0.84563696 -0.36181036 1.3666831
1.3023251 0.58269477 1.5455433 0.4928467 0.72023964 -1.9181526 0.0775169 -0.8795922
0.16116363 -0.4771044 0.6027214 0.25582814 -0.18008468 0.13899767 0.9975133 -0.39980966
1.4923122 0.08482358 -1.7795022 0.120476626 -0.4108504 -0.03511168 0.67154485 -0.4452748
1.8221638 0.67869943 0.7518794 0.15250742 -1.9390267 0.4086209 0.21472538 0.20944129
-1.5601398 0.3748113 0.035699002 1.9178532 0.2932189 0.27262062 0.9433716 -0.39080632
1.1416919 1.3068948 0.31488904 -0.530451 -0.61259705 -0.8606487 -0.89915764 -0.93293
-2.051473 0.22703679 -0.48971528 -1.6605742 -0.099430926 2.076001 0.31162748 0.29619315
0.38703483 0.59173673 -0.2831275 0.15360294 2.2796416 0.2474966 0.57215434 0.90327054
-0.27245012 -0.99312824 -1.3866203 -0.14496937 0.8695236 0.32047945 -0.6067531 -0.64859766
0.24433176 -0.5040983 1.5493866 1.1780057 -0.4766647 1.6375514 -0.24685432 0.115260094
-0.30344054 -0.91860986 -1.0069755 1.075331 0.1020438 0.670833 -0.27450097 -0.34280753
-0.6703166 0.24698906 -0.55027497 0.6124032 -1.2696546 -0.9117051 -0.032713983 0.7228492
0.8933724 -1.4738376 -1.4907521 0.29361185 0.7355397 -0.28657237 -0.7684681 1.0312862
2.886244 1.236843 -0.9750528 0.524828 0.09563719 -0.28344145 0.393141 0.99052393
0.348669 -0.9990287 -1.2990173 0.7157541 -1.5164036 -1.9955895 -0.3460025 0.97180283
0.32913136 -0.83445525 -0.52577543 -0.0011653649 -1.1117524 -0.79207593 1.2442732 -1.3200305
0.4695714 0.8159138 0.99588853 -1.8405658 1.979743 1.8021481 -0.11175768 1.9531162
-0.38710886 0.23143032 0.61676645 -0.68990093 0.32513395 0.22058801 -0.050827477 1.1133325
0.25406793 -0.6125254 -0.89055854 -0.3011154 0.7801598 0.8849864 -1.2343353 -0.7640906
0.8500388 -0.07989456 0.49426055 -1.8857204 0.4897312 0.25120637 0.22798134 -0.77041
00000000: fcb9 d4bf e5e3 00bf 9801 d53e 2376 58bf
00000010: d141 87bf 2c74 b8bf d60d 913e 99a9 3ebe
00000020: 26b1 8dbe b3e1 353e 7de8 763f 47c7 693d
00000030: 6d73 03be 5505 8a3f 9b06 0e3c 0ecd b8bf
00000040: 2d34 593f 9cc3 a13f cf4b 0740 5b33 1a3d
00000050: dc34 d7bd 805c 923c 75c6 eebf ff42 793f
00000060: fd91 ed3e 7c2b ebbf 54ef ce3f 6261 cbbf
00000070: e88b 8d3f 41f8 673e fcd5 773f 7707 e6bf
00000080: 7301 e83d ab4e 183f 0819 a6be bf5c 9d3f
00000090: 1d53 36bf a0da c3be f8e2 8f3f ddca 953f
000000a0: efda 073f 411b d13e a66b 2a3f 909f 85bf
000000b0: 3a41 c73e 2893 833f eecc 86be 4f19 6ebf
000000c0: 1e61 7a3f 9b8c 993f c981 35bf 5122 f9be
000000d0: 15d3 a6bf 2675 1d3f 5078 be3e bc9f 2a3f
000000e0: 01b0 37bf 3232 8abe a88a b7bf 60b2 10c0
000000f0: 8e0d 843f d498 9c3d 6016 bebd f9ed 74be
00000100: e4b2 563e c872 7d3d 6bd6 3d3d 9c58 ce3e
00000110: 4718 473f 9d0d a5bf f95f 2fbf c96a 1e3e
00000120: 0ad1 b03e 66b4 0bbf 1e6b 0940 e239 cdbe
00000130: ac93 a63f aea6 d93d ac44 0340 8244 4e3e
00000140: 421c f9be 09a2 7b3f 8cff 723f f7cf ab3f
00000150: b2c6 b43e ff5b 163f 5a54 923f 6583 34bf
00000160: 68cf 87bf d25e 70bd a185 e83e a785 9f3e
00000170: 4872 1bc0 aa7b 58bf 353f b9be 79ef ae3f
00000180: 97b2 a63f 7c2b 153f 5dd4 c53f 6756 fc3e
00000190: a061 383f 0686 f5bf 2ec1 9e3d f42c 61bf
000001a0: 1408 253e 0747 f4be f34b 1a3f e8fb 823e
000001b0: 1e68 38be 6855 0e3e 085d 7f3f dab3 ccbe
000001c0: 1604 bf3f fcb7 ad3d bac6 e3bf 73bc f63d
000001d0: fc5a d2be 44d1 0fbd 5dea 2b3f 0ffb e3be
000001e0: aa3c e93f 3fbf 2d3f 2b7b 403f e82a 1c3e
000001f0: 0732 f8bf c236 d13e f8e0 5b3e c777 563e
00000200: a9b2 c7bf 44e7 bf3e 1e39 123d 377c f53f
00000210: ca20 963e ee94 8b3e cd80 713f c417 c8be
00000220: f622 923f 5448 a73f 2339 a13e a3cb 07bf
00000230: 29d3 1cbf 7953 5cbf 322f 66bf 80d4 6ebf
00000240: 554b 03c0 557c 683e f6bb fabe b28d d4bf
00000250: 71a2 cbbd 33dd 0440 a38d 9f3e a1a6 973e
00000260: 6e29 c63e 0f7c 173f 16f6 90be 174a 1d3e
00000270: a6e5 1140 c06f 7d3e b578 123f bd3c 673f
00000280: 957e 8bbe a73d 7ebf c67c b1bf da72 14be
00000290: 1999 5e3f e215 a43e 2c54 1bbf 7f0a 26bf
000002a0: 1b32 7a3e 960c 01bf 4d52 c63f e4c8 963f
000002b0: 650d f4be 499b d13f 61c7 7cbe 7c0d ec3d
000002c0: 8f5c 9bbe 042a 6bbf 93e4 80bf 72a4 893f
000002d0: 57fc d03d b6bb 2b3f 648b 8cbe 7884 afbe
000002e0: de99 2bbf b3ea 7c3e d2de 0cbf 75c6 1c3f
000002f0: 0b84 a2bf 8165 69bf 19ff 05bd a50c 393f
00000300: 0eb4 643f b6a6 bcbf f7d0 bebf 4b54 963e
00000310: 544c 3c3f 9db9 92be 53ba 44bf 3001 843f
00000320: 39b8 3840 df50 9e3f 0f9d 79bf 215b 063f
00000330: 6edd c33d 3d1f 91be c749 c93e fa92 7d3f
00000340: be84 b23e 58c0 7fbf 3346 a6bf a93b 373f
00000350: 8319 c2bf 7a6f ffbf 3d27 b1be 12c8 783f
00000360: e883 a83e dc9e 55bf 3899 06bf 28bf 98ba
00000370: e74d 8ebf 7dc5 4abf 5844 9f3f c2f6 a8bf
00000380: aa6b f03e badf 503f 8df2 7e3f a997 ebbf
00000390: 3868 fd3f caac e63f 36e1 e4bd b6ff f93f
000003a0: 2233 c6be 12fc 6c3e 68e4 1d3f 599d 30bf
000003b0: f577 a63e d3e1 613e 7930 50bd ae81 8e3f
000003c0: 3115 823e 77ce 1cbf a5fb 63bf cc2b 9abe
000003d0: 8db8 473f 788e 623f b3fe 9dbf 719b 43bf
000003e0: 259c 593f c29f a3bd b80f fd3e 495f f1bf
000003f0: 0cbe fa3e 1f9e 803e f173 693e 9739 45bf
