04_Models/daily_GDEA_sentiment/best_model.pth (torch, 892725 bytes, 47 tensors)

lstm.weight_ih_l0 f4 [256, 63]
0	0xbda0b38f	-0.07846748
1	0xbd2c8d7f	-0.04212713
2	0x3d6080e9	0.05481044
3	0xbc9a6b87	-0.018850101
4	0xbd73d33a	-0.059527613
5	0x3e2bbfbc	0.1677236
6	0x3c8d3aac	0.017239891
7	0xbcdd8276	-0.027039748
8	0x3d4390b8	0.047745436
9	0x3e3c987b	0.18417542
10	0x3daa1147	0.08304077
11	0x3dc4e08a	0.0961314
12	0xbbf198ea	-0.007372965
13	0x3d5cf002	0.053939827
14	0x3d7178d3	0.058953118
15	0xbc9893a0	-0.01862508
16	0xbe005514	-0.12532455
17	0x3da99138	0.082796514
18	0xbbf0299a	-0.007329178
19	0xbd9181cf	-0.07104837
20	0xbd66006b	-0.056152742
21	0x3cf1d3a3	0.029519862
22	0x3b9be469	0.004757453
23	0x3d14deb8	0.036345214
24	0x3c3ed73e	0.011647997
25	0x3d0ef6dc	0.034903392
26	0x3d8be2a8	0.068303406
27	0x3d96c33e	0.07361458
28	0x3d1e2382	0.03860808
29	0xbd87c9c6	-0.06630282
30	0x3d2d238c	0.04227023
31	0x3cb01a7a	0.021497
32	0xbd6400c9	-0.05566481
33	0xbdb539a1	-0.088488825
34	0xbc82d674	-0.0159714
35	0xbb967fbf	-0.0045928652
36	0xbce89a0f	-0.028393773
37	0x3ce789f6	0.028264027
38	0x3cb6459b	0.022249987
39	0x3cb1ed04	0.021719463
40	0xbbe5775e	-0.007002755
41	0xbcef5436	-0.02921496
42	0x3d0aeeb5	0.033919055
43	0x3cc86168	0.02446051
44	0xbd55de8c	-0.05221419
45	0x3cab53d1	0.02091399
46	0x3bb78729	0.005600829
47	0x3dcf5d64	0.10125235
48	0x3d6bc39a	0.057559587
49	0xbd1e9152	-0.038712807
50	0xbc007679	-0.007840746
51	0x3ba0db0b	0.0049089245
52	0x3d81b2b7	0.06332915
53	0xbd82ba28	-0.06383163
54	0xbd92a25c	-0.07159874
55	0xbc6baae5	-0.014384006
56	0x3daac4e1	0.08338333
57	0x3d815490	0.06314957
58	0x3c2d23db	0.010567631
59	0xbbf22b67	-0.007390428
60	0xbd103e65	-0.035215754
61	0xbd98e33f	-0.07465219
62	0xbdd3c1b6	-0.10339682
63	0xbcc0f11a	-0.023552466
64	0xbc178516	-0.009248039
65	0xbd925133	-0.07144394
66	0xbdb5a3cd	-0.08869133
67	0x3b5f955c	0.0034116125
68	0xbce52464	-0.027971454
69	0xbdfef9dc	-0.12450001
70	0xbd1a0261	-0.037599925
71	0x3cdf819a	0.027283479
72	0x3d893401	0.06699372
73	0xbd0d102c	-0.03443925
74	0x3d264f08	0.040602714
75	0x3b21b926	0.0024677007
76	0x3d090320	0.033450246
77	0x3d13768d	0.03600173
78	0x3d5ca877	0.053871598
79	0xbcfe9588	-0.031077161
80	0xbcb7c373	-0.022432065
81	0x3c9fa08a	0.01948573
82	0x3dd2d944	0.102953464
83	0x3da0220f	0.07818996
84	0xbca355c9	-0.019938366
85	0x3bae74f8	0.0053240024
86	0xbdc208c9	-0.09474332
87	0x3ca31af6	0.019910317
88	0xbe0813b7	-0.1328877
89	0xbd673f59	-0.056456897
90	0xbd30ed56	-0.04319509
91	0xbdcc3922	-0.09971835
92	0xbcf47ef5	-0.029845694
93	0x3c3e5465	0.011616801
94	0xbcdaa860	-0.026691616
95	0x3de8f1b5	0.11374227
96	0xbdc3a446	-0.09552817
97	0x3dd69531	0.10477675
98	0x3df07942	0.11741878
99	0x3db96a98	0.09053534
100	0xbd0b6994	-0.034036234
101	0x3ce786f5	0.028262595
102	0xbd5db501	-0.054127697
103	0xbc58600d	-0.013206494
104	0xbd07c8f7	-0.03315064
105	0x3b8852a0	0.0041602403
106	0xbd03f9f5	-0.0322208
107	0xbd41690e	-0.04721933
108	0x3de40bfc	0.11135098
109	0xbc65c30d	-0.0140235545
110	0x3dd896cf	0.105756395
111	0x3d478796	0.04871329
112	0x3dfe1e41	0.12408114
113	0x3d053af2	0.032526918
114	0xbc2c2eb6	-0.010509184
115	0x3d9ee087	0.07757669
116	0x3d7acc28	0.061229855
117	0xbca78065	-0.020446965
118	0x3d53b46c	0.051685736
119	0x3dd38d5f	0.10329699
120	0xbd59d301	-0.053179745
121	0xbd4c1d4c	-0.049832627
122	0x3cd9b967	0.026577665
123	0x3d1d5afb	0.038416844
124	0x3d8e0f6a	0.06936534
125	0x3c7dadfd	0.015483377
126	0x3c64cbae	0.013964577
127	0x3d1beeea	0.038069643
128	0xbcb98f5f	-0.022651372
129	0xbce2b2dd	-0.02767318
130	0x3d0cf4bb	0.03441308
131	0xbd603805	-0.054740924
132	0x3d38cfe8	0.04512015
133	0x3d75f51d	0.06004821
134	0x3dc9ed5d	0.098597266
135	0x3c7941d7	0.015213451
136	0xbd80e1da	-0.06293078
137	0xbd28bfbd	-0.04119848
138	0xbc6a75a6	-0.014310276
139	0x3cc6ac96	0.024252217
140	0xbdbcfd7c	-0.09228036
141	0xbc037206	-0.008022791
142	0x3cd0cdd5	0.025488773
143	0x3ce0d6b5	0.02744613
144	0xbd3f8c75	-0.04676481
145	0xbde7da95	-0.11320988
146	0xbd82fe25	-0.063961305
147	0x3dc9c70d	0.09852419
148	0xbc23b591	-0.009992019
149	0xbcd9383b	-0.02651607
150	0x3c17c034	0.009262133
151	0x3b46941c	0.0030300682
152	0x39e464a2	0.00043562526
153	0x3c561593	0.013066667
154	0x3cef44f2	0.02920768
155	0x3c21e42f	0.009881063
156	0xbdc919f3	-0.098194025
157	0x3db9b556	0.0906779
158	0x3d909c18	0.070610225
159	0x3da8086d	0.08204732
160	0xbc24482f	-0.010026976
161	0xbc69caf9	-0.014269584
162	0x3d5a0c45	0.053234357
163	0x3dd18e9a	0.10232277
164	0x3e3dc650	0.18532681
165	0xbd9e27c0	-0.077224255
166	0x3bfe7391	0.0077652414
167	0x3d39e60d	0.04538541
168	0x3d5443ab	0.051822346
169	0xbda4b65c	-0.08042595
170	0x3ce57e24	0.02801425
171	0x3d039245	0.032121915
172	0x3e0edf7f	0.13952444
173	0x3cf76a77	0.030202134
174	0x3d90a099	0.070618816
175	0xbc06bfe4	-0.008224461
176	0xbd88b9cf	-0.06676065
177	0x3ce24e46	0.027625214
178	0xbdac549c	-0.084145755
179	0xbdb21eab	-0.08697256
180	0xbc9652a2	-0.01834995
181	0x3d84edea	0.06490691
182	0xbd663dd2	-0.0562113
183	0x3da04dcf	0.07827341
184	0x3d82755d	0.063700415
185	0xbdd08c39	-0.10182995
186	0x3d277c1f	0.040889855
187	0xbb856882	-0.004071296
188	0x3db854f4	0.090005785
189	0x3b79a2dd	0.003809146
190	0xbc9166fc	-0.017749302
191	0x3bbd1de5	0.005771386
192	0xbdb2ee26	-0.087368295
193	0xbd482cd8	-0.04887089
194	0xbd2a15f2	-0.041524835
195	0xbd8c0dd4	-0.06838575
196	0xbd8649d7	-0.065570526
197	0x3d8c1fbc	0.0684199
198	0xbd4030b2	-0.04692144
199	0x3d8ee800	0.06977844
200	0x3d6a86f4	0.057257608
201	0x3d249b71	0.040187303
202	0xbe14ceb3	-0.14531974
203	0xbd26d45a	-0.040729858
204	0xbb271932	-0.0025497195
205	0x3c8872f5	0.016656378
206	0x3bbce2c8	0.005764339
207	0xbdc30f09	-0.09524352
208	0xbd9e7543	-0.0773721
209	0x3ca52e12	0.02016357
210	0x3da1021e	0.07861732
211	0x3c13da44	0.009024207
212	0xbc233b14	-0.009962816
213	0xbc144689	-0.00905002
214	0x3d673b8e	0.05645328
215	0xbce0ba5d	-0.027432615
216	0xbcd3fe52	-0.025878105
217	0x3d0aef32	0.03391952
218	0x3c8086fe	0.01568937
219	0xbdc5f13b	-0.09665152
220	0xbcd4243f	-0.02589619
221	0x3d8690c9	0.06570584
222	0x3d1104f3	0.03540511
223	0xbda1f6ff	-0.07908439
224	0x3d46fa30	0.04857844
225	0x3e10a7a2	0.14126447
226	0xbd24f7f7	-0.04027554
227	0x3dd89823	0.10575893
228	0xbd0ed06d	-0.03486674
229	0x3e19c21e	0.15015456
230	0xbdcce8c1	-0.10005332
231	0x3a88fa24	0.0010450524
232	0x3e0ee214	0.1395343
233	0xbbc84e5a	-0.006112856
234	0xbdc31aef	-0.095266216
235	0x3b959216	0.004564534
236	0xbd20eb1a	-0.03928671
237	0xbdcd1e8f	-0.10015594
238	0x3d150a55	0.036386807
239	0x3d11a4d4	0.035557583
240	0x3d4163f3	0.04721446
241	0xbd89e4dc	-0.067331046
242	0xbdb5ebd0	-0.08882868
243	0xbd6c0c9c	-0.057629213
244	0xbcb1178b	-0.021617671
245	0x3d3dcac2	0.046335943
246	0xbcbe85bd	-0.02325713
247	0xbc908323	-0.017640656
248	0x3db43479	0.08799071
249	0x3db10de1	0.08645225
250	0x3d1a87a6	0.03772702
251	0x3da7afa7	0.081878
252	0xbd0a1832	-0.03371448
253	0x3d600993	0.05469663
254	0x3d2e7614	0.042593077
255	0xbd6483d9	-0.055789802

lstm.weight_hh_l0 f4 [256, 64]
0	0x3d425e6a	0.04745332
1	0xbd08ce0a	-0.03339962
2	0xbbe1fb3e	-0.0068964055
3	0xbc2ed109	-0.010669955
4	0x3de7a91b	0.11311551
5	0x3d500e50	0.0507949
6	0xbcd2b464	-0.025720783
7	0x3de415eb	0.11136993
8	0xbd70f2b1	-0.0588252
9	0xbc43304c	-0.01191337
10	0x3d6dfaa7	0.05810037
11	0xbd818db1	-0.063258536
12	0xbd82a4b2	-0.063790694
13	0xbdad8857	-0.084732704
14	0xbcdfc746	-0.0273167
15	0x3df39ee6	0.11895542
16	0xbca96ee4	-0.02068276
17	0x3dcfb8e4	0.10142687
18	0x3d8f5e50	0.070004106
19	0xbce802a2	-0.028321568
20	0x3c512606	0.012765413
21	0x3d6b0bda	0.05738435
22	0x3cccafd5	0.024986187
23	0x3ca8164f	0.02051845
24	0xbd23c522	-0.039982922
25	0x3c93747d	0.017999882
26	0x3df6e0d0	0.12054598
27	0x3a316554	0.0006767113
28	0xbd9a39e7	-0.07530575
29	0xbd9fab8a	-0.0779639
30	0xbd14c785	-0.03632309
31	0x3d13c501	0.03607655
32	0x3db2169d	0.086957194
33	0xbd71a524	-0.05899538
34	0x3c3caf1c	0.011516359
35	0x3ba0149f	0.0048852707
36	0x3c463667	0.0120979315
37	0xbdb01653	-0.08598008
38	0xbd073e67	-0.033018496
39	0xbc453351	-0.012036161
40	0x3cbf5cf0	0.023359746
41	0x3d87e118	0.0663473
42	0xbd3b3f1c	-0.045714483
43	0xbc9d08b6	-0.019169193
44	0xbc2dc47f	-0.01060593
45	0x3d2eae20	0.042646527
46	0x3d53adca	0.05167941
47	0x3c0540fc	0.008133169
48	0x3dbd009d	0.092286326
49	0x3d084439	0.033268187
50	0x3e13a60a	0.14418808
51	0xbd089f4d	-0.033355046
52	0x39fb19c4	0.00047893648
53	0x3d60d86c	0.054893896
54	0x3d52f7b8	0.051505774
55	0x3dbd564f	0.09244978
56	0x3b4e143c	0.0031445166
57	0x3d93cb96	0.07216565
58	0x3da1afe0	0.078948736
59	0x3d9e9493	0.07743182
60	0xbbdff81a	-0.006834996
61	0x3d34eed6	0.044173084
62	0x3cfc92fd	0.030831808
63	0x3ce146b3	0.027499532
64	0x3db29038	0.08718914
65	0x3d50917c	0.050919995
66	0xbe0c6e00	-0.13713837
67	0x3ce92cda	0.02846377
68	0xbe2d9113	-0.16949873
69	0x3d881597	0.06644743
70	0xbdfc2af6	-0.12312882
71	0x3b2f7836	0.0026774532
72	0x3cd307ec	0.025760613
73	0x3b926c16	0.0044684513
74	0xbcbcc98b	-0.023045322
75	0x3cc5f938	0.024166688
76	0x3cb2c02d	0.021820152
77	0xbcbc626d	-0.022996152
78	0x3df49e24	0.119442254
79	0xbdb71df1	-0.08941258
80	0x3ccc0195	0.024903098
81	0xbcd17482	-0.02556825
82	0x3d87f10f	0.06637775
83	0xbc9fef99	-0.019523429
84	0xbbdaea85	-0.006680789
85	0xbd473a72	-0.048639722
86	0x3bc34717	0.0059594023
87	0xbba85119	-0.0051366207
88	0x3bf352f9	0.0074256626
89	0xbcbf0339	-0.023316966
90	0xbd610093	-0.05493219
91	0x3cf1acfd	0.029501433
92	0x3d30c1ae	0.043153457
93	0x3cf915d6	0.03040592
94	0x3ad47bfa	0.0016211264
95	0x3daa74aa	0.08323033
96	0xbd41c404	-0.047306076
97	0x3e006fa7	0.12542592
98	0xbbcf08fa	-0.0063182088
99	0x3ccabfd1	0.024749668
100	0x3ce2a0ef	0.02766463
101	0x3d78e61b	0.06076632
102	0x3d87ec4e	0.066368684
103	0x3cdc6e8c	0.026908182
104	0x3c638a2c	0.013887923
105	0x3d5e6e2d	0.05430429
106	0x3d64df57	0.055877056
107	0xbd8834eb	-0.06650718
108	0xbd16ed7f	-0.036847588
109	0x3cbef5a7	0.023310496
110	0xbde0e304	-0.109808
111	0x3d4281c3	0.04748703
112	0x3ddf0f09	0.108915396
113	0xbcd19fa6	-0.025588822
114	0x3d1b5132	0.03791923
115	0x3d3e7d08	0.046505958
116	0xbc7661d3	-0.015037972
117	0xbc64b358	-0.0139587745
118	0xbddb51bb	-0.10708948
119	0x3ae19b34	0.0017212392
120	0x3d14abf2	0.036296792
121	0x3d1b1a71	0.037867013
122	0x3d5fb9da	0.0546206
123	0xbde74770	-0.112929225
124	0x3dff2764	0.12458685
125	0x3d1ad572	0.037801214
126	0x3df52d20	0.119714975
127	0xbe0f33d1	-0.1398461
128	0xbb9590a5	-0.004564362
129	0x3dd1b5e2	0.102397695
130	0xbc05f099	-0.008175039
131	0x3cf52121	0.029923024
132	0xbd6c0909	-0.057625804
133	0x3dbe50bc	0.092927426
134	0x3c4b0e95	0.012393613
135	0x3dd03388	0.10166079
136	0xbd608533	-0.05481453
137	0x3db85081	0.0899973
138	0x3daa371e	0.08311294
139	0xbc7d019e	-0.01544228
140	0x3d4ed4d4	0.050495937
141	0x3d013ca5	0.031551976
142	0x3c8a54bd	0.01688611
143	0xbd0b560e	-0.034017615
144	0xbac1d3c2	-0.001478784
145	0x3db5899f	0.0886414
146	0xbc9c5bd8	-0.019086763
147	0xbd0d221a	-0.03445635
148	0x3d3d55f0	0.046224535
149	0x3db1fd59	0.086909
150	0x3d17af62	0.037032492
151	0x3d8159e6	0.06315975
152	0xbc7a961b	-0.015294577
153	0x3d077214	0.033067778
154	0x3d88832c	0.06665644
155	0xbbc00659	-0.0058601317
156	0xbd202ad7	-0.039103355
157	0x3df67c1d	0.120353915
158	0x3da1dc7a	0.07903381
159	0xbcd8800d	-0.026428247
160	0xbc0870cb	-0.008327673
161	0xbd669ddb	-0.056302886
162	0xbd82456c	-0.063608974
163	0x3bb6d2e2	0.0055793384
164	0x3d4996b7	0.049216
165	0xbb336976	-0.0027376092
166	0xbd4c59c3	-0.04989029
167	0xbd26547a	-0.040607907
168	0x3d71cbb5	0.05903216
169	0x3c8312ae	0.016000118
170	0x3d8de5f6	0.06928627
171	0x3cad3071	0.021141263
172	0x3d825850	0.063645005
173	0xbd0384f9	-0.032109234
174	0x3c6be621	0.014398129
175	0xbd9fd8c7	-0.07805019
176	0xbdbb8760	-0.0915668
177	0x3cdd1335	0.026986698
178	0xbe1e351e	-0.1544995
179	0x3d99f0a6	0.07516603
180	0xbdd9227c	-0.106022805
181	0x3d8c2010	0.06842053
182	0xbc9be58f	-0.01903036
183	0xbd4ce94e	-0.050027184
184	0xbb7ae481	-0.0038283172
185	0x3cd43827	0.025905682
186	0x3cf2998d	0.029614234
187	0xbac89ba0	-0.0015305169
188	0xbd3f5619	-0.04671297
189	0x3e0e3c3d	0.13890167
190	0xbc3b718c	-0.011440646
191	0x3bbe5054	0.0058079157
192	0xbd81c16f	-0.06335723
193	0x3b353536	0.0027650124
194	0xbc428472	-0.011872398
195	0xbbab5457	-0.00522856
196	0x3d6d4e21	0.057935838
197	0xbc49719b	-0.012295152
198	0x3d146b3b	0.036235075
199	0x3d3e3a6b	0.04644243
200	0xbb8ed4d5	-0.0043588676
201	0xbd31d20a	-0.0434132
202	0x3d1c8972	0.038217016
203	0x3cdd1952	0.026989613
204	0x3ce8bd47	0.028410567
205	0xbb085b8c	-0.002080652
206	0x3d43c6d0	0.047797024
207	0x3dcf8192	0.101321355
208	0x3d8212f5	0.06351272
209	0x3d501e76	0.0508103
210	0x3adbceb1	0.0016769973
211	0x3d508e51	0.050916974
212	0x3de69d8b	0.11260518
213	0xbbb296fb	-0.005450127
214	0xbd8bd496	-0.06827657
215	0xbd341778	-0.043967694
216	0x3d5456b8	0.051840514
217	0x3d95a51e	0.07306884
218	0x3e1c82f5	0.15284331
219	0xbd13f532	-0.03612251
220	0xbd996a56	-0.07490985
221	0x3d722aa4	0.059122697
222	0x3e09c637	0.13454519
223	0xbd7a3297	-0.061083402
224	0xbd8f854c	-0.07007846
225	0x3b1c9ee8	0.0023898426
226	0x3ddac49e	0.10682033
227	0xbda77c2f	-0.08177983
228	0x3db45c74	0.088066965
229	0xbc8398bb	-0.016064039
230	0xbcfddfeb	-0.030990561
231	0xbcdc102e	-0.026863184
232	0x3da45a43	0.080250286
233	0xbd2b2bfb	-0.04178999
234	0xbd95220a	-0.07281883
235	0xbcd7475d	-0.026279146
236	0x3b709d5e	0.0036714892
237	0xbdbfd70b	-0.09367188
238	0x3de08c25	0.109642304
239	0xbdb76453	-0.08954682
240	0xbae3314b	-0.0017333416
241	0x3dcf662a	0.10126908
242	0xbc901ff4	-0.017593361
243	0xbcf8f6e7	-0.03039117
244	0x3cd77862	0.02630252
245	0xbd614a89	-0.055002723
246	0xbdd5394c	-0.10411319
247	0x3e059036	0.13043293
248	0x3c911d33	0.017714119
249	0xbd6b42b7	-0.05743667
250	0x3d028701	0.03186703
251	0xbb3b0512	-0.0028536958
252	0x3d1cc2a1	0.03827155
253	0xbdde316a	-0.10849269
254	0x3dbd6262	0.09247281
255	0xbdab2b56	-0.08357875

lstm.bias_ih_l0 f4 [256]
0	0xbe5efcfd	-0.21776195
1	0x3f8c129f	1.0943183
2	0x3f7e595d	0.9935511
3	0xbf38f4cb	-0.72248524
4	0x3fd3900b	1.6528333
5	0xbf76812a	-0.9629084
6	0x3ebc0668	0.36723638
7	0x3fd0f8b1	1.6325895
8	0xbffae49d	-1.9601017
9	0x3ef0566a	0.4694093
10	0xbf1cf619	-0.61313015
11	0xbf96ad71	-1.177168
12	0xbed2b74c	-0.4115547
13	0x3e490eda	0.19634572
14	0x3fcb2be2	1.5872767
15	0xbf755de5	-0.95846397
16	0x3ff593fb	1.9185785
17	0xbed36bf9	-0.41293314
18	0x3ee96fe2	0.45593172
19	0xbf4635be	-0.77425754
20	0x3ee7be1a	0.45262223
21	0x3f6d0f2a	0.92601264
22	0x3fffca52	1.9983618
23	0xbed250b2	-0.4107719
24	0xbf3917fd	-0.7230223
25	0xbf6905c1	-0.91024405
26	0xbf440b6f	-0.76579946
27	0x3de74952	0.112932816
28	0x3ebbd46e	0.36685508
29	0x3e5765f5	0.21034987
30	0xbdceef36	-0.101042196
31	0x3f07d161	0.5305386
32	0xbff42f44	-1.9076924
33	0xbf5e61e4	-0.8686812
34	0x3e06e366	0.13172683
35	0x3ed593db	0.41714367
36	0xbd24ba7a	-0.0402169
37	0x3f07766f	0.5291509
38	0x3fee6ab8	1.8626318
39	0x3edb8304	0.42873394
40	0x3fcddfd2	1.608393
41	0x3f9879f8	1.1912222
42	0x3dc6d673	0.09708872
43	0xbeec9b16	-0.4621207
44	0xbfa7324d	-1.3062226
45	0xbf806432	-1.0030577
46	0x3f1ace73	0.60471267
47	0xbe917a50	-0.2841363
48	0xbf2b11ed	-0.6682423
49	0x3f350a0f	0.70718473
50	0x400a470d	2.1605866
51	0x3f1c1dce	0.6098298
52	0xbe6d0b5a	-0.23148862
53	0xbeb75d45	-0.35813347
54	0x3fa36442	1.2764971
55	0xbf8cb64a	-1.099313
56	0xbe7bb245	-0.24579723
57	0x3e19f7ef	0.15035985
58	0xbfba7b39	-1.4568855
59	0xbf9aaccb	-1.2083982
60	0x3fcec480	1.6153717
61	0x3c6ba0d0	0.014381602
62	0x3ffaab52	1.9583533
63	0xbe56a337	-0.20960699
64	0x3f831fb9	1.0244056
65	0x3deb274c	0.11482105
66	0x3fca2e65	1.5795408
67	0x3f4ee2e8	0.8081498
68	0xbf625a1a	-0.88418734
69	0x3f89c886	1.076432
70	0x3ec06b14	0.37581694
71	0xbf91be99	-1.1386291
72	0xc00b3290	-2.174961
73	0x3fb35cca	1.4012692
74	0xbedab654	-0.4271723
75	0xbf32caf3	-0.69840926
76	0x3c75f283	0.015011433
77	0xbf16382e	-0.58679473
78	0xbe334cfc	-0.17509836
79	0xbe4acfdf	-0.19805859
80	0x3d8249ed	0.063617565
81	0xbf8cba2d	-1.0994316
82	0x3ed59cc3	0.41721162
83	0xbe6d4f8b	-0.23174874
84	0x3e64986a	0.22323766
85	0x3fd8fef7	1.6952809
86	0xbb53833c	-0.0032274267
87	0x3faf1869	1.3679324
88	0xbfc0f759	-1.5075485
89	0x3fc0dce9	1.5067416
90	0x3ef31c29	0.47482422
91	0xbf70d363	-0.9407255
92	0x3f814479	1.0099021
93	0xbf6d8b38	-0.92790556
94	0x3f81c479	1.0138084
95	0xbf8c007d	-1.0937649
96	0xbf17129b	-0.59012765
97	0x3f1f7ccd	0.62299806
98	0xbfab7cfb	-1.3397516
99	0x3fa3e69f	1.2804755
100	0xbf9fd71b	-1.248752
101	0x3e019beb	0.12657134
102	0x3cc624ef	0.024187533
103	0x3fa3c436	1.2794254
104	0xbee769c0	-0.45197868
105	0xbf5a4f07	-0.85276836
106	0xbf08bc06	-0.534119
107	0xc024630d	-2.5685456
108	0x3e6cda38	0.23130119
109	0xbed54bda	-0.41659433
110	0xc00738af	-2.1128347
111	0xbed4af4b	-0.41539988
112	0xbf8eb5ad	-1.1149193
113	0xbfb2c992	-1.3967764
114	0xbf4e5add	-0.80607396
115	0xbd456ec5	-0.04820134
116	0xbf0ef74c	-0.55846095
117	0x3fd8a0b3	1.6924042
118	0xbdafb111	-0.085786946
119	0x40013fae	2.0195117
120	0x3f3ee31b	0.74565285
121	0x3cd7cf7b	0.026344052
122	0xbe17463a	-0.14772883
123	0xbffdc875	-1.98268
124	0x3c11bee6	0.008895611
125	0xbe012994	-0.12613517
126	0x3f7fe8e2	0.99964726
127	0xbf173998	-0.59072256
128	0x3f2aea13	0.6676342
129	0x3ecbb6d1	0.39787915
130	0x3f70f222	0.94119465
131	0xbfabeffa	-1.343261
132	0xbf2bf623	-0.6717245
133	0xbea8bd27	-0.32956812
134	0x3f2fdd82	0.6869737
135	0xbf823d50	-1.0174961
136	0xbeeedcbd	-0.46652785
137	0x3ef00c75	0.46884504
138	0xbea8d21d	-0.32972804
139	0x3e9b96c6	0.30388469
140	0x3e267108	0.16254056
141	0xbe0f3a51	-0.1398709
142	0x3f8a4fa9	1.080556
143	0xbf47deee	-0.7807454
144	0x3eded5bf	0.4352245
145	0x3e99e8e7	0.30060503
146	0x3f86fe70	1.0546398
147	0xbee32c48	-0.4436972
148	0x3f3eafa7	0.74486774
149	0xbf51a1ca	-0.81887496
150	0xbf6b8f4e	-0.9201554
151	0x3ee0d6c1	0.43913844
152	0x400c24b2	2.1897397
153	0x3e937130	0.28797293
154	0xbf76f66f	-0.9646978
155	0xbfdea86a	-1.7395146
156	0xbf7a1920	-0.9769459
157	0xbeca017f	-0.39454266
158	0xbf5a079e	-0.8516787
159	0xbf9784a0	-1.1837349
160	0x3f727705	0.9471286
161	0x3de02bfe	0.10945891
162	0x3f0b6255	0.5444692
163	0x3d866c32	0.06563605
164	0x3f5a1564	0.8518889
165	0x3e8bbcc0	0.27292442
166	0xbf3d2eac	-0.7389934
167	0x3e4ffa56	0.2031034
168	0x3f1eef20	0.62083626
169	0xbf5cb46d	-0.8621281
170	0xbddef444	-0.10886434
171	0x3f773243	0.9656107
172	0xbedab804	-0.42718518
173	0x3d1d43db	0.03839479
174	0x3f2a196c	0.6644504
175	0x3fb2ffa5	1.3984267
176	0x3f5f8d08	0.8732457
177	0xbfd1ec3a	-1.6400216
178	0x3fa6c3b2	1.3028471
179	0xbfbafc55	-1.4608256
180	0xbf1f90b6	-0.62330186
181	0xc027cc8a	-2.621859
182	0x3e1c3dbc	0.15257925
183	0xbea59533	-0.32340392
184	0xbf5d57f4	-0.8646233
185	0x3ec267cf	0.37969825
186	0x3fdb072a	1.7111561
187	0xbe6bfa45	-0.23044689
188	0x3faa6167	1.3310975
189	0x3fbfd323	1.4986309
190	0xbef3a614	-0.47587645
191	0xbe802e03	-0.25035104
192	0x3cbe76ff	0.023250101
193	0xbf550422	-0.8320943
194	0x3f217563	0.6306974
195	0x3edf2903	0.43585977
196	0xbf79c058	-0.9755912
197	0x3ee565a8	0.4480412
198	0x3f7de634	0.9917939
199	0x3f1c1df9	0.60983235
200	0xbf914bbe	-1.135124
201	0xbfd78817	-1.6838406
202	0x3ee15a97	0.44014427
203	0x3e37ea92	0.17960575
204	0x4001fdef	2.0311239
205	0x3f1589c5	0.58413345
206	0x3ef587f5	0.4795529
207	0xbe888cb4	-0.26669848
208	0xbfebf733	-1.8434814
209	0x3ff8a2be	1.9424665
210	0xbf99456e	-1.1974313
211	0x3f8c4f3f	1.0961684
212	0x3ea7e0ff	0.32788846
213	0xbff985af	-1.9493922
214	0x3f806ab2	1.0032561
215	0x3faa9e76	1.3329608
216	0x3f12a28f	0.57279295
217	0xbee4c2b9	-0.44679812
218	0xbe44f5f7	-0.19234453
219	0x3fcc4d73	1.5961136
220	0xbfc1187f	-1.5085601
221	0xbe7714b8	-0.24128997
222	0x3ead23d3	0.33816394
223	0xbf293e75	-0.66110927
224	0xbf414f7f	-0.75511926
225	0xbe4f02b3	-0.20215873
226	0x3fb92b35	1.4466311
227	0xbf40f363	-0.7537138
228	0xbec71e1b	-0.38890156
229	0x3f444aac	0.7667644
230	0xbfd705a6	-1.6798599
231	0xbf94346f	-1.1578501
232	0xbd4730d8	-0.048630565
233	0xbe29fa0a	-0.16599289
234	0xbf534218	-0.82522726
235	0xbea29d54	-0.31760657
236	0x3f2efa5e	0.6835078
237	0x3f1a5d29	0.602984
238	0x3f513405	0.8172
239	0x3f8e18a8	1.1101274
240	0xbf0cc411	-0.54986674
241	0xbdeda937	-0.11604541
242	0xbf77913b	-0.9670598
243	0x3dd1203c	0.10211226
244	0x3fb8057f	1.4376677
245	0x3f98ec45	1.1947104
246	0x3e844d26	0.2584011
247	0xbf46083e	-0.77356327
248	0xbeeb3b39	-0.4594362
249	0x3f2711f2	0.6526176
250	0x3f0caade	0.5494822
251	0x3e852a9f	0.2600908
252	0xbfe9ba7d	-1.8260037
253	0xbd98a5f6	-0.074535295
254	0x3f63c69d	0.88974935
255	0x4028af31	2.6356928

lstm.bias_hh_l0 f4 [256]
0	0x3f5c3ff1	0.86035067
1	0xbef5ccbb	-0.4800776
2	0x3f5fb324	0.8738272
3	0x3ecd3963	0.40082845
4	0x3f21f1d3	0.6325962
5	0xbfc4f5e5	-1.5387541
6	0x3fb7b9e1	1.4353601
7	0x3f87c768	1.0607729
8	0x3e228c67	0.15873872
9	0x400259ef	2.036739
10	0xbea20861	-0.31647018
11	0xbf4ac316	-0.7920393
12	0xbfa095a0	-1.2545662
13	0xbe7bf5dd	-0.24605508
14	0x3ed54b90	0.41659212
15	0xbf8bb362	-1.0914118
16	0x3fc2c5be	1.5216596
17	0xbf66bc46	-0.9013103
18	0x3daf9343	0.0857301
19	0xbe67b40d	-0.22627278
20	0xbe8704d5	-0.26370874
21	0xbf18b904	-0.5965731
22	0xbe6ae798	-0.22939909
23	0x3f6b357f	0.91878504
24	0xbf55bfef	-0.8349599
25	0x3f8137c2	1.0095141
26	0xbd5d5bba	-0.054042555
27	0xbe9a476b	-0.30132613
28	0x3f1dae94	0.6159451
29	0x40016a31	2.0221064
30	0x3fab1701	1.3366395
31	0x3e83ddc9	0.25755146
32	0xbf3a6d29	-0.72822815
33	0x3f109d90	0.5649042
34	0xbf2a21dc	-0.66457915
35	0xbff2699f	-1.8938483
36	0xbf84ca8c	-1.0374312
37	0xbf49ea89	-0.788735
38	0xc002a654	-2.0414019
39	0xbf24e567	-0.6441254
40	0x3ef8ccd6	0.48593777
41	0x3e0b8be5	0.13627584
42	0xbf7383f2	-0.9512321
43	0xbf17ca8a	-0.59293425
44	0xbeb154dc	-0.34635055
45	0x3ff289b9	1.894828
46	0x3f5b4903	0.8565828
47	0x3ea47d8a	0.3212703
48	0xbf3a4ee9	-0.7277666
49	0x3ee6bc52	0.45065552
50	0xbfc2579b	-1.5182985
51	0x400d674c	2.2094297
52	0xbe22072c	-0.15823048
53	0x3f1f2b90	0.62175846
54	0x3e5093a9	0.20368828
55	0x3faedf12	1.3661826
56	0x3fa778c8	1.3083735
57	0x3e3167a1	0.17324688
58	0x3c9a68e1	0.018848838
59	0x3df85c21	0.12126947
60	0xbf666620	-0.8999958
61	0xbe1c41bd	-0.15259452
62	0x3f420c0d	0.7579964
63	0x3deaba8e	0.11461364
64	0x3eff18ea	0.49823695
65	0xbfbf7845	-1.4958578
66	0x3df523c5	0.11969713
67	0xbfc9af81	-1.5756685
68	0xbf7bdf2e	-0.9838742
69	0xbf4d21c5	-0.80129653
70	0x3f2cd0c1	0.67506033
71	0x3f9686e8	1.175992
72	0xbf8bfb32	-1.0936034
73	0xbf1f7f32	-0.6230346
74	0xbf64bf94	-0.89354825
75	0xbfbc3d05	-1.4706122
76	0x3fb1fbb6	1.3904941
77	0xbf492c34	-0.78583074
78	0x3f693fad	0.91112787
79	0xbedf0902	-0.4356156
80	0xbd829a22	-0.06377055
81	0x3ecff86e	0.40619224
82	0xbf1d133c	-0.61357474
83	0x3e88bae1	0.26705077
84	0xbdc2f4d5	-0.09519354
85	0x3f5421b6	0.8286394
86	0xbf81c419	-1.0137969
87	0x3fb65962	1.4246027
88	0x3ec0e6ee	0.37676185
89	0xbe9601d1	-0.2929826
90	0x3fc87fc6	1.5663993
91	0xbec9bfc2	-0.39404112
92	0x3edfc298	0.4370315
93	0x3ec3d2ab	0.38246664
94	0x3ec38688	0.38188577
95	0xbead61d8	-0.3386371
96	0xbf8141b6	-1.0098178
97	0xbf9d91ae	-1.2310083
98	0xc0254346	-2.582231
99	0x3f6a0fc0	0.9143028
100	0xbf6eb808	-0.9324956
101	0x3f93abfe	1.1536863
102	0x3e544722	0.2073026
103	0x4008a5c5	2.1351178
104	0x3e7988ed	0.2436864
105	0x40074c34	2.114026
106	0x400a3cf4	2.1599703
107	0x4050150b	3.2512844
108	0xbf7f29a9	-0.99672943
109	0x3f218aff	0.63102716
110	0x3ff4aa51	1.9114476
111	0xbeffbdbb	-0.4994944
112	0xbf8316d7	-1.0241345
113	0xc034e6f7	-2.826597
114	0x3fa2eab4	1.2727876
115	0x3ec679d6	0.38764828
116	0xc001c123	-2.0274131
117	0xbfc307fa	-1.5236809
118	0xbf993f47	-1.1972436
119	0x3f0181f3	0.5058891
120	0xbf954579	-1.1661826
121	0xbf1ec3fd	-0.62017804
122	0x4016ed72	2.3582425
123	0xbe512fc8	-0.20428383
124	0x4035ff96	2.8437247
125	0x3f367d3d	0.7128485
126	0xbfa232f7	-1.2671803
127	0x3ed5e889	0.41778973
128	0x3ff14b94	1.885119
129	0x3e4e36d7	0.20138107
130	0x3ee13f46	0.43993586
131	0xbf1913cf	-0.5979585
132	0x3eac9a94	0.33711684
133	0x3ed48885	0.41510406
134	0x3edc2f31	0.43004754
135	0xbfc6a040	-1.5517654
136	0xbf7132c9	-0.94218117
137	0xbefbd8c9	-0.4918883
138	0x3f7bdb6c	0.98381686
139	0x3fe641ff	1.798889
140	0xbf9a966b	-1.2077154
141	0xbe21f834	-0.15817338
142	0x3f73cf18	0.95237875
143	0x3f8aa231	1.0830747
144	0x3de20565	0.11036185
145	0xbeab53f2	-0.33462483
146	0xbdfb106e	-0.12258993
147	0xbf166dc9	-0.5876127
148	0x3eafcb65	0.34334865
149	0x3df6499d	0.12025759
150	0x3fb5a812	1.4191916
151	0xbf15bb10	-0.5848856
152	0x3ea9e84f	0.3318505
153	0xbf551ac3	-0.8324396
154	0xbf306bad	-0.689143
155	0x3db1930c	0.08670625
156	0x3e9eb9a2	0.31001002
157	0xbd49ba92	-0.049250193
158	0xbebe70d5	-0.3719546
159	0x40155257	2.3331506
160	0xbfa636a7	-1.2985429
161	0x3f3346fd	0.70030195
162	0xbef3f50d	-0.47647896
163	0x3fcb9b50	1.5906773
164	0x3c19629a	0.009361887
165	0x3fd2e234	1.6475282
166	0x3f94e7ef	1.163328
167	0xbf3c5061	-0.7356015
168	0xbf7549e4	-0.95815873
169	0x3d993cdc	0.07482311
170	0x3f82fd43	1.0233539
171	0xbf5971a3	-0.8493902
172	0xbefdec89	-0.49594525
173	0xbf32e7dd	-0.69885045
174	0xbf524a65	-0.8214477
175	0xbf47163b	-0.77768296
176	0xbfd0ad4b	-1.6302885
177	0x3f4bd1e8	0.79617167
178	0xbf17652d	-0.59138757
179	0xbf94b94c	-1.1619048
180	0x3f0e5e36	0.55612504
181	0xbd6f83ee	-0.058475427
182	0xbf99ad71	-1.2006055
183	0xbf1cdf01	-0.61277777
184	0x3dda5a37	0.10661738
185	0xbeafd2be	-0.3434047
186	0xbd8e7787	-0.06956392
187	0xbed80c67	-0.42196962
188	0xbe786c61	-0.24260093
189	0x3f2d803d	0.677738
190	0xbf53abd3	-0.8268406
191	0x3f48983d	0.783573
192	0x3f6fa63a	0.93613017
193	0x3eb170d5	0.34656397
194	0xbe88f383	-0.26748285
195	0x3e7cbdae	0.24681732
196	0x3f124c72	0.57147896
197	0xbc8eff0c	-0.0174556
198	0x3f5dfcb2	0.8671371
199	0xbfbfdf0c	-1.4989944
200	0xbe976edc	-0.29576766
201	0x3fff01d6	1.9922435
202	0x3e7b1cc6	0.24522695
203	0xbfbb5659	-1.4635726
204	0xbd9e2ad9	-0.07723016
205	0xbfcdcee4	-1.6078763
206	0xbfeaaaa0	-1.8333321
207	0x3edebbd3	0.43502674
208	0xbf0a2d63	-0.53975505
209	0x3fc1bdd8	1.5136061
210	0xbf90059b	-1.1251711
211	0xbf6df56f	-0.92952627
212	0xbe0b9a0c	-0.13632983
213	0x3f1e2a08	0.61782885
214	0x3e10daf3	0.14146022
215	0x403cce68	2.950098
216	0xbd851da4	-0.06499794
217	0xbfbcae5a	-1.4740708
218	0x3f6bf99b	0.9217774
219	0x3eb2aa89	0.34895733
220	0x3f22fc38	0.63666105
221	0x3f13ac6d	0.57684976
222	0xbf26a84b	-0.65100545
223	0xbfafa661	-1.372265
224	0xbfe8efc8	-1.8198175
225	0xbf0ac709	-0.54209954
226	0x3f87f91b	1.0622896
227	0x3f95c086	1.1699378
228	0xbf578add	-0.84196264
229	0xbf1488ae	-0.58021057
230	0xbf27b171	-0.6550513
231	0xbfe56ebe	-1.7924421
232	0x3ea62bb9	0.32455233
233	0xbf1261d1	-0.57180506
234	0x3e3a291d	0.18179746
235	0x3de39287	0.11111932
236	0xbd3e42df	-0.046450492
237	0x3ef4e4c4	0.47830784
238	0x400839cb	2.1285274
239	0xbdc07c90	-0.093987584
240	0xbd92e60c	-0.07172784
241	0x3f91f01e	1.1401403
242	0x3ec82bbb	0.39095864
243	0x3f841bf1	1.0321027
244	0x3fad6a0c	1.3547988
245	0xbed0aaa2	-0.40755183
246	0x3eccd265	0.40004268
247	0x3f8f7547	1.1207665
248	0xbec7c267	-0.39015505
249	0xbf832e93	-1.0248588
250	0xbfa014b7	-1.2506322
251	0x3f8ee3ce	1.116327
252	0x3fae1570	1.3600292
253	0x3fb72e76	1.4311054
254	0x3f01dbd0	0.5072603
255	0xbd917d63	-0.07103994

lstm.weight_ih_l1 f4 [256, 64]
0	0xbd28bb46	-0.041194223
1	0xbdc69000	-0.096954346
2	0x3dc1a1d0	0.094546914
3	0x3c8e9f83	0.017410045
4	0xbce1c148	-0.027557984
5	0xbd266a94	-0.040628985
6	0x3d8078a2	0.06273009
7	0xbd552869	-0.05204049
8	0x3af3d90c	0.0018604114
9	0x3d9a24d7	0.07526558
10	0x3d6fbe87	0.05853131
11	0x3d222289	0.039583717
12	0x3deb7bea	0.11498244
13	0xbd94fa22	-0.072742715
14	0x3d3e0eca	0.046400823
15	0xbd285ab7	-0.041102137
16	0x3deaea08	0.11470419
17	0x3e1841fe	0.14868924
18	0xbdabf2fd	-0.08395956
19	0x3d433818	0.047660917
20	0xbceab49b	-0.028650573
21	0x3bc31fa2	0.0059546987
22	0xbc8b0af2	-0.016972993
23	0x3d1f3071	0.038864557
24	0xbc62edeb	-0.013850669
25	0x3d8f0b66	0.06984596
26	0xbc8c5720	-0.017131388
27	0x3ca75116	0.020424407
28	0x3d44b713	0.048026156
29	0x3ce904e1	0.02844471
30	0x3ca50648	0.020144597
31	0x3de5a886	0.11213784
32	0x3d056b96	0.032573305
33	0x3dfc5eaa	0.12322743
34	0xbb690ab5	-0.003555936
35	0x3d9fe5b1	0.07807482
36	0xbdab4d48	-0.083643496
37	0xbd1c7a53	-0.038202595
38	0x3d81a80c	0.063308805
39	0xbe0d11df	-0.13776349
40	0xbd931a4d	-0.07182751
41	0xbcb7c90f	-0.02243474
42	0xbc8e31ec	-0.017357789
43	0x3e0b2c14	0.13591033
44	0xbc3de0a3	-0.011589202
45	0x3d75e48b	0.06003241
46	0xbc14aa17	-0.009073756
47	0x3d97f905	0.074205436
48	0xbdef3b2e	-0.116812095
49	0x3c9f5d57	0.019453688
50	0x3dc22013	0.09478774
51	0xbe20d824	-0.15707451
52	0x3d6d1eae	0.057890587
53	0x3d4e508b	0.05036978
54	0x3dab03a0	0.08350301
55	0x3dac46e1	0.084119566
56	0x3d076eb4	0.03306456
57	0xbd0105bb	-0.031499606
58	0x3e062080	0.13098335
59	0x3a0f64bf	0.00054700294
60	0xbd375a3c	-0.04476379
61	0xbbd5c1f5	-0.0065233656
62	0xbd3e0242	-0.046388872
63	0x3d40c471	0.04706234
64	0xbce588a9	-0.028019266
65	0xbd380c29	-0.04493347
66	0xbc0a1dd4	-0.008429963
67	0xbd9c3afd	-0.076284386
68	0xbcd18797	-0.02557735
69	0x3da065c1	0.07831908
70	0xbc309564	-0.010777805
71	0xbdab101e	-0.083526835
72	0x3d26bcdb	0.04070745
73	0x3cce1a4e	0.025159027
74	0xbd3bf223	-0.045885216
75	0x3d3593fb	0.04433058
76	0x3d4b2fcc	0.04960613
77	0xbd931fe7	-0.07183819
78	0xbcea0cd4	-0.02857057
79	0xbd96cf64	-0.07363775
80	0x3d628d4f	0.055310544
81	0xbdb7990e	-0.0896474
82	0x3d812cb2	0.06307353
83	0x3c8367b1	0.016040655
84	0xbd9047ce	-0.07044946
85	0x3ce9da87	0.028546585
86	0x3c5c5543	0.013448062
87	0x3cb098ca	0.02155723
88	0xbd387c8c	-0.045040652
89	0x3da3a386	0.07990174
90	0x3e109430	0.14119029
91	0xbd94b338	-0.07260746
92	0xbe04ed0f	-0.12981056
93	0xbaefa41d	-0.0018283162
94	0x3c9d8e4b	0.01923289
95	0x3cda570d	0.026652837
96	0x3de02206	0.109439895
97	0x3d1312aa	0.03590647
98	0x3b97ab8c	0.0046286043
99	0xbba284a5	-0.00495966
100	0x36a19ba0	4.816291e-06
101	0x3aca899f	0.0015452391
102	0x3db57b6b	0.08861431
103	0x3d38f7c6	0.04515817
104	0x3e0155d5	0.12630399
105	0x3cff333f	0.031152366
106	0xbd58055f	-0.052739497
107	0x3d907bd6	0.0705487
108	0xbdd25509	-0.102701254
109	0x3ce8f394	0.02843646
110	0x3d06d94d	0.032922078
111	0xbd2a49e3	-0.04157437
112	0xbb434f7e	-0.002980202
113	0xbd829fb6	-0.06378119
114	0xbd84f70f	-0.06492435
115	0x3d211223	0.039323937
116	0x3d5133d6	0.051074825
117	0x3cf0542a	0.029337008
118	0x3ac77eda	0.00152203
119	0x3d98912f	0.074495666
120	0x3c7e885e	0.015535442
121	0xbb2fee0f	-0.0026844775
122	0x3d0b6cbb	0.03403924
123	0x3dd2d138	0.102938116
124	0x3c5f8d9c	0.013644602
125	0xbd76591b	-0.06014357
126	0xbc4e6ad8	-0.012598716
127	0xbd0267fb	-0.031837445
128	0xbdb03a91	-0.08604921
129	0xbb3189b1	-0.0027090127
130	0x3ca84e57	0.020545168
131	0xbca48656	-0.020083588
132	0xbd5d9560	-0.054097533
133	0xbd543d2c	-0.05181615
134	0x3cb2b886	0.021816503
135	0xbda0a08d	-0.07843123
136	0x3a734f04	0.00092814886
137	0xbd37b4eb	-0.04485027
138	0x3cc6505d	0.024208242
139	0xbdc36a6f	-0.09541785
140	0xbdb9e4b8	-0.09076828
141	0xbdb93e7d	-0.09045122
142	0x3d0371a9	0.032090817
143	0xbdc9d26c	-0.09854588
144	0xbd7cf0af	-0.06175297
145	0x3d61cd92	0.055127688
146	0xbd9a1a44	-0.07524541
147	0x3d899861	0.06718517
148	0x3ba24d36	0.004953052
149	0x3ccc4132	0.024933431
150	0x3dcec5b8	0.100963056
151	0xbde7aa3c	-0.113117665
152	0xbd17d32e	-0.03706663
153	0xbd59cac4	-0.053171888
154	0x3bcaf573	0.0061938106
155	0xbdd063de	-0.10175298
156	0xbd7eb46f	-0.062183794
157	0xbd42d889	-0.047569785
158	0x3bde9dca	0.0067937123
159	0xbdb77a67	-0.08958893
160	0xbbd157b4	-0.006388629
161	0x3e0caa76	0.137369
162	0x3d4b297e	0.049600117
163	0xbd601fc8	-0.05471781
164	0x3c784f98	0.015155695
165	0x3d05ed9b	0.0326973
166	0x3d2a8925	0.041634697
167	0x3dabce19	0.083889194
168	0xbcb81681	-0.022471668
169	0x3daa9a0a	0.08330162
170	0x3d2b5a5e	0.041834228
171	0xbd81b24f	-0.06332838
172	0xbe0d1a76	-0.13779625
173	0xbdeeca10	-0.11659634
174	0x3cb8aecb	0.022544285
175	0xbd012caf	-0.031536754
176	0x3dd32d70	0.10311401
177	0x3d752125	0.059846062
178	0xbc8a2ada	-0.016866136
179	0xbd9a24aa	-0.07526524
180	0x3c362bbe	0.011118827
181	0xbd30eb16	-0.043192945
182	0xbc68bc45	-0.014205043
183	0x3c913178	0.017723784
184	0xbd7bcc84	-0.06147434
185	0x3c76341c	0.015027072
186	0xbd0d3f2d	-0.034484077
187	0xbb0dedf9	-0.0021656735
188	0x3d724fae	0.05915802
189	0xbd603c0d	-0.05474477
190	0x3dab768e	0.08372222
191	0x3c1ee388	0.009697802
192	0x3d33ce4a	0.043897904
193	0xbcaaeaee	-0.020863976
194	0xbd16ec34	-0.036846355
195	0xbbfb9c6d	-0.0076785595
196	0x3d77911a	0.060441114
197	0x3b0b129d	0.0021220811
198	0xbe2880d2	-0.16455391
199	0x3ca33339	0.019921886
200	0xbde6adf6	-0.11263649
201	0xbcac6b31	-0.021047207
202	0x3d82b07e	0.063813195
203	0xbc29e957	-0.010370574
204	0x3c9942fa	0.018708695
205	0x3d0368ad	0.03208225
206	0x3d5f72fa	0.05455301
207	0x3db037c5	0.08604387
208	0xbd125d66	-0.035733603
209	0x3d90d6c7	0.070722155
210	0xbd44e626	-0.04807105
211	0x3d9b497f	0.07582378
212	0x3d64e7e4	0.05588521
213	0x3d1b6959	0.037942264
214	0x3da2a88d	0.07942305
215	0x3db22d75	0.087000765
216	0x3c832b75	0.016011933
217	0xbd12617c	-0.0357375
218	0xbde386d1	-0.111096986
219	0x3d273738	0.040824145
220	0xbcde64ee	-0.027147736
221	0xbc0c53fd	-0.008564946
222	0xbded88be	-0.11598347
223	0xbdac2993	-0.08406367
224	0xbd4d8a6c	-0.050180838
225	0x3d9a60dd	0.075380065
226	0xbd8d3230	-0.06894338
227	0x3cb6c3f2	0.02231023
228	0x3dc8394e	0.09776555
229	0x3d0eabbe	0.034831755
230	0x3ddb3cf2	0.10704984
231	0xbce6c5ad	-0.028170431
232	0xbd939d3b	-0.07207724
233	0x3ca2b864	0.019863315
234	0x3d2152cf	0.039385613
235	0x3dad3cec	0.084588856
236	0xbd68fb29	-0.05688015
237	0xbdbb60dd	-0.091493346
238	0xbccb4ea3	-0.02481777
239	0x3dd03c10	0.10167706
240	0x3d419cb1	0.047268573
241	0xbd4c3b14	-0.04986103
242	0xbd8017e6	-0.06254558
243	0xbd309857	-0.043114033
244	0xbd06547b	-0.03279541
245	0x3d634029	0.05548111
246	0x3da85e45	0.082211055
247	0xbc440224	-0.011963401
248	0xbd1ba1db	-0.037996154
249	0x3a9173e7	0.0011097164
250	0xbb64db81	-0.0034920874
251	0xbd71d896	-0.059044443
252	0xbc6ea16f	-0.014564856
253	0x3cecfa85	0.02892805
254	0x3d9727ef	0.073806636
255	0x3d4237f1	0.04741663

lstm.weight_hh_l1 f4 [256, 64]
0	0x3dc9f835	0.09861795
1	0x3e13a312	0.14417675
2	0x3ce97f3a	0.02850305
3	0x3d28ab35	0.0411789
4	0xbda5aba7	-0.08089381
5	0xbd432d26	-0.04765048
6	0xbd8d1945	-0.068895854
7	0x3dff9423	0.12479427
8	0x3d213ba3	0.039363515
9	0x3d715950	0.058923066
10	0x3d2009f8	0.039072007
11	0xbcd5beaa	-0.026091892
12	0x3c519874	0.012792695
13	0xbd7dac98	-0.061932176
14	0xbd59a1b2	-0.05313272
15	0x3bc25168	0.0059301145
16	0xbc40cbb7	-0.011767319
17	0xbc8b68b3	-0.017017698
18	0x3c985cc8	0.018598929
19	0x3e0a1b01	0.13486864
20	0xbd12cdbb	-0.03584073
21	0x3d553fe4	0.052062884
22	0xbca7fc88	-0.020506158
23	0xbc095a09	-0.008383282
24	0x3c12c3a1	0.008957774
25	0x3c8b99a6	0.017041039
26	0xbd079c20	-0.033107877
27	0xbd80e486	-0.062935874
28	0x3d9fc128	0.078005135
29	0xbd545948	-0.051842958
30	0xbca7630f	-0.020432977
31	0x3d3da1d9	0.046296928
32	0x398fd254	0.00027431792
33	0xbc48bfdb	-0.012252773
34	0x3cffbd30	0.031218141
35	0xbd68b7bb	-0.056815844
36	0xbe04bf7c	-0.1296367
37	0xbd8f9014	-0.070099026
38	0xbd834e23	-0.06411388
39	0x3d5bc1d8	0.05365166
40	0xbd4ff2e0	-0.050768733
41	0x3c387ab4	0.011259723
42	0xbcd5366a	-0.026026923
43	0xbe029f71	-0.12756135
44	0x3c832b0a	0.016011734
45	0xbcd05c69	-0.02543469
46	0x3d90cfd7	0.07070892
47	0xbd0dc675	-0.03461309
48	0x3e096723	0.1341825
49	0xbd91db6f	-0.07121932
50	0x3e11ed5e	0.14250705
51	0xbcd823ad	-0.026384199
52	0x3d7e9123	0.062150132
53	0x3dbff53d	0.09372947
54	0xbd59ff23	-0.053221833
55	0xbd5746c7	-0.052557733
56	0x3e3f6b6a	0.18693319
57	0xbcdd35dd	-0.027003223
58	0xbc9742f3	-0.018464541
59	0xbd76154d	-0.060078908
60	0x3ccfddca	0.025374312
61	0xbdfd055f	-0.1235454
62	0x3db895cf	0.09012949
63	0xbd24c3ae	-0.040225677
64	0x3cf766ab	0.030200323
65	0xbd48091c	-0.048836812
66	0xbd09b42d	-0.033619095
67	0x3ca63692	0.020289693
68	0xbda4e2bf	-0.08051061
69	0xbcf358ee	-0.02970549
70	0x3d925841	0.07145739
71	0x3c37ae60	0.011211008
72	0xbcff0273	-0.031129098
73	0x3c9482a1	0.018128695
74	0x3ddefb2f	0.10887753
75	0x3c363203	0.011120322
76	0xbccd8063	-0.025085634
77	0xbd8ea122	-0.069643274
78	0x3a0fc616	0.0005484534
79	0x3c0b0bac	0.0084866695
80	0x3c99435c	0.018708877
81	0xbd501232	-0.050798602
82	0xbce95f57	-0.028487844
83	0x3d024cc6	0.031811498
84	0x3e12f8cb	0.1435272
85	0x3d178429	0.036991272
86	0xbc2e6cbd	-0.010646042
87	0x3d547336	0.051867686
88	0x3e01b641	0.1266718
89	0x3e3ed3ba	0.18635455
90	0x3c681710	0.014165655
91	0x3cf727a6	0.030170273
92	0x3d605fb6	0.054778777
93	0xbdbb438f	-0.09143745
94	0xbd06d36d	-0.032916475
95	0xbd9acd9a	-0.07558747
96	0xbdb0d335	-0.086340345
97	0x3cca2041	0.024673583
98	0xbdc58b89	-0.09645755
99	0x3d26b038	0.0406954
100	0x3db3f1ca	0.08786352
101	0xbda9f9ab	-0.082995735
102	0xbdb7567d	-0.08952043
103	0x3d82d61c	0.06388494
104	0xbcd44633	-0.02591238
105	0xbbcf434a	-0.00632516
106	0xbb429a2f	-0.0029693951
107	0x3d2ac9fe	0.04169654
108	0xbcf83d33	-0.03030262
109	0x3c684327	0.014176167
110	0x3db5e855	0.088822044
111	0x3ba84c03	0.0051360144
112	0x3c8b0273	0.016968941
113	0x3da3839b	0.07984086
114	0xbd488764	-0.048957244
115	0x3d9d9643	0.07694676
116	0xbd26083d	-0.0405352
117	0x3d6f4e39	0.05842421
118	0x3d8968cc	0.067094415
119	0xbd67493e	-0.056466334
120	0x3c2e07f9	0.010622018
121	0x3c42aca2	0.011881979
122	0xbd1ef790	-0.038810313
123	0x3c8121ac	0.015763126
124	0x3e175312	0.14777783
125	0xbc50a37e	-0.012734292
126	0xbe4b2cbb	-0.19841282
127	0xbdc8c27c	-0.0980272
128	0xbb7735cc	-0.0037721274
129	0xbb734d7c	-0.0037125042
130	0x3dc42497	0.095772915
131	0x3c2b07a1	0.010438831
132	0x3d2c2d83	0.04203559
133	0x3dbf849d	0.09351466
134	0xbd23366a	-0.039846815
135	0xbc98e3e5	-0.018663356
136	0xbd37edb4	-0.044904426
137	0x3b14f393	0.002272819
138	0xbd823539	-0.06357808
139	0xbddae01a	-0.10687275
140	0xb981a1b9	-0.0002472529
141	0xbe3c8b3f	-0.18412493
142	0xbe26c78a	-0.16287056
143	0x3d886d8f	0.06661522
144	0xbb9d49f1	-0.0048000743
145	0xbd410a98	-0.047129244
146	0x3d3b8d14	0.04578884
147	0xbc60680d	-0.013696683
148	0x3d18bdc9	0.03729037
149	0x3d7770d6	0.060410343
150	0xbdc80c52	-0.09767975
151	0xbcdf6112	-0.027267966
152	0x3d09a991	0.033608977
153	0xbd8d5472	-0.06900872
154	0x3c868697	0.0164216
155	0xbc89cfb2	-0.01682267
156	0x3d02f592	0.031972475
157	0xbd8a8188	-0.067629874
158	0xbd8734f7	-0.06601899
159	0x3d736947	0.059426572
160	0xbca1d6e0	-0.01975578
161	0x3bbb90bf	0.005724042
162	0x3dba03c0	0.090827465
163	0xbcb408e3	-0.021976894
164	0x3bdf1e2a	0.0068090158
165	0xbd8c301b	-0.06845113
166	0x3bff5e6b	0.007793238
167	0xbb0edf6f	-0.0021800657
168	0xbd43930b	-0.047747653
169	0x3c632b98	0.013865374
170	0x3d572685	0.05252697
171	0x3b710637	0.0036777386
172	0x3e07387c	0.13205141
173	0xbd69d096	-0.05708369
174	0xbd65f275	-0.05613943
175	0xbd7dd93c	-0.06197475
176	0xbdec4741	-0.11537028
177	0x3db15d9f	0.08660435
178	0x3d576d2f	0.05259436
179	0x3d53c9d9	0.05170617
180	0xbdae45b7	-0.08509391
181	0xbd997f0d	-0.07494936
182	0x3d1deb1d	0.0385543
183	0xbcf7eca4	-0.030264206
184	0x3d6e9fed	0.058257986
185	0x3cd670ce	0.026176836
186	0xbe0245f6	-0.12722
187	0xbda3245e	-0.07965921
188	0xbc31eb7b	-0.010859366
189	0x3c80593e	0.015667554
190	0x3b69c7b0	0.0035672002
191	0xbd9ac3dd	-0.07556889
192	0x3d7ad152	0.06123478
193	0x3d09bfdd	0.03363024
194	0x3d482209	0.048860583
195	0x3da33f71	0.07971085
196	0xbdab9051	-0.083771355
197	0xbc3d337f	-0.011547922
198	0xbc7e8e4d	-0.015536857
199	0xbdd7d54e	-0.105387315
200	0x3c8bde02	0.017073635
201	0xbcb65936	-0.022259336
202	0xbe0bd8f2	-0.13656977
203	0x3d8c0625	0.068371095
204	0xbb8496af	-0.004046283
205	0xbdbb659a	-0.09150238
206	0x3cac8bfb	0.021062842
207	0xbccab59e	-0.024744805
208	0xbdcf2916	-0.101152584
209	0x3e213458	0.15742624
210	0xbe0a07bc	-0.13479513
211	0x3c9a9203	0.018868452
212	0xbd81caab	-0.06337484
213	0xbe2f9cc4	-0.17149645
214	0xbbb58e18	-0.0055406205
215	0x3db1c79f	0.08680653
216	0xba81bd77	-0.0009898384
217	0xbc8ff2f0	-0.017571896
218	0x3d6470d3	0.05577166
219	0xbd08a085	-0.03335621
220	0xbd32fea6	-0.043699883
221	0xbba400e5	-0.0050049894
222	0xbc9d665b	-0.019213846
223	0x3d1740c5	0.036927003
224	0xbd3ed8c8	-0.046593457
225	0xbca3307a	-0.019920576
226	0xbd4adcee	-0.0495271
227	0x3cc88534	0.024477579
228	0xbd3ff933	-0.046868514
229	0xbc817f7b	-0.015807858
230	0x3cb6f475	0.022333363
231	0xbcf3f11d	-0.029778058
232	0xbd657984	-0.05602409
233	0xba82e086	-0.0009985126
234	0xbd8936a2	-0.066998735
235	0xbcc6d15c	-0.024269752
236	0x3bf67230	0.0075209364
237	0x3d9d2dca	0.07674749
238	0x3c910843	0.017704135
239	0x3a777228	0.0009439313
240	0x3d60d5cd	0.054891396
241	0xbc591a85	-0.013250952
242	0x3dc59aca	0.09648664
243	0x3aa33456	0.001245151
244	0xbdaec845	-0.08534292
245	0x3cfd303a	0.030906785
246	0xbccb2078	-0.024795756
247	0xbca0ee59	-0.019644903
248	0x3d395472	0.04524655
249	0xbd547c8b	-0.051876586
250	0xbc8aa1e8	-0.016922906
251	0xbd701e41	-0.058622602
252	0xbda3c6fd	-0.079969384
253	0xbd39d8c1	-0.04537273
254	0xbda66d84	-0.08126357
255	0x3ba5e45b	0.0050626225

lstm.bias_ih_l1 f4 [256]
0	0xbea0a27e	-0.31373972
1	0xbe9cb6b0	-0.3060813
2	0x3cebb383	0.028772121
3	0xbe31ae26	-0.17351589
4	0xbe8ff2c5	-0.28114906
5	0xc0056929	-2.0845435
6	0x402ddc79	2.7165816
7	0x3d37df21	0.044890527
8	0xbfc4bdf5	-1.537047
9	0xbf1f69eb	-0.62270993
10	0x3f88d3df	1.0689658
11	0x3e162cd5	0.1466554
12	0xbf214a81	-0.6300431
13	0xbf06019f	-0.52346224
14	0xbfd61451	-1.672495
15	0xbfd397f1	-1.6530744
16	0x3f236b5e	0.63835704
17	0xbec9531c	-0.3932122
18	0xbf76fb0a	-0.96476805
19	0x3f41fe8e	0.75779045
20	0x3ebff7f0	0.3749385
21	0x3fd4b528	1.6617785
22	0x3df0aa39	0.117512174
23	0x3f41d0da	0.7570931
24	0x40139ce0	2.30645
25	0xbda87532	-0.08225478
26	0xbf9d0015	-1.226565
27	0xbf908bcb	-1.1292661
28	0xbf2da1f1	-0.6782523
29	0x40057c26	2.0857024
30	0x3fb3d8ff	1.4050597
31	0x3fa9eb3a	1.327491
32	0x3e5d091c	0.21585506
33	0xbfccb2af	-1.599203
34	0x3f538539	0.82625157
35	0x3f3d0d86	0.7384876
36	0xbdbf089a	-0.093278125
37	0xc031d421	-2.7785723
38	0xbf17c2e4	-0.59281754
39	0xbeb938fd	-0.3617629
40	0x3fefd2fa	1.873626
41	0xbfbb675d	-1.4640919
42	0xbf9e4a70	-1.2366467
43	0x3f4fce1e	0.81173885
44	0xbf1d6ec4	-0.6149714
45	0x3faccbd1	1.34997
46	0xbef10795	-0.47076097
47	0xbe292b5f	-0.16520451
48	0x3ece8873	0.40338477
49	0xbdf68fba	-0.120391324
50	0xbed6d214	-0.41957152
51	0xbf5087be	-0.81457126
52	0xbe9de968	-0.30842137
53	0x3f03af83	0.51439685
54	0x3c9b8505	0.018984327
55	0xbfd7f9d2	-1.6873114
56	0xbee9f16a	-0.45691997
57	0xc0197680	-2.3978577
58	0x3fb70ac0	1.4300156
59	0x3f7a4ddd	0.9777506
60	0xbfb01940	-1.3757706
61	0xbe686855	-0.2269605
62	0x3e71db02	0.23618701
63	0xbe21f617	-0.15816532
64	0xbfe45ca0	-1.7840767
65	0x3f043a67	0.51651615
66	0xbf119fe0	-0.56884575
67	0x3e68017c	0.22656816
68	0x3ed621c2	0.4182263
69	0x3f3d0247	0.738316
70	0xbfceb59f	-1.6149176
71	0x3ee11761	0.4396315
72	0x3e56bddf	0.20970868
73	0x3e393c9d	0.18089528
74	0xbc673bae	-0.01411335
75	0xbfd8fde3	-1.695248
76	0xbe643170	-0.22284484
77	0x3f0a4995	0.5401853
78	0x3f249173	0.6428444
79	0x3f9191ee	1.1372659
80	0xbf83c581	-1.0294648
81	0xbf8c1d4f	-1.0946444
82	0xc000af23	-2.0106895
83	0x3fca33d1	1.5797063
84	0xbe55ac8d	-0.20866604
85	0xbf21f46b	-0.6326358
86	0x3e8e9e7c	0.2785529
87	0x3d94c886	0.07264809
88	0x3f918b70	1.1370678
89	0xbea9d0a6	-0.33167
90	0xbfa8dc6d	-1.3192269
91	0xbd7b4a13	-0.06134994
92	0xbfae2cc7	-1.3607415
93	0xbf123a64	-0.5712035
94	0xbf099427	-0.5374169
95	0x3efd04a8	0.49417615
96	0xbcc5fd8a	-0.024168748
97	0x3cc7ab7b	0.02437376
98	0x3fad098c	1.3518538
99	0xbea70ffb	-0.3262938
100	0x3e8a411c	0.270028
101	0xbfb4927a	-1.4107201
102	0xbf60f146	-0.87868154
103	0x3fca4f5e	1.5805471
104	0xbc707ba7	-0.0146779185
105	0xbe856702	-0.2605515
106	0xbfb4cb96	-1.412463
107	0xbf166f70	-0.5876379
108	0xbe2354bf	-0.15950297
109	0xbf502a6c	-0.8131473
110	0x3f84b337	1.0367192
111	0xbea8696d	-0.32892933
112	0x40017522	2.0227742
113	0xbe150467	-0.1455246
114	0x3fac99bd	1.3484417
115	0xbf8bf1a6	-1.093312
116	0xbf24e2d2	-0.644086
117	0xbfbba95f	-1.4661063
118	0x3fd0f720	1.6325417
119	0xc0081f5f	-2.1269147
120	0x3f78c4d4	0.97175336
121	0xbddb127c	-0.10696885
122	0x3f64d941	0.89394003
123	0xbf8ac44a	-1.0841153
124	0xbf38b0a8	-0.72144556
125	0x3f157b33	0.5839111
126	0xb9db0ebc	-0.00041781913
127	0x3f8624ee	1.048002
128	0xbf9508e1	-1.1643335
129	0xbf6d5fa3	-0.92724055
130	0xbf21e3da	-0.632383
131	0xbe3f92e9	-0.18708386
132	0xbf0142de	-0.50492656
133	0x3f86f334	1.054297
134	0x3ddfb03e	0.109222874
135	0x3fb966e4	1.4484525
136	0x3f3dd7ae	0.74157226
137	0x3f266740	0.65001297
138	0xbe3c98f3	-0.1841772
139	0x3fd698fa	1.6765435
140	0x3fb657c7	1.4245538
141	0xbf265810	-0.6497812
142	0x3f807433	1.0035461
143	0xbf35e1a7	-0.71047443
144	0x3f754a27	0.9581627
145	0xc00bb4b7	-2.182905
146	0xbfe6e079	-1.8037254
147	0xbe2510a9	-0.16119637
148	0x3fb1cdbf	1.3890914
149	0xbd0699a5	-0.03286137
150	0x400cc146	2.1992965
151	0x3ef000c1	0.46875575
152	0xbec53635	-0.3851792
153	0xbe9013ad	-0.2814001
154	0x3fd8c841	1.6936113
155	0x3fbbf1c2	1.4683154
156	0x3eee87f1	0.4658809
157	0x3f70fc66	0.9413513
158	0xbefdcc74	-0.49570048
159	0x3e0dfe7e	0.13866612
160	0xbe1588a1	-0.14602901
161	0xbfb296a4	-1.3952222
162	0xbf144794	-0.5792172
163	0xbeec79d5	-0.461867
164	0xbfb8133f	-1.4380873
165	0xbf0f6124	-0.560076
166	0x3ed17d9f	0.40916154
167	0xbf664847	-0.89954036
168	0xbf91a8c1	-1.1379625
169	0xbeefc4e4	-0.46829903
170	0xbf58601b	-0.84521645
171	0xbf97b08d	-1.1850754
172	0xbf40b3be	-0.75274265
173	0x3f693d18	0.91108847
174	0x3f84a929	1.0364124
175	0xbd9af8c7	-0.07566982
176	0xbf84ccf0	-1.0375042
177	0xbf324eea	-0.69651663
178	0x3f868fee	1.0512674
179	0xbfbfa05c	-1.4970813
180	0x3f485d55	0.78267413
181	0x3ee3af95	0.44469896
182	0x3ebe4bf7	0.37167332
183	0x3d636fef	0.05552667
184	0xbf8fb17f	-1.1226043
185	0xbf098c96	-0.5373014
186	0x3fc94168	1.5723085
187	0xbcf258d3	-0.02958337
188	0xbfc0a7de	-1.5051229
189	0x3dfdeeab	0.12399038
190	0xbea03d02	-0.31296545
191	0xbfb0afad	-1.3803612
192	0x3f99bd9a	1.2010987
193	0xbe61f28c	-0.2206518
194	0xbf6a81c3	-0.9160425
195	0x3b4a8076	0.0030899323
196	0xbfc681f4	-1.5508409
197	0xbfcf50c2	-1.619652
198	0xbef460e1	-0.47730163
199	0x3ef3e377	0.4763448
200	0x3e476664	0.19472653
201	0x3e9fe743	0.31231126
202	0x3f4c9ada	0.79923785
203	0xbf34e33d	-0.7065924
204	0xbfa22164	-1.266644
205	0xbe73da2b	-0.23813693
206	0x3fa5bcab	1.2948202
207	0x3e3ebe47	0.18627273
208	0xbf8690c3	-1.0512928
209	0x3e9a407c	0.30127323
210	0x3d8b1625	0.06791333
211	0x3f441d1c	0.7660692
212	0xbf191bf8	-0.598083
213	0xbf697816	-0.9119886
214	0x40094be2	2.1452565
215	0x3f152414	0.58258176
216	0xbef53a7d	-0.47896186
217	0x3fa977be	1.3239667
218	0xbed709e7	-0.41999742
219	0xbd0c104b	-0.034195226
220	0xbf9c019e	-1.2187994
221	0x3ee2a80a	0.4426883
222	0xbfc01059	-1.5004989
223	0x3e8c9eb2	0.27464825
224	0xbbd04d52	-0.0063568735
225	0x3f858eaf	1.0434169
226	0xbec88098	-0.3916061
227	0x3f5debd0	0.86687946
228	0xbe498ca4	-0.19682556
229	0x3e446933	0.19180755
230	0x3fb465de	1.4093587
231	0xbf00e788	-0.5035329
232	0xbe3106d6	-0.17287764
233	0x3f0e9812	0.5570079
234	0xbe0723ae	-0.13197204
235	0xbee1c287	-0.44093725
236	0xbff39f20	-1.9032936
237	0xbf9db65f	-1.232128
238	0xbefe46de	-0.49663442
239	0x3f8e40b1	1.1113492
240	0xbe9c0f89	-0.30480602
241	0xbe8c6bfd	-0.2742614
242	0xbf936564	-1.1515317
243	0xbf27ec10	-0.6559458
244	0xbf3cd74c	-0.73766017
245	0x3f8f3745	1.1188742
246	0x3f8a10d6	1.0786388
247	0xbf3315eb	-0.6995532
248	0xbed5026d	-0.41603413
249	0x3e7808c6	0.24222097
250	0x3fb1fcfb	1.3905329
251	0x3e6dedc7	0.23235236
252	0xbf839b8f	-1.0281848
253	0xbf6553cb	-0.8958098
254	0xbf8c3c0a	-1.0955822
255	0xbf511413	-0.81671256
