04_Models/weekly_HBEA_sentiment/best_model.pth (torch, 409269 bytes, 11 tensors)

lstm.weight_ih_l0 f4 [320, 64]
0	0xbc978c77	-0.018499596
1	0x3dbea19d	0.09308169
2	0xbc9a9634	-0.01887045
3	0x3d9c0787	0.07618623
4	0xbd5aac64	-0.05338706
5	0x3d314657	0.043279972
6	0x3c3ad04b	0.0114022
7	0x3d94f3a7	0.072730355
8	0xbdcd8baa	-0.100364044
9	0x3d41319f	0.047166463
10	0x3d118a0a	0.035532035
11	0xbd44b334	-0.048022464
12	0xbdf78783	-0.12086394
13	0xbc88b093	-0.01668576
14	0xbc9be0c0	-0.019028068
15	0x3c91ccd3	0.017797863
16	0xbdd06c65	-0.101769246
17	0xbb3f7386	-0.0029213144
18	0xbd40c40e	-0.047061972
19	0x3db81589	0.089884825
20	0xbdb6cc3e	-0.08925675
21	0xbd9e14e8	-0.07718831
22	0xbccc3add	-0.024930412
23	0xbda98f63	-0.08279302
24	0xbddcdfde	-0.10784887
25	0x3db4fa4d	0.088368036
26	0x3c567aa8	0.013090767
27	0x3d5c5dd2	0.05380041
28	0x3d43e4a8	0.047825485
29	0xbda9e366	-0.08295326
30	0x3d2939d4	0.041314915
31	0xbde5ebfc	-0.11226651
32	0xbc13200f	-0.008979811
33	0xbd9f7f32	-0.077879325
34	0xbe0b4286	-0.13599595
35	0xbba0ec25	-0.004910963
36	0xbb286598	-0.002569532
37	0x3cce437e	0.025178667
38	0x3d1c62bc	0.038180098
39	0x3d80ae3f	0.06283235
40	0xbdc1bdf5	-0.094600596
41	0xbdeb8988	-0.115008414
42	0xbdb5d182	-0.08877851
43	0x3de43edc	0.11144802
44	0x3e00edd4	0.12590724
45	0x3c301141	0.010746301
46	0x3d9c3255	0.076267876
47	0x3dba437f	0.09094905
48	0xbd2314f1	-0.039814893
49	0xbc58ad44	-0.0132249035
50	0xbc8e75bd	-0.017390126
51	0x3d3c8481	0.046024803
52	0x3d0077ed	0.03136437
53	0x3dd58e23	0.10427501
54	0x3c096e62	0.008388134
55	0x3d8c99b2	0.068652526
56	0x3daa3c54	0.08312288
57	0x3d4cf986	0.05004265
58	0xbd674715	-0.056464273
59	0x3d9391a0	0.0720551
60	0xbd9f4955	-0.07777659
61	0xbc65e69e	-0.014032034
62	0x3db13c03	0.086540245
63	0xbce37922	-0.027767722
64	0xbcd0bba2	-0.025480095
65	0x3e09371a	0.13399926
66	0x3d8529f2	0.06502141
67	0xbdc6463a	-0.096813634
68	0x3d68b2fa	0.05681131
69	0xbdab97f9	-0.08378596
70	0xbd3aca86	-0.045603298
71	0xbd394246	-0.04522922
72	0x3d18a205	0.03726389
73	0x3d9bae98	0.076016605
74	0x3ada8766	0.0016672432
75	0xbc2bc89b	-0.01048484
76	0x3d07cecc	0.0331562
77	0x3ca73749	0.020412104
78	0x3d5cf9a9	0.053949032
79	0x3d84311a	0.06454678
80	0xbd08e923	-0.03342546
81	0x3d9d101d	0.07669089
82	0x3ac8ce68	0.0015320303
83	0x3d527b33	0.051387023
84	0x39c8a12e	0.0003826706
85	0xbd7f9974	-0.062402204
86	0xbdb02b45	-0.08602003
87	0x3e03b470	0.128618
88	0xbdd8191d	-0.10551665
89	0x3df14bdc	0.11782047
90	0xbcba1a4b	-0.022717616
91	0xbdc6694b	-0.09688052
92	0xbe00d473	-0.12581043
93	0xbe2a7094	-0.16644508
94	0x3d99447c	0.074837655
95	0xbc8e7d69	-0.017393785
96	0xbd457874	-0.048210576
97	0x3d3f5c6b	0.046718996
98	0x383c1a38	4.484711e-05
99	0x3bf0f6db	0.007353646
100	0x3d4c0dc8	0.04981783
101	0x3cabae2a	0.020957071
102	0xbdba9dba	-0.09112115
103	0x3d4f1603	0.0505581
104	0xbe38f941	-0.18063833
105	0xbd3c4e38	-0.045973033
106	0x3d56e360	0.052462935
107	0xbddc3939	-0.10753102
108	0xbceb38ef	-0.028713671
109	0xbd664e6a	-0.056227125
110	0xbbbc1fe8	-0.005741108
111	0xbdb76163	-0.08954122
112	0xbdbb39a8	-0.091418564
113	0x3b8196e8	0.003954757
114	0x3d609d6a	0.05483762
115	0xbd60b413	-0.054859232
116	0x3ded51e1	0.11587883
117	0xbd32c7d2	-0.043647595
118	0xbe110b58	-0.14164484
119	0x3e0b8b3d	0.13627334
120	0x3ceb7cf9	0.028746115
121	0x3da84894	0.08216968
122	0xbd752086	-0.05984547
123	0x3e32fc95	0.17479165
124	0xbd93c63f	-0.07215547
125	0xbd983dd6	-0.07433669
126	0xbd00acc1	-0.03141475
127	0xbd33e6d3	-0.043921303
128	0xbcddc71a	-0.027072478
129	0x3d40f4bb	0.047108393
130	0x3e0c1895	0.13681252
131	0xbd025eac	-0.031828567
132	0x3d10af74	0.035323575
133	0xbcd5fbdd	-0.026121074
134	0xbdc98d3d	-0.09841392
135	0xbd525c02	-0.051357277
136	0xbdacae81	-0.084317215
137	0x3d443b9f	0.04790842
138	0xbd91bb75	-0.07115833
139	0xbdeb3214	-0.11484161
140	0x3da6c4b4	0.08142987
141	0x3e141b06	0.14463434
142	0x3d83b1b5	0.06430379
143	0x3d7d1375	0.061786134
144	0xbdfb79d0	-0.12279093
145	0x3dc2e4b9	0.09516282
146	0x3da08aef	0.078389995
147	0x3d360774	0.0444407
148	0xbdd805b7	-0.10547965
149	0x3be1b09e	0.0068875095
150	0xbca4619b	-0.020066073
151	0xbcbe3e44	-0.02322305
152	0x3d2824ef	0.041050848
153	0x3d166a06	0.036722206
154	0xbd818390	-0.06323922
155	0xbd962fd6	-0.07333343
156	0x3db76773	0.08955278
157	0x3da8317b	0.08212563
158	0xbc42fd51	-0.011901216
159	0xbc7597e8	-0.014989831
160	0xbd930167	-0.07178002
161	0x3d1fe9ae	0.039041214
162	0x3d810d52	0.06301369
163	0xbd9a0179	-0.07519812
164	0x3d01f668	0.031729132
165	0xbccbfba1	-0.02490026
166	0xbdf46f19	-0.11935253
167	0xbb0e21bd	-0.002168759
168	0x3ad186b9	0.0015985585
169	0xbd925532	-0.07145156
170	0x3d9c93bc	0.076453656
171	0x3b440486	0.0029909923
172	0x3d939de7	0.07207852
173	0x3d814aad	0.063130714
174	0xbda69c53	-0.08135285
175	0x3d6ef758	0.058341354
176	0xbdddbd09	-0.10827071
177	0x3b757e78	0.0037459414
178	0x3de13a21	0.10997415
179	0xbdbd5e77	-0.09246533
180	0x3cba3cbf	0.022734044
181	0xbd7d5aa3	-0.061854016
182	0x3da8736f	0.08225142
183	0xbc601770	-0.013677463
184	0xbd47a401	-0.04874039
185	0xbc21d592	-0.009877579
186	0x3daccd8f	0.08437645
187	0xbd9c7b77	-0.076407366
188	0xbd88e75d	-0.06684754
189	0xbb8b6281	-0.004253686
190	0xbd2ac547	-0.041692045
191	0x3dadae05	0.08480457
192	0x3a0fd763	0.0005487112
193	0xbca980c2	-0.02069128
194	0xbd8a7635	-0.067608275
195	0xbd674558	-0.056462616
196	0x3d63e5d4	0.055639103
197	0xbdb1dfd0	-0.08685267
198	0x3cf79c9d	0.030226046
199	0xbc80c2c9	-0.01571788
200	0x3de5e97f	0.112261765
201	0xbd4be737	-0.04978105
202	0xbd41e7e3	-0.047340285
203	0xbdb89302	-0.090124145
204	0x3ca415e0	0.020029962
205	0x3c5d8a50	0.013521746
206	0xbd69e2cd	-0.05710106
207	0x3dc45d0c	0.0958806
208	0xbdaf65f6	-0.085643694
209	0x3dfbbc8b	0.12291821
210	0x3d9b5fcd	0.07586632
211	0xbd81c9d4	-0.06337324
212	0xbd3aa986	-0.045571826
213	0x3be735e9	0.007055987
214	0xbd296b75	-0.041362245
215	0x3bb69391	0.0055717905
216	0x3a3caf76	0.00071977766
217	0x3e23b329	0.15986313
218	0xbda437bd	-0.08018444
219	0x3db8157e	0.08988474
220	0x3e438567	0.19093858
221	0xbcc011b3	-0.02344594
222	0xbd6e6f67	-0.05821171
223	0x3d7c22d4	0.061556652
224	0x3da7f372	0.082007304
225	0xbd749ad2	-0.05971796
226	0x3de871bf	0.1134982
227	0x3d5b336f	0.053515848
228	0x3d19d232	0.037553973
229	0xbce41308	-0.027841106
230	0xbd844bb7	-0.06459754
231	0xbd8d2d7d	-0.06893442
232	0xbdda4bec	-0.10659012
233	0x3dc56506	0.09638409
234	0x3d738f48	0.059462816
235	0x3d6767b7	0.056495395
236	0xbd15ea3b	-0.036600333
237	0x3e45741d	0.19282575
238	0x3db8abf8	0.090171754
239	0x3dc61484	0.09671882
240	0x3d954161	0.07287861
241	0xbbdac896	-0.0066767437
242	0x3c4bb8ea	0.012434224
243	0xbb9d680e	-0.004803664
244	0x3dad8482	0.084725395
245	0x3d170f39	0.03687975
246	0x3de06ebf	0.10958623
247	0x3e25516a	0.16144338
248	0xbd780627	-0.060552742
249	0x3d412dd9	0.047162864
250	0x3dfba35f	0.1228702
251	0x3cc0324f	0.023461489
252	0xbd280460	-0.041019797
253	0x3da67491	0.08127702
254	0x3de1f504	0.11033061
255	0xbb966d6a	-0.00459068

lstm.weight_hh_l0 f4 [320, 80]
0	0xbdc939ca	-0.098254755
1	0xbde4949a	-0.11161156
2	0x3d89e169	0.06732447
3	0xbcaeaaf1	-0.021321746
4	0xbdfbc6ca	-0.122937754
5	0xbe2360bf	-0.15954874
6	0xbda15327	-0.07877188
7	0xbc80ceaa	-0.015723545
8	0x3d901a8d	0.07036314
9	0x3de0b844	0.10972646
10	0x3dad7beb	0.08470901
11	0xbbd116d7	-0.0063808965
12	0xbdf0bb4f	-0.11754476
13	0xbb943ba4	-0.0045237113
14	0x3d15ddeb	0.03658859
15	0x3dac33d4	0.08408323
16	0x3dd47062	0.10372998
17	0xba0807b4	-0.0005189136
18	0xbd004dad	-0.031324077
19	0x3d94495f	0.07240557
20	0x3d58a9ab	0.052896183
21	0xbdaafb87	-0.08348756
22	0x3d8cc140	0.06872797
23	0x3da917b0	0.08256471
24	0xbcdbd22b	-0.026833614
25	0xbd96b156	-0.07358043
26	0xbe1e4afd	-0.15458293
27	0xbdd5e3d8	-0.10443848
28	0x3e05026f	0.1298921
29	0x3c3b28f7	0.011423341
30	0xbc8ab614	-0.016932525
31	0xbd4b7fe0	-0.049682498
32	0xbdae3ce0	-0.08507705
33	0x3d25b783	0.040458214
34	0xbe00d98e	-0.1258299
35	0xbc6579dd	-0.014006105
36	0xbdb35825	-0.087570466
37	0xbd9acefc	-0.075590104
38	0xbdeeb0c4	-0.11654809
39	0xbd89bfd2	-0.0672604
40	0x3cd7fcb0	0.026365608
41	0xbd79df31	-0.061003868
42	0xbde5afd6	-0.11215179
43	0xbccba72a	-0.024859983
44	0x3e0cf057	0.13763557
45	0xbda181d8	-0.07886094
46	0x3daa87c6	0.08326678
47	0xbde03cbd	-0.10949085
48	0x3d36aebd	0.044600237
49	0x3b1f25e4	0.002428406
50	0x3b9354e2	0.004496203
51	0xbe15bf31	-0.14623715
52	0x3deb32e0	0.11484313
53	0xbd9de370	-0.07709396
54	0x3d5817bf	0.05275702
55	0xbd73eb50	-0.059550583
56	0xbcc2fccc	-0.023802184
57	0x3e03b601	0.12862398
58	0x3cdff48c	0.027338289
59	0x3d123463	0.03569449
60	0xbc347bdc	-0.0110158585
61	0xbbbe4f3a	-0.0058077844
62	0xbda9780f	-0.082748525
63	0x3d9443e8	0.072395146
64	0x3d753ea2	0.059874184
65	0xbce5b5b6	-0.028040748
66	0x3d9f512c	0.07779154
67	0xbd0d6954	-0.034524277
68	0xbd733492	-0.059376307
69	0x3d04f788	0.032462627
70	0xbc2ec772	-0.010667669
71	0xbcddc9f6	-0.027073842
72	0xbd16499c	-0.036691293
73	0x3d35ad26	0.04435458
74	0x3c245a19	0.010031247
75	0x3c25ab70	0.010111675
76	0x3d2c75e5	0.04210462
77	0xbd36c548	-0.044621736
78	0xbdd902c2	-0.10596229
79	0x3d52c0eb	0.051453512
80	0x3db13889	0.08653361
81	0xbd6cfa03	-0.057855617
82	0xbc8a15d9	-0.01685612
83	0x3d2eca19	0.042673204
84	0x3ca73315	0.0204101
85	0x3dbb2174	0.0913724
86	0x3c32b056	0.0109063
87	0xbc398e36	-0.01132541
88	0xbda87ed9	-0.08227319
89	0x3bdde7fc	0.0067720395
90	0x3da229fe	0.079181656
91	0x3ca3d767	0.020000173
92	0xbd436167	-0.047700312
93	0x3d92825f	0.071537726
94	0xbdc51f71	-0.096251376
95	0x3db145a2	0.086558595
96	0xbd66dc42	-0.056362398
97	0xbcdeb83f	-0.027187465
98	0xbd3a63f5	-0.045505483
99	0x3ca88cae	0.020574894
100	0xbcc0a4e2	-0.023516122
101	0x3dc057ac	0.09391722
102	0xbe080aba	-0.13285342
103	0x3d4ea20c	0.05044751
104	0xbdd96304	-0.10614589
105	0x3b6bf1be	0.0036002244
106	0xbe23fc2b	-0.16014163
107	0x3d8edc57	0.0697562
108	0x3d8395fc	0.064250916
109	0xbd6ffd39	-0.0585911
110	0x3c85071c	0.016238742
111	0xbda26d58	-0.07931012
112	0x3d757d13	0.059933733
113	0x3c5da136	0.013527205
114	0x3c7f642d	0.015587849
115	0x3c74913d	0.014927206
116	0x3e0d0a2f	0.13773416
117	0xbd0a1c9a	-0.033718683
118	0xbd444032	-0.047912784
119	0x3daa058b	0.083018385
120	0xbd84d2da	-0.06485529
121	0xbd1bacc0	-0.038006544
122	0x3e0ebc24	0.13938957
123	0xbdbf46da	-0.09339686
124	0x3d291ecc	0.041289136
125	0xbdcc18b0	-0.09965646
126	0xb9b02bc9	-0.00033601958
127	0xbdceba40	-0.10094118
128	0xbc356a09	-0.011072644
129	0xbde401f5	-0.11133186
130	0xbdaf424c	-0.08557567
131	0xbc61d41f	-0.013783484
132	0x3d442a58	0.047891945
133	0x3d3d2c46	0.0461848
134	0x3cd768b6	0.026295047
135	0xbd1fbbbb	-0.038997393
136	0x3da1aee3	0.07894685
137	0x3ba74c8c	0.0051055606
138	0x3d2eda62	0.042688735
139	0xbd978c02	-0.07399751
140	0xbd75590b	-0.05989937
141	0x3d826a91	0.06367982
142	0xbc906911	-0.017628225
143	0x3df55259	0.11978597
144	0xbd352c61	-0.044231776
145	0x3d8632ec	0.06552681
146	0x3d8fe986	0.07026963
147	0x3d2aa20d	0.04165845
148	0xbd836a1f	-0.06416725
149	0x3ce5c143	0.028046256
150	0xbd13fdc7	-0.036130693
151	0xbdcb1902	-0.09916879
152	0x3d91cba5	0.0711892
153	0x3bd41228	0.006471891
154	0x3d79f3d9	0.061023567
155	0x3dda5e01	0.10662461
156	0x3d7e1da0	0.06203997
157	0xbd35d618	-0.04439363
158	0x3d5f76bf	0.054556604
159	0xbe06c846	-0.13162336
160	0x3df3615a	0.11883803
161	0x3c8d014a	0.017212529
162	0xbd1b0c2d	-0.03785341
163	0xbd8c620f	-0.06854641
164	0xbde39188	-0.11111742
165	0x3da4ecdc	0.0805299
166	0x3c893c85	0.01675249
167	0xbc67463e	-0.014115868
168	0x3d51f4db	0.051258903
169	0x3d4c8b51	0.04993755
170	0xbd9253c1	-0.07144881
171	0xbd61343c	-0.054981455
172	0x3d83fa19	0.06444187
173	0xbd2aa437	-0.041660514
174	0xbd0a5358	-0.03377089
175	0xbc5a79ae	-0.013334675
176	0xbd88579c	-0.06657335
177	0x3ddc04b7	0.10743087
178	0xbd3ea4b9	-0.04654381
179	0xbcb9187b	-0.022594681
180	0x3e08efe4	0.13372761
181	0x3dcc4816	0.09974687
182	0xbdb18cbc	-0.08669421
183	0x3d86d9d6	0.06584518
184	0xbd9617e1	-0.07328773
185	0xbd257fc9	-0.04040507
186	0xbe1f20a6	-0.15539798
187	0xbce45c41	-0.027876021
188	0x3ce7d403	0.028299337
189	0x3c9993f0	0.0187473
190	0xbe01caa2	-0.12674955
191	0xbdad92cf	-0.08475267
192	0xbe05a392	-0.13050678
193	0xbd8be6d7	-0.068311386
194	0x3d516013	0.051117014
195	0xbd06ffb0	-0.032958686
196	0x3d62f48b	0.055408996
197	0x3c8a6f3f	0.01689875
198	0xbcf25c76	-0.029585104
199	0x3d982ede	0.07430814
200	0x3e11577c	0.14193529
201	0xbdb584af	-0.08863198
202	0xbbf38499	-0.0074315784
203	0xbd90a7ff	-0.07063293
204	0xbd951376	-0.072791025
205	0xbd622bea	-0.05521766
206	0xbc545196	-0.012958905
207	0xbb7e0282	-0.003875882
208	0x3ca8d6c2	0.020610217
209	0xbdbbcb88	-0.0916968
210	0xbe0a5ad0	-0.13511205
211	0xbda80a30	-0.08205068
212	0x3d7f63cf	0.062351044
213	0xbd7dfdfb	-0.062009793
214	0x3dc5591a	0.096361354
215	0xbd8aef9a	-0.067839816
216	0x3da88921	0.0822928
217	0xbd9b82ec	-0.07593331
218	0x3d2e7869	0.0425953
219	0xbda0a1e5	-0.07843379
220	0x3cf70b48	0.030156747
221	0x3d03fec6	0.032225393
222	0xbcb3ef27	-0.021964623
223	0xbd083a16	-0.03325852
224	0x3d0fc472	0.035099454
225	0x3d262c80	0.040569782
226	0xbdc7a9d3	-0.09749188
227	0xbc2d17f8	-0.010564797
228	0x3dcd4101	0.10022164
229	0xbe0ae296	-0.13562998
230	0xbcbed2a6	-0.023293804
231	0xba8fc8ee	-0.0010969916
232	0x3db19368	0.08670694
233	0x3d63f0e3	0.05564965
234	0xbb327249	-0.0027228764
235	0x3e0c003d	0.13671966
236	0x3d29a908	0.041420966
237	0x3df180ed	0.11792169
238	0xbd7205af	-0.05908745
239	0xbde60643	-0.11231663
240	0x3d835906	0.06413464
241	0xbdfaaf12	-0.12240423
242	0xbd5899ee	-0.052881174
243	0x3df1be6f	0.118039005
244	0x3c763a53	0.015028554
245	0xbdef3465	-0.11679915
246	0xbc20f1a5	-0.009823238
247	0xbc33b36f	-0.010968073
248	0x3cc38a12	0.023869548
249	0xbc424259	-0.011856639
250	0x3dd3bbe2	0.1033857
251	0xbdbc5714	-0.09196296
252	0xbd66af6c	-0.05631964
253	0xbd8ec65e	-0.06971429
254	0x3e16bed8	0.14721239
255	0x3c909860	0.017650783

lstm.bias_ih_l0 f4 [320]
0	0x3db8e4f9	0.09028048
1	0x3db2400a	0.08703621
2	0x3d89e4aa	0.06733067
3	0x3d677ce0	0.056515574
4	0x3a75e9d2	0.000938085
5	0x3c0d25c9	0.008614966
6	0xbd91e5a0	-0.071238756
7	0xbdf7bc7e	-0.12096499
8	0xbd356b37	-0.0442917
9	0x3dc32ae5	0.09529666
10	0x3d997553	0.07493081
11	0xbd851d3e	-0.06499718
12	0x3dd9ba4f	0.10631239
13	0x3dbc0221	0.091800936
14	0x3cd45960	0.025921524
15	0xbd4e40ab	-0.05035464
16	0xbe0748ed	-0.13211413
17	0xbbb57e66	-0.0055387495
18	0x3dd799a7	0.10527354
19	0x3e21cd35	0.15800937
20	0x3d18b50e	0.037282042
21	0xbd9c525d	-0.07632897
22	0xbc520366	-0.012818193
23	0xbb2e78e7	-0.0026622356
24	0x3d8ea44e	0.069649324
25	0xbd49ab46	-0.049235605
26	0x3dd50950	0.10402167
27	0xbde34a0b	-0.11098107
28	0x3c7ec074	0.015548814
29	0xbd40ff4b	-0.047118466
30	0xbb7f32a3	-0.0038940094
31	0xbdc9d157	-0.098543815
32	0x3d9d1f0b	0.076719366
33	0x3d424aa3	0.04743446
34	0xbd1b2894	-0.037880495
35	0x3d062c44	0.03275706
36	0x3daf57cb	0.08561667
37	0x3bfdda04	0.0077469368
38	0xba3855e1	-0.000703184
39	0x3d4a09ac	0.04932563
40	0x3db6d7a7	0.08927851
41	0x3dc935df	0.09824728
42	0x3d488a7c	0.048960194
43	0x3ce8e923	0.02843148
44	0x3dc824aa	0.09772618
45	0xbe062433	-0.13099746
46	0xbdd71a57	-0.10503071
47	0x3dfe874b	0.12428149
48	0x3c51f3a3	0.012814435
49	0x3dc4c44a	0.09607752
50	0x3c977f40	0.018493295
51	0x3cbb5e2c	0.022872053
52	0x3c74967a	0.0149284545
53	0xbd7328da	-0.05936513
54	0xbd7ae86c	-0.06125681
55	0x3d9fb287	0.07797723
56	0xbd15ee8b	-0.036604445
57	0x3d01bb43	0.031672727
58	0x3b7a707a	0.0038214014
59	0x3cbd0de9	0.023077922
60	0x3d66c61f	0.056341287
61	0xbd9a72f7	-0.07541459
62	0xbcc5244c	-0.02406516
63	0xbceef242	-0.029168252
64	0xbcbb0757	-0.022830648
65	0x3ba1e7aa	0.0049409466
66	0x3d5a31c2	0.05327011
67	0x3d73424d	0.0593894
68	0xbdd4a0ac	-0.10382208
69	0xbcf132dd	-0.029443199
70	0x3d954f54	0.07290521
71	0xbd753798	-0.05986747
72	0x3cf4cc56	0.029882591
73	0x3d95790d	0.07298479
74	0xbc205151	-0.009785012
75	0x3d887757	0.06663387
76	0x3ccc0704	0.024905689
77	0x3d8307ec	0.06397995
78	0x39b34d84	0.00034199294
79	0x3848770d	4.779459e-05
80	0x3de825a2	0.11335303
81	0x3cb1c80f	0.02170184
82	0x3dfe6cb2	0.12423076
83	0x3dd150d4	0.10220495
84	0xbd1686a3	-0.036749493
85	0x3db17d20	0.08666444
86	0xbd1a3214	-0.037645414
87	0xbc19362f	-0.009351297
88	0xbb06fca8	-0.0020597372
89	0x3c30dc8a	0.010794768
90	0x3dab72ac	0.08371481
91	0x3abeea3e	0.0014565659
92	0x3d44877b	0.047980767
93	0xbd3c2a5e	-0.045938842
94	0xbdbcf916	-0.09227197
95	0x3d2ff3b0	0.042957008
96	0xbd575f54	-0.052581146
97	0x3c06f956	0.008238157
98	0x3d42dfaa	0.047576584
99	0x3b0f708f	0.0021887159
100	0xbd31e222	-0.043428548
101	0x3dcb4e93	0.09927096
102	0xbda37275	-0.07980815
103	0x3d07ba5b	0.033136707
104	0xbd2dbd69	-0.042416964
105	0xbdd41c40	-0.10356951
106	0xbd357739	-0.044303153
107	0xbe061dda	-0.13097325
108	0xbd56aca3	-0.052410733
109	0xbe02041e	-0.12696883
110	0xbda12245	-0.078678645
111	0x3cd2e5ab	0.02574428
112	0xbd012992	-0.031533785
113	0xbbbbeb8d	-0.005734867
114	0x3c076183	0.008262995
115	0xbdc5579a	-0.09635849
116	0xbdf6e33d	-0.12055061
117	0x3be4946d	0.0069757015
118	0xbd37d6bd	-0.044882525
119	0xbdc99f02	-0.098447815
120	0x3ca58a8a	0.020207662
121	0x3de7c4d3	0.11316838
122	0x3de0bdfc	0.10973737
123	0x3c832a08	0.016011253
124	0x3d5f588d	0.054527808
125	0xbdd916a7	-0.10600024
126	0xbdd5e0ce	-0.10443269
127	0xbcfe1487	-0.031015648
128	0x3deaada6	0.11458902
129	0xbb663a78	-0.0035130065
130	0x3c1ee56d	0.009698254
131	0x3ce10267	0.027466966
132	0xbda85a44	-0.08220342
133	0xbc9bd996	-0.019024651
134	0xbd888bb7	-0.066672735
135	0xbbf8bd46	-0.0075909225
136	0x3dcb40fe	0.09924506
137	0x3c5448f2	0.012956845
138	0xbcb86dac	-0.022513233
139	0xbe1e93a0	-0.15486002
140	0x3d369866	0.044578932
141	0x3e1433e2	0.14472917
142	0x3de78303	0.113042854
143	0x3dc2cfba	0.09512277
144	0xbdd11f0b	-0.10210999
145	0x3c62cff1	0.013843522
146	0xbd675735	-0.05647965
147	0xbdc7f2f3	-0.09763136
148	0x3c56f73f	0.0131204715
149	0xbbf18a0d	-0.0073711933
150	0x3be27290	0.0069106296
151	0x3d864419	0.06555957
152	0xbdecbb10	-0.11559117
153	0x3d69feda	0.05712781
154	0x3daff0b0	0.08590829
155	0x3c414133	0.01179533
156	0x3a5a1d9f	0.0008320454
157	0xbd41dd1d	-0.04733001
158	0x3d059c19	0.03261957
159	0xbc893307	-0.016747965
160	0xbd7a0492	-0.061039515
161	0xbdc93056	-0.098236725
162	0xbd0427a3	-0.032264363
163	0xbc86293c	-0.016377084
164	0xbdc15621	-0.09440256
165	0x3d8102e3	0.06299379
166	0x3d00edab	0.031476658
167	0x3d5bf987	0.053704765
168	0xbcee5323	-0.029092377
169	0x3d2313cc	0.0398138
170	0xbd705a86	-0.05868008
171	0x3cef377b	0.02920126
172	0x3dc2b5df	0.095073454
173	0x3d9772d9	0.07394952
174	0xbccb500f	-0.024818448
175	0xbd8a72c8	-0.06760174
176	0x3c1bd390	0.00951089
177	0x3c066765	0.008203362
178	0xbc0e83b2	-0.008698391
179	0x3d5b700b	0.05357365
180	0x3d79b3b4	0.060962394
181	0x3dd6a140	0.10479975
182	0xbd5c83bf	-0.05383658
183	0xbc8da4c6	-0.017290484
184	0x3bdc4996	0.0067226393
185	0x3db2023e	0.08691834
186	0xbccbfa5f	-0.02489966
187	0x3d9e4701	0.07728387
188	0x3d2bce79	0.041944955
189	0xbd94efe9	-0.07272322
190	0xbd44404d	-0.047912885
191	0xbd0c1cd1	-0.03420717
192	0xb5a4fb00	-1.2292003e-06
193	0x3d6222cf	0.055208977
194	0x3d2621ef	0.040559705
195	0x3a0d5597	0.0005391477
196	0xbb81e7a8	-0.003964383
197	0xbdc81eae	-0.09771477
198	0xbdc946a2	-0.09827925
199	0x3db49c19	0.08818836
200	0xbd339e22	-0.04385198
201	0xbd813e07	-0.06310659
202	0x3d9acadb	0.07558223
203	0x3cb61ea9	0.022231417
204	0x3da46f7d	0.08029077
205	0xbd87f0dd	-0.06637738
206	0xbdbfaabc	-0.09358737
207	0xbb597d11	-0.0033186118
208	0xbdb52f14	-0.0884687
209	0xbd9596d1	-0.073041566
210	0xbde4dff6	-0.1117553
211	0xbb1ff195	-0.0024405469
212	0xbd45a7b2	-0.04825563
213	0xbd762b9f	-0.060100194
214	0x3da8ac8d	0.082360364
215	0x3d98fc43	0.0746999
216	0x3d9b2263	0.07574918
217	0xbc414ebe	-0.011798559
218	0xbd316394	-0.043307856
219	0xbcd457b4	-0.025920726
220	0xbdbd8e8e	-0.09255706
221	0x3c1a1484	0.009404305
222	0x3dd1ec90	0.10250199
223	0xbd65ebb6	-0.056132995
224	0xbd2675e9	-0.04063979
225	0xbda36b9d	-0.0797951
226	0xbad38f60	-0.0016140752
227	0x3da1d358	0.07901639
228	0x3c5d369c	0.013501789
229	0xbd8142d9	-0.06311578
230	0x3dd3e5ac	0.10346541
231	0xbdd43508	-0.103616774
232	0xbd1c93f1	-0.038227025
233	0x3cfa57da	0.030559469
234	0xbd8c1077	-0.06839078
235	0x3d97d3b7	0.07413428
236	0xbd3e6ff2	-0.046493478
237	0x3beef9ff	0.0072929855
238	0x3cbcfc57	0.023069544
239	0x3d5ec44d	0.054386426
240	0x3ddee4f1	0.10883511
241	0x3e1b5c6e	0.15171978
242	0xbca8bb40	-0.0205971
243	0x3ba0b632	0.004904532
244	0x3cc265fe	0.023730274
245	0xbcc28310	-0.023744136
246	0x3d68da04	0.05684854
247	0xbdd48baa	-0.10378201
248	0xbd9bcc15	-0.07607285
249	0xbd16ae59	-0.036787365
250	0xbd3a617b	-0.04550312
251	0x3c382765	0.011239861
252	0x3d2dd654	0.042440727
253	0xbd181037	-0.03712484
254	0xbca5cee1	-0.02024025
255	0xbb829316	-0.003984819

lstm.bias_hh_l0 f4 [320]
0	0xbdb819ce	-0.08989297
1	0x3df7512f	0.120760314
2	0x3d0fc722	0.035102017
3	0xbd3b13c4	-0.045673147
4	0xb821745e	-3.8493767e-05
5	0x3cf49be3	0.029859489
6	0xbccf50d0	-0.02530709
7	0xbddd8678	-0.108166635
8	0x3d6ae844	0.057350412
9	0xbd495466	-0.049152754
10	0x3c99251c	0.018694453
11	0x3c909035	0.017646888
12	0x3d29d343	0.04146124
13	0x3d6b30a2	0.057419427
14	0xbd684f53	-0.056716274
15	0x3e0052f3	0.12531643
16	0x3c63488b	0.013872276
17	0xbce008a5	-0.027347872
18	0x3d831fcd	0.0640255
19	0x3e2d7e85	0.16942795
20	0x3d5ce0e8	0.053925425
21	0x3d3d2efd	0.04618739
22	0xbd81b1ae	-0.06332718
23	0xbd3968a9	-0.045265827
24	0x3db178ce	0.0866562
25	0x3dcf8681	0.101330765
26	0xbcc6c7d6	-0.024265211
27	0xbe03156f	-0.12801145
28	0xbccb801c	-0.02484136
29	0xbdda2eed	-0.10653482
30	0x3b284159	0.0025673716
31	0x3d44ec52	0.048076935
32	0xbd71bc30	-0.05901736
33	0xbcca12bc	-0.024667136
34	0x3d32b0e1	0.043625716
35	0x3ce7024f	0.028199343
36	0x3d47b355	0.04875501
37	0xbdc2e7ee	-0.09516893
38	0x3db9d738	0.09074253
39	0x3d93f117	0.072237186
40	0x3d3efa3e	0.04662537
41	0xbc5bd88f	-0.013418331
42	0x3dc38e5b	0.095486365
43	0x3c21ce2f	0.009875818
44	0x3d94cd38	0.07265705
45	0x3d811543	0.063028835
46	0xbcc442b2	-0.023957584
47	0x3de739e8	0.112903416
48	0x3d9d39b7	0.07677024
49	0x3dabccdc	0.08388683
50	0x3c8be5af	0.017077295
51	0xbe05d286	-0.1306859
52	0x3d9fe95c	0.07808182
53	0x3decf30a	0.115697935
54	0x3d8ca1cb	0.06866797
55	0xbcaebfef	-0.021331755
56	0xba66eb4f	-0.00088088674
57	0x3db4e365	0.088324346
58	0xbe027e14	-0.12743407
59	0x3cc48a87	0.023991836
60	0x3ce8e282	0.02842832
61	0x3dbc3f13	0.09191718
62	0x3ce26659	0.027636694
63	0xbdd433a2	-0.10361411
64	0xbd349951	-0.044091526
65	0xbd320001	-0.043457035
66	0xbccf98fe	-0.025341507
67	0xbdb6b926	-0.08922033
68	0xbdb593f0	-0.088661075
69	0x3dad7907	0.0847035
70	0x3bb36faa	0.005475958
71	0xbda79746	-0.0818315
72	0xbcf58324	-0.02996976
73	0x3d9bc503	0.076059364
74	0x3d91f490	0.07126725
75	0x3d9cf379	0.07663626
76	0x3d201032	0.039077945
77	0x3dac10f0	0.08401668
78	0x3d05a5cd	0.032628823
79	0x3c585717	0.013204358
80	0xbcbd19db	-0.023083618
81	0x3e0879f9	0.13327779
82	0xbda6dae5	-0.081472196
83	0xbce6c564	-0.028170295
84	0xbdf095f7	-0.117473535
85	0xbd4c1b18	-0.049830526
86	0xbd7ed4fb	-0.062214833
87	0x3cd8418c	0.026398443
88	0x3d61fa49	0.05517033
89	0x3dc43f16	0.09582345
90	0xbdfa9455	-0.12235323
91	0x3d92a05d	0.07159493
92	0x3c66cb5d	0.0140865715
93	0xbc443072	-0.011974441
94	0xbd746cd9	-0.059674118
95	0x3ddca456	0.10773532
96	0x3bc774a5	0.006086903
97	0xbd1d831f	-0.038455125
98	0x3ce166ec	0.027514897
99	0x3daea240	0.085270405
100	0xbe09cd1a	-0.13457146
101	0x3e09e92f	0.13467859
102	0xbdadacd5	-0.08480231
103	0xbd499f51	-0.0492242
104	0x3d834ea6	0.064114854
105	0x3cd7f54d	0.026362086
106	0xbc1c58a8	-0.009542622
107	0xbd21b90d	-0.03948312
108	0x3ce2ea19	0.027699517
109	0xbde5b14e	-0.11215459
110	0x3daba471	0.08380974
111	0x3dc3cee3	0.09560945
112	0x3da5f089	0.08102519
113	0xbc447190	-0.011989966
114	0x3d5ac277	0.053408112
115	0x3da722e3	0.08160951
116	0x3dc299b1	0.095019706
117	0x3d031410	0.032001555
118	0xbd1413b4	-0.036151603
119	0x3d2cb627	0.0421659
120	0x3dbc62cf	0.09198534
121	0x3cd8f17b	0.026482334
122	0xbd102957	-0.035195675
123	0xbd60bc69	-0.054867182
124	0xbdbbccee	-0.091699466
125	0xbd98a4ca	-0.07453306
126	0x3da324f8	0.079660356
127	0x3e064474	0.1311205
128	0xbc8351d9	-0.016030239
129	0xbc16d640	-0.009206355
130	0xbdc6c63b	-0.09705778
131	0x3c8a9ac5	0.016919503
132	0x3d81d347	0.06339126
133	0x3ddca04b	0.10772761
134	0x3c74c504	0.01493955
135	0xbd2e81ca	-0.042604245
136	0x3e064723	0.13113074
137	0x3bf181a9	0.007370193
138	0x3c98b172	0.0186393
139	0xbd849634	-0.064739615
140	0xbd52d1d0	-0.051469624
141	0x3cc58d76	0.024115305
142	0x3cfd52d2	0.03092328
143	0x39b7f132	0.00035084184
144	0xbd6e03a1	-0.05810893
145	0x3debc9c9	0.11513097
146	0x3d56d8fa	0.05245302
147	0x3d61baa5	0.05510964
148	0x3cb5d028	0.022193983
149	0xbbda6c47	-0.0066657397
150	0xbd488274	-0.048952535
151	0x3d5bdc96	0.053677164
152	0x3cd8a182	0.0264442
153	0x3da1313c	0.07870719
154	0x3e058c79	0.13041867
155	0x3d281e96	0.041044794
156	0x3d0b7034	0.034042552
157	0xbc22305f	-0.009899228
158	0x3d17b409	0.03703693
159	0x3d52cd08	0.051465064
160	0xbcf555a8	-0.02994807
161	0x3d43d0a4	0.047806397
162	0x3d4f69e8	0.05063811
163	0x3c726809	0.014795312
164	0xbd4419b5	-0.04787608
165	0x3dd9b2b3	0.10629787
166	0xbc9b7cd9	-0.01898043
167	0xbbf8f1bf	-0.0075971778
168	0x3c984a8b	0.018590232
169	0xbdba002e	-0.090820655
170	0x3c6a2209	0.014290341
171	0x3c873e71	0.016509267
172	0xbde6a042	-0.112610355
173	0x3dc353dd	0.0953748
174	0x3c9405e8	0.018069223
175	0xbd9fbb25	-0.07799367
176	0x3c532a07	0.012888438
177	0xbd8055c9	-0.06266362
178	0x3c8c6fca	0.017143149
179	0x3dd08216	0.10181062
180	0x3dbc9ebb	0.09209963
181	0xbaf64801	-0.0018789769
182	0xbdda1bfd	-0.106498696
183	0xbd6fa4a0	-0.058506608
184	0xbdc3d8f8	-0.09562868
185	0xbc3c98df	-0.011511057
186	0xbd044e29	-0.0323011
187	0x3d7e1746	0.062033914
188	0x3bd0ecec	0.0063758995
189	0xbcbcf097	-0.02306394
190	0x3dbad5e0	0.09122825
191	0x3ca65656	0.02030484
192	0x3dd6641e	0.104683146
193	0xbc2d89a8	-0.010591902
194	0xbc392339	-0.011299902
195	0xbdc6d56d	-0.097086765
196	0x3ddbc3ca	0.10730703
197	0xbdd01d67	-0.10161858
198	0x3cab8dfa	0.020941723
199	0x3d9cec98	0.07662314
200	0xbcc7bcee	-0.02438208
201	0x3d8de1c2	0.069278255
202	0x3db5758c	0.08860311
203	0x3c9c6621	0.019091668
204	0xbdc2c3f8	-0.09510034
205	0xbdbe9a7e	-0.09306811
206	0x3d1d8e8e	0.03846603
207	0xbd92288c	-0.0713664
208	0x3d32d63e	0.04366135
209	0x3c8c6a99	0.017140673
210	0x3c6dc457	0.014512143
211	0xbcdb0c59	-0.026739286
212	0x3c39870e	0.011323703
213	0x3d467b5d	0.048457492
214	0x3d634962	0.055489905
215	0x3c01e525	0.0079281675
216	0x3d2ad5af	0.04170769
217	0xbd3ef71c	-0.04662238
218	0xbdbed216	-0.093174145
219	0x3ca7492b	0.020420631
220	0xbdbfbd6a	-0.093623
221	0x3dcd43df	0.10022711
222	0xbcf714e3	-0.030161327
223	0xbdb096b4	-0.08622494
224	0xbc720939	-0.014772707
225	0x3d3013fb	0.042987805
226	0x3dca7cc0	0.098870754
227	0xbc5d7666	-0.013516998
228	0xbd5711cc	-0.052507207
229	0xbdeafda6	-0.11474161
230	0x3db5962b	0.08866533
231	0xbc83bbf6	-0.016080838
232	0xbd7615ee	-0.060079508
233	0x3d1b0f53	0.03785641
234	0x3de5b5e9	0.11216337
235	0xbda96b5c	-0.0827243
236	0x3d43a282	0.0477624
237	0x3d5abb45	0.05340125
238	0x3d844be8	0.064597905
239	0xbdd422c4	-0.103581935
240	0xbc62be5a	-0.013839329
241	0x3da301a7	0.079592995
242	0x3dacdb77	0.08440297
243	0x3c4024e0	0.011727542
244	0xbe02367c	-0.12716097
245	0xbd2ffe4b	-0.042967122
246	0x3dabd22e	0.08389698
247	0x3cf8d837	0.030376537
248	0x3c562df6	0.013072481
249	0xbc1815a1	-0.0092825005
250	0xbb39fb92	-0.0028378707
251	0x3cba7390	0.022760183
252	0x3a18efc7	0.00058340695
253	0x3d8a5256	0.067539856
254	0x3cbc17e9	0.02296062
255	0xbcdb5635	-0.026774505

lstm.weight_ih_l1 f4 [320, 80]
0	0x3dd3574a	0.103193834
1	0xbd4b4261	-0.04962385
2	0x3ca8772d	0.02056464
3	0xbd999781	-0.074996
4	0xbccbe3da	-0.024888922
5	0x3dc34f9f	0.09536671
6	0x3b577110	0.0032873787
7	0x3e03a9db	0.12857763
8	0x3d1d88fd	0.03846072
9	0xbd959e9b	-0.07305642
10	0x3b922fe6	0.0044612763
11	0xbdd9df48	-0.10638291
12	0x3d14725c	0.036241874
13	0x3d056fce	0.03257733
14	0x3e015811	0.12631251
15	0xbde6acde	-0.112634405
16	0x3d68d0d1	0.056839768
17	0x3cd61624	0.026133604
18	0xbc0c5db2	-0.008567261
19	0xbdac0822	-0.08399989
20	0xbd0b3e1c	-0.03399478
21	0x3d00b142	0.031419046
22	0x3daf0fac	0.08547911
23	0x3d5f09aa	0.054452576
24	0xbddbbd94	-0.107295185
25	0xbce92555	-0.028460184
26	0xbd91c4df	-0.07117628
27	0x3daf782e	0.08567844
28	0xbd9e5191	-0.07730401
29	0xbd95d25e	-0.07315515
30	0xb9b9b224	-0.00035418675
31	0x3da55c55	0.080742516
32	0x3daf1561	0.085489996
33	0xbdd079fc	-0.10179517
34	0x3da30c36	0.079613134
35	0x3dd0877f	0.10182094
36	0x3dc998e2	0.09843613
37	0xbdb55e1d	-0.08855841
38	0xbdb51d49	-0.08843476
39	0xbd89a102	-0.06720163
40	0xbc9079bc	-0.017636172
41	0xbdb77d2a	-0.0895942
42	0xbdbe133c	-0.092810124
43	0x3d5b5a46	0.05355289
44	0xbde8b155	-0.113619484
45	0x3c625dd7	0.0138163185
46	0xbd7a183d	-0.06105827
47	0x3d81d110	0.06338704
48	0xbd759bf6	-0.05996319
49	0xbc00f335	-0.007870485
50	0x3b0bb8b9	0.002131982
51	0xbd5e5554	-0.054280594
52	0xbd66115b	-0.056168895
53	0xbc050724	-0.008119378
54	0x3cf4c27e	0.029877897
55	0x3d83235a	0.06403227
56	0xbd6dcd31	-0.058057014
57	0xbd178ef5	-0.03700157
58	0xbd164b41	-0.03669286
59	0x3d6e039d	0.058108915
60	0xbd46f80a	-0.048576392
61	0x3dafda98	0.08586615
62	0xbcf22e9b	-0.029563239
63	0xbe00d968	-0.12582934
64	0x3da25c98	0.07927817
65	0x3d115860	0.03548467
66	0xbdfae03d	-0.12249801
67	0xbdc0dec6	-0.09417491
68	0xbd51e8ca	-0.051247396
69	0x3d43b812	0.047782965
70	0xbbd9f0a5	-0.0066510015
71	0x3d8b6444	0.068062335
72	0xbd93a047	-0.07208305
73	0x3dd7dee9	0.105405636
74	0xbc841fa4	-0.016128369
75	0x3df20023	0.11816432
76	0xbd9f26b6	-0.077710554
77	0x3dc76771	0.09736527
78	0xbcc93ce3	-0.024565166
79	0xbd9fe1ff	-0.07806777
80	0xbd9958da	-0.0748765
81	0xbdabfa4f	-0.08397352
82	0xbcf2b7e2	-0.029628698
83	0x3c76e3e7	0.015068985
84	0x3d3e6a34	0.046488002
85	0x3c9ae012	0.018905673
86	0x3d9f5503	0.077798866
87	0xbd06fb36	-0.032954417
88	0x3d9beac0	0.076131344
89	0xbcf3dc53	-0.029768145
90	0x3cb2709d	0.021782214
91	0x3ddce6c2	0.10786201
92	0x3cead30d	0.02866509
93	0xbab9389a	-0.0014131248
94	0xbd30ddb0	-0.043180168
95	0xbd6fb0e4	-0.058518305
96	0xbd6a7b33	-0.0572464
97	0x3d9fb3ea	0.07797988
98	0x3c9cd0f8	0.019142613
99	0x3d7cbbc1	0.061702494
100	0x3d913daf	0.07091843
101	0xbdcb8251	-0.09936965
102	0xbdb2a70a	-0.087232664
103	0xbdaa2543	-0.08307888
104	0x3d0f5374	0.034991696
105	0x3cc68516	0.024233382
106	0x3b183644	0.0023225704
107	0xbd1d8e46	-0.03846576
108	0x3e2c32c4	0.1681624
109	0xbd9f51d8	-0.07779282
110	0x3a23c94b	0.00062479515
111	0x3da08ae8	0.07838994
112	0x3d36d738	0.044638842
113	0x3dad7263	0.08469083
114	0xbce00617	-0.027346654
115	0x3d94fec7	0.072751574
116	0xbda24e51	-0.07925094
117	0xbd7f59f6	-0.062341653
118	0x3bfaa470	0.007648997
119	0xbd5fde14	-0.05465515
120	0xbd37040c	-0.044681594
121	0xbdb78f8f	-0.089629285
122	0x3de2402f	0.11047398
123	0xbd01b5a6	-0.031667374
124	0x3d26c6d1	0.04071695
125	0xbcafde84	-0.021468408
126	0xbd03b8bc	-0.0321586
127	0x3d3825bf	0.044957872
128	0xbc308248	-0.010773249
129	0x3d6ff07b	0.05857895
130	0xbd51c64c	-0.0512145
131	0x3d808bf5	0.06276695
132	0xbb00a41e	-0.0019629071
133	0xbb8200fe	-0.0039674034
134	0xbd023ffd	-0.031799305
135	0xbd80c08e	-0.06286727
136	0xbd0640e7	-0.03277674
137	0x3dabf1b8	0.083957136
138	0x3cb1a763	0.021686262
139	0x3cf1254a	0.029436726
140	0x3d6cdd1c	0.057828054
141	0x3d7dc9d5	0.06196006
142	0xbd37f184	-0.04490806
143	0x3d94b08c	0.07260236
144	0xbd3d5aee	-0.046229295
145	0xbada2cb9	-0.0016645408
146	0xbd31ddc6	-0.04342439
147	0xbbd477d4	-0.006484011
148	0xbc27c159	-0.010238969
149	0xbd0d4fa3	-0.034499776
150	0x3c7d8534	0.015473653
151	0xbd84d3ce	-0.06485711
152	0x3d916c12	0.07100691
153	0x3b675589	0.0035298786
154	0xbb5d4e1c	-0.003376848
155	0x3d31ac59	0.043377254
156	0x3c91ad40	0.017782807
157	0x3de34ca5	0.11098603
158	0xbd52b0ca	-0.05143813
159	0xbdadc7f2	-0.08485402
160	0x3cb5d740	0.022197366
161	0xbc563fc3	-0.013076725
162	0x3dd94b96	0.1061012
163	0xbdbc216f	-0.091860645
164	0xbd25bed6	-0.0404652
165	0x3d8a636f	0.06757247
166	0x3c79f470	0.015256032
167	0xbcb3ccd1	-0.02194825
168	0xbd3128a6	-0.043251656
169	0x3de4c996	0.11171262
170	0x3cca8b98	0.024724767
171	0xbda7da0e	-0.081958875
172	0x3d8e4289	0.06946284
173	0x3dc26fd2	0.09493984
174	0xbd4a22af	-0.049349483
175	0xbdb87dda	-0.09008379
176	0xbc47c9e5	-0.0121941315
177	0xbce28ba3	-0.027654475
178	0xbdafabbb	-0.08577677
179	0xbd274c0f	-0.04084402
180	0xbd2a3df3	-0.041562986
181	0xbd75d7ef	-0.060020383
182	0x3de76fa3	0.1130059
183	0x3d282458	0.041050285
184	0x3d0d7fb3	0.03454561
185	0x3d95b237	0.073093824
186	0x3db6c265	0.089237966
187	0xbdb4199e	-0.087939486
188	0x3ddc2dd7	0.10750931
189	0x3c80b2e5	0.015710304
190	0xbc62f50e	-0.013852371
191	0x3d54aeae	0.0519244
192	0xbdb85fa0	-0.09002614
193	0x3dbb212d	0.09137187
194	0xbd0c075c	-0.034186706
195	0xbcf75c7e	-0.03019547
196	0xbdc04051	-0.093872674
197	0x3d87d0d7	0.0663163
198	0xbccef75f	-0.02526444
199	0x3d980f73	0.07424822
200	0xbd921020	-0.07131982
201	0xbd904e0d	-0.07046137
202	0x3dca32c7	0.09872966
203	0x3db50ab1	0.0883993
204	0xbc18e346	-0.00933153
205	0x3d55377a	0.05205486
206	0x3d03bbdd	0.032161582
207	0xbcfb5c99	-0.030683802
208	0xbda6163e	-0.08109711
209	0xbde620ac	-0.112367004
210	0x3d04840f	0.032352503
211	0x3d90e2fe	0.07074545
212	0xbc3ddc85	-0.0115882205
213	0x3d7ec525	0.06219973
214	0x3daea8fc	0.08528325
215	0x3d69fa21	0.057123307
216	0x3d954bc8	0.07289845
217	0x3de27e09	0.110591955
218	0x3dcb43b9	0.099250264
219	0xbd881cb1	-0.066460975
220	0xbcfe3eb2	-0.031035755
221	0xbcf72cf9	-0.030172812
222	0xbe19b425	-0.15010126
223	0x3cd78e18	0.026312873
224	0x3d8fd1cc	0.070224375
225	0x3aa26892	0.0012390784
226	0xbd032308	-0.03201583
227	0xbd08491f	-0.03327286
228	0x3d1d87a9	0.038459454
229	0x3d76fe40	0.060301065
230	0x3c6f697a	0.01461255
231	0x3dafb74e	0.085798845
232	0xbde3caf4	-0.111226946
233	0x3d2aff74	0.041747525
234	0xbd0b228f	-0.033968505
235	0xbdf389a4	-0.11891487
236	0xbb8e7ce5	-0.0043483847
237	0x3d760ce9	0.060070906
238	0xbbaf5578	-0.005350765
239	0xbddd47fb	-0.10804745
240	0xbd9ccd76	-0.07656376
241	0xbc8cc8d8	-0.017185614
242	0x3da1de13	0.079036854
243	0x3d349edd	0.044096816
244	0x3dab5ed4	0.083676964
245	0xbd34b0d4	-0.04411395
246	0xbc5dd996	-0.013540646
247	0x3ac9cdac	0.0015396378
248	0x3d8c52b5	0.068517126
249	0xbd1dfe01	-0.038572315
250	0xbd670f54	-0.056411102
251	0xbd22517c	-0.03962849
252	0xbdc66249	-0.09686715
253	0xbdd3a0b2	-0.103333846
254	0x3d3de326	0.046359204
255	0xbd273d24	-0.040829793

lstm.weight_hh_l1 f4 [320, 80]
0	0xbd32215d	-0.04348885
1	0x3d811b27	0.06304007
2	0xbd6716bf	-0.056418177
3	0xbd4c5c10	-0.049892485
4	0x3dcbea5f	0.09956812
5	0x3dbe6699	0.09296913
6	0x3cd8cd54	0.026465096
7	0x3dc0fd32	0.09423293
8	0xbd9c9933	-0.07646408
9	0xbdc639d8	-0.096790016
10	0xbdd8190d	-0.10551653
11	0x3d8269a9	0.06367809
12	0xbc922aa2	-0.017842595
13	0x3db8b162	0.09018208
14	0xbc4bcfd9	-0.012439691
15	0x3d77cbc4	0.06049706
16	0x3ce851a9	0.028359251
17	0x3db89457	0.090126686
18	0xbdbb3e7c	-0.09142777
19	0xb972b498	-0.00023146195
20	0xbdf0007b	-0.11718842
21	0x3dadb17b	0.08481117
22	0x3d368c34	0.044567302
23	0x3d95e0e9	0.07318289
24	0x3d4dcd9d	0.050244916
25	0x3ce2dc8d	0.027693057
26	0x3db18abd	0.0866904
27	0xbdd0565c	-0.10172722
28	0xbbd40931	-0.0064708223
29	0xbd86b941	-0.06578303
30	0x3cba2060	0.022720516
31	0x3b3dc43c	0.0028956076
32	0xbd341784	-0.04396774
33	0xbdb4e0ce	-0.088319406
34	0xbdfd56dc	-0.12370083
35	0x3dab6fbd	0.08370922
36	0xbd852373	-0.06500902
37	0xbb221b98	-0.0024735685
38	0xbdac3d21	-0.08410097
39	0xbde0a4f7	-0.109689645
40	0x3d028a99	0.03187046
41	0xbd2ffd0f	-0.042965945
42	0xbd236798	-0.039893717
43	0x3d2a8ec8	0.041640073
44	0x3d04f26e	0.03245776
45	0xbda9fa4b	-0.08299693
46	0x3c7ae720	0.015313894
47	0x3d9cafbe	0.07650708
48	0xbd3a371a	-0.045462705
49	0xbdb0ba19	-0.08629245
50	0xbd80ca53	-0.0628859
51	0xbd8f383e	-0.06993149
52	0x3e09a4d2	0.1344178
53	0xbd06e546	-0.032933496
54	0x3d12e481	0.03586245
55	0xbde8097f	-0.11329936
56	0x3d9d6826	0.0768588
57	0x3d3838f3	0.044976186
58	0x3d36e32e	0.04465025
59	0x3b779bf7	0.0037782171
60	0xbcee1894	-0.029064454
61	0xbddbaf32	-0.10726775
62	0x3d16c36a	0.036807455
63	0xbcbfc8bd	-0.02341115
64	0x3d625804	0.05525972
65	0xbd85583a	-0.065109685
66	0xbd595b40	-0.05306554
67	0xbd2c25a9	-0.042028103
68	0xbdaede87	-0.085385375
69	0x3ccf7ced	0.025328124
70	0x3d95649e	0.07294582
71	0x3d8332da	0.064061835
72	0x3ce45b6a	0.02787562
73	0x3d2c1758	0.04201445
74	0xba5df616	-0.00084671506
75	0x3bcec284	0.006309809
76	0xbd33bf7a	-0.04388378
77	0x3db80efa	0.089872316
78	0x3c9a40a9	0.01882966
79	0xbd8637aa	-0.06553586
80	0xbda39d14	-0.07988945
81	0xbcdc1120	-0.026863635
82	0xbd479f84	-0.04873611
83	0xbd613464	-0.054981604
84	0xbdab3177	-0.08359044
85	0x3da6432e	0.08118282
86	0xbc3d9462	-0.011571022
87	0x3dea5186	0.114413306
88	0x3d5cf242	0.053941973
89	0x3d82f78d	0.06394873
90	0x3ce894d9	0.028391289
91	0xbdb2d07d	-0.08731172
92	0x3dab03ef	0.0835036
93	0x3d796562	0.0608877
94	0x3d0754bb	0.03303979
95	0xba0cde52	-0.00053737045
96	0xbd0da63e	-0.03458237
97	0x3db8355c	0.089945525
98	0x3d3f8ec4	0.04676701
99	0x3dc2fe64	0.095211774
100	0xbd8302f6	-0.06397049
101	0x3da57a17	0.080799274
102	0x3dc74ac5	0.09731058
103	0x3dccaad0	0.099935174
104	0x3db266b8	0.08710998
105	0x3d82202b	0.06353792
106	0x3b6a1a57	0.0035721266
107	0x3cd478a2	0.025936428
108	0x3c4ccbe2	0.012499781
109	0x3d88e80a	0.06684883
110	0x3ca7bc4e	0.020475533
111	0x3dbae8ff	0.09126472
112	0xbdd37b3f	-0.10326242
113	0x3cc5caea	0.024144609
114	0xbc5163fe	-0.012780188
115	0xbd87a0dc	-0.06622478
116	0x3bf5e272	0.007503801
117	0xbd920626	-0.07130079
118	0xbdb8dbe8	-0.09026319
119	0x3df19966	0.117968366
120	0xbd885ba3	-0.06658103
121	0xbd4b0807	-0.049568202
122	0x3df56554	0.119822174
123	0xbce8b995	-0.028408805
124	0xbdeeb7bb	-0.116561376
125	0x3b162ace	0.0022913697
126	0xbb119934	-0.002221656
127	0x3acdf71b	0.0015713902
128	0xba1cb21e	-0.0005977469
129	0xbd8212b4	-0.063512236
130	0xbb97cc4e	-0.0046325093
131	0xbd99ac19	-0.07503528
132	0xbca7053a	-0.020388234
133	0x3d61e6d3	0.05515177
134	0x3d4991aa	0.04921118
135	0x3ca0819f	0.019593058
136	0xbd240ebd	-0.040053118
137	0x3d869501	0.06571389
138	0xbd3ae0f4	-0.04562469
139	0x3d337fed	0.04382317
140	0x3d1aa562	0.037755378
141	0x3c7112fd	0.014714
142	0x3d8e8d9f	0.06960606
143	0x3dfa1f55	0.12213007
144	0xbe03b5e5	-0.12862356
145	0xbc401b47	-0.011725253
146	0x3cec9def	0.028883902
147	0xbd8bab7a	-0.06819816
148	0xbd12e5d3	-0.03586371
149	0x3d447a0e	0.047967963
150	0xbd24a6d7	-0.040198173
151	0xbd1603ad	-0.0366246
152	0xbd848bf1	-0.06472004
153	0x3c6ea8fa	0.014566654
154	0xbde4b395	-0.11167065
155	0xbd0f272f	-0.034949478
156	0x3d320db8	0.043470114
157	0x3cac1e5a	0.021010567
158	0xbdb26e7e	-0.08712481
159	0x3d8617e2	0.06547524
160	0xbd1cca24	-0.038278714
161	0xbd884127	-0.06653052
162	0x3d646093	0.055756163
163	0xbd0de051	-0.034637753
164	0x3d00e0df	0.031464454
165	0xbc8d3113	-0.017235314
166	0x3dbdae92	0.09261812
167	0x3dc88306	0.09790616
168	0xbdc9bbb0	-0.09850252
169	0xbd228eb2	-0.039686866
170	0xbcb21d39	-0.02174245
171	0x3d841b5d	0.06450532
172	0x3d102bd9	0.035198066
173	0x3b9d46c4	0.0047996957
174	0xbbfad530	-0.0076548085
175	0xbdbdafb5	-0.09262029
176	0xbc966928	-0.01836069
177	0x3c27eb66	0.010248994
178	0xbd46343b	-0.048389655
179	0xbde4b6ec	-0.11167702
180	0xbdf66bf6	-0.12032311
181	0x3d81eac5	0.06343607
182	0xbd3c0dda	-0.045911647
183	0xba29fa83	-0.00064841675
184	0x3dd139d7	0.1021611
185	0xbdfbba5b	-0.12291404
186	0x3cdeda21	0.027203621
187	0xbd277f11	-0.040892664
188	0x3d9542d6	0.072881386
189	0xbdb4eb98	-0.088339984
190	0x3cb24ed4	0.021766104
191	0x3d278342	0.04089666
192	0xbd91924a	-0.071079805
193	0xbcf34b9f	-0.029699145
194	0xbd994c6c	-0.074852794
195	0xbc4799f1	-0.012182699
196	0x3caffd67	0.021483136
197	0xbda16f02	-0.07882501
198	0x3da63afb	0.081167184
199	0x3e071360	0.13190985
200	0x3d7f4b27	0.06232753
201	0x3dac6775	0.0841817
202	0x3d85cf5c	0.06533691
203	0xbdd3b4b0	-0.10337198
204	0x3d8c71cd	0.06857643
205	0x3d886c9b	0.0666134
206	0xbd946b25	-0.07246999
207	0xbdc20b95	-0.09474865
208	0x3be56201	0.0070002084
209	0x3d1cb3b2	0.03825731
210	0xbbd81b1e	-0.0065950295
211	0x3cffb2f7	0.031213267
212	0x3d9d018e	0.07666312
213	0xbb82352b	-0.0039736233
214	0xbcac959b	-0.021067431
215	0x3dcdf438	0.10056347
216	0x3c1b8172	0.009491311
217	0xbd86b2f9	-0.06577105
218	0x3bb2c85e	0.0054560145
219	0xbdb65b2d	-0.08904109
220	0xbdea8239	-0.11450619
221	0x3d21ac1a	0.03947077
222	0x3c95c102	0.01828051
223	0xbd9bffa0	-0.07617116
224	0x3dc897e0	0.09794593
225	0xbdb53a8d	-0.08849058
226	0x3d3c0215	0.045900423
227	0xbd436d06	-0.047711395
228	0xbdc0edcb	-0.094203554
229	0xbd978828	-0.073990166
230	0x3d4421bc	0.047883734
231	0x3d95c130	0.07312238
232	0xbdfa040a	-0.12207802
233	0xbcf3b030	-0.029747099
234	0x3d84c325	0.06482533
235	0xbdce0297	-0.10059088
236	0x3dc2e506	0.09516339
237	0xbd914b40	-0.07094431
238	0x3d52c593	0.051457953
239	0xbe0abe15	-0.13549073
240	0x3c866cde	0.016409334
241	0x3c719e9d	0.014747289
242	0x3c157202	0.00912142
243	0xbdca8dfa	-0.09890361
244	0x3dbff71d	0.09373305
245	0x3d83002e	0.06396519
246	0x3d36876d	0.044562746
247	0xbd5160cc	-0.051117703
248	0x3c730cc5	0.014834587
249	0xbd1e4025	-0.03863539
250	0x3d6a55ac	0.05721061
251	0xbd6127bf	-0.054969545
252	0x3c56f1db	0.013119186
253	0xb9988447	-0.00029090254
254	0x3c7aa0e5	0.015297149
255	0x3dbd2c93	0.092370175

lstm.bias_ih_l1 f4 [320]
0	0xbe0be566	-0.13661727
1	0x3ca3272f	0.019916145
2	0x3d31e711	0.043433253
3	0xbdcc77b9	-0.09983773
4	0x3d19c0d6	0.03753742
5	0xbdcfa021	-0.10137964
6	0x3d932391	0.07184518
7	0x3c44fe09	0.012023457
8	0x3b561510	0.0032666363
9	0x3b3f57cf	0.0029196625
10	0xbddb0ce2	-0.106958166
11	0x3c150f08	0.009097822
12	0xbdf58b70	-0.11989486
13	0x3dae762d	0.08518634
14	0xbd46f9f0	-0.048578203
15	0xbc8da6f6	-0.017291527
16	0x3d001c0c	0.031276748
17	0x3e040cff	0.12895583
18	0x3db32e9c	0.087491244
19	0x3b31f61b	0.0027154747
20	0xbd49f5ef	-0.049306806
21	0x3dca18b8	0.09867996
22	0x3cbdaf99	0.02315502
23	0x3dfe8235	0.12427179
24	0xbe02e26d	-0.12781687
25	0xbd8851c7	-0.06656223
26	0xbd497a18	-0.049188703
27	0xbca4b7d0	-0.02010718
28	0x3cd8ffee	0.026489224
29	0xbd8a8cc2	-0.06765129
30	0x3d6e01fb	0.058107357
31	0xbb8f8e4a	-0.004380976
32	0x3dc2498a	0.09486683
33	0xbb1e0da1	-0.002411701
34	0xbd2f9020	-0.042862058
35	0x3daecfac	0.08535704
36	0xbb586658	-0.0033019986
37	0x3db91aa8	0.090382874
38	0xbdbfa963	-0.0935848
39	0xbd194b6a	-0.037425436
40	0x3dd7a6cb	0.1052986
41	0xbc33f24d	-0.010983062
42	0x3e147676	0.14498314
43	0x3d8b1f00	0.06793022
44	0x3ddde0ea	0.108339146
45	0x3d5a52fe	0.053301804
46	0x3d968107	0.07348829
47	0x3d75165f	0.059835788
48	0xbd0285d0	-0.031865895
49	0x3d202531	0.03909797
50	0x3e0d67b0	0.13809085
51	0x3e0c7c19	0.13719214
52	0xbc62a3db	-0.0138330115
53	0x3dc8882d	0.097915985
54	0x3d4ea365	0.050448794
55	0xbd73e401	-0.059543613
56	0x3d51f748	0.051261216
57	0x3ccaf8a7	0.02477677
58	0x3de5e5f2	0.11225499
59	0xbd47eaf8	-0.048808068
60	0x3df560ff	0.11981391
61	0xbd77d046	-0.06050136
62	0x3dbf064b	0.09327372
63	0xbd463a50	-0.048395455
64	0x3d6f7f53	0.058471035
65	0x3d012205	0.031526584
66	0x3ddaf392	0.106909886
67	0x3d5f9fa7	0.054595616
68	0x3da663b0	0.08124483
69	0xbcd35805	-0.025798807
70	0x3c64a177	0.013954512
71	0xbda81568	-0.08207208
72	0x3d069132	0.032853313
73	0xbd3da2db	-0.04629789
74	0xbdd83e45	-0.10558752
75	0x3d83699a	0.06416626
76	0x3c6b9b58	0.014380299
77	0x3cfead80	0.03108859
78	0x3d001793	0.031272482
79	0x3ce868d1	0.028370293
80	0xbc4b9de3	-0.01242778
81	0x3dd05630	0.10172689
82	0xbd8b61dd	-0.06805775
83	0xbd3625e8	-0.044469744
84	0xbdbec583	-0.09315016
85	0x3d584739	0.0528023
86	0x3c5ed79a	0.013601208
87	0xbc8d15ba	-0.017222274
88	0xbce964c9	-0.02849044
89	0x3df28705	0.11842159
90	0xbd1f5a4f	-0.038904484
91	0x3d812379	0.06305594
92	0xbd3f0269	-0.046633158
93	0x3ddd0a51	0.10792983
94	0xbdfccca5	-0.1234372
95	0x3ccfd2f4	0.025369145
96	0x3d3f7bf5	0.046749074
97	0xbd852958	-0.06502026
98	0x3dab74b4	0.08371869
99	0xbadc996a	-0.0016830389
100	0xbd94ddf9	-0.072689004
101	0xbd57bc39	-0.052669737
102	0x3cc2e7df	0.023792205
103	0xbc991d06	-0.018690597
104	0xbc27c38a	-0.010239491
105	0xbd9a6039	-0.07537884
106	0xbcba4041	-0.022735717
107	0xbdcf634c	-0.10126361
108	0x3c804d69	0.015661912
109	0x3c3fe200	0.011711597
110	0x3d6bc6e9	0.057562742
111	0x3dc43770	0.09580886
112	0xbd875f47	-0.066099696
113	0xbdb1954b	-0.086710535
114	0xbbef863c	-0.007309703
115	0xbdce549e	-0.10074733
116	0x3ddab6a7	0.106793694
117	0x3d7a6469	0.061130915
118	0xbd056965	-0.032571215
119	0x3d35b525	0.044362206
120	0xbd9e5f38	-0.07733005
121	0x3cb6d2b3	0.022317266
122	0x3dcc0a83	0.099629425
123	0x3d71d6f4	0.059042886
124	0xbdbe1922	-0.092821375
125	0xbdeb9aa0	-0.11504102
126	0xbb7d1208	-0.0038615484
127	0x3e05081b	0.12991373
128	0x3d91c9cd	0.071185686
129	0x3da9eac1	0.08296729
130	0xbd87a316	-0.06622903
131	0xbd8e2a3f	-0.069416516
132	0xbc417c1d	-0.011809376
133	0x3dcf2b90	0.10115731
134	0x3c8a1c28	0.01685913
135	0x3cc1d7f6	0.023662549
136	0x3da650f7	0.081209116
137	0xbd9bd081	-0.07608128
138	0xba46a6cc	-0.0007577955
139	0x3d9c525b	0.076328956
140	0xbd8e625e	-0.06952356
141	0x3dd7f7ee	0.10545336
142	0x3d9fac3f	0.07796525
143	0x3d2bae5c	0.04191433
144	0xbde63d24	-0.112421304
145	0x3cabe03e	0.02098095
146	0xbdd536a1	-0.1041081
147	0xbd32fa60	-0.043695807
148	0x3d70405b	0.058655124
149	0xbc29604a	-0.0103378985
150	0x3d33b93c	0.043877825
151	0x3dcbd95d	0.09953568
152	0xbcb51bc7	-0.022107972
153	0x3de5d8e8	0.11223012
154	0xbda7628d	-0.08173094
155	0x3dd13020	0.10214257
156	0x3d80e44c	0.06293544
157	0xbcf78864	-0.030216403
158	0xbdbcccb8	-0.092187345
159	0x3da86928	0.08223182
160	0x3d8ff817	0.07029741
161	0xbd97fd5d	-0.07421372
162	0x3d499324	0.04921259
163	0x3ca45d22	0.02006394
164	0xbdb20842	-0.08692981
165	0x3dd5ce4c	0.10439739
166	0x3d009f9c	0.031402215
167	0xbc764f2b	-0.015033524
168	0xbd0b881b	-0.034065347
169	0xbcc025c6	-0.023455512
170	0xbc95515e	-0.018227275
171	0xbdf6d60b	-0.12052544
172	0x3d2966cb	0.041357797
173	0xbd919bb0	-0.07109773
174	0x3d9d415d	0.07678483
175	0xbd9d131d	-0.07669661
176	0xbd898663	-0.06715085
177	0x3ccdfedf	0.025145946
178	0x3caad845	0.020855078
179	0xbcddb48c	-0.02706363
180	0x3bb3646c	0.0054746177
181	0xbdaa1b56	-0.08305995
182	0x3d35bffe	0.04437255
183	0x3cac49b8	0.021031246
184	0x3d53d563	0.051717173
185	0x3d91f002	0.07125856
186	0xbce9115d	-0.028450662
187	0x3dbd1726	0.09232931
188	0x3d1539f5	0.036432225
189	0x3dc5f66f	0.09666144
190	0x3d8b73fc	0.06809232
191	0xbdb66ed5	-0.08907858
192	0xbddebff9	-0.1087646
193	0x3d1ae4ee	0.03781598
194	0x3d4f8ca1	0.050671224
195	0x3d9baf64	0.076018125
196	0x3ceafc6a	0.028684814
197	0xbd8e182f	-0.069382064
198	0x3c797633	0.015225935
199	0x3d9934f1	0.07480801
200	0x3d855cfc	0.06511876
201	0x3df92ce7	0.121667676
202	0xbd0f7de4	-0.035032168
203	0xbd9f8835	-0.07789651
204	0x3dbe8e7d	0.09304521
205	0xbd17cc32	-0.03705997
206	0x3dac1781	0.084029205
207	0xbd94df53	-0.07269158
208	0x3d84baaf	0.064809196
209	0x3b7e6681	0.0038818421
210	0x3dae77bc	0.08518931
211	0xbc8b6f93	-0.017020976
212	0xbc2108e3	-0.009828779
213	0xbc5c6473	-0.013451683
214	0x3b07dad1	0.002072979
215	0x3d2882f0	0.041140497
216	0xbd790023	-0.060791146
217	0xbe074f33	-0.13213806
218	0xbd615498	-0.055012316
219	0xbdc4c15e	-0.09607194
220	0x3d9f0af9	0.07765765
221	0x3be6b1ad	0.0070402236
222	0x3c737611	0.014859692
223	0x3c938fb0	0.018012851
224	0x3cd32e68	0.025778964
225	0x3dafcc41	0.0858388
226	0xbca20973	-0.019779896
227	0xbddc793a	-0.1076531
228	0x3cf4f2f3	0.029901003
229	0xbdafade5	-0.085780896
230	0x3d100c05	0.035167713
231	0x3ce915ae	0.02845272
232	0x3d7d3a31	0.061823074
233	0x3dbcdb58	0.09221524
234	0x3d977104	0.07394603
235	0xbca1347d	-0.019678349
236	0xbbed4552	-0.0072409296
237	0xbc8b38dc	-0.016994886
238	0xbd1fe14a	-0.03903321
239	0xbce08c8f	-0.027410774
240	0xbd1011e1	-0.0351733
241	0xbd8f34f9	-0.069925256
242	0xbd3d59d4	-0.046228245
243	0xbda9bdde	-0.082881674
244	0x3e05ebc7	0.13078223
245	0xbdd733b5	-0.10507909
246	0x3d5e65d6	0.054296337
247	0x3dafcd03	0.08584025
248	0x3db32d5a	0.087488845
249	0xbc3e66a4	-0.011621151
250	0x3cbf7f65	0.023376176
251	0x3d8d488f	0.06898605
252	0xbdf22610	-0.11823666
253	0x3dfc2eeb	0.123136364
254	0xbc7963e5	-0.015221571
255	0x3dd6834c	0.10474262
