04_Models/weekly/HBEA/base/best_model.pth (torch, 918197 bytes, 11 tensors)

lstm.weight_ih_l0 f4 [512, 50]
000000 ec 82 c7 bd 8c c2 e5 bc 8f 89 d7 bd 15 2d a7 bd
       -0.09741768 -0.028046869 -0.10524284 -0.081628956
000010 1c a7 5b 3d 82 bf 85 3d c3 8a 71 bc 5e f0 49 3d
       0.053626165 0.06530668 -0.014742556 0.049301498
000020 c5 1d e6 3c 3c 74 e5 bc bb 78 44 3d 5f 98 17 bc
       0.028090367 -0.028009526 0.0479667 -0.009252637
000030 b7 46 0f 3d ef 65 2b 3d ba 0c bd 3c f4 b3 7c 3b
       0.03497955 0.04184526 0.023077358 0.003855941
000040 d3 5d 99 3d 02 b0 58 3d 03 e8 fc 3c 7d f2 13 3c
       0.07488599 0.05290223 0.03087235 0.009029982
000050 06 cf 67 bd 25 6e c2 bb bd b2 ce 3c c5 e4 b8 bd
       -0.056593917 -0.0059335404 0.025231713 -0.09028009
000060 42 55 c4 bc 1a 8c d1 3d 68 2e 3b 3d ac 63 1b 3d
       -0.023966435 0.102318004 0.045698553 0.03793685
000070 2d 38 80 3e 80 45 76 3c d6 74 8e bd f5 c8 a6 bd
       0.2504286 0.0150312185 -0.069558784 -0.08143798
000080 e6 36 38 3c 16 bd b1 3c bb 50 d8 bc c0 b0 73 b7
       0.011243558 0.021696609 -0.026405683 -1.45250815e-05
000090 dd 5e 0e bd f1 51 72 bd 5d 98 11 bd e9 b2 9a bc
       -0.034758437 -0.059160177 -0.035545696 -0.01888414
0000a0 3b 09 fd bb c9 35 b5 bd df 9e 64 bd 91 9e 64 bc
       -0.0077220476 -0.08848149 -0.055815574 -0.013953821
0000b0 b5 9c b8 3d 77 91 16 bd 2b 65 8c 3d a1 0c 03 bc
       0.090142645 -0.03675982 0.06855234 -0.007998616
0000c0 3b 5e 7f 3d 83 f5 84 bd 99 2f d6 3d 50 89 d0 bc
       0.062345725 -0.0649214 0.10458297 -0.0254561
0000d0 a6 54 f2 ba ea 8c be 3b fc 98 75 bc bc 24 9e 3d
       -0.0018488362 0.005815138 -0.014990088 0.0772185
0000e0 fc cc 48 3c 8e 26 59 3d 76 68 a1 3d d0 77 ee 3c
       0.012255903 0.053015284 0.078812525 0.029109865
0000f0 91 33 43 bc 65 a8 8a bd 3f c9 52 bd 3a 4d d0 bd
       -0.01191415 -0.067704 -0.051461454 -0.1017098
000100 10 1f c5 bc 78 7b 76 bc 82 3c 1e 3d 25 f3 8e bc
       -0.024062663 -0.015044086 0.038631923 -0.017449925
000110 a0 72 c8 bc cc 83 97 3b 7b ce cf 3c c4 eb 52 bd
       -0.02446872 0.0046238657 0.025367012 -0.051494375
000120 04 cc 71 bd 55 03 d9 3c d6 b7 1b bd ba fc d2 b9
       -0.059032455 0.026490847 -0.038017116 -0.00040242617
000130 2e 8c 9d bd 56 ad 2c 3d cd 13 fc bd 96 c1 a5 bd
       -0.07692753 0.042157494 -0.12308464 -0.08093564
000140 d5 9e 07 bd 42 c6 8e 3d 68 4b 6e 3d 39 bb 94 bd
       -0.03311046 0.069714084 0.05817738 -0.072622724
000150 37 1a d1 3c 6c 7f af 3d ed eb 83 bd 5c 1c 36 bd
       0.025525196 0.08569226 -0.06441484 -0.04446064
000160 2a 2e 3a 3c e2 57 64 bc 9a f4 b9 bd c7 13 dd 3c
       0.011363545 -0.0139369685 -0.09079857 0.02698697
000170 52 cd b9 bc b9 73 8e 3d 79 8f c1 bd 40 7e 3d bd
       -0.022680912 0.06955666 -0.09451193 -0.04626298
000180 62 16 a0 3d 83 97 93 bd e5 a2 bc 3c 0e 0f 4c bd
       0.07816769 -0.07206633 0.023026893 -0.049819045
000190 e9 c9 05 bd b4 eb e0 3d 14 47 55 bd 58 c0 04 3c
       -0.03266326 0.10982457 -0.05206974 0.008102499
0001a0 6c 3c d1 3d 74 50 05 bd 24 5f fe 3b dd 2a 48 bc
       0.10216603 -0.03254743 0.0077628065 -0.012217251
0001b0 48 b4 08 bd 21 d1 26 3d 2d f9 81 3d 90 46 3e bd
       -0.033375055 0.040726785 0.06346355 -0.046454012
0001c0 16 0d 53 bc a3 5f 34 3d ea b0 8f 3d fe da 6c 3d
       -0.012881538 0.04403652 0.070161656 0.057826035
0001d0 54 b9 29 3c 2d 38 bb 3d f5 f0 03 bd 37 5a 25 bd
       0.010359127 0.09141574 -0.032212216 -0.04036924
0001e0 f3 ff ed 3c 7b db a3 bc a2 ed 0c bb 9e c0 b0 3b
       0.02905271 -0.020002117 -0.0021503945 0.0053940555
0001f0 6d d9 b8 3c d3 66 37 3c 26 a8 fe bc ac 34 e7 bc
       0.022564614 0.011193949 -0.031086039 -0.028223358
000200 5e 8b fa 3d 7f 25 0a bd 3e 0d 85 3d ff 14 bf ba
       0.122336134 -0.033727165 0.06496666 -0.0014578401
000210 e8 22 54 bd 4f bc 8e 3d b8 d5 9b 3c 55 45 a5 3d
       -0.0517911 0.06969511 0.019022807 0.08069865
000220 05 c1 ac bd f4 ec 07 bd f1 7c 55 bd e1 ab 7c 3c
       -0.08435253 -0.03318496 -0.052121107 0.0154218385
000230 16 39 6f bc a0 b8 e1 3d 9e 54 14 3e c0 03 02 3d
       -0.014601013 0.110215425 0.14485404 0.031741858
000240 35 00 1e 3e 6e 8d 10 3d 45 bf 69 3d 9e cc 54 bb
       0.15429766 0.035291128 0.057067174 -0.0032470594
000250 9a 8c 8b bc 85 bb 50 3d 84 5e 73 3d 3a 0b e5 39
       -0.017034817 0.050960083 0.05941631 0.00043686648
000260 1d d9 91 bd 71 ec ba bd 23 1c 89 3c a2 eb a7 bd
       -0.07121489 -0.09127129 0.01673705 -0.0819924
000270 07 26 3e 3c 9a 87 2b bd 77 33 17 3d d5 ca 33 bd
       0.011605746 -0.041877367 0.036914315 -0.043894608
000280 49 52 68 3d 9d f1 3d 3d d7 38 45 3d 5c b7 cb bb
       0.0567191 0.046373 0.04814991 -0.0062169265
000290 37 83 26 bc 74 d0 3a bd 45 b0 36 3d ea bd 19 bc
       -0.01016312 -0.045608953 0.044601697 -0.009383658
0002a0 e2 da 57 3d 10 3f c6 3c ca e4 e5 bd fb 5f 6b bd
       0.052698977 0.024199992 -0.11225279 -0.05746458
0002b0 3b 8a a3 3c 80 18 bd bd 90 24 ca bd d5 6a 9d bd
       0.019963374 -0.09233189 -0.09870255 -0.07686392
0002c0 be 23 08 bd c0 2c 44 bb 52 01 fe 3d 6e 38 1a 3d
       -0.03323721 -0.00299339 0.124025956 0.03765147
0002d0 3c 59 2e 3c 67 90 d5 bb ae 1c 9f bc ea 05 8a bd
       0.010641392 -0.0065174582 -0.019422855 -0.06739409
0002e0 89 c3 0d bd 6e c2 89 3d a9 dd f7 bc 67 bb 8f 3d
       -0.034610305 0.06726538 -0.030257063 0.07018166
0002f0 61 86 c8 bd 99 ae 3c bd 62 93 4f bc bb ae 9a bd
       -0.09791256 -0.046064947 -0.012669416 -0.075528584
000300 5f 9b c5 3d ca 80 3e 3d 59 3b 8a bb 90 95 8e 3d
       0.09648775 0.04650954 -0.0042185006 0.069621205
000310 3d 2e 8c bd fe c4 91 bd 90 e9 ec bc ff 0d 8f bc
       -0.06844757 -0.071176514 -0.028919965 -0.017462729
000320 02 60 fd bd 1c 3c d1 bd b4 cb 13 be b9 95 0d be
       -0.12371828 -0.10216543 -0.14433175 -0.13826646
000330 ff 8a f4 bd 07 0f 74 3c 50 37 c9 bc fd 93 a2 bd
       -0.11940574 0.014896161 -0.024562508 -0.07938383
000340 1d a2 98 bc e2 ba 99 bd d2 b0 db bd e3 8a ce 3c
       -0.01863199 -0.07506348 -0.10727085 0.02521271
000350 49 a2 03 be 24 b7 32 bd e9 96 84 3a 00 51 cc bd
       -0.12854876 -0.043631688 0.0010115776 -0.09976387
000360 fd 25 7d bd eb f8 02 3d 45 8a 26 3d d3 11 f4 bd
       -0.061803807 0.031975668 0.040659208 -0.11917462
000370 92 fc d9 bd 30 0a 35 3d 78 24 3d 3b 5c ee 53 bd
       -0.10643877 0.04419917 0.0028860848 -0.05174099
000380 2a 00 ce bd b8 9b 38 bd 10 60 4a bd 73 0a 96 bd
       -0.10058625 -0.04507038 -0.04940802 -0.07326212
000390 57 9c 29 3e ad 90 1a bd 55 4f dd bd 82 03 8a bd
       0.16563545 -0.03773563 -0.10806147 -0.0673895
0003a0 e9 ff 85 bd 5f fd 0b bd 09 d9 bf bc 0a 24 6d 3d
       -0.065429516 -0.03417718 -0.02341892 0.057895698
0003b0 92 30 82 bd ea 7d 1e 3d 16 d4 b1 bd c2 01 bf 3d
       -0.0635692 0.0386943 -0.0868303 0.09326507
0003c0 1d b4 d2 bc ba b7 0f 3d 71 15 7c bc c8 b4 17 3d
       -0.02572065 0.035087325 -0.015385971 0.03703764
0003d0 5c 2d a6 3d c4 4b 20 bd 06 1f ca bd bc a0 00 bc
       0.0811412 -0.039134756 -0.098691985 -0.007850822
0003e0 4e 35 db bd c8 a1 f4 bb 75 3c 3c 3d f8 73 48 bc
       -0.107035264 -0.007465575 0.045956094 -0.01223468
0003f0 21 d8 0d be 0c 1a 80 bd 10 f6 97 bd 6c 09 53 3d
       -0.13851978 -0.06254968 -0.074199796 0.051522657

lstm.weight_hh_l0 f4 [512, 128]
000000 32 2d 8d ba 40 14 72 3c bd a3 2c bd 42 d4 08 3d
       -0.0010770916 0.014775336 -0.04214834 0.03340555
000010 5c 78 84 bd 86 aa c1 3d ca 6e 4f 3d b8 2c 15 3d
       -0.06468269 0.09456353 0.050642766 0.0364196
000020 c2 58 87 3c 95 b0 b5 3c c5 40 ac bc b4 75 b3 3a
       0.016521815 0.022178927 -0.021026978 0.0013691694
000030 8b 3c 90 bc ff 32 8a bc 00 fb 02 3d f7 24 f3 3d
       -0.017606994 -0.01687002 0.031977654 0.11872285
000040 7b 9c 50 bd 7f 9f 1a 3c 4c 23 84 bd a3 b0 84 3d
       -0.05093048 0.009437441 -0.06452045 0.06479003
000050 74 2a 50 bd 88 33 5c bd 02 ec 0b 3b 0d a6 9f 3c
       -0.050821736 -0.05376008 0.0021350388 0.019488359
000060 0e 1e bf bc af 24 1f 3c bb 71 d2 bc 15 2a 98 3d
       -0.02332976 0.009713336 -0.025688997 0.074299015
000070 f2 24 08 bd 0d ee 08 3d bb 63 f7 3c 25 9d fa bd
       -0.03323836 0.033430148 0.030198922 -0.12237004
000080 34 85 fb 3c 8d a3 ed bd d4 57 68 bd c0 fa ca ba
       0.030703165 -0.116034605 -0.056724384 -0.0015486106
000090 cd fc 8a 3c 1e 98 9e bc cb 56 11 3d 3c 9c a6 bd
       0.016966248 -0.019359645 0.035483163 -0.08135268
0000a0 31 18 db bd 5e 13 c0 3d 55 36 36 bd 5b ea 0a 3c
       -0.106979735 0.09378694 -0.04448541 0.008478726
0000b0 5b 93 71 3c f2 d7 45 3a 58 c9 33 3d 7e 5c ae bc
       0.014744605 0.0007547132 0.04389319 -0.021284338
0000c0 4b 3a a9 bd 69 15 f3 bd d9 a6 7d bd 81 6e d8 3c
       -0.082630716 -0.11869318 -0.061926696 0.02641988
0000d0 0c 94 2b bd 1c ee 94 bd ea d7 a0 3c 93 f3 87 bc
       -0.041889235 -0.07271978 0.019634206 -0.016595637
0000e0 98 90 1c bc 03 aa c7 bc 68 00 c7 3c b5 bd d3 3d
       -0.009555958 -0.02437306 0.024292186 0.10338918
0000f0 70 8d f9 bd 23 45 14 3d aa d8 1c be c5 fa fe 3c
       -0.1218518 0.036198746 -0.15317026 0.031125436
000100 2a ee 86 3c 0a 26 2e 3d 7a 1a 78 3c c5 b4 86 3d
       0.016470987 0.042516746 0.015143031 0.06577448
000110 94 46 28 3d a0 5a eb 3c 03 af 85 3d 4e 5f a6 bd
       0.041082934 0.028729737 0.065275215 -0.08123647
000120 a2 cf 82 3c bf 70 d1 3d 58 68 be bc 89 c7 54 bd
       0.015968148 0.10226583 -0.023243114 -0.051948104
000130 7a 8c ed bd 22 12 91 bc 0a 26 5a bd 4d e4 a7 3d
       -0.115990594 -0.017708842 -0.053258933 0.08197842
000140 af 21 cc 3c 2a 2e 88 3d 02 9a 56 3b 06 26 8d 3d
       0.024918405 0.0664943 0.0032745604 0.06892018
000150 ea 8e f4 3c d2 4b 3a 3b ae ec b9 3d 2e 08 b8 bd
       0.029853303 0.002842654 0.09078346 -0.08985935
000160 08 9b 92 3d 46 d2 8a bd 84 d2 16 bc 03 1b 83 3c
       0.07158476 -0.06778388 -0.009205464 0.016004091
000170 88 72 8d 3d bd 24 b7 3c 2a b5 99 3c 3c 72 05 bb
       0.06906611 0.022356385 0.018763144 -0.0020362278
000180 98 dc 96 bc db da 11 3d 46 c9 29 3d 3b 93 ae 3d
       -0.018415734 0.035609107 0.041451715 0.08524176
000190 a0 61 28 bd ca 1b 83 3d a9 9c 91 3d 0f 27 00 bc
       -0.041108727 0.06401785 0.07109959 -0.007821812
0001a0 b6 cc 70 3d ed 13 7b bd d6 7c a7 3d de 95 94 bc
       0.058788978 -0.0612983 0.081781074 -0.018137868
0001b0 bb a8 37 bd 81 20 5e bd 65 c1 57 bc 1b 07 1b bb
       -0.04483865 -0.054230217 -0.013168667 -0.0023655358
0001c0 b5 64 9c 3d a2 29 23 bd ce 4a 4e 3d 73 b9 9f 3d
       0.07636396 -0.039834626 0.050364308 0.077990435
0001d0 2b e9 a8 bb 54 dc 73 3d 21 9d 42 bb 07 4a 1d 3d
       -0.005154749 0.059536293 -0.0029695707 0.038400676
0001e0 e6 d7 ae 3d 0a 38 bc bd 1c eb 4a bd 93 42 cf 3d
       0.08537273 -0.09190376 -0.049540624 0.1012012
0001f0 6f 36 d6 3d 6a 4f 1e 3d 94 43 a2 bd af 4d c6 ba
       0.10459601 0.038649954 -0.07923046 -0.0015129353
000200 07 8f 2e bc 5a 26 54 3c e6 27 c4 bd 1f 33 96 bd
       -0.010654218 0.012948597 -0.095779225 -0.07333969
000210 5a 9b 14 bb 49 4e e9 bc 06 1b 95 bd b4 b9 ff 3c
       -0.0022675605 -0.028479712 -0.07280545 0.03121648
000220 46 68 94 3c 74 a5 30 3d db 5a 85 bd 63 ce 3b 3c
       0.018116128 0.04312654 -0.0651147 0.011462781
000230 74 03 f5 bc 71 e7 46 bd cc c0 02 3d 17 88 49 3d
       -0.029908873 -0.048560563 0.031922147 0.04920205
000240 20 83 b6 bc c0 00 e2 bc e0 a3 29 bd 6b 89 23 bd
       -0.022279322 -0.027588248 -0.04141605 -0.039925974
000250 c8 6b 47 bd 9c 68 6a 3d b1 09 36 3d 54 d9 10 bc
       -0.048686773 0.05722867 0.044442836 -0.008840878
000260 14 f2 a0 bd 45 7b 60 3d 77 c9 1f 3d 78 0b b1 3b
       -0.07858673 0.05480506 0.03901049 0.0054029785
000270 42 e0 08 3d 4d 4c 6e bd 11 9b 41 bb a7 62 10 3d
       0.033416994 -0.058178235 -0.002954189 0.035250332
000280 a0 85 f6 bc c9 3c 93 3d a5 67 37 bd cc 68 3a bd
       -0.030093014 0.07189328 -0.044776578 -0.0455101
000290 84 95 ac 3d 65 b1 42 bc ad 9b 0a bc d7 40 0d 3d
       0.08426955 -0.011883114 -0.008459968 0.034485664
0002a0 e6 c4 a3 3d 8a 1c b6 3d de c4 27 bd 29 5f 62 bd
       0.0799654 0.08892162 -0.04095923 -0.055266533
0002b0 2d 54 66 3d b0 e0 4b bd 6c 67 3c 3d b3 a8 af 3d
       0.05623262 -0.049774826 0.04599707 0.08577099
0002c0 1d 9f 19 bd d7 f1 e3 3c 90 f8 8f bc 30 68 20 3d
       -0.037505258 0.02782528 -0.017574579 0.03916186
0002d0 9e db 27 bd d6 e6 72 bb af cf b3 3c d4 a5 b4 bd
       -0.040980928 -0.0037063858 0.021949617 -0.08820692
0002e0 24 6c 9e bd d1 ea 90 3d 83 6a 0b 3d 54 fa 9c bd
       -0.0773547 0.07076038 0.034037124 -0.07664934
0002f0 70 03 ae bd 81 43 0e bc 1e 28 5b bd f6 d3 c0 3d
       -0.084967494 -0.008683086 -0.053505056 0.09415428
000300 b8 87 56 3d 02 6e 89 bd af 41 9d 3d 86 08 9b 3d
       0.052375525 -0.067104355 0.07678544 0.07569985
000310 d3 9c 87 bd 4b 67 a3 3d a9 09 d4 3c e8 1a 38 3d
       -0.06621709 0.07978686 0.025883513 0.044947535
000320 00 9d 61 bd c6 d7 71 bb b8 3e ae bd fa 19 32 bd
       -0.055081367 -0.0036902293 -0.085080564 -0.043481804
000330 57 41 59 3d d2 4b 7c bd f5 41 fd bc b1 51 d7 bc
       0.05304083 -0.061595745 -0.03091524 -0.02628407
000340 0b e1 27 bc 12 92 99 bd b0 0a 8d 3d 6e 08 63 3d
       -0.0102465255 -0.07498564 0.06886804 0.05542796
000350 75 f3 83 3d 3d 3a dc bc 9d 6c 4c bc 8c 5f 83 bd
       0.0644292 -0.026883239 -0.012477067 -0.064147085
000360 76 b2 63 3d 67 b6 51 3d 66 ad a3 3c 58 9e ba 3d
       0.055590115 0.051199343 0.019980144 0.09112233
000370 c0 f3 29 3b 26 b5 c1 bc ed 91 4b bd ad 82 37 3d
       0.002593264 -0.023645949 -0.049699713 0.044802357
000380 2d f4 b1 3d 19 1e a4 3c 6e d1 91 3d 46 b2 86 3d
       0.08689151 0.020033883 0.07120024 0.06576972
000390 08 e3 80 3b 4d 74 3f 3d c4 84 64 3c a3 dc 8b 3d
       0.0039333142 0.046741772 0.013947669 0.068291925
0003a0 8d dd 67 3d 7e 9b 4a bd d6 2c ac 3d 24 f3 75 bd
       0.05660777 -0.049464695 0.08406989 -0.06004633
0003b0 35 c6 e8 bc ce b6 4c 3d 68 56 0b 3a 7d 69 2f 3d
       -0.028414825 0.049979024 0.0005315305 0.04282521
0003c0 b9 15 92 3d 97 68 c7 bc 55 4c 4d 3d b4 7f 8a 3d
       0.071330495 -0.024341865 0.050121624 0.06762639
0003d0 c0 87 54 3b 26 03 03 3d 7c 00 fb 3a e5 b4 53 3d
       0.0032429546 0.031985424 0.0019149925 0.051686186
0003e0 2e fc 0b bd 99 62 09 3d 67 86 73 3c cd b9 b6 bd
       -0.034176044 0.033541296 0.014863587 -0.089221574
0003f0 cc bb 1b 3d 56 11 8d bd c8 fb 8f 3d c0 0a f2 3c
       0.038020894 -0.06888072 0.07030445 0.029546142

lstm.bias_ih_l0 f4 [512]
000000 4c a2 87 3d 1b 78 48 3c 2a f0 af 3d a8 67 18 bd
       0.066227525 0.012235667 0.085907295 -0.03720823
000010 7f c5 2f bd 4c 4d 7a 3d 1a b1 4b bb d3 8b f8 3c
       -0.042912956 0.061108872 -0.0031080903 0.03034011
000020 77 7d 8e bd a2 02 ad bb e7 29 45 bd 2b bb 10 3d
       -0.06957524 -0.005279855 -0.048135664 0.035334747
000030 bf 98 40 3d 1d 79 bf bc 6c 03 33 bd ff d3 a4 3d
       0.04702067 -0.023373181 -0.043704435 0.080482475
000040 a4 55 c6 3d 29 d2 13 3d dc 05 76 bd 52 46 99 3c
       0.096843034 0.036089096 -0.06006418 0.01871029
000050 ed d4 87 bd 82 73 51 3b 45 03 22 3d 20 c5 b4 3d
       -0.06632409 0.0031959717 0.0395539 0.08826661
000060 1e 2e 2f bd c1 f8 1a bd 53 75 25 3b 62 65 b3 3d
       -0.04276859 -0.037834886 0.0025246933 0.087595716
000070 56 de a8 3c f8 d5 80 3c f4 2d 07 3d 32 57 d0 3d
       0.02061383 0.015727028 0.03300281 0.10172881
000080 0d 8b 8d bd c8 37 3d bd 8c 73 88 3d ac 3a ec bc
       -0.069112875 -0.046195775 0.06662664 -0.02883657
000090 33 16 51 bd e8 05 b6 bd 1f a5 16 3c ba 44 78 3d
       -0.05104656 -0.08887845 0.009194641 0.060612418
0000a0 0a a5 89 3d ff bb b4 3c 8f e4 8a 3d 9f 23 87 3d
       0.06720932 0.0220623 0.06781875 0.06598591
0000b0 ae d4 96 3d c6 a5 d5 bc bd 7c e4 3b 0c 2e 68 3a
       0.07364784 -0.026080023 0.006972878 0.0008856959
0000c0 09 33 0e 3d fb 16 78 bd f0 aa 51 3e 77 21 56 bc
       0.03471664 -0.06056879 0.20475364 -0.013069502
0000d0 e2 00 27 3d 27 cc ca bd d8 1f f9 bc 7f 28 02 3d
       0.040772326 -0.0990222 -0.030410692 0.0317769
0000e0 93 b0 d3 bd 3c 4c 23 3d 96 a8 d0 3c f2 e3 2b 3c
       -0.10336413 0.039867625 0.025471013 0.010491358
0000f0 c1 d3 32 bd fb a9 a1 bc 95 ec 59 3d 99 c6 09 3b
       -0.043658976 -0.019734373 0.053204138 0.0021022914
000100 98 84 32 3d 4b 0c bd 3d d7 96 b0 3d 78 21 e3 3d
       0.043583483 0.0923086 0.086225204 0.11090368
000110 2d 0d 54 bd a3 0a fe b9 af a7 9e 3d 89 7f 23 3b
       -0.051770378 -0.0004845458 0.07746827 0.0024947843
000120 14 08 38 bd e5 2f 91 bc c6 c9 dc bc 16 9f a9 bc
       -0.04492958 -0.017723033 -0.026951682 -0.02070574
000130 4f 54 25 bb 6d eb 83 bd 69 3f 81 bd cc 17 2d 3d
       -0.0025227254 -0.06441388 -0.06310923 0.042259023
000140 c3 0e 69 bd 62 01 94 bd 47 85 92 3b 63 2f 54 3c
       -0.056898843 -0.07226826 0.0044714543 0.012950751
000150 ec e9 c7 3d ff cf 95 bd 01 0f ec 3c 0d 99 07 bc
       0.09761414 -0.07315063 0.028815748 -0.008276236
000160 7c 8e 28 3d e7 48 7e 3b 94 ca 3a bd 37 de 8a bd
       0.04115151 0.0038800777 -0.04560335 -0.06780665
000170 1a 4f 75 bc 22 b6 63 bb f9 b0 9a bd f3 60 af bd
       -0.014972473 -0.003474601 -0.07553286 -0.085634135
000180 12 22 e8 3d 10 d9 9d bc 11 d6 a9 bd 57 18 62 3d
       0.113346234 -0.019268543 -0.08292783 0.055198994
000190 5d a8 63 3b 48 c9 c0 bc 1a ce cc bc 3a f4 01 3e
       0.0034737804 -0.023533478 -0.02500062 0.12690821
0001a0 8b 79 31 bd 7b 72 81 bd a9 5c 5a bd 2a 5c 5c bd
       -0.043328803 -0.063206635 -0.053311024 -0.053798832
0001b0 e6 fe a1 bd 0b b9 f6 bc d1 03 b5 bd 01 11 ce 3d
       -0.07909946 -0.030117532 -0.088386185 0.10061837
0001c0 57 2e 15 bc c8 5a 2c bd 71 10 37 bd 07 db 11 3d
       -0.009105287 -0.042078763 -0.044693414 0.03560927
0001d0 97 89 a0 3d d5 73 bf 3d 81 15 88 bc 4c d7 b1 bd
       0.07838743 0.09348265 -0.016611816 -0.08683643
0001e0 b0 8d 19 bd 57 42 e7 3c 8e b3 c2 bd d3 90 4b bc
       -0.03748864 0.028229875 -0.095069036 -0.0124246655
0001f0 74 db 7f bd 1c d6 8a bd 28 8c 00 3d 01 67 c4 3b
       -0.062465146 -0.06779119 0.031383663 0.0059937243
000200 98 e1 56 3d 34 6e b0 bd 06 64 19 bd 9e 3b 89 bc
       0.052461237 -0.086147696 -0.037448905 -0.01675206
000210 93 93 12 3d 7e 43 1a bd c8 b2 83 bd d6 0f c7 3c
       0.03578527 -0.03766202 -0.06430584 0.024299543
000220 d6 a3 98 bc 30 46 29 3d c8 a7 ac bd fc 43 d1 3d
       -0.01863281 0.0413267 -0.08430439 0.10218045
000230 39 e0 85 3d c2 d4 91 3d fd fa 90 3b d4 bc ac b8
       0.06536908 0.071206585 0.0044244514 -8.236771e-05
000240 ca ed 01 3b e2 93 b4 bd 19 f2 af 3d 5f c5 ad 3c
       0.0019825571 -0.08817269 0.08591098 0.021212278
000250 8e 29 0f 3c 73 ba 81 bd ec 64 83 3d 77 63 8e 3d
       0.008737935 -0.063343905 0.06415734 0.06952565
000260 bd b3 ab bc 26 2d 72 bd 55 55 af bd 51 fa 1b bd
       -0.02095973 -0.05912509 -0.08561198 -0.038080517
000270 54 94 5d bd f6 79 ba bc 07 79 26 bd 43 15 ef 3d
       -0.054096535 -0.022763234 -0.040642764 0.11673977
000280 a8 6c e3 bd 33 1e 5b bd eb bd 01 bd 59 7c c8 bd
       -0.11104709 -0.053495597 -0.03167526 -0.097893424
000290 02 90 31 bd d4 1e 61 3d dd 06 57 bd 68 08 88 3c
       -0.043350227 0.05496104 -0.05249678 0.01660557
0002a0 07 25 77 bd 0a c1 9c bd d6 d5 55 bd 00 fc 7c bd
       -0.060338046 -0.07654007 -0.052205883 -0.061763763
0002b0 43 ba d8 3a 3c 4c 72 bc 2f e6 04 3d 9c e0 06 3d
       0.0016535003 -0.0147886835 0.032446083 0.032929048
0002c0 b4 05 87 3b 97 50 32 bc 41 cc 91 bd 63 bc 62 3d
       0.004120553 -0.010883472 -0.071190365 0.05535544
0002d0 80 4d 5d 3d 1b 5c 9a bd 50 c7 0d 3b fa 5b 4d 3d
       0.054028988 -0.07537099 0.0021633692 0.050136544
0002e0 12 a3 21 3d a8 31 46 bc 7f 47 9e ba 6b 2b a4 bc
       0.039462157 -0.0120968 -0.0012075751 -0.020040235
0002f0 e3 02 1b 3d 15 7e 94 3d 3e 52 ea bd bd 85 82 bd
       0.03784455 0.07250611 -0.11441468 -0.06373165
000300 76 0a 7d 3d 0e d3 91 b9 5f fe 89 3d 72 37 6c 3d
       0.061777554 -0.00027813803 0.067379706 0.057670064
000310 92 b7 10 bd b8 1f d7 3c bc 53 7a 3d 35 cc 65 bb
       -0.035331316 0.026260242 0.06111501 -0.0035064344
000320 96 40 83 bd 71 ad 82 bd 05 94 27 3d 61 36 48 3d
       -0.06408803 -0.063807376 0.040912647 0.048879985
000330 36 1c e2 3a 5a 8a 8d bd 83 b6 9d 3d aa 40 4b bd
       0.0017250839 -0.06911154 0.07700827 -0.049622215
000340 78 4e 2b 3b 70 08 bd bc 9e de 4a 3c 1f 78 2e 3d
       0.00261393 -0.023075312 0.012382178 0.042595025
000350 4d be a2 bc dc 73 ef bd 47 20 84 bd af 51 1a 3d
       -0.019866133 -0.1169202 -0.06451469 0.037675556
000360 40 77 a0 3d 6f a9 cd 3c 4f 64 51 bc 1f b0 75 3c
       0.07835245 0.025105206 -0.012780263 0.014995604
000370 2e 79 8a 3d 5d 83 a3 3c f4 b7 05 bd f2 5a 5f 3d
       0.067613944 0.0199601 -0.032646134 0.05453009
000380 1f cf 80 3d df cf ed 3d 86 e5 f0 bd 21 2c 11 3d
       0.06289505 0.11611914 -0.11762528 0.035442475
000390 b3 e9 a1 3c db 17 97 3c 5a 3c 83 bd 4f 30 97 3c
       0.019764757 0.018443992 -0.064079955 0.018455653
0003a0 82 90 8b bc 0a 23 53 bd 85 57 19 bd 3f 59 00 3c
       -0.01703668 -0.051547088 -0.03743698 0.007833778
0003b0 82 d6 3b bd b3 a9 2d bd 1c 3b 01 bc 8a 0d fd bc
       -0.045858867 -0.042398166 -0.007887628 -0.030890245
0003c0 92 e2 20 bc 00 85 81 bd 5e 50 4e bd bb 07 52 3d
       -0.009819644 -0.06324196 -0.050369613 0.051276904
0003d0 2e fc 42 3d f4 dc 64 bc 7d 74 59 3c 5e 60 f6 3c
       0.04760378 -0.013968695 0.013272402 0.030075248
0003e0 1d 92 4b 3d 25 87 89 3c 2a c2 35 bd 58 35 e0 3d
       0.04969989 0.016788075 -0.044374622 0.109476745
0003f0 48 b5 a6 bd ec 18 eb bd 04 f2 80 bd 2e ce a5 bd
       -0.081400454 -0.11479363 -0.06296161 -0.08095966

lstm.bias_hh_l0 f4 [512]
000000 6b e0 ca bd e2 3b c8 3c fc 84 89 3c a0 23 95 3d
       -0.099060856 0.024442617 0.016787045 0.072821856
000010 b6 ef b5 3c 4d 5f 91 bd d0 ad c0 3c 6a 87 29 3d
       0.02220903 -0.07098255 0.02352038 0.041388907
000020 44 fa 57 3d b0 45 1f 3b fd a2 a2 3c 3e 6a 44 3d
       0.052728906 0.0024303012 0.01985311 0.047952883
000030 3f b9 85 3c c6 4f 76 bd 0e a6 f5 bc 64 32 c5 3a
       0.016323684 -0.06013467 -0.029986408 0.0015044925
000040 c7 ac c8 3b 3f 93 cf 3c 3b 43 b1 3d c0 d4 17 3e
       0.0061241123 0.025338767 0.08655401 0.14827251
000050 39 fa 8c 3d f5 a1 2f 3b 63 1c 19 3d 31 77 ce 3c
       0.06883664 0.0026799415 0.037380587 0.02520332
000060 66 32 cd bd 3e 4f 4c bd 34 27 68 ba 9c 34 e6 3d
       -0.10019378 -0.04988026 -0.00088559394 0.11240503
000070 27 6c a6 3d bf fc 68 bb 37 56 ce 3d 0e 28 59 3d
       0.08126097 -0.003555104 0.10075038 0.053016715
000080 96 a2 0f bd c8 75 8e 3d 77 34 a4 3d b0 05 19 bd
       -0.035067163 0.06956059 0.080178194 -0.03735894
000090 2f 30 20 bd 46 da 7f 3d a2 de 2f bd eb 25 b3 3c
       -0.03910845 0.06246402 -0.04293693 0.021868667
0000a0 3c 7c b9 bb 2a 35 79 bd f3 a8 8c bd 7a 75 8d bd
       -0.005660562 -0.060841717 -0.06868162 -0.069071725
0000b0 a1 9d ca 3d 9e 46 bc 3d 62 6e 62 bd 9e 9e 67 3d
       0.098933466 0.09193157 -0.05528105 0.056547754
0000c0 bf c0 03 3d 93 70 4f 3d ee 2a 49 3e f5 d0 89 3d
       0.03216624 0.05064447 0.19645283 0.067293085
0000d0 96 05 a1 bd a4 8e cf bd dd c0 e9 bc d3 9e 74 bd
       -0.078623936 -0.101346284 -0.028534347 -0.05972178
0000e0 00 81 4f bd 3d 83 bd bd 47 f3 36 3d 57 df 9a 3d
       -0.050660133 -0.09253547 0.0446656 0.0756213
0000f0 26 77 85 bd 3b e1 e7 3d e2 f2 2f 3d bf fa b1 3c
       -0.065168664 0.11322256 0.04295624 0.02172601
000100 77 fb ab 3c 80 8f db ba a3 66 24 bd 5b 48 64 3c
       0.020993931 -0.001675114 -0.040136945 0.0139332665
000110 e5 08 83 3d ce 8a c3 3d 7c 59 9b 3d a5 a3 cd 3c
       0.06398181 0.09547959 0.07585427 0.025102446
000120 38 e1 a1 bd fd 1e d5 3b 4c c9 bd bd 46 db d6 3c
       -0.07904285 0.006503938 -0.0926691 0.026227605
000130 5a 00 06 3d b3 7f 0a bc ad ab 85 bd 9a 85 c7 bd
       0.03271518 -0.008453297 -0.06526885 -0.09742279
000140 47 39 99 bd e4 ee 2d 3d f0 ce 44 3d aa cd 40 3c
       -0.07481628 0.042464152 0.048048913 0.011767784
000150 da ad 8f 3d 75 1f dc bc 0b 2f 08 bd b4 a0 61 bd
       0.070155814 -0.026870469 -0.03324799 -0.0550849
000160 b1 76 31 b7 a0 78 ca bb 19 7f 4c 3d fd 6a 9e bb
       -1.0577657e-05 -0.0061789304 0.049925897 -0.0048345313
000170 48 16 87 bc 3f 48 f7 bc e1 90 58 3d d9 a2 71 3d
       -0.016490117 -0.030185817 0.052872542 0.058993194
000180 a0 6b 49 bd e7 77 d2 3d b7 ff 38 bd 2b 98 b0 3d
       -0.049174905 0.10276776 -0.045165744 0.08622774
000190 49 d3 7e 3d 7c 91 c4 bb c0 86 bc bd a1 93 f5 bc
       0.062213216 -0.0059987884 -0.09205389 -0.029977622
0001a0 d9 66 8f bd cb e9 cb bd de 60 80 3d f3 7f 81 3b
       -0.070020385 -0.09956702 0.06268476 0.0039520203
0001b0 bd d6 94 bd 26 94 f6 3d 88 df fd bc 11 02 1e 3e
       -0.072675206 0.12039976 -0.030990377 0.15430476
0001c0 de 1f 83 3d 8c 1e 95 bd f2 58 81 3d 16 b5 86 3d
       0.064025626 -0.07281217 0.06315793 0.06577508
0001d0 00 04 fe bc b7 99 7a 3d 80 9b 73 3d c8 4e 7a bd
       -0.031007767 0.06118175 0.05947447 -0.061110288
0001e0 a3 05 4b bd 5b 7f 1a 3e 9c 23 bb bd 15 ae 81 bd
       -0.049565922 0.15087645 -0.09137651 -0.06332032
0001f0 15 9c ce bd d1 0c bd 3b 2d 8e 00 3d 53 d6 b4 bd
       -0.10088364 0.00576935 0.03138559 -0.088299416
000200 3f 8e f8 bc 2c f6 09 3d ed 69 d8 3c 76 82 8f 3d
       -0.030341266 0.033682033 0.026417697 0.07007305
000210 35 b4 a9 bd ca 30 91 3d c1 0b 6f 3c 0b 6b 0a 3e
       -0.08286325 0.07089384 0.014590205 0.13517396
000220 f0 e1 cd 3b 6c e9 88 bd 7b cc 00 be 4b 3c d5 3d
       0.0062830374 -0.06685147 -0.12578003 0.104118906
000230 1f 06 12 bd 73 d1 2f 3d 23 d2 4e 3d ea ce 4c bd
       -0.03565037 0.042924356 0.05049337 -0.050002016
000240 c3 08 df 3c f2 67 a8 3c c4 f1 59 bd 30 e7 eb bc
       0.027225858 0.020557377 -0.05320908 -0.028796762
000250 44 59 db bc dc a0 69 3d 41 05 6c 3d a7 d5 ea bc
       -0.026775964 0.057038173 0.057622198 -0.02866633
000260 ca 97 bb 3c 10 80 4d 3d cd 43 a9 bd 1e a5 f8 3c
       0.022899527 0.050170958 -0.08264885 0.030352172
000270 45 a3 f7 3c 60 bf 89 3d ba f0 14 3d b5 0a 94 3b
       0.03022922 0.06725955 0.036362387 0.004517878
000280 3b 0e ca 3c ae 52 c8 3c d5 b8 62 bd 96 f2 a4 bc
       0.024664989 0.024453487 -0.05535205 -0.020135205
000290 44 5c 65 bd 77 f5 24 bd c0 76 d7 bc a6 8b c2 3c
       -0.055996194 -0.040273156 -0.026301742 0.02374823
0002a0 98 47 96 3c 86 9e ef bc 22 86 26 3d a8 77 a8 bb
       0.018344685 -0.029250395 0.040655263 -0.0051412173
0002b0 60 11 d4 ba 8f 52 83 bd 8f 05 d1 bd 84 18 a8 bd
       -0.0016179495 -0.06412231 -0.10206138 -0.08207801
0002c0 94 35 18 3d 4f 3b 2b bd 0c f2 3d bd 81 2b 2b bd
       0.03716047 -0.041804608 -0.046373412 -0.041789535
0002d0 5d 88 2d bc 6e 34 51 bd 33 5e 22 3d 19 6f a2 3c
       -0.010591594 -0.05107539 0.039640617 0.019828366
0002e0 00 eb 80 3b 67 8f d4 bd a7 dc 0e 3e cb 4b 43 3c
       0.003934264 -0.10378914 0.1395136 0.011919926
0002f0 66 97 79 3c 7f 31 28 3d eb 4c 9c bd f6 48 bf bc
       0.01523385 0.04106283 -0.076318584 -0.02335022
000300 49 ae 21 3b bb cd 98 bc 50 6d 4c bc 94 04 a0 3b
       0.0024670532 -0.018652787 -0.012477234 0.0048833583
000310 5b 6e 8b bd 16 c5 2d bd 37 43 8c bd 5f 78 f2 bd
       -0.06808158 -0.042424284 -0.06848758 -0.11839365
000320 3f dc 56 3d fc a7 bf 3d e6 08 1f 3c f2 44 b2 bc
       0.052456137 0.09358212 0.009706711 -0.021761391
000330 2b 4a cb 3c 1e 6e 8e 3d 3a 61 a9 3d 3c d2 b8 3d
       0.02481564 0.06954597 0.082704976 0.09024474
000340 62 4b 8a 3d 02 aa ee bd 5b 12 5d 3d b0 02 bc 3b
       0.067526594 -0.1165352 0.053972583 0.005737625
000350 88 21 80 bd 6c 50 f6 bd 2d 31 2b 3d 48 1b 90 3d
       -0.062563956 -0.12027058 0.041794945 0.070364535
000360 93 a5 b4 3b 71 49 55 bd 4d 7d cd 3c 2f 7b 51 3d
       0.005512902 -0.052071992 0.025084162 0.051142868
000370 76 25 1d 3d fc 6f 93 3d 62 9d 8d 3d d7 89 97 3d
       0.038365804 0.07199094 0.06914784 0.07399338
000380 56 2d 93 bc 33 68 6c 3b 7c ce 2e bd b2 d8 05 3e
       -0.017965954 0.003607285 -0.042677388 0.13070944
000390 37 c8 97 3c 77 0e bd bc 1c 4b 95 bc 57 b3 2c 3d
       0.018528087 -0.023078186 -0.018224292 0.04216322
0003a0 f5 97 3f bd b0 72 a3 3a f4 b5 42 3d b7 18 a6 3c
       -0.046775777 0.0012470093 0.047536805 0.020275457
0003b0 31 9e 40 bd 41 32 c0 bc ae c1 25 3d 06 e7 a6 3d
       -0.047025863 -0.023461463 0.04046791 0.08149533
0003c0 ee dd a6 bd 57 e6 6c bc 8e f1 69 bd c4 e2 1e bd
       -0.081477985 -0.014459214 -0.05711513 -0.03879048
0003d0 68 97 a5 bd c3 38 c5 3d 99 06 f7 3c c0 71 2a 3d
       -0.08085519 0.09629967 0.030154513 0.041612387
0003e0 c7 27 bb bd 3d 32 f6 3c c7 4f 3c 3c 10 fc a1 3d
       -0.09138446 0.030053252 0.01149363 0.07909405
0003f0 ab b0 fc bc 88 b4 0f be 99 49 f5 bc 49 a3 54 bb
       -0.03084596 -0.14033711 -0.02994232 -0.0032445958

lstm.weight_ih_l1 f4 [512, 128]
000000 06 35 4b 3d e1 9c 18 3d 3c 43 94 bd 94 81 14 bd
       0.049611114 0.037258986 -0.072393864 -0.036256388
000010 46 23 ca bd 2f c9 33 b9 f8 23 4f 3d 41 47 b1 3d
       -0.09870009 -0.00017145717 0.05057141 0.08656169
000020 78 6e 01 3d 80 30 dc bc e7 a8 d4 3b 52 17 cd 3a
       0.03159949 -0.026878595 0.0064898613 0.0015647209
000030 67 70 18 bd ff af 86 3d 84 f5 40 3d f7 c9 92 3d
       -0.03721657 0.06576537 0.047109142 0.07167428
000040 f1 a3 6f 3d d1 96 28 3d 42 1b f9 bc 3e bb 1e bd
       0.058505956 0.041159455 -0.030408505 -0.038752787
000050 f8 01 25 bd cc b5 c6 bc fb 0b 66 bd c2 b0 e8 bd
       -0.04028508 -0.02425661 -0.05616377 -0.11361839
000060 68 68 45 3d 68 39 34 bc 75 b0 b9 bd 32 3e b3 bd
       0.048195273 -0.011000015 -0.0906686 -0.08752097
000070 36 84 b2 bd f9 46 2c bd af 59 1b 3e 6e 04 22 bb
       -0.087166235 -0.042059872 0.1517093 -0.0024721879
000080 5d cf 40 3c da b2 8f bd c3 58 76 3d 50 a6 aa bd
       0.011768189 -0.07016535 0.060143244 -0.08332503
000090 10 87 81 bc a5 11 3c bc 8a 79 c3 3d 84 22 1a 3d
       -0.015811473 -0.011478816 0.09544666 0.037630573
0000a0 bd f3 ab 3c 0d 14 a1 bd bb 43 11 3d 40 6a 96 3d
       0.020990247 -0.078651525 0.035464983 0.07344484
0000b0 47 cc aa bd 55 0d 3c bd c5 4d 43 bc 8b 74 8c 3c
       -0.08339744 -0.045911152 -0.011920397 0.017145416
0000c0 40 a6 38 3b 76 b2 a5 3c c5 f7 7b bd 6f 93 a2 bd
       0.0028175265 0.020226698 -0.06151559 -0.07938277
0000d0 5f f1 b4 bd 76 ff 98 bc 1c 64 0c 3e 38 97 c4 bd
       -0.088351004 -0.0186765 0.13710064 -0.09599155
0000e0 f5 6d 99 bd 15 7b 0f bd 2c 8b ee 3c ca ab 70 3d
       -0.07491676 -0.03502949 0.029119097 0.05875758
0000f0 a5 13 f8 3c f1 a9 b2 3c db 1b b4 bd f3 d3 c7 3b
       0.030282805 0.02180955 -0.087943755 0.0060982644
000100 38 8c 00 bd 39 1e b3 bd d3 ae d4 bb c8 e8 15 3d
       -0.031383723 -0.08745999 -0.0064905672 0.03659895
000110 df 55 4d bc 49 bb c4 bd 7f d1 89 bd 0d 08 e1 b9
       -0.01253268 -0.09606034 -0.06729411 -0.00042921343
000120 99 84 26 bd 88 4e d7 3c 04 70 43 bd 8e d1 ad bc
       -0.0406538 0.026282564 -0.04771425 -0.021218088
000130 00 89 a0 3d e1 35 d7 3d 35 2a 14 3d d4 e9 5c 3d
       0.07838631 0.105083235 0.036173064 0.053933933
000140 5e 30 2b bd ce 5f 22 3d 8c be da 3d 41 8b 50 3c
       -0.041794173 0.039642148 0.10680875 0.012728513
000150 31 c1 56 bd 3d 4f 75 bc ac 90 b1 bb 1f 94 34 3d
       -0.052430335 -0.014972505 -0.0054188576 0.04408657
000160 42 ca 4f bd 36 26 83 3d 33 84 ed bd fe cf e3 bc
       -0.050729997 0.064037725 -0.115974806 -0.02780914
000170 6a 63 84 bd d7 93 99 bd 85 54 46 3c 16 b5 96 3a
       -0.06464274 -0.07498901 0.012105112 0.001149806
000180 27 6f e5 3d 4d 80 48 bd d1 3f 97 3c d4 15 da 3b
       0.11202841 -0.048950482 0.018463047 0.006655434
000190 fe fb 9c bd 04 7c a1 bd df 33 2e bd 45 df fc bd
       -0.07665251 -0.07884982 -0.042529937 -0.12347273
0001a0 e0 92 a2 3d 10 9f 2c bc fe df 70 bd c4 8d 9c 3c
       0.079381704 -0.01053597 -0.058807366 0.019110568
0001b0 c2 23 e8 bd 73 af b5 bc 44 4e fa bc 12 13 34 bd
       -0.11334945 -0.022178387 -0.030554898 -0.0439635
0001c0 57 80 de bd 68 8f 5b 3d d1 73 78 bc ba 72 08 bd
       -0.10864323 0.05360356 -0.0151643315 -0.033312537
0001d0 14 7e a0 3d 35 76 91 bb 5e ff ff 3b 86 0f 8f 3b
       0.078365475 -0.00443914 0.0078124246 0.004365864
0001e0 8e 79 d2 bd 99 72 b1 bd 7b 02 6b 3d b3 6c a7 bd
       -0.10277091 -0.08664436 0.057375412 -0.081750296
0001f0 a4 2c 20 3d d2 5d c7 3d 55 b0 25 bd 29 f2 65 3d
       0.039105073 0.09734692 -0.040451366 0.056139145
000200 9c 9b ce 3c 7a dc 0d 3c 32 91 61 bd 36 42 a6 3c
       0.025220685 0.008658523 -0.05507011 0.020295244
000210 da f2 b0 3c 11 2b 86 bd f5 70 59 bd aa f3 5f bd
       0.021600176 -0.06551183 -0.05308624 -0.054675736
000220 68 17 16 3c 50 78 8f bd 5a b7 d6 bc 38 9e 5a bd
       0.009160854 -0.0700537 -0.026210476 -0.053373545
000230 80 0b 73 bd 40 80 52 bc d5 74 a1 bd 58 bf 8c bd
       -0.05933714 -0.01284796 -0.07883612 -0.068724334
000240 d3 53 50 3d 87 44 d3 3d 7d bb 7e bc 6e f1 03 bd
       0.05086119 0.10315805 -0.01554763 -0.032212667
000250 97 f9 9f bd af 41 c6 3c 45 16 9b 3d da 2c 7b 3d
       -0.07811277 0.024201242 0.07572607 0.06132207
000260 cf 77 d4 3c 7b 72 43 bd 5e e3 2d bd 97 3c e2 3b
       0.025936035 -0.0477166 -0.042453162 0.0069041955
000270 ea 56 86 3d 36 4a a5 3d 7b 99 7d 3c 7e 12 0f 3d
       0.06559546 0.08070795 0.015478487 0.034929745
000280 54 1e b4 3d aa 4b 6f 3c 7e 63 87 3d c0 27 b1 3d
       0.08794847 0.014605442 0.066107735 0.0865016
000290 d6 9a cb bd fa 5d 45 3a ad 9e 47 3c 6a 7b 84 3d
       -0.09941642 0.0007528957 0.012183827 0.06468852
0002a0 fd c7 d6 bc 9e 6f ac bd 68 ee a4 3c 4d ef 56 3c
       -0.026218409 -0.08419727 0.020133212 0.013118577
0002b0 a2 b0 c2 bb f1 1f 2e 3c d0 ee 17 3d 6f 1d 54 bd
       -0.0059414664 0.010627733 0.037092984 -0.051785883
0002c0 b9 2c 59 bd ae fd 3b bd 6f 82 b0 3d bc 90 83 bd
       -0.053021166 -0.045896225 0.08618628 -0.0642409
0002d0 b3 8f b2 bd 31 9e e2 3c d3 b2 01 3e 71 15 16 3d
       -0.08718815 0.027663322 0.12665872 0.036641542
0002e0 22 b6 a3 3d f3 71 5f bd 29 9a b7 bc b2 c4 75 bd
       0.079937235 -0.05455203 -0.022412376 -0.060002036
0002f0 1d 0b 2a bc 9c 85 90 3d 1d eb 07 be ec 5c 90 bd
       -0.010378626 0.07056734 -0.13273282 -0.070489734
000300 ed 53 0f 3d fe a1 1d 3c e0 b4 99 3c 08 16 c1 3d
       0.034992147 0.0096211415 0.018763006 0.0942803
000310 b3 fd 84 3d e7 27 8e 3d 53 ca 34 3d a0 23 08 bd
       0.06493702 0.069412045 0.044138264 -0.0332371
000320 6c 4c 76 3c 33 f4 a4 bd 22 fc 78 bd 59 ae 75 bc
       0.015032869 -0.0805439 -0.060787328 -0.014995181
000330 2b 2f 67 3d 63 52 cf bd cf 9d 7b bd bb bb 31 3d
       0.056441467 -0.10123136 -0.061429795 0.043391924
000340 10 eb c9 3d 8b 9b d8 3c c8 51 14 3d 40 6e a6 3d
       0.09859288 0.026441356 0.036210805 0.08126497
000350 a8 49 b4 bc d5 4a 38 3d c9 1f 59 bd 72 4f 56 bc
       -0.022007778 0.04499324 -0.05300883 -0.013080465
000360 b4 94 b6 bd cb 88 09 bd cc d9 5b bd 53 51 3e 3d
       -0.089150816 -0.03357772 -0.053674504 0.046464276
000370 d3 a8 93 3d 1c 6b ad bd ba cf 34 3c ec fa 97 39
       0.07209935 -0.08467695 0.011035854 0.00028987916
000380 3e 5d 8b 3d d3 6d ce 3d e0 51 b1 ba 15 72 94 3a
       0.06804894 0.10079541 -0.0013528429 0.0011325503
000390 a4 a5 92 bc 87 50 be bd a6 92 d6 bd a3 66 8c bd
       -0.01790125 -0.09292703 -0.1047719 -0.06855514
0003a0 c8 bc b4 bd c8 96 83 3d e5 47 28 bd 71 be 50 bd
       -0.0882507 0.064252436 -0.04108419 -0.05096287
0003b0 45 b4 4c bd 45 3c 2a bd 9e df 0d bd 4b e9 ae bb
       -0.049976606 -0.041561384 -0.034637086 -0.0053378693
0003c0 b8 78 1a b8 ae d7 23 bc a5 a6 55 3c c7 8e ab 3d
       -3.682889e-05 -0.0100001525 0.013040219 0.08376842
0003d0 2a 6c 51 bc c9 87 5f bd 39 36 8a 3d d1 f2 87 3d
       -0.012782136 -0.054572854 0.067486234 0.066381104
0003e0 26 96 4e 3d 7d 71 09 3d 4d b3 40 bc 0d 5d d1 3c
       0.05043616 0.033555496 -0.011761499 0.025557065
0003f0 dc 24 9f 3d b1 2f b9 bc 67 fa 3c 3d 76 06 52 bc
       0.07770702 -0.022605749 0.04613724 -0.012818923

lstm.weight_hh_l1 f4 [512, 128]
000000 03 03 15 3d 7a 70 49 3d 11 80 92 bc be bb 5f bd
       0.036379825 0.04917953 -0.017883332 -0.054622404
000010 81 92 df bd c7 b0 a1 bd 32 a5 f0 3d 21 35 17 3d
       -0.10916615 -0.07895046 0.117502585 0.036915902
000020 f7 12 21 3d 2b 36 86 3d 1c de 1d 3d 42 9b 4c 3d
       0.039324727 0.065533005 0.038541898 0.049952753
000030 53 8a 6e 3d 86 bf 1e 3d 45 e0 b5 3d 49 c6 4e bd
       0.058237385 0.03875687 0.08880667 -0.05048207
000040 d3 62 8e bd e7 0c 16 bd 10 a3 8a 3a 66 d8 f7 3c
       -0.06952443 -0.0366334 0.0010577161 0.030254554
000050 3d fe 98 3c 86 82 a4 3d 0f 81 fc 3c ee 14 0e 3c
       0.018675918 0.08032708 0.030823259 0.008671982
000060 4f 3b ac bc ec 9d 5b 3d 12 f1 f8 bc e6 f6 6e bd
       -0.021024374 0.053617403 -0.030388389 -0.05834093
000070 01 74 2a 3d 04 fe d2 39 e7 87 a0 bd c8 7d 65 bd
       0.041614536 0.00040243578 -0.07838421 -0.056028157
000080 4c 14 0d 3d 38 18 9e bb 85 2e 9e bd 3d 17 01 3d
       0.034443185 -0.0048246644 -0.07723717 0.031516302
000090 c9 a9 1b bd c4 a0 db 3c 14 7a 9a 3c be df da bb
       -0.038003717 0.026810057 0.01885704 -0.006679504
0000a0 73 c2 f0 bc 0b 4b a9 3a a4 73 51 3d fe 2f 4e bd
       -0.029389596 0.0012916041 0.051135674 -0.050338738
0000b0 d0 07 38 3d 79 b7 4c bd a1 bf 9c 3d 54 29 89 bd
       0.044929326 -0.04997966 0.07653738 -0.06697336
0000c0 3d 19 88 bd ff 8a c5 3b 2f fc 96 bd 1b 2c 4a 3d
       -0.06645439 0.0060285325 -0.07372319 0.04935847
0000d0 de 5e b4 3c f4 16 32 3d 6f 71 83 bc 00 b0 1b 3d
       0.022017892 0.04347892 -0.0160453 0.038009644
0000e0 32 29 d1 bd 50 3c 54 bc 2f b3 c4 3c b0 da 84 3d
       -0.102129355 -0.012953833 0.024011223 0.06487024
0000f0 1a b0 99 bd 64 ea 14 bd 82 3a 9d bd c6 82 8d 3b
       -0.07504292 -0.036356345 -0.07677175 0.004318568
000100 47 38 02 bc a1 30 2a 3b f6 af f5 3b 00 3c 52 bd
       -0.007947988 0.0025968926 0.007497783 -0.05132675
000110 47 a7 6d bc 76 62 0d bd 10 7a 41 bc 0d a5 f8 3c
       -0.014505214 -0.034517728 -0.011808887 0.03035214
000120 50 7b aa bb eb 5f a3 3c 12 70 80 bd 33 73 46 3d
       -0.0052026883 0.019943198 -0.06271376 0.048449706
000130 75 f9 00 3d 5e 83 2c bd a5 5a ad bc 8e f2 cc 3d
       0.0314879 -0.04211747 -0.021161387 0.10007201
000140 a9 ca 74 3d f1 a2 0b 3c 4b 64 1f 3d e5 12 d9 3d
       0.059763584 0.008522735 0.038914006 0.10599307
000150 12 53 00 3d 1c fa b5 bd 69 e2 c6 bc 5a ee 4f bb
       0.031329222 -0.08885595 -0.024277883 -0.0031727762
000160 75 2d 9d 3d 40 44 0c 3d 2e df b1 bd 1a df dc 3c
       0.07674686 0.034244776 -0.08685146 0.026961852
000170 9b db 53 bd 65 bf a8 3d 14 ad e0 3b 28 24 a7 bc
       -0.051723104 0.082396306 0.00685657 -0.020402983
000180 74 bf 56 3c b8 0f f1 3a 22 0d 4b 3d d2 49 6d bd
       0.013107169 0.0018391525 0.04957307 -0.05793173
000190 7b a2 6d bc 44 63 18 3d 6b 31 5c 3d 6a 67 af 3d
       -0.01450407 0.037204042 0.053758066 0.085646465
0001a0 1e 9c d4 bb 5a 66 d7 3d d0 a2 2b bd b4 da d6 3c
       -0.006488337 0.10517569 -0.041903317 0.026227333
0001b0 cb 2b d7 3c f9 f8 29 3d 6a d0 82 bd b3 8f 25 3d
       0.026266 0.041497204 -0.06387408 0.040420245
0001c0 88 c1 4a 3d 8e 75 a9 bd 8f 4c 8d 3d b3 72 33 bd
       0.049500972 -0.08274375 0.06899368 -0.043810558
0001d0 f1 34 d4 3c c9 9e 95 bc b4 2e a7 3d 49 0e 09 3d
       0.02590415 -0.018264191 0.08163205 0.03346089
0001e0 c7 a6 fc bc 20 c5 9e bd 19 55 7f 3d e2 9c 5d 3d
       -0.030841244 -0.07752442 0.062337015 0.054104693
0001f0 59 64 ef 3c a7 10 63 bd 0d 39 fa 3c 90 06 48 3d
       0.029222654 -0.055435803 0.030544782 0.048834383
000200 4d b8 0e bd 1b 34 47 3d f5 31 84 3a 73 07 df 3d
       -0.03484373 0.048633676 0.0010085689 0.10890093
000210 78 e0 06 bd 14 ce 14 bc 41 8d 65 3c 3d e7 95 bd
       -0.032928914 -0.009082336 0.014010728 -0.07319496
000220 42 1f 8a 3d ad f7 e9 3d b6 76 71 bc 86 15 d3 bc
       0.06744243 0.114241935 -0.014737776 -0.0257671
000230 1d 2a 2e 3d cd 86 c0 bc 16 aa c9 3c 76 e1 98 bb
       0.04252063 -0.023501778 0.024617236 -0.004665549
000240 61 37 6b bd f3 25 df 3c 65 1c ff 3b fd 79 78 bd
       -0.05742586 0.027239775 0.0077853673 -0.060663212
000250 08 f1 41 3d 8d 6b 42 bd 19 2b 2c bc 27 fd be bd
       0.047349006 -0.04746585 -0.010508322 -0.09325629
000260 7c 29 7a 3d d0 c0 bc 3d 69 74 c1 bd f7 d8 6f 3d
       0.06107472 0.092164636 -0.094460316 0.058556523
000270 5f 86 39 bd 64 aa 71 3d 7c 9d be 3d 98 bd b8 bd
       -0.045294162 0.059000388 0.093073815 -0.09020537
000280 ea 59 5f 3d 8b 14 53 3d 74 79 a0 bd e8 b7 fd bc
       0.054529108 0.051533263 -0.07835665 -0.030971482
000290 4b 29 9e 3d 35 7a cb bd 0e 9d 5c 3d f2 db 10 3d
       0.0772272 -0.099354185 0.053860717 0.035366006
0002a0 9e 4a ae bd df e8 c2 3c 90 a8 db 3d c4 f6 cf 3d
       -0.08510326 0.023792682 0.1072551 0.10154489
0002b0 f8 f1 c8 3d 75 e0 2d bd 42 a3 71 3d 22 0f 39 bd
       0.09811777 -0.042450387 0.058993585 -0.045180447
0002c0 5c 99 4a 3d 30 6f 4e 3d 0a e0 45 bd 61 46 b2 bc
       0.04946266 0.050399005 -0.048309363 -0.021762075
0002d0 68 23 e3 bc 33 08 63 bd 74 99 f5 3d 07 af 28 3d
       -0.027726844 -0.05542774 0.119921595 0.041182544
0002e0 99 86 93 3b e1 4f a6 bc 30 0d 57 3d 0c 39 9e 3c
       0.0045021293 -0.020301761 0.05250281 0.019314311
0002f0 f7 95 01 3d b9 a4 d0 bc cf aa 46 3d 34 f4 ec bd
       0.03163716 -0.02546917 0.04850274 -0.115700155
000300 3d cb 95 3d be 0b 2a bd bb 1a cd 3d 72 2c 43 bd
       0.07314155 -0.041515104 0.10014864 -0.04764981
000310 13 82 b8 bd 9a a8 44 3d 9f c0 8c 3c 2b 85 a1 bd
       -0.09009185 0.048012353 0.017181693 -0.07886728
000320 dc 99 99 3d 5d fd 4a 3b e4 d9 ab bb ef 12 2e bd
       0.075000495 0.003097377 -0.0052444804 -0.042498525
000330 55 72 4b ba 51 2d 8e bd cf c2 8a bd 73 09 66 bd
       -0.0007760872 -0.06942237 -0.06775438 -0.056161355
000340 e7 a5 ad 3d 3f 97 26 bd 74 57 c5 3d 52 bc d7 bc
       0.08478909 -0.040671583 0.09635821 -0.026334915
000350 e8 97 67 bd ed 51 b6 3b a9 61 8e 3c 3f a2 cf 3d
       -0.056541353 0.0055639655 0.017380552 0.10138368
000360 28 ce 3f 3d 2c e7 5d bd be b1 6c bd a6 eb 85 bd
       0.046827465 -0.05417554 -0.057786696 -0.06539087
000370 9a a2 4b bd f5 af 97 3c 3a e2 0d bd 31 64 1a bd
       -0.049715616 0.01851652 -0.034639575 -0.037693206
000380 9d c7 46 bd 5f 66 9d bd 00 b3 62 bd 66 34 9b 3d
       -0.04853021 -0.07685541 -0.05534649 0.075783536
000390 26 1d 02 3d 00 03 af 3d d2 2e f5 3c b0 b8 4e bc
       0.03176608 0.08545494 0.029929552 -0.012617275
0003a0 b3 20 87 3d ad f0 68 bd ed 62 2c 3b 39 f5 19 3d
       0.06598034 -0.05687015 0.0026304082 0.03758738
0003b0 c6 f6 2d bc 3c b8 4f bc 22 30 a8 bc c2 4e ad 3b
       -0.010617917 -0.012678202 -0.020530764 0.0052889297
0003c0 c5 dc 9c 3b 01 d5 79 3d 6b 42 1d bc 9a 2d 36 3d
       0.00478706 0.060994152 -0.009598355 0.044477083
0003d0 35 d2 57 3d 1b b0 9f bd c4 e4 83 3c 43 8a 26 3d
       0.052690703 -0.07797261 0.016100295 0.0406592
0003e0 10 42 47 3d df c8 2c bd 17 30 85 3d fe ce ac 3b
       0.048646986 -0.042183753 0.06503313 0.005273699
0003f0 55 53 d9 3d 20 fb 6a b7 6e e8 ac bd 5a 40 81 bd
       0.106115974 -1.40059565e-05 -0.0844277 -0.06311102

lstm.bias_ih_l1 f4 [512]
000000 1e b9 cb 3d 57 fa 22 bd 5c b1 a9 3c c8 02 be 3d
       0.09947418 -0.039789524 0.020714454 0.09277874
000010 33 b1 80 bd 65 92 92 3d 60 45 bc 3d 7c aa 13 3c
       -0.06283798 0.07156829 0.0919292 0.009012815
000020 a2 54 88 3d 69 db d9 3c 6f 67 89 bd d8 e8 0b 3d
       0.066567674 0.02659388 -0.067091815 0.034157604
000030 4d c9 80 bd 95 26 3b bd 64 eb 1b bd ac ff ec 3d
       -0.06288395 -0.04569109 -0.038066283 0.11572203
000040 f6 8b 8c 3d e0 92 9f 3d de 1f dd 3d 4c 4b e3 bd
       0.06862633 0.07791686 0.10797094 -0.11098346
000050 e5 fe b1 bc 5c 1f b2 bc cf 5d 98 3d 9e 90 6b 3d
       -0.021727988 -0.021743469 0.074397676 0.057510965
000060 05 44 ef 3c b4 63 85 bd 84 af 8b bd 16 63 70 3d
       0.029207239 -0.065131575 -0.06820586 0.058688246
000070 87 d7 94 3c 99 39 75 bd 00 36 d8 bd 48 57 a4 3d
       0.018169178 -0.059869383 -0.10557175 0.0802446
000080 f4 56 87 3c 1d dd 06 3d 61 e2 db bd 94 2b ef 3d
       0.016520955 0.032925714 -0.10736538 0.11678234
000090 a1 43 40 bd d7 b8 2f 3d f9 e4 85 3d 76 ba 39 3d
       -0.046939496 0.042900886 0.06537814 0.04534384
0000a0 09 65 9f 3c 45 84 e8 3d b7 ff 08 3d d5 61 40 3d
       0.019457357 0.113533534 0.033446994 0.0469683
0000b0 91 88 b2 bb c2 9f f1 3c ac ca 98 3d de f5 cf 3c
       -0.005448409 0.029495124 0.074605316 0.025385793
0000c0 5c 17 ec 3c 7d 79 a5 bd 08 e0 cf 3d 90 c3 8e 3d
       0.028819732 -0.08079813 0.101501524 0.06970894
0000d0 b0 d3 b1 bd f9 5e 8a 3d 18 85 e7 bc 72 3e 97 bd
       -0.08682954 0.06756396 -0.028261706 -0.073849574
0000e0 50 03 86 3d 23 8c 2e 3d dc ca a6 bc 82 0e af bd
       0.065436006 0.042614114 -0.020360403 -0.08547689
0000f0 4a f5 68 3b 59 f8 97 bd 1f 91 a6 bc d9 e2 20 3d
       0.0035546594 -0.074204154 -0.020332871 0.03927884
000100 c7 9c 48 3d 70 df 3f bc ed ee 2d bd f2 4b 38 3d
       0.04897764 -0.0117109865 -0.042464186 0.044994302
000110 28 e5 b7 3c 4b be ec bc 07 54 be bb eb c8 68 bd
       0.022448137 -0.028899333 -0.0058083567 -0.056832235
000120 32 c8 61 3c 09 c2 59 bc 68 71 1c 3d 1a 98 34 bc
       0.01378064 -0.0132908905 0.03819409 -0.011022592
000130 e3 ff 2c 3c 8e 9d 04 3d 17 0b ed bc 48 21 9b 3c
       0.010559055 0.03237682 -0.028935952 0.018936768
000140 df f2 0d 3c 36 e6 1b bd 2c 87 b0 3d 89 69 aa bd
       0.008663862 -0.038061343 0.08619532 -0.083209105
000150 ac bf 06 3d 77 6d 0f bd 86 3e 75 bb ee 26 90 3d
       0.032897636 -0.035016503 -0.00374213 0.07038675
000160 d8 03 6c bc bc 29 71 bd b7 e8 c1 3c 8e c7 12 3b
       -0.014405213 -0.05887769 0.023670537 0.0022396776
000170 6c 16 6e 3d d2 92 5a bd 02 a7 ba 3c 5c 10 16 be
       0.058126852 -0.053362675 0.022784714 -0.14654678
000180 a5 7d 9d 3d 0d 0a 1f bd 55 5f 06 bd e7 b1 b9 bb
       0.076899804 -0.038827945 -0.03280576 -0.0056669596
000190 5e a3 40 bd 93 1a 83 3d d2 de 7e 3c be 75 2b bd
       -0.0470308 0.06401553 0.015556054 -0.041860335
0001a0 92 4c 97 bc 0c 5e bf 3d 1c 1e cb ba 83 ba 51 bd
       -0.018469129 0.0934411 -0.0015496644 -0.051203262
0001b0 85 da d1 bc fb c5 ae 3c d4 1b 10 3d 48 f1 98 bc
       -0.025616894 0.021334639 0.03518279 -0.01866974
0001c0 ad 07 26 bc b7 d9 ac 3d f0 31 04 3b d6 00 ff bd
       -0.010133666 0.08439963 0.0020171367 -0.12451331
0001d0 c3 c6 a3 3d 34 4d ad bd e4 79 9b bd 81 d3 94 3d
       0.07996895 -0.08461991 -0.07591608 0.07266904
0001e0 a9 c2 d5 3d 23 1c 10 3e 94 28 bc 3d 9c bb d5 bb
       0.10437519 0.14073233 0.09187427 -0.006522609
0001f0 a8 75 7f 3d e6 90 5e 3d 79 57 8b bd c8 36 4c bd
       0.062368065 0.054337405 -0.068037935 -0.04985693
000200 be d5 ce bd df d0 1f bd 8e c1 c2 bd a4 ce ae 3c
       -0.10099362 -0.039017554 -0.09509574 0.021338768
000210 71 b7 8d bc 41 fd 37 3d d3 0b 3a bb 00 fe 19 3d
       -0.017299386 0.044919256 -0.0028388395 0.03759575
000220 31 da 27 3d 29 de 71 bd f4 0c a0 bd ea 0a 4d bc
       0.040979568 -0.05904976 -0.078149706 -0.012514809
000230 54 9e 49 3d 6c e0 22 3d 89 52 a4 bc 7c d2 9b 3c
       0.04922326 0.039764807 -0.020058887 0.019021265
000240 ce 0a bc bc 4e 8f a6 3d b8 ff e9 3a f8 01 a7 bc
       -0.02295437 0.08132802 0.0017852699 -0.020386681
000250 bc cf 01 3d e2 82 2a be 65 0c 5a 3d 42 14 a3 3b
       0.03169225 -0.1665149 0.053234477 0.00497678
000260 18 23 6f bd b9 52 b5 bc 05 73 33 3d 0f de b5 bd
       -0.058383077 -0.022134172 0.043810863 -0.08880245
000270 c4 1e 88 bc 1a 3f 59 bc ba c7 b9 bd 72 fa 23 3d
       -0.016616233 -0.0132596735 -0.09071298 0.040033765
000280 15 e8 1b 3d 60 7c 0e be e4 1f d2 bd c5 5b a7 bc
       0.038063128 -0.13914633 -0.10259989 -0.020429501
000290 ac e0 3b 3d 61 4c d4 bd 2e ee 6a 3c ec dc de bc
       0.04586856 -0.103661306 0.014339013 -0.027204953
0002a0 83 e4 52 bd 43 88 71 3d 14 66 90 3d 6d cb 70 bd
       -0.051487457 0.05896784 0.0705072 -0.058787752
0002b0 21 f2 9c bd 2a 4a 98 bd 2c 7f 42 3d bb 4e 60 3d
       -0.0766337 -0.07436021 0.04748456 0.054762583
0002c0 ba 9e 8a 3d 61 32 02 3d bb 2e c5 3b 04 e3 3d 3d
       0.06768556 0.031786326 0.0060175336 0.046359077
0002d0 7c 4c d2 3a 58 d2 6f bd 2b 64 d0 3c f2 14 49 bd
       0.0016044523 -0.05855021 0.025438389 -0.04909224
0002e0 2a 48 cc bb 72 82 a2 bd 2e 8b f7 3c e3 cb d8 bc
       -0.0062341886 -0.07935037 0.030217733 -0.026464408
0002f0 6f 22 68 bd b6 26 6b 3b 83 39 3e 3d 4a 9b a6 3d
       -0.056673463 0.0035881228 0.046441566 0.08135088
000300 20 1b 23 bd 71 cd ba 3d 08 29 ec bd 41 18 97 3c
       -0.03982079 0.09121216 -0.115312636 0.018444182
000310 65 73 19 bd 3f 41 78 bd 51 8c 81 bd 7e f5 3f bd
       -0.037463564 -0.0606091 -0.06325591 -0.04686498
000320 52 6e 6d bc b8 f4 b9 bd 75 18 2d bd bf f7 d5 bd
       -0.014491634 -0.090798795 -0.042259652 -0.104476444
000330 ac 63 74 bd 58 6f 63 bc 1b b6 8e bd e0 91 f0 bd
       -0.059665367 -0.013881527 -0.069683276 -0.117465734
000340 09 56 2d bd 68 20 e5 bc 53 07 7d 3d f7 69 80 bd
       -0.042318378 -0.027969554 0.061774563 -0.06270211
000350 09 c2 60 bd 65 1c 22 3d a9 0a e7 3c 34 ca a4 bd
       -0.054872546 0.03957786 0.028203325 -0.0804638
000360 c0 cf 96 bd 90 59 ec bc 73 20 f5 bd 81 75 36 bd
       -0.07363844 -0.0288513 -0.1196908 -0.044545654
000370 ee a3 35 bc b4 af db bd e5 59 95 bd 5c 7a 32 3c
       -0.011086447 -0.10726872 -0.07292537 0.010893431
000380 54 cb 88 bd 0b 44 53 bd e9 74 48 bc 61 c2 ac bd
       -0.06679407 -0.051578563 -0.012234905 -0.08435512
000390 6b 2c 32 bb e0 8a a7 bb b2 fa 00 3c 18 e6 f4 bc
       -0.002718712 -0.0051129907 0.00787227 -0.029894873
0003a0 c5 86 d1 bd 3a d3 ad 3d 5e 41 6f bd 66 92 46 3d
       -0.102307834 0.08487554 -0.05841195 0.04847946
0003b0 ca f1 26 3d bd a2 cb bc 6d a8 a8 bd 5f 24 93 3d
       0.04075793 -0.024857873 -0.0823525 0.071846716
0003c0 d3 3a 8c 3d bd ba 9c bd f6 f0 46 bc 37 e3 d9 bc
       0.06847157 -0.07652805 -0.0121424105 -0.026597602
0003d0 c5 f6 dd bd b9 ca a2 bd 42 03 8c bd fe 59 4a 3d
       -0.10838083 -0.079488225 -0.06836559 0.04940223
0003e0 a9 ba be 3c 1b 40 ad bd 8b f3 99 3d 74 d0 4a bc
       0.023282366 -0.08459493 0.07517155 -0.012378801
0003f0 34 4d 86 bc 08 74 d9 3c 09 9e ca bc af d0 b9 3b
       -0.016394235 0.026544586 -0.02473356 0.005670629
