04_Models/20250808_175039_GDEA_LSTM_Classification/best_model.pth (torch, 452533 bytes, 38 tensors)

lstm.weight_ih_l0 f4 [256, 51]
00000000: 5a32 a13a 0c19 38be c519 8e3d aa40 c43d
00000010: dbdf 25bd 6e98 483c 49bd b33c 8ea1 4f3d
00000020: 52fe 7e3c 688d 93bd 88da 45bd dca2 053d
00000030: c62b b4bd fd3b 2bbd 04f4 45bd 65d6 ab3d
00000040: 48a6 a1b9 eaed 6b3b 99e1 2a3d e359 2ebc
00000050: 92fe 493d 8e04 893d c894 17bd 19cc 983d
00000060: d679 72bb baae 1d3d 8588 e53c 99b4 40bd
00000070: 4cb7 c93c adaa 06bc 1b1b 35bd 4ffe fe3c
00000080: b727 753d 63ca 9fbc af6f 6b3d f2eb 943d
00000090: 6f3b 7dbd f081 02be 1d27 1abb 25c2 feba
000000a0: edca 443c b1fa b7bb 6c9d afbd 384b 1d3d
000000b0: 6cb5 4bbd 11bf 103d 82fb 82bd 2e58 1c3d
000000c0: 55e1 22bd 11b0 34bb 3ca7 913d 4616 74bc
000000d0: e46d 54bd f633 333e 69cb aebc 3239 87bd
000000e0: 5f9e 9b3d ac0b 073d 7e6f e6bd 5aca d93c
000000f0: 0f28 91bd d19a 503d 1c3b 06be 5f48 90bd
00000100: b50d 0dbd f2f2 05bd 3931 da3c 91e4 c2bd
00000110: b206 04bd 53a9 3dbc 09eb 8d3d a455 f63b
00000120: 5095 47bd 968c c3bd dec1 febd 2568 4cbc
00000130: 5ecd c7bd 7c44 42bc 0e92 3cbd 723b 50bd
00000140: 5e36 283e 1d79 3ebd 5228 9dbc 76c9 123d
00000150: 5361 153b 74cc a3bd 4e00 403d e5c9 62bd
00000160: 8bb4 9d3d 7170 bfbb 2ae2 03bd 96ab 0bbc
00000170: 6313 0e3e 243a 9f3d 8403 9bbd 1c3a 2a3c
00000180: c250 7ebd fe7e b93d 63cb c6bc 85f5 983d
00000190: 1885 f4bc d2de c23d 54da 193c 12f4 36bd
000001a0: 6d27 dbbc 6473 6d3d 1737 bbb7 2906 bbbd
000001b0: 85f9 733d 384b ad3c 7ce2 873d d110 323d
000001c0: 899f 0a3e 9c75 1fbd b88f ea3c 3999 4d3d
000001d0: 22b2 8abc a685 c63d f3d6 f23c 2e0b 6e3d
000001e0: 98bf e7bc 3fd3 4cbd fe0a c13d edde b4bc
000001f0: 28c0 4dbd 7793 4f3d 9205 b4ba 864d c93c
00000200: 2900 c63d c4db 8bbd 7b7c 043c 992a 16bd
00000210: cbde 523d f9f1 843d 5da5 c43d d3b2 30bd
00000220: 0047 afbc 3bd8 3b3a fcdb c8bc ad51 08bc
00000230: 8a5d a8bb ad4f fa3d 4fd6 7fbc 9a04 78bd
00000240: 9959 9e3d 079f 7bbd a8b1 5dbd 95db b13d
00000250: 989e 85bd 71a9 113d 5027 9e3d aa55 16bd
00000260: f559 76bc e8d5 85bd e184 1a3d 29dc fabb
00000270: 16e3 abbd e7da dbbd 47d8 eebc 577d 0a3d
00000280: ec13 a83c 6f71 58bc 5e79 703c 44b5 febc
00000290: 7bd5 0bbd 4454 b53c 9b2e 663d 9169 25bd
000002a0: f671 08bd 6b33 223e bae5 293d 9a9c 2ebe
000002b0: 0512 e13b b60d f5bc 75c1 c03c 333b 5c3d
000002c0: 024b 913d 48f5 0fba 5470 c13d b2ea 1c3d
000002d0: 1ca6 8ebb 466e f7bc 52b8 dfbc 0e18 c4bd
000002e0: 2fb9 52bd 8fe4 773d 41fc 81bd 0d50 45bd
000002f0: 39df 453d 303a f23c 7cd8 eb3c 155c 26bd
00000300: 343d a5bd 6137 49bd 9432 c6bd 761f 1dbd
00000310: 4c5f 9d3a ab1f 07bc 590a 29bd 1bc7 65bd
00000320: cf7c 533d 3d5f aabb dc16 cf3d b320 f4bc
00000330: 4679 313b a014 b9bd e559 07be a62b 90bc
00000340: db47 afbd 4dcc 95bd ee56 943d 6214 6fbd
00000350: 32c1 9abd 18b6 e43c fc0c 2fbd d61e 15bd
00000360: 9a75 ccbc 2407 b5bc 9bd0 b2bd eec7 44bb
00000370: 7501 54bd 7f53 ce3b 55d7 87bd 6f6b c43d
00000380: 1c1c 8d3d 00c7 f1ba fd25 c93c b5ce 3fbd
00000390: 3207 02be de19 4dbd 3c4c 1d3c 0892 bebd
000003a0: f984 00bd 2ee9 08bd c258 3f3d 872b f4bd
000003b0: 0655 80bb 7025 163c a8da c1bc 7cca 65bc
000003c0: 9368 35bc 1a40 9a3d 1d30 123d eedf c93d
000003d0: cae7 85bd ba84 dc3b aa4b 053e 71a2 d23c
000003e0: f50a 2dbc 9cbf 43bd 3fd5 5cbc 2ff4 533d
000003f0: f911 9d3d 44ab 203c b964 43bc b904 a23b
0.0012298331 -0.17978305 0.06938509 0.09582646 -0.04049669 0.012243373 0.021940844 0.05069118
0.015563564 -0.072047055 -0.04830411 0.032626018 -0.087974116 -0.041805256 -0.048328415 0.08390502
-0.00030832202 0.0035999962 0.041719053 -0.010641548 0.049315043 0.06690322 -0.037007123 0.074608035
-0.003699889 0.03849671 0.0280192 -0.04704723 0.024623536 -0.008219403 -0.044215303 0.031127123
0.05985233 -0.019505685 0.057479557 0.072715655 -0.06182426 -0.1274488 -0.0023521848 -0.0019436522
0.012011272 -0.0056146015 -0.08574948 0.038401812 -0.049733564 0.035338465 -0.063956276 0.038170032
-0.039765675 -0.0027570764 0.071119756 -0.0148978885 -0.051862612 0.1750029 -0.021337228 -0.06602706
0.07598566 0.032970116 -0.11251734 0.026585747 -0.07087719 0.050928894 -0.13108486 -0.07045054
-0.0344369 -0.032702394 0.0266348 -0.09516252 -0.032232948 -0.011576015 0.06929595 0.0075175334
-0.04872638 -0.09548299 -0.12439321 -0.012476002 -0.097559676 -0.011857148 -0.046037726 -0.05083794
0.1642699 -0.04650222 -0.019184265 0.03583666 0.0022793605 -0.07997981 0.04687529 -0.055368323
0.077004515 -0.0058422615 -0.03219811 -0.008524796 0.13874583 0.07774761 -0.0756903 0.010389831
-0.062088735 0.09057425 -0.024266904 0.07468704 -0.02984862 0.09515156 0.009390432 -0.044666357
-0.026752198 0.057971373 -2.231779e-05 -0.09132034 0.059564132 0.021154031 0.06634995 0.04347307
0.1353742 -0.03893052 0.028632984 0.050194953 -0.016930643 0.0969346 0.029643511 0.05811613
-0.028289601 -0.050006147 0.09425925 -0.022078956 -0.050232083 0.050677743 -0.001373457 0.024573099
0.09667999 -0.06829026 0.008086319 -0.036661718 0.051482003 0.06491465 0.09601853 -0.04313929
-0.02139616 0.0007165705 -0.02451896 -0.008320254 -0.005138104 0.12222228 -0.01561506 -0.060551263
0.07731933 -0.061430957 -0.054124504 0.0868446 -0.0652439 0.035561983 0.07722342 -0.03670279
-0.015036096 -0.0653494 0.03772438 -0.0076556397 -0.083929226 -0.10735112 -0.029155863 0.03381094
0.020517312 -0.013210638 0.014677374 -0.031092294 -0.034139138 0.022134908 0.05619679 -0.04038388
-0.033311807 0.15839927 0.04147885 -0.17051926 0.006868603 -0.029913764 0.023529748 0.053767394
0.07094385 -0.0005491567 0.09445253 0.03830976 -0.004353298 -0.03020395 -0.02730957 -0.095749006
-0.051446136 0.060520705 -0.06346942 -0.048172045 0.048308585 0.029568762 0.028789751 -0.04061516
-0.08068314 -0.04912508 -0.09677616 -0.03836008 0.001200655 -0.008247296 -0.041269634 -0.056098085
0.0516327 -0.0051993416 0.10111782 -0.029800748 0.0027080341 -0.09037137 -0.13217886 -0.017598938
-0.08558627 -0.07314358 0.07243143 -0.058369048 -0.0755638 0.02791886 -0.042736992 -0.03640636
-0.02495842 -0.022098131 -0.087311946 -0.0030026394 -0.051759202 0.0062965746 -0.06632868 0.09590804
0.06890127 -0.0018446147 0.024554247 -0.04682799 -0.12698057 -0.050073497 0.009600695 -0.09305197
-0.031376813 -0.033425502 0.046715505 -0.11922365 -0.0039163856 0.009164199 -0.023663834 -0.014025327
-0.011072296 0.07531758 0.035690416 0.09857164 -0.06538351 0.0067296894 0.13017145 0.025712224
-0.010561694 -0.047790155 -0.013478576 0.051746543 0.07669444 0.009806458 -0.01192587 0.0049444106

lstm.weight_hh_l0 f4 [256, 64]
00000000: ace7 bebd a735 0dbd 664f dcbd 2a3d 0d3e
00000010: e950 003e f0c7 eb3d 60c9 22bd e033 2ab8
00000020: 95e3 13be 7049 883d acf2 c03c 3e00 98bd
00000030: 0b82 2fbd 15e3 50bd 1a3f 35bd a357 5ebd
00000040: 257c 443d a39b 52bd f464 92ba 99f3 06bc
00000050: 323e 37bd ba36 433d 3cde f33c f877 e83b
00000060: 9426 703d ff47 99bd 02d6 823c 7e66 a7bd
00000070: cbe5 813c eae8 8ebd 80a0 153d 256e 423c
00000080: 41b3 3d3c 808c a03d af66 b33d e942 c9bd
00000090: 3157 9a3d 22e3 46bd 2a2f 0f3d ff2d 26bd
000000a0: 535b b2bc da7a 92bd 9218 f93c 1006 40bd
000000b0: 1d7c 5ebd c7be 043e 2e44 b13a 34b2 b4bd
000000c0: 57f3 0cbe 2066 c53d b7f3 78bb a13e db3a
000000d0: 2e93 9fba c22b 16bd e6ee aabc cf93 1fbe
000000e0: 705e 593d 7104 403d b352 d5bd 6428 533d
000000f0: b71d acbd 9e41 c7bc 3612 fd3d 8a38 55bd
00000100: 589a eb3d de97 8ebd 3913 2c3d f008 f4bb
00000110: ce82 a9bd edc9 03be 3d0f 5b3d ecb8 853d
00000120: 2288 4ebd db8a 9b3d d354 a53d 3ddd 5ebd
00000130: 1230 e8bc 3227 3d3e 487f 4cbd ebad ca3d
00000140: 0f28 743d 7b3a 193d dbc3 af3c 8c85 3ebd
00000150: 13a0 60bd 2d48 cabd de0a edbd cc18 06bd
00000160: 687d a1bd 5da4 8abd eaa8 a6bd 9bc9 2e3c
00000170: 6186 ad3d ab89 e3bc 7f74 b63c 06a9 73bd
00000180: 6568 b43d d2ff 4dbd fbf8 21bd 6a51 e438
00000190: 5d5b ae3c 12e8 1dbd f81c d13d 7828 1ebe
000001a0: 8d79 8dbd 2e9c 023d 93af 35bc 4397 a63c
000001b0: f430 6c3b 3a69 4c3d 0866 5e3d e6a0 d5bd
000001c0: 48a4 6d3d 0b66 4abd 4fb1 be3c 4468 97bd
000001d0: 7159 04be 768c 9b3b f956 563b d35a 7dbd
000001e0: 9d1c f43a f97d 92bc d3c2 60bc a3df 793d
000001f0: 9fad c23a 440e 083d 3bce f23d 5645 fa3c
00000200: 353b 9fbd 18c1 813c 40c9 3b3d 707b af3d
00000210: 651c 493d ff91 fa3c c5ae 90bd 7932 583d
00000220: ecf3 d2bc e074 813c 880c 70bc 7633 ef3d
00000230: 458a a6bd c00d 593d aba8 09bd 666f fb3c
00000240: ec95 493d 66ac df3c 5aea abbc 3d85 803d
00000250: c6cb a83c 7a71 54bd 1880 bfbd d9c5 723c
00000260: bf21 ab3d 65f7 03be 271d c13b 849f b63c
00000270: 4dea 5f3d daca 153c 2b08 923d 8bc2 073e
00000280: 3e6f 0d3a c62a 62bc 8848 553c 3e11 533c
00000290: 9785 d8bc 227c bd3b 053c 803d 1bff ebbd
000002a0: 1c2c 0cbc 7871 03bd 3ee5 79bd e4ab 213d
000002b0: 49d6 babd 82bb d6bb 10a5 ebbd 2712 763d
000002c0: 0c76 dd3b 7993 d63d f80a 26bd bf91 0b3c
000002d0: e059 62bc b0a2 6fbd 4a8e b7bc d766 903b
000002e0: b4b1 c7bb aa4e 553d ce38 cf3d 95a8 bfbd
000002f0: 3cfc 33bb d0de 253e 84a8 61bc 0ba2 4b3d
00000300: 41cf 96bb bb18 21bd 5da6 113c 71ef f03d
00000310: 37f3 6abd 1753 703d 7063 1cbb 7f46 e03b
00000320: 225d d9bb a9ef a5bc 4ee6 72bd 38d8 b9bd
00000330: 0d72 87bc 61ec 3cbd 7e6b e6bc 6761 a33c
00000340: fa28 473c 32ec c63a f1e1 bd3c 6d65 a63d
00000350: cd8d edbc d3b3 50bd a25d 1539 9635 bd3d
00000360: 08ca babc 75c6 01bd 901d d6bd 2734 bd3d
00000370: a71c 1bbe 46c5 dcbb 9eae 2c3e 26d0 15bd
00000380: 0c3c ffbc c8a6 86bd ff9a e2bd b09a 00bc
00000390: 593b 113c 9677 b23d 608b 04bd 1718 5fbc
000003a0: aa6b 6e3d 7c26 31bd 391f 9a3d ab7a 163d
000003b0: 4440 f6bd af21 673d c411 eab9 c0c9 65bd
000003c0: 82bb 7d3c 4a44 2a3d 1cd0 47bd e12c 44bd
000003d0: cfcd 503d 293a 99bb 13e2 d83b 82ca de3c
000003e0: 0495 14be 4f3d d1bb ef8d e93c cdc8 593d
000003f0: 57fc a53d 8814 fe3b 367c 0fbd 2943 e6bb
-0.09321532 -0.034474995 -0.107573316 0.13792863 0.12530865 0.115127444 -0.039742827 -4.057947e-05
-0.14442284 0.06654632 0.023553215 -0.07421921 -0.042848628 -0.050997812 -0.04424963 -0.054282796
0.047969956 -0.051417958 -0.0011169002 -0.008236789 -0.04473705 0.047659613 0.029769056 0.0070943795
0.05863054 -0.07484435 0.015971188 -0.08173846 0.015856644 -0.069780186 0.036530018 0.011867081
0.011578382 0.07839298 0.0875982 -0.09827215 0.07536162 -0.048556454 0.03495709 -0.04057121
-0.021772062 -0.07152338 0.030407224 -0.04688078 -0.054317582 0.12963401 0.0013524347 -0.08823052
-0.13764702 0.096386194 -0.0037987062 0.0016727039 -0.00121746 -0.036662824 -0.020865869 -0.15583728
0.05306858 0.046879236 -0.10416164 0.05155219 -0.08404105 -0.02432328 0.12356989 -0.052055873
0.11504048 -0.0696256 0.04201052 -0.0074473545 -0.08276902 -0.12869997 0.05348133 0.06529412
-0.050422795 0.07594844 0.080728196 -0.054410208 -0.028343234 0.18471983 -0.049926072 0.098964535
0.059608515 0.037409287 0.021455696 -0.04651408 -0.05484016 -0.09877048 -0.115743384 -0.032738492
-0.078852475 -0.06769631 -0.081376866 0.010668184 0.08472896 -0.027775606 0.022272347 -0.059487365
0.08808974 -0.050292797 -0.039544087 0.00010887052 0.0212838 -0.038551398 0.102106035 -0.15445125
-0.069079496 0.031887226 -0.011089223 0.0203358 0.003603992 0.04990504 0.054296523 -0.104310796
0.058018 -0.049413722 0.023277907 -0.07392934 -0.12924744 0.004746969 0.0032705648 -0.061854195
0.001862425 -0.017882334 -0.013718325 0.061004292 0.0014852769 0.03321673 0.118557416 0.03055064
-0.07774965 0.015839145 0.045846224 0.08568466 0.049099345 0.030587194 -0.07064585 0.05278251
-0.025751077 0.0158028 -0.014651425 0.11679737 -0.081318416 0.05299163 -0.03360812 0.030692767
0.049215242 0.027303886 -0.020985771 0.06275413 0.02060498 -0.051866032 -0.09350604 0.014817678
0.08356046 -0.12887342 0.005893368 0.02229286 0.054666806 0.009142602 0.07130464 0.13257806
0.00053952995 -0.013804143 0.013017781 0.012882529 -0.026430888 0.00578262 0.06261448 -0.11523267
-0.008555438 -0.032090634 -0.061009638 0.03947057 -0.09122903 -0.0065531144 -0.115060925 0.060075905
0.006758457 0.10477347 -0.040537804 0.008518635 -0.013815373 -0.05850476 -0.022406716 0.0044067907
-0.006094182 0.052076973 0.101182565 -0.09358326 -0.0027463576 0.16198277 -0.013773087 0.049715083
-0.0046023433 -0.039330225 0.008889762 0.1176442 -0.057360854 0.05867299 -0.002386298 0.0068443413
-0.0066334167 -0.02025588 -0.059301667 -0.090744436 -0.016533876 -0.046123866 -0.028127428 0.019943906
0.012155766 0.0015176593 0.023179026 0.08124814 -0.02899828 -0.050952744 0.00014244628 0.09238736
-0.022801414 -0.031683404 -0.10454857 0.09238463 -0.15147649 -0.006737384 0.16863486 -0.03657546
-0.031156562 -0.0657478 -0.110647194 -0.00784938 0.008864247 0.087142155 -0.03235948 -0.013616583
0.058208145 -0.043249592 0.075254865 0.03673808 -0.120239764 0.056428608 -0.00044645194 -0.056100607
0.0154866 0.04156903 -0.048782453 -0.047894362 0.050977524 -0.0046761227 0.006618747 0.027196173
-0.1450997 -0.0063854824 0.028510062 0.053170014 0.08104771 0.0077539124 -0.035030566 -0.007027049

lstm.bias_ih_l0 f4 [256]
00000000: b870 8bbf bc0f 5c3e 06cc 0240 bdab 5ebf
00000010: a2a3 e6bf 17c6 943f 29a6 b6bf 4388 833f
00000020: 491c 44be d743 eb3f 2713 083f 51c0 c33e
00000030: 4dac b5bf 9c27 c23f e735 e7bf d86c cf3e
00000040: 4e83 3f3d eadd 0240 2b13 d4be 2a09 f1bb
00000050: 4286 51bf 1f37 9f3f 865b 52bf 211b 583f
00000060: de10 a13e 01b5 c63f 9fae b73e 2c39 93bf
00000070: 6e2e f53e e896 7f3f 486b 7bbf cac9 c63d
00000080: 51f1 863e daf8 dbbf 1b4b 593e 33a1 f13c
00000090: 3ffe 063f fe32 89bf 0314 3dbe 00a7 653b
000000a0: 3b44 8bbe fd2f fabe 4db9 1d3e 5c73 94bf
000000b0: 950b 613e 2ddc d9bf b869 193f e492 67be
000000c0: 1402 f8be 59c8 573e e776 09c0 8c48 8b3f
000000d0: 346d 023f 8b50 1540 cd7b b5bf d7f8 3d3e
000000e0: cce0 e9bf a792 853f 6de5 e6be d8a6 433f
000000f0: 9c5d 85bf 7ef6 d93e 25f3 823f 36b0 46bf
00000100: 92e6 08bf cc97 37c0 5385 a13f 8c02 74bf
00000110: 74b0 c7bf cc12 0b3f 1de5 583f 140c e33d
00000120: d60b 3fbf b51b a83f 57ac 35bf f077 2f3f
00000130: 8e90 14bf f5a3 343e f520 b9bf 473a d43c
00000140: 22ed be3f fbca fcbd 4098 69be bcbb c03f
00000150: 05e3 493f d3ba 7dbe 84a7 11c0 e78a 09bf
00000160: 3d76 593f b30c b7bf faa6 0940 e39b 02c0
00000170: 5545 77bf 1c6f c03e 0274 fd3e fa5c ed3e
00000180: 138a 62bf 23f3 98bd e396 97be 9f6f 5b3e
00000190: 4fa2 d9bf 381c 65bf 8c1a f93e 7433 553e
000001a0: 92b6 9a3e 77bc f13e f9c4 73bf d3d0 4e40
000001b0: f661 24bf 15f2 8e3f 1086 693e 1fa5 c7bf
000001c0: ddfd 973f c6cc d73f 7c6d 38bd 2292 68bc
000001d0: c0ac 1dbf 4134 f5be c287 443f 3321 a63f
000001e0: 57f4 b2be 0440 243f a4c5 6b3f abd8 9fbf
000001f0: 78af bb3e 429c e73f 4252 043d 626e a9be
00000200: 54a5 9c3f 841d 4a3e e0ae a83f 7c18 c53f
00000210: abca 2140 6796 173f 0d95 0a3f f711 a13e
00000220: 0e0e 893f 41bc 91bf 62db ee3e 6664 99bf
00000230: 8879 75bf df8e f63e fc76 b3be 972c d4be
00000240: f7b4 c7bd a012 03bf a09e 9ebf b827 063e
00000250: 52e3 db3d 4f61 3ebf 92c5 dabf fd28 3abe
00000260: b703 153e ddcb 3f3f 33c0 99bf 88e7 6e3f
00000270: 24fc 653f 4023 373f 6856 64bf bbbe 06bf
00000280: 3726 0c3f a795 d2bd fa76 3f3e 1fe8 d9bf
00000290: 5b59 043f 6342 a03c d411 b7bd 2f52 e0be
000002a0: 5551 bc3e f2b9 c6bc 069d d53e f673 473f
000002b0: 9711 a53f ddf7 52bf ef22 7fbf 1729 903c
000002c0: a54a 913f 9b01 b4bf df97 c13f 3f67 7c3f
000002d0: 544c bfbe 2f00 d0be 8b70 0140 0e38 8f3e
000002e0: 226c 2d3e 3e75 d0be c6ae f33e 9d00 86bf
000002f0: 70f9 4bbf 0215 a63f 34f1 c3be 75b9 c2bf
00000300: 454b acbf b36e edbd 34b6 423f 0691 3b3f
00000310: 04cd 4ebf 8c7d 6ebe fc7c 9d3f a948 7ebd
00000320: b701 78bf dda6 ed3f 8c6f 9c3f 898b 103f
00000330: 1276 703e b0b6 583d 9b13 763f b1ed cbbf
00000340: 3a15 c3bf e6dc c43f 65dc 423e beaf aabf
00000350: 88f1 5fbf 8e25 86bf c1ff a83f 3570 35bf
00000360: eed7 253f 56e8 6ebe ddc6 48bf 8c43 893e
00000370: 1778 0040 2a07 60be f84b d9be dc21 babf
00000380: 99e0 15be 1cd1 963e a2d1 553e b58b 983e
00000390: d051 f03e 63ea e03e 6d4d 82bf c084 b13f
000003a0: 8f7f 993e 1b40 a0be 9808 773e f187 aa3f
000003b0: b03d 383f f098 3e3f 1288 06bc c5ef 7b3e
000003c0: 3b01 433e c7d3 20be 1ea1 d73e 52c9 89bf
000003d0: ec39 0140 230e 293e 47f7 e7be 77cd 033f
000003e0: b5b2 9b3f 2910 b73e 2e69 3a3f d06f 77bf
000003f0: 89b0 9ebf 3a6f 773f 16f4 a2be 7c1c 55bd
-1.0893774 0.21490377 2.0437026 -0.869808 -1.8018687 1.1622952 -1.4269458 1.0275959
-0.19151415 1.8380078 0.53154224 0.38232663 -1.4193207 1.5168338 -1.8063325 0.4051273
0.04675608 2.0447946 -0.41420874 -0.007355829 -0.81845486 1.2438697 -0.82170904 0.84416395
0.3145818 1.5523988 0.35875413 -1.1501822 0.47886986 0.9983964 -0.98210573 0.09706457
0.26355985 -1.7185318 0.21220057 0.029495811 0.527317 -1.0718687 -0.18464665 0.0035042167
-0.27200493 -0.48864737 0.15402718 -1.1597705 0.21977074 -1.7020317 0.5992694 -0.22614628
-0.48439085 0.2107252 -2.1478822 1.0881515 0.5094788 2.333041 -1.4178406 0.18551956
-1.8271728 1.043538 -0.45096913 0.7642646 -1.0419192 0.4257087 1.0230452 -0.77612627
-0.5347682 -2.86864 1.2618812 -0.95316386 -1.5600724 0.54325557 0.847246 0.11086288
-0.74627435 1.3133456 -0.70966095 0.68542385 -0.5803307 0.1764067 -1.4463183 0.025906695
1.4916117 -0.12343403 -0.22811985 1.5057292 0.7886203 -0.24778299 -2.2758493 -0.53727573
0.8494604 -1.430075 2.1508164 -2.0407646 -0.9659017 0.3758477 0.4950257 0.46359998
-0.88491935 -0.0746825 -0.29607305 0.21429299 -1.7002658 -0.89496183 0.48653066 0.20820409
0.30217415 0.472141 -0.9522243 3.2314956 -0.64211977 1.1167628 0.22805047 -1.5597266
1.1874348 1.6859367 -0.045026287 -0.014194997 -0.6159172 -0.4789143 0.7676965 1.2978882
-0.34952042 0.6416018 0.9209845 -1.2487997 0.3665731 1.8094561 0.03230501 -0.33092028
1.2237954 0.19737822 1.3178368 1.5398097 2.5279949 0.5921387 0.54133683 0.3145902
1.0707414 -1.1385576 0.4665175 -1.1983764 -0.95888567 0.48155877 -0.35051715 -0.4144027
-0.09751313 -0.51200294 -1.2392159 0.13101089 0.10736717 -0.7436723 -1.7091544 -0.18179698
0.14552198 0.74920446 -1.201178 0.9332204 0.8983786 0.7153816 -0.89194345 -0.5263478
0.5474581 -0.1028245 0.1869773 -1.7023963 0.51698846 0.019562906 -0.08938947 -0.438127
0.367808 -0.024258588 0.41721362 0.7791132 1.2895993 -0.8240946 -0.9966268 0.017597718
1.1350905 -1.406299 1.5124472 0.9859504 -0.3736292 -0.4062514 2.022494 0.27972454
0.1693578 -0.4071445 0.4759428 -1.0468937 -0.79677486 1.2975161 -0.3826996 -1.5212847
-1.346047 -0.1159338 0.7605927 0.73268163 -0.8078158 -0.2329008 1.2303767 -0.062081013
-0.96877617 1.8566548 1.2221541 0.56462914 0.2348254 0.0529086 0.96123666 -1.5931913
-1.5240853 1.5379913 0.19029386 -1.3334882 -0.8747792 -1.0480211 1.320305 -0.7087434
0.6478261 -0.23330817 -0.7842844 0.26809347 2.0073297 -0.21877733 -0.42440772 -1.4541583
-0.14636458 0.29456413 0.2088075 0.29794088 0.46937418 0.43928823 -1.0179878 1.3868637
0.29980132 -0.3129891 0.24124372 1.3322736 0.7196913 0.74452114 -0.008211153 0.24603184
0.19043438 -0.15705787 0.4211511 -1.0764563 2.0191603 0.16509299 -0.45305845 0.5148539
1.2163912 0.35754517 0.7281674 -0.9665499 -1.2397624 0.96654093 -0.31826848 -0.052029118

lstm.bias_hh_l0 f4 [256]
00000000: 3822 d53e d461 12c0 aee0 943f d50a a2be
00000010: 0223 873f 32da 633b ff09 9abf 1e45 023f
00000020: b914 fabe 82ca 9cbe aeff 64bf faef 86be
00000030: 8fc1 b53f 0cf0 92bf 24dc 6b3e c01c 353f
00000040: 86dd 1a3f b2ed 0f3f c053 f43e 51ff d6bf
00000050: d457 983f 4792 00c0 c96d 65bf bb02 1cbf
00000060: 877a 81bf 6f8c dbbd 449d a83f 5e07 903e
00000070: cc54 143f 3894 02c0 a009 14bf 756d cc3e
00000080: 6ca5 0f3f 427d 7cc0 93d1 1abf c49e bc3d
00000090: 6c45 863f 14d5 fe3e 3a72 abbe 195b af3e
000000a0: 774e c63e 866b 0d3f 35f1 84bf 677a 3c3f
000000b0: 414b 9c3f 3476 8bbe e961 673f 1452 32bf
000000c0: 591c 28bf e0dd 793d dd28 82bf 2909 323e
000000d0: 13f5 8d3f 7d38 643f 0474 833f bb52 243e
000000e0: b094 3ebf 80e9 bcbe b490 2bbf 012a 97ba
000000f0: 5eb1 d13d 8dcb 85bf 5c49 183f e6d8 abbe
00000100: 9d77 a1be d20c 463f 7ff8 853f 5068 fe3e
00000110: 0014 fdbd 3881 36bf 68e4 d9bf eff3 3dbf
00000120: 3163 563f 628b 043f 7bde 80bf 5111 a03f
00000130: be9c 973f 18f1 4abe deac 813f 5e69 c63f
00000140: fd2e eb3e 246c bebf a535 babf 517b 483f
00000150: 3f70 fabe 1f32 e6bf 3dc8 b1be 2ea7 0340
00000160: ea89 613f 4dcf 1d3f b883 79bf e6d0 e73e
00000170: 22fe 05bf 4bf6 333f e3e0 0cbf 625c d3be
00000180: 7814 5c40 7a54 37be 39cd 483d e6d0 9cbf
00000190: 5d7a 5abf bdf5 98be dc84 3abf ab9e 8abf
000001a0: f3cc 283f 39f4 adbe 882b 18bf 27d1 3c3f
000001b0: 0cf6 7abd faa4 e3bf f471 ccbf 2dfb d9be
000001c0: 3876 c5bf 3b5f f0be 0291 493f e5e5 913f
000001d0: 2756 473f daa9 e9bf 4fec d93e b359 f83d
000001e0: 0378 7f3e d992 f43d 333a 483f ed28 263c
000001f0: 3460 2dbf a58c 983e 958e 05bf dc39 b1bd
00000200: 0f4d 80bf 0f56 cd3e 872b 8ebe cbbc c5be
00000210: 3936 10c0 800f b5bf a020 0640 8494 55bf
00000220: 09af cabf 681a 1cbd 0554 f0be 85e6 393f
00000230: 72f0 413d 1de8 ebbf b0f0 0fc0 83a3 ce3f
00000240: 5c53 61bf 9fee a4bf bf0b cbbe 9ece 0abe
00000250: 55ee 2bbf 0bc7 16c0 a05a e43f adf6 9ebf
00000260: dc52 02c0 5378 933f edab b6be 2cc0 4f3f
00000270: a5c0 e0bf 741e f0be b9d0 26bf 26fc d9bd
00000280: 406e b83f f825 e63f d5b4 96bc de7a 5ebf
00000290: aa1c edbf 56c3 123e 859f 3dbe 1fd3 3bbf
000002a0: c483 dfbf 4e3a 9e3f 8e91 eabf ee3a cb3e
000002b0: 298a 033f 6f70 b0bd 4d46 3940 7c5e 7fbe
000002c0: ae1d b6bf fe1d 96bf 5f0b a3bf c28b 63bf
000002d0: f49a 253f 6265 5e3f fa43 1f3e ff34 72bf
000002e0: cdaa 913f 9508 c4bf f0b4 00bf 4e52 823f
000002f0: 1da7 803f 18ee 333e a252 c23e 697a 0240
00000300: c2ab 00c0 5801 953f b91c a1bf 1c38 69bf
00000310: 6e8d 813d 5d58 383f 9cf4 1440 e804 873f
00000320: d833 08c0 de50 30bf bf36 40bf 22df ac3e
00000330: 653b 1ebf 2f2b 83bf dc2f 04c0 2b79 fbbe
00000340: 34dd 56bc 2cfa 7b3e 4604 31bf 800f 09bd
00000350: f27e 53be fe74 dfbd 3e16 77bd fed7 00c0
00000360: 47db 1840 2176 07bf e636 bc3e 564c 79be
00000370: 3bea 143f 4ce2 ddbf b419 493f e691 ba3e
00000380: a6b3 86bf e0bd 8d3f f11f 353f edc0 543f
00000390: 23af 12bd e4f5 8abf 4c99 5c3f b34b 9d3f
000003a0: 8139 ba3f cabe 11bf 32b3 2dbf 3230 9dbe
000003b0: 99bc 56bf 8bfe 28bc 5442 09c0 0b44 b13e
000003c0: fd1f 853f 51fb cdbf a847 83bf 2acf 98bf
000003d0: f2b0 4fbe b38d 013f 6666 a63d 074a 24be
000003e0: 3b0d c13d 9d06 b0be 5031 a0be 1b51 64be
000003f0: 4500 12c0 0238 513e 733f 80bd 534a 4e3f
0.4162767 -2.287221 1.1631067 -0.3164889 1.0557559 0.0034767506 -1.20343 0.50886714
-0.48843935 -0.3062325 -0.89452636 -0.26354963 1.4199694 -1.1479506 0.23033196 0.70746994
0.6049427 0.5622207 0.47720146 -1.6796666 1.1901803 -2.008928 -0.89620644 -0.60941666
-1.0115517 -0.10720145 1.3172994 0.2813062 0.5794189 -2.0402966 -0.57827187 0.3992726
0.5611179 -3.9451451 -0.60476035 0.0920997 1.0489936 0.4977194 -0.33485585 0.3424919
0.3873174 0.5524219 -1.038611 0.7362427 1.2210466 -0.2723862 0.90383774 -0.6965649
-0.65668255 0.061002612 -1.016872 0.17386307 1.1090416 0.89148694 1.026978 0.16047184
-0.7444563 -0.36896896 -0.67017674 -0.0011532904 0.10238908 -1.0452744 0.5948694 -0.33563918
-0.3153657 0.7736331 1.046646 0.4968896 -0.1235733 -0.7129092 -1.7022829 -0.7420034
0.83745104 0.5177518 -1.0067896 1.2505285 1.1844709 -0.19818532 1.013088 1.5500906
0.45934287 -1.4876752 -1.4547621 0.78313166 -0.48913762 -1.7984046 -0.34723082 2.0570788
0.88101065 0.6164444 -0.9746661 0.45276564 -0.523409 0.7029769 -0.5503065 -0.4128142
3.4387493 -0.17903319 0.04902384 -1.2251251 -0.8534296 -0.29874983 -0.7285898 -1.0829672
0.6593773 -0.3397539 -0.59441423 0.7375664 -0.061269805 -1.7784722 -1.5972276 -0.42574444
-1.5426702 -0.46947655 0.7873689 1.1398283 0.77865833 -1.825496 0.42563102 0.12126484
0.24948125 0.119420715 0.78213805 0.010141593 -0.6772492 0.29794803 -0.5217069 -0.08653614
-1.0023516 0.4010472 -0.27767584 -0.386206 -2.2533095 -1.4145355 2.0957413 -0.8342974
-1.5834666 -0.03811112 -0.46939102 0.7261737 0.047348447 -1.843021 -2.2490654 1.614365
-0.8801782 -1.2885321 -0.396574 -0.1355538 -0.6716054 -2.3558986 1.7840157 -1.241903
-2.0363073 1.1521095 -0.35678044 0.81152606 -1.755879 -0.46898234 -0.65162235 -0.106437966
1.4408646 1.7980337 -0.018396774 -0.8690623 -1.8524373 0.14332327 -0.18517883 -0.7336902
-1.7462087 1.2361543 -1.832567 0.39693397 0.5138269 -0.08615195 2.8949158 -0.24938387
-1.4227808 -1.1727903 -1.2737845 -0.8888513 0.64689565 0.8687345 0.15553275 -0.94612116
1.1380249 -1.5315119 -0.5027609 1.0181367 1.0050999 0.17571294 0.3795367 2.0387213
-2.0104833 1.1641035 -1.258689 -0.9110124 0.06325804 0.7200983 2.3274298 1.0548372
-2.1281643 -0.68873394 -0.75083536 0.33763987 -0.6180938 -1.0247554 -2.065421 -0.4911588
-0.013114262 0.24607152 -0.69147146 -0.033462048 -0.20653895 -0.10910986 -0.060323946 -2.013183
2.3883836 -0.52914625 0.36760634 -0.24345526 0.5816991 -1.7334685 0.78554845 0.36439437
-1.0523574 1.107357 0.70751864 0.8310688 -0.035811555 -1.085629 0.8617141 1.2288727
1.4548799 -0.56931746 -0.67851555 -0.30700833 -0.8388153 -0.010314594 -2.1446733 0.34622225
1.0400387 -1.6092321 -1.0256243 -1.1938221 -0.20282343 0.5060684 0.08125 -0.16043864
0.09426352 -0.34380046 -0.31287622 -0.22296564 -2.2812665 0.20431522 -0.06262102 0.8058216

batch_norm.weight f4 [64]
00000000: becf 7c3f 5444 763f a539 7b3f 3997 793f
00000010: 4d4c 833f 63ad 803f 89d0 7c3f 4149 823f
00000020: b3fc 7c3f 3c49 7d3f 6893 793f 2e52 7e3f
00000030: 3cd4 7a3f dfb3 7d3f 8c2d 803f 995d 7d3f
00000040: a5cf 7b3f ffc2 7e3f 9ed0 793f 7829 793f
00000050: 9539 7f3f 938b 7c3f baa3 853f a562 7f3f
00000060: e4ef 783f 8f6e 7a3f c19d 7d3f dd2a 7e3f
00000070: 227e 7c3f c84f 7e3f 07f8 7c3f c347 803f
00000080: e640 7c3f 0bea 803f cf00 803f b894 7e3f
00000090: bb64 813f 99ba 783f d297 7e3f 417e 793f
000000a0: 6146 7a3f 5e12 813f 3662 7d3f e315 813f
000000b0: aabd 803f f8db 7e3f d0e1 7b3f e1be 7d3f
000000c0: 3917 7e3f a536 783f 021a 7a3f 3821 7c3f
000000d0: 9feb 7a3f b400 803f 22f8 7a3f 468b 7b3f
000000e0: d110 7a3f 2d85 793f 34bf 7b3f 3cb0 7b3f
000000f0: 29f9 7e3f 2957 813f 2ff8 773f 1358 7e3f
0.9875449 0.9619801 0.98134834 0.9749637 1.025766 1.0052913 0.987557 1.0178605
0.9882309 0.9893987 0.9749055 0.99344146 0.97980094 0.99102587 1.00139 0.98970944
0.98363715 0.9951629 0.9758395 0.973289 0.9969724 0.98650473 1.044059 0.99759895
0.97241044 0.9782495 0.9906884 0.99284154 0.98629963 0.99340487 0.9881596 1.00219
0.9853653 1.0071424 1.0000247 0.99445677 1.0108865 0.97159725 0.9945041 0.97458273
0.9776364 1.008373 0.98977983 1.0084804 1.0057881 0.99554396 0.9839144 0.99119383
0.99254185 0.9695838 0.97695935 0.9848819 0.9801578 1.0000215 0.9803487 0.9825939
0.9768191 0.97468835 0.9833863 0.9831579 0.9959894 1.0104724 0.96863073 0.9935314

batch_norm.bias f4 [64]
00000000: a5d1 29bc 0757 a63c bb91 033c dea4 93bc
00000010: bc7b d43b 5d3c 133c ef49 23bc b099 483c
00000020: 77c5 8aba 47e0 d7bc 4727 5abb a632 583c
00000030: 9eac f738 011d 4f3c c278 fc3c e994 a0bc
00000040: 01e6 4fbb cdf0 c13c 5b04 eb3c dd68 4abc
00000050: 3c65 01bc 5b4f cabb 2a4a e5bb d2db 33bc
00000060: d525 15bc ef64 a03a dea7 013b 9289 82bb
00000070: 9e5c e1bc 64be e93a 8887 84bc 06e5 6b3b
00000080: 80d1 f33b 3cf0 e0bb 25af 813c 3b88 6cbb
00000090: 1abe 20bb 6209 d2bc 9bc0 113c 19ec 0dbc
000000a0: 7a6f 4ebc 8a13 87bc d30b 2fbc 7fea 3c3c
000000b0: 5876 373c 4e33 34bc faec e03c 861e 40bb
000000c0: 3cd6 3dbc cadb 1f39 a07b ce3b d97c 87bc
000000d0: a159 09bc adc7 863c b7f0 72bc 1523 1f3b
000000e0: 27c1 9f3c cc73 f63b 5d51 d2bb ad05 9bbb
000000f0: 35e2 2d3c 7c38 823b 4a97 36bb 7256 da3c
-0.010364925 0.02030517 0.00803035 -0.01802295 0.006484477 0.00898656 -0.009966358 0.012243673
-0.0010587414 -0.026352061 -0.0033287571 0.013195669 0.0001181003 0.012641192 0.0308193 -0.019602256
-0.0031722786 0.023674393 0.0286886 -0.012354103 -0.007897671 -0.0061740107 -0.0069973664 -0.010977702
-0.009103258 0.0012237112 0.0019783895 -0.003983685 -0.027509984 0.001783323 -0.016177908 0.0035994663
0.007440746 -0.0068645757 0.015830586 -0.0036091942 -0.0024527372 -0.02563924 0.008896018 -0.008662247
-0.01259982 -0.01648881 -0.010683971 0.011530518 0.011197649 -0.01099856 0.02745675 -0.0029315068
-0.011586722 0.000152453 0.0063013583 -0.016539024 -0.008383186 0.016452635 -0.014827899 0.0024282385
0.019501282 0.0075211283 -0.0064183907 -0.004730901 0.010613014 0.0039740186 -0.0027861171 0.026652548

batch_norm.running_mean f4 [64]
00000000: f1ba 09bb 174b fb3c 404c bc3e 3fc3 533e
00000010: c803 4539 5938 d2be 655a ac3d f9ba 2dbe
00000020: 4bc0 50bb 6382 58bf 6dbc 053e 5326 38bf
00000030: 4b5b 8dbe e7e1 82be 7ccd 40bd 7bda e63d
00000040: 499b 27be 3170 24bf a5b5 1bbe 803c b93c
00000050: c4cb 39be 3b21 80bd 04c1 bc3d ff69 74bd
00000060: d3e6 73bf 7af5 8b3e 4195 bdbe d43f 083e
00000070: 4dfd 0dbf f59b 683d b41d 02be 869b 0abe
00000080: dcd0 353e 28f9 7e3b a87d 8ebd 1371 fbbe
00000090: 6cab b6be 927f fabb de93 c4bd 8d5c 11bf
000000a0: 6fc4 45bf 6901 023e d70c fabd 2212 4b3f
000000b0: 4b21 983e 6bfa a9bd f13c 713d 3b9f 0cbe
000000c0: 9447 3abe 05df ddbd b50e 08bc 9e78 44bd
000000d0: 4bbb 233f 4bff dabb 0ede b33e 96d4 fabe
000000e0: 86b5 e23d 94a2 0abf 4b26 2d3e 51c4 abbd
000000f0: 9f32 c239 972c 323f 194d a3bd bae0 0b3e
-0.0021015967 0.030675454 0.36776924 0.20679949 0.00018788793 -0.41058615 0.08415679 -0.16965856
-0.0031852897 -0.84573954 0.1306016 -0.7193348 -0.27608714 -0.25562975 -0.047070965 0.112721406
-0.1636783 -0.6423369 -0.1520601 0.022611856 -0.18144137 -0.06256338 0.09216502 -0.0596714
-0.95274085 0.2733572 -0.37027934 0.13305598 -0.5546463 0.056789357 -0.12706643 -0.1353589
0.17755455 0.0038905833 -0.06957561 -0.49109706 -0.3567766 -0.007644602 -0.09598516 -0.56781846
-0.7725286 0.1269585 -0.1220948 0.79324543 0.297129 -0.082997166 0.05889601 -0.13732617
-0.18191367 -0.10833553 -0.008304288 -0.047966592 0.6395766 -0.0066832653 0.35130352 -0.48990315
0.11069779 -0.54154325 0.16909139 -0.08387054 0.0003704028 0.6959929 -0.079736896 0.13659945

batch_norm.running_var f4 [64]
00000000: 3776 1936 29ee 3038 d072 923a d8c0 d139
00000010: cd19 0939 23a6 093c 9016 8538 7408 3b3b
00000020: 2edc d635 6054 2c39 83aa 1f3a 34af 2c3a
00000030: dcfe db3a 0de6 753a 7a40 7938 2e36 da38
00000040: 6956 5739 0bc8 003a 6379 6339 595d 9638
00000050: e635 a139 7376 9638 cb0c fd38 1cf2 e737
00000060: f509 9f38 a0ec 133a e931 0e3a 487c 013a
00000070: 3290 403b 5aef cd38 59d5 7339 6857 3c39
00000080: b2ba 7a39 2eed e334 e48d b63a caa7 833a
00000090: 7066 123a d73f 5e39 9775 1f3a 944d 9f3a
000000a0: d147 c43a 05ab 1f39 55fd a139 f365 8139
000000b0: 4a13 113a d071 9039 08c6 da37 f27c fd39
000000c0: 97f9 5b3b 3b13 1e39 4c21 1636 30b8 bf39
000000d0: 8df4 133b 0e97 873b 175a 233a 00c8 153a
000000e0: bc54 9338 e3da 923a 0600 bd3b 565e d03a
000000f0: d39a 1035 7355 673a d0b9 023c 5148 9a39
2.2867587e-06 4.2183474e-05 0.0011173133 0.00040007266 0.0001307495 0.0084014265 6.346137e-05 0.0028538974
1.6008323e-06 0.0001643463 0.0006090777 0.00065873866 0.0016784328 0.00093802885 5.9426275e-05 0.00010405142
0.00020536188 0.0004912621 0.00021693627 7.169945e-05 0.0003074847 7.17462e-05 0.00012066363 2.7650087e-05
7.5835655e-05 0.0005642865 0.00054243073 0.0004939479 0.0029382822 9.8197444e-05 0.00023253764 0.00017961639
0.00023911407 4.2454616e-07 0.0013927785 0.0010044512 0.00055847224 0.00021195352 0.0006082891 0.0012153857
0.0014975016 0.00015227131 0.0003089706 0.00024680755 0.00055341853 0.00027550617 2.607984e-05 0.00048349012
0.0033565515 0.00015075218 2.2371123e-06 0.0003656759 0.0022576184 0.00413788 0.0006231381 0.0005713701
7.025289e-05 0.0011204149 0.005767825 0.0015897255 5.386948e-07 0.00088246836 0.007978871 0.0002942705

fc1.weight f4 [64, 64]
00000000: 9569 0a3e 7e89 8f3d af38 af3c d618 9abd
00000010: cb4f 2a3d 8014 0dbe bdb5 d2bd 9cfe 1f3d
00000020: fc05 8b3c 2f41 e4bd b564 c9bc aab8 b9bc
00000030: a30f 2f3d 3638 a1bd 52f5 d0bd b4dc b33e
00000040: 723c 163e a1da b03d 7e6c 0d3d 518b 60be
00000050: 0e94 9a3e c00e 263d a746 85bd 8d72 f33d
00000060: 28e8 21be 27a3 b7bd f40f 8fbd 0de3 993c
00000070: ecc7 583e becc 3d3c 7ebf a53d f88b d63d
00000080: 2442 17be cf16 23bd 1717 e2bd 557d 803d
00000090: 99f5 20be e429 08be 0797 ac3b 3e72 843d
000000a0: 57e1 803d 2924 2cbd cef8 0ebe 4067 01be
000000b0: a471 78be ebc1 18be 7645 813e a696 f3bd
000000c0: 2bca 91bd d1ec 933e 109b 473e 4d3d 1b3d
000000d0: a9a2 b73d 052d 933e 5684 5f3d 0482 ef3d
000000e0: 4472 2e3d dbf3 f2bd 3d3e dabd 812e bd3c
000000f0: 3959 8cbd 5bc7 fe3b 1bcb 88be c1a4 8e3d
00000100: aee6 093e b837 14bd 7ba5 afbd b333 0dbe
00000110: 64ee 90be 0f6b 883e 90b4 f93d 073f a5bd
00000120: c5d3 bb3c 8b5c efbd 22a5 a4bd 7993 3b3e
00000130: 1000 d9bd fc8a 263e a414 3fbd 99f5 bfbd
00000140: c297 5e3d 1b2b 00be 6cc5 593c 3100 80bd
00000150: 9794 6bbd b8f3 f3bd 6193 b4bd a40e 823d
00000160: cb0e aa3d 8013 c8bd fce0 a1bd 56bc b23d
00000170: 196c be3a 2e76 12bd 86a0 443d 7242 1dbd
00000180: 6ad7 35be e3a3 023c 5587 1abd c7ed cfbd
00000190: c869 083e d0c8 3b38 db1b 11bd 69e9 ca3e
000001a0: 1bec d53d f14d 123c 893e cd3d f724 e0bd
000001b0: 96c9 763d bffe 60bd 4da8 5ebe b1cb 023e
000001c0: 812a c33c d3ed 9dbd 827d b1bc 297b a6bd
000001d0: 039e ba3d 65a8 31be 6d18 033d 3e54 cfbc
000001e0: 6215 133e c6e8 153d 3128 2dbe 87ed 09be
000001f0: a707 c33c dd61 183e fb4c d23d c335 1b3e
00000200: 1235 2f3e f387 fbbc 4320 a63d 2577 0dbd
00000210: 812b 65bd 0fee 393d 2b8c 20be ec6a 883d
00000220: 4cf8 353e 02a9 90bd aa0b 63bd 7948 363d
00000230: f110 a9bd ccdd d83d c5c1 343e 5c53 d33d
00000240: 0d21 3fbc 5181 0c3d b359 e1bd 6030 8d3e
00000250: 8f16 133e 3f58 4a3e 3336 adbd 9b8b 3ebe
00000260: 2b04 24bd 8f36 75be 6120 6a3e e338 d13d
00000270: 94d7 5a3e 489a 8f3d aa40 b6bd 1607 ccbd
00000280: 89af 92bd 3010 473d 5258 b9bc 834a 1abe
00000290: e027 8e3c fb23 78bc ca94 da3c 6bd7 853e
000002a0: d232 8cbd fac9 77bc 1075 0ebe e447 d9bd
000002b0: 9313 a73b 43cd 923d 2f1e 2bbe aa47 e9bc
000002c0: 3117 d7bd 60d4 533d 9cc2 bcbc 89d5 1c3b
000002d0: a56c 123d da91 5e3e dc65 09be ca02 74be
000002e0: 730f eb3d 60bb 903c 6918 843d 1059 44bb
000002f0: b47a 1cbc 8220 82bd 6d82 37be a824 b4bc
00000300: d8c6 4dbd 9849 34be 4d6b b2bd 1353 7cbd
00000310: c194 073e f178 8fbd 0fce 353e 76dc 253d
00000320: f54d 9fbe 2248 90bc 46cf afbc 21fb 333e
00000330: ff9a 4ebe d181 583e 5700 063d 4abe 623d
00000340: eb2c 223e b298 3bbe 3b98 543d 42af 2fbd
00000350: e6a2 1a3e 8a1c 3fbd 681e b4bd e1b8 30be
00000360: 42c6 23be be56 58bd 13db 4a3d b936 a73d
00000370: 372a c7bd f211 3c3e 3adf a1bd b1f8 b03d
00000380: b437 8fbe f3d7 51bc e819 f2b9 2585 4c3d
00000390: 1fc6 81be 9385 283d a1a5 1e3e ab55 2a3e
000003a0: 3134 ba3e 1d69 8abd 1c6f 643e a019 76bc
000003b0: 26b5 12be b293 4dbd 7d00 a43d 3738 3e3e
000003c0: db14 a03e f284 14be d1ee a03d 5ab7 5f3e
000003d0: 517e 243e 203b 693e 2c91 163b 167d 70bd
000003e0: 25ef aabd a5b9 1dbe 2bc2 023e 0856 8ebd
000003f0: 41cc b7bd 856e 80be 3c74 83bd 3a34 54be
0.13516839 0.070086464 0.021389334 -0.07524268 0.041580003 -0.13777351 -0.1028857 0.039061174
0.016970627 -0.11145245 -0.024584154 -0.022671062 0.04273952 -0.078720495 -0.10203041 0.3512932
0.14671496 0.0863545 0.034527294 -0.21928145 0.30191082 0.04054141 -0.065076165 0.11887083
-0.15811217 -0.08966666 -0.06985465 0.018785024 0.21170014 0.011584459 0.08093165 0.10475916
-0.14771324 -0.039816674 -0.1103956 0.06273905 -0.15718688 -0.1329723 0.0052670273 0.064671025
0.0629298 -0.042026673 -0.13962099 -0.12637043 -0.242621 -0.14917724 0.25248307 -0.11893968
-0.071186386 0.28891614 0.19492745 0.037900258 0.08966572 0.28745285 0.054569565 0.116947204
0.04258944 -0.11862918 -0.10656402 0.023093464 -0.06852955 0.00777523 -0.26717457 0.06965018
0.13466904 -0.03618595 -0.08576485 -0.13789253 -0.28306878 0.2664418 0.12192643 -0.08068662
0.022928128 -0.11687573 -0.08039309 0.18317975 -0.10595715 0.16263956 -0.046650544 -0.09373016
0.054343946 -0.12516443 0.013291698 -0.062500365 -0.057514753 -0.1191172 -0.08817173 0.06350449
0.08303603 -0.09769344 -0.079042405 0.087273285 0.0014528065 -0.035757236 0.04800465 -0.038393445
-0.17757955 0.007973644 -0.03772672 -0.10152774 0.13321602 4.4771296e-05 -0.035426956 0.39631203
0.10445424 0.0089297155 0.10021693 -0.109445505 0.06025084 -0.054930445 -0.21743889 0.12773015
0.023823978 -0.07711377 -0.021666292 -0.0812896 0.091121696 -0.17349394 0.032005716 -0.025308724
0.14363626 0.036598943 -0.16909863 -0.13469516 0.02380736 0.14881082 0.10268589 0.15157227
0.17110088 -0.030704474 0.08111622 -0.034537453 -0.05594969 0.045393046 -0.1567847 0.06661019
0.17770499 -0.07063486 -0.055431046 0.04450271 -0.082551844 0.105891794 0.17652042 0.10318634
-0.011665595 0.034303013 -0.11003437 0.2757597 0.14364074 0.19760226 -0.08457603 -0.18607943
-0.040043037 -0.23946594 0.22863914 0.102159284 0.21371299 0.07011849 -0.088990524 -0.09962289
-0.07162387 0.048599422 -0.022625122 -0.15067486 0.017352998 -0.015145297 0.026682276 0.26140913
-0.06845631 -0.015123839 -0.13911843 -0.10609415 0.005098769 0.07168057 -0.16710733 -0.028476555
-0.1050247 0.05171621 -0.023042016 0.0023930988 0.035748143 0.21735325 -0.13417763 -0.23829189
0.11477556 0.017667472 0.06449968 -0.0029960312 -0.009550739 -0.063538566 -0.17920847 -0.021990135
-0.05023846 -0.17606199 -0.08711872 -0.061602663 0.13240339 -0.070054896 0.17754386 0.04049345
-0.31114164 -0.01761252 -0.02146114 0.17576267 -0.20176314 0.21143271 0.032715168 0.055357255
0.15837447 -0.18319967 0.05190299 -0.04289175 0.15101203 -0.046658076 -0.08794862 -0.17258026
-0.15993598 -0.0528171 0.04952533 0.081647344 -0.09724849 0.1836622 -0.07903905 0.08641184
-0.27972186 -0.012807834 -0.0004617714 0.049931664 -0.25346467 0.04114301 0.1549287 0.16634242
0.36367944 -0.0675833 0.2230801 -0.015020758 -0.14326915 -0.05018968 0.08007906 0.18576132
0.3126591 -0.1450384 0.078580506 0.21847287 0.16063811 0.2277646 0.0022974713 -0.05871304
-0.083463944 -0.15402849 0.12769382 -0.06950003 -0.08974505 -0.2508432 -0.06418654 -0.20723048

fc1.bias f4 [64]
00000000: 0d21 3fbb 49bc 8f3c dd9a 303b 81a6 9ebc
00000010: 97a1 13bc 0193 fabc 10f3 e53b a176 99bc
00000020: 5743 b3bc af19 3a3c 1d29 0f3c 7964 78bc
00000030: a5a3 0ebc 4324 01bc ef59 933c a563 4e3c
00000040: 20b2 55bb cbf3 19bc 990c 0d3c c1aa 93bc
00000050: 54e2 dd3b 1f63 3cbc 4e9e fdbc bb5f 1a3c
00000060: 9031 fe3b da81 da3a f729 aabc 9f56 26bc
00000070: 9688 673b a635 54bc fa6a f33a a0a5 04bc
00000080: 5a95 ddba ac64 7dbc bfa3 29bc 9980 ddba
00000090: 152b a23c c7b5 bbbc 89b4 0fbd 78c1 80bb
000000a0: 9e13 cf3a 9773 d33c 939d d6bb 62ef 2ebc
000000b0: 2051 873a 9313 7a3c 888c fcbc cc18 e4bc
000000c0: 6275 9ebb 475e d6bc aa47 c1bc 7d5d cfbc
000000d0: 0c12 c73b 18fb 813c b730 dfbc 88de ccbc
000000e0: 7e68 7e3b 86c2 463b 363b 01bc 3e2a bcbc
000000f0: fc78 70bc 6430 bdbb 8712 e5bc 25ef 7cbc
-0.0029163987 0.017545836 0.0026947774 -0.019366505 -0.009010694 -0.030587675 0.0070175007 -0.018733324
-0.021882696 0.0113586625 0.0087378295 -0.015160673 -0.008706008 -0.007882181 0.01798722 0.012596999
-0.0032607391 -0.009396504 0.008608961 -0.018025758 0.006771365 -0.011498242 -0.030959275 0.009422238
0.007757373 0.0016670779 -0.020771964 -0.010152488 0.0035329214 -0.012952244 0.001857131 -0.008096129
-0.0016905472 -0.015465897 -0.0103539815 -0.0016899287 0.019795934 -0.022913827 -0.03508428 -0.0039293133
0.0015798693 0.025811953 -0.006549546 -0.0106771905 0.001032386 0.015263456 -0.03082873 -0.027843855
-0.0048357705 -0.026168002 -0.023593742 -0.025313133 0.0060751494 0.015866801 -0.027244909 -0.025008455
0.0038819606 0.0030328347 -0.007887652 -0.022969361 -0.014677282 -0.005773591 -0.027962936 -0.015437876

fc2.weight f4 [32, 64]
00000000: ee2b 75be e73f 123e 40e4 053e 4f1c f03a
00000010: 304b 1dbd 5a87 14be 292b a13e 11a9 ebbc
00000020: 33b3 0f3e 3028 fcbd 10aa e0bc 434a 46bd
00000030: 2f10 04be d8e2 cdbd a218 a83d b850 663d
00000040: d8a8 bd3c 0521 97bd 93a5 86bd 229c e1bd
00000050: a9bd 11be f604 63be 6323 803e e588 1d3e
00000060: 400d b6bc de1c 69bd b213 313d 5797 903e
00000070: 2bfd 76be c3db 01be 20a0 59be 9dfc 293e
00000080: 6419 afbd bbbc fabd 3918 e73c 46fb 73bc
00000090: e865 0e3e 789b 38bd df81 63bc 8478 073e
000000a0: 49a7 cbbd 1fae 523c 0ee6 793d 427a 063e
000000b0: 3297 9e3d b702 98be 6ca9 eebc 1c3e a63e
000000c0: e0a7 483d d8bc 043e 2399 5cbe 183f 3fbe
000000d0: cd7f 1f3c def0 2abd c064 063e d013 143e
000000e0: 99ff f33c b280 ae3d 6320 e7bd ce3a a53c
000000f0: ad00 b03d 6b29 62bc 7119 633e 3b02 46be
00000100: c222 2fbe bf04 97bd c274 1b3d 8fa1 ebbd
00000110: 842d 05be 9390 153e cb72 debd 33bb b13d
00000120: e775 9abc 21c1 873e 8ffc 09bd 9ece bf3c
00000130: c875 0abe 6940 d7bd 9b8c 503e 9378 493d
00000140: 383d b1bc dd1c 933d 9bca ae3e 9bec f53c
00000150: bb60 49bd 95b3 e13d 4017 96be 539b 45bd
00000160: 305b 3b3e 9ff0 a43e 25f3 0e3e c38e c6bd
00000170: 49a3 163e f905 f43c e4ed 2bbe 6f46 583e
00000180: 2642 063c bb72 353d f5f9 bdbe 676d ae3b
00000190: 1805 06be 4d45 cfbd d09d be3c a7cb c1bd
000001a0: 30e8 94be 8ccc c0bd 7b68 31bc 61fe 6f3e
000001b0: dbb0 45bd 4a6d f9bd 3019 333d 0454 59be
000001c0: 30fe 81be e574 36be 821d 4f3e 51de 9ebe
000001d0: cd29 5f3d 8517 21be c164 b4bc 340c 87bd
000001e0: 08c9 9d3e cba1 cb3e 2b83 c3bd 53c1 353e
000001f0: 5780 a9bd 0f19 f7ba adf8 9cbd 8aa1 c03d
00000200: 44fd 21be b97a b2bd 3edf 203d 85b1 d6bd
00000210: 9ab9 a73e 338b 3cbe 4b97 40bc 707e 12be
00000220: c937 52bc 4456 1ebc 100f 0fbd 75bd 42bc
00000230: 207f d8bc 9ffe 4f3c 9482 18be 83ea a53d
00000240: 1d27 3a3e 18c5 2bbe 64a4 a0be 545a a23e
00000250: 83c4 903c d2d6 043e 34d8 f7bc 5da4 fd3d
00000260: 3553 323c ae61 eb3c aa43 29be 89d2 f9be
00000270: 5563 ccbd 154c ec3d 0438 80bd c504 333d
00000280: 004a 873e 840f d0bd 4f58 48be 1e3d 8dbd
00000290: 6f7f b93e 2aca 2ebe 8fe0 283e c691 693d
000002a0: d037 b03d 0a2c 763e 2511 38bd 05c4 7bbe
000002b0: 8a9a 453d 516e ac3d 81cc b33c bf83 55be
000002c0: b5e0 12bd efb0 93bc 2617 df3d 9c47 143d
000002d0: 51fb 863d fced 22be 1c94 99bd 8397 793e
000002e0: 9d7f a93d 2ef2 27ba 890e ccbd 5ee5 5dbe
000002f0: 91fb 12be 3600 da3d f859 2c3e 281b a83d
00000300: dea6 22be a839 3bbe 9ec4 6bbd 7efd 8f3d
00000310: 70e4 66bd 9dda f53d 7d9d 29bd 0000 cd3c
00000320: 879b f53d 66b2 a83c 61c6 c4bd 7e03 10be
00000330: 210f 053c 0726 e1bd 5053 333d ae21 cabd
00000340: c866 c4be 649c d2bd 21c3 303d a421 1e3e
00000350: 744b f3bd c5a8 36be 7647 263c 290f 343c
00000360: f9ac d9bd 308e 40bd 520b d3bd 00fd 4c3e
00000370: 3d28 6ebd 71e3 7c3e c564 42bd 42ea 803d
00000380: 7f26 94be b43f babd 4bd1 0d3e afc8 d4bc
00000390: 80a9 ca3d cf15 2ebe 5548 8e3d 2d0a 163e
000003a0: 7959 863d 3593 273e a6a8 b83d 8e9e 5a3d
000003b0: 5bce c0bd e802 52be 56b7 90bc 249c 04be
000003c0: dcd5 6abe 930e 543c b6f6 ac3e 8af7 f63d
000003d0: 6b82 01bc fe4e 89bd 68da 53be 14c8 2b3e
000003e0: d969 bb3c 9b41 6e3e c6c9 d93d c9c3 c63c
000003f0: b8ee 89bd ef61 9bbd 72ac 2c3c e1df 34be
-0.23942539 0.1428219 0.13075352 0.0018318983 -0.038401783 -0.14504758 0.3147824 -0.02876714
0.14033203 -0.12312353 -0.027424842 -0.048410665 -0.12896799 -0.10053033 0.08207823 0.056229323
0.0231518 -0.07379345 -0.065745495 -0.11016108 -0.14232506 -0.22169861 0.25026998 0.15384252
-0.022223115 -0.056912296 0.043231674 0.28240463 -0.24120013 -0.12681489 -0.21252489 0.1660027
-0.08549765 -0.12243029 0.028209792 -0.014891451 0.13906062 -0.04507014 -0.013885944 0.13229567
-0.099440165 0.0128588965 0.061010413 0.13132575 0.07743682 -0.2968957 -0.029133521 0.3246926
0.048988223 0.12962663 -0.21542792 -0.18676412 0.00973506 -0.041733615 0.1312437 0.14460683
0.029784964 0.085206404 -0.11285474 0.020169642 0.08593879 -0.01380382 0.22177674 -0.19336788
-0.17103103 -0.07373952 0.037953146 -0.11505424 -0.13005644 0.14605932 -0.10861739 0.086782835
-0.018855048 0.26514533 -0.033688124 0.023413952 -0.13521492 -0.10510332 0.20366137 0.049187254
-0.021635637 0.071832396 0.3413895 0.030020049 -0.049164515 0.11020581 -0.29314613 -0.04824383
0.18296504 0.3221483 0.1395994 -0.096951984 0.14710726 0.029788004 -0.16789967 0.21120618
0.008194482 0.04429887 -0.37104765 0.0053231004 -0.1308788 -0.1012064 0.02326861 -0.09462672
-0.29083395 -0.09414014 -0.010828133 0.23436882 -0.048264366 -0.12179048 0.043725193 -0.21223456
-0.25389242 -0.17818029 0.202261 -0.3102899 0.054483224 -0.15731628 -0.0220207 -0.065941244
0.30817437 0.39771876 -0.09546503 0.17749529 -0.08276432 -0.0018852073 -0.07664619 0.09405811
-0.1581927 -0.08714814 0.0392754 -0.10483078 0.3275879 -0.18412475 -0.011754821 -0.14306045
-0.012830683 -0.009664122 -0.034926474 -0.01188599 -0.026427805 0.012694984 -0.14893562 0.0810137
0.18178983 -0.16774404 -0.3137542 0.3170954 0.01767183 0.12972572 -0.03025446 0.123848654
0.010884096 0.0287331 -0.16529718 -0.48793438 -0.099798836 0.11537949 -0.06260684 0.04370572
0.26423645 -0.10159209 -0.19564937 -0.06896423 0.36230037 -0.17069307 0.16491912 0.057023786
0.086043954 0.24040237 -0.044938225 -0.24586494 0.048243083 0.08419479 0.021948101 -0.20851038
-0.03585883 -0.018028704 0.10893087 0.036201105 0.065909036 -0.15911096 -0.07498953 0.24374203
0.082762934 -0.0006406632 -0.0996371 -0.21669528 -0.14353777 0.106445715 0.16831195 0.08208305
-0.15883967 -0.18283713 -0.057560556 0.07030772 -0.0563702 0.12004588 -0.04140996 0.025024414
0.11992555 0.02059288 -0.0960815 -0.14063832 0.008121283 -0.10993581 0.043780625 -0.09869705
-0.38359666 -0.102837354 0.04315484 0.1544252 -0.11879626 -0.17837818 0.010148874 0.010989943
-0.10628695 -0.0470106 -0.103048936 0.20018387 -0.058143843 0.24696137 -0.047459383 0.06294681
-0.2893562 -0.09094182 0.1384937 -0.0259746 0.09895611 -0.17000507 0.0694739 0.14652319
0.06560034 0.16364749 0.09016542 0.053373866 -0.09414359 -0.20508921 -0.017665546 -0.12950188
-0.22933143 0.012942928 0.33781976 0.12058933 -0.007904629 -0.0670452 -0.20688784 0.16775542
0.02287762 0.23267214 0.10634188 0.02426328 -0.06734985 -0.07587039 0.010539161 -0.17663528

fc2.bias f4 [32]
00000000: 5beb 333c 55c9 ca3c 7f9a 69ba 8b1f bebc
00000010: c720 5fbc 61eb 8c3b d6e7 87bc 3113 153b
00000020: b993 093c 7797 cfbc 4ea5 3abc a0c2 ed3b
00000030: eaa5 75bc 65a1 d3ba fd2e 903c 710c cc3c
00000040: 9beb 9ebc 8075 fdbc 93ec 1f3c af03 25bc
00000050: e7fe d8bc 0073 1abc 2b96 8cbc 0596 87bc
00000060: d169 aa3b 02b7 453b c677 65bc 5506 973b
00000070: d3ec b7bc adf6 0e3b 03f2 843b 259a 423c
0.010981406 0.024754206 -0.00089112663 -0.0232084 -0.013618655 0.0043005203 -0.01659004 0.0022747035
0.008397036 -0.025340779 -0.011391951 0.007255867 -0.01499317 -0.0016146122 0.01760053 0.024908276
-0.019399455 -0.030939817 0.0097609935 -0.010071679 -0.026488734 -0.009426832 -0.01716145 -0.016551027
0.0052006026 0.0030168896 -0.014005607 0.004608909 -0.022451794 0.002181451 0.0040571704 0.011877571

fc3.weight f4 [2, 32]
00000000: b6ef 6f3e b999 b23e dcb0 093e 215f 75be
00000010: 7ee7 9b3e 80c6 e93d 6975 c03e 1e13 49be
00000020: 031b a23d 3120 4fbe 2297 793e 576b b53e
00000030: 4b8c bfbd f53e f13d ae3d 5ebd f7f3 053e
00000040: e1ae 65be 19a1 0b3e b955 2b3e ce4e c0be
00000050: be4f b8be 1d70 35be eee7 13bf c835 46be
00000060: ae6e b83e b5b2 4f3e 62f4 d4bb 8abf 993e
00000070: 396e 8abe 4dfc 023f 300c a2bb c3f3 523d
00000080: ac1a 79bd 64ef 0c3e 9660 c53e 36a9 9a3d
00000090: 375e d53e 969c 63be 48eb 903e 4c97 e4bd
000000a0: 9f99 69be 98ab 8d3e ed39 d33e 0374 993d
000000b0: 097d a93e dd86 0cbe 08e1 1cbe 258a 473d
000000c0: 4406 30bd a4ce fc3d 242c 57be 1bb7 05be
000000d0: 95b8 d43d 5973 49be be9d 58be 6237 503d
000000e0: 7623 2a3e 388e b1be d225 da3d a96e 56bd
000000f0: 9135 65be 7b54 293e 6bbb ebbd 660b 98be
0.23431286 0.34882906 0.13446373 -0.2396207 0.30450052 0.11414814 0.37589577 -0.19636199
0.07915308 -0.20227124 0.24374059 0.35433456 -0.09352931 0.11779586 -0.05425804 0.13081346
-0.22429992 0.13635673 0.1673192 -0.37560123 -0.35998338 -0.17718549 -0.5777577 -0.19356453
0.36021942 0.20283015 -0.0064988593 0.30028945 -0.27037218 0.5116623 -0.0049453005 0.051502
-0.060816452 0.13763195 0.38550252 0.07551806 0.41673443 -0.22227702 0.28304505 -0.1116167
-0.22812508 0.27669978 0.4125513 0.074928306 0.33103207 -0.13723321 -0.15320218 0.04871573
-0.042974725 0.12344101 -0.21012932 -0.1305813 0.10386769 -0.19672908 -0.21153924 0.050834067
0.1661509 -0.34678817 0.10651745 -0.052351627 -0.22383715 0.16536133 -0.115103565 -0.29696196

fc3.bias f4 [2]
00000000: 1d38 413c 1c38 41bc
0.011793164 -0.011793163
