04_Models/20250809_012310_HBEA_LSTM_Classification/best_model.pth (torch, 855458 bytes, 47 tensors)

lstm.weight_ih_l0 f4 [256, 51]
000000 83 b2 13 be ca fd 73 ba 31 74 95 bc f1 c2 28 bd
       -0.14423566 -0.0009307532 -0.018243881 -0.041201536
000010 a5 77 13 3d 50 a8 ab bc 9c 2b 5a bd b0 66 e0 bb
       0.036002774 -0.020954281 -0.053264245 -0.006848179
000020 ef f7 44 bd ea 3d 34 39 72 81 96 3d ce 6a 0b 3d
       -0.04808801 0.00017189202 0.073489085 0.034037404
000030 aa 44 1c 3d f3 52 6c bd 4e 5c b2 3a 8a 01 a9 3d
       0.03815142 -0.057696294 0.0013607831 0.08252247
000040 fc e2 cb bd 0f 91 51 3c 3d 37 02 be 53 fc 86 3d
       -0.09955403 0.012790932 -0.12716384 0.06591096
000050 98 93 80 bd 3e ff 1f bd 5e bc 8b bc 5e d2 b3 3d
       -0.06278151 -0.039061777 -0.017057594 0.08780359
000060 12 33 3b bd 29 24 b3 bb ef 4d ff bd b1 5b 00 bd
       -0.045703 -0.005466957 -0.124660365 -0.031337444
000070 c4 92 c0 bd 53 5a 91 3d 1e a4 09 3b 42 39 98 3a
       -0.09402993 0.07097306 0.0021002362 0.0011613744
000080 7c 77 8e bd 6f db 8f 3d 13 cd 04 3d e3 ca c9 bd
       -0.069563836 0.070242755 0.032422137 -0.09853151
000090 53 74 c3 3c 69 20 27 bd 9a e7 19 bd 17 44 ac 3b
       0.023859179 -0.040802393 -0.037574388 0.0052571404
0000a0 1c 20 28 bd 84 2f fc bb a0 11 51 3c bf 40 91 3c
       -0.041046247 -0.007696094 0.01276055 0.017731069
0000b0 9b 7f a9 3c 96 1c 88 bb 9f 75 cb bd 8a 99 56 bd
       0.02069073 -0.0041537983 -0.09934544 -0.05239252
0000c0 13 07 64 3d 74 00 8b bd fa 31 7c 3c ed f1 47 bd
       0.05567081 -0.06787196 0.015392775 -0.048814703
0000d0 b1 fa 6c bc 5d 0f 15 3d ed 2c 74 3d 97 2a a6 bc
       -0.014464066 0.036391605 0.059613157 -0.02028398
0000e0 56 ed 12 be e2 eb 85 bc 40 7b b5 bd 4a e5 e0 3a
       -0.14348349 -0.01634783 -0.08861399 0.0017158177
0000f0 48 91 b2 bc 74 d4 ff 3d 94 70 a9 3d b8 3c 24 3d
       -0.021797791 0.12491694 0.08273426 0.04009697
000100 96 3e b8 bd 1e f5 1a bd 0a 0e a6 3a 68 22 24 bd
       -0.08996312 -0.03783142 0.0012668979 -0.040071875
000110 0a a9 38 bb 3a 0a 07 3d ab ff ec 3c b8 02 cf bb
       -0.0028176927 0.032968737 0.028930506 -0.006317463
000120 a0 e8 27 bd 75 51 21 3d 9c fd ca bd 9b 4e eb 3d
       -0.040993333 0.039384324 -0.099116534 0.11489602
000130 dd ee 63 bd 15 27 37 bd e4 a5 d1 bd 3b 9f 6c 3d
       -0.05564772 -0.044715006 -0.10236719 0.05776904
000140 9d 6c 87 3d 91 b0 27 3d dc f9 09 bd 05 dc 56 38
       0.06612513 0.04093987 -0.03368555 5.1226485e-05
000150 ec d8 f2 bb dc 29 d6 bd 5f 10 76 3d ae ee 2f bd
       -0.007411113 -0.10457203 0.060074206 -0.042952232
000160 37 df 92 bd 37 3b 4f bd d7 77 87 3d cf 09 05 3e
       -0.07171481 -0.05059358 0.066146545 0.12992023
000170 34 e0 9e 3b 67 a2 7b 3d e1 c0 a8 bb 54 d7 c5 3d
       0.0048485044 0.061434176 -0.005149946 0.09660211
000180 3f 48 6e 3c 13 4a 3b bd c3 67 11 bc 63 eb 1a be
       0.014543592 -0.04572494 -0.008874836 -0.15128855
000190 47 7e 3b bd 6f aa c5 3d ba 78 e6 bc 6e 41 54 bd
       -0.045774724 0.09651648 -0.028133739 -0.05182021
0001a0 30 42 6b bc 26 19 f9 bc 01 f7 57 be c3 7c 83 bd
       -0.014359042 -0.0304075 -0.21090318 -0.06420281
0001b0 ce 21 f7 bd 2f cf 64 bc e9 e8 03 bc 86 48 4d bd
       -0.120669946 -0.013965412 -0.008051136 -0.050117992
0001c0 e6 98 f3 3c 85 e4 be bd de ce 4c 3c f6 f1 f8 39
       0.029735994 -0.093209304 0.012500493 0.0004748252
0001d0 14 47 67 3d c9 bb 09 be 66 81 89 3d e5 ef 12 3c
       0.05646427 -0.1345054 0.06714134 0.008968328
0001e0 c0 09 12 bd 90 c6 3f bc e6 38 04 bc cd 6c ce bd
       -0.03565383 -0.011705056 -0.008070206 -0.10079346
0001f0 a1 7c 4a bd cc 61 eb bc 66 02 de bc 07 d8 e6 3c
       -0.04943526 -0.028733157 -0.027100753 0.028179182
000200 ff 63 0c 3e d6 3c 8d 3c f6 6e 6e bd da ea 2e 3d
       0.1371002 0.017240923 -0.05821129 0.04270444
000210 6d a9 7b 3d 10 f4 1f bd e0 87 4e 3c 8d 3c 09 bd
       0.061440874 -0.039051116 0.012605637 -0.03350501
000220 9a c6 80 3d fd e1 66 3d 6f 28 c2 bc 86 5f 88 bd
       0.0628788 0.056367863 -0.02370092 -0.06658845
000230 31 3f 26 bd 18 83 12 bd 2b 21 0d 3d 4b 98 3c bd
       -0.040587608 -0.035769552 0.03445546 -0.046043675
000240 ff 1d 6a bd f2 6c 7e bd 2d 24 c3 3c 14 cc 51 3c
       -0.057157513 -0.062115617 0.02382096 0.012805004
000250 ee 8d d7 3d e6 d7 e9 3c e2 1b 2b bd 7e c7 27 3c
       0.10525118 0.028545331 -0.041774638 0.010240434
000260 85 4e 8e bc 1d 30 9f 3c 02 80 46 bd 19 29 31 3d
       -0.017371425 0.019432122 -0.04846192 0.043252084
000270 0b 4f 17 bd eb 0c 92 bd db 52 2e bd 1c b5 9b bc
       -0.036940616 -0.0713137 -0.042559486 -0.019007258
000280 9c c5 9e bd ab 91 50 bd 64 c6 f6 3c 24 23 2f 3c
       -0.07752535 -0.05092017 0.030123897 0.0106895305
000290 70 03 f9 bc f2 95 02 3e 01 69 7d 3d 9d c5 f9 3c
       -0.030397147 0.12752512 0.061867718 0.030489737
0002a0 b3 85 22 3d 97 25 c6 3c 5b 65 78 3c e7 21 1f bc
       0.039678287 0.024187846 0.015160884 -0.009712673
0002b0 87 bb 5c 3d e2 46 91 3d ef 78 0e 3d dc 59 83 3b
       0.053889778 0.07093598 0.0347833 0.004008515
0002c0 a2 11 4a bd 91 3e 18 bd 08 ba 78 bd 60 82 05 be
       -0.049333222 -0.037169043 -0.06072429 -0.13038015
0002d0 30 f8 fb 3c 55 e9 92 bd 4f 8b 46 3d 89 0f 42 bc
       0.030757993 -0.07173411 0.0484727 -0.011844524
0002e0 60 af 57 bd f2 d6 27 3d dc 28 cc 3c 1d 0e b8 bd
       -0.052657485 0.040976472 0.024921827 -0.08987067
0002f0 df f6 a0 3d 8a 52 7e 3e 19 0a aa 3d 4b 2e 01 3e
       0.07859587 0.24836174 0.08302707 0.12615316
000300 f7 28 0a 3e e5 62 af bd 9e 45 db 3d 22 e3 18 bc
       0.1349219 -0.085637845 0.10706638 -0.009331496
000310 1e 73 28 3c 59 71 d6 bd 97 de a5 3a 98 b5 49 3c
       0.010281352 -0.10470838 0.0012654838 0.012311362
000320 fe 1c 40 bd cb 3f d4 3c d4 54 d6 3d b2 71 94 bd
       -0.04690265 0.025909325 0.104653984 -0.07248248
000330 e7 bd a3 bd 44 b2 63 3c 77 28 85 bd 0d a6 38 be
       -0.079952054 0.013897482 -0.06501859 -0.18032093
000340 66 93 46 bd 35 38 96 3c ba da 55 bc a1 f6 26 3d
       -0.048480414 0.018337348 -0.013052637 0.040762547
000350 9e d2 9c 3c 51 3e c9 3d fc ab 0c 3d 47 0f 94 3d
       0.019143399 0.09826339 0.034343705 0.072294764
000360 86 46 72 ba 6b 98 0f 3e a4 99 d4 bc 7a 13 6d 3d
       -0.0009242076 0.14022987 -0.025952168 0.057879902
000370 ee 54 28 bc c1 9c 82 3d 23 20 50 3c 36 49 b2 3c
       -0.010274155 0.06377555 0.0127029745 0.021763425
000380 a5 9d 80 3c 23 75 0e bd 51 d4 ae bc 53 aa 47 bd
       0.01570017 -0.03477968 -0.021341475 -0.04874642
000390 09 61 b2 bc 0c 18 14 bc c9 86 dd bd 37 4e b9 3c
       -0.021774786 -0.009038936 -0.10816724 0.022620304
0003a0 29 fb b8 3d f5 1b 80 3d b2 ca a1 3d b2 de 0a 3d
       0.0903228 0.062553324 0.07899989 0.033903785
0003b0 48 e8 80 bd 28 fe bb bc 05 19 a1 bc ab 3b 4c 3d
       -0.06294304 -0.02294834 -0.01966525 0.04986159
0003c0 31 ac 05 b9 d4 dc 72 bd 10 11 4b bd 88 9f 1c bd
       -0.00012748015 -0.05929263 -0.04957682 -0.03823808
0003d0 fe bc c3 3d 8c 64 29 bc bb e2 4e 3d 63 06 90 3d
       0.09557532 -0.010338914 0.050509196 0.07032468
0003e0 22 c7 23 3d 75 ec e7 3d 75 f5 fb bd 43 75 85 bd
       0.03998483 0.113243975 -0.123026766 -0.065165065
0003f0 37 bb 35 bd cc 0a 4b 3d fb 63 18 bd e1 22 a6 bd
       -0.044367995 0.049570844 -0.037204724 -0.081121214

lstm.weight_hh_l0 f4 [256, 64]
000000 bc f8 62 bd a0 59 7f 3d b9 7d 9f bd 98 5d 12 3d
       -0.055412993 0.062341332 -0.077876516 0.03573379
000010 0e 58 b6 bc 36 27 bb bb d2 d7 8d bc b7 ad 9d bd
       -0.022258785 -0.0057114614 -0.017314825 -0.07699149
000020 a8 a2 c4 3d 4b 70 63 3b 51 69 2c 3d c7 c0 0a 3d
       0.09601337 0.0034704383 0.042092625 0.033875253
000030 85 d3 59 3d 4c 37 fa 3d fa 96 f7 bd 3f 9f a5 3d
       0.053180236 0.12217578 -0.12089343 0.080870144
000040 09 b0 15 3c db 02 c2 bd c0 84 b3 bc a7 c1 bb bd
       0.009136208 -0.09473201 -0.021913886 -0.09167796
000050 a3 09 0a bd 42 6a 87 3c 06 18 7a bd f2 7f 7b 3c
       -0.033700597 0.01653016 -0.061058067 0.015350329
000060 d5 66 83 3d cf 69 9a bd 0d f7 18 3e cf 87 fe bc
       0.06416098 -0.07539713 0.14937992 -0.031070618
000070 91 fb 7b 3d 57 39 b2 3d fd 73 a1 3c 3d fd d4 bb
       0.06151921 0.08702343 0.019708628 -0.006499915
000080 d8 4e 1c 3d 15 0a 9c bd d4 08 75 bc 3d 0e 35 bd
       0.03816113 -0.076191105 -0.014955718 -0.04420303
000090 b1 c1 0e 3d 42 53 6e 3c 47 f2 b3 bd 8e 41 2b 3d
       0.034852687 0.014546217 -0.08786445 0.041810565
0000a0 f4 71 90 bc 4e cb 92 3d 90 f4 27 bd da 53 2e bd
       -0.017632462 0.071676835 -0.041004717 -0.042560436
0000b0 91 95 d6 3b dd 79 2f bd ce e5 83 bc 43 71 46 3e
       0.0065485914 -0.042840827 -0.01610079 0.19379143
0000c0 55 7a 82 bd 48 74 35 bd 9f ca 8c 3d be 36 7c bd
       -0.06370989 -0.044300348 0.068745844 -0.061575644
0000d0 02 3e 89 3d 12 12 c6 bd c0 86 02 3e 4f 4a e0 bc
       0.0670128 -0.096714154 0.12746716 -0.027379183
0000e0 8d b9 68 3b e9 1d 98 bd 44 a5 fd bd 03 10 3a bd
       0.0035510988 -0.0742758 -0.123850375 -0.045425426
0000f0 58 24 7e 3d 36 ad e7 bc e0 18 df 3c e8 8d 55 3c
       0.06204638 -0.028280836 0.027233541 0.013034321
000100 a5 21 ab 3d 8f e3 0a bd 07 06 a7 3d b7 76 86 3d
       0.083560266 -0.033908423 0.081554465 0.06565612
000110 a3 5b 97 3b d8 c7 05 3e 10 e5 f3 bd 24 41 3a bd
       0.0046190782 0.13064516 -0.119089246 -0.04547228
000120 77 a9 77 3d e7 d2 70 bd bd 5f c7 bc 5d 3c 16 3d
       0.06046435 -0.058794882 -0.024337644 0.03667866
000130 37 8d 82 bd 4a 4d 75 bc 8c 15 38 3d fe 65 24 39
       -0.06374591 -0.01497204 0.044942424 0.00015678254
000140 d9 7d ad bc 4b 1f 69 bc 7c fe e5 bc 4a 4a f7 3d
       -0.021178173 -0.014228652 -0.02807545 0.120747164
000150 9a 33 33 bd 01 76 d5 bd c9 5b 73 bd 07 15 80 3b
       -0.043750383 -0.10422898 -0.059413705 0.0039087567
000160 f0 bc 53 3d 4c 1b 65 bd 1f b1 61 3d 04 af c9 bd
       0.051693857 -0.055934235 0.055100556 -0.09847835
000170 30 ef 6c bd d4 d8 b4 3c 10 ec ae bd 00 94 fc bd
       -0.057845294 0.022076048 -0.08541119 -0.12332916
000180 d6 bb 79 ba 46 42 1a 3d a2 3e 1d 3c 58 0d 40 3d
       -0.0009526586 0.03766086 0.009597452 0.046887726
000190 d5 83 66 bb c2 f1 99 3d 12 83 d2 bc 03 96 3c 3d
       -0.0035173793 0.07516815 -0.025697265 0.0460415
0001a0 93 a9 b4 bd d2 98 5c 3e 24 dd 06 3e 36 8e 93 bd
       -0.08821406 0.21542671 0.13170296 -0.07204859
0001b0 ca 23 10 bd 34 9b be 3c b5 f8 87 3d 3e 22 6e 3b
       -0.03519038 0.023267366 0.06639234 0.0036336328
0001c0 cd 4f 8b 3d af 19 48 3d 0c 16 8d bd 33 58 ca 3c
       0.0680233 0.04885262 -0.06888971 0.02470026
0001d0 65 90 ab bd ff eb 18 3e 13 fb 33 3c 01 75 65 3c
       -0.083771504 0.14933775 0.010985154 0.014004947
0001e0 ce 92 7c bd 69 5c 19 bd 0b 3a 8c bd 65 29 de 3c
       -0.06166344 -0.037441645 -0.06847008 0.027119348
0001f0 40 92 49 bd c5 a6 25 bd b6 d7 e1 3c 1a a6 78 3d
       -0.04921174 -0.040442247 0.02756868 0.06070528
000200 e4 11 0e 3d d3 bc 12 3d 81 f3 7f 3d db cc 2d bd
       0.03468503 0.035824608 0.062488083 -0.042431694
000210 d9 70 14 be d1 b8 4a 3d 86 e2 a9 3c c6 52 6d 3d
       -0.14496173 0.04949266 0.020737898 0.057940267
000220 ed 55 11 3d fe f2 7b bc 0c 90 60 bd 41 de 0c bd
       0.035482336 -0.015377758 -0.054824874 -0.034391645
000230 76 d7 01 bb 11 53 c5 3c 91 ab 24 be ac eb 90 bd
       -0.0019812263 0.02408746 -0.16081072 -0.07076201
000240 f1 6b c7 3d 12 07 9b 3d 19 af 01 bc f2 89 f4 ba
       0.09737385 0.07569708 -0.007915282 -0.0018656834
000250 cc 3c c1 bd 0a ff 1e be 33 07 fd 3c bc 8d 98 3d
       -0.09435424 -0.15526977 0.030887222 0.07448909
000260 fe 96 00 3d 9d 93 bd bc 18 91 9e bd bc 90 3e 3d
       0.031393997 -0.023141677 -0.07742518 0.04652475
000270 83 3a 7a bd 9b 27 53 bd ff ef 28 3e ea 7b f7 bc
       -0.061090957 -0.051551443 0.16497801 -0.030210454
000280 cf bd be 3d a9 d2 fd 3b c1 5c 9f 3d 3c f4 3f bd
       0.09313547 0.00774606 0.07781363 -0.04686378
000290 9f 58 1e bd fb ba 38 bc 19 4c 25 3d c2 fb bd 3c
       -0.038658734 -0.011275048 0.040355776 0.023191337
0002a0 26 ae 14 3d d6 9a ca bc ba 9b 84 3d 4f fc 2c 3d
       0.036298893 -0.024732035 0.06475015 0.042232808
0002b0 7c 94 86 bd b4 6c d0 bc 51 9f 67 3a 76 de 28 bd
       -0.0657129 -0.025442459 0.00088356907 -0.04122778
0002c0 1e cf 53 3d f4 10 08 bd 61 8c 69 bc 98 af 12 3e
       0.051711194 -0.033219293 -0.01425466 0.14324796
0002d0 d8 a7 4d bb 4f 43 55 3d cf 38 4c bd d9 bb 88 bd
       -0.003138056 0.052066144 -0.049858864 -0.06676454
0002e0 0a fe 4e 3d 8a 16 89 bc 8c 97 0a 3d b5 24 e3 3c
       0.05053524 -0.01673438 0.033835933 0.027727464
0002f0 05 dd e2 bb 6d 88 7f bc 17 ac 59 bd 6b 97 f2 3b
       -0.0069233202 -0.015596491 -0.053142633 0.0074033043
000300 e5 8d 54 3d ec 30 4e 3d b4 cc c1 3d 15 a7 03 bd
       0.051893134 0.050339624 0.09462872 -0.032141764
000310 fe 35 6f bc bf 87 41 bd e5 f1 21 bd 3e 4c 77 bc
       -0.014600275 -0.0472486 -0.03953733 -0.015093861
000320 c6 6d a5 bd ac 38 34 bd 6f 7f 8e bd d4 69 01 bc
       -0.08077578 -0.04399936 -0.069579 -0.007898767
000330 7d 63 ee 3d 9b cb 71 bd e0 9e fa bd ec 48 7b 3d
       0.1164007 -0.059032064 -0.12237334 0.06134884
000340 0a 32 08 bd fd 5b e6 bd 82 1f ba bb 3d 94 0a 3e
       -0.033250846 -0.11248014 -0.0056800256 0.13533111
000350 e7 5d f5 3d b8 47 3d bd c0 fc 82 bd dc 77 c4 bd
       0.11980801 -0.046210974 -0.063958645 -0.09593174
000360 9c 51 e7 3c 5e d1 9f bd 06 c3 c7 bc 61 e5 17 be
       0.028237157 -0.078036055 -0.024384987 -0.14833595
000370 c0 dd 53 bd ea af bf 3c 4b fd b4 3b e4 29 02 bb
       -0.05172515 0.023399312 0.005523359 -0.0019861395
000380 5c 38 61 bd a4 fc 92 3d 21 bb d3 bd 7f fb e4 3c
       -0.05498539 0.071770936 -0.103384264 0.027951954
000390 c4 cc 5e bd 7a 1b a4 3d f9 fb df bd ff 73 72 3b
       -0.0543945 0.08013053 -0.10936732 0.0036995409
0003a0 98 98 23 3c a3 3b 90 bc 38 4c 66 3c ea ff 2f bd
       0.009985112 -0.017606562 0.014056258 -0.042968668
0003b0 ea 64 9a 3d c8 70 95 3b 86 f4 91 bd e9 28 43 bd
       0.07538779 0.0045605637 -0.07126717 -0.047646437
0003c0 43 0f 14 bb 56 15 90 bd 42 2f 48 3d 60 61 5a 3c
       -0.0022592105 -0.070353195 0.048873194 0.01332888
0003d0 e1 c5 00 bc 0c a8 f8 bc 78 b1 4f 39 e9 21 1e bd
       -0.007859678 -0.030353568 0.0001980717 -0.038606558
0003e0 7c 15 bc 3b 38 8e 8e 3d 62 78 91 3d 8e 58 5c 3d
       0.005739866 0.0696072 0.07103039 0.05379539
0003f0 16 85 71 3a 97 89 86 3b f2 45 b3 3b 84 a2 79 3c
       0.0009213252 0.0041057575 0.0054709846 0.015236501

lstm.bias_ih_l0 f4 [256]
000000 27 48 03 3f 57 da d1 bf c4 46 2b 3f 16 1f 88 bf
       0.5128197 -1.6394757 0.66904855 -1.0634487
000010 b4 68 b0 3f a7 26 0a 3f 84 26 cd bf d8 1a fc bf
       1.3781953 0.5396523 -1.6027379 -1.9695692
000020 9a 55 23 3e 3f ec cc bd 2f 56 ac 3f fd f9 1a 40
       0.15950623 -0.10005998 1.3463801 2.421508
000030 af 57 5f be 5f 10 3c bf 45 34 dc bc d2 ce 21 bf
       -0.21810792 -0.7346248 -0.026880393 -0.6320621
000040 ff 94 ee 3e b3 36 ae 3f 5d ae d4 3f 56 24 64 be
       0.4659805 1.3610443 1.6615711 -0.22279486
000050 2a 2d 9e bf 63 be a1 3d cc 55 d2 bf 55 08 71 be
       -1.2357533 0.078976415 -1.6432433 -0.23538335
000060 89 23 91 3f 77 a6 d9 3f 47 e6 6a be fa c4 8a bf
       1.133897 1.7003926 -0.22939406 -1.0841362
000070 f3 e7 53 c0 c1 94 6a bf 6e ea 25 40 38 7e b5 bf
       -3.311032 -0.9163323 2.5924335 -1.4179144
000080 c8 72 6a 3f 73 17 10 3f 5f 9a 80 bf 70 b4 23 3f
       0.9158139 0.5628578 -1.004711 0.639472
000090 2f fd 67 bf e2 d2 87 bf 9e c3 37 be 83 05 37 3f
       -0.906207 -1.0611231 -0.17945716 0.71492785
0000a0 07 03 37 bf 36 ed d9 3f fd d5 98 bf 05 57 cf 3e
       -0.71488994 1.7025516 -1.1940304 0.40496078
0000b0 b0 85 a2 bc d4 20 8d 3f 6e 48 2c bf ef 80 5d 3f
       -0.019839138 1.1025643 -0.6729802 0.8652486
0000c0 ca 11 61 3f 66 de 69 3d a3 ec 90 3f d4 1e 29 bf
       0.8791777 0.05709686 1.1322216 -0.66062665
0000d0 c9 d4 81 bf dd 40 a9 3f 4d b2 5d bf 57 e7 84 be
       -1.0143062 1.322292 -0.8660019 -0.25957748
0000e0 3c a7 e0 be 1d 89 06 be 91 eb d6 3e ca e7 91 3f
       -0.4387759 -0.13138242 0.41976598 1.1398861
0000f0 7d e7 c7 3f 4f 26 91 bf 18 08 2a bf b4 ba 3f 3f
       1.561752 -1.1339816 -0.664186 0.7489426
000100 3f 03 a7 3f 40 cb 66 3f 19 94 8d be de a3 b1 3f
       1.3047866 0.90153885 -0.27652052 1.3878133
000110 5a b0 31 3f 58 e4 5d bf 6b 93 98 3d 68 84 aa 3e
       0.69409716 -0.8667655 0.07449993 0.33304143
000120 6d e0 df be 18 1d 51 bf b1 ba 62 bf 81 44 a8 3e
       -0.4372591 -0.8168502 -0.8856612 0.32864764
000130 3b 5b d3 bd 4b 1d 48 3f 11 11 0f 3d f4 4c 84 3e
       -0.10320135 0.781697 0.034928385 0.2583996
000140 9e 73 b1 bf 11 c8 f8 bf 2d eb 97 3f 73 f1 67 be
       -1.3863409 -1.9436055 1.1868645 -0.226507
000150 fe 0e 6b 3d f9 a1 f7 bf 0b a1 2e 3e be 2f 2c 3e
       0.057387345 -1.9346305 0.1705362 0.16815087
000160 4e 8a 8b bf dd a6 9c 3f 7a ba e0 be 1d 07 34 3f
       -1.0901582 1.2238423 -0.4389227 0.70323354
000170 60 46 91 3e 36 8d 3a be c1 25 01 bf 3c 23 c2 3f
       0.28374004 -0.1821793 -0.5044823 1.5167003
000180 ea f1 c3 be 65 9f 98 3f fa 07 b5 3f df d5 0e bf
       -0.38270503 1.1923643 1.4143059 -0.5579509
000190 7d c0 20 3f ab e3 04 40 5c be 10 bf 81 c7 bf be
       0.62793714 2.0763958 -0.56540465 -0.37456897
0001a0 0d 6d 09 be 0a 48 96 bf 3b f3 9e 3f 49 ce 3b bf
       -0.13420506 -1.1740735 1.2417978 -0.7336164
0001b0 56 01 80 3f 21 dc 4c 3f 4e 36 f2 be 84 67 2b bf
       1.0000408 0.8002339 -0.47307056 -0.6695483
0001c0 5e a1 87 3f 61 a0 73 be f9 7e a4 bf 46 76 3d 3e
       1.059612 -0.23791648 -1.2851249 0.18502149
0001d0 69 39 28 3d a7 94 d4 bf 92 12 81 be e3 d7 45 be
       0.041070376 -1.6607865 -0.2520948 -0.19320635
0001e0 7a b4 67 3f dc 4f 63 bf 3e 05 ae be a4 60 96 bf
       0.9050976 -0.8879373 -0.33988374 -1.1748242
0001f0 f6 e9 c6 be 16 a7 c8 be 06 f0 d1 bf 85 a5 fd 3e
       -0.38850373 -0.39189976 -1.6401374 0.49540344
000200 35 a0 f4 bf 27 47 d9 bd 83 f9 a3 3d b4 da ce 3d
       -1.9111391 -0.10609274 0.08006575 0.10100308
000210 e0 d6 4f bf b6 2f ab 3f e9 8d 07 bf 95 c4 b6 be
       -0.8118725 1.3373935 -0.5295091 -0.35696855
000220 5b 81 7b be c9 4f 32 be ed 61 94 3f df 30 c9 bf
       -0.24561064 -0.17413248 1.1592385 -1.5718039
000230 dc d3 c1 3f b5 0c 1c bf 0a f2 9d 3f 5c 1d ba 3d
       1.5142779 -0.6095689 1.233949 0.09087631
000240 66 a2 30 3f 4c eb 02 bf a0 64 b8 3e 3c fd 0a 3f
       0.689978 -0.51140285 0.3601427 0.54292655
000250 5d e9 27 c0 46 fd 0a 3f 13 99 e3 3f 73 ab bc bc
       -2.6236184 0.54292715 1.778109 -0.023030972
000260 ea 99 f0 be 89 85 8d bf 19 aa ce bd bb b9 42 3f
       -0.46992427 -1.1056377 -0.10091037 0.7606465
000270 f6 33 96 bf 84 b0 27 bf 54 1d a1 bf a3 7d ea be
       -1.1734607 -0.65503716 -1.2587075 -0.45798978
000280 06 31 e7 bf 9f 74 e0 3e 31 b8 9e bd f0 86 e5 3e
       -1.8061836 0.43838975 -0.077499755 0.44829512
000290 d8 96 90 3f 34 81 b6 bf a7 91 a3 bf 41 40 f3 be
       1.1296034 -1.425818 -1.2778825 -0.4750996
0002a0 9a 87 8e bf 10 df e5 3e 3e 54 60 bf 6b 0f a2 bd
       -1.1135132 0.44896746 -0.87628543 -0.07913097
0002b0 a3 f3 9d be 07 ea bd 3d b1 f3 d4 3e 30 33 66 bf
       -0.30849943 0.09273153 0.41592172 -0.89921856
0002c0 3b 24 c9 3f 21 6b a8 bf bb 96 a4 3e 1c 40 e9 be
       1.5714182 -1.3157693 0.32146248 -0.45556724
0002d0 b8 fa e2 3f f1 e2 21 3e 42 51 a2 3f ac 3e e7 be
       1.7732763 0.15809228 1.2681048 -0.45165002
0002e0 de ab 7b 3f e2 a7 06 c0 4d 90 08 3f e8 2e 55 bf
       0.98309124 -2.1039968 0.53345186 -0.832747
0002f0 4f 0a 17 3e 3a 23 71 bf d5 69 78 bf 77 95 a6 bf
       0.14750026 -0.94194376 -0.97036487 -1.3014363
000300 3c f9 84 3f d2 1d 7f 3f 6c 3f 5c 3f 72 37 17 3f
       1.038856 0.9965488 0.86034274 0.5906898
000310 e8 6f 08 3f 84 fa 76 bf 84 9a cb bf b8 3a 7b bf
       0.53295755 -0.96476007 -1.590653 -0.9813647
000320 24 9f 86 3f af d9 73 bf a7 68 13 3f 9e 85 73 3f
       1.0517316 -0.95254034 0.5758156 0.9512576
000330 4f 28 00 bf 42 00 6e 3e 4c d3 ab bf 95 82 8d be
       -0.50061506 0.23242286 -1.3423858 -0.2763869
000340 ef e7 5e bf 61 be 80 3f ec 9f d6 3e eb 88 41 bf
       -0.8707265 1.0058099 0.41918886 -0.75599545
000350 87 a4 03 c0 1c 72 dc bc 4c e6 3c bf 0f bf 87 3e
       -2.056917 -0.02690988 -0.73788905 0.26512954
000360 bf a3 95 3f b2 f0 d3 3f 46 b0 cd bf 11 a4 c2 bf
       1.1690596 1.6557829 -1.6069419 -1.5206319
000370 14 37 ac be 2e db 3c be 16 74 b4 bd fd c4 07 3f
       -0.3363577 -0.18442985 -0.08811204 0.53034955
000380 0d d3 fc 3e 8b a6 4e bf c3 c4 29 bc c9 1e d4 3d
       0.4937977 -0.80722874 -0.010361853 0.10357434
000390 31 44 55 bf ce 3f 91 3d b6 83 cc 3f 98 9d af be
       -0.83307177 0.07092248 1.5977695 -0.34299922
0003a0 ed ff ce bf 12 b6 02 c0 93 9a d3 3f 3f 45 78 bf
       -1.6171852 -2.0423627 1.6531547 -0.9698066
0003b0 ba 16 eb be 95 90 d1 be ea f7 d3 be fb c7 75 bd
       -0.45915776 -0.4093062 -0.4140008 -0.06000517
0003c0 f5 0f 9a 3f c4 58 5b be 6b 1e 7a be b7 54 44 bf
       1.203612 -0.2142058 -0.24425666 -0.76691765
0003d0 1b 38 9c bf 19 9f 4f 3f c0 bf 37 bf 24 de 02 40
       -1.2204622 0.8110214 -0.7177696 2.0448084
0003e0 2a c4 ac be 69 15 22 3e 9b 3c 83 3f 6f a5 e2 3f
       -0.3374341 0.1582848 1.025287 1.7706736
0003f0 a3 00 8b bf b4 d0 25 3f 29 02 0a 40 d8 78 84 3f
       -1.0859569 0.6477158 2.1563818 1.0349379

lstm.bias_hh_l0 f4 [256]
000000 7b 6c bb 3e 34 ff 6d bf ec a3 d9 bf a0 32 f0 bf
       0.36606202 -0.92967534 -1.700315 -1.876545
000010 b0 32 0b 3f 82 2e b4 3f c2 cb 2e bf 4e c9 24 bf
       0.5437422 1.4076693 -0.6827966 -0.64369667
000020 d4 bb 2e 3f ab a5 2a 40 8f f5 39 bf dd a7 8c 3f
       0.6825535 2.6663616 -0.7264032 1.0988728
000030 42 d2 27 bf be 51 93 3e 05 7d c1 3f 31 a6 6b 3f
       -0.655552 0.28773302 1.5116278 0.9205046
000040 53 13 3f 40 b5 f0 8e 3f 5b c1 05 3e 4e 05 74 3e
       2.9855545 1.1167208 0.1306204 0.23830149
000050 1a 70 e6 be e8 12 79 3f 84 fe 38 3f 02 3a 99 bf
       -0.45007402 0.97294474 0.7226336 -1.1970828
000060 86 50 28 c0 15 14 09 3f 6b df 16 3f 11 ff 94 3f
       -2.6299148 0.5354627 0.5893466 1.164034
000070 1d 65 73 bf c0 54 d1 3e a3 2f bb 3d e4 d4 59 3f
       -0.9507616 0.40884972 0.09139945 0.8509047
000080 1f 6f 9e bf c9 20 9a bf 56 65 87 be 02 87 d3 be
       -1.2377661 -1.2041255 -0.264445 -0.4131394
000090 da d5 28 3f 89 15 b0 bd 5e 11 12 40 2e 29 ea 3c
       0.6595131 -0.085978575 2.28231 0.02858409
0000a0 f6 83 fc 3e 5e f7 29 3f be 18 0c bf 61 42 b5 3f
       0.49319428 0.6639308 -0.54725254 1.4160882
0000b0 33 87 cc bf 3c 64 c8 3e 60 53 f4 3e 4f 3d 39 3f
       -1.597876 0.39138973 0.4771986 0.72359174
0000c0 87 98 04 c0 16 6e 03 c0 79 37 b2 3e b0 a0 4b c0
       -2.0718095 -2.053594 0.34807947 -3.1816826
0000d0 a1 f0 7c 3f 8c 83 8f 3f 0f f1 13 bf 9f 07 d2 bd
       0.9880467 1.121202 -0.577897 -0.1025536
0000e0 fc e5 bf be 79 ef 14 3d 33 79 91 bf 87 61 c6 3f
       -0.37480152 0.03636119 -1.1365112 1.5498513
0000f0 67 be ac 3f c3 3a 70 3e 66 5f c5 bd c3 43 2a 3f
       1.3495606 0.23459916 -0.096373364 0.66509646
000100 be a1 08 c0 fb b3 8f 3f 6b df a0 3e e0 37 2a 3f
       -2.134872 1.1226801 0.31420454 0.6649151
000110 32 47 16 bf 35 c0 ef bf 29 fc a8 bf c5 67 f2 3e
       -0.58702385 -1.8730532 -1.3201953 0.47344795
000120 9f 45 f1 3e 3b 10 41 3f be 35 4c 3e 63 4a bc 3d
       0.4712343 0.7541539 0.19942376 0.09193876
000130 75 ea e5 3f f8 68 a3 bd ce 88 da 3f d8 45 73 bf
       1.7962176 -0.079790056 1.7073 -0.9502845
000140 f1 fb 8f bf ac 1e 3c bf 8f 90 af bf 02 76 43 be
       -1.1248761 -0.734843 -1.3715991 -0.19087985
000150 fb bb 06 3e 9e 8a 18 bf 6e f8 ce be f5 91 1a 3d
       0.13157646 -0.59586513 -0.40423912 0.03773685
000160 9e bc aa 3d 58 95 af bf ee 2b 8f 3f a8 ea 54 3d
       0.08336757 -1.3717451 1.1185281 0.0519816
000170 f0 d0 8d 3f 52 45 2b 3f db e4 07 3f 5f a7 d0 be
       1.1079388 0.6690265 0.5308358 -0.40752694
000180 c3 69 5d be fc 84 11 3e 22 a0 a1 be 7c ea 75 bf
       -0.21622376 0.14210886 -0.31567484 -0.9606092
000190 7d d4 d1 bf 78 35 c3 be a3 cb 94 bf 3a a3 3c 3f
       -1.6392971 -0.3812673 -1.1624645 0.73686564
0001a0 fc e4 7f 3f ea 7d 8d 3f 47 86 e8 be 20 4b 1e be
       0.9995878 1.1054051 -0.45414945 -0.15458345
0001b0 19 63 f4 3e 64 d8 07 40 ae 77 29 bf 9e 55 30 bf
       0.47731856 2.1225824 -0.6619824 -0.6888064
0001c0 c1 b9 39 3f 3c 26 ce be ed 4a ee bf ca 66 fb be
       0.7254906 -0.40263546 -1.8616616 -0.4910186
0001d0 c2 92 ee be 86 98 62 ba 9d 02 7e bf d8 96 66 bf
       -0.46596342 -0.00086439436 -0.9922274 -0.9007392
0001e0 59 bb 09 bf 29 71 e6 3f 40 50 0c 3f 5c 7c 01 bf
       -0.53801495 1.8003284 0.5480995 -0.5058038
0001f0 83 95 93 3f 3e ad fd bc 04 55 ae be 8b 54 a2 3f
       1.1530002 -0.030966397 -0.34049237 1.268205
000200 c8 43 3b 40 8e 65 b3 3e b0 3d 67 3e c2 4f 4b 3f
       2.926012 0.35038418 0.22582126 0.79418576
000210 15 29 6f 3d 64 98 d5 3d 3e da 90 bf 83 57 ae bf
       0.05838879 0.10429457 -1.1316602 -1.3620456
000220 a3 4a 1b be 57 ff fe 3e 91 4d 67 3e 03 27 5e bf
       -0.1516519 0.49804184 0.22588183 -0.8677828
000230 ea 64 d5 bf 2c 3f cd bf 46 50 99 bf 5e c4 a2 bf
       -1.6671422 -1.6034904 -1.1977623 -1.2716177
000240 1f 36 96 bf 42 0a 6c 3f 76 46 8a bf 94 04 59 3e
       -1.1735266 0.9220315 -1.0802753 0.21193153
000250 46 6e ec 3f f6 86 b5 3e e8 ab 95 3f a5 86 dd bf
       1.8471153 0.3545453 1.1693087 -1.7306715
000260 76 64 17 3e 66 48 9d 3e 88 8f ad 3f fb 88 24 bf
       0.14784417 0.30719298 1.3559427 -0.64271516
000270 35 78 25 bf 39 f1 b0 3e 6b cd 2d 3e 16 07 c7 3f
       -0.64636546 0.34559038 0.16972892 1.5549037
000280 c2 ca b2 bf c9 6c 3d 3f 87 ef ba bf c1 35 55 be
       -1.3968127 0.7399412 -1.4604348 -0.20821287
000290 9d 74 d6 bf 44 45 cb bf 40 70 9a 3f 03 fa 77 bf
       -1.6754338 -1.5880513 1.2065506 -0.9686586
0002a0 f4 02 7d 3f 99 3f dc bf e3 2e 61 3f fd 07 c1 3e
       0.9883263 -1.7206908 0.8796217 0.37701407
0002b0 8d da 7c be b2 4d a1 be 4d a0 b3 bf 30 3a d2 be
       -0.24692746 -0.3150459 -1.4033295 -0.4106002
0002c0 6c c7 88 be 55 56 08 40 8c 61 87 3e ca 93 f3 be
       -0.26714647 2.1302693 0.2644161 -0.47573692
0002d0 13 6b b1 bf 94 94 5f 40 06 a6 a8 be 7f 44 a2 3f
       -1.3860801 3.4934435 -0.32939166 1.2677153
0002e0 0f 27 64 bf de e8 18 bf b3 2d 44 3f 8f 07 a3 3f
       -0.891221 -0.5973033 0.7663223 1.2736682
0002f0 a2 a7 ff be b0 fd b5 be 13 08 eb 3c c4 67 65 3f
       -0.4993258 -0.3554511 0.028690374 0.8961146
000300 14 c6 c1 be fb 74 bf be d5 78 ea 3d a1 0a 5b 3f
       -0.37846434 -0.37393937 0.11448828 0.85563093
000310 0d f0 8b be 7e 55 a6 be 3a 88 48 be c2 19 46 3f
       -0.27331582 -0.324871 -0.19583216 0.77383053
000320 3b d7 a9 3f c3 24 c1 3f d7 c3 04 40 02 f5 ab be
       1.3268808 1.5089344 2.074453 -0.33585364
000330 f4 f0 73 3e e5 ce 04 be 9c b1 16 40 b4 19 6f be
       0.23822385 -0.12969549 2.3545904 -0.23349649
000340 44 b0 90 be 5f 8e 59 bf 6d fa 5a 3d c4 78 9d bf
       -0.2825948 -0.84982866 0.05346148 -1.230248
000350 78 15 b0 3f 56 ce 1f bf 0a d2 48 3f e6 14 cb bf
       1.3756552 -0.6242422 0.78445494 -1.5865753
000360 9a 56 ed be a8 29 12 bf 70 57 56 bd 57 e2 02 40
       -0.46355134 -0.5709481 -0.05232948 2.0450647
000370 a3 e9 63 bf c1 ab 2c bf 28 97 ec 3f 51 db b9 3e
       -0.89028376 -0.67449576 1.8483629 0.36300138
000380 85 59 ff 3d 58 73 3a 3f dc 96 01 be 38 04 37 be
       0.12468246 0.7283225 -0.12655205 -0.17872703
000390 0a 35 8a 3f a5 0c d0 bf 5e 80 b3 be 8d 4f c8 3e
       1.0797436 -1.6253859 -0.35058874 0.39123192
0003a0 f9 12 83 be 2a 75 9d bf 9e 4a 7c be ec 37 06 3f
       -0.25600412 -1.2301381 -0.24637839 0.5242908
0003b0 4d f8 90 3f 87 2d c3 be f2 11 cb be 90 dd b7 3e
       1.1325775 -0.38120672 -0.3966213 0.35911226
0003c0 cc 6a 72 3e 7e ce 23 3f 9b 84 86 be 4e 0b 0c 3e
       0.23673552 0.6398696 -0.26273045 0.13676187
0003d0 0b 73 a4 bd 51 f7 29 3f 7c 9d 5a bf a9 b0 88 3f
       -0.08029755 0.66393 -0.8539655 1.0678912
0003e0 ce 05 03 c0 cb a0 9c 3f b4 12 f6 3e 0a b9 32 40
       -2.0472293 1.223657 0.48061144 2.792544
0003f0 72 4e e2 3e d7 f6 b4 be 35 d5 05 c0 f6 bb 29 40
       0.44200474 -0.35344574 -2.0911381 2.6520972

lstm.weight_ih_l1 f4 [256, 64]
000000 8d 09 0d bc 70 e2 21 bd 0d 96 e5 bb a4 e0 e7 3b
       -0.008608234 -0.03952259 -0.007006413 0.00707634
000010 fa 4c 3d 3d 44 af 18 be 68 00 b8 3d a4 36 a4 bd
       0.04621599 -0.14910609 0.089844525 -0.08018234
000020 7c 5f 39 bc 4f e5 e5 bc 6c 5a 76 3d 88 17 4d 3d
       -0.011314269 -0.028063444 0.060144827 0.05007127
000030 3a c4 ea 3b 79 47 df 3d 87 62 d2 3d 12 33 7b bd
       0.0071645053 0.10902304 0.10272699 -0.061328
000040 68 65 3b bd bc 24 4b bd fb 13 fc 3c a1 47 ba 3c
       -0.045751005 -0.04959558 0.030771246 0.022739233
000050 7d b2 21 3d 42 0e e1 3c 66 31 cb 3c e2 76 0f bc
       0.03947686 0.027472619 0.024803828 -0.008756371
000060 f8 c7 fc 3d a7 8b a3 bd 8a 11 ac 3d 25 b1 b0 3d
       0.123428285 -0.07985621 0.08401783 0.08627538
000070 4f eb 16 be c8 dd ae bd d7 af 59 3d c0 de a6 bc
       -0.147382 -0.08538395 0.05314621 -0.020369887
000080 fc 61 26 3d 16 06 80 3d 4e 1d 4c bd 8b 6b 57 bd
       0.04062079 0.06251161 -0.049832635 -0.052592795
000090 e2 04 e8 bd 4f f7 a4 3d e9 9f 9e 3b cc 25 60 bd
       -0.11329056 0.08054983 0.00484084 -0.054723546
0000a0 12 01 0a 3d 87 2a ba bd 01 f4 a2 3d cf 64 54 3d
       0.033692427 -0.09090143 0.07956696 0.05185395
0000b0 50 9b f3 bc d8 a7 f6 bc dd c8 46 bc 0b 01 92 3d
       -0.029737145 -0.030109331 -0.0121328505 0.07129105
0000c0 3c 65 46 3c 8d dd 42 3b e0 c4 b1 bc 6c de 70 3c
       0.012109097 0.0029734105 -0.021700323 0.014701467
0000d0 73 ea 22 bd 90 70 10 3d 68 fb 11 3d 1c 63 bb bd
       -0.03977437 0.035263598 0.03564015 -0.09149763
0000e0 da 3d 89 3c 28 d0 2b bc 7e 22 e5 bd e8 88 d2 3c
       0.016753126 -0.01048664 -0.111882195 0.025700048
0000f0 1c a5 4e 3c 38 83 87 bd 7b cb 54 3c f6 f2 1d bc
       0.012612607 -0.06616825 0.012987967 -0.009640446
000100 51 b6 0a bc c6 5c 33 bd 93 2e 8e 3d 4a 22 b1 bd
       -0.008466319 -0.043789648 0.06942477 -0.08649118
000110 7d 7a e7 3d f6 f1 69 bd 17 0c 7d bd 5c f1 08 3e
       0.1130266 -0.057115518 -0.061779108 0.13373321
000120 70 f7 88 3d 1b d0 8b bd 12 29 cc 3d fc 9d ac 3c
       0.0668782 -0.06826802 0.09968771 0.021071427
000130 d7 2c 34 3d 33 7e c4 bd 29 b3 24 3d e5 c5 bc 3d
       0.043988075 -0.09594383 0.040209923 0.09217433
000140 86 81 c2 3d 5c bd 14 3b 1a e2 c6 bb b1 26 9b 3d
       0.09497361 0.0022695875 -0.006069434 0.07575739
000150 a2 b6 f1 3c f3 8a 8e 3d 21 56 60 3d 43 47 09 3d
       0.029506031 0.06960096 0.05476964 0.033515226
000160 d5 55 9e 3d 1a 9b 60 bd 12 83 74 bc 86 04 02 bd
       0.07731215 -0.054835416 -0.014923828 -0.031742595
000170 6e 2c 37 bc 35 94 b9 bc b9 da 0c bd c4 8c e4 3c
       -0.011180026 -0.022653678 -0.034388278 0.027899154
000180 f4 9e 19 3a 8f bb af bc e8 d9 f2 ba 79 76 64 3d
       0.00058601727 -0.02145174 -0.0018528076 0.055777047
000190 6b 0a a1 bb b0 cb 15 be dd fa df 3d 2a de 00 bd
       -0.004914572 -0.14628482 0.1093652 -0.031461872
0001a0 ad 2a 4b 3d e1 d7 a1 3d 06 da 25 be 42 03 2f bd
       0.049601246 0.07902504 -0.1619645 -0.042727716
0001b0 51 82 ec 3c c0 6f 97 bd e5 83 0c bd d5 b9 e4 3d
       0.028870733 -0.073943615 -0.034305472 0.11168257
0001c0 87 3a b2 3d ee 91 66 3d 50 86 84 bc 7c 93 02 3d
       0.087025695 0.056291513 -0.016177326 0.031878933
0001d0 8d f2 1f bc 64 16 5d bd 21 76 e0 bc b3 64 f2 3c
       -0.009762418 -0.05397643 -0.027400078 0.029589033
0001e0 55 bc 18 3e d3 8e 8a bc 18 9f 48 3d 29 90 7b bc
       0.14915593 -0.016913807 0.04897985 -0.015354195
0001f0 df 71 10 3d 08 98 af bd 43 20 c4 3c 64 58 2d bd
       0.035264846 -0.085739195 0.023941165 -0.042320624
000200 db 62 c1 3d 79 b2 82 bd c6 aa a0 bd c7 c6 fa bc
       0.09442683 -0.06381697 -0.078450724 -0.030612363
000210 c8 34 32 bd 0a 80 ff 3c 7f 0f 8b bc a3 41 ff bd
       -0.043507367 0.031188983 -0.016975163 -0.12463691
000220 08 f4 b4 3d da 99 61 bc 36 74 28 ba 86 8b 4b bc
       0.08835608 -0.013769591 -0.0006426008 -0.012423402
000230 86 16 5a 3c 93 90 05 bc 5b 59 81 bd 17 40 34 bc
       0.013311034 -0.008152145 -0.06315871 -0.011001608
000240 96 a0 81 3d 1f 90 61 bd 66 77 60 bd 88 9c 3c bb
       0.063294575 -0.055069085 -0.054801367 -0.0028779823
000250 2e 9f 35 bd d6 ab b2 3c b9 78 26 3d 4d ad fb bb
       -0.04434126 0.021810453 0.040642474 -0.007680571
000260 d8 14 99 bd 5b e4 a5 bc 8b 3a d8 3c cd cc 76 bc
       -0.07474679 -0.02025049 0.026395103 -0.015063477
000270 ec f9 42 bc 8b 11 23 3e a2 a6 b6 b9 9e dd b7 3d
       -0.011900406 0.15924661 -0.00034837896 0.08977817
000280 86 00 64 bc d6 25 37 bc 6b bc 75 3d d6 c8 f0 3d
       -0.01391614 -0.011178454 0.059994143 0.117570564
000290 11 af ce bc 92 b8 cf 3c ab b4 c2 bc c9 68 1a bc
       -0.025229963 0.025356565 -0.02376779 -0.009424397
0002a0 76 da 03 3e d2 e9 9a 3d 7e 4e 1b 3d a0 0d b2 bd
       0.12876305 0.07564129 0.037916653 -0.08694005
0002b0 af 3c 8a bc 63 2f 3f bd 92 f0 f5 3c 0c cd f8 39
       -0.01687464 -0.04667605 0.03002194 0.00047455018
0002c0 1e 25 c8 3b 12 fa 8e bd 52 bf 6f 3d 2e 74 25 bd
       0.0061079403 -0.06981291 0.058532067 -0.040394
0002d0 ed 36 bc 3c 6a de ab bd f9 ba d2 3d cc 41 5c 3b
       0.02297541 -0.083920315 0.102895685 0.0033608554
0002e0 5e c9 a0 bd b3 d8 3d 3c 1e 71 7d bd 2a b8 8a 3d
       -0.07850908 0.01158731 -0.061875455 0.06773408
0002f0 88 e0 49 bc 7e 61 e7 bc b0 76 99 bb 86 74 1e bd
       -0.012321599 -0.02824473 -0.004683338 -0.038685344
000300 a2 6f ce bd f5 b4 11 3d c9 29 31 bd 92 a6 5a 3a
       -0.10079886 0.035572965 -0.04325274 0.0008340861
000310 80 6a f4 3c 21 a9 0a 3d 04 14 15 3e 47 bc 72 3d
       0.02983594 0.0338527 0.14558417 0.059261587
000320 c7 9b 9a bd 23 94 f8 3c 43 25 42 3d 58 30 1f be
       -0.075492434 0.030344075 0.047398817 -0.15545785
000330 2f de 13 bb 40 91 c0 3d 32 d2 ac bc 8d db 8b bb
       -0.0022562852 0.09402704 -0.021096323 -0.004268116
000340 69 5e c2 bd f6 4b f3 bc f9 a3 a5 3d 4c 57 53 3d
       -0.094906636 -0.029699307 0.08087916 0.051596925
000350 3d 0f 08 bd 9f ac 8c 3d c0 55 97 bd cb 5f 27 3d
       -0.033217657 0.06868862 -0.073894024 0.04086284
000360 5a 4e 0e 3d 07 14 ea bd 82 0d 4c bb e2 b8 e7 3c
       0.03474269 -0.11429601 -0.003113598 0.028286401
000370 9a e0 ae 3c b8 fb 44 3b b0 7a 2e 3c 4c 9e 65 bd
       0.021347333 0.0030057263 0.010649368 -0.056059167
000380 b9 02 00 3d 88 26 11 bc 1d 29 78 bd 81 9f a9 bd
       0.031252597 -0.008859284 -0.060586084 -0.08282376
000390 8b 2e 82 bc 35 7d e3 3d a7 32 3a bd 61 0a 8b 3c
       -0.015891334 0.11107866 -0.045458462 0.016972722
0003a0 a6 47 8b 3d d4 be 97 3c 32 c8 03 bc 31 b4 37 bd
       0.06800775 0.018523611 -0.008043336 -0.04484958
0003b0 47 94 85 bc 9a 46 68 bd 71 71 44 bc 80 e2 0d bd
       -0.016306056 -0.056707956 -0.011989937 -0.034639835
0003c0 fd fa b4 bd 79 84 a3 bc 81 24 fa 3c 72 3c ef bc
       -0.08836935 -0.019960629 0.030534985 -0.029203627
0003d0 76 96 91 bd 30 e5 d3 bd 14 da 50 3a e9 85 d4 3c
       -0.07108776 -0.103464484 0.00079670665 0.02594276
0003e0 a1 35 a9 bd 78 82 29 bc a1 b5 41 bd ff 0f c4 bd
       -0.08262182 -0.010346048 -0.047292355 -0.095733635
0003f0 46 fd 6c bd f5 a9 2c bd 8e eb 8a bc 00 5c e8 bd
       -0.057858728 -0.04215427 -0.016958024 -0.113456726

lstm.weight_hh_l1 f4 [256, 64]
000000 26 79 31 3b a8 05 13 bd 50 23 89 3d da be b3 3d
       0.0027080267 -0.035894066 0.066961884 0.087766364
000010 a7 a2 8c 3c b5 24 cf 3c 15 8b 46 be 13 e8 a1 bc
       0.017167402 0.025286058 -0.19388993 -0.019763982
000020 05 f2 11 bd 9d 8d 16 3e b9 58 2a 3b e1 3c 2c 3d
       -0.0356312 0.14702459 0.0025992824 0.042050246
000030 da 9c 37 bc ea 15 23 bc 0e 08 7d 3d 3f bd 44 bd
       -0.01120683 -0.009953955 0.06177526 -0.04803204
000040 bf 3c a2 3b 4f be 53 3d 7e eb d2 3c db 26 be bd
       0.004951089 0.051695164 0.025747057 -0.09284755
000050 07 de 40 bd ca 5d 29 bc ed ee 8f 3d 72 ff 26 bd
       -0.04708674 -0.010337302 0.07027993 -0.040770955
000060 46 9b e0 bc e6 f2 1b 3d 1f 49 0e 3e 98 8b 9c 3d
       -0.02741779 0.038073443 0.13895081 0.07643813
000070 37 16 b1 3d 44 ad d7 3d f6 42 4c bd 50 41 89 3d
       0.08646815 0.10531095 -0.049868546 0.067019105
000080 26 b6 61 3d 91 f9 50 bd f2 37 ed 3c 94 de c9 bd
       0.05510535 -0.051019255 0.02895734 -0.098569065
000090 87 29 70 3d 7c c4 3e bc 1b 92 19 3e 86 48 c5 3a
       0.058633354 -0.011643525 0.14997141 0.0015051521
0000a0 b4 6f f0 3c c1 c6 69 3d 8b 8d f7 bb d3 ac 35 bd
       0.02935014 0.057074312 -0.007554715 -0.04435427
0000b0 fa c6 9f 3d 16 93 a5 3c d7 a6 1a 3d 2f d0 67 3d
       0.07801624 0.020211738 0.037756767 0.056595024
0000c0 78 07 54 3c 17 d1 24 3c 9d ee ba 3c a6 a7 15 3c
       0.012941234 0.0100596165 0.022818858 0.009134209
0000d0 0d 9c b0 bd 28 e9 9c bd b1 b9 4e bd 25 1f db 3c
       -0.08623514 -0.076616585 -0.050470058 0.02674825
0000e0 41 b8 b6 3b f0 d1 aa bc f7 dc 9f bc c7 d5 00 bd
       0.005576164 -0.02085206 -0.019514544 -0.031453874
0000f0 68 e2 4e bc 5b 9d 3e 3c d9 3f a8 3d 6b 91 0e bc
       -0.012627222 0.011634196 0.08215303 -0.0087016625
000100 fc 30 b5 bd 0d c8 87 bd 50 b5 83 3c fe 48 8e 3c
       -0.08847234 -0.066299535 0.016077667 0.01736879
000110 4b e6 0f bc b4 9d dc 3d 7b e6 83 3c a4 fc d6 bd
       -0.0087829335 0.10772267 0.016101113 -0.10497406
000120 19 d7 c3 3a 6e da 2e 3c ac b5 a9 3a 43 71 e5 bd
       0.0014941423 0.010672195 0.0012947819 -0.112032436
000130 57 47 15 bd f4 cc cf 3c da 95 57 bd cb 47 3f 3c
       -0.036444988 0.025366284 -0.052633144 0.011674832
000140 d5 72 88 bd db 69 d1 3d ab 5a 95 3d bc eb e5 bd
       -0.066625275 0.102252685 0.07292684 -0.112266034
000150 5a 2d c3 bd f5 6e 8b bc 4d 72 87 bd 64 af e6 bb
       -0.095301345 -0.017020682 -0.06613598 -0.007039951
000160 44 26 86 bd 8e 3b 11 3d c6 77 35 bd 09 64 bc 3c
       -0.06550267 0.035457186 -0.044303678 0.02299692
000170 af 2d 94 bd fa 3d a0 3d d5 a5 80 bb 09 69 07 bd
       -0.07235276 0.07824321 -0.0039260187 -0.033059154
000180 74 58 dd 3c a1 a6 4f 3d 2d 06 51 3d ac 45 05 be
       0.027019717 0.05069602 0.05103128 -0.13014859
000190 b3 ab b9 3d a3 9a 3c 3c 6d f6 38 bd cc 7e d6 bd
       0.09065952 0.011511478 -0.045156885 -0.10473403
0001a0 22 6f e3 bc 83 80 e0 bc 43 b8 27 be fc ca b0 bc
       -0.027762953 -0.02740503 -0.16378884 -0.021581165
0001b0 f3 6a 6d 3d 7c 21 ec bd f2 f7 ac 3d fc 6c 13 3d
       0.057963323 -0.11529824 0.08445729 0.035992607
0001c0 97 07 8d 3d cc ea a6 3d 19 22 72 bd 35 d2 3f bd
       0.06886213 0.08150253 -0.05911455 -0.04683133
0001d0 d5 01 75 3d 54 2a 9f ba 16 c5 60 bc 6a ba 26 be
       0.0598162 -0.0012143352 -0.013718864 -0.16282049
0001e0 ec 1c 71 3d 11 9f a8 bd f4 3b 90 3c fb 98 93 bd
       0.058865473 -0.082334645 0.017606713 -0.07206913
0001f0 e1 cb 8f 3d e6 da 8a 3c 62 77 26 3d c9 fb 6f bb
       0.07021309 0.016950082 0.040641196 -0.0036618582
000200 d4 d0 39 3d 63 1a 1c bd 66 69 09 3c b7 bc 29 bd
       0.04536517 -0.0381111 0.008386945 -0.041439738
000210 5b e5 aa 3d d2 1a c5 bb 3c af bb 3d 30 dd 4c be
       0.08344527 -0.00601516 0.09164283 -0.20006251
000220 71 a8 36 bc bd ce 95 bc 64 e8 8d 3d 96 ad 88 3d
       -0.011148558 -0.018287057 0.069290906 0.06673734
000230 ff 9a 8d bd 7f 23 1b bd 24 95 1a bd 0f 37 be 3c
       -0.06914329 -0.03787565 -0.037739888 0.023219613
000240 38 64 cd bd c6 9e fc bc d2 39 49 3d dc 56 ed bc
       -0.10028881 -0.030837428 0.049127407 -0.028972082
000250 f7 eb bf 3b 36 80 43 3c ea c3 55 3c 88 9c c0 ba
       0.0058569866 0.011932423 0.013047198 -0.0014695087
000260 92 87 46 bd 30 6b c2 bd e5 f3 a1 3c 28 8f a1 bd
       -0.048469134 -0.09493101 0.019769618 -0.07888633
000270 c4 f0 9c 3d df 8f d5 3d 74 d4 97 3d 36 f4 c6 bd
       0.0766311 0.10427832 0.07413569 -0.09714548
000280 dc a5 bd bd 37 21 ce 3b 26 10 39 3e 8f 7a f4 3c
       -0.09260151 0.0062905806 0.18072566 0.029843597
000290 7c 5a 1b 3d f6 72 d9 bd 54 3c 0c bb 06 e8 39 bd
       0.03792809 -0.1061763 -0.0021398263 -0.04538729
0002a0 d2 37 bb bc 49 be 5f 3d b6 f6 ce bd 87 1b 12 3d
       -0.022853766 0.05462483 -0.1010565 0.035670783
0002b0 92 62 b4 bd b5 a1 21 be a3 3b 0c 3b 12 02 f5 3b
       -0.08807863 -0.15784343 0.002139785 0.0074770534
0002c0 2a 54 cf bd 9a 49 d5 3d 23 ac 9c 3b f2 bb d5 bc
       -0.10123475 0.10414429 0.0047812625 -0.026090596
0002d0 09 63 b4 bc cd 86 df 3d fa 7c d9 3d c8 e5 f8 bd
       -0.02201988 0.10914383 0.106195405 -0.12153202
0002e0 c0 a8 09 3d c4 04 ad 3d bf a7 ac 3d 35 b5 41 3d
       0.0336082 0.084481746 0.084304325 0.047291953
0002f0 57 79 b4 bd 92 cf 86 3b 79 17 16 3d b0 81 f2 bd
       -0.08812206 0.0041141 0.03664348 -0.11841142
000300 fe cf 26 3d 0d e6 b8 3d 06 44 2a bc a9 7b db 3d
       0.0407257 0.09028254 -0.010392195 0.10716946
000310 b3 ff 21 3d 78 7d 02 bb 4c a8 6e 3c 5d b2 f2 3d
       0.039550494 -0.001991121 0.014566492 0.11850426
000320 36 57 95 3d 91 c9 9b 3c aa 5c 59 3d 40 a6 0d 39
       0.07292025 0.019017013 0.053066887 0.00013508741
000330 e4 87 35 bd f0 a5 4a 3d 76 58 6c bd 40 1f 67 3d
       -0.04431905 0.049474657 -0.05770155 0.056426287
000340 75 7d 0f 3e 0f 5f 5a bc 0b 2b db 3d 6c 89 0d 3c
       0.14012702 -0.013328328 0.10701569 0.008638721
000350 41 80 81 3c 97 91 e6 3c e2 85 54 b8 af 18 a0 bd
       0.015808227 0.028145595 -5.0669427e-05 -0.07817208
000360 66 4e cd bd 72 82 81 3d fa ee 60 3c d0 1b b0 3d
       -0.10024719 0.063237086 0.013728851 0.08599055
000370 da a6 26 3a 5d f5 4b bc 72 d7 a1 bc c4 c1 ee 3c
       0.000635726 -0.012448636 -0.019756053 0.029145129
000380 55 04 02 be 5c 49 3d bd 6f 7f 90 bd 71 68 8a bd
       -0.12696965 -0.04621254 -0.07055556 -0.06758202
000390 b6 08 83 3d 65 58 4e bd a4 54 44 3d ef 94 25 bc
       0.06398146 -0.05037727 0.047932282 -0.010106309
0003a0 60 12 91 bd e7 87 28 3d e1 59 11 bd f0 7f 25 3d
       -0.07083583 0.04114523 -0.035486106 0.040405214
0003b0 c0 a7 82 bb 40 55 8d 3c 7d 23 9a 3d b7 00 80 bd
       -0.0039872825 0.017252564 0.075263 -0.06250136
0003c0 2b dc 1b bd 71 a4 17 be a4 d5 7f 3d 14 e8 3b bd
       -0.038051765 -0.14808823 0.062459603 -0.045875624
0003d0 75 d3 55 3d 03 68 9d 3c 02 13 d0 3c 4d 8e 05 3e
       0.052203614 0.019214636 0.025399689 0.13042565
0003e0 3f 06 39 bd 7c 3f db bd ce b3 b6 3d 6c 24 91 3d
       -0.045171972 -0.10705468 0.08921014 0.07087025
0003f0 10 46 70 bc 09 23 c6 3c 39 d0 68 3d a2 f1 80 bc
       -0.014665142 0.024186628 0.0568392 -0.01574022

lstm.bias_ih_l1 f4 [256]
000000 e1 ad 2c 3e 6b aa ee be 73 f3 ca be 2e ee df bf
       0.16863205 -0.46614394 -0.39638862 -1.7494562
000010 ac 89 e6 3c 98 b5 ef 3e b6 f1 ab bf 25 a9 86 bf
       0.028141819 0.46818233 -1.3433139 -1.0520369
000020 73 5f 01 bf 93 bf 01 bf 74 69 f4 bc cf 5e 7c bf
       -0.5053627 -0.50682944 -0.02983544 -0.98582166
000030 2a 78 ae 3f 1d d8 d4 be 81 ba 9b bf 13 70 43 3f
       1.3630421 -0.4157113 -1.2166291 0.76342887
000040 df db 0c 3f 35 c2 56 3d 49 39 fb be 47 d2 78 3f
       0.55022997 0.052431304 -0.49067143 0.9719586
000050 25 a3 e9 3e d4 ee 53 3f 9f 0f 40 3f 26 aa f2 ba
       0.45632282 0.827863 0.75023836 -0.0018513843
000060 5b 4d b6 bf 95 e6 f7 bd e6 98 e8 3f f9 9f eb 3d
       -1.4242357 -0.12104527 1.8171661 0.11505122
000070 3b 2e 46 bf 91 a6 92 3e de 2f 8d 3f 58 42 b0 3d
       -0.7741429 0.28642705 1.1030233 0.08606404
000080 50 85 a1 be e4 e1 09 3e 0c 3b 4c be 1c 21 41 3f
       -0.31547022 0.13465077 -0.199444 0.75441146
000090 03 24 02 3f a5 87 3d 3e 79 6c d7 3e 3b 85 ec 3f
       0.508362 0.18508776 0.42074946 1.8478159
0000a0 4f 0f e0 be 20 8b 42 bf 02 7f 9a 3e ac 0d 86 be
       -0.4376168 -0.7599354 0.30175024 -0.26182306
0000b0 85 31 ce bf c3 5f fd be 99 54 41 3f ad 34 0e bf
       -1.6108862 -0.49487123 0.7551971 -0.55549127
0000c0 0e 8e 29 bf da cf a7 3e 29 58 c4 3f f1 e3 99 3e
       -0.66232383 0.32775766 1.5339404 0.30056718
0000d0 cb 34 2d bf 1d ed f6 be 9a 80 26 bf a5 6d 2a bf
       -0.6765868 -0.48227778 -0.6503998 -0.66573554
0000e0 b6 2a e3 3e 4e 36 a0 3e a3 5f a3 bf 02 8a 03 40
       0.44368523 0.3129143 -1.2763561 2.0552983
0000f0 06 eb 25 3d f8 4b 19 3f 01 86 93 bf 24 7b b3 3e
       0.04050734 0.59881544 -1.152527 0.35054886
000100 3b c5 4b 3f 89 27 9c 3d fd 42 04 c0 50 09 6f 3f
       0.79597825 0.07624728 -2.0665886 0.93373585
000110 d8 0b 10 be 5a c1 4f bf 93 8f d1 3f c9 0f b4 bf
       -0.14067018 -0.81154406 1.637194 -1.4067317
000120 40 49 c2 3f a5 e8 22 3c a3 86 67 c0 12 c6 d7 3e
       1.5178604 0.009943162 -3.6175926 0.42143303
000130 ce 3d f2 bf 4f b4 12 bf 4f e6 69 3f e7 28 c5 bf
       -1.8925111 -0.5730638 0.9136705 -1.5403107
000140 69 0c 58 3f 4b cb 49 bf 24 2a f3 3e f6 a2 ae 3c
       0.84393936 -0.78825825 0.47493088 0.02131794
000150 27 e2 42 3f 80 8b 7d 3f fa 9a 8f 3e 9b e5 df 3d
       0.7612633 0.99040985 0.28047925 0.10932466
000160 f7 c1 d4 3f 50 4d 64 bf 57 e2 53 3c 73 db ff be
       1.6621693 -0.8918047 0.012932382 -0.49972114
000170 8b 8b 6f be 34 11 c8 be 51 db b6 3e 67 cb 1f 40
       -0.23393075 -0.39075625 0.357142 2.4967897
000180 b7 bc 98 3e 35 16 27 bf 92 94 85 be 0a 38 ac bf
       0.29831478 -0.6526826 -0.26089913 -1.3454602
000190 de db 83 bf f1 ea 93 be b6 65 98 bf 32 9a 22 be
       -1.0301473 -0.28890184 -1.190604 -0.15879133
0001a0 56 4c 21 3f 83 35 0a bd 17 78 cf 3f 7d e3 5f 3f
       0.63007104 -0.03374244 1.6208524 0.87456495
0001b0 e8 30 98 bc bb 39 6e be fb cc 96 3f 63 11 93 bf
       -0.018578008 -0.2326421 1.1781305 -1.1489681
0001c0 1c 53 71 3f 2a 6d 07 bd ee 4f 2f be fd 37 25 3f
       0.9426744 -0.03306309 -0.17120335 0.64538556
0001d0 13 29 e2 3c db 5f 59 bd a8 a2 9e 3e 98 30 97 3f
       0.027607476 -0.05306993 0.30983472 1.1811705
0001e0 7a 0d 4e 3f 07 16 75 3f 48 30 c6 be a3 ef a8 3d
       0.80489314 0.95736736 -0.3870871 0.08248832
0001f0 c2 40 e8 be 73 05 30 bf 21 8d 1a 3e 9a 66 7e 3f
       -0.45361906 -0.68758315 0.15092899 0.9937531
000200 c7 f3 14 40 91 4a 8e 3e 3a b2 97 3e aa bd 30 3f
       2.327379 0.27791265 0.29628164 0.69039404
000210 7f 16 95 3f f7 c6 18 3e e5 99 45 bf 19 51 9b 3e
       1.164749 0.14919649 -0.7718795 0.3033531
000220 43 f5 2b bf c3 6f 8d 3e 90 84 af 3e 63 7d c3 be
       -0.67171115 0.2762433 0.34280825 -0.381816
000230 0b 92 95 bf 88 23 49 be d8 16 58 3e ad 6b ee bf
       -1.1685194 -0.1964246 0.21102464 -1.862661
000240 4e 3f 6a 3f 11 d9 5a 3e f5 8d c2 bf 78 7c fd be
       0.91502845 0.21371867 -1.5199572 -0.49509025
000250 83 af 62 3d 69 b1 44 be 3c 07 35 3f b6 43 10 40
       0.055343162 -0.19208302 0.70714164 2.2541327
000260 a9 bf 58 be d3 56 6f bf 5e 7d 73 3f 11 e1 f2 3f
       -0.21166863 -0.9349186 0.9511317 1.8974935
000270 3d 28 e4 be 70 cc 22 c0 16 a6 59 bf 2f 67 c8 bf
       -0.4456195 -2.5437279 -0.8501905 -1.5656489
000280 bc d9 ac be 5d 13 73 be 9b aa 89 3f ab 28 9d 3c
       -0.33759868 -0.23737855 1.075519 0.019184431
000290 84 82 a5 be 46 c0 d5 be 80 48 b3 3f b4 84 c2 3f
       -0.32326138 -0.41748255 1.40065 1.5196748
0002a0 d2 70 97 bf 41 79 b0 be 3f ac a9 be 63 db 82 be
       -1.1831305 -0.3446751 -0.33139226 -0.25558004
0002b0 1d ce a0 be 69 7e 7d bf 85 87 96 bf 08 0f a6 3f
       -0.31407252 -0.9902101 -1.1760107 1.2973337
0002c0 b6 eb a4 be 47 83 2f 3f bb ed 8c 3f 13 82 ae be
       -0.32211083 0.6855969 1.101005 -0.34083614
0002d0 35 14 f3 bd 6e 04 e0 3e 30 68 0f 40 5c 93 74 3e
       -0.118690886 0.4375338 2.240734 0.23884338
0002e0 37 87 26 40 99 ae fd be c8 52 ab 3f b6 9a 02 40
       2.6020029 -0.4954727 1.3384638 2.0406928
0002f0 f6 d1 24 be 84 06 c1 3e 15 c4 63 be 80 2d 5b 3f
       -0.16095719 0.37700284 -0.22242768 0.856163
000300 b5 f4 05 bf 0f 6e 98 3e d5 d2 d0 3f c4 6f a2 bf
       -0.5232652 0.29771468 1.6314341 -1.2690358
000310 a4 1f e7 be c7 cd 50 bf 95 2a ca bf 82 c3 49 3f
       -0.45141327 -0.8156399 -1.5794245 0.78813946
000320 b6 6c ca 3e be 21 06 3f 92 ca ec 3f 73 04 83 bf
       0.39536065 0.52395236 1.849932 -1.0235733
000330 39 a0 17 40 5a d3 58 bf 66 64 50 3f c4 57 a6 bf
       2.3691542 -0.84697497 0.81403196 -1.2995534
000340 3b 2a 0b 3f 34 7c 76 3f 3d 01 63 3f 56 96 d0 be
       0.54361314 0.9628327 0.88673764 -0.40739697
000350 f4 4b e4 bc 84 2a 8a bf f5 98 d5 3f 53 bf 28 3d
       -0.027868249 -1.0794225 1.6687304 0.041198086
000360 c0 54 b6 3f a8 98 f5 be 86 9d c5 bf 0a 3e 8d bf
       1.4244614 -0.4796803 -1.5438697 -1.1034558
000370 0f 08 09 bf 08 2f 50 bf 95 d8 fa bc a3 5a 76 3f
       -0.5352792 -0.81321764 -0.030620852 0.9623205
000380 f5 3b 53 3d 99 bc a0 3f 5e b6 01 bf 0c d9 76 bf
       0.05157085 1.2557555 -0.50668895 -0.9642494
000390 02 67 76 3f 75 be 87 3e c9 e4 85 3f 56 01 39 3f
       0.9625093 0.26512495 1.0460445 0.72267663
0003a0 f7 09 bb 3f c6 ff d5 bf f7 2f 48 3f 6a fb b3 bf
       1.4612416 -1.6718681 0.7819819 -1.40611
0003b0 f3 2d db 3d c4 22 09 3f fe 84 70 3f 95 1e 2c bf
       0.107021235 0.53568673 0.9395293 -0.67234164
0003c0 ce 11 b2 3f 5a fb ba 3e f1 52 d7 3f 00 5f bc 3e
       1.3911684 0.3651989 1.6822187 0.3679123
0003d0 bb cf cf 3f b5 19 0c 3e dc 2b 8e 3f 57 8c e9 3f
       1.6235269 0.13681681 1.1107135 1.8245953
0003e0 82 47 0c 40 db 32 a4 bf 14 28 31 3f fd 67 91 3e
       2.1918645 -1.282802 0.6920178 0.2839965
0003f0 1d 99 b3 3e a1 52 2e be f2 89 af bd ad dc d9 bf
       0.35077754 -0.17023708 -0.08571233 -1.702047
