04_Models/weekly_GDEA_base/best_model.pth (torch, 391349 bytes, 11 tensors)

lstm.weight_ih_l0 f4 [320, 50]
-0.035520237 0.1011678 0.04391828 -0.041570466 -0.008690914 0.06084959 -0.10813113 0.14684446
0.12075348 -0.03742443 0.08252248 0.05354824 0.1790283 0.14285266 0.057655398 -0.03276752
-0.03837051 0.10820364 0.006339458 0.06450926 -0.00022339734 0.045476507 0.10764671 0.021512307
0.14126618 0.15029764 -0.012512397 0.15981883 0.017312603 -0.0011829187 0.0013328841 -0.0109882485
0.06472061 0.19702256 -0.033940267 0.023130441 -0.0011006431 -0.035075188 0.055595327 0.069402486
0.071949124 0.041761912 0.005191504 -0.02246181 -0.08033932 0.064632475 0.044712953 0.032999087
-0.00644799 0.122916915 -0.057192527 -0.0759595 0.043715566 0.081235565 0.08445338 -0.08658574
0.08269583 -0.016496943 0.07190538 0.07513133 -0.11733875 -0.07408319 -0.10219252 -0.0817617
0.08635477 -0.0033919516 0.021603823 0.04197135 0.08277585 -0.07836915 -0.10933605 -0.00742698
-0.023063054 -0.019191947 -0.082928374 0.020233637 0.109635316 0.07698902 0.03751835 -0.03629191
-0.008277477 -0.044039346 -0.008781591 0.22005227 0.010269611 0.032381475 0.11394652 0.101726174
0.03661053 -0.0859009 -0.006719686 0.09850209 0.07265269 -0.06090426 0.019340018 0.13681139
0.008028634 -0.061312098 0.09310124 -0.061668977 0.009278902 0.17659111 -0.020474931 -0.12250756
0.100096025 -0.08610666 -0.022395045 0.08996117 0.15938611 -0.012975906 0.010068656 0.054289535
-0.012981102 0.1580242 0.060359105 0.18524142 0.022796353 0.034614235 0.13659379 0.14469653
0.013567233 0.114385076 0.005704774 0.113007694 -0.11978313 -0.006709258 -0.048180956 0.11905667
0.015515999 -0.19785394 0.025519442 0.07551047 -0.02624181 -0.09406526 0.058030963 0.13172726
-0.061658975 -0.15175217 0.07075974 0.114429414 0.014301787 0.14113511 -0.03970953 0.10055554
0.12691328 0.03740355 0.101325564 0.008670908 -0.045724403 0.12164107 0.07602772 0.097310945
0.08964554 0.054875515 0.12966259 0.104282975 0.077649705 0.14827845 0.120215096 0.0256669
0.053241964 0.07693185 0.12969024 0.025334593 -0.08832408 -0.018995494 0.13844714 0.093567565
0.054901086 0.12757322 -0.030205455 0.12482961 0.098241836 0.0005005819 0.0397562 0.06963073
-0.07313599 -0.13176431 -0.028764794 0.17950489 0.04409945 -0.041837994 -0.0445972 0.050906066
-0.009899499 -0.09431503 0.0553411 -0.02285422 -0.119082056 -0.05032433 0.10426196 0.19058625
0.006756089 0.135528 0.056109868 0.050382275 0.102019235 0.06464613 0.008979503 0.17485903
0.08214229 0.03178686 0.09292331 0.007390734 -0.03423091 0.080524266 -0.103138104 -0.022131134
-0.073747456 -0.027823633 0.10881534 -0.017125122 0.06560928 0.10015453 0.03944995 0.009559363
0.1142748 0.17833057 -0.021223439 -0.02321091 0.038814977 0.15390109 0.060170062 0.15138136
-0.076577745 0.109120555 -0.0040650796 -0.035875227 0.060833037 0.086222865 0.07930385 -0.019270347
0.010206748 -0.081686854 -0.08162171 -0.006454528 0.06436362 0.1208265 -0.049196072 -0.09541889
0.0033075307 -0.017970653 0.11887739 0.033628594 0.01678774 0.07207639 0.16891524 -0.044195175
0.09243977 0.08432548 0.01090698 -0.020207997 0.11217738 0.08046784 -0.10831802 -0.05014283
00000000: ab7d 11bd 1031 cf3d a8e3 333d cb45 2abd
00000010: 5664 0ebc 6b3d 793d db73 ddbd 655e 163e
00000020: 9a4d f73d 5c4a 19bd 8c01 a93d 6655 5b3d
00000030: 3253 373e f847 123e 1128 6c3d 3c37 06bd
00000040: 652a 1dbd df99 dd3d 3abb cf3b 6e1d 843d
00000050: c43f 6ab9 9345 3a3d e175 dc3d 943a b03c
00000060: 15a8 103e a0e7 193e cc00 4dbc 8ca7 233e
00000070: 29d3 8d3c 2a0c 9bba 2bb4 ae3a 0e08 34bc
00000080: 3d8c 843d 48c0 493e f304 0bbd 0d7c bd3c
00000090: 7443 90ba 00ab 0fbd edb7 633d e422 8e3d
000000a0: 105a 933d 8a0e 2b3d 7e1d aa3b d401 b8bc
000000b0: f188 a4bd 085e 843d ee24 373d 0d2a 073d
000000c0: a949 d3bb ddbb fb3d b642 6abd a890 9bbd
000000d0: 180f 333d d55e a63d e5f5 ac3d dd53 b1bd
000000e0: 6e5c a93d 9924 87bc 2143 933d 74de 993d
000000f0: 4c4f f0bd edb8 97bd 504a d1bd ae72 a7bd
00000100: c5da b03d 814b 5ebb 80fa b03c 26ea 2b3d
00000110: 6386 a93d 0180 a0bd 94eb dfbd 065e f3bb
00000120: bbee bcbc 6e38 9dbc 5ad6 a9bd 03c1 a53c
00000130: 7b88 e03d 6bac 9d3d d7ac 193d d3a6 14bd
00000140: 419e 07bc 9a62 34bd aae0 0fbc 6255 613e
00000150: df41 283c 70a2 043d cb5c e93d d055 d03d
00000160: ecf4 153d d0ec afbd d030 dcbb 77bb c93d
00000170: efca 943d bf76 79bd f56e 9e3c 4918 0c3e
00000180: 888a 033c 6522 7bbd ddab be3d 9c98 7cbd
00000190: 8906 183c 4dd4 343e 0bbb a7bc 3ee5 fabd
000001a0: 25ff cc3d b058 b0bd d075 b7bc 903d b83d
000001b0: 1d36 233e e598 54bc 01f7 243c b45e 5e3d
000001c0: b0ae 54bc 19d1 213e 1c3b 773d edaf 3d3e
000001d0: 6bbf ba3c a8c7 0d3d 3edf 0b3e 542b 143e
000001e0: 1a49 5e3c b942 ea3d 1def ba3b 9470 e73d
000001f0: dc50 f5bd 56d9 dbbb 6559 45bd fcd3 f33d
00000200: d136 7e3c 399a 4abe 260e d13c 3ca5 9a3d
00000210: 10f9 d6bc 49a5 c0bd e0b1 6d3d 83e3 063e
00000220: 1f8e 7cbd ec64 1bbe 7cea 903d f859 ea3d
00000230: 0b52 6a3c b985 103e 76a6 22bd 10f0 cd3d
00000240: 8ef5 013e 7734 193d c783 cf3d 6d10 0e3c
00000250: 8349 3bbd f41e f93d 6cb4 9b3d f64a c73d
00000260: 1598 b73d 26c5 603d 45c6 043e 5092 d53d
00000270: cf06 9f3d 4ed6 173e 5533 f63d 6443 d23c
00000280: 3f14 5a3d 728e 9d3d 85cd 043e 7e8a cf3c
00000290: 41e3 b4bd 709c 9bbc 16c5 0d3e 5aa0 bf3d
000002a0: f6df 603d 8ea2 023e 6e71 f7bc aba6 ff3d
000002b0: 0433 c93d 7c39 033a 66d7 223d 8e9a 8e3d
000002c0: 52c8 95bd 39ed 06be 25a4 ebbc 21d0 373e
000002d0: a0a1 343d 515e 2bbd 8eab 36bd e182 503d
000002e0: 8231 22bc 3d28 c1bd 59ad 623d c638 bbbc
000002f0: 4be1 f3bd e220 4ebd 4b87 d53d 0b29 433e
00000300: 2f62 dd3b dac7 0a3e 76d3 653d a55d 4e3d
00000310: 76ef d03d 3165 843d c41e 133c 3f0e 333e
00000320: 383a a83d f032 023d 944e be3d f82d f23b
00000330: b635 0cbd e8e9 a43d 123a d3bd 5a4c b5bc
00000340: e808 97bd 63ee e3bc 94da de3d fc49 8cbc
00000350: 285e 863d d11d cd3d 4596 213d e09e 1c3c
00000360: e808 ea3d 4a9c 363e c7dc adbc ce24 bebc
00000370: 74fc 1e3d 3f98 1d3e e274 763d b703 1b3e
00000380: cbd4 9cbd 997a df3d 5c34 85bb e7f1 12bd
00000390: 102c 793d 9d95 b03d 0f6a a23d d9dc 9dbc
000003a0: 343a 273c 704b a7bd 4829 a7bd 8180 d3bb
000003b0: 13d1 833d e273 f73d d281 49bd fb6a c3bd
000003c0: 28c3 583b 3137 93bc fd75 f33d 23be 093d
000003d0: 7186 893c c99c 933d 1ef8 2c3e 0006 35bd
000003e0: 1051 bd3d d6b2 ac3d 31b3 323c 3e8b a5bc
000003f0: 41bd e53d 53cc a43d d7d5 ddbd 9162 4dbd

lstm.weight_hh_l0 f4 [320, 80]
-0.080111094 -0.066391885 0.056949932 -0.0061556473 0.056082673 -0.15716518 0.15849097 -0.1562154
-0.084999785 0.046865035 0.06143156 -0.0006399271 0.13259207 -0.077539854 0.14618245 -0.0644522
0.08250822 0.063997775 0.1620194 -0.16074654 -0.00011432177 0.12164013 0.02337013 0.18047501
0.0063770544 0.13317794 0.027646838 -0.1589746 0.010171842 0.029930709 -0.10253675 0.059524395
0.11019608 0.03437898 0.21743424 0.087768264 0.1702954 -0.07488173 -0.05714576 -0.060339462
-0.038690273 -0.09656 -0.14361235 -0.09136761 0.025961056 0.18484475 -0.09902357 -0.008850586
0.050966594 -0.06939214 0.05111846 0.18451296 0.17942633 0.06302309 -0.19480394 0.06906717
0.19063611 0.062198002 -0.0716706 0.2028084 0.09555317 -0.08132635 0.018865073 0.19039351
0.11985977 -0.14071152 -0.06663543 0.121089935 0.084715314 -0.006751171 -0.007715855 0.08942236
0.06268961 -0.21147099 -0.086371094 -0.1070568 -0.07438688 0.047820996 -0.02597864 0.10773064
-0.12521347 0.010580054 -0.08706984 -0.03923797 0.050904185 0.03660441 -0.036795314 0.12390476
0.06443092 0.060649782 -0.049014416 0.13716307 0.0077489647 -0.019804934 0.07702449 -0.10149525
-0.096879415 -0.05526935 0.03866624 -0.016393691 -0.07332588 -0.06910149 0.08512306 -0.06775644
-0.08639999 0.111206025 0.016958544 -0.09047772 0.0050068623 0.10573332 -0.054827776 0.08995508
-0.037866615 -0.12642084 0.01183689 -0.021795798 0.035810545 -0.06490974 -0.029679101 -0.08643205
-0.024938902 -0.01403938 0.100445434 0.016421085 0.05667658 0.07618677 0.06831545 0.104374416
-0.05388016 0.06374731 0.050696354 -0.029450765 0.08883304 -0.06807902 -0.13637401 -0.24628991
0.063209 -0.07508406 -0.16179505 -0.08961509 -0.06617843 -0.014694108 0.06759989 0.035951775
-0.027435346 -0.16224912 -0.13497293 0.049462497 0.010715739 -0.0043990337 0.06462596 -0.039011348
-0.116125174 0.072288975 0.14448097 0.029942345 0.022986563 0.02621442 0.02659892 0.070384786
-0.032445535 0.06436403 0.060001403 0.022097558 0.013251057 -0.17026393 -0.006415715 0.06794394
0.037583854 0.004767143 -0.029089155 -0.08702317 0.011870749 0.081182465 -0.06604846 0.06126138
-0.07109933 -0.068427876 -0.058158517 0.092904516 0.1300149 0.11899213 -0.0050887344 -0.0014600471
-0.10585594 0.01933915 -0.025078483 -0.061848503 -0.07487801 0.12798634 -0.039405026 0.028500013
0.0077090766 -0.12983106 0.02723782 -0.03278352 -0.16774091 0.04229641 -0.1481277 -0.055858914
0.0065822448 0.060777355 0.05549693 -0.08763683 -0.03208629 0.22055496 -0.10634952 0.10498191
-0.048811674 -0.027899623 0.115299 -0.08253265 -0.13090453 0.08608602 0.13573144 -0.024174102
0.10652061 -0.075147875 -0.11790883 0.08787571 0.13517109 -0.010709593 0.10989684 -0.13640799
0.009018694 -0.11017497 0.11810583 0.20253964 0.06949645 0.07353552 0.05719647 0.13861124
0.028149618 0.10066172 -0.017796783 -0.015347194 -0.09508736 -0.17179513 0.031718347 -0.020296562
-0.06187929 -0.045623615 -0.16350088 -0.11110059 -0.10480745 0.04784299 -0.11302118 0.015498975
0.07595832 0.11454704 -0.019375842 0.076894395 0.073115245 -0.06640412 0.041620165 -0.11132175
00000000: 4911 a4bd 78f8 87bd 5544 693d 50b5 c9bb
00000010: f2b6 653d e9ef 20be 754b 223e eef6 1fbe
00000020: 5e14 aebd 8df5 3f3d a99f 7b3d c8c0 27ba
00000030: 37c6 073e 37cd 9ebd dab0 153e 84ff 83bd
00000040: 12fa a83d 4411 833d 6ae8 253e be9a 24be
00000050: 08c0 efb8 761e f93d b772 bf3c 71ce 383e
00000060: 9cf6 d03b cc5f 083e 9f7b e23c 3dca 22be
00000070: cca7 263c 3f31 f53c cafe d1bd dacf 733d
00000080: 7bae e13d f9d0 0c3d 15a7 5e3e d9bf b33d
00000090: eb61 2e3e 985b 99bd ac11 6abd 8326 77bd
000000a0: b179 1ebd 40c1 c5bd 1e0f 13be f11e bbbd
000000b0: 48ac d43c f147 3d3e dfcc cabd 0c02 11bc
000000c0: 59c2 503d 771d 8ebd 9761 513d f7f0 3c3e
000000d0: 89bb 373e 4012 813d af7a 47be 1773 8d3d
000000e0: 1d36 433e 55c3 7e3d 09c8 92bd 01ad 4f3e
000000f0: 61b1 c33d 6e8e a6bd ed8a 9a3c 84f6 423e
00000100: 0a79 f53d ae16 10be 2878 88bd 00fe f73d
00000110: 397f ad3d ed38 ddbb 48d5 fcbb 1223 b73d
00000120: 6963 803d da8b 58be 54e3 b0bd 9840 dbbd
00000130: 2658 98bd f3df 433d 28d1 d4bc e2a1 dc3d
00000140: f637 00be f657 2d3c ac51 b2bd feb7 20bd
00000150: e880 503d 81ee 153d afb6 16bd c7c1 fd3d
00000160: 5cf4 833d e86b 783d 57c3 48bd 7a74 0c3e
00000170: 07eb fd3b f53d a2bc 04bf 9d3d bedc cfbd
00000180: b768 c6bd 1d62 62bd 7e60 1e3d 104c 86bc
00000190: e12b 96bd 1585 8dbd 0055 ae3d e3c3 8abd
000001a0: 7af2 b0bd fcbf e33d a5ec 8a3c 624c b9bd
000001b0: 9b10 a43b b68a d83d 1793 60bd 5e3a b83d
000001c0: 061a 1bbd 7774 01be 84ef 413c 1a8d b2bc
000001d0: 14ae 123d 66ef 84bd 9621 f3bc 4903 b1bd
000001e0: ab4c ccbc 6d05 66bc 56b6 cd3d 8385 863c
000001f0: b425 683d cf07 9c3d f8e8 8b3d 41c2 d53d
00000200: 71b1 5cbd f38d 823d fba6 4f3d bb42 f1bc
00000210: 19ee b53d 036d 8bbd a1a5 0bbe 6c33 7cbe
00000220: b873 813d acc5 99bd 9aad 25be 1e88 b7bd
00000230: 8f88 87bd 8ebf 70bc d071 8a3d 2b42 133d
00000240: 17c0 e0bc a224 26be 5836 0abe 3099 4a3d
00000250: 1191 2f3c c525 90bb 9e5a 843d 5dca 1fbd
00000260: 09d3 edbd 3e0c 943d d2f2 133e a649 f53c
00000270: 514e bc3c a0bf d63c fae5 d93c e625 903d
00000280: 9ce5 04bd 4ad1 833d 08c4 753d f005 b53c
00000290: f61a 593c ab59 2ebe eb3a d2bb 3126 8b3d
000002a0: 87f1 193d b235 9c3b 614c eebc 3439 b2bd
000002b0: 887d 423c fe42 a63d 6a44 87bd 36ed 7a3d
000002c0: 879c 91bd ea23 8cbd a037 6ebd b944 be3d
000002d0: a022 053e 25b2 f33d 66bf a6bb 0d5f bfba
000002e0: 00cb d8bd 236d 9e3c 6471 cdbc db54 7dbd
000002f0: a459 99bd da0e 033e 2a67 21bd dc78 e93c
00000300: 6c9c fc3b 6ff2 04be d921 df3c 0348 06bd
00000310: 46c4 2bbe 003f 2d3d caae 17be 51cc 64bd
00000320: dfaf d73b adf1 783d c050 633d f07a b3bd
00000330: ea6c 03bd 29d9 613e c7cd d9bd c100 d73d
00000340: c0ee 47bd c08d e4bc e221 ec3d e106 a9bd
00000350: d60b 06be de4d b03d 2ffd 0a3e c408 c6bc
00000360: 7a27 da3d 21e7 99bd 2f7a f1bd 2ef8 b33d
00000370: 4a6a 0a3e 4a77 2fbc 9811 e13d 89ae 0bbe
00000380: 25c3 133c 6aa3 e1bd 78e1 f13d 8d66 4f3e
00000390: 2854 8e3d ca99 963d d946 6a3d 1bf0 0d3e
000003a0: 079a e63c bb27 ce3d 8fca 91bc cc72 7bbc
000003b0: 29bd c2bd 10eb 2fbe 19eb 013d fa44 a6bc
000003c0: 2375 7dbd d4df 3abd c66c 27be b588 e3bd
000003d0: 4aa5 d6bd 03f7 433d a677 e7bd 6aef 7d3c
000003e0: 0990 9b3d a397 ea3d 16ba 9ebc cf7a 9d3d
000003f0: 72bd 953d e2fe 87bd e879 2a3d a8fc e3bd

lstm.bias_ih_l0 f4 [320]
0.12517686 0.061257314 0.10204356 -0.010855941 0.021447586 0.119500905 -0.03648169 0.05650637
-0.08472732 -0.021860445 0.0014504897 0.04940167 0.08913285 0.16096501 0.067559145 0.021552812
0.106669575 0.09771531 -0.08025584 -0.052042726 0.14558117 0.15380642 0.000576047 0.037672903
-0.022342594 -0.05927858 -0.015370022 0.035552617 -0.0420593 0.12042625 0.07282097 -0.081769966
0.015523795 -0.08266234 -0.034873746 0.022163121 -0.01696435 0.06905043 -0.024553563 -0.106824085
0.041481044 -0.0322421 0.024564654 -0.10316205 0.03130351 0.046046786 0.0013336841 -0.0039149006
0.10056172 -0.009738021 -0.044246 -0.06052855 0.10766368 0.004305479 -0.0073163044 0.042124663
0.07837107 -0.083914064 -0.08474151 -0.07777101 0.097259745 -0.094127536 -0.0025893303 0.04091459
0.23086743 0.07442106 0.013873943 0.036833867 0.058713786 0.074548624 -0.008533571 0.0034867856
0.12802415 0.052587062 0.064290114 0.07484217 0.022600496 0.03805281 -0.12774655 0.121571355
-0.011333721 -0.025631357 -0.055173863 -0.02428512 -0.018160807 0.07552911 -0.09360006 0.09976633
0.047703598 0.058796275 0.09504745 -0.063026145 0.016586347 0.11598044 0.06470924 -0.0810547
-0.07156016 0.112624474 0.08161439 0.068438336 -0.05742532 0.028989261 -0.12034942 -0.02108061
-0.04107077 0.068901256 -0.036999736 0.18126771 0.07331114 0.04366065 0.01686217 0.044688385
-0.099749275 -0.089674406 0.12094259 0.00013976771 0.03469396 -0.0049459506 -0.041223988 -0.045716602
-0.11640703 -0.053377192 0.08034197 -0.03722672 -0.061975174 0.162098 -0.07383249 -0.003721343
-0.04095193 -0.04376402 -0.021164276 0.049898807 0.07560996 0.016874244 -0.1217794 -0.06896871
-0.07140359 0.032255296 0.0872673 -0.017571364 -0.019125152 -0.04897502 -0.086195156 -0.1189448
-0.12344832 0.023606261 -0.026387068 0.11109343 -0.006582638 -0.114298694 0.048486996 -0.08904196
0.013572154 0.090347275 -0.016110152 -0.09325984 0.119890034 -0.046499304 0.077520534 -0.08837831
-0.0088105 -0.111118004 0.024800383 0.06886208 -0.060935695 0.0033626147 -0.06251231 0.014666571
-0.095233634 0.046546333 -0.049714107 0.012576228 -0.036165584 -0.046801403 -0.06655766 -0.05426772
-0.08702607 -0.06041975 -0.03546782 -0.00022663717 0.039256606 -0.09147446 0.075779974 -0.00445869
-0.08474183 -0.055993546 -0.005271248 0.097614676 -0.13654323 -0.113611534 0.102871634 -0.007401456
0.025491815 -0.0072374316 -0.020037424 0.08466442 0.01714672 -0.024195228 -0.06745622 -0.02294115
0.004838116 -0.050645333 0.061942928 -0.05670275 0.06964668 -0.079912394 -0.022537852 0.10567665
0.022237344 0.03345812 -0.01883943 -0.07038856 0.028996337 0.045393743 0.0717819 -0.004893855
-0.070098534 -0.06800598 0.015186864 -0.011975293 0.11843068 -0.11618019 0.031339295 -0.020508623
-0.00683659 -0.0919073 0.15088354 -0.12791723 -0.050142225 0.0880269 -0.04868019 0.036352467
-0.074923895 0.0058530807 -0.12328033 -0.10454928 -0.05061202 0.07037347 -0.03559109 0.0013436223
0.13112271 -0.010368428 -0.0076520634 0.025381688 0.10649849 -0.025418082 -0.080133826 0.22661151
-0.0730535 0.14168131 -0.063195795 0.0060761375 0.03694972 0.16133867 -0.05873717 0.015972292
00000000: 5d2e 003e f3e8 7a3d 37fc d03d 1edd 31bc
00000010: d9b2 af3c e4bc f43d d36d 15bd 3973 673d
00000020: 8485 adbd ad14 b3bc 5c1e be3a 6859 4a3d
00000030: 498b b63d 03d4 243e 735c 8a3d 868f b03c
00000040: 9475 da3d f71e c83d 2d5d a4bd c12a 55bd
00000050: 3b13 153e 6e7f 1d3e dc01 173a e74e 1a3d
00000060: d107 b7bc 19ce 72bd 8bd2 7bbc 9f9f 113d
00000070: 5f46 2cbd 0aa2 f63d 2923 953d 0377 a7bd
00000080: 8457 7e3c df4a a9bd c6d7 0ebd 6f8f b53c
00000090: d2f8 8abc 506a 8d3d 8e24 c9bc 96c6 dabd
000000a0: 07e8 293d 4b10 04bd d03b c93c a046 d3bd
000000b0: 1c38 003d 8e9b 3c3d 03cf ae3a 9148 80bb
000000c0: 4ef3 cd3d 388c 1fbc 4b3b 35bd c9ec 77bd
000000d0: c77e dc3d fa14 8d3b 9cbd efbb e98a 2c3d
000000e0: 0381 a03d 23db abbd f58c adbd 6846 9fbd
000000f0: 1e30 c73d f0c5 c0bd c1b1 29bb 0f96 273d
00000100: 8368 6c3e 126a 983d 894f 633c 1cdf 163d
00000110: de7d 703d f3ac 983d 64d0 0bbc 8e82 643b
00000120: c318 033e 8865 573d 89aa 833d da46 993d
00000130: ad24 b93c 43dd 1b3d fecf 02be 67fa f83d
00000140: 12b1 39bc daf8 d1bc fdfd 61bd 97f1 c6bc
00000150: f9c5 94bc 02af 9a3d 63b1 bfbd 4a52 cc3d
00000160: d964 433d 5dd4 703d 3da8 c23d da13 81bd
00000170: 17e0 873c 2787 ed3d 4786 843d 0200 a6bd
00000180: 228e 92bd a9a7 e63d 7225 a73d 6629 8c3d
00000190: d036 6bbd e37a ed3c c279 f6bd 3eb1 acbc
000001a0: d339 28bd 1a1c 8d3d 098d 17bd 3e9e 393e
000001b0: 2724 963d 82d5 323d 8922 8a3c 2b0b 373d
000001c0: 5949 ccbd 37a7 b7bd c0b0 f73d 9c8e 1239
000001d0: 411b 0e3d a411 a2bb 7cda 28bd 5541 3bbd
000001e0: cf66 eebd 0ba2 5abd 558a a43d 0c7b 18bd
000001f0: aed9 7dbd 05fd 253e 7d35 97bd c6e1 73bb
00000200: 36bd 27bd e741 33bd b460 adbc b162 4c3d
00000210: 65d9 9a3d db3b 8a3c 7a67 f9bd 783f 8dbd
00000220: 0c3c 92bd 211e 043d 33b9 b23d d2f1 8fbc
00000230: 5aac 9cbc 089a 48bd 1687 b0bd 5599 f3bd
00000240: 79d2 fcbd eb61 c13c b129 d8bc f484 e33d
00000250: 2bb3 d7bb 6f15 eabd 4d9a 463d a25b b6bd
00000260: bd5d 5e3c fe07 b93d 70f9 83bc 04ff bebd
00000270: e888 f53d 0e76 3ebd 16c3 9e3d b0ff b4bd
00000280: ea59 10bc d691 e3bd 2c2a cb3c 9007 8d3d
00000290: b597 79bd 505f 5c3b 7406 80bd 0f4c 703c
000002a0: da09 c3bd 5ea7 3e3d 05a1 4bbd 860c 4e3c
000002b0: 5d22 14bd d4b2 3fbd 624f 88bd d447 5ebd
000002c0: b93a b2bd b37a 77bd b446 11bd 74a5 6db9
000002d0: 89cb 203d f656 bbbd 8832 9b3d 341a 92bb
000002e0: 208d adbd 7d59 65bd 6fba acbb 34ea c73d
000002f0: fdd1 0bbe 2aad e8bd 5dae d23d ea87 f2bb
00000300: 36d4 d03c fa27 edbb 8625 a4bc 8a64 ad3d
00000310: 4777 8c3c 1235 c6bc 7d26 8abd 14ef bbbc
00000320: 0f89 9e3b 7b71 4fbd deb7 7d3d 2541 68bd
00000330: eba2 8e3d 1ca9 a3bd 4da1 b8bc 006d d83d
00000340: 172b b63c 620b 093d 2655 9abc e127 90bd
00000350: ba89 ed3c caee 393d 6402 933d a25c a0bb
00000360: d28f 8fbd b846 8bbd 53d2 783c 0534 44bc
00000370: c98b f23d e1ef edbd a25d 003d b301 a8bc
00000380: 7905 e0bb e539 bcbd 3781 1a3e bcfc 02be
00000390: ef61 4dbd 7347 b43d e164 47bd 53e6 143d
000003a0: b371 99bd 33cb bf3b 667a fcbd ef1d d6bd
000003b0: 8d4e 4fbd f71f 903d f6c7 11bd 7c1c b03a
000003c0: 0845 063e 57e0 29bc 29be fabb 42ed cf3c
000003d0: e11b da3d 9539 d0bc 341d a4bd d90c 683e
000003e0: 139d 95bd e814 113e cc6c 81bd 561a c73b
000003f0: 9758 173d f735 253e 6396 70bd 53d8 823c

lstm.bias_hh_l0 f4 [320]
0.0736284 -0.07096348 0.16977587 0.06508402 -0.06362072 0.08519808 0.10988498 0.23192419
-0.11258765 0.045193046 -0.088878095 -0.07670232 0.044847533 0.12049259 -0.014339501 -0.017146133
0.0068518985 -0.015244888 0.11219426 -0.031028394 0.1326865 0.032095607 0.07848844 0.025933309
0.1350803 0.0546109 -0.021350142 0.12012266 -0.04171736 0.010514382 -0.06983272 0.09448954
0.06868412 -0.0017866321 0.049839944 0.027149765 0.07606468 -0.013181901 0.06361944 0.04061553
-0.051299643 -0.06177805 0.0025128773 0.093187384 -0.06286069 0.031597868 0.122804984 -0.08923211
0.049741402 -0.080148846 -0.030779766 0.04144308 0.1373656 0.023902299 -0.03192077 0.12882285
0.037307195 0.005983468 -0.062723815 -0.052693825 0.07744595 0.04897624 0.06421711 -0.10522865
0.16195302 -0.076283105 0.037915915 0.0890604 0.10820042 -0.05400216 0.06083778 0.07198073
0.18161196 -0.07132035 -0.002951627 0.12838435 0.1397311 0.010531369 -0.11986355 -0.05016305
-0.11964789 0.030772202 0.042212605 -0.041788656 -0.029843353 0.11248646 -0.01983189 0.050455924
-0.046357345 -0.05389985 0.12827241 0.07395963 -0.012070771 0.18914251 -0.09882058 0.030578494
0.067353524 0.09506658 -0.114995584 0.030770678 -0.07707133 0.02088423 0.032756645 -0.012741249
0.120074205 0.0092972 -0.048416194 -0.007850883 0.059200086 -0.050280116 -0.024818517 0.04558461
-0.02357452 0.040052816 0.10638593 0.07159365 0.035611592 0.0551549 0.076322 -0.061468486
-0.09564011 0.03893835 0.07475857 0.01729788 -0.029145567 0.02350349 0.029766625 -0.029461877
0.048810873 0.0969153 -0.04870499 -0.036430113 0.08815536 -0.08026656 -0.026319042 0.14162052
0.03084307 0.0015287402 -0.08604605 -0.005408729 0.03805149 -0.05461956 0.00080254656 -0.02619317
0.020808162 -0.055143245 -0.03821419 -0.007130334 -0.08262641 0.0857691 -0.11662938 0.002401474
0.021769563 0.11533195 -0.06059923 0.06996171 0.12604225 -0.098063156 -0.008619285 0.0190955
0.016358199 -0.049605794 0.10494615 0.05466978 -0.10322991 -0.09155171 -0.0011415563 0.0025725006
-0.11641932 0.08529096 -0.08461612 0.04423465 0.06458934 -0.03185367 0.038507327 0.07743422
-0.052374087 0.020769868 -0.06965765 -0.08205802 -0.12396814 0.08504746 -0.06613256 -0.04529809
-0.112673745 0.06798136 0.029492084 0.045487866 0.02701115 -0.02050376 -0.06955124 0.040400736
-0.0324123 0.031978007 -0.013273311 0.10065502 0.08363595 0.04963277 -0.006716348 -0.047859687
0.0011011907 0.0447798 0.08298536 0.025613828 0.033145986 0.02569412 -0.037128434 0.025504002
0.0227844 -0.0010160764 -0.026343064 0.068239614 0.06365129 -0.026434556 -0.04969746 0.07949507
-0.043445803 0.061656028 0.10307378 -0.010445866 -0.008689182 0.091310486 0.008422845 -0.08361274
-0.035148103 0.051679406 0.080654934 0.046173565 -0.0063439417 0.07291662 -0.10485586 0.050979078
0.049143087 0.034799647 0.027299115 -0.10995763 0.07580685 0.091492414 -0.11776085 -0.045017548
0.10031101 -0.020310083 0.047136653 0.04454641 0.06399584 0.15553585 -0.041263424 0.23428763
-0.037902117 0.103955574 -0.018483149 -0.0031799234 0.10637431 -0.00035564543 -0.042272866 -0.09633191
00000000: 7dca 963d 4d55 91bd bad9 2d3e c54a 853d
00000010: 944b 82bd 557c ae3d 600b e13d 897d 6d3e
00000020: 5b94 e6bd 581c 393d b805 b6bd 1b16 9dbd
00000030: 0cb2 373d d2c4 f63d 3af0 6abc 0c76 8cbc
00000040: e485 e03b b2c5 79bc 1bc6 e53d 422f febc
00000050: f8de 073e af76 033d 8cbe a03d 1772 d43c
00000060: 7d52 0a3e aeaf 5f3d 7ee6 aebc df02 f63d
00000070: d3df 2abd 8444 2c3c 7504 8fbd bb83 c13d
00000080: 43aa 8c3d 6d2d eaba f824 4c3d 2f69 de3c
00000090: cdc7 9b3d e6f8 57bc e94a 823d 785c 263d
000000a0: 931f 52bd fb0a 7dbd 16af 243b 07d9 be3d
000000b0: 1bbd 80bd c46c 013d 2e81 fb3d 53bf b6bd
000000c0: a4bd 4b3d 1425 a4bd d925 fcbc 38c0 293d
000000d0: 91a9 0c3e c1ce c33c 5abf 02bd 23ea 033e
000000e0: 6ecf 183d f810 c43b 5875 80bd 7bd5 57bd
000000f0: fb9b 9e3d 4f9b 483d 4384 833d 1e82 d7bd
00000100: 03d7 253e 513a 9cbd b84d 1b3d 4d65 b63d
00000110: 2f98 dd3d 5e31 5dbd 0931 793d a26a 933d
00000120: 7cf8 393e 6710 92bd 1570 41bb 3077 033e
00000130: ab15 0f3e c38b 2c3c 057b f5bd c577 4dbd
00000140: f409 f5bd fc15 fc3c 20e7 2c3d 952a 2bbd
00000150: 0c7a f4bc 4d5f e63d 7d76 a2bc dfaa 4e3d
00000160: 33e1 3dbd 17c6 5cbd d859 033e 2678 973d
00000170: 7cc4 45bc 93ae 413e 7262 cabd c07f fa3c
00000180: a5f0 893d 44b2 c23d ce82 ebbd ca12 fc3c
00000190: 93d7 9dbd 6815 ab3c d52b 063d acc0 50bc
000001a0: 77e9 f53d 4853 183c 0f50 46bd fda0 00bc
000001b0: ca7b 723d 86f2 4dbd 3450 cbbc eeb6 3a3d
000001c0: 5a1f c1bc 6c0e 243d dee0 d93d b19f 923d
000001d0: 76dd 113d 1bea 613d b54e 9c3d 61c6 7bbd
000001e0: f6de c3bd d27d 1f3d 051b 993d 49b4 8d3c
000001f0: afc2 eebc 648a c03c 23d9 f33c 095a f1bc
00000200: e9ed 473d 877b c63d e27e 47bd be37 15bd
00000210: cc8a b43d cb62 a4bd 089b d7bc f804 113e
00000220: 9baa fc3c 0260 c83a e938 b0bd b53b b1bb
00000230: e1db 1b3d c2b8 5fbd fd61 523a 0f93 d6bc
00000240: e175 aa3c e2dd 61bd 7c86 1cbd 94a5 e9bb
00000250: 0938 a9bd b6a7 af3d 62db eebd 0c62 1d3b
00000260: 1556 b23c 2833 ec3d e636 78bd 1648 8f3d
00000270: 3811 013e 56d5 c8bd e737 0dbc 2b6e 9c3c
00000280: a101 863c 722f 4bbd 02ee d63d 6bed 5f3d
00000290: 346a d3bd 777f bbbd 46a0 95ba 6697 283b
000002a0: 416d eebd 07ad ae3d 374b adbd 642f 353d
000002b0: 6a47 843d fe78 02bd dcb9 1d3d d595 9e3d
000002c0: 3686 56bd 9225 aa3c aca8 8ebd 090e a8bd
000002d0: 02e3 fdbd 5d2d ae3d 8270 87bd 7d8a 39bd
000002e0: 7ec1 e6bd d039 8b3d 6299 f13c 7c51 3a3d
000002f0: 7d46 dd3c 80f7 a7bc e170 8ebd 3e7b 253d
00000300: c3c2 04bd 5ffb 023d 4d78 59bc 3824 ce3d
00000310: 5349 ab3d bb4b 4b3d d014 dcbb 8508 44bd
00000320: d455 903a 066b 373d 3af4 a93d 17d4 d13c
00000330: 16c4 073d 7a7c d23c fc13 18bd c5ed d03c
00000340: 5aa6 ba3c de2d 85ba 69cd d7bc 36c1 8b3d
00000350: 9c5b 823d 488d d8bc 908f 4bbd 50ce a23d
00000360: 3af4 31bd 088b 7c3d 5918 d33d 2325 2bbc
00000370: 125d 0ebc fe00 bb3d f9ff 093c 283d abbd
00000380: 75f7 0fbd c9ad 533d 6a2e a53d 7e20 3d3d
00000390: d7e0 cfbb 4f55 953d abbe d6bd 70cf 503d
000003a0: 434a 493d 138a 0e3d 65a2 df3c 7731 e1bd
000003b0: 9f40 9b3d 6060 bb3d 9a2c f1bd 5264 38bd
000003c0: dc6f cd3d 5561 a6bc 5d12 413d 4c76 363d
000003d0: 4010 833d ca44 1f3e d603 29bd 19e9 6f3e
000003e0: 403f 1bbd a9e6 d43d f969 97bc 4366 50bb
000003f0: c6da d93d ec75 bab9 5026 2dbd aa49 c5bd

lstm.weight_ih_l1 f4 [320, 80]
-0.04061735 0.10656219 -0.11240786 -0.14965206 0.09558791 -0.16053973 0.030947328 0.009093217
-0.06366008 0.11002623 0.010914104 0.12701033 0.09668903 -0.014552128 0.026721936 -0.1105829
0.06994652 -0.10246766 0.088890314 0.017868977 -0.17796735 0.09018482 -0.006780424 0.034203764
0.017238326 0.015966015 -0.025324872 0.02851317 0.09535835 0.06355781 -0.08295819 0.1438137
-0.10618861 0.06838658 0.022944238 0.16600277 0.05947983 -0.0060095424 -0.038813792 0.005178436
-0.113453686 0.035025425 0.024820885 -0.087678 0.20501183 -0.0010491703 -0.09077793 0.11665793
-0.002970637 -0.09022147 0.065839924 -0.0077857547 0.027552998 0.09001404 -0.012712429 -0.049284384
0.06131599 0.04077359 -0.1262588 -0.0387822 0.06491622 -0.015243156 -0.039051767 0.09465272
-0.1332397 0.028601727 0.13823484 0.00875893 -0.074269876 0.0077898186 -0.068811536 0.05856125
0.122829586 0.020468904 -0.22357354 -0.04234389 -0.0742684 -0.05686496 0.07555838 -0.04505703
0.034862 -0.07466516 -0.0565211 -0.11841825 0.026040444 -0.123587735 -0.06852871 -0.027191833
0.011720748 0.024109423 -0.018548872 0.12794377 0.0987572 -0.014322882 0.11520557 -0.03755774
-0.059981942 -0.024057303 0.049435608 -0.08611074 0.063925795 0.07324401 0.026445284 0.067394875
0.0075679454 0.110344306 0.06671245 -0.11981236 0.00291661 0.14376432 -0.07235594 0.08042751
0.052260287 -0.052928936 0.07074118 0.052003242 0.05800459 -0.05362286 -0.041748047 -0.07307533
-0.11246021 -0.114276834 -0.14315037 -0.1354534 -0.07013423 0.1000328 0.06190453 0.015714059
-0.12462102 -0.09146149 0.09862233 -0.085813574 -0.002231114 0.14226517 -0.12695695 0.083744824
0.058510683 -0.08724795 0.042588964 0.15860559 0.0784846 -0.08914631 0.0259706 -0.043405436
0.03298973 -0.09546204 0.09038883 -0.11366146 0.13228722 0.1161624 0.019558962 -0.07384139
0.07496775 0.06500825 -0.093863286 -0.04314865 -0.1814778 -0.067374974 -0.041415084 -0.050377056
0.12110081 -0.1158931 0.109550714 -0.097392 0.07153079 0.01725286 0.074208856 0.05125437
0.09647177 -0.006439535 -0.06632641 -0.09731209 -0.054710895 0.112774596 0.011266611 0.09344288
0.0075280233 -0.13126776 0.056034807 -0.07991685 0.104600415 -0.015331713 0.030203495 -0.083842985
-0.08212894 -0.03985669 0.045829434 0.045739993 0.051367223 0.045206487 0.049983844 -0.015771464
-0.20837095 0.08143378 -0.052016467 0.08448902 0.071781255 -0.0044856807 -0.023201253 0.044909604
-0.048232622 0.016773757 -0.06762882 0.030983917 0.10510794 -0.043087333 0.056670647 0.044603787
0.083104104 0.010318757 0.010832687 -0.14630009 0.05295938 -0.04224619 0.018103078 0.013604886
0.07203647 -0.09519311 0.099460386 -0.109761424 -0.05623432 -0.07520891 0.03794556 -0.09722652
0.13335942 0.11443548 0.07569621 -0.0784453 -0.1406385 0.091180764 0.026122265 -0.058644723
-0.0077497168 0.049320467 0.16462357 0.010710373 -0.12150832 0.16049393 0.029668748 -0.11153494
0.048880655 -0.008292027 -0.20551522 0.08555457 0.09318049 -0.053318605 -0.021118391 -0.16297051
0.16907878 -0.042489983 -0.022484362 -0.0913526 -0.03213947 -0.004060503 0.05239799 0.036029372
00000000: 615e 26bd 473d da3d 1836 e6bd 643e 19be
00000010: 98c3 c33d 8764 24be 4085 fd3c b7fb 143c
00000020: 3760 82bd 6f55 e13d 12d1 323c ff0e 023e
00000030: e604 c63d 0c6c 6ebc f6e7 da3c 4a79 e2bd
00000040: 1f40 8f3d 91da d1bd 200c b63d f661 923c
00000050: 133d 36be d2b2 b83d 522e debb 3f19 0c3d
00000060: 6437 8d3c 29cb 823c 1b76 cfbc 7494 e93c
00000070: 3d4b c33d 992a 823d fce5 a9bd e643 133e
00000080: 6a79 d9bd 430e 8c3d 8ef5 bb3c a1fc 293e
00000090: 1fa1 733d b2eb c4bb 36fb 1ebd dfaf a93b
000000a0: 685a e8bd d276 0f3d 2b55 cb3c 8690 b3bd
000000b0: 9fee 513e 5084 89ba c8e9 b9bd 5aea ee3d
000000c0: 05af 42bb 09c6 b8bd 15d7 863d a51f ffbb
000000d0: d3b6 e13c 4859 b83d cb47 50bc 6cde 49bd
000000e0: 7a26 7b3d 3502 273d fd49 01be 16da 1ebd
000000f0: ccf2 843d 6ebe 79bc bff4 1fbd 49d9 c13d
00000100: fd6f 08be 2b4e ea3c 6f8d 0d3e 9d81 0f3c
00000110: ce1a 98bd bc41 ff3b 10ed 8cbd ecdd 6f3d
00000120: 148e fb3d 67ae a73c 76f0 64be c970 2dbd
00000130: 081a 98bd 3beb 68bd 5abe 9a3d b88d 38bd
00000140: 75cb 0e3d 0cea 98bd ab82 67bd 4485 f2bd
00000150: c552 d53c 911b fdbd c858 8cbd 68c1 debc
00000160: 6108 403c 2081 c53c cef3 97bc b103 033e
00000170: 3741 ca3d 85aa 6abc e6f0 eb3d 25d6 19bd
00000180: a0af 75bd d213 c5bc fe7c 4a3d d45a b0bd
00000190: 87eb 823d f500 963d c8a3 d83c 5306 8a3d
000001a0: 87fc f73b 32fc e13d 89a0 883d 2f60 f5bd
000001b0: 9924 3f3b f436 133e 5a2f 94bd 2eb7 a43d
000001c0: e20e 563d 03cc 58bd c0e0 903d 5a01 553d
000001d0: 3996 6d3d a5a3 5bbd 0000 2bbd 85a8 95bd
000001e0: 8a51 e6bd f909 eabd 0396 12be 4cb4 0abe
000001f0: 89a2 8fbd ffdd cc3d 9b8f 7d3d c5ba 803c
00000200: 4e39 ffbd 2950 bbbd 81fa c93d 07bf afbd
00000210: e237 12bb f6ad 113e 0101 02be 6882 ab3d
00000220: e6a8 6f3d 0eaf b2bd c471 2e3d 8169 223e
00000230: 89bc a03d 5792 b6bd 4cc0 d43c e6c9 31bd
00000240: 3d20 073d 9a81 c3bd c71d b93d 57c7 e8bd
00000250: 4d76 073e 8de6 ed3d 1e3a a03c 283a 97bd
00000260: b188 993d 0c23 853d 653b c0bd a4bc 30bd
00000270: 51d5 39be e4fb 89bd dda2 29bd 2c58 4ebd
00000280: b403 f83d 5d59 edbd 205c e03d 7575 c7bd
00000290: bc7e 923d df55 8d3c d0fa 973d 1af0 513d
000002a0: fe92 c53d bc02 d3bb 24d6 87bd 904b c7bd
000002b0: 8818 60bd 5ef6 e63d 9797 383c fb5e bf3d
000002c0: a3ad f63b 0e6b 06be c184 653d 72ab a3bd
000002d0: be38 d63d dd31 7bbc 526d f73c dfb5 abbd
000002e0: 3833 a8bd c540 23bd a5b7 3b3d dc59 3b3d
000002f0: 7066 523d 702a 393d dcbb 4c3d 2833 81bc
00000300: 325f 55be c1c6 a63d 380f 55bd 9408 ad3d
00000310: 0d02 933d 9efc 92bb 8e10 bebc 22f3 373d
00000320: 928f 45bd 1e69 893c fb80 8abd fcd1 fd3c
00000330: d542 d73d 587c 30bd 7b1f 683d 76b2 363d
00000340: 7c32 aa3d 0110 293c 957b 313c b1cf 15be
00000350: efeb 583d 570a 2dbd e84c 943c 07e7 5e3c
00000360: db87 933d 9bf4 c2bd e3b1 cb3d 99ca e0bd
00000370: f555 66bd 2107 9abd ce6c 1b3d b31e c7bd
00000380: 5f8f 083e 265d ea3d 9d06 9b3d eea7 a0bd
00000390: 8a03 10be fbbc ba3d 5cfe d53c 7335 70bd
000003a0: 56f1 fdbb 4204 4a3d 1593 283e 8f7a 2f3c
000003b0: 5bd9 f8bd 8558 243e e00b f33c 6e6c e4bd
000003c0: 1537 483d 48db 07bc 9572 52be 3c37 af3d
000003d0: 6ad5 be3d 9c64 5abd 7a00 adbc bee1 26be
000003e0: fd22 2d3e fa09 2ebd 2031 b8bc 1217 bbbd
000003f0: ada4 03bd f80d 85bb 469f 563d 8993 133d

lstm.weight_hh_l1 f4 [320, 80]
-0.06939277 0.05752777 -0.06891001 -0.014859158 0.108092695 0.041100703 0.20702396 -0.08638439
-0.084601216 0.036067538 -0.1569758 0.123535216 0.04019879 -0.051993772 0.12180406 0.02025056
0.05906755 0.10595107 0.13395208 0.035831984 -0.015638676 -0.06297998 0.023271764 -0.053875152
-0.20304798 0.029965028 -0.12100629 -0.06014299 0.18252711 0.058429766 -0.025350127 0.0032143733
0.09478347 0.115697294 -0.03192727 0.0012502961 -0.19549146 -0.0025559932 0.09037736 0.14396666
0.054239668 -0.048054963 -0.13820921 -0.045695946 0.057690524 -0.05988198 0.079188965 -0.035538338
-0.0708479 0.0021002535 0.05858545 0.15593535 0.056432616 0.14509079 0.028163023 -0.053937133
-0.04074794 0.02307889 0.20255731 0.029697403 0.033390947 -0.030664723 0.012621248 0.05323575
0.004151308 0.097340584 0.1507163 0.02668408 -0.12821229 -0.08436755 -0.08553352 -0.046840698
-0.045728117 -0.07244052 0.18621464 -0.16191854 -0.07994103 -0.09835928 0.028773174 -0.04970047
-0.07118738 0.025755417 -0.0498326 -0.1681509 0.022402301 0.051316615 0.106864214 -0.0053995633
-0.06616626 0.0861095 -0.05746121 0.12224335 0.08722005 -0.10382523 0.03523928 -0.10963657
-0.108828425 -0.05643452 -0.008896818 -0.0669874 0.07863466 -0.049346443 0.04912742 -0.022571586
-0.093934335 0.00038044222 0.077246964 -0.055590045 0.09571769 -0.1141081 0.090493664 -0.047812883
0.07121609 0.14277305 -0.048847903 -0.011801466 -0.016765231 0.021353126 0.0024326784 0.14164644
-0.019736648 -0.10983768 -0.052759957 0.04767223 -0.10705492 0.010706525 -0.034592986 -0.029265974
-0.09442535 0.053837407 -0.15064937 0.0033627567 0.031895228 -0.051199164 0.0010417922 -0.06712104
0.047937054 0.03029423 -0.07740131 -0.124849275 -0.017636603 0.01960426 -0.073257826 -0.06476915
-0.021857684 0.003604751 -0.036443837 0.055170577 0.06661327 0.04703168 -0.07368949 -0.1407882
-0.06033584 0.013001408 -0.005451976 0.04498049 -0.020800266 0.032942474 0.1111355 -0.10360398
-0.089682385 -0.0795113 -0.12574342 -0.072926916 0.14894572 0.090139315 -0.048766598 -0.017758664
0.062892705 -0.053422872 0.06758704 -0.122380905 -0.10631131 -0.036574475 -0.007674094 0.09179455
-0.12815847 0.085330166 0.061572697 -0.12037093 0.038366172 0.04117366 -0.082020156 0.067241
-0.08115806 0.0177519 0.017242197 0.056011714 0.1369913 0.115012616 0.044409577 0.10610817
0.058900002 -0.040559907 -0.07703331 -0.0512228 -0.036294054 -0.009341042 0.03235505 0.105504446
0.029364148 0.0060106483 -0.0028799581 0.032616485 0.05095591 -0.019765088 -0.068682864 0.07944803
-0.0317057 -0.11663532 -0.0092837205 0.03332615 -0.029022792 0.113849945 0.050001286 0.011947561
-0.11523185 0.1517021 0.0765512 -0.107295856 -0.05714969 0.024517056 -0.09035401 -0.037064195
0.14053345 0.061766293 0.05134478 0.00059788185 0.06754554 -0.036166083 0.1299752 0.03656863
0.017064042 -0.1349723 -0.07665754 -0.014071679 -0.0025045 -0.1100814 -0.007092099 0.073893644
-0.043386392 0.11139844 0.050377782 -0.09178868 -0.017280096 0.043019768 0.20160581 0.07746872
-0.102390975 -0.01922184 0.07371156 0.12511218 -0.0066993404 0.046207525 0.06105226 -0.08384038
00000000: cc1d 8ebd 3da2 6b3d b120 8dbd d373 73bc
00000010: b45f dd3d 3659 283d 17fe 533e 4dea b0bd
00000020: 6743 adbd 8ebb 133d 44be 20be 0800 fd3d
00000030: 7da7 243d 6cf7 54bd 6874 f93d 81e4 a53c
00000040: d1f0 713d e0fc d83d bc2a 093e 8fc4 123d
00000050: ae1c 80bc a6fb 80bd 6da4 be3c 31ac 5cbd
00000060: cfeb 4fbe 3879 f53c 25d2 f7bd 7f58 76bd
00000070: 63e8 3a3e 0d54 6f3d 12ab cfbc 3ca8 523b
00000080: d61d c23d b4f2 ec3d 2bc6 02bd fae0 a33a
00000090: ea2e 48be 7382 27bb c417 b93d ff6b 133e
000000a0: 6a2a 5e3d 48d5 44bd b786 0dbe ac2b 3bbd
000000b0: e64c 6c3d cf46 75bd d32d a23d a690 11bd
000000c0: b418 91bd 68a4 093b 4cf7 6f3d 84ad 1f3e
000000d0: e325 673d ae92 143e 24b6 e63c 2fed 5cbd
000000e0: 50e7 26bd f10f bd3c 2f6b 4f3e f847 f33c
000000f0: f2c4 083d 9634 fbbc 5ac9 4e3c bb0d 5a3d
00000100: b207 883b 805a c73d 6055 1a3e 9298 da3c
00000110: 154a 03be e5c8 acbd 332c afbd 08dc 3fbd
00000120: 684d 3bbd b25b 94bd 0daf 3e3e f9cd 25be
00000130: 1fb8 a3bd 9770 c9bd b8b5 eb3c b892 4bbd
00000140: b0ca 91bd 06fd d23c 451d 4cbd c02f 2cbe
00000150: 0885 b73c 5f31 523d a0db da3d d2ee b0bb
00000160: 2d82 87bd 2d5a b03d 725c 6bbd b95a fa3d
00000170: 6da0 b23d 52a2 d4bd 1057 103d 2389 e0bd
00000180: 70e1 debd e227 67bd f6c3 11bc b130 89bd
00000190: 350b a13d 7f1f 4abd d539 493d 0ce8 b8bc
000001a0: a560 c0bd 1776 c739 a833 9e3d 63b2 63bd
000001b0: a307 c43d 82b1 e9bd be54 b93d 71d7 43bd
000001c0: bed9 913d 1933 123e bd14 48bd f05a 41bc
000001d0: 3d57 89bc c0ec ae3c 926d 1f3b c40b 113e
000001e0: c0ae a1bc 94f2 e0bd d31a 58bd f543 433d
000001f0: 9c3f dbbd 6c6a 2f3c 60b1 0dbd 32bf efbc
00000200: 1462 c1bd 9d84 5c3d d443 1abe b261 5c3b
00000210: 92a4 023d 37b6 51bd bf8c 883a c176 89bd
00000220: a559 443d 9b2b f83c 9484 9ebd fab0 ffbd
00000230: a37a 90bc 1d99 a03c 3308 96bd b0a5 84bd
00000240: e30e b3bc b03d 6c3b 2246 15bd 8bfa 613d
00000250: 8a6c 883d 4aa4 403d 84ea 96bd c82a 10be
00000260: b722 77bd dc03 553c 7da6 b2bb 763d 383d
00000270: 5265 aabc b0ee 063d 029b e33d 532e d4bd
00000280: 66ab b7bd d2d6 a2bd e2c2 00be b55a 95bd
00000290: 3a85 183e f69a b83d 7cbf 47bd 9e7a 91bc
000002a0: e4cd 803d f1d1 5abd 136b 8a3d d7a2 fabd
000002b0: beb9 d9bd 1ecf 15bd f776 fbbb c8fe bb3d
000002c0: f93b 03be 95c1 ae3d a733 7c3d 0985 f6bd
000002d0: d925 1d3d b6a5 283d 2ffa a7bd a6b5 893d
000002e0: 3236 a6bd 6f6c 913c 823f 8d3c 8a6c 653d
000002f0: 7347 0c3e bc8b eb3d d1e6 353d 3d4f d93d
00000300: 2141 713d 2522 26bd a4c3 9dbd 00cf 51bd
00000310: 13a9 14bd 2b0b 19bc bb86 043d b712 d83d
00000320: 158d f03c f9f4 c43b aebd 3cbb dd98 053d
00000330: 25b7 503d 65ea a1bc 9aa9 8cbd a6b5 a23d
00000340: d6dd 01bd 80de eebd bf1a 18bc 0081 083d
00000350: 35c1 edbc 292a e93d 26ce 4c3d b4bf 433c
00000360: adfe ebbd cc57 1b3e e0c6 9c3d eebd dbbd
00000370: cb15 6abd fed7 c83c 860b b9bd a0d0 17bd
00000380: 00e8 0f3e a7fe 7c3d e74e 523d 2cbb 1c3a
00000390: 5155 8a3d e322 14bd 3818 053e fdc8 153d
000003a0: e4c9 8b3c 2e36 0abe a1fe 9cbd e68c 66bc
000003b0: 8a22 24bb 5b72 e1bd d764 e8bb 8d55 973d
000003c0: eeb5 31bd de24 e43d ef58 4e3d b4fb bbbd
000003d0: fd8e 8dbc 7f35 303d c171 4e3e eca7 9e3d
000003e0: 5cb2 d1bd 1f77 9dbc 16f6 963d 681d 003e
000003f0: 2486 dbbb 1a44 3d3d ef11 7a3d 81b4 abbd

lstm.bias_ih_l1 f4 [320]
0.09666163 0.08782402 0.009892883 0.10105714 -0.061864074 -0.06715253 0.058581628 0.100370936
0.021762567 0.22103326 0.02739185 0.045179922 -0.09788259 0.0014239219 0.01681407 -0.00863735
-0.006781609 0.16062047 0.047277287 0.20357887 0.25479975 0.0013158283 -0.072500214 0.037320197
-0.028275976 0.12338427 0.11330663 -0.009364708 -0.015300509 0.15316987 -0.082632564 0.010982688
0.051436402 0.1335329 0.09445741 0.02973703 0.08998047 0.11436882 0.09620278 0.10669438
0.21895775 0.03389151 -0.005594902 -0.05593434 0.17318648 0.11758193 -0.07216807 0.1612489
-0.048250426 0.0016734377 0.09257052 0.092182845 -0.010406358 0.031481445 0.007833017 0.04478677
0.029234892 0.044387534 0.02794871 0.16332795 -0.0016315478 0.030424604 0.113377005 0.04436475
0.014741348 0.023976697 0.1110739 0.14966221 -0.040389217 0.10905937 -0.006282435 0.10084655
-0.09396014 0.053051095 0.13083915 0.1506251 0.17200153 0.043133378 0.18575129 0.14161533
0.10092645 0.021754822 -0.05730629 0.022671033 -0.09872309 -0.056155443 0.017164398 0.017472161
0.065656126 -0.10032986 0.09757488 -0.09944234 0.05010067 0.10048538 -0.06916905 -0.046399616
-0.013572713 -0.047322307 0.030772466 -0.004583089 -0.018339066 0.0047360123 0.06631167 -0.012365595
-0.0828453 0.023666099 -0.04632933 0.08238047 0.08370257 -0.05379579 -0.08226102 0.07759454
0.055702746 0.097722605 -0.022491183 0.0017670724 -0.11527331 -0.08638151 0.08673497 -0.12162407
-0.07836486 -0.038162008 0.024891479 -0.0108675845 -0.06214531 -0.036098335 -0.086085476 0.062215604
0.040440165 -0.0825908 -0.00496951 0.036231786 0.055510793 0.021568421 0.018887026 -0.014697548
-0.1262008 0.053814698 -0.07957832 -0.09086095 0.011675473 -0.05489869 0.062089354 -0.05915695
0.009633049 -0.14229444 0.048523445 -0.12873897 0.0066925413 -0.103898995 -0.09195395 0.073675975
-0.09362172 -0.08226793 0.036132168 -0.07786176 0.019090205 -0.08952925 -0.05103162 -0.13323289
-0.053972904 0.03249166 -0.06710111 0.013517964 -0.002495961 0.0007416893 0.1150333 -0.052879814
0.029976733 -0.02213798 0.028257173 0.10051819 -0.055616394 0.08167337 -0.03753135 0.0075870855
0.068224944 -0.0426423 0.12769088 0.099695 0.12066643 -0.08070275 0.06751241 -0.01924269
-0.017171131 0.11447944 -0.08250286 -0.07444832 0.081306554 0.022729097 -0.12375579 0.13211384
-0.026044957 -0.006535017 -0.09224585 0.0011859692 -0.0065712063 -0.00098022 0.05377373 0.11602681
-0.07585095 -0.017531687 -0.0035587137 -0.13127033 0.0070537827 0.0043436475 -0.09600261 -0.05248602
-0.10547331 0.079181835 -0.004693804 -0.03288843 -0.017080858 -0.029638696 0.072728924 0.018861767
0.09458937 0.15000226 0.15053108 0.008663271 0.12417035 -0.07170098 0.052072722 -0.08957351
-0.09233323 0.011614165 0.06829358 -0.082933545 0.079106815 -0.10878798 0.042132363 0.05062912
-0.042214148 -0.0216839 0.0966515 -0.09924183 -0.10105535 -0.015800212 -0.038412817 0.10014732
0.17291856 0.06519934 -0.050712954 -0.07838554 -0.068749934 0.040143583 -0.040864088 0.053046558
0.07437605 0.08073091 0.017356222 0.010227544 -0.02360703 0.1286234 0.08755935 -0.032473564
00000000: 88f6 c53d 14dd b33d c215 223c 0cf7 ce3d
00000010: 2f65 7dbd 4487 89bd 4af3 6f3d 478f cd3d
00000020: 6947 b23c 8b56 623e df64 e03c 950e 393d
00000030: ab76 c8bd e4a2 ba3a a9bd 893c ac83 0dbc
00000040: 4238 debb b179 243e d4a5 413d fb76 503e
00000050: 1d75 823e df77 ac3a fe7a 94bd 10dd 183d
00000060: 05a3 e7bc e4b0 fc3d 4e0d e83d 6f6e 19bc
00000070: fcae 7abc 90d8 1c3e 433b a9bd bbf0 333c
00000080: faae 523d d9bc 083e e372 c13d 129b f33c
00000090: ae47 b83d 333a ea3d f705 c53d 9582 da3d
000000a0: 7636 603e d3d1 0a3d 7155 b7bb 681b 65bd
000000b0: cc57 313e cbce f03d dacc 93bd 6f1e 253e
000000c0: 3da2 45bd 4057 db3a 9d95 bd3d 5cca bc3d
000000d0: 6e7f 2abc b0f2 003d 0e56 003c 5572 373d
000000e0: 037e ef3c b4cf 353d b1f4 e43c 713f 273e
000000f0: a9d9 d5ba 053d f93c 3432 e83d d0b7 353d
00000100: b285 713c c76a c43c b67a e33d 0d41 193e
00000110: 2a6f 25bd 855a df3d e2dc cdbb a388 ce3d
00000120: 2d6e c0bd 1b4c 593d b3fa 053e 773d 1a3e
00000130: 2b21 303e a0ac 303d 9635 3e3e 9c03 113e
00000140: 87b2 ce3d 2b37 b23c 00ba 6abd 9ab8 b93c
00000150: 552f cabd 4003 66bd 5a9c 8c3c c721 8f3c
00000160: b876 863d be79 cdbd 57d5 c73d 6da8 cbbd
00000170: 5c36 4d3d 47cb cd3d 81a8 8dbd 860d 3ebd
00000180: 1660 5ebc 09d5 41bd 8a16 fc3c bd2d 96bb
00000190: cf3b 96bc 8d30 9b3b 6ace 873d 1199 4abc
000001a0: ccaa a9bd 68df c13c d3c3 3dbd 18b7 a83d
000001b0: 416c ab3d f958 5cbd 7778 a8bd e3e9 9e3d
000001c0: 9028 643d ca22 c83d 6e3f b8bc 1c9d e73a
000001d0: 6a14 ecbd cae8 b0bd 1ba2 b13d 0a16 f9bd
000001e0: c17d a0bd c44f 1cbd 37e9 cb3c f40d 32bc
000001f0: 158c 7ebd d9db 13bd 954d b0bd cad5 7e3d
00000200: 96a4 253d 5e25 a9bd 45d7 a2bb c867 143d
00000210: 495f 633d 42b0 b03c f7b8 9a3c fccd 70bc
00000220: c83a 01be cd6c 5c3d f5f9 a2bd 4e15 babd
00000230: 7c4a 3f3c 73dd 60bd 6851 7e3d 8f4e 72bd
00000240: f0d3 1d3c a2b5 11be 85c0 463d 26d4 03be
00000250: 1b4d db3b ffc8 d4bd 5a52 bcbd 6ee3 963d
00000260: bfbc bfbd 177c a8bd 53ff 133d fd75 9fbd
00000270: 1063 9c3c 1d5b b7bd 8806 51bd 346e 08be
00000280: b112 5dbd fa15 053d 4f6c 89bd 737a 5d3c
00000290: 4793 23bb ed6d 423a 9496 eb3d 8198 58bd
000002a0: c491 f53c b65a b5bc 967b e73c 7bdc cd3d
000002b0: 04ce 63bd 5e44 a73d 79ba 19bd 169d f83b
000002c0: 85b9 8b3d b1a9 2ebd 66c1 023e e42c cc3d
000002d0: f61f f73d 7c47 a5bd f243 8a3d d9a2 9dbc
000002e0: 79aa 8cbc 3274 ea3d 42f7 a8bd 5c78 98bd
000002f0: 0d84 a63d 5f32 ba3c ad73 fdbd da48 073e
00000300: 3c5c d5bc b223 d6bb 64eb bcbd 8672 9b3a
00000310: 4653 d7bb ba7a 80ba d841 5c3d 779f ed3d
00000320: be57 9bbd 9d9e 8fbc 4f39 69bb bb6b 06be
00000330: 6b23 e73b 2855 8e3b 049d c4bd 95fb 56bd
00000340: 6402 d8bd 162a a23d 7bce 99bb 05b6 06bd
00000350: 28ed 8bbc dacc f2bc e7f2 943d fe83 9a3c
00000360: 12b8 c13d 319a 193e d224 1a3e 64f0 0d3c
00000370: 064d fe3d f7d7 92bd 354a 553d 5172 b7bd
00000380: 3419 bdbd 5749 3e3c 81dd 8b3d 10d9 a9bd
00000390: c102 a23d 3ccc debd fc92 2c3d 7b60 4f3d
000003a0: bee8 2cbd 6fa2 b1bc 39f1 c53d 4d3f cbbd
000003b0: 1bf6 cebd 726f 81bc c256 1dbd 0a1a cd3d
000003c0: 9011 313e 3b87 853d 63b8 4fbd 9988 a0bd
000003d0: c4cc 8cbd 996d 243d 1a61 27bd 5947 593d
000003e0: 7852 983d 3f56 a53d a32e 8e3c 6e91 273c
000003f0: 8863 c1bc dab5 033e 5152 b33d 0003 05bd

lstm.bias_hh_l1 f4 [320]
0.22093676 0.040304888 -0.048155837 -0.008768437 0.06550272 -0.009707661 -0.0073013324 0.06161823
0.07736603 0.08978704 0.072990336 -0.0057564955 -0.08250385 0.035067327 0.008716131 0.089095466
-0.053356435 0.23835321 0.12304561 0.14830473 0.0863826 0.11329814 0.05665361 -0.061464716
0.0767573 0.083961025 0.14674774 -0.03493194 0.10780153 0.35148224 -0.12354179 0.15493204
0.17345004 -0.0058268397 -0.086013034 0.03258092 -0.053633846 0.25942838 -0.021140082 0.04134022
0.2177286 0.19385102 0.09039326 -0.03685731 -0.022335894 0.20642787 0.084871985 0.18882658
0.071264856 0.0981575 0.0906145 0.021771563 0.0800077 0.06808365 -0.020600993 0.059598163
0.021458747 0.115342185 0.008798089 0.01699068 -0.011723532 -0.08767832 0.014262147 0.14274548
0.033663113 -0.09180189 -0.0022356305 0.13268664 0.11365065 -0.033365693 0.07755118 0.029033706
0.106103174 -0.007487007 0.2474222 0.14220223 0.15670891 0.18015787 0.14719148 -0.039904516
0.174859 0.092594124 0.038395476 -0.08596541 0.04806208 -0.07644519 0.11684933 -0.01708006
0.02695544 -0.071088485 -0.03729222 0.06279779 0.006741387 -0.055300906 -0.0563383 0.06847875
-0.0483653 0.05607779 -0.119957976 0.033645574 -0.064964965 0.016485613 0.094446406 -0.03384499
0.065113485 0.08720196 -0.023445368 0.0119731 0.118253954 0.017800702 -0.021101495 -0.10740882
0.03824376 -0.06319929 -0.0748715 0.0669691 0.0064448607 0.08377141 -0.026704676 0.045970596
-0.11099761 -0.09302095 -0.049803823 -0.07741826 0.004650617 0.0676497 0.062285542 -0.011398677
-0.008729931 0.0872228 0.10943408 -0.15854515 0.06433615 0.053029563 0.118871555 0.05194602
0.052313536 0.012162046 0.117140785 0.01717048 0.046657518 0.0492497 -0.11820056 -0.027660608
-0.048099395 -0.13158187 -0.02034867 0.026310137 -0.008739326 -0.09917175 -0.10330728 -0.010721377
0.001066572 -0.011745755 -0.090091206 -0.084174395 0.020646725 -0.120585024 -0.11249961 -0.08819411
-0.12843841 0.029162845 -0.07783757 0.05789107 0.08820282 -0.00928615 0.11615816 -0.026763877
0.019319959 -0.034212656 -0.10714506 0.07231136 0.054648217 0.026462965 -0.01638494 0.013296997
-0.040707987 -0.017410764 0.13760057 -0.109327756 -0.091540106 -0.05443637 0.07611778 0.09384088
-0.11405014 0.0913908 -0.049909744 0.06673606 0.008157581 0.07523063 0.048996236 -0.014877856
0.11337799 0.07034426 -0.087908834 -0.010746388 0.060986914 0.005416109 -0.08647237 -0.025534267
0.024410699 0.08274334 0.024522536 -0.031233238 0.003907154 -0.08339025 0.083928615 -0.01712451
0.09108647 0.097462006 -0.07881663 0.09525322 0.082391836 0.10360988 0.023142716 -0.007871294
0.0053178654 0.13156822 0.06543832 -0.16802448 -0.05323082 0.017018845 -0.0924379 -0.12543209
-0.037832964 0.044881783 0.05057627 0.09267619 -0.046340216 -0.14058205 0.116007484 -0.09196984
-0.11674194 -0.009686415 0.112472005 -0.13094668 -0.102944516 -0.1028407 0.01456754 -0.059487134
0.14234634 0.031125732 0.082775205 0.06290436 -0.08697976 -0.07856304 -0.050274502 -0.047147743
0.11584323 0.18354924 0.102730826 0.1167278 -0.09499524 0.1288652 0.105611295 0.07037912
00000000: 3f3d 623e bd16 253d 0e3f 45bd 7ea9 0fbc
00000010: 4a26 863d e20c 1fbc 0440 efbb 6663 7c3d
00000020: 1572 9e3d 45e2 b73d f57b 953d fca0 bcbb
00000030: c7f7 a8bd c2a2 0f3d 1ace 0e3c af77 b63d
00000040: 478c 5abd dd12 743e 56ff fb3d 32dd 173e
00000050: 5ce9 b03d db08 e83d 9e0d 683d 6dc2 7bbd
00000060: ee32 9d3d c2f3 ab3d 0a45 163e cb14 0fbd
00000070: 0cc7 dc3d 7bf5 b33e 7a03 fdbd 81a6 1e3e
00000080: e39c 313e 13ef bebb 9a27 b0bd 9273 053d
00000090: 2aaf 5bbd ccd3 843e f72d adbc 5d54 293d
000000a0: 3ff4 5e3e e280 463e 1a20 b93d b1f7 16bd
000000b0: c4f9 b6bc d461 533e 5dd1 ad3d c15b 413e
000000c0: 4ff3 913d cd06 c93d 1894 b93d 475a b23c
000000d0: 14db a33d 716f 8b3d 6ac3 a8bc 341d 743d
000000e0: 41ca af3c 8638 ec3d dc25 103c 0a30 8b3c
000000f0: 0f14 40bc b190 b3bd c8ab 693c df2b 123e
00000100: 55e2 093d a102 bcbd a883 12bb 02df 073e
00000110: acc1 e83d 77aa 08bd 27d3 9e3d 18d8 ed3c
00000120: 9f4c d93d 9155 f5bb 3f5c 7d3e 769d 113e
00000130: 4d78 203e 4e7b 383e 5db9 163e eb72 23bd
00000140: 3d0e 333e fda1 bd3d 9344 1d3d a20e b0bd
00000150: bedc 443d 4c8f 9cbd b44e ef3d 7beb 8bbc
00000160: a8d1 dc3c d796 91bd babf 18bd 219c 803d
00000170: dae6 dc3b 3483 62bd fdc2 66bd 963e 8c3d
00000180: b11a 46bd d3b1 653d 87ac f5bd f1cf 093d
00000190: 5a0c 85bd d60c 873c 1e6d c13d 0ba1 0abd
000001a0: 385a 853d f196 b23d 8010 c0bc d22a 443c
000001b0: 212f f23d c7d2 913c 0bdd acbc 28f9 dbbd
000001c0: 7da5 1c3d a16e 81bd 3b56 99bd 1827 893d
000001d0: 692f d33b 5890 ab3d c4c3 dabc aa4b 3c3d
000001e0: b752 e3bd c581 bebd 18ff 4bbd 778d 9ebd
000001f0: 3464 983b ed8b 8a3d 201f 7f3d 84c1 3abc
00000200: fc07 0fbc dea1 b23d fa1e e03d a959 22be
00000210: acc2 833d 8735 593d ee72 f33d 5ac5 543d
00000220: b846 563d 5143 473c 82e7 ef3d 1ba9 8c3c
00000230: f41b 3f3d 0eba 493d 2313 f2bd 8098 e2bc
00000240: df03 45bd 66bd 06be 41b2 a6bc 5b88 d73c
00000250: 642f 0fbc 8f1a cbbd c492 d3bd b7a8 2fbc
00000260: 38cc 8b3a 4471 40bc bd81 b8bd a063 acbd
00000270: 5223 a93c 48f5 f6bd 3266 e6bd 1d9f b4bd
00000280: 5c85 03be ebe6 ee3c 4e69 9fbd 301f 6d3d
00000290: aea3 b43d f024 18bc 54e4 ed3d eb3f dbbc
000002a0: e444 9e3c 9222 0cbd df6e dbbd fa17 943d
000002b0: cfd6 5f3d dcc8 d83c b639 86bc a6db 593c
000002c0: 6bbd 26bd 05a1 8ebc 2ae7 0c3e 3be7 dfbd
000002d0: 6179 bbbd acf8 5ebd a3e3 9b3d a62f c03d
000002e0: 1f93 e9bd 1a2b bb3d 296e 4cbd eaac 883d
000002f0: 60a7 053c 8412 9a3d 47b0 483d 40c2 73bc
00000300: b832 e83d a710 903d 8c09 b4bd 9e11 30bc
00000310: 6acd 793d 9e79 b13b 6d18 b1bd 3d2d d1bc
00000320: f2f8 c73c 5775 a93d 7ce3 c83c d9dc ffbc
00000330: 9507 803b 82c8 aabd c4e2 ab3d b348 8cbc
00000340: 8b8b ba3d 299a c73d 9d6a a1bd 1f14 c33d
00000350: 0dbd a83d 6b31 d43d cb95 bd3c 9af6 00bc
00000360: 7d41 ae3b d2b9 063e 8704 863d 9c0e 2cbe
00000370: 8f08 5abd 1b6b 8b3c 1550 bdbd 4571 00be
00000380: bdf6 1abd f6d5 373d 1029 4f3d 04cd bd3d
00000390: 3dcf 3dbd bef4 0fbe 5595 ed3d af5a bcbd
000003a0: 6616 efbd c5b3 1ebc b957 e63d e316 06be
000003b0: 93d4 d2bd 259e d2bd b1ac 6e3c c8a8 73bd
000003c0: 3dc3 113e 64fb fe3c 0c86 a93d 00d4 803d
000003d0: 7222 b2bd a9e5 a0bd a3ec 4dbd fe1d 41bd
000003e0: 373f ed3d 55f4 3b3e 8a64 d23d fc0e ef3d
000003f0: dd8c c2bd 3df5 033e bc4a d83d ee22 903d
