04_Models/weekly_HBEA_base/best_model.pth (torch, 391349 bytes, 11 tensors)

lstm.weight_ih_l0 f4 [320, 50]
0.02522407 -0.076974176 -0.015268331 -0.030447498 0.11391358 -0.09478972 0.012057485 -0.05505347
0.016804226 0.01984858 0.027157413 0.11963202 0.1279883 0.07850661 -0.09348874 0.09636091
-0.0097601125 -0.0010979283 -0.053584076 0.07306881 0.07876769 -0.046196114 -0.0759708 -0.03012012
-0.083691716 0.032716006 -0.089908905 -0.008681081 -0.078849934 0.0028515607 0.11640737 -0.011982441
0.07527254 -0.020018032 0.008191023 -0.0010062815 0.0699862 0.061515458 0.051219665 0.06154751
-0.052448012 0.009289107 -0.0032605533 -0.05512479 -0.013502552 0.12076063 0.048085578 -0.03870371
-0.06756358 -0.06318748 -0.054000054 -0.09831216 -0.053968396 -0.07449961 0.059029464 0.037639257
-0.011936054 0.06297737 -0.10470395 -0.046230115 0.12601592 -0.07785948 -0.111598656 -0.025801271
0.010563216 -0.09130816 0.011318374 -0.086795524 -0.054315414 -0.06542357 0.005389115 -0.028378846
-0.040650565 -0.048649877 0.0012256865 -0.08343371 0.02555279 -0.07795505 0.11359085 -0.06859468
0.085734025 0.033854295 -0.03582611 0.03939861 0.0046912148 -0.05876732 -0.012158062 0.011702919
0.05183017 0.106451795 0.06392618 -0.0687679 -0.0068265786 0.023412151 0.1259588 -0.07504075
-0.07707556 0.003922457 -0.021919066 0.041574936 0.0050388384 0.10186615 0.04745803 0.06998635
0.077504724 -0.0015456886 -0.031531043 0.053171255 -0.03102197 0.07429988 0.08819483 0.10798864
-0.023265071 -0.03389336 0.10008155 0.07420881 -0.07432521 -0.044651218 0.12836248 -0.025819056
-0.023157734 0.041396398 -0.025424093 0.118944325 0.017180316 0.07146039 0.114716485 0.14718397
-0.10490929 0.057410013 0.13694958 0.12747104 0.047794044 0.12352444 0.008483008 0.100688115
-0.054099873 -0.00523883 0.061110206 0.14790262 -0.1104524 -0.04441461 -0.06463557 0.053912047
0.026590427 -0.049445406 0.12209102 0.049156204 0.0793898 0.02589043 0.06328305 -0.10599582
-0.06274462 -0.0209832 0.007607921 0.05805425 -0.034833897 0.0965444 0.009104943 -0.030744892
0.107988454 0.09352898 0.034797035 -0.030066043 -0.07660105 0.090191856 0.06923173 -0.08506471
0.07910421 0.06539119 0.050404605 0.06625849 -0.0036597236 0.032850694 -0.10492161 -0.0005974267
0.06650782 0.06441975 -0.056400172 -0.058464438 -0.008480806 0.0044173524 0.031642057 0.027077146
0.008194973 -0.039216965 0.045065228 0.04713196 0.0582835 -0.101902544 -0.009721815 0.09554771
0.01653452 0.09727435 -0.026572827 -0.064436376 0.083824776 0.0234473 -0.0023396197 0.037069544
-0.007294764 0.018788101 0.011419365 -0.108060285 0.0023924012 -0.073613815 0.044818185 -0.06711706
0.10415019 0.08575171 0.121428624 0.0012228155 0.015934044 0.02756812 0.061385587 0.045150556
-0.023474129 3.288139e-05 -0.08485406 0.0431012 0.10742754 0.09238475 0.05057555 0.10652371
0.02452589 0.040545166 0.116026625 0.052995857 -0.18594939 -0.032260265 0.07344363 -0.031246722
0.07942881 -0.04322854 0.0943553 0.07984847 -0.08771751 -0.06634867 -0.07188083 -0.13033344
-0.023753555 0.10672874 -0.053178843 0.07644086 -0.04897978 -0.08989573 0.057850197 -0.0468343
-0.087154634 0.0033702839 -0.0486885 0.077107 0.0044038296 0.028984092 0.095860586 -0.08161564
00000000: b5a2 ce3c a3a4 9dbd 0628 7abc 086d f9bc
00000010: 864b e93d 1d21 c2bd c28c 453c bf7f 61bd
00000020: 04a9 893c 7d99 a23c 3979 de3c a201 f53d
00000030: 5d0f 033e 13c8 a03d 0677 bfbd de58 c53d
00000040: e1e8 1fbc 5ce8 8fba fa7a 5bbd 1aa5 953d
00000050: f450 a13d 2338 3dbd 9496 9bbd 78be f6bc
00000060: 9066 abbd 3801 063d 2922 b8bd 183b 0ebc
00000070: 137c a1bd 40e1 3a3b fd66 ee3d 0052 44bc
00000080: 7d28 9a3d dbfc a3bc a433 063c 34e5 83ba
00000090: ed54 8f3d a2f7 7b3d b6cb 513d 3e19 7c3d
000000a0: bad3 56bd 5731 183c 02af 55bb 88ca 61bd
000000b0: cf39 5dbc 5951 f73d 62f5 443d c887 1ebd
000000c0: c65e 8abd 7068 81bd 292f 5dbd e357 c9bd
000000d0: f70d 5dbd 4093 98bd e1c8 713d 9f2b 1a3d
000000e0: 708f 43bc 48fa 803d 066f d6bd ca5b 3dbd
000000f0: 510a 013e cb74 9fbd d68d e4bd 305d d3bc
00000100: 5711 2d3c c6ff babd b470 393c dac1 b1bd
00000110: d779 5ebd cbfc 85bd 2c97 b03b c17a e8bc
00000120: 3581 26bd 1845 47bd 37a7 a03a 4bdf aabd
00000130: 1654 d13c e6a6 9fbd 52a2 e83d 5e7b 8cbd
00000140: 5295 af3d cdaa 0a3d 66be 12bd 7060 213d
00000150: c3b8 993b 00b6 70bd 9c32 47bc 9abd 3f3c
00000160: df4b 543d 6603 da3d bbeb 823d 2fd6 8cbd
00000170: 7eb1 dfbb d7ca bf3c 58fb 003e f7ae 99bd
00000180: cbd9 9dbd f487 803b 9d8f b3bc 7b4a 2a3d
00000190: d71c a53b 339f d03d 5a63 423d 0155 8f3d
000001a0: ccba 9e3d b498 caba b226 01bd 1aca 593d
000001b0: c921 febc 892a 983d 7e9f b43d 2629 dd3d
000001c0: 6496 bebc c4d3 0abd 8ef7 cc3d cafa 973d
000001d0: d137 98bd 32e4 36bd 7471 033e 7c82 d3bc
000001e0: 4ab5 bdbc 458f 293d 3046 d0bc 1599 f33d
000001f0: bcbd 8c3c d359 923d 7af0 ea3d 65b7 163e
00000200: afda d6bd c326 6b3d 833c 0c3e c587 023e
00000210: b0c3 433d 62fa fc3d 50fc 0a3c 9235 ce3d
00000220: d497 5dbd 7eaa abbb b24e 7a3d c973 173e
00000230: de34 e2bd 18ec 35bd a75f 84bd e1d2 5c3d
00000240: 2bd4 d93c 4487 4abd db0a fa3d 0458 493d
00000250: 1f97 a23d 2b18 d43c 8b9a 813d 5614 d9bd
00000260: 4080 80bd f6e4 abbc de4b f93b 4bca 6d3d
00000270: fdad 0ebd 12b9 c53d e62c 153c b6dc fbbc
00000280: 0d29 dd3d 1f8c bf3d 5687 0e3d 104d f6bc
00000290: 03e1 9cbd 82b6 b83d 5ec9 8d3d 6836 aebd
000002a0: 6301 a23d d1eb 853d 0f75 4e3d 88b2 873d
000002b0: f9d7 6fbb 738e 063d 24e1 d6bd a19c 1cba
000002c0: 4035 883d 80ee 833d de03 67bd 6878 6fbd
000002d0: 14f3 0abc 70bf 903b 1a9b 013d e4d0 dd3c
000002e0: 3544 063c f8a1 20bd 5196 383d 710d 413d
000002f0: aeba 6e3d 48b2 d0bd 3f48 1fbc 85ae c33d
00000300: 6773 873c c637 c73d 42af d9bc 38f7 83bd
00000310: 53ac ab3d 8d14 c03c 4e54 19bb 3cd6 173d
00000320: ea08 efbb 81e9 993c 4a18 3b3c b64e ddbd
00000330: d5c9 1c3b d7c2 96bd 4693 373d ab74 89bd
00000340: b24c d53d 989e af3d 92af f83d e146 a03a
00000350: 1d88 823c 8ad6 e13c 746f 7b3d caef 383d
00000360: d14c c0bc 20ea 0938 f7c7 adbd e28a 303d
00000370: f802 dc3d 3734 bd3d 4f28 4f3d 1a29 da3d
00000380: 85ea c83c b012 263d 5e9f ed3d 2f12 593d
00000390: 8469 3ebe 5723 04bd 9d69 963d 20f9 ffbc
000003a0: 92ab a23d 6910 31bd 5a3d c13d 9887 a33d
000003b0: 3da5 b3bd d0e1 87bd 4236 93bd 2176 05be
000003c0: d196 c2bc 9994 da3d 0fd2 59bd 078d 9c3d
000003d0: 069f 48bd 411b b8bd 54f4 6c3d 53d5 3fbd
000003e0: 217e b2bd fbdf 5c3b 986d 47bd 46ea 9d3d
000003f0: 004e 903b 0c70 ed3c 8e52 c43d 1a26 a7bd

lstm.weight_hh_l0 f4 [320, 80]
-0.1047974 0.03591768 0.10340934 0.0006291164 0.06587321 -0.06662024 0.09108193 0.032260742
0.017837362 0.04052001 0.11611192 0.0030027193 -0.02892701 -0.044541348 -0.003462737 -0.047397103
0.10607724 -0.12319688 0.08931173 -0.05965257 0.11475338 0.063161336 -0.051254984 -0.13287526
-0.030008545 0.009525674 -0.021392988 -0.08476987 -0.03899601 0.06410929 -0.033723403 -0.047353398
-0.06008324 -0.013047045 0.05539431 0.009994052 -0.07633168 -0.021738218 0.07459499 -0.009074397
-0.10599498 0.032746546 0.07773504 0.08783269 -0.022657907 -0.08316595 -0.059132192 0.007138227
0.0017616248 -0.06429028 0.08245004 0.072621524 0.11235798 0.012188885 -0.08795947 0.09236254
-0.07504447 -0.10748657 -0.032099523 0.061239526 -0.15781528 0.021885 0.04394472 0.11892256
-0.035488382 -0.041290388 0.053278346 0.025638862 -0.09825219 0.05047733 -0.04044958 -0.065615766
-0.03969999 0.014758408 -0.06079412 0.034308128 -0.025450941 -0.08709318 0.07134716 -0.092466146
0.079779975 -0.08623676 -0.06159561 -0.090657495 -0.13860314 -0.091729395 0.0069657755 0.010261362
0.08912184 0.06555758 -0.07799151 0.12295184 0.0729664 0.0053037205 -0.10174589 0.049087115
0.043282907 0.041673344 -0.0013916056 0.020222208 0.064137466 -0.051567513 0.080936305 -0.067645304
0.0035954183 -0.02467807 -0.09335707 0.0036524385 0.04434391 0.05271524 -0.009244752 0.06527232
-0.05355826 0.056478206 -0.11009553 0.009816622 0.1229441 0.0685312 0.11707575 -0.012988475
0.09079118 0.021990655 -0.08210241 -0.036438216 -0.008547231 0.10031485 -0.018789256 -0.086350955
0.03759697 0.065007284 -0.023708949 -0.07492335 -0.08933404 -0.052475806 -0.0457146 -0.013085074
0.05102327 0.050694104 -0.08374087 0.012376193 0.06369197 -0.10268177 0.01559087 -0.07079917
0.07819018 0.008555384 0.0612114 0.028755432 0.02620678 0.10800396 0.0082934 -0.08227762
-0.035816807 -0.010687114 -0.086805366 -0.11167718 0.010139306 0.09660669 0.043948356 0.13615614
0.033414625 -0.09611735 -0.028120877 -0.1002433 -0.009736275 0.09179524 -0.054371282 -0.08387105
0.02857496 -0.030943904 0.12362824 -0.10616781 0.033323526 0.03833769 -0.06490501 -0.078628995
-0.033442322 -0.046269435 -0.009047836 -0.098561846 0.0645422 -0.04362456 0.027673589 -0.025976185
0.027610768 0.012368361 0.031859342 -0.118373014 -0.010583167 0.04748995 0.09632164 -0.04429064
-6.6611436e-05 -0.031379655 0.017117627 0.040495276 -0.000639336 -0.036063895 -0.107143015 -0.09097287
-0.028620452 -0.039467335 0.10630938 0.13501462 -0.08297881 -0.056568068 0.09032851 -0.06027713
-0.13099585 -0.007583737 0.049069703 0.067275144 0.08501203 -0.02904074 -0.07534511 0.053170893
-0.093123056 -0.004768502 0.14204815 0.028767025 0.037848935 0.077630915 0.023923926 0.065340355
-0.06682268 0.07918223 -0.08878442 0.017449224 -0.16178948 0.07818309 -0.07645404 0.050496187
0.056818403 -0.014742541 0.16086301 0.058467247 -0.018800426 0.0010057954 -0.118904255 -0.10139969
-0.01571621 0.088862754 -0.0058823572 0.07072619 0.06114448 -0.039478716 0.114681974 -0.029721063
-0.111781195 0.027819352 0.074303515 0.099209905 -0.0402463 0.04259158 -0.010504093 -0.1090711
00000000: 05a0 d6bd 6b1e 133d 47c8 d33d 49eb 243a
00000010: 89e8 863d 3170 88bd 2a89 ba3d d723 043d
00000020: a91f 923c 4ff8 253d 16cc ed3d 45c9 443b
00000030: 56f8 ecbc fd70 36bd 16ef 62bb 7723 42bd
00000040: 063f d93d a54e fcbd 11e9 b63d 4156 74bd
00000050: d203 eb3d bb5a 813d bff0 51bd 7410 08be
00000060: 7bd4 f5bc 9311 1c3c 5940 afbc d39b adbd
00000070: 48ba 1fbd bb4b 833d 8d21 0abd a3f5 41bd
00000080: d819 76bd 46c3 55bc 25e5 623d 18be 233c
00000090: c953 9cbd 5914 b2bc 42c5 983d c8ac 14bc
000000a0: e513 d9bd 3e21 063d 8c33 9f3d a0e1 b33d
000000b0: 139d b9bc e952 aabd 9934 72bd cae7 e93b
000000c0: 52e6 e63a 9faa 83bd 91db a83d 98ba 943d
000000d0: f11b e63d e4b3 473c 1824 b4bd 9228 bd3d
000000e0: eab0 99bd eb21 dcbd ca7a 03bd 4cd6 7a3d
000000f0: 549a 21be 2c48 b33c 61ff 333d ac8d f33d
00000100: 445c 11bd 1c20 29bd 653a 5a3d 9708 d23c
00000110: 7238 c9bd 51c1 4e3d 75ae 25bd 8f61 86bd
00000120: 759c 22bd 40cd 713c 4103 79bd ae86 0c3d
00000130: 7e7e d0bc e95d b2bd 761e 923d e45e bdbd
00000140: af63 a33d e69c b0bd ae4b 7cbd a3aa b9bd
00000150: fbed 0dbe 9fdc bbbd 2941 e43b 461f 283c
00000160: 8385 b63d 0d43 863d 03ba 9fbd 2dce fb3d
00000170: 686f 953d d5ca ad3b 2660 d0bd 920f 493d
00000180: 6b49 313d abb1 2a3d 8966 b6ba 0ba9 a53c
00000190: 815a 833d 7538 53bd efc1 a53d 9f89 8abd
000001a0: 1ca1 6b3b aa29 cabc fe31 bfbd c05d 6f3b
000001b0: f6a1 353d efeb 573d 4d77 17bc 7ead 853d
000001c0: e85f 5bbd b155 673d c479 e1bd e6d5 203c
000001d0: 1eca fb3d 165a 8c3d 69c5 ef3d 9dcd 54bc
000001e0: baf0 b93d bf25 b43c 4f25 a8bd 3d40 15bd
000001f0: af09 0cbc df71 cd3d edeb 99bc c5d8 b0bd
00000200: 48ff 193d 8a22 853d 4539 c2bc 6a71 99bd
00000210: c4f4 b6bd dff0 56bd 3b3f 3bbd c762 56bc
00000220: c7fd 503d 9fa4 4f3d 5580 abbd 84c5 4a3c
00000230: f070 823d d24a d2bd d970 7f3c 28ff 90bd
00000240: 2c22 a03d e22b 0c3c ceb8 7a3d 8390 eb3c
00000250: 9aaf d63c 2e31 dd3d 0ae1 073c 2b81 a8bd
00000260: a5b4 12bd 0119 2fbc 03c7 b1bd 01b7 e4bd
00000270: 551f 263c bad9 c53d 3103 343d 846c 0b3e
00000280: c6dd 083d 2cd9 c4bd c15d e6bc 5c4c cdbd
00000290: e684 1fbc 25ff bb3d 6cb4 5ebd 96c4 abbd
000002a0: 0916 ea3c 127e fdbc cd30 fd3d 826e d9bd
000002b0: 407e 083d fb07 1d3d ebec 84bd 3d08 a1bd
000002c0: d1fa 08bd 0585 3dbd 603d 14bc cbda c9bd
000002d0: b32e 843d abaf 32bd b9b3 e23c 02cc d4bc
000002e0: fa2f e23c aba4 4a3c f17e 023d 8d6d f2bd
000002f0: 0565 2dbc d284 423d 4844 c53d 1a6a 35bd
00000300: beb1 8bb8 f487 00bd 443a 8c3c 60de 253d
00000310: 1d99 27ba bcb7 13bd cc6d dbbd fc4f babd
00000320: 7075 eabc 80a8 21bd bbb8 d93d 4641 0a3e
00000330: cbf0 a9bd ebb3 67bd 27fe b83d 27e5 76bd
00000340: c723 06be ff80 f8bb 50fd 483d 8dc7 893d
00000350: ca1a ae3d d9e6 edbc 894e 9abd b9c9 593d
00000360: 4db7 bebd 1841 9cbb 1275 113e d3a8 eb3c
00000370: 7c07 1b3d f5fc 9e3d 1cfc c33c 2ad1 853d
00000380: 54da 88bd 4b2a a23d 9bd4 b5bd adf1 8e3c
00000390: 24ac 25be 751e a03d f093 9cbd 17d5 4e3d
000003a0: 6aba 683d b38a 71bc 46b9 243e 5a7b 6f3d
000003b0: 5a03 9abc e5d4 833a 1384 f3bd a4aa cfbd
000003c0: 48bf 80bc adfd b53d cac0 c0bb e5d8 903d
000003d0: a272 7a3d 6fb4 21bd 62de ea3d 9679 f3bc
000003e0: 8aed e4bd 69e5 e33c 712c 983d 902e cb3d
000003f0: 4ed9 24bd 8274 2e3d 5c19 2cbc ab60 dfbd

lstm.bias_ih_l0 f4 [320]
0.05644328 -0.10312893 0.06182305 0.07643592 -0.027249588 0.016443834 -0.03843596 0.057119407
-0.09634616 0.1388477 -0.0820654 -0.09526545 -0.03621578 0.09818911 -0.01919603 0.090491384
0.11776086 -0.075000204 -0.07400809 -0.009782978 0.049839836 -0.11408756 -0.017383821 -0.023234043
-0.06372898 -0.026160516 0.044424742 0.010368882 0.11375635 0.016320653 0.043791026 0.07776753
0.00023666215 0.09306247 -0.08694826 0.002096283 -0.047270495 -0.041392226 -0.027035365 0.08071043
0.04500561 0.09115097 0.09468913 -0.043224383 0.071483634 -0.10431616 0.0235525 -0.06961389
-0.050880622 -0.05351336 -0.025088742 0.021968542 0.065953895 0.03538312 -0.0008659441 0.08437359
-0.09553414 -0.0562959 0.059154447 -0.015400804 0.10711356 0.10810196 0.0023096008 -0.12883443
0.030081524 -0.100698985 -0.018896671 -0.0056547057 0.11831802 -0.028828893 0.116061725 0.15474136
-0.038462307 -0.11015636 0.052641653 0.06230882 0.09340013 -0.06784941 -0.006651306 0.0819214
-0.09515035 -0.053190455 -0.045559004 -0.055928312 0.038283702 -0.066278756 0.075486556 0.07777438
-0.07351686 0.070250764 0.04648858 0.11970484 -0.019256206 -0.035591718 0.12023495 -0.07240369
-0.05871803 -0.04887766 0.08120388 -0.1054008 0.12646997 0.015643293 0.050857574 -0.11559778
0.09768209 -0.120967135 0.06900332 -0.03067957 0.07165498 0.07786552 -0.09430039 -0.0690396
0.11718626 -0.07567528 0.04613697 0.11966748 -0.050260913 -0.056968126 0.111223206 -0.05815606
0.007263114 0.053517304 -0.083130516 -0.0009919342 -0.09224984 0.0049889297 -0.061197516 0.017500943
0.12073562 0.058298588 -0.02658043 -0.010666154 0.124304384 0.11955786 -0.10607737 0.0943318
0.047887813 -0.050383594 0.005252124 0.1300026 -0.049536053 -0.02393962 -0.08088545 -0.014881234
-0.05529127 -0.04346708 0.08638155 0.04326704 0.10152136 0.04050315 0.078062445 0.03365559
-0.029387819 0.104764566 -0.032252025 -0.04584002 -0.11306043 0.09425757 -0.04705949 -0.06265045
0.0807291 -0.045814596 0.100076444 -0.10317191 0.054867484 -0.028799077 0.021402206 0.07198686
-0.07026427 -0.11553204 0.012646085 0.02747948 -0.043859288 -0.102373555 0.086422734 -0.010682082
-0.056396678 -0.06649771 0.011911542 0.10947328 0.021367887 0.0349706 -0.05742591 -0.05260419
-0.0101753995 -0.03639515 -0.022658683 0.11991869 0.0686128 0.104285546 -0.09224525 0.058425702
-0.037528772 0.09058241 -0.0841242 -0.027664244 -0.03098702 -0.029390896 -0.022118336 -0.0592452
-0.018723015 0.045584954 0.095254354 -0.036993988 -0.01262597 0.0071095144 0.03663878 0.057051726
0.056297164 -0.0742582 -0.08122779 -0.030417696 0.011853283 -0.0005106362 0.069775425 -0.08943846
-0.10808734 -0.0011014101 0.03587967 -0.0486058 0.0105289845 0.009951575 -0.006534212 0.025275774
0.098486856 -0.0355031 0.09647292 -0.0075612855 -0.015548738 -0.09831211 0.0025004065 -0.018246429
-0.097967945 -0.013130411 0.017301926 0.05364321 -0.06971113 0.03166396 -0.09752221 -0.030150013
-0.016985409 0.011342099 0.06498424 -0.056701537 0.049407165 -0.046751786 -0.033433143 0.015672985
0.055386808 0.03145032 0.0067480155 -0.05840179 0.0923168 -0.018170727 0.06616597 0.051744897
00000000: 1231 673d 4335 d3bd 2b3a 7d3d 708a 9c3d
00000010: 873a dfbc 38b5 863c 066f 1dbd 0af6 693d
00000020: 2351 c5bd 172e 0e3e e811 a8bd 881a c3bd
00000030: ff56 14bd 5f17 c93d fe40 9dbc 8c53 b93d
00000040: 9b2c f13d b599 99bd 8e91 97bd c948 20bc
00000050: db24 4c3d bda6 e9bd 8468 8ebc 5255 bebc
00000060: 5784 82bd 944e d6bc b8f6 353d 3ee2 293c
00000070: 17f9 e83d e4b2 853c 385e 333d 9544 9f3d
00000080: 8328 7839 8997 be3d ee11 b2bd cb61 093b
00000090: b59e 41bd e58a 29bd 4579 ddbc 834b a53d
000000a0: cd57 383d 5cad ba3d 60ec c13d 0d0c 31bd
000000b0: 0366 923d b6a3 d5bd 2cf1 c03c ba91 8ebd
000000c0: 3368 50bd d330 5bbd e886 cdbc 5ff7 b33c
000000d0: d612 873d e4ed 103d 8600 63ba 10cc ac3d
000000e0: 67a7 c3bd 8896 66bd ef4b 723d a753 7cbc
000000f0: 5b5e db3d 8f64 dd3d ac5c 173b 2ced 03be
00000100: 876d f63c 453b cebd 31cd 9abc 1c4b b9bb
00000110: b850 f23d 922a ecbc c5b1 ed3d 8574 1e3e
00000120: a78a 1dbd a899 e1bd c69e 573d 8937 7f3d
00000130: 9148 bf3d a2f4 8abd 33f3 d9bb 68c6 a73d
00000140: 30de c2bd 3cde 59bd 149c 3abd 1615 65bd
00000150: 5fcf 1c3d 28bd 87bd b298 9a3d 2d48 9f3d
00000160: 0290 96bd a2df 8f3d cf6a 3e3d d027 f53d
00000170: 31bf 9dbc 9fc8 11bd be3d f63d 6348 94bd
00000180: 5182 70bd f133 48bd 384e a63d 60dc d7bd
00000190: 5881 013e 5d26 803c 0850 503d 87be ecbd
000001a0: 8c0d c83d 9ebd f7bd 9d51 8d3d b953 fbbc
000001b0: d9bf 923d f577 9f3d 9020 c1bd a264 8dbd
000001c0: 5aff ef3d a4fb 9abd 1ffa 3c3d 3914 f53d
000001d0: 63de 4dbd 6957 69bd fec8 e33d 0c35 6ebd
000001e0: 6bff ed3b f634 5b3d 5540 aabd ca03 82ba
000001f0: 7ced bcbd 2d7a a33b 3faa 7abd 235e 8f3c
00000200: 3d44 f73d 80ca 6e3d 34bf d9bc 18c1 2ebc
00000210: 4c93 fe3d c0da f43d 183f d9bd 0831 c13d
00000220: 0326 443d 075f 4ebd 021a ac3b 671f 053e
00000230: 51e6 4abd 061d c4bc 45a7 a5bd 6bd0 73bc
00000240: 1979 62bd 890a 32bd cfe8 b03d c838 313d
00000250: 6eea cf3d a2e6 253d 34df 9f3d 72da 093d
00000260: b9be f0bc ce8e d63d b31a 04bd bfc2 3bbd
00000270: 3a8c e7bd 1d0a c13d 74c1 40bd e14e 80bd
00000280: 4c55 a53d 16a8 3bbd e1f4 cc3d cb4b d3bd
00000290: babc 603d 0bec ebbc ae53 af3c d96d 933d
000002a0: b7e6 8fbd 109c ecbd 8631 4f3c a51c e13c
000002b0: cca5 33bd 3aa9 d1bd 67fe b03d e603 2fbc
000002c0: 3400 67bd f42f 88bd a128 433c 8733 e03d
000002d0: b50b af3c 553d 0f3d 6e37 6bbd 7e77 57bd
000002e0: b8b6 26bc 1513 15bd b49e b9bc ee97 f53d
000002f0: de84 8c3d a993 d53d 14eb bcbd ca4f 6f3d
00000300: c5b7 19bd 4583 b93d 4f49 acbd 20a0 e2bc
00000310: 7ed8 fdbc 2dc5 f0bc 8331 b5bc 18ab 72bd
00000320: 0261 99bc 4ab7 3a3d b714 c33d 0287 17bd
00000330: 28dd 4ebc eef6 e83b 8c12 163d 12af 693d
00000340: db97 663d af14 98bd c15a a6bd 882e f9bc
00000350: 4634 423c 37dc 05ba 6be6 8e3d 832b b7bd
00000360: e55c ddbd 315d 90ba 90f6 123d e016 47bd
00000370: c381 2c3c ee0b 233c f11c d6bb 240f cf3c
00000380: 7ab3 c93d b36b 11bd 9893 c53d a9c4 f7bb
00000390: 22c0 7ebc dc57 c9bd dcdd 233b 8979 95bc
000003a0: 6ba3 c8bd ef20 57bc c5bc 8d3c fcb8 5b3d
000003b0: b5c4 8ebd 12b2 013d b9b9 c7bd 29fd f6bc
000003c0: fc24 8bbc 36d4 393c 7516 853d df3f 68bd
000003d0: 2b5f 4a3d cd7e 3fbd 31f1 08bd a264 803c
000003e0: 47dd 623d 0dd2 003d 751e dd3b b736 6fbd
000003f0: 9710 bd3d c7da 94bc 0682 873d 75f2 533d

lstm.bias_hh_l0 f4 [320]
-0.005036377 -0.035671122 0.14785092 -0.11740099 -0.07456507 0.12906963 0.12870017 0.064736776
0.08737261 -0.07045263 -0.06309411 0.08744634 0.046792407 0.010715447 0.15510835 0.07278905
-0.080430225 -0.12537172 0.006829721 -0.007225249 0.081900425 0.04705178 -0.06367528 -0.045738537
-0.055128664 -0.0764948 -0.014754154 -0.07778084 0.07903083 0.11620037 -0.0033076336 -0.016917873
0.019240448 -0.08964383 -0.035406586 -0.08852143 -0.08966431 0.023254413 0.06447968 -0.052183058
0.014939982 0.04672859 -0.020306323 -0.0044298214 0.11937738 -0.048985794 0.06635219 0.03496423
0.003179825 0.10931834 -0.12387906 -0.079266764 0.002903823 0.013154806 -0.016576678 -0.02526218
-0.124875836 -0.08151086 0.010828193 0.055695917 0.12614593 0.08759962 -0.006590446 -0.021559544
0.032598343 -0.09501801 0.013718667 -0.04531053 -0.057100315 -0.07085565 0.14453015 -0.006765237
0.03744387 -0.084863305 0.028681891 0.05768619 -0.08922839 0.08213089 0.048589446 0.12897731
0.1122553 0.0045316885 0.01702795 0.092306405 0.0820115 -0.10361706 0.118677974 -0.010143638
-0.10828895 0.09908887 0.09260345 -0.07279323 -0.0811132 0.123576805 -0.039051965 -0.045749784
0.030392718 -0.1305377 0.054469638 -0.077735394 0.0015326288 -0.013415531 0.044709638 -0.06628449
-0.068318926 -0.039161116 -0.053622667 0.028347611 -0.058970325 0.029383905 -0.052107733 -0.01725296
0.113953434 -0.06877418 0.09078706 0.11256758 -0.10710721 -0.11187611 0.04221409 -0.08025008
0.08559688 -0.08578437 0.07899485 -0.056349877 -0.066416144 -0.018006086 -0.043101978 0.0011962741
-0.047335006 0.07828259 0.08279012 0.05011133 0.08438012 -0.077689335 0.07885433 -0.057897992
-0.06399069 -0.12191374 -0.025050301 0.10883523 -0.042493492 0.0012584102 0.006906882 -0.07754593
0.06959308 0.019541979 0.043578472 0.10488406 0.05206186 0.0072360486 -0.084151305 0.07807787
0.099778615 0.04067799 -0.052780367 0.033912417 0.04551392 0.05685084 -0.006748892 0.11086335
-0.024445157 -0.06313942 -0.06153177 -0.013193505 0.027343413 0.043158423 -0.04490249 -0.057367876
-0.06111373 0.09740813 -0.019533237 0.10117991 -0.028030105 -0.06519728 -0.078693695 -0.08897646
-0.023522114 -0.097582005 0.09257528 0.06786369 -0.06743303 0.063738614 0.021869065 -0.011436491
0.03952148 0.08907614 -0.08462056 -0.09516561 0.0226716 0.059332132 0.026668835 -0.0076601775
0.03398438 0.06998485 0.005710377 0.010775824 0.099565655 0.11014992 0.05749601 0.016708482
-0.03286702 0.023238137 -0.040437497 -0.04617449 -0.0061558234 -0.00315969 -0.0884265 -0.07289378
0.07370576 0.05145934 0.056182183 -0.1085406 -0.08602659 0.059294917 -0.0515085 0.059750766
0.07541706 -0.03327023 0.10092863 -0.10277706 0.0072527244 -0.035714686 -0.031185564 0.046938747
-0.0013862572 -0.09994882 -0.049482137 -0.10896429 -0.001999403 -0.03285263 -0.044059243 0.06256836
0.0454489 -0.009760759 -0.04366679 -0.047364272 -0.07640778 0.011692281 0.056404673 0.048842613
-0.022428341 -0.033297025 -0.007367216 -0.048829757 -0.078059845 -0.062416404 0.12485678 -0.012026106
0.0383654 0.030298987 -0.011712794 -0.040923744 0.06277358 -0.034344412 0.03471759 0.07886464
00000000: 3108 a5bb e21b 12bd 3b66 173e ee6f f0bd
00000010: 92b5 98bd d42a 043e fac9 033e b794 843d
00000020: 69f0 b23d 7849 90bd 7c37 81bd 1117 b33d
00000030: 65a9 3f3d d88f 2f3c b9d4 1e3e 6d12 953d
00000040: 9ab8 a4bd 7261 00be dacb df3b c8c1 ecbb
00000050: 69bb a73d 5eb9 403d 2f68 82bd 5558 3bbd
00000060: 98ce 61bd 4ea9 9cbd 68bb 71bc 904b 9fbd
00000070: eada a13d 76fa ed3d e2c4 58bb 5a97 8abc
00000080: 259e 9d3c 2f97 b7bd 7f06 11bd b94a b5bd
00000090: eca1 b7bd 0a80 be3c ec0d 843d e7bd 55bd
000000a0: d4c6 743c 7a66 3f3d 7259 a6bc 0928 91bb
000000b0: 217c f43d 54a5 48bd a8e3 873d a736 0f3d
000000c0: 9c64 503b 4be2 df3d 4eb4 fdbd 9d56 a2bd
000000d0: 114e 3e3b 4187 573c d0cb 87bc a2f2 cebc
000000e0: e7be ffbd 2aef a6bd bc68 313c 6721 643d
000000f0: 662c 013e 6e67 b33d abf4 d7bb a49d b0bc
00000100: d785 053d cd98 c2bd 43c4 603c 8997 39bd
00000110: 05e2 69bd c41c 91bd b6ff 133e ecae ddbb
00000120: be5e 193d d0cc adbd 49f6 ea3c 5b48 6c3d
00000130: 60bd b6bd 3d34 a83d ba05 473d a112 043e
00000140: 1be6 e53d 8f7e 943b 337e 8b3c 240b bd3d
00000150: a5f5 a73d 2e35 d4bd 700d f33d 8031 26bc
00000160: 99c6 ddbd 1bef ca3d e1a6 bd3d 9e14 95bd
00000170: ad1e a6bd d615 fd3d f4f4 1fbd 2064 3bbd
00000180: 26fa f83c adab 05be 8e1b 5f3d bc33 9fbd
00000190: 7de2 c83a d1cc 5bbc 7421 373d 2ac0 87bd
000001a0: cbea 8bbd 6867 20bd 71a3 5bbd 4039 e83c
000001b0: de8a 71bd 84b6 f03c eb6e 55bd 1456 8dbc
000001c0: 6b60 e93d 7ad9 8cbd 91ee b93d d589 e63d
000001d0: 065b dbbd 4d1f e5bd aee8 2c3d 275a a4bd
000001e0: 6b4d af3d b7af afbd 0dc8 a13d 21cf 66bd
000001f0: 3005 88bd 8081 93bc b38b 30bd 4ccc 9c3a
00000200: 5ae2 41bd 9f52 a03d de8d a93d 8a41 4d3d
00000210: 7ccf ac3d 961b 9fbd 617e a13d 7226 6dbd
00000220: 8d0d 83bd e9ad f9bd 4a36 cdbc 01e5 de3d
00000230: a80d 2ebd 3df1 a43a 2053 e23b 67d0 9ebd
00000240: d186 8e3d 8016 a03c 577f 323d 74cd d63d
00000250: d13e 553d 601c ed3b 8557 acbd 4ae7 9f3d
00000260: bb58 cc3d f79d 263d 3a30 58bd bfe7 0a3d
00000270: ce6c 3a3d 6ddc 683d cf25 ddbb 530c e33d
00000280: 3641 c8bc 3d4f 81bd bd08 7cbd 9229 58bc
00000290: 4bff df3c e3c6 303d aceb 37bd 94fa 6abd
000002a0: 6452 7abd ea7d c73d 2b04 a0bc 6a37 cf3d
000002b0: 649f e5bc 2786 85bd 292a a1bd 4a39 b6bd
000002c0: 73b1 c0bc 13d9 c7bd 1c98 bd3d 1efc 8a3d
000002d0: 541a 8abd 6489 823d c126 b33c 1f60 3bbc
000002e0: 47e1 213d 8d6d b63d 8b4d adbd 30e6 c2bd
000002f0: cbb9 b93c 4006 733d 9a78 da3c 3a02 fbbb
00000300: 3533 0b3d 3854 8f3d 1d1e bb3b 158d 303c
00000310: 14e9 cb3d 4896 e13d f080 6b3d 3ae0 883c
00000320: 929f 06bd e85d be3c caa1 25bd 7621 3dbd
00000330: cab6 c9bb cd12 4fbb f418 b5bd 5649 95bd
00000340: 0cf3 963d 07c7 523d 4a1f 663d 894a debd
00000350: b52e b0bd 3adf 723d 94fa 52bd 38bd 743d
00000360: 4274 9a3d 5d46 08bd abb3 ce3d c77c d2bd
00000370: 43a8 ed3b 9049 12bd de78 ffbc d842 403d
00000380: 13b3 b5ba f8b1 ccbd c8ad 4abd ab28 dfbd
00000390: 6a08 03bb 7b90 06bd 7777 34bd d723 803d
000003a0: a028 3a3d 97eb 1fbc f3db 32bd 0a01 42bd
000003b0: af7b 9cbd fb90 3f3c 9608 673d 310f 483d
000003c0: a4bb b7bc 7662 08bd b068 f1bb b601 48bd
000003d0: d7dd 9fbd 58a8 7fbd e9b4 ff3d 2509 45bc
000003e0: 0a25 1d3d 9535 f83c 05e7 3fbc a89f 27bd
000003f0: 6f8f 803d baac 0cbd 0834 0e3d c983 a13d

lstm.weight_ih_l1 f4 [320, 80]
-0.07058813 -0.069875285 -0.08575891 0.013883622 -0.06973588 -0.13467145 0.07531015 0.029388616
0.0855119 -0.037054148 0.039459817 0.062389605 0.043727875 -0.012810082 -0.021160455 0.037805345
0.08448549 0.05148774 -0.08547415 -0.08693196 -0.035199575 0.0087254355 0.021188887 0.06551718
0.008412263 0.059590317 0.01403291 0.061755236 -0.058589086 -0.04402493 0.044538386 0.10038868
-0.012876282 -0.05265307 0.019586088 0.13636331 0.055838514 -0.0934628 -0.014963944 -0.1300953
-0.13573982 -0.09124264 0.09809471 0.050859388 0.035276495 0.0789155 -0.06118636 0.05713444
-0.10427039 0.032128118 0.0606449 -0.059630007 -0.059965026 0.09381497 0.060280506 -0.09760517
0.016077423 -0.06992658 0.10462423 -0.003953508 -0.002448772 -0.021641495 -0.055821173 -0.08531037
0.0395854 -0.035856258 -0.04388604 0.014386152 -0.07387044 -0.004340261 0.0377874 -0.059321452
-0.04918666 -0.03581706 -0.02155944 -0.022441447 -0.10506097 0.01139585 -0.058555733 0.07680952
-0.1203086 -0.090692826 0.05431902 0.061456725 -0.078697234 -0.039718587 0.024045384 -0.01769541
0.018697757 -0.0063371127 0.0014251692 -0.014780498 -0.047412682 0.0018939343 -0.12354337 -0.020306136
0.050386414 -0.08778495 0.009782302 0.0638907 -0.04073371 0.06036277 -0.067270786 0.07801926
0.066219635 -0.019544095 0.0559157 0.09933534 -0.092351995 0.016984249 0.07151835 0.057227444
0.14232118 0.10793094 0.034168463 -0.041434284 -0.040309306 -0.035789043 0.09129574 0.056354366
0.1054491 0.09276122 0.05570025 0.0029245769 0.115151405 0.01531564 0.056145832 -0.11664901
0.039162386 -0.039215043 -0.032084253 -0.051956963 -0.075110234 0.059597462 -0.13681078 -0.08282008
0.00743765 0.069284484 0.063762784 0.06340046 -0.069617614 -0.065622896 0.0017742447 0.05746321
0.12478879 0.05639411 0.014415902 0.025011186 0.06806498 -0.05080352 0.057370882 0.020568838
-0.01425407 0.062188055 0.027984206 0.014826776 0.13728893 -0.06416216 0.012763506 -0.031408075
0.06837342 -0.033386257 0.08407396 -0.043057278 -0.13505203 -0.017554626 -0.073806666 -0.009411256
-0.08557069 0.014192954 -0.04193148 0.008502446 -0.002928825 -0.09733434 -0.053572502 -0.08154269
0.005957255 0.078697376 -0.04755806 0.060674835 -0.10408048 0.071279846 -0.0698077 0.047168143
0.030440476 -0.057644136 -0.065163344 0.027169002 -0.020137735 0.044797678 -0.00792226 -0.08397653
-0.043662913 -0.12677112 -0.10195719 -0.037921716 0.003817496 0.093493715 -0.057974342 -0.05239732
-0.09130369 0.0021928085 0.059129916 0.09004561 0.090195775 -0.07645852 -0.09218531 -0.11813295
0.13844922 -0.017383361 -0.091177076 0.010872454 -0.021303961 -0.07708727 -0.059764646 -0.095142275
-0.12531911 -0.030961884 -0.021525031 -0.06976709 0.036368202 0.047566272 -0.04080742 -0.010021288
-0.060351536 -0.11532101 0.032709103 0.07276899 -0.0003520109 -0.09850419 0.051121905 0.0730283
-0.06571837 0.10259121 -0.0549466 -0.00211614 -0.064173646 -0.0024097324 -0.0025762874 -0.036015894
0.08728144 -0.08840914 -0.01496981 0.04845809 -0.055161387 -0.049553685 -0.0557928 -0.017856795
0.06604914 0.0035841926 -0.035065114 -0.027973276 -0.062577054 -0.122870155 0.053031825 0.095119074
00000000: 8290 90bd c61a 8fbd 5ea2 afbd 2278 633c
00000010: afd1 8ebd 50e7 09be 353c 9a3d 65c0 f03c
00000020: dd20 af3d 17c6 17bd 9ea0 213d 3e8c 7f3d
00000030: 001c 333d 61e1 51bc b158 adbc c7d9 1a3d
00000040: bb06 ad3d cfe4 523d 120d afbd 6209 b2bd
00000050: 6e2d 10bd 21f5 0e3c 5194 ad3c df2d 863d
00000060: 97d3 093c fa14 743d 4aea 653c 0ff3 7c3d
00000070: 1cfb 6fbd 7c53 34bd e26d 363d 9598 cd3d
00000080: 0bf7 52bc bfaa 57bd 0173 a03c d3a2 0b3e
00000090: edb6 643d 6d69 bfbd 552b 75bc b437 05be
000000a0: 61ff 0abe 6cdd babd e1e5 c83d ef51 503d
000000b0: 167e 103d 739e a13d 8c9e 7abd cd05 6a3d
000000c0: b78b d5bd c698 033d c966 783d 983e 74bd
000000d0: e39d 75bd 1022 c03d b1e8 763d 38e5 c7bd
000000e0: cdb4 833c ab35 8fbd 3a45 d63d 6e8c 81bb
000000f0: 947b 20bb 8149 b1bc bea4 64bd 34b7 aebd
00000100: 4d24 223d 03de 12bd d9c1 33bd e5b3 6b3c
00000110: 6349 97bd c038 8ebb f6c6 1a3d 0dfb 72bd
00000120: f477 49bd e9b4 12bd 6c9d b0bc 20d7 b7bc
00000130: 352a d7bd a9b5 3a3c 23d8 6fbd 4f4e 9d3d
00000140: 5b64 f6bd 29bd b9bd 9f7d 5e3d 0cba 7b3d
00000150: 042c a1bd f5af 22bd d3fa c43c f7f5 90bc
00000160: 0a2c 993c 8ea7 cfbb becc ba3a e729 72bc
00000170: cd33 42bd e43d f83a 4e04 fdbd 0e59 a6bc
00000180: fc61 4e3d 99c8 b3bd f345 203c 21d9 823d
00000190: 64d8 26bd f43e 773d 44c5 89bd 90c8 9f3d
000001a0: 299e 873d f01a a0bc dc07 653d 5470 cb3d
000001b0: 0b23 bdbd 8d22 8b3c 3678 923d 5367 6a3d
000001c0: a5bc 113e e60a dd3d 3bf4 0b3d ffb6 29bd
000001d0: 5f1b 25bd 8897 12bd 43f9 ba3d d6d3 663d
000001e0: b3f5 d73d 98f9 bd3d f225 643d 42aa 3f3b
000001f0: 80d4 eb3d 73ee 7a3c 2cf9 653d ade5 eebd
00000200: bd68 203d f49f 20bd c76a 03bd d3d0 54bd
00000210: 65d3 99bd 781c 743d 2018 0cbe 939d a9bd
00000220: 88b7 f33b 06e5 8d3d 1096 823d 1ad8 813d
00000230: ae93 8ebd 4c65 86bd c68d e83a 8b5e 6b3d
00000240: 4491 ff3d 83fd 663d ad30 6c3c 42e4 cc3c
00000250: a765 8b3d 5a17 50bd bbfd 6a3d fb7f a83c
00000260: e789 69bc e7b8 7e3d 223f e53c 02ec 723c
00000270: 7895 0c3e 7367 83bd 061e 513c c1a5 00bd
00000280: 5d07 8c3d 07c0 08bd f82e ac3d d45c 30bd
00000290: 144b 0abe b8ce 8fbc f327 97bd ab31 1abc
000002a0: b03f afbd 9089 683c 58c0 2bbd d84d 0b3c
000002b0: 88f1 3fbb 3a57 c7bd d76e 5bbd dbff a6bd
000002c0: 1435 c33b 172c a13d 3ecc 42bd 2d86 783d
000002d0: 2628 d5bd 2bfb 913d 57f7 8ebd 6233 413d
000002e0: 4e5e f93c 421c 6cbd 5c74 85bd 8791 de3c
000002f0: e4f7 a4bc c57d 373d 5ecc 01bc e3fb abbd
00000300: e2d7 32bd 4ad0 01be eece d0bd cd53 1bbd
00000310: f42e 7a3b a279 bf3d 8176 6dbd 929e 56bd
00000320: 6efd babd 39b5 0f3b 3632 723d d569 b83d
00000330: 90b8 b83d 4996 9cbd a7cb bcbd b0ef f1bd
00000340: a2c5 0d3e 8d67 8ebc 0cbb babd 6122 323c
00000350: a585 aebc eedf 9dbd c6cb 74bd f4d9 c2bd
00000360: a753 00be c7a3 fdbc 4355 b0bc 0ce2 8ebd
00000370: d3f6 143d dad4 423d ae25 27bd 5430 24bc
00000380: 2c33 77bd 6c2d ecbd fbf9 053d e907 953d
00000390: 1a8e b8b9 91bc c9bd 3465 513d dd8f 953d
000003a0: 5a97 86bd 571b d23d b00f 61bd f0ae 0abb
000003b0: 796d 83bd 9aec 1dbb eed6 28bb 6785 13bd
000003c0: 9dc0 b23d da0f b5bd ef43 75bc fd7b 463d
000003d0: e8f0 61bd cef8 4abd fe86 64bd 6a48 92bc
000003e0: c644 873d c6e4 6a3b 70a0 0fbd 3628 e5bc
000003f0: 6628 80bd 59a3 fbbd e637 593d cacd c23d

lstm.weight_hh_l1 f4 [320, 80]
-0.070647486 0.012292412 -0.13282645 -0.025965204 0.110567115 -0.052753184 0.011658328 0.013667343
0.050214976 -0.11206332 -0.025371559 -0.020953473 -0.08097881 -0.03387166 -0.11128097 -0.020224666
0.0753517 -0.06640318 0.08308272 -0.04960515 -0.047221433 -0.006960327 -0.03739767 -0.081522055
-0.023348685 0.053217154 0.014191475 0.041890476 0.052819785 -0.077352464 0.12521833 -0.0073979395
-0.042257313 0.1243334 -0.074695915 0.058699332 -0.008997421 -0.10504831 0.1010591 -0.0636187
-0.046815347 -0.07499677 0.021835169 -0.05850539 -0.06474144 -0.02256792 0.04013846 -0.1173537
0.07724136 -0.0073889582 0.08374026 0.14118515 0.008628613 -0.10143322 0.030401867 0.07329375
-0.053281438 -0.08585289 0.09328399 -0.07736461 0.043631796 0.03367015 -0.06076222 0.13847609
-0.0040060137 0.024866385 0.008790923 0.100323185 0.024841323 0.08742496 0.091533534 0.040391803
-0.05243842 0.0027069612 -0.011153654 -0.012855687 -0.017583627 0.050368402 -0.026262078 0.039933328
-0.037671436 0.0069488697 0.08763246 -0.027750883 -0.0044316403 0.095459834 -0.030229447 -0.079345524
-0.068648644 0.048499435 0.07368449 0.10685558 0.046127945 -0.06210026 0.10469081 -0.08705697
0.0715769 -0.03925838 0.013493037 -0.097240925 0.047843866 0.025831833 -0.009354653 0.028124487
0.07496015 0.06398702 -0.008354676 -0.0423802 0.080431305 -0.12716077 -0.071897335 -0.07444531
-0.06099575 0.10940483 0.022787893 -0.09839809 -0.0753886 0.07577643 0.04528595 -0.021201465
-0.06558372 0.09317643 0.05528732 -0.03691826 0.09367221 -0.06338193 0.03902143 -0.044513162
-0.06235437 0.06511174 -0.055193778 -0.080479756 0.11903343 -0.07018313 -0.06832914 -0.02998148
-0.04191366 0.057020165 0.069951765 -0.12254333 0.043826256 0.029844541 0.051130947 -0.007647429
0.0144611355 -0.065802865 -0.000455208 -0.008525973 0.07805657 -0.05497614 0.0022401763 -0.049981937
-0.0609691 -0.019744232 0.087541744 0.011175639 -0.022441715 0.08710888 0.017998174 0.026482258
0.040161278 0.10263671 -0.07910603 -0.019629033 0.12961903 -0.118856125 0.02687271 0.12299148
-0.11220016 0.027697157 -0.03987749 0.12133079 -0.13351923 -0.06688886 0.061138462 -0.005708677
0.009402805 0.013882177 0.035822 -0.1320386 0.05765098 -0.05683036 -0.07603163 0.07929145
-0.05618697 0.030914366 0.07142105 0.057379134 0.037172634 -0.0073579927 0.054947775 0.07399265
0.011544978 0.08303125 0.09280838 0.057976488 -0.02909019 0.012104397 -0.05668122 -0.071064524
0.018136382 0.012540526 0.008728823 -0.06598502 -0.05228935 0.077192366 0.08790089 0.12111881
-0.085829936 -0.013753092 -0.055311467 0.13845286 0.069138356 -0.046618737 -0.04522652 -0.08389449
-0.0893084 -0.03937893 -0.012719837 0.12922765 -0.054377854 0.052474532 0.049089536 0.016175177
0.025670182 0.018722227 0.100753106 0.022249572 0.059935804 -0.06705838 0.08709819 0.054195676
0.07472034 -0.067842364 -0.0048426073 0.033170518 0.048558775 0.09320807 -0.059000872 0.053877927
-0.07712569 -0.113805816 -0.12679456 0.03561872 -0.063731246 -0.12028107 -0.046353735 0.086533725
-0.000982114 -0.073861934 -0.052410454 -0.060505174 -0.08332341 0.05071191 -0.039864697 -0.10249278
00000000: a1af 90bd 1d66 493c a803 08be fbb4 d4bc
00000010: 0371 e23d b913 58bd 9202 3f3c feec 5f3c
00000020: 38ae 4d3d 7481 e5bd 04d8 cfbc 9ea6 abbc
00000030: 38d8 a5bd 02bd 0abd 47e7 e3bd 33ae a5bc
00000040: fe51 9a3d 64fe 87bd 4627 aa3d c52e 4bbd
00000050: 436b 41bd 7413 e4bb 4d2e 19bd 09f5 a6bd
00000060: be45 bfbc 3bfa 593d 5c83 683c 5995 2b3d
00000070: 8f59 583d f86a 9ebd 3c39 003e 6a6a f2bb
00000080: 0116 2dbd 82a2 fe3d 2cfa 98bd b66e 703d
00000090: eb69 13bc 9123 d7bd 13f8 ce3d 854a 82bd
000000a0: 73c1 3fbd e897 99bd abdf b23c 59a3 6fbd
000000b0: 2997 84bd 5ce0 b8bc 3a68 243d 2357 f0bd
000000c0: b830 9e3d 131f f2bb 0380 ab3d d792 103e
000000d0: 075f 0d3c 38bc cfbd 560d f93c 091b 963d
000000e0: a33d 5abd a4d3 afbd ad0b bf3d 5671 9ebd
000000f0: 41b7 323d b6e9 093d cee1 78bd adcc 0d3e
00000100: e144 83bb 97b4 cb3c ce07 103c 3e76 cd3d
00000110: 0880 cb3c dc0b b33d ef75 bb3d e071 253d
00000120: abc9 56bd 4667 313b d1bd 36bc a9a0 52bc
00000130: 8a0b 90bc 194f 4e3d 9223 d7bc 2191 233d
00000140: 5d4d 1abd 58b3 e33b a678 b33d d255 e3bc
00000150: 4b37 91bb 7280 c33d bfa3 f7bc e87f a2bd
00000160: a997 8cbd 58a7 463d e5e7 963d 19d7 da3d
00000170: a8f0 3c3d d85c 7ebd 2368 d63d ed4a b2bd
00000180: e996 923d 65cd 20bd e611 5d3c 4026 c7bd
00000190: eef7 433d 489d d33c 4244 19bc 5365 e63c
000001a0: b584 993d a00b 833d 0de2 08bc dc96 2dbd
000001b0: 2bb9 a43d 6f36 02be e93e 93bd c876 98bd
000001c0: aed6 79bd a40f e03d adad ba3c f084 c9bd
000001d0: 5765 9abd ac30 9b3d c37d 393d b2ae adbc
000001e0: c250 86bd 49d3 be3d f574 623d 9a37 17bd
000001f0: 37d7 bf3d 63ce 81bd efd4 1f3d 6f53 36bd
00000200: 4c67 7fbd 4e59 853d df12 62bd 92d2 a4bd
00000210: cdc7 f33d 2cbc 8fbd 26f0 8bbd b99b f5bc
00000220: a8ad 2bbd fa8d 693d df42 8f3d fff7 fabd
00000230: 2983 333d 8a7c f43c af6e 513d 4997 fabb
00000240: 66ee 6c3c a7c3 86bd fca8 eeb9 86b0 0bbc
00000250: 1fdc 9f3d a92e 61bd eccf 123b dcb9 4cbd
00000260: bcba 79bd a8be a1bc 1649 b33d 071a 373c
00000270: b0d7 b7bc 2466 b23d e870 933c 52f1 d83c
00000280: 2780 243d 3233 d23d 5802 a2bd 11cd a0bc
00000290: daba 043e d76a f3bd 2824 dc3c f5e2 fb3d
000002a0: 33c9 e5bd 26e5 e23c 9456 23bd 477c f83d
000002b0: 44b9 08be 07fd 88bd 536c 7a3d db0f bbbb
000002c0: 390e 1a3c 1272 633c 17ba 123d 2035 07be
000002d0: 6f23 6c3d f4c6 68bd 79b6 9bbd 8e63 a23d
000002e0: 4f24 66bd 2040 fd3c 3345 923d 6206 6b3d
000002f0: 5542 183d 511b f1bb eb10 613d 7589 973d
00000300: 2627 3d3c 4a0c aa3d 5212 be3d c178 6d3d
00000310: 8d4e eebc 8551 463c 912a 68bd 478a 91bd
00000320: c092 943c c776 4d3c 5603 0f3c 2723 87bd
00000330: 5c2d 56bd 0817 9e3d 6205 b43d 230d f83d
00000340: 9bc7 afbd a654 61bc 478e 62bd 96c6 0d3e
00000350: 6998 8d3d 4af3 3ebd 723f 39bd e0d0 abbd
00000360: 53e7 b6bd cd4b 21bd dd66 50bc 4154 043e
00000370: 50bb 5ebd 89ef 563d 1c12 493d ce81 843c
00000380: 464a d23c 5b5f 993c a557 ce3d bc44 b63c
00000390: 3f7f 753d e755 89bd 8960 b23d 49fc 5d3d
000003a0: fa06 993d f0f0 8abd bcae 9ebb cfdd 073d
000003b0: 91e5 463d dfe3 be3d e6aa 71bd 1aaf 5c3d
000003c0: 13f4 9dbd 0613 e9bd 6fd6 01be efe4 113d
000003d0: 8785 82bd ec55 f6bd 6add 3dbd 9838 b13d
000003e0: 47ba 80ba ed44 97bd 58ac 56bd 46d4 77bd
000003f0: 77a5 aabd 4bb7 4f3d 2a49 23bd bce7 d1bd

lstm.bias_ih_l1 f4 [320]
0.005219526 -0.08066197 -0.062227707 -0.033170786 0.08544332 0.013607597 -0.10281903 -0.058095496
0.047482636 -0.050371718 -0.055349864 0.12125019 0.11129129 0.031917006 0.10523225 -0.0725188
0.021046015 -0.032006823 0.09746974 -0.052720852 0.01343842 0.095938854 -0.025521167 0.014887447
0.119545534 -0.0028313522 0.101820044 0.071596466 -0.10942514 -0.080300674 0.12188959 0.091833994
-0.017995518 -0.052346908 -0.007521995 0.1010976 0.041968215 0.020327589 0.08395437 -0.11552548
-0.10870383 0.10109842 0.018090252 -0.096578285 -0.08060212 0.007680523 -0.019062951 0.03137321
-0.10695205 0.08761259 -0.031220416 -0.0931305 -0.051704355 0.04366704 0.059527148 0.105876386
0.05099911 -0.0040256684 0.033670057 0.11579672 -0.04124929 0.09010499 -0.011635587 0.085555695
0.021095179 0.07686755 0.12944074 0.05854454 0.040040094 0.006069974 -0.020816509 0.10116833
0.094094545 -0.021322541 0.051044587 0.0616833 0.03133675 0.046500627 0.013550409 -0.0089364415
0.017775731 -0.07724785 -0.07524375 0.025633616 0.09395506 -0.042172566 -0.08015296 -0.043024722
0.0836225 0.07370309 0.07030674 -0.05855511 0.11537502 0.020949893 0.105546616 -0.014033694
0.011420607 -0.088018164 -0.015556063 0.08187186 0.08172811 -0.08575276 0.103379324 -0.07737745
0.053316202 0.10316225 -0.11772579 -0.011630739 -0.052793004 -0.068532914 -0.066224754 0.038359515
-0.08833569 -0.03259979 0.012774175 0.033511102 -0.101728424 0.029090472 -0.022203205 -0.0040432503
0.095867455 -0.1087447 0.054225504 -0.06311576 -0.019343905 0.030469159 -0.02648981 -0.0021198592
-0.08129173 -0.0013230419 0.08082913 -0.036489945 0.0006015403 0.09449668 0.060859654 0.08932721
0.019177977 -0.022050114 -0.039517097 -0.08106207 0.088710845 0.0065438654 0.04769275 -0.09253814
0.025900643 0.01533106 0.02493726 0.02642578 -0.13727325 0.096441045 0.07354119 -0.090588436
0.027440809 -0.10828338 -0.08841071 0.016457487 -0.10625594 -0.051818606 -0.08047716 0.065087
0.075967856 0.0954742 -0.10495406 0.012763518 0.10777901 0.1128322 -0.098622605 -0.11567529
0.075020336 -0.093426414 0.074101806 -0.0760946 0.023822917 -0.020419836 -0.06699916 0.08027078
-0.015486502 0.060593564 0.025118044 -0.017686792 0.10725503 -0.11087391 0.065600984 -0.05528944
-0.025942948 0.12134417 0.030193418 0.036246493 0.039564 0.11159675 -0.053343214 0.057935584
0.007040869 -0.009882023 -0.0008411144 0.039150268 -0.026884945 -0.123338155 0.0042570517 0.047116637
0.05858017 -0.014253379 0.035105765 0.007871061 -0.10584424 0.048685115 -0.056918077 0.07019531
0.07684294 0.00419961 0.01796294 0.012373844 0.028705759 0.009919526 0.00091363594 -0.013797815
-0.037914902 0.11618423 0.090144336 0.0072462917 0.03754235 -0.008593531 0.0032285838 -0.070343494
0.05577197 0.01990583 -0.024344547 -0.049520444 -0.051833577 0.025667403 0.083776265 -0.08194709
-0.076818876 0.023300456 -0.030291863 0.08044998 -0.09681872 -0.06303794 -0.053697556 -0.09949676
0.13647407 -0.012124827 -0.014339038 0.015718734 0.024327163 -0.07588111 -0.010365158 -0.015229859
0.022253098 0.049890175 0.034746423 -0.085706234 -0.03020079 0.06891932 0.077818945 -0.04294928
00000000: 8f08 ab3b 1a32 a5bd 7be2 7ebd 17de 07bd
00000010: e8fc ae3d 66f2 5e3c c992 d2bd 8bf5 6dbd
00000020: 277d 423d 9352 4ebd 8ab6 62bd 0552 f83d
00000030: b0ec e33d 68bb 023d 0284 d73d bd84 94bd
00000040: b168 ac3c 9619 03bd 379e c73d d2f1 57bd
00000050: d22c 5c3c 977b c43d c411 d1bc 7aea 733c
00000060: 4ad4 f43d 358e 39bb 0787 d03d 2ba1 923d
00000070: 4a1a e0bd ae74 a4bd 40a1 f93d 7613 bc3d
00000080: 566b 93bc b669 56bd 117b f6bb 420c cf3d
00000090: dde6 2b3d 0b86 a63c 45f0 ab3d 9f98 ecbd
000000a0: 1da0 debd b00c cf3d 0232 943c d6ca c5bd
000000b0: b912 a5bd e6ac fb3b e829 9cbc 3281 003d
000000c0: ad09 dbbd 3b6e b33d f5c1 ffbc 34bb bebd
000000d0: f2c7 53bd 36dc 323d bdd2 733d b8d5 d83d
000000e0: 71e4 503d c1e9 83bb 9de9 093d d526 ed3d
000000f0: 04f5 28bd f788 b83d 30a3 3ebc d337 af3d
00000100: cccf ac3c bc6c 9d3d 1d8c 043e 66cc 6f3d
00000110: 1501 243d a2e6 c63b 6287 aabc 5731 cf3d
00000120: a4b4 c03d 9cac aebc 2114 513d a1a7 7c3d
00000130: f75a 003d 7177 3e3d 8902 5e3c 276a 12bc
00000140: 699e 913c 1f34 9ebd 6519 9abd 97fd d13c
00000150: 836b c03d 24bd 2cbd 3c27 a4bd b13a 30bd
00000160: 4642 ab3d a5f1 963d fbfc 8f3d 7cd7 6fbd
00000170: bd49 ec3d 1c9f ab3c d328 d83d 94ed 65bc
00000180: 7f1d 3b3c de42 b4bd dbde 7ebc 6fac a73d
00000190: 1161 a73d 259f afbd 8ab8 d33d 1278 9ebd
000001a0: 1762 5a3d bb46 d33d 381a f1bd db8e 3ebc
000001b0: 7a3d 58bd fc5a 8cbd d8a0 87bd de1e 1d3d
000001c0: 58e9 b4bd 5b87 05bd c64a 513c f042 093d
000001d0: fe56 d0bd 244f ee3c 7fe3 b5bc 3e7d 84bb
000001e0: 2856 c43d 8bb5 debd 901b 5e3d d642 81bd
000001f0: 1c77 9ebc 759a f93c 2801 d9bc 56ed 0abb
00000200: 477c a6bd eb69 adba be89 a53d 7b76 15bd
00000210: b0b0 1d3a 7a87 c13d f947 793d 2ff1 b63d
00000220: 221b 9d3c 71a2 b4bc aedc 21bd df03 a6bd
00000230: 08ae b53d ec6d d63b 7959 433d a384 bdbd
00000240: 962d d43c 202f 7b3c 3a49 cc3c e17a d83c
00000250: 5c91 0cbe e282 c53d c39c 963d 6e86 b9bd
00000260: 8ccb e03c adc3 ddbd ad10 b5bd dad1 863c
00000270: b79c d9bd bf3f 54bd 36d1 a4bd 554c 853d
00000280: 0995 9b3d fa87 c33d 27f2 d6bd 131e 513c
00000290: 3ebb dc3d 9214 e73d a6fa c9bd 2be7 ecbd
000002a0: 43a4 993d 5956 bfbd b0c2 973d 7cd7 9bbd
000002b0: 4728 c33c 8047 a7bc db36 89bd 0265 a43d
000002c0: 19bb 7dbc f530 783d 5bc4 cd3c e4e3 90bc
000002d0: 86a8 db3d dc11 e3bd cf59 863d 2e77 62bd
000002e0: 4e86 d4bc 4b83 f83d 3058 f73c 3477 143d
000002f0: dc0d 223d d68c e43d 6a7e 5abd dd4d 6d3d
00000300: 17b7 e63b 35e8 21bc 3b7e 5cba 085c 203d
00000310: d13d dcbc b798 fcbd bd7e 8b3b 60fd 403d
00000320: c3f1 6f3d 0187 69bc 10cb 0f3d 9ff5 003c
00000330: ddc4 d8bd 0b6a 473d ee22 69bd 8fc2 8f3d
00000340: d55f 9d3d e29c 893b 0427 933c aabb 4a3c
00000350: 5728 eb3c 8285 223c 1281 6f3a 3b10 62bc
00000360: a84c 1bbd fff1 ed3d 989d b83d 4d72 ed3b
00000370: 02c6 193d e2cb 0cbc a696 533b 4010 90bd
00000380: 2671 643d 8d11 a33c 376e c7bc f3d5 4abd
00000390: 724f 54bd 7244 d23c e492 ab3d e0d3 a7bd
000003a0: 3753 9dbd 99e0 be3c a426 f8bc f6c2 a43d
000003b0: e548 c6bd 091a 81bd f8f1 5bbd f5c4 cbbd
000003c0: dcbf 0b3e 36a7 46bc 49ee 6abc 93c4 803c
000003d0: c249 c73c 8e67 9bbd a0d2 29bc a986 79bc
000003e0: 214c b63c a459 4c3d 4452 0e3d c086 afbd
000003f0: a667 f7bc 9325 8d3d 8a5f 9f3d 96eb 2fbd
