04_Models/weekly/GDEA/base/best_model.pth (torch, 918197 bytes, 11 tensors)

lstm.weight_ih_l0 f4 [512, 50]
0.08288784 0.08775968 -0.10549615 -0.04765968 0.06022094 -0.02042863 0.07490764 -0.0052620913
0.0149943605 -0.07097415 0.028452653 0.037154865 -0.07809658 0.07023442 0.041901167 0.04646586
0.031384878 -0.14438087 0.13167104 0.06554931 0.055103872 -0.044476047 -0.024570873 0.034978088
-0.104082875 -0.079556555 -0.084901154 -0.10495524 0.020804124 0.08581066 0.0023986897 0.0042440724
-0.17731841 -0.065936476 -0.027007252 -0.189608 -0.110102795 -0.14202379 -0.16690199 0.0056974487
-0.0064490894 -0.05975847 0.05937526 0.046551734 -0.0568366 -0.013033354 -0.06190962 0.123487554
-0.06771554 0.04364923 0.08566211 0.16435868 0.14782721 0.08228867 0.12161319 -0.07953654
0.059922967 0.09139279 0.14896536 0.05995274 0.07071273 0.019863138 0.22596373 0.12603922
0.07446961 0.010679197 0.041178986 -0.0010729156 0.124981694 0.018042335 0.06747272 0.010992613
0.13611186 0.071099915 -0.114142396 0.16370101 0.01593201 0.073530175 -0.17696056 -0.14511295
0.14612225 0.054107178 0.13949695 0.17983648 0.035676945 0.12675712 0.07800948 0.0555513
0.004873679 0.17685649 0.0091532525 0.13744698 0.15447715 0.11803809 0.053068627 -0.0041463845
0.10333861 0.05751844 0.05987154 0.19896074 0.072993845 -0.0822183 0.03398448 0.023861676
-0.09632589 -0.053565346 0.030108508 0.036738977 -0.028449241 0.0890373 -0.09014544 -0.034373797
0.11739969 -0.091897376 0.025086131 0.12150219 -0.09149609 0.12145969 -0.020379895 0.04088336
0.11338983 -0.07715589 0.11740533 0.06667022 0.046493035 -0.05256957 -0.03229548 0.05010318
0.031513274 -0.27134863 -0.051753752 -0.023485353 -0.054152764 -0.119336054 -0.017057016 -0.1534057
0.004516245 -0.024012666 -0.066438675 -0.17840357 -0.084097326 0.03344196 0.07679489 0.091089584
0.091700986 -0.19075516 0.11290943 0.09521587 0.07665671 0.056441773 0.08746572 0.08281882
0.07026829 -0.08343743 -0.07148839 -0.04981869 0.037937388 0.11302667 0.012667331 -0.039233834
-0.065584145 -0.09689399 0.05344363 -0.039700978 -0.017613212 0.0851545 -0.03170793 -0.058020655
0.019147214 -0.014158011 0.0093783345 0.043292623 -0.010309556 0.0724086 -0.019437326 -0.12778753
-0.05644167 -0.030811213 -0.02416225 -0.15401371 -0.040225424 0.06213216 -0.017290741 0.15695825
0.024068806 -0.020234969 -0.09936638 -0.0035779309 0.022104222 -0.114776045 -0.07576081 0.035786863
-0.030437147 -0.029287612 -0.019949704 -0.048102345 -0.106083706 -0.02044758 0.03687543 0.009047096
0.14136782 0.019012341 0.1001748 -0.033496615 0.15437347 -0.081861615 -0.067376845 0.07499948
0.05975894 0.030289311 0.088451065 0.15084209 0.07255323 0.065552436 0.02499246 0.09432118
0.06318681 0.029705409 0.037466764 0.056666564 0.035573665 0.11590211 0.03951971 0.08551644
0.07965574 -0.0051240036 -0.05358389 0.08768653 -0.15492907 0.21119945 0.05040525 -0.031945366
-0.014748774 0.031843916 0.039367028 -0.05285147 0.0033857161 -0.028861053 0.02073217 0.03887507
0.041061185 0.04394184 0.10579615 0.20679803 0.06352757 -0.0057564033 0.13343062 0.09142694
0.111670606 0.117175356 0.041683286 -0.060904164 0.064949125 0.07569519 -0.006252828 -0.011499535
00000000: 1ac1 a93d 59bb b33d 5e0e d8bd cc36 43bd
00000010: 3baa 763d f159 a7bc 2d69 993d 9f6d acbb
00000020: e8aa 753c e55a 91bd 8a15 e93c b32f 183d
00000030: 1af1 9fbd 10d7 8f3d 8fa0 2b3d fc52 3e3d
00000040: 6e8d 003d 94d8 13be c6d4 063e b73e 863d
00000050: 99b4 613d 842c 36bd db48 c9bc 2f45 0f3d
00000060: 6729 d5bd 8cee a2bd a8e0 adbd c6f2 d6bd
00000070: 696d aa3c 80bd af3d 5633 1d3b dc11 8b3b
00000080: f592 35be b409 87bd 503e ddbc 9928 42be
00000090: 937d e1bd af6e 11be 5be8 2abe aab1 ba3b
000000a0: e252 d3bb 4cc5 74bd 7933 733d 08ad 3e3d
000000b0: 7fcd 68bd d989 55bc f194 7dbd 0be7 fc3d
000000c0: 72ae 8abd 89c9 323d 9e6f af3d a44d 283e
000000d0: 0460 173e f686 a83d 5610 f93d 0ee4 a2bd
000000e0: c971 753d 252c bb3d 608a 183e 0191 753d
000000f0: d6d1 903d 05b8 a23c 0963 673e 6d10 013e
00000100: 8683 983d ccf7 2e3c 4cab 283d 13a1 8cba
00000110: 67f6 ff3d 85cd 933c 232f 8a3d 5c1a 343c
00000120: e860 0b3e d59c 913d 7dc3 e9bd 3da1 273e
00000130: d983 823c fd96 963d 2635 35be 7d98 14be
00000140: 12a1 153e 7d9f 5d3d 4ad8 0e3e 0e27 383e
00000150: fd21 123d 9ecc 013e 6fc3 9f3d c389 633d
00000160: 62b3 9f3b de19 353e 86f7 153c e7be 0c3e
00000170: 422f 1e3e f4bd f13d 7d5e 593d 65de 87bb
00000180: 31a3 d33d 7598 6b3d dc3b 753d 5dbc 4b3e
00000190: cc7d 953d 1162 a8bd 4f33 0b3d 9079 c33c
000001a0: 8246 c5bd 5667 5bbd 1ea6 f63c 9c7b 163d
000001b0: 620e e9bc 3059 b63d 2c9e b8bd 8acb 0cbd
000001c0: 406f f03d b134 bcbd 6e81 cd3c 24d6 f83d
000001d0: 4d62 bbbd dcbf f83d bdf3 a6bc 4f75 273d
000001e0: ed38 e83d e803 9ebd 3572 f03d 658a 883d
000001f0: 7b6f 3e3d 3053 57bd 4448 04bd fe38 4d3d
00000200: 1014 013d 35ee 8abe befb 53bd 5b64 c0bc
00000210: 4acf 5dbd 7666 f4bd 28bb 8bbc 6216 1dbe
00000220: 02fd 933b 36b6 c4bc 0011 88bd 6daf 36be
00000230: 383b acbd 70fa 083d a446 9d3d 2d8d ba3d
00000240: bacd bb3d 5255 43be 0f3d e73d 8a00 c33d
00000250: 31fe 9c3d 7d2f 673d 3a21 b33d ea9c a93d
00000260: d2e8 8f3d 3ee1 aabd 8168 92bd af0e 4cbd
00000270: 3c64 1b3d 877a e73d a38a 4f3c a8b3 20bd
00000280: fb50 86bd 5b70 c6bd b5e7 5a3d 7e9d 22bd
00000290: 9549 90bc 7c65 ae3d 2de0 01bd 11a7 6dbd
000002a0: 9eda 9c3c 01f7 67bc 96a7 193c 9b53 313d
000002b0: 69e9 28bc f64a 943d 073b 9fbc bcda 02be
000002c0: 612f 67bd cc67 fcbc e9ef c5bc c5b5 1dbe
000002d0: 6ac3 24bd 4b7e 7e3d 50a5 8dbc aab9 203e
000002e0: f22b c53c cec3 a5bc 9a80 cbbd b87b 6abb
000002f0: ea13 b53c b40f ebbd 7c28 9bbd 3f95 123d
00000300: 5357 f9bc 93ec efbc 906d a3bc f706 45bd
00000310: 6a42 d9bd af81 a7bc b10a 173d 453a 143c
00000320: bac2 103e c5bf 9b3c 7228 cd3d bf33 09bd
00000330: 1414 1e3e 10a7 a7bd dffc 89bd 5499 993d
00000340: cac5 743d 4a21 f83c d525 b53d 5976 1a3e
00000350: ca96 943d 5b40 863d fdbc cc3c 762b c13d
00000360: 1668 813d c258 f33c c076 193d 331b 683d
00000370: b1b5 113d 165e ed3d 6bdf 213d 3e23 af3d
00000380: 8c22 a33d 42e7 a7bb c87a 5bbd ff94 b33d
00000390: baa5 1ebe ab44 583e bc75 4e3d 25d9 02bd
000003a0: d7a4 71bc c46e 023d 523f 213d c87a 58bd
000003b0: e4e2 5d3b 046e ecbc 83d6 a93c 773b 1f3d
000003c0: c62f 283d 5cfc 333d a7ab d83d ddc2 533e
000003d0: be1a 823d 36a0 bcbb 09a2 083e 0c3e bb3d
000003e0: 8fb3 e43d a2f9 ef3d 18bc 2a3d a576 79bd
000003f0: 0c04 853d 1406 9b3d 86e4 ccbb 8c68 3cbc

lstm.weight_hh_l0 f4 [512, 128]
-0.06834686 0.042360306 -0.009516212 -0.011389456 0.008050701 0.05006544 -0.00078502577 0.16493678
0.05980834 -0.11951161 0.033984043 0.0073860707 0.0651442 0.179042 0.048474927 -0.15603404
0.06612529 -0.055011246 -0.026225345 -0.075028844 0.060845636 -0.03368199 -0.07656704 -0.12538512
0.033349104 0.076380156 0.099269435 0.0017643103 0.16412814 0.023908352 0.023504704 0.15524542
0.026038459 -0.0901564 0.003946781 -0.025062284 0.013337651 0.05638461 -0.03346361 -0.043412477
0.08226969 0.06747869 -0.052204523 0.068767466 -0.009299373 -0.0638687 -0.023543606 -0.05546509
-0.0011754568 0.049582087 -0.011324895 -0.009725852 -0.07177765 0.038792588 -0.0061782068 0.04304855
0.019222615 0.0020069252 -0.01039964 0.06461962 -0.024136724 0.056717053 0.058621313 0.02990988
0.00044749212 -0.0050225654 -0.032172043 0.06266853 -0.00437239 -0.106693625 0.02094752 0.051067024
-0.06481454 -0.045284964 0.040951822 0.056546293 -0.0072024786 0.09288699 -0.08936182 -0.0072616194
-0.1041781 -0.0799923 -0.09122985 0.010081182 -0.09844004 0.07270791 -0.040589377 0.028867837
0.04368369 -0.10583272 -0.010849348 -0.023856876 0.06317362 -0.022322189 0.012236673 0.012952848
-0.04465982 0.071608014 0.13326016 0.10216813 0.06451704 -0.016166361 -0.10291504 0.06429618
0.06515236 0.011478929 0.04143606 -0.11444102 -0.059457146 0.12340064 0.03774229 -0.12096038
0.06440107 -0.05411466 -0.02830349 0.00049992243 0.0014876237 0.02276537 0.062936835 -0.05721734
0.040837724 -0.07378338 0.16774626 -0.07071996 -0.033125572 -0.04583518 0.010562649 -0.11324505
0.18967958 0.014271511 0.02144397 -0.104808114 0.010918569 0.049158312 -0.07687243 0.2626334
0.006483504 -0.17082441 0.04870467 0.22216572 0.16504031 0.044220172 0.07219365 -0.12981999
-0.10921183 -0.21137905 0.1723702 0.017493542 -0.18133889 0.24751441 -0.061104696 -0.27224505
-0.053397283 -0.062997885 0.10413219 0.0705272 0.0066523245 0.02495882 0.20757866 0.24077678
0.2929998 -0.18749546 -0.068887725 -0.0500156 -0.029990718 -0.22569671 0.1269131 -0.09835165
-0.119066045 -0.10487662 -0.09440803 0.016380671 0.12934877 0.059428416 -0.036203664 -0.21527055
-0.005808848 -0.046969574 -0.14326723 -0.0024911214 -0.20584407 0.10808855 0.07711031 0.015318869
0.072711155 0.09118155 -0.034336146 0.25555596 0.11529243 0.0421362 0.0033783847 -0.03237703
-0.040001646 -0.096965715 -0.07458675 -0.12067608 0.061110903 0.025597667 -0.1253454 0.0033054794
-0.19271736 -0.14679626 -0.086570606 0.08331883 -0.1345812 0.027056273 -0.019762203 -0.089714
-0.104651995 -0.12837581 -0.058460988 0.08644195 0.023096174 0.17468543 0.11753211 -0.09675524
0.2540109 0.03386491 -0.09872476 -0.14026372 0.030858306 0.10297225 -0.054283783 -0.04016919
0.054449577 -0.016858408 0.26573238 0.17305508 0.12770303 -0.0043535787 -0.06770494 0.11362398
-0.09980306 -0.07399834 0.21554571 -0.059253268 0.1001009 -0.04466536 0.1629054 0.004199481
0.044539403 -0.21762583 0.087737836 0.091446735 -0.03142006 -0.0003079368 0.036218196 0.09953648
0.056529127 -0.074376136 0.26211223 -0.0749308 -0.18093415 -0.036354315 0.032438338 -0.22640005
00000000: 70f9 8bbd 0082 2d3d e3e9 1bbc d79a 3abc
00000010: 16e7 033c 6b11 4d3d 30ca 4dba 30e5 283e
00000020: 97f9 743d 81c2 f4bd da32 0b3d da06 f23b
00000030: 536a 853d c956 373e a58d 463d 63c7 1fbe
00000040: b26c 873d 7953 61bd 89d6 d6bc b9a8 99bd
00000050: 4639 793d 20f6 09bd 2ecf 9cbd f564 00be
00000060: 1299 083d 336d 9c3d c64d cb3d 6e40 e73a
00000070: 3511 283e 73db c33c f08c c03c a8f8 1e3e
00000080: 9b4e d53c eba3 b8bd 0054 813b 6b4f cdbc
00000090: 2a86 5a3c 8cf3 663d 2311 09bd 48d1 31bd
000000a0: 037d a83d 4432 8a3d 69d4 55bd f5d5 8c3d
000000b0: 665c 18bc 98cd 82bd 85de c0bc 5d2f 63bd
000000c0: c911 9aba 9616 4b3d 0d8c 39bc 2e59 1fbc
000000d0: 2900 93bd fae4 1e3d 8e72 cabb ad53 303d
000000e0: bf78 9d3c 9e86 033b 4063 2abc 4b57 843d
000000f0: 61ba c5bc 2450 683d e71c 703d 9105 f53c
00000100: 609d ea39 5594 a4bb d5c6 03bd 5c58 803d
00000110: 4446 8fbb 3082 dabd 229a ab3c a82b 513d
00000120: 7cbd 84bd ba7c 39bd 19bd 273d 169d 673d
00000130: c502 ecbb 893b be3d 5403 b7bd e1f2 edbb
00000140: 545b d5bd 01d3 a3bd b7d6 babd 8b2b 253c
00000150: ef9a c9bd e2e7 943d 0c41 26bd 3e7c ec3c
00000160: abed 323d d3be d8bd 77c1 31bc 7f6f c3bc
00000170: 2c61 813d 06dd b6bc 547c 483c 2f38 543c
00000180: 37ed 36bd 39a7 923d 5a75 083e 863d d13d
00000190: 8321 843d 516f 84bc 1fc5 d2bd b7ad 833d
000001a0: 9a6e 853d 1e12 3c3c dcb8 293d 0e60 eabd
000001b0: 5689 73bd 7ab9 fc3d a997 1a3d 13ba f7bd
000001c0: b5e4 833d 55a7 5dbd b8dc e7bc 3a0d 033a
000001d0: 5efc c23a 717e ba3c 07e5 803d bb5c 6abd
000001e0: 7545 273d be1b 97bd adc5 2b3e a0d5 90bd
000001f0: aeae 07bd abbd 3bbd f60e 2d3c 05ed e7bd
00000200: 5d3b 423e 0ed3 693c 44ab af3c a3a5 d6bd
00000210: cce3 323c 3a5a 493d 4b6f 9dbd e377 863e
00000220: 9373 d43b 98ec 2ebe 8c7e 473d 697f 633e
00000230: 5400 293e 3620 353d 44da 933d 88ef 04be
00000240: 74aa dfbd c073 58be d081 303e 9e4e 8f3c
00000250: e7b0 39be 6b74 7d3e eb48 7abd b463 8bbe
00000260: 1cb7 5abd 0905 81bd 4243 d53d 9170 903d
00000270: befb d93b 7076 cc3c 808f 543e 308e 763e
00000280: 1204 963e cffe 3fbe 0215 8dbd 28dd 4cbd
00000290: 18af f5bc 0a1d 67be 82f5 013e 976c c9bd
000002a0: e6d8 f3bd 8ec9 d6bd ff58 c1bd c230 863c
000002b0: 0174 043e 366b 733d 4b4a 14bd e26f 5cbe
000002c0: 2658 bebb 2b63 40bd a5b4 12be 1542 23bb
000002d0: cac8 52be 885d dd3d 03ec 9d3d fefb 7a3c
000002e0: 96e9 943d 64bd ba3d 0fa4 0cbd 3bd8 823e
000002f0: 701e ec3d 0297 2c3d e467 5d3b c79d 04bd
00000300: c4d8 23bd f695 c6bd f0c0 98bd 0525 f7bd
00000310: 6d4f 7a3d 33b2 d13c 8b5a 00be bea0 583b
00000320: b357 45be c251 16be ee4b b1bd 10a3 aa3d
00000330: a7cf 09be 1ea5 dd3c 58e4 a1bc f9bb b7bd
00000340: c953 d6bd f374 03be ca74 6fbd 7a08 b13d
00000350: 3034 bd3c bde0 323e adb4 f03d 9c27 c6bd
00000360: b70d 823e efb5 0a3d 3530 cabd 4ba1 0fbe
00000370: 8fca fc3c 1de3 d23d ac58 5ebd 7388 24bd
00000380: 8506 5f3d a51a 8abc 130e 883e 5a35 313e
00000390: 95c4 023e 77a8 8ebb e3a8 8abd b0b3 e83d
000003a0: 8c65 ccbd 718c 97bd 04b8 5c3e 8eb3 72bd
000003b0: b301 cd3d 06f3 36bd acd0 263e cd9b 893b
000003c0: f36e 363d 4ed9 5ebe e5af b33d 6d48 bb3d
000003d0: 52b2 00bd 9472 a1b9 8859 143d c8d9 cb3d
000003e0: 168b 673d 8452 98bd 9333 863e 5275 99bd
000003f0: cd46 39be 43e8 14bd 10de 043d 6ad5 67be

lstm.bias_ih_l0 f4 [512]
-0.0896982 0.062849715 0.07958618 -0.06729956 0.05780912 -0.030180186 0.014714856 0.09140884
-0.0070488025 0.0016370615 0.031411644 -0.064549476 -0.04061287 0.08959616 0.06922617 0.022870088
-0.037129235 0.0022861925 0.023633316 -0.14578113 0.060216703 -0.06494928 -0.10176426 -0.06395723
0.13253018 -0.05262981 -0.051726718 0.04131634 0.10782746 -0.1128987 -0.03565815 0.10563905
-0.0056449384 -0.044958815 -0.025937142 -0.07777061 -0.011095001 0.014221057 -0.05727077 -0.0010902141
0.020025099 -0.098136805 0.033352125 0.019159088 0.014774312 0.07381756 -0.034449413 0.09182419
-0.10935303 0.018487275 0.040867247 0.012732434 -0.07980573 -0.0493669 -0.02442513 -0.0065565445
0.03204206 0.0037260079 -0.054900117 -0.062140554 0.01912813 0.096827924 -0.053199757 -0.06816674
0.07296731 0.0920043 -0.027083335 0.014334809 0.102580644 -0.088860996 -0.056592703 0.08173298
-0.020492561 0.023061719 -0.02712464 -0.04155234 -0.06397341 -0.041985385 0.03455782 -0.056482505
-0.08946909 -0.018450627 0.060573924 0.15113363 -0.0810686 0.041940056 -0.0008538716 0.05629535
0.040426664 -0.12039231 -0.059356358 0.011040632 0.039298184 0.015223155 0.17242005 -0.07982077
0.18443471 0.031618275 -0.021078084 0.086745046 0.040434297 0.040080376 -0.00093757967 -0.0038412868
-0.03649799 0.07830069 0.065553024 0.069497444 0.086695075 0.10671286 0.07072689 -0.08441739
0.072418906 0.021231335 0.22242686 -0.096812434 0.033582333 -0.02774009 -0.060853235 0.060464147
-0.099620976 -0.02038215 -0.03147288 0.06822314 -0.042104535 -0.077731036 -0.1023261 -0.037518997
-0.05597144 0.045146972 0.12438751 0.06350391 -0.06354837 -0.032150198 -0.051921494 0.056500398
-0.044392716 0.0071430425 -0.1089097 -0.001327962 0.009708857 -0.03507675 -0.022156121 -0.04012943
-0.05613884 0.061745413 0.021555223 0.013553834 0.06548883 -0.005310121 -0.04998611 -0.039143898
-0.040868334 0.036840342 -0.104256 0.0924597 0.043000933 0.02278602 -0.103552796 0.02013825
0.13302916 0.025629837 -0.0886684 0.057256605 0.018227268 0.017897468 -0.007698566 -0.2066702
-0.16236 -0.077928394 -0.054781877 -0.09069536 -0.042412877 -0.02544547 -0.06510237 0.07959722
0.00067062135 -0.10514441 -0.05341379 -0.026562167 -0.08566169 -0.102942705 0.042341005 -0.040845595
-0.0021293422 -0.06522711 -0.06593207 -0.005099654 0.013277121 -0.0715083 0.016833864 -0.073511794
-0.07825951 -0.0009970189 -0.1115134 0.009856468 -0.10440247 -0.0883577 -0.011010182 -0.014645127
-0.042318527 -0.023983428 0.0455997 0.04166536 -0.092652366 -0.09105058 -0.06208739 0.032957893
-0.100481875 0.07247198 -0.0642068 0.07486021 0.016332874 -0.006322679 -0.12950994 -0.018919319
-0.096818395 0.026671972 -0.092981696 -0.037472207 0.054982834 0.039438855 -0.043520793 -0.08745973
-0.13048542 0.030409846 0.076386966 0.06551628 -0.08775957 0.033378106 0.043888275 -0.061281953
0.012047139 0.054451413 0.019230722 0.011340156 0.058926493 -0.13981943 -0.06918966 0.027517134
-0.014954519 0.109499566 -0.016316252 -0.06822488 0.023966972 -0.0509496 0.02669989 0.092806704
-0.08338139 -0.07431159 -0.09155529 -0.0925301 -0.042523444 -0.083059125 0.05245829 0.089720175
00000000: b1b3 b7bd 5ab7 803d 14fe a23d 5ad4 89bd
00000010: 41c9 6c3d 703c f7bc 9416 713c 8f34 bb3d
00000020: a4f9 e6bb ab92 d63a 7fa9 003d 8432 84bd
00000030: ae59 26bd 317e b73d 73c6 8d3d 0d5a bb3c
00000040: d314 18bd f2d3 153b a89a c13c a647 15be
00000050: caa5 763d 2104 85bd c869 d0bd 02fc 82bd
00000060: feb5 073e 5b92 57bd 65df 53bd 533b 293d
00000070: a5d4 dc3d 6f37 e7bd 480e 12bd 4959 d83d
00000080: 2df9 b8bb bc26 38bd 217a d4bc 3346 9fbd
00000090: cfc7 35bc 70ff 683c c194 6abd 84e5 8eba
000000a0: ad0b a43c f3fb c8bd 3d9c 083d 85f3 9c3c
000000b0: f50f 723c a92d 973d d41a 0dbd 520e bc3d
000000c0: 7bf4 dfbd a072 973c 6a64 273d b39b 503c
000000d0: 3071 a3bd f234 4abd 3617 c8bc 48d8 d6bb
000000e0: 893e 033d 0a30 743b f2de 60bd 1887 7ebd
000000f0: 99b2 9c3c b84d c63d fde7 59bd 019b 8bbd
00000100: e36f 953d c06c bc3d dfdd ddbc 8cdc 6a3c
00000110: cd15 d23d c1fc b5bd c0cd 67bd 9f63 a73d
00000120: 04e0 a7bc eeeb bc3c 7e34 debc c932 2abd
00000130: 7e04 83bd def8 2bbd 808c 0d3d 335a 67bd
00000140: 923b b7bd c525 97bc 5d1c 783d c6c2 1a3e
00000150: 4b07 a6bd 56c9 2b3d 5ad6 5fba f495 663d
00000160: 6e96 253d 3e90 f6bd a71f 73bd c4e3 343c
00000170: 22f7 203d 8a6a 793c e28e 303e 1279 a3bd
00000180: 74dc 3c3e 2a82 013d f2ab acbc 63a7 b13d
00000190: 6f9e 253d 522b 243d e8c7 75ba 19be 7bbb
000001a0: eb7e 15bd 1d5c a03d aa40 863d ad54 8e3d
000001b0: 308d b13d 468c da3d 42d9 903d 06e3 acbd
000001c0: 5d50 943d 56ed ad3c dec3 633e 9945 c6bd
000001d0: a18d 093d 2f3f e3bc 3e41 79bd 41a9 773d
000001e0: 1506 ccbd 77f8 a6bc b5e9 00bd 93b8 8b3d
000001f0: ce75 2cbd 7331 9fbd 5990 d1bd 85ad 19bd
00000200: 4f42 65bd 08ec 383d e1be fe3d 570e 823d
00000210: a625 82bd edaf 03bd a2ab 54bd f66c 673d
00000220: 23d5 35bd 2f10 ea3b 0c0c dfbd 030f aeba
00000230: e611 1f3c a3ac 0fbd c180 b5bc c25e 24bd
00000240: d7f1 65bd c2e8 7c3d 9494 b03c e610 5e3c
00000250: 021f 863d 8600 aebb 3cbe 4cbd 5a55 20bd
00000260: 8e65 27bd e6e5 163d 2b84 d5bd 835b bd3d
00000270: bf21 303d bfa9 ba3c 7d13 d4bd f9f8 a43c
00000280: cc38 083e aaf5 d13c c797 b5bd e785 6a3d
00000290: 5a51 953c b69d 923c 4144 fcbb 5aa1 53be
000002a0: b341 26be ec98 9fbd f662 60bd 7dbe b9bd
000002b0: 20b9 2dbd 0573 d0bc 6454 85bd de03 a33d
000002c0: a3cc 2f3a f455 d7bd 6bc8 5abd e798 d9bc
000002d0: 656f afbd a0d3 d2bd c36d 2d3d b64d 27bd
000002e0: 6f8c 0bbb cb95 85bd 6507 87bd 001b a7bb
000002f0: 4888 593c f272 92bd 2ce7 893c 5a8d 96bd
00000300: 8646 a0bd 67ae 82ba 2361 e4bd 067d 213c
00000310: f6d0 d5bd e2f4 b4bd 0d64 34bc 1df2 6fbc
00000320: 3156 2dbd e578 c4bc c0c6 3a3d 4ca9 2a3d
00000330: 86c0 bdbd ba78 babd 594f 7ebd dbfe 063d
00000340: 71c9 cdbd 306c 943d db7e 83bd 4f50 993d
00000350: 85cc 853c 7a2e cfbb 419e 04be b0fc 9abc
00000360: b948 c6bd 2e7f da3c 306d bebd 757c 19bd
00000370: ae35 613d a38a 213d dc42 32bd 161e b3bd
00000380: f89d 05be 121e f93c c570 9c3d 662d 863d
00000390: 4abb b3bd 7bb7 083d 31c4 333d c902 7bbd
000003a0: 5d61 453c 7208 5f3d bf89 9d3c 10cc 393c
000003b0: e85c 713d d32c 0fbe 4fb3 8dbd 9d6b e13c
000003c0: cd03 75bc 4f41 e03d a9a9 85bc 7cb9 8bbd
000003d0: 6256 c43c 87b0 50bd bab9 da3c 7111 be3d
000003e0: ddc3 aabd ad30 98bd 5781 bbbd 6c80 bdbd
000003f0: 102d 2ebd e71a aabd 81de 563d 36bf b73d

lstm.bias_hh_l0 f4 [512]
-0.060816355 0.1652965 0.12666442 0.07139765 0.17196377 0.011578224 -0.068718955 -0.042008143
-0.09459347 -0.006740381 0.0027769424 -0.025333809 -0.02697457 -0.038893323 0.039968774 -0.024530904
0.020030862 -0.034117866 -0.05341011 -0.07298052 -0.038343526 -0.08178811 0.0610444 0.09648248
0.1197895 0.0064850613 0.029707402 0.062155183 -0.020919029 0.02025438 0.036811624 0.020876752
-0.0086565865 0.008909023 -0.031137286 0.047742162 -0.013255271 0.0961727 0.005203082 0.06991092
0.16505598 -0.002441427 0.02980605 -0.018700475 0.096580915 0.018095514 0.066465884 0.010496885
-0.09393835 0.029963097 0.043687124 0.090799086 0.012706421 0.06864987 -0.033340465 0.04789896
-0.09914022 0.13400841 0.037517495 0.070622794 -0.07393099 0.05900133 0.0497318 -0.00894187
-0.04656043 -0.030903054 -0.05338777 -0.08602937 0.007386371 -0.007797598 0.029565368 0.0015090558
-0.0672294 -0.030171687 0.042396 -0.024558753 -0.07027984 -0.076440625 -0.10563741 0.040161982
-0.08607025 0.034465298 -0.00852147 0.14870644 0.08655064 -0.07604578 0.05650141 -0.082810685
-0.070476435 -0.13423407 -0.0716342 0.032292582 0.07204492 0.07374606 0.054237556 -0.009162512
0.07549854 -0.01757446 0.055667255 -0.028564539 0.047818065 0.120404884 0.03231613 0.12312101
-0.044998463 0.12402673 -0.06561449 -0.0118293855 0.069661684 0.12381225 0.07141769 0.017835418
-0.05564002 0.0961108 0.19808254 5.289e-05 0.052344628 0.007900713 -0.072748385 -0.002286246
-0.029364392 -0.092132345 0.048388746 0.12720501 -0.021332344 -0.060657777 -0.053245537 -0.03319675
-0.039442617 0.013322578 0.021701 -0.06932243 -0.0061303377 0.056150123 0.0066646235 0.008707248
0.07804625 0.08917452 0.046418753 -0.04831906 0.11858075 0.058122013 0.013077285 0.048677474
-0.022574639 -0.06759863 0.074981 -0.07051636 -0.07101449 0.08948666 0.026493603 -0.067796275
-0.06811167 -0.07615161 0.026335834 -0.0506333 -0.019828089 -0.012301662 -0.10563689 -0.08119129
0.035574045 0.09251774 0.027465122 -0.085749604 0.012376757 -0.0155845005 -0.0076178815 -0.16763692
-0.0566961 -0.035643347 0.045720868 0.027822094 0.063624844 0.017232865 0.080299646 0.078659505
-0.016458709 -0.044432774 0.08879901 0.06332342 0.029421665 -0.11489073 0.016517287 -0.1289319
-0.036432385 -0.051062547 -0.090254664 0.026607456 -0.06791301 -0.047424477 0.0150902 0.038532086
0.08016773 0.005672083 0.0028042083 -0.10213226 -0.04443865 -0.09617143 -0.089119606 0.047800094
0.020913418 0.07171755 0.009837108 -0.05058737 -0.081222765 -0.055715695 0.013909458 0.049877003
0.04530628 -0.042976964 0.051098444 0.016217375 0.03769164 0.05510112 -0.01545495 -0.007317757
-0.02767281 -0.10086852 -0.026491197 0.027333139 -0.045341633 0.038274918 -0.04292604 -0.101053156
-0.11566362 -0.03762495 0.15408915 0.08151841 -0.03689832 0.028781775 -0.068311 -0.0039026504
-0.008138449 0.07376605 -0.10074206 0.063667044 0.013085107 -0.04002329 -0.060479574 -0.08014976
0.07117882 -0.0046616723 -0.040434875 -0.06063682 0.09297433 -0.049599122 -0.01512471 -0.058274664
-0.08083326 -0.09075138 -0.05740927 0.037411287 0.051640287 0.011970123 -0.025921378 0.013021108
00000000: 921a 79bd 7c43 293e 51b4 013e ee38 923d
00000010: 4517 303e 97b2 3d3c 86bc 8cbd bb10 2cbd
00000020: 39ba c1bd 6ade dcbb 5dfd 353b d988 cfbc
00000030: c6f9 dcbc 9b4e 1fbd 4cb6 233d 09f5 c8bc
00000040: c317 a43c 2dbf 0bbd 8fc4 5abd d076 95bd
00000050: 1a0e 1dbd 8680 a7bd b109 7a3d 9b98 c53d
00000060: 3354 f53d a380 d43b f05c f33c 6f96 7e3d
00000070: 625e abbc 83ec a53c c9c7 163d b905 ab3c
00000080: 5bd4 0dbc 27f7 113c 9f13 ffbc 498d 433d
00000090: a32c 59bc 31f6 c43d 9e7e aa3b 752d 8f3d
000000a0: 6f04 293e 5900 20bb d12b f43c bd31 99bc
000000b0: 37cc c53d 0b3d 943c 441f 883d 20fb 2b3c
000000c0: c062 c0bd 2b75 f53c 45f1 323d dff4 b93d
000000d0: 982e 503c 4e98 8c3d 0390 08bd b331 443d
000000e0: 070a cbbd 8039 093e f2ab 193d afa2 903d
000000f0: 2269 97bd 61ab 713d 92b3 4b3d ec80 12bc
00000100: 26b6 3ebd 6728 fdbc 22ad 5abd 2b30 b0bd
00000110: 5f09 f23b fe82 ffbb 1233 f23c 83cb c53a
00000120: 91af 89bd 9d2a f7bc 6ea7 2d3d 702f c9bc
00000130: e0ee 8fbd e78c 9cbd 6d58 d8bd e480 243d
00000140: 9945 b0bd 7c2b 0d3d a39d 0bbc 8046 183e
00000150: 7641 b13d e4bd 9bbd 066e 673d a698 a9bd
00000160: f355 90bd a874 09be f4b4 92bd 3a45 043d
00000170: 498c 933d 2d08 973d 3328 5e3d 5c1e 16bc
00000180: fb9e 9a3d 50f8 8fbc 5903 643d 2e00 eabc
00000190: e0dc 433d d696 f63d eb5d 043d de26 fc3d
000001a0: 4f50 38bd ba01 fe3d e460 86bd 0ad0 41bc
000001b0: c9aa 8e3d 4791 fd3d 7043 923d 951b 923c
000001c0: cae6 63bd bdd5 c43d 26d6 4a3e 34d6 5d38
000001d0: 5267 563d fe71 013c 1bfd 94bd d8d4 15bb
000001e0: 988d f0bc e2af bcbd 4733 463d 0842 023e
000001f0: 2bc1 aebc 4a74 78bd fe17 5abd 51f9 07bd
00000200: 958e 21bd f146 5a3c 4cc6 b13c ebf8 8dbd
00000210: 00e1 c8bb acfd 653d ea62 da3b d8a8 0e3c
00000220: b6d6 9f3d 21a1 b63d 9721 3e3d 35ea 45bd
00000230: 77da f23d 5911 6e3d 1c42 563c 0862 473d
00000240: 73ee b8bc 2771 8abd a38f 993d e26a 90bd
00000250: 0c70 91bd c844 b73d 1d09 d93c c6d8 8abd
00000260: 227e 8bbd 60f5 9bbd 3fbe d73c dd64 4fbd
00000270: 846e a2bc e98c 49bc 2758 d8bd 9e47 a6bd
00000280: 17b6 113d f179 bd3d 89fe e03c 7d9d afbd
00000290: e2c7 4a3c 2256 7fbc 6c9f f9bb 03a9 2bbe
000002a0: 2b3a 68bd c2fe 11bd ce45 3b3d 29eb e33c
000002b0: be4d 823d f02b 8d3c 2474 a43d 3c18 a13d
000002c0: 6ad4 86bc 24ff 35bd 41dc b53d b6af 813d
000002d0: b405 f13c d54b ebbd 434f 873c b906 04be
000002e0: 203a 15bd f626 51bd 70d7 b8bd e1f7 d93c
000002f0: fa15 8bbd 2b40 42bd e33c 773c d2d3 1d3d
00000300: fb2e a43d e1dc b93b cfc6 373b b82a d1bd
00000310: 4d05 36bd 87f5 c4bd 5784 b6bd 08ca 433d
00000320: 9e52 ab3c a7e0 923d d22b 213c b434 4fbd
00000330: 1f58 a6bd 2436 64bd 7fe4 633c d44b 4c3d
00000340: 1493 393d 9d08 30bd 9a4c 513d 4dda 843c
00000350: 8d62 1a3d b6b1 613d c236 7dbc cbc9 efbb
00000360: 17b2 e2bc 2894 cebd 1104 d9bc bfe9 df3c
00000370: 26b8 39bd 29c6 1c3d 37d3 2fbd f5f4 cebd
00000380: 0ce1 ecbd 9f1c 1abd 8cc9 1d3e 20f3 a63d
00000390: b122 17bd c2c7 eb3c a3e6 8bbd 9cc3 7fbb
000003a0: 2157 05bc a812 973d da51 cebd de63 823d
000003b0: eb62 563c 76ef 23bd 6eb9 77bd 8f25 a4bd
000003c0: 34c6 913d f1c0 98bb 0a9f 25bd 505e 78bd
000003d0: 5369 be3d 7328 4bbd a2cd 77bc 6ab1 6ebd
000003e0: e98b a5bd dcdb b9bd fc25 6bbd 943c 193d
000003f0: c484 533d 561e 443c 1259 d4bc 7c56 553c

lstm.weight_ih_l1 f4 [512, 128]
0.08386299 -0.06932031 0.010620411 -0.06689362 0.0061612297 0.06735731 -0.027505461 -0.045496862
0.051539067 -0.026378175 -0.044179846 0.041846998 0.005433368 0.1346129 -0.18449348 -0.035677142
-0.0448865 0.0437962 -0.0523318 0.010795661 -0.03610559 0.013827133 0.08649764 -0.033985894
0.07118986 0.029997183 0.0356169 0.0331009 0.024508262 -0.0224077 0.046828613 -0.24758284
0.06603053 -0.08924629 -0.16543211 -0.11137857 -0.055261716 0.11353197 -0.014345969 -0.10570323
-0.0732964 0.02356549 0.025511993 0.0033206162 0.09415353 -0.17418063 0.015635906 -0.064195074
-0.04181552 -0.061810274 0.020752488 -0.13111551 -0.15879472 0.1480816 -0.060515475 -0.107798055
0.014818389 -0.05751758 -0.1359096 -0.0030242456 0.06664862 -0.1395505 0.006109812 0.0011511238
0.031687535 0.022713747 0.044746373 -0.13553528 -0.10801286 -0.005685845 -0.029306885 0.07842095
-0.10970581 -0.08093787 0.0861545 0.050503492 -0.03261026 0.02517668 0.019499097 -0.0036209084
-0.05646149 -0.053855974 -0.14133699 -0.13797504 -0.06591085 0.006141712 0.08325779 -0.023361087
0.11669512 0.009957475 -0.0370959 0.19925189 0.12174372 -0.009437167 0.008950978 -0.0019836351
-0.1184067 0.12715197 0.09664918 -0.03033317 0.11885901 -0.11278471 0.004781856 0.1059654
-0.04336367 0.03569235 0.090632334 -0.09569353 -0.13113862 -0.16678996 0.11088601 0.0032050994
0.031250354 -0.08645899 0.1628324 -0.0010808205 0.049245466 -0.09041878 0.008184621 -0.011062676
0.0486612 -0.058052618 -0.0019816565 -0.16419592 -0.0779544 -0.109873876 0.038651627 -0.07924442
0.15137711 -0.10935794 -0.12863536 -0.081748895 -0.06523094 0.003908951 -0.057035837 0.04932766
-0.013911432 0.077112734 -0.06876023 -0.044506595 0.04509838 0.041172195 -0.040223617 -0.07704445
-0.05416244 0.05003885 0.027925048 -0.076524384 -0.13994099 -0.019113949 0.015907317 -0.07192285
-0.04905375 -0.081927516 -0.02889383 -0.077677056 -0.07075721 -0.027817242 -0.04606717 0.0017100704
0.047761973 -0.053182956 -0.11974816 0.08565258 -0.067088105 -0.098680384 -0.03142005 0.11998716
-0.018242726 -0.04222864 0.015446339 0.07773229 -0.00020140072 0.06622934 -0.016454818 -0.04184314
-0.077931136 -0.032543708 0.022192659 0.10624707 0.032483306 0.0076488317 -0.11555923 -0.029505948
0.07745241 -0.02364931 -0.05190767 -0.047284774 0.000954853 -0.1748352 0.05087691 -0.09638377
-0.027949108 -0.061389204 0.04034453 -0.09993317 -0.0036921597 -0.029122613 -0.020525262 0.02683488
-0.020261502 0.07254991 0.0015297898 0.023719035 -0.05241906 0.028528959 -0.016480338 0.07333532
-0.045543063 -0.016568078 -0.017033782 -0.029795881 0.03238523 0.0004018863 0.04727503 -0.020577256
0.08767351 0.013453271 0.09952647 0.12373022 0.041714143 0.066365495 0.02708598 -0.062025767
0.006271672 0.041608516 0.010433761 0.05729054 -0.020121314 0.017560344 -0.17932636 0.08464283
0.006090686 0.07388759 -0.023662077 0.06024114 0.09883334 -0.11550232 -0.035458453 0.09977296
-0.1683844 0.0035496717 0.0090606585 0.111675255 -0.0987968 0.0257242 0.065955356 0.023527319
0.024540313 0.09472648 -0.03934057 -0.05144702 -0.039189886 0.081120275 0.10795188 0.07092708
00000000: 5cc0 ab3d cff7 8dbd 3b01 2e3c 86ff 88bd
00000010: 24e4 c93b a1f2 893d 2253 e1bc eb5a 3abd
00000020: a11a 533d 0b17 d8bc edf5 34bd c267 2b3d
00000030: 650a b23b f7d7 093e dceb 3cbe 3222 12bd
00000040: e8da 37bd a563 333d df59 56bd 49e0 303c
00000050: 75e3 13bd 338b 623c ad25 b13d cb34 0bbd
00000060: fdcb 913d a7bc f53c 07e3 113d cf94 073d
00000070: 8dc5 c83c 5a90 b7bc 5ccf 3f3d 5b86 7dbe
00000080: 043b 873d c2c6 b6bd 0967 29be 731a e4bd
00000090: 1c5a 62bd 7383 e83d 5b0b 6bbc ef7a d8bd
000000a0: 6c1c 96bd 6a0c c13c 87fe d03c b29e 593b
000000b0: 91d3 c03d 685c 32be df16 803c b578 83bd
000000c0: c046 2bbd c52c 7dbd 1f01 aa3c 2543 06be
000000d0: 159b 22be b4a2 173e 13df 77bd 3ac5 dcbd
000000e0: d4c8 723c 8e97 6bbd e32b 0bbe 6c32 46bb
000000f0: 127f 883d 54e6 0ebe d134 c83b 4ee1 963a
00000100: caca 013d 2e12 ba3c f947 373d c3c9 0abe
00000110: d935 ddbd 5350 babb fe14 f0bc 2a9b a03d
00000120: 71ad e0bd c1c2 a5bd c571 b03d c0dc 4e3d
00000130: 5692 05bd 533f ce3c 92bc 9f3c c34c 6dbb
00000140: 2a44 67bd 1598 5cbd a5ba 10be 5449 0dbe
00000150: 45fc 86bd 6a40 c93b 0f83 aa3d c05f bfbc
00000160: dafd ee3d ad24 233c dff1 17bd b008 4c3e
00000170: c554 f93d 599e 1abc 1fa7 123c e0ff 01bb
00000180: 367f f2bd 2034 023e 01f0 c53d 457d f8bc
00000190: 5a6c f33d acfb e6bd 1eb1 9c3b 6304 d93d
000001a0: 1b9e 31bd 2432 123d 729d b93d f8fa c3bd
000001b0: 3449 06be fdca 2abe 3418 e33d a50c 523b
000001c0: 5f00 003d 6911 b1bd 89bd 263e 51aa 8dba
000001d0: 9db5 493d 7b2d b9bd ca18 063c 3a40 35bc
000001e0: f750 473d 95c8 6dbd aede 01bb fa22 28be
000001f0: 8ea6 9fbd 8e05 e1bd 2b51 1e3d e64a a2bd
00000200: 9a02 1b3e 0ef7 dfbd fdb8 03be f76b a7bd
00000210: cd97 85bd a816 803b 699e 69bd cd0b 4a3d
00000220: c6ec 63bc 48ed 9d3d 2ad2 8cbd 8c4c 36bd
00000230: 14b9 383d 2da4 283d 85c1 24bd 7bc9 9dbd
00000240: 6fd9 5dbd 8af5 4c3d 12c3 e43c d1b8 9cbd
00000250: b14c 0fbe db94 9cbc 1050 823c 4a4c 93bd
00000260: 96ec 48bd 9dc9 a7bd c1b2 ecbc 2615 9fbd
00000270: 28e9 90bd fce0 e3bc eeb0 3cbd 7124 e03a
00000280: 0fa2 433d 5fd6 59bd 863e f5bd 9f6a af3d
00000290: 7d65 89bd f118 cabd 4fb2 00bd d4bb f53d
000002a0: c571 95bc f0f7 2cbd a412 7d3c 1b32 9f3d
000002b0: 182f 53b9 40a3 873d 41cc 86bc b663 2bbd
000002c0: 5c9a 9fbd 8d4c 05bd 61cd b53c 1098 d93d
000002d0: 370d 053d 0da3 fa3b 51aa ecbd 75b6 f1bc
000002e0: 5e9f 9e3d 33bc c1bc 239d 54bd aead 41bd
000002f0: 1a4f 7a3a 0008 33be 4f64 503d db64 c5bd
00000300: 87f5 e4bc 3f73 7bbd 4e40 253d c3a9 ccbd
00000310: 29f8 71bb 8c92 eebc 9824 a8bc d2d4 db3c
00000320: 73fb a5bc 0c95 943d 3a83 c83a 6c4e c23c
00000330: 5eb5 56bd 90b5 e93c c601 87bc d430 963d
00000340: 5d8b 3abd c7b9 87bc 6e8a 8bbc 7e16 f4bc
00000350: 60a6 043d 44b4 d239 76a3 413d a291 a8bc
00000360: 2b8e b33d 1c6b 5c3c 89d4 cb3d 4566 fd3d
00000370: 73dc 2a3d a2ea 873d 6be3 dd3c bb0e 7ebd
00000380: 9982 cd3b b16d 2a3d 5ef2 2a3c 7ca9 6a3d
00000390: 74d5 a4bc b6da 8f3c 54a1 37be 3859 ad3d
000003a0: 6194 c73b 6052 973d f9d6 c1bc 6abf 763d
000003b0: 2269 ca3d 7b8c ecbd e23c 11bd c455 cc3d
000003c0: f66c 2cbe 9ca1 683b 2873 143c ffb5 e43d
000003d0: fa55 cabd 8fbb d23c 9a13 873d 5dbc c03c
000003e0: c408 c93c f5ff c13d 9423 21bd 1cba 52bd
000003f0: 9385 20bd 6322 a63d e015 dd3d 3842 913d

lstm.weight_hh_l1 f4 [512, 128]
-0.15280491 -0.13589616 0.083083645 -0.14624219 -0.12597972 -0.0043471744 0.03220134 0.013547096
-0.024156032 -0.019016122 -0.11284641 0.014847809 -0.15821916 0.012651507 0.07192733 -0.047529858
0.09554545 0.056958407 0.009954116 -0.07998772 0.07674521 -0.054231323 0.0023518708 -0.07015752
0.021379499 -0.06040789 -0.07122054 -0.00042886904 -0.019910341 0.18069714 0.036060255 -0.0536641
0.012861963 0.06898576 -0.004857577 0.027719961 -0.022326387 0.08820675 -0.0959555 0.032280304
-0.08397723 -0.012719003 0.03239544 -0.044194035 0.062389597 -0.099772185 0.054287594 0.056425013
0.098804586 0.051167633 -0.014327378 0.019443091 0.06572712 -0.04449727 0.068900205 -0.11796655
0.115766436 -0.014233579 -0.043299157 -0.017078253 -0.09641074 -0.025007272 -0.11734545 -0.04587109
0.1124498 0.076925136 0.016151259 0.0029191123 0.061994486 -0.045632742 -0.07582391 0.007019742
-0.0710329 -0.032487903 0.08980273 0.10672963 0.13351907 -0.07181973 -0.02815557 -0.012656715
-0.0068736556 0.08838657 -0.00915198 -0.013225287 -0.09413735 0.004518707 0.039735135 0.08377022
-0.14441873 0.024253542 0.0060327426 0.029457962 -0.030003835 0.084383264 -0.037113104 0.017750073
-0.019639146 -0.06905599 -0.022733051 0.11307357 0.050050583 0.033019926 0.08876097 0.036865752
-0.08286571 -0.09883639 -0.080185525 0.032258093 -0.024583057 -0.050219726 -0.0063758115 -0.051505007
-0.117939964 -0.08119169 -0.0037764183 -0.104212515 -0.0073354845 -0.030421732 -0.0025330633 0.11197617
0.1098994 -0.06928958 0.10022174 -0.12361852 0.0049859686 0.060270518 0.09559046 0.12194992
-0.055526063 -0.08549496 0.010949567 -0.07058153 -0.022490622 0.03773473 0.0026626145 0.09958172
-0.071732715 -0.017135132 -0.08414519 0.02693904 -0.084326036 0.0040192725 0.08044356 -0.06190911
0.08430081 -0.090561256 0.0043063867 -0.06974488 -0.00084573193 -0.02582158 -0.035396185 -0.08010669
-0.10992263 0.015349655 0.006278525 -0.02604949 0.02807731 -0.038170256 -0.026916906 -0.04421029
0.054999903 0.13735503 0.050311163 -0.028136335 -0.032594636 0.11946847 -0.091256574 0.062017154
0.088155195 0.102421254 0.074929416 -0.0137387905 -0.08770361 0.068230085 0.014839196 0.051260028
0.0814691 0.036743667 -0.0028807689 0.020648215 0.015566727 0.032145258 -0.04709575 0.055846456
0.025447477 -0.016086765 0.034512725 -0.09872323 0.012989332 -0.015075644 0.006609141 0.05019062
-0.074246906 -0.1101835 -0.046137396 0.02680779 0.07581546 0.0151227135 0.082877934 0.00015095633
0.02126589 0.06737758 0.018624708 -0.020205177 0.07438994 0.008135604 0.022164887 -0.029615443
0.021062806 0.08812032 -0.01767851 0.0020414705 0.041667063 0.09009165 0.05209842 0.09640041
-0.08986287 0.02377173 -0.027195038 -0.056343846 -0.06140608 -0.004672505 0.042032942 -0.049953677
0.02689488 -0.063897595 -0.0709601 0.12477176 -0.13372871 -0.044402335 0.107193865 0.05458535
0.026008252 -0.0015307968 -0.07557996 -0.062221713 0.0642967 -0.07398735 0.009291534 0.06380578
-0.018872954 -0.028243694 -0.05980414 -0.015915096 0.07854493 0.042672753 0.04574141 -0.054531157
-0.07235399 -0.08035089 -0.10202882 0.05687812 0.07787918 -0.10627964 0.08293375 0.109966345
00000000: e478 1cbe 5d28 0bbe c227 aa3d 83c0 15be
00000010: d400 01be be72 8ebb 8de5 033d a4f4 5d3c
00000020: dfe2 c5bc b3c7 9bbc 051c e7bd 3a44 733c
00000030: 3404 22be 4448 4f3c a34e 933d abae 42bd
00000040: 55ad c33d 384d 693d 9716 233c 9ad0 a3bd
00000050: 982c 9d3d aa21 5ebd d821 1a3b bfae 8fbd
00000060: 0f24 af3c 436e 77bd 13dc 91bd d4d9 e0b9
00000070: 031b a3bc ac08 393e ebb3 133d e3ce 5bbd
00000080: fcba 523c 6848 8d3d 4f2c 9fbb f914 e33c
00000090: d4e5 b6bc bea5 b43d 5184 c4bd 5a38 043d
000000a0: 41fc abbd 5d63 50bc 15b1 043d ce04 35bd
000000b0: 3c8c 7f3d 5c55 ccbd ab5c 5e3d ea1d 673d
000000c0: 0f5a ca3d 2795 513d 61bd 6abc 1e47 9f3c
000000d0: f19b 863d c542 36bd 8d1b 8d3d 7298 f1bd
000000e0: f416 ed3d f533 69bc 755a 31bd b1e7 8bbc
000000f0: fe72 c5bd 0ddc ccbc d052 f0bd 53e3 3bbd
00000100: 154c e63d ed8a 9d3d a54f 843c 944e 3f3b
00000110: eeed 7d3d 66e9 3abd 9149 9bbd dd05 e63b
00000120: b279 91bd 0912 05bd 7eea b73d 1095 da3d
00000130: 39b9 083e 3916 93bd 83a6 e6bc 1c5e 4fbc
00000140: 673c e1bb 0504 b53d 30f2 15bc e0ae 58bc
00000150: 15cb c0bd a911 943b 4fc1 223d b98f ab3d
00000160: 81e2 13be 5daf c63c 50ae c53b d351 f13c
00000170: 9aca f5bc 22d1 ac3d e903 18bd 9a68 913c
00000180: 46e2 a0bc 3a6d 8dbd aa3a babc 1e93 e73d
00000190: d701 4d3d e73f 073d 50c8 b53d 8b00 173d
000001a0: 7fb5 a9bd bc6a cabd 4f38 a4bd 1021 043d
000001b0: 6862 c9bc 33b3 4dbd 2fec d0bb eaf6 52bd
000001c0: 828a f1bd d447 a6bd c97d 77bb 5f6d d5bd
000001d0: 815e f0bb ff36 f9bc c001 26bb c353 e53d
000001e0: f012 e13d b2e7 8dbd 0e41 cd3d b52b fdbd
000001f0: 5661 a33b 38de 763d eec4 c33d e1c0 f93d
00000200: 4c6f 63bd fb17 afbd d065 333c 0d8d 90bd
00000210: 413e b8bc bb8f 1a3d 427f 2e3b 80f1 cb3d
00000220: 9ae8 92bd fa5e 8cbc 5054 acbd 43af dc3c
00000230: 21b3 acbd 1ab4 833b 98bf a43d 6894 7dbd
00000240: e7a5 ac3d 2e78 b9bd 971c 8d3b 67d6 8ebd
00000250: 1cb4 5dba c787 d3bc 97fb 10bd fa0e a4bd
00000260: 1e1f e1bd 1f7d 7b3c 16bc cd3b bd65 d5bc
00000270: 6302 e63c 6a58 1cbd d880 dcbc d915 35bd
00000280: 9447 613d cca6 0c3e 1413 4e3d 2c7e e6bc
00000290: f481 05bd e3ab f43d bae4 babd b305 7e3d
000002a0: b68a b43d 3cc2 d13d 9874 993d aa18 61bc
000002b0: f39d b3bd 37bc 8b3d 1920 733c 09f6 513d
000002c0: 46d9 a63d 8780 163d 48cb 3cbb 7226 a93c
000002d0: 960b 7f3c bfaa 033d 79e7 40bd 41bf 643d
000002e0: 3a77 d03c 64c8 83bc 375d 0d3d 682f cabd
000002f0: 35d1 543c d5ff 76bc 7e91 d83b ae94 4d3d
00000300: c30e 98bd e3a7 e1bd 91fa 3cbd 039c db3c
00000310: 2345 9b3d 42c5 773c e8bb a93d 084a 1e39
00000320: ce35 ae3c 42fd 893d d892 983c 5485 a5bc
00000330: c159 983d 324b 053c 2393 b53c 169c f2bc
00000340: e88b ac3c 6d78 b43d 86d2 90bc 31ca 053b
00000350: 15ab 2a3d f981 b83d 2765 553d 946d c53d
00000360: 060a b8bd eebc c23c 21c8 debc cec8 66bd
00000370: f184 7bbd d01b 99bb bc2a 2c3d 3a9c 4cbd
00000380: a752 dc3c bedc 82bd 8753 91bd 5688 ff3d
00000390: 2ef0 08be 39df 35bd 7588 db3d e394 5f3d
000003a0: 420f d53c 04a5 c8ba abc9 9abd 32dc 7ebd
000003b0: fdad 833d ae86 97bd 853b 183c 9bac 823d
000003c0: 749b 9abc 525f e7bc 30f5 74bd 6060 82bc
000003d0: 2adc a03d a0c9 2e3d 585b 3b3d 105c 5fbd
000003e0: 542e 94bd 028f a4bd 7cf4 d0bd 08f9 683d
000003f0: 1f7f 9f3d 24a9 d9bd 2bd9 a93d 0936 e13d

lstm.bias_ih_l1 f4 [512]
0.039016332 0.007939717 0.11131985 0.2132607 0.028952636 0.06564307 0.06373306 0.1325084
-0.017002648 0.11115169 0.043408062 0.16814801 0.09327288 0.03510936 -0.04572959 -0.09577078
0.094448395 0.063505925 0.04211936 0.06410914 -0.001247063 0.099938 0.02250133 -0.0332436
-0.08329052 0.13231817 0.08013744 0.11664053 -0.0035825735 -0.09146554 -0.0009635683 0.035139997
-0.041298047 0.08503898 0.04905776 0.06638694 0.3170476 0.14096968 0.018826693 0.05974595
0.08032453 -0.07216898 0.026093282 0.0390618 -0.017506776 -0.0014929597 0.0697761 -0.08362558
0.011464507 -0.030692264 -0.017870516 0.17705002 -0.0037847538 -0.0075982157 -0.09348973 0.07555258
-0.011202809 -0.1477151 0.0130881425 0.1317812 -0.055461336 0.05665459 0.10634114 -0.0015408546
0.07716692 0.017219897 0.01587777 0.031774618 0.04623915 0.07851152 0.058075942 -0.048170168
0.06602095 0.17510395 0.025171986 0.14893578 -0.0025832967 0.19883098 -0.008708276 -0.07933947
-0.044006955 0.24518292 0.10877688 -0.049609307 0.061886225 0.21134806 -0.13008997 0.09871271
0.09663814 0.06348038 0.023682026 -0.050013617 -0.029983155 0.049398243 0.12132359 0.053472005
0.07741106 0.12957802 0.16966492 -0.061231952 0.061429128 0.080826886 0.035530463 0.018197933
0.2157611 0.16528341 0.15267403 0.1084101 0.082365066 0.08061993 0.026427466 0.022859013
0.12921572 0.14936267 0.13421592 0.09223962 0.14650571 -0.0109218005 -0.03336132 0.06747353
0.2130077 0.17106773 0.15899394 0.09811018 0.19133654 0.005941534 -0.06712264 0.12004025
0.053897645 -0.11004473 -0.031308338 0.06491378 0.0358194 0.01235926 -0.100665845 -0.098860726
-0.047655553 -0.080274515 0.035663586 -0.1282867 -0.01817144 -0.17645726 -0.035243835 0.0021261142
-0.09911377 -0.036839694 -0.03661007 -0.028381655 -0.020023175 -0.026172422 -0.13013165 -0.09066494
-0.032255866 -0.15158816 -0.021034734 -0.06402429 -0.032410704 0.030181117 -0.026679307 0.018972965
0.004627038 -0.023125153 0.029638419 -0.12651962 -0.056094106 0.03494894 -0.16156538 0.0030658506
0.03798318 0.06160341 0.024317922 -0.01410983 -0.12684599 -0.055038672 0.016798025 -0.057328667
0.023891361 0.039160114 -0.061292518 -0.14692897 0.040996518 0.021103537 -0.05574646 0.039600365
-0.0155226 0.030404437 -0.089136034 -0.09822485 -0.021425467 -0.030149955 -0.05333972 -0.11748387
-0.0619256 0.04647322 0.0012071803 0.037862197 -0.096554704 -0.08264298 -0.054927986 0.06866345
-0.082638204 0.12330634 -0.07972438 0.0027912934 -0.019327244 -0.15908287 0.10476704 -0.009085716
-0.019840645 -0.08687255 -0.07182045 -0.012599253 0.018111391 -0.09112298 -0.027450193 0.13267314
-0.070758656 0.004117349 -0.0066136746 -0.07091983 0.076219425 0.04300635 0.001628095 -0.1310268
-0.07123635 0.035925027 0.012014748 0.032736734 0.0810332 -0.08416564 0.074390724 0.11651277
0.010618824 -0.044595532 -0.06834244 -0.10536473 -0.13568996 -0.039654426 0.025518818 -0.0027749145
-0.1432247 -0.053450346 -0.1321997 -0.010385303 0.022864154 -0.04209935 0.103059344 0.028697796
-0.0044632046 -0.08524733 -0.04753526 -0.028891576 -0.10671565 0.09401042 0.056108918 -0.09513528
00000000: 97cf 1f3d 9615 023c a9fb e33d 0361 5a3e
00000010: 142e ed3c e06f 863d 7b86 823d 48b0 073e
00000020: 2349 8bbc 7fa3 e33d a7cc 313d fe2e 2c3e
00000030: da05 bf3d d5ce 0f3d f34e 3bbd 7923 c4bd
00000040: 296e c13d 650f 823d 5a85 2c3d a74b 833d
00000050: 7e74 a3ba 4bac cc3d b654 b83c 712a 08bd
00000060: 3894 aabd 6a7e 073e 191f a43d 3be1 ee3d
00000070: 9cc9 6abb 4952 bbbd f997 7cba f5ee 0f3d
00000080: 2428 29bd eb28 ae3d caf0 483d e0f5 873d
00000090: 1054 a23e 5b5a 103e 703a 9a3c 2bb8 743d
000000a0: 3081 a43d 55cd 93bd 94c1 d53c 44ff 1f3d
000000b0: 5f6a 8fbc 6aaf c3ba c6e6 8e3d e343 abbd
000000c0: a1d5 3b3c 586e fbbc 3065 92bc 9a4c 353e
000000d0: a209 78bb 74fa f8bb 8b77 bfbd 50bb 9a3d
000000e0: fd8b 37bc a142 17be a66f 563c a7f1 063e
000000f0: 6d2b 63bd a50e 683d 62c9 d93d 80f6 c9ba
00000100: b109 9e3d be10 8d3c 1912 823c 1a26 023d
00000110: 4365 3d3d a6ca a03d 0ae1 6d3d 154e 45bd
00000120: fe35 873d 734e 333e 7b35 ce3c 9f82 183e
00000130: 874c 29bb 599a 4b3e 28ad 0ebc bb7c a2bd
00000140: a340 34bd 3b11 7b3e 6ac6 de3d 2133 4bbd
00000150: 697c 7d3d a06b 583e 4e36 05be e429 ca3d
00000160: 38ea c53d 0002 823d cf00 c23c 14db 4cbd
00000170: 3c9f f5bc d055 4a3d 8178 f83d 7605 5b3d
00000180: b189 9e3d 1ab0 043e a4bc 2d3e 5bce 7abd
00000190: 1c9d 7b3d 9188 a53d 6488 113d d513 953c
000001a0: 7af0 5c3e 0e40 293e 9556 1c3e 1d06 de3d
000001b0: 04af a83d 101c a53d 6a7e d83c d342 bb3c
000001c0: 2051 043e 87f2 183e e66f 093e 20e8 bc3d
000001d0: 9805 163e 5af1 32bc e1a5 08bd 902f 8a3d
000001e0: b11e 5a3e 612c 2f3e 4fcf 223e fded c83d
000001f0: baed 433e 33b1 c23b 9877 89bd aad7 f53d
00000200: c7c3 5c3d 225f e1bd 2c3d 00bd 84f1 843d
00000210: 5db7 123d 7e7e 4a3c e529 cebd 7e77 cabd
00000220: 7832 43bd f766 a4bd fb13 123d 975d 03be
00000230: 46dc 94bc 36b1 34be d75b 10bd 4756 0b3b
00000240: 29fc cabd 38e5 16bd 71f4 15bd a580 e8bc
00000250: a407 a4bc 8c67 d6bc 3b41 05be 8aae b9bd
00000260: ba1e 04bd ed39 1bbe 0951 acbc 2b1f 83bd
00000270: 16c1 04bd 643e f73c 908e dabc 316d 9b3c
00000280: 689e 973b f670 bdbc 45cc f23c 5c8e 01be
00000290: efc2 65bd 9f26 0f3d 6571 25be 70ec 483b
000002a0: 4094 1b3d db53 7c3d 6136 c73c eb2c 67bc
000002b0: eae3 01be 3b70 61bd 039c 893c 77d1 6abd
000002c0: d1b7 c33c 5b66 203d dd0d 7bbd 8c74 16be
000002d0: f7eb 273d 53e1 ac3c 6656 64bd fe33 223d
000002e0: 8152 7ebc ba12 f93c f48c b6bd 1c2a c9bd
000002f0: 7684 afbc 0afd f6bc c07a 5abd 629b f0bd
00000300: b3a5 7dbd b45a 3e3d 403a 9e3a 6415 1b3d
00000310: 79be c5bd b940 a9bd 2bfc 60bd 6c9f 8c3d
00000320: 383e a9bd 0988 fc3d 8946 a3bd 22ee 363b
00000330: 2b54 9ebc 9fe6 22be 1a90 d63d 41dc 14bc
00000340: d988 a2bc 3cea b1bd 9a16 93bd 196d 4ebc
00000350: 575e 943c af9e babd 3adf e0bc 78db 073e
00000360: eae9 90bd d4ea 863b 86b7 d8bb 6a3e 91bd
00000370: ee18 9c3d 6d27 303d ce65 d53a e42b 06be
00000380: 5de4 91bd 1f26 133d 81d9 443c f416 063d
00000390: bcf4 a53d 095f acbd 2a5a 983d 3f9e ee3d
000003a0: 93fa 2d3c cea9 36bd 1ff7 8bbd 77c9 d7bd
000003b0: 4ff2 0abe ae6c 22bd d70c d13c 57db 35bb
000003c0: 7fa9 12be c0ee 5abd 5c5f 07be 1e27 2abc
000003d0: 9b4d bb3c 5e70 2cbd c710 d33d a417 eb3c
000003e0: 1340 92bb 2796 aebd 55b4 42bd 07ae ecbc
000003f0: bc8d dabd 8988 c03d 77d2 653d 49d6 c2bd
