04_Models/weekly/GDEA/base/best_model.pth (torch, 916341 bytes, 11 tensors)

lstm.weight_ih_l0 f4 [512, 49]
000000 63 de 47 bc 87 1f e7 bc 06 d3 e6 bd f2 21 eb bc
       -0.012199017 -0.028213276 -0.11270718 -0.02870271
000010 cd 3c 91 3d ce c9 9a 3d 42 3b 43 bd d7 88 5c 3d
       0.07091675 0.075580224 -0.047663935 0.05384144
000020 5a e7 d6 bd ae fb 50 bc 18 42 8b 3c a5 df c8 bd
       -0.104933456 -0.012755318 0.01699929 -0.09808282
000030 9f c1 28 3d 71 60 91 3d de 7b b5 bd 0e e9 24 3c
       0.041200276 0.07098473 -0.088615164 0.01006533
000040 58 41 fa 3c a7 76 21 3c c3 63 a9 bc 6d cb f2 3b
       0.030548736 0.009854949 -0.020677453 0.007409504
000050 ef 6f 9a 3d b8 74 ef 3c 82 5a c4 bd 8a a1 21 3d
       0.07540881 0.02923046 -0.095875755 0.039460696
000060 7f 7b 44 3c 1d af f0 3c 69 2a a6 bd 45 1a b8 bd
       0.011992334 0.029380376 -0.08113558 -0.089893855
000070 97 ed 65 bd 23 17 9e 3d 68 07 9d bd 26 b9 89 bd
       -0.056134786 0.07719257 -0.07667428 -0.067247674
000080 3d 30 b4 bd f7 80 9d bd a8 17 9a 3d 7d 87 ba 3c
       -0.08798263 -0.07690614 0.07524043 0.022769684
000090 2b c7 52 bd ce 2c 1c bd 8c cb a8 3c 0d 0f ed 3c
       -0.051459473 -0.038128667 0.020604871 0.02893784
0000a0 c4 17 2e be 83 1f 96 bd b4 15 02 be 55 73 aa 3c
       -0.17001253 -0.07330229 -0.12703592 0.020806948
0000b0 71 0c 85 bd c0 90 24 bd 20 aa 49 bd 71 69 01 be
       -0.06496514 -0.040177107 -0.04923451 -0.12637879
0000c0 a2 a7 1b 3d 23 bb e4 3c df 52 67 3d 5e 93 d7 bb
       0.038001664 0.027921265 0.056475516 -0.006578847
0000d0 26 b4 9e 3d 3e d4 67 3c cd a8 52 bd 20 e5 b1 3b
       0.07749204 0.014149724 -0.051430512 0.005428925
0000e0 4a 00 91 bc 9f 94 be bd 71 d3 ce bd 0e 04 02 bc
       -0.017700333 -0.09305691 -0.10098923 -0.007935537
0000f0 5c e5 e6 bc e4 49 3c 3d d6 12 3b bd 9c 30 8e bc
       -0.028185539 0.045968905 -0.04567226 -0.017357163
000100 50 86 c5 3d d5 7c 4e 3d 64 cb 9d 3d 36 bc 36 bc
       0.09644759 0.050412018 0.07704809 -0.011153271
000110 8b 55 04 3b 13 58 28 bc 21 bf de bb b6 fd 97 bd
       0.002019259 -0.010274905 -0.0067976867 -0.074214384
000120 52 f0 85 ba 50 b8 a6 3c 7e 29 98 ba ff 36 ff bd
       -0.0010218716 0.020351559 -0.0011609045 -0.124616615
000130 86 06 7b bd d5 b1 da 3d 94 22 1d 3e bc ec 96 bd
       -0.061285518 0.1067845 0.15345222 -0.07369372
000140 42 35 4c 39 ae 17 35 3d f3 be 30 bd 28 b9 40 3d
       0.00019474796 0.044212036 -0.043150853 0.04705158
000150 84 bf ec bd 68 b7 66 bb 63 e1 80 3b bc 1f 93 bc
       -0.11559966 -0.0035204533 0.003933118 -0.017959468
000160 8c 4e e8 bb d6 53 e0 3d 62 eb b0 bd 44 df 65 bd
       -0.0070894416 0.109534904 -0.08638646 -0.056121126
000170 31 17 0c bd ec 7d e3 3c 53 c9 b5 bd 13 49 4a bd
       -0.034201805 0.027770005 -0.0887629 -0.049386095
000180 b7 5b 3f 3b ea c0 e2 3c cf cb 83 bd 5f 9b 89 3d
       0.0029198953 0.02767988 -0.06435358 0.06719088
000190 1f cc 03 be ca 98 40 be 26 9a b5 bc 61 96 51 bc
       -0.12870835 -0.18808284 -0.02216823 -0.012792201
0001a0 00 6d 29 bd 90 9b 00 bd b1 f6 00 be 97 24 84 bd
       -0.041363716 -0.031398356 -0.12594105 -0.064522915
0001b0 89 50 02 be e3 e8 86 bd 77 f7 d8 bc eb ec 9a bd
       -0.12726034 -0.06587388 -0.026485188 -0.0756472
0001c0 fd b5 e3 bd a6 70 18 bc 14 ee cf 3c cc f9 aa bd
       -0.11118696 -0.009304201 0.02538208 -0.08348426
0001d0 85 62 1b bd c4 18 dd bd 5e dd b3 3b db b0 08 be
       -0.037935752 -0.10795739 0.0054890355 -0.13348715
0001e0 81 fc 2d bd f1 9e a9 3c 0d 79 6f 3c 44 a1 27 bd
       -0.042477135 0.020705672 0.014616263 -0.04092528
0001f0 10 0f cf bd 14 d6 6b 3c 84 de f5 bc 2f c0 80 3c
       -0.10110295 0.014394302 -0.03001333 0.01571664
000200 7a 70 ae bd 16 f7 d5 bd f3 7f 81 bd 2a 24 ca 3d
       -0.08517547 -0.104475185 -0.063232325 0.09870179
000210 88 65 c7 bc 62 26 4f bd 3a 91 37 bd a9 d5 77 bb
       -0.024340406 -0.050573714 -0.044816233 -0.003781656
000220 91 69 22 3c 85 79 1c 3b 69 94 cf bc fb 50 87 bd
       0.009912864 0.0023876142 -0.025339322 -0.06607243
000230 09 3d 9b bd 80 94 f1 bd 3e c3 ad 3c 87 30 b3 bd
       -0.07580001 -0.11795902 0.021211263 -0.0874949
000240 14 c0 14 3d 65 7b 70 bc d9 9e a3 bd c9 98 e8 3c
       0.036315992 -0.014677857 -0.07989282 0.028393166
000250 80 09 8f 3d c6 d9 53 bd ba 67 ed 3c 32 91 82 bd
       0.06984234 -0.051721357 0.028980125 -0.0637535
000260 e5 ee b1 3d 1b 00 9f bd cb 46 0a be 93 51 93 bd
       0.08688144 -0.07763692 -0.13503568 -0.071932934
000270 08 1d f1 bd 2d b4 b6 bd d2 5a 8a ba 97 72 3b bd
       -0.117731154 -0.089210846 -0.0010555631 -0.04576358
000280 e8 d9 9d bd cd 4f e4 b9 7f 6b 69 bd 5f ec 76 3d
       -0.07707578 -0.00043547005 -0.056987282 0.060284015
000290 bf ed 91 3c 74 ff bb bd 01 1f 0d bd aa d1 10 be
       0.017813561 -0.09179583 -0.034453396 -0.1414248
0002a0 eb 49 7d 3c 01 4a ce bd 61 e3 04 bd 57 78 e0 bd
       0.015459518 -0.10072709 -0.032443408 -0.10960453
0002b0 c2 8d 08 3c a4 64 a9 bd 7e e2 4f bd 77 62 06 3d
       0.008334579 -0.08271149 -0.05075311 0.032808747
0002c0 6d a3 75 3d a5 6d 67 bd bd d7 2d bd 5e 46 dd 3c
       0.059970308 -0.05650105 -0.042442072 0.027011093
0002d0 cc 08 85 3d 04 78 45 bd b0 52 b6 bd ff 56 4b bd
       0.064958185 -0.04821016 -0.0890249 -0.049643513
0002e0 16 5e 33 bd bd a6 2b be 65 29 e6 bd 37 b2 78 bc
       -0.0437909 -0.16762824 -0.11238364 -0.0151792085
0002f0 ca 4d 97 bd 3e a4 69 bd bd 25 99 bd dc d4 09 bd
       -0.07387884 -0.0570414 -0.07477901 -0.033650264
000300 a6 0e c4 bd a1 e4 9b bd 1a 4f 2c bd d2 6e 38 bd
       -0.095731065 -0.07611967 -0.042067625 -0.04502756
000310 30 bb ff bc b2 d8 96 3c 66 c6 31 3c 71 97 3e bd
       -0.031217188 0.018413875 0.0108505245 -0.046531145
000320 c0 9e 06 be 76 88 7c bd ed fd 66 ba 6a b5 95 bd
       -0.13146496 -0.061653577 -0.00088116416 -0.073099926
000330 64 60 03 be a6 32 e7 bd b9 a9 9b bd 6d a2 4b bd
       -0.12829739 -0.11288957 -0.076007314 -0.04971545
000340 69 5f 10 bd 55 b2 8b bd 3c 9b 45 bd 39 f2 e4 bd
       -0.03524724 -0.068211235 -0.048243746 -0.11179013
000350 41 b8 91 bc f4 be 94 bd 33 11 d8 bc 7d a8 1e bc
       -0.017788054 -0.07262984 -0.026375389 -0.009683725
000360 a0 15 bc 3a 45 d0 86 bc 62 fd f9 bd 95 89 1f bd
       0.0014349706 -0.016456733 -0.12206532 -0.038949568
000370 9a cd 01 be df f2 a7 bc b0 1b f4 bd 11 6d 8a bd
       -0.12676087 -0.020501552 -0.119193435 -0.06759084
000380 25 36 a1 bc ac f6 59 bd a7 32 c6 bc bd ae 49 bc
       -0.019679138 -0.05321376 -0.024194075 -0.012309727
000390 12 a0 f1 bb 1b b2 9e bd b4 49 18 bd 89 0f 9e bc
       -0.007373818 -0.07748815 -0.037179664 -0.019294517
0003a0 65 8f d0 3c bd 13 60 bd 0a 61 29 bd 20 c7 f0 bc
       0.025459 -0.054706324 -0.04135231 -0.029391825
0003b0 ce ac c5 bd c3 12 98 bd ae a1 1b be ea 17 a4 bd
       -0.096521005 -0.074254535 -0.15198395 -0.08012374
0003c0 6e 1f 24 bc d6 b2 3e bd 0c f7 ee bc a9 55 04 3d
       -0.010017259 -0.04655727 -0.029170536 0.032308254
0003d0 32 b8 14 bd 09 a7 9d 3c a7 d0 e6 3d 05 de b1 bc
       -0.036308475 0.019244688 0.11270266 -0.021712312
0003e0 ef d9 b9 bd 8c a5 0b bd 4c 37 4a 3d fa 6b 6c bd
       -0.09074771 -0.034093425 0.04936914 -0.057720162
0003f0 a2 45 8d bc a9 09 75 3c 87 b9 b6 3c b3 91 9f 3d
       -0.017245118 0.014955916 0.022305263 0.07791462

lstm.weight_hh_l0 f4 [512, 128]
000000 fb 39 94 3d de b6 ac bc c7 de 0b 3a 79 ef 3f bd
       0.072376214 -0.021083292 0.00053356256 -0.04685924
000010 ed 35 64 3c d2 87 c9 bd c9 e7 5c bd be 61 b4 3d
       0.0139288725 -0.09840359 -0.053931985 0.08807705
000020 7e cc 99 bd 9b aa 3f 3d b1 57 dd b8 15 37 cb 3c
       -0.07509707 0.04679356 -0.00010554435 0.024806539
000030 a0 41 04 3c 90 5b 49 bd a6 5d d9 3b 7b e6 85 3d
       0.008072287 -0.049159586 0.006633478 0.06538101
000040 29 73 51 bd f0 b5 38 bd f5 8e a7 3c bc 0e 43 bd
       -0.051135216 -0.045095384 0.02045391 -0.047621474
000050 e8 3a f0 3c 56 cb a0 3d 9e 23 1e bd 20 46 a9 bd
       0.029324964 0.07851283 -0.038608186 -0.082653284
000060 59 91 d4 3c 48 a0 08 3d 91 83 ad bc 28 58 ec bc
       0.025948213 0.03335598 -0.0211809 -0.02885063
000070 4b 83 18 3c 84 45 6b bc 37 51 76 bc 15 60 8b 3d
       0.009308646 -0.014359836 -0.015034012 0.068054356
000080 db 34 16 bc 65 86 13 3d dc ca 8d bc 07 8d a3 3d
       -0.009167875 0.03601684 -0.017308645 0.07985883
000090 38 77 a1 bd da 5a fd 3b e4 a4 cb 3d 56 68 ea bc
       -0.07884067 0.0077317776 0.0994356 -0.028614204
0000a0 3a d0 25 3d d9 4d 7f 3d 8a ec 9b bd d2 21 01 3d
       0.040481783 0.0623301 -0.076134756 0.031526394
0000b0 eb 4d 06 3d 27 b6 0e bd 8a d0 ff 3d 42 d3 7d bd
       0.032789152 -0.034841683 0.124909475 -0.06196905
0000c0 34 23 b7 3d 90 11 e9 bc 7c 45 ad 3c 60 c7 cb bd
       0.08942261 -0.028450757 0.021151297 -0.09950137
0000d0 07 3f ef 3d 41 c9 87 3d 05 6b c2 3c 82 55 12 be
       0.116819434 0.06630183 0.023732672 -0.14290431
0000e0 21 ca 97 bb 1a 2f 7b 3d 19 fc 6d 3c d7 c6 ef 3c
       -0.00463225 0.061324216 0.014525437 0.029269619
0000f0 e8 05 0e 3d 34 e1 76 bd 6d 32 b2 3d 9a 1b 72 3c
       0.0346736 -0.060273364 0.08701024 0.014777089
000100 0f 15 c7 3d 0f 7b 3c 3d cf 7a 9a 3d 87 f8 fd bd
       0.097208135 0.046015795 0.07542955 -0.124009185
000110 b7 5b 89 bd da b4 22 3d c2 9a 9e bc 02 3e f4 bc
       -0.06706946 0.039723255 -0.019360904 -0.029814724
000120 33 84 97 bd 9e 34 af bb 30 8b 29 3c e7 38 6c bd
       -0.07398262 -0.0053468486 0.010348126 -0.057671454
000130 48 d6 92 3d 81 a8 95 3d 0f 87 4f bd 78 11 1b be
       0.07169777 0.0730753 -0.05066591 -0.15143383
000140 c1 90 e3 3c 97 70 bf bc 65 53 98 3d d3 ff 8b bc
       0.027778985 -0.023369117 0.07437781 -0.01708976
000150 37 8d 51 bb ad d5 6e 3d 08 a6 32 3d 5b b4 30 3d
       -0.003197504 0.058309246 0.04361537 0.04314075
000160 90 16 c2 bc e7 b7 e6 bc 01 4a e1 bd 4f da 4c 3d
       -0.0236924 -0.028163863 -0.11000443 0.050012883
000170 5d c0 58 3c 7c 7f 8d 3d d9 5a fd 3c 25 42 2b bd
       0.013229457 0.06909081 0.030927109 -0.041811127
000180 c8 68 f2 bd cc c7 85 bd 45 47 3a bd 1d 92 86 3d
       -0.11836392 -0.06532249 -0.045478124 0.06570838
000190 3a 1f 31 bd a3 3a 9c 3c 50 ac 82 3d d6 c7 f0 3c
       -0.04324267 0.019070929 0.06380522 0.029392164
0001a0 f5 2d 05 3d d8 0f 89 3d be d4 40 bd cb 1e 8d 3b
       0.03251453 0.06692475 -0.047077887 0.0043066493
0001b0 a0 a8 84 3d f1 57 25 3d 94 d3 22 3c 17 52 8a 3d
       0.06477475 0.04036707 0.0099381395 0.06753939
0001c0 4d 38 6a bd 8d 28 cf 3c 38 dc 1e bb 5a 70 69 bd
       -0.0571826 0.02528789 -0.0024240147 -0.056991912
0001d0 1b 9b 04 3d 19 9f 46 bd a5 0f 9c bd 4b 2e e4 3d
       0.032374483 -0.04849157 -0.076201715 0.11141642
0001e0 9b 64 df 3c a8 04 a5 3d 11 a2 29 3e ae 76 90 3d
       0.027269652 0.08057529 0.1656573 0.07053886
0001f0 9a 82 e4 3d da 3b fc 3c d1 31 6e 3c 79 4b 46 bd
       0.11157723 0.030790258 0.014538244 -0.04841182
000200 87 f9 4d ba 4b f9 34 bd 2c 54 f6 bc d3 80 e3 bc
       -0.0007857312 -0.044183057 -0.030069433 -0.02777139
000210 f2 65 e5 3d 81 ca cc bd 77 a2 59 3d c8 17 1c bd
       0.11201085 -0.09999562 0.053133454 -0.038108617
000220 a4 f2 3c bd 2c f9 80 bd 89 13 b3 bc e7 b6 f2 3d
       -0.046129838 -0.06297526 -0.021859901 0.11851292
000230 3c bc 0e 3d 85 ea d8 bd af 6f aa 3d 1f 99 f2 3d
       0.034847483 -0.10591606 0.08322083 0.11845612
000240 33 1d 9e 3d f9 1d bb 3d b1 39 2a 3e df c2 47 bd
       0.07720413 0.09136576 0.1662357 -0.048769828
000250 5e 5c 78 3d 1e dc 18 bd 65 c2 58 bd 51 c2 e8 bd
       0.060634963 -0.037319295 -0.052919764 -0.11365188
000260 84 77 30 bd 99 f9 7b 3c 1e 87 d4 3c 79 b7 4d 3d
       -0.04308273 0.015379333 0.025943335 0.0502238
000270 0b 31 4c bd ed 12 58 bc 64 08 d3 3d 63 7f 7f bd
       -0.04985146 -0.013188106 0.10304335 -0.062377345
000280 aa 93 e2 3c b0 13 b1 bd a7 56 83 3d 99 2d 49 3d
       0.027658302 -0.08646333 0.06413012 0.04911575
000290 1f 5a 17 bd 7e 14 be bd 68 b2 10 bd e9 0f d7 3d
       -0.03695118 -0.09281252 -0.03532639 0.105010815
0002a0 22 88 86 bc a3 ce fe 3c b4 0f b3 3c b4 1d fe bc
       -0.016422335 0.031104391 0.021858074 -0.031020023
0002b0 44 02 f5 3c 09 c6 f0 ba cc 4a 86 3c b2 b8 7d 3d
       0.029908307 -0.0018369566 0.016393088 0.061943717
0002c0 fd cb c3 bc dd 56 1b 3d 2c d8 d5 bc a7 e3 f6 bd
       -0.02390098 0.037924636 -0.026104055 -0.1205514
0002d0 1e 08 f0 bc 0a 2a 22 bd 29 bd 11 bd 06 96 af 3d
       -0.029300746 -0.039590873 -0.035580788 0.085735366
0002e0 af 5b 69 bd b4 ef 7a 3d e7 4f 86 bc 66 3a 4f 3d
       -0.056972202 0.061263755 -0.016395522 0.050592802
0002f0 43 ad 9b bb 4e 65 30 3c 9e e3 75 3c 65 68 ae bc
       -0.004750879 0.01076634 0.015007881 -0.021290014
000300 5d d5 aa 3d b0 8d 6e bd c7 f8 c8 3d e5 fd 6e 3d
       0.08341477 -0.058240592 0.098130755 0.0583476
000310 62 4c 44 bd 83 05 27 3c 4a 50 1f 3d 41 b4 1c 3d
       -0.047924407 0.010194185 0.03889493 0.03825784
000320 8f 04 30 bc 39 57 40 3d 18 10 b6 3b 0c 68 ad 3b
       -0.010743274 0.046958182 0.0055561177 0.0052919444
000330 6b 34 8f bd ac 3c 3a bc bb 63 01 3e 13 57 44 bd
       -0.0699242 -0.011367004 0.126357 -0.047934603
000340 0b 81 1c 3e 88 b0 08 3d fc af 9e 3d b1 23 67 bd
       0.15283601 0.03337148 0.0774841 -0.056430522
000350 91 dc 01 3d 4c 6b f4 3d 53 fe 98 3d 99 d4 7f bd
       0.03170449 0.11934528 0.074703835 -0.06245861
000360 3d 6e 00 bc 1f 59 69 bc 62 4e da bd 48 7f 2e bd
       -0.007838783 -0.0142424395 -0.106594816 -0.042601854
000370 65 30 26 3c 28 89 25 bd ed b3 59 3d 9b f0 83 3b
       0.010143374 -0.040414006 0.053150106 0.004026485
000380 4a 39 93 3d 8a d8 71 bd 20 cf 88 bd bc ba 82 3d
       0.071886614 -0.0590444 -0.06680131 0.06383273
000390 cc 15 0d 3e c0 b7 9c 3c 40 5c ca 3d 99 f3 01 be
       0.13777846 0.019130588 0.098808765 -0.12690581
0003a0 9f fc 7c bc b0 68 af bd 43 51 b2 3d ca d8 bf 3d
       -0.015441089 -0.085648894 0.08706906 0.09367521
0003b0 34 4d 8f bc d0 92 46 bd 5c 1b fe bc a5 8b ad 3d
       -0.017492868 -0.048479855 -0.031018905 0.08473901
0003c0 2a 33 cb 3c b6 f6 10 bd e9 2c 04 be 5b 11 bb bd
       0.02480467 -0.035391532 -0.12907757 -0.0913417
0003d0 79 6a 24 bd ed 15 b0 bd 86 ea 4b bd d0 56 3a 3c
       -0.040140603 -0.08597932 -0.049784206 0.011373237
0003e0 fc e0 f3 3a 88 02 0a 3d f0 49 9b bd 63 d4 f1 bc
       0.0018606479 0.03369382 -0.07582462 -0.02952022
0003f0 c7 28 6a 3d c3 51 41 3c fd fe 1c bd c6 e0 87 3d
       0.057167795 0.011799279 -0.038329113 0.06634669

lstm.bias_ih_l0 f4 [512]
000000 50 b2 a9 bc 33 00 e6 3c 7a a1 b2 bd e7 36 4c bd
       -0.020714909 0.028076267 -0.087222055 -0.049857046
000010 e5 68 c7 ba 1e 33 79 bd 93 a0 e0 bd 47 4a 88 bd
       -0.0015213756 -0.060839765 -0.10968127 -0.06654792
000020 6b dd 6b bd 24 fb 8b 39 29 bc 8d 3d 9e 2b f5 3c
       -0.057584208 0.0002669926 0.06920654 0.029928025
000030 b1 65 1a 3e 1c 98 8a 3d 72 8a cb 3d eb 5c 73 bd
       0.15077855 0.06767294 0.09938516 -0.059414785
000040 5f 22 d4 bd 8a 61 1e bd 1a 25 0a 3e 8a 2e 81 bb
       -0.10358118 -0.03866724 0.13490716 -0.0039423155
000050 cd b1 5a bd e2 66 99 3c 70 25 c1 3c 9a 37 0c 3d
       -0.05339222 0.018725816 0.023577422 0.034232713
000060 b7 c8 3a 3d 18 e9 24 3d 5b ae 68 3d 49 79 ce bb
       0.045601573 0.040261358 0.056806903 -0.0063010794
000070 53 82 bc 3d 06 30 38 3b 5c 72 ab bc 9f 15 ac 3d
       0.09204545 0.0028104796 -0.020928554 0.084025614
000080 8e 4f 2d 3d 20 bc b9 bd a2 9d 56 bd 8e f3 ec bd
       0.042312197 -0.09069085 -0.052396424 -0.11569892
000090 76 28 83 bd 66 49 7a 3c e3 d6 1e 3d 18 24 37 3d
       -0.06404202 0.015276289 0.03877915 0.044712156
0000a0 cc 90 a5 bc 6c ae 10 bd c9 30 dd 3c 09 22 e9 bc
       -0.020210646 -0.03532259 0.027000802 -0.028458612
0000b0 30 64 50 3d 95 4b 88 bd 79 1f a0 bd 3e 1a bc bd
       0.050876796 -0.06655041 -0.07818503 -0.09184693
0000c0 c0 e2 68 bd 7d ed 90 3d 3c 94 12 be da 33 4f 3d
       -0.05685687 0.07076547 -0.1431436 0.05058656
0000d0 1e 7b 91 3d 1d a5 af bd 17 19 3b 3d d3 a2 b9 3d
       0.07103561 -0.08576415 0.045678224 0.090642594
0000e0 dc 04 36 bd 28 66 c5 bd 95 13 9d bc 25 62 94 3c
       -0.044438228 -0.096386254 -0.019174377 0.018113205
0000f0 f3 c9 5a 3d 0c 91 ca bd 21 c8 81 3d a7 57 da bc
       0.05341525 -0.09890947 0.06337 -0.026653124
000100 d0 0d 17 3c d5 d4 5b 3d f5 98 7c bd 30 09 bc 3d
       0.009219602 0.05366977 -0.06166931 0.0918144
000110 82 a6 d8 bd de 3e 90 bd f3 b3 dc 3b 0d 9f e0 bd
       -0.10578634 -0.07043241 0.006735319 -0.109678365
000120 fe 77 0e 3d 10 de ac 3d 00 b5 60 bb 46 a5 1c bc
       0.034782402 0.084407926 -0.0034287572 -0.009560889
000130 4b a0 c4 3c 8b 60 a2 3c 8a 30 b1 3d 81 6f 40 bd
       0.024002215 0.019821426 0.08651836 -0.04698134
000140 a2 d3 85 bc a4 41 f6 bc e0 5f 31 bc 63 27 ca bd
       -0.016336266 -0.030060597 -0.010826081 -0.09870794
000150 06 6a c7 bd a7 af ce bd 4d 47 fb 3c 5f 50 2a bd
       -0.09737019 -0.10092097 0.030673647 -0.041580554
000160 4e 76 20 be 85 52 8e 3d f9 d0 39 bc 87 93 47 bd
       -0.1567013 0.06949333 -0.011341327 -0.048724677
000170 03 b6 64 bd 49 70 f5 bd 01 56 f0 bc 33 00 25 bd
       -0.055837642 -0.11984307 -0.029337885 -0.040283393
000180 80 09 a1 bb 76 ae 94 3c 74 02 c5 3b cc 5a 68 3d
       -0.0049144626 0.018149596 0.0060122553 0.056727216
000190 90 92 be bd 30 13 06 3d a7 99 ad bc cb 07 bd bc
       -0.09305298 0.032733142 -0.021191431 -0.023075005
0001a0 c3 91 06 be e7 a1 b7 bd 91 e4 ae 3d 9b 82 4c bd
       -0.13141541 -0.08966427 0.08539689 -0.049929243
0001b0 af e9 ed bd d4 10 cc bd 62 fe 1e 3d 0d 01 af bd
       -0.11616837 -0.09964147 0.038816817 -0.08545122
0001c0 6f 4b 8b bd 7d e9 cc bd 0b b6 83 3d 9e 05 31 3d
       -0.06801497 -0.10005472 0.06431206 0.043218248
0001d0 15 98 a6 3d c1 91 90 bd d3 7a a2 bc fb 70 98 bd
       0.08134476 -0.0705905 -0.019833958 -0.07443424
0001e0 51 9b b4 3d 7b fc f2 bd df a4 0b bd ff 17 24 bc
       0.08818687 -0.11864563 -0.03409278 -0.010015487
0001f0 81 f3 32 bd 70 45 f7 bd 83 62 42 bd d4 d0 7b bd
       -0.043689255 -0.12073791 -0.04745723 -0.06147845
000200 6c 97 f5 3b 85 2e 28 bd 32 5b c8 bd 59 67 06 be
       0.0074948575 -0.04105999 -0.09783019 -0.13125362
000210 8b 09 f8 bd 23 51 8d 3d 69 74 b3 bd 6d c0 c0 3c
       -0.12111195 0.06900241 -0.08762438 0.023529256
000220 04 c4 2d bd 4f 92 e0 bd 75 98 02 bd 74 44 7e bd
       -0.042423263 -0.10965406 -0.031883676 -0.062077
000230 51 5c 79 3d 54 41 04 be 63 75 24 3d 2b 41 bf bb
       0.060879055 -0.12915546 0.04015101 -0.005836626
000240 b0 7a 60 bd 67 60 9f bd a2 b3 1b bc 60 c8 ea bc
       -0.054804504 -0.07782059 -0.009503277 -0.02866
000250 d8 73 f0 bc d3 21 5d 3c dc 9b 09 3c 02 a5 87 3c
       -0.029352114 0.013496834 0.008398976 0.016558174
000260 e1 34 e3 bc 6c 4e 2c bd ee 68 53 3d 83 97 9f bd
       -0.027735176 -0.042066976 0.05161374 -0.077925704
000270 14 37 a6 bd 9b f1 85 bd 12 90 3d bd 1d 23 23 bd
       -0.08115974 -0.06540223 -0.046279974 -0.03982841
000280 e2 66 14 bd 2d ef 37 bc 32 3a e0 bd 69 a4 65 3b
       -0.03623093 -0.011226458 -0.109486 0.0035040623
000290 63 15 62 3d fd 49 09 3d 27 35 c2 3a 88 9b 66 bd
       0.055196177 0.033517826 0.0014816866 -0.05630067
0002a0 52 77 52 3d 7c 03 91 3b b1 5d 46 bd a7 e7 db bd
       0.051383324 0.004425464 -0.048429195 -0.107375436
0002b0 79 e3 34 3d 3c 76 f9 bc 42 e0 10 bc 5d 60 62 bd
       0.044162247 -0.030451886 -0.00884253 -0.05526768
0002c0 d6 33 ce bd c7 b4 e5 bc 2e a4 ca bd 07 e7 1f 3d
       -0.10068481 -0.028040303 -0.09894596 0.039038684
0002d0 0e eb af bd 5a 2d 35 bd 40 73 2e 3d 48 ab 30 3d
       -0.08589755 -0.044232704 0.04259038 0.043132097
0002e0 84 55 b5 bd 72 ea e0 bd c0 4c 06 be ce 76 8a bd
       -0.088542014 -0.10982217 -0.13115215 -0.067609414
0002f0 71 24 fc bd f8 fd 1d be 29 75 90 bc 10 71 56 3d
       -0.12311638 -0.15428913 -0.017633991 0.05235392
000300 71 59 c0 3c e8 22 2d bd c1 99 37 3d 0c 79 8c bc
       0.023480149 -0.042269617 0.044824366 -0.017147563
000310 f0 e2 ab bd 0e a2 18 3d e7 61 b5 bd 42 1c a0 bd
       -0.08392894 0.037263922 -0.08856564 -0.0781789
000320 ca 35 a2 3d 16 66 d4 bc c2 08 86 bc 22 f3 59 3d
       0.07920416 -0.025927585 -0.016361598 0.053210385
000330 6f f2 e7 bc cd c0 b2 bd 5d 03 85 bd 39 b5 87 bd
       -0.028313844 -0.0872818 -0.06494782 -0.06626362
000340 3e b0 f7 bd 8a 24 d8 bd e0 b4 3e 3d 18 cf bf bd
       -0.120941624 -0.10553844 0.046559215 -0.09365672
000350 99 c3 85 bd df d9 11 be d1 2f 10 3d 00 7e 02 bd
       -0.06531448 -0.14243267 0.03520185 -0.031858444
000360 ab c8 51 bd 2b 8f ab bd 54 c0 55 3d f0 56 0d bd
       -0.051216763 -0.083769165 0.05218537 -0.03450674
000370 f4 d7 0c 3d 2f 0c 0e 3d 8a 7a 04 be de 3a ba bd
       0.034385636 0.034679588 -0.1293737 -0.09093259
000380 b5 32 93 bd 20 bf 74 3d 4e 63 fe 3c c1 e4 e9 bd
       -0.07187406 0.059752584 0.031053212 -0.114205845
000390 33 08 3e bd 91 d9 95 bd 0d 3a cd bd c1 79 06 3c
       -0.046394538 -0.07316888 -0.10020838 0.008207739
0003a0 93 06 4e bd c5 56 16 3d 28 b1 3c bd 0f 62 1a bd
       -0.05029924 0.036703844 -0.046067387 -0.037691172
0003b0 f2 22 95 bd 0b 32 07 3b c8 ea 68 bd 59 79 c5 bd
       -0.07282056 0.0020629193 -0.05686453 -0.09642286
0003c0 78 06 af bc 87 30 a1 bd c8 0d 5d 3d c1 25 e4 3c
       -0.02136539 -0.07870584 0.05396822 0.027850034
0003d0 d4 6b 83 bd 5b 4f d1 bd 8f ba 88 3d a6 9f 32 bd
       -0.06417051 -0.10220214 0.06676208 -0.043609284
0003e0 1c 85 78 3d 6a 77 ca bd 38 59 d7 bd c3 06 eb bd
       0.060673818 -0.09886058 -0.10515064 -0.11475899
0003f0 d0 1e ba 3c dd 37 c0 3c 8b e3 db bd 52 76 34 bd
       0.02271977 0.023464138 -0.1073676 -0.04405815

lstm.bias_hh_l0 f4 [512]
000000 27 a0 af 3c 03 f1 9f bd 7c 30 3e bd 23 ee 42 bd
       0.021438671 -0.07809641 -0.046432957 -0.047590386
000010 ea 04 09 bd e7 d9 9f bd 34 7a b7 bd 1f 90 00 bd
       -0.033451952 -0.078052334 -0.08958855 -0.031387445
000020 fb 13 09 bd ca b2 ed bd 8a e0 cf bc e7 9f 0c 3d
       -0.03346632 -0.11606367 -0.025375623 0.034332182
000030 e0 ea c0 3c 7c 1f ca bd e9 49 cc 3d 64 ad c2 3c
       0.023549497 -0.098692864 0.09975035 0.02376432
000040 8e 3a 57 3c a6 3f 87 bd 72 8c 54 bc f8 87 10 3c
       0.013136519 -0.06603937 -0.012972938 0.00882148
000050 a6 39 e2 bb 91 9b c6 bd 38 1a a9 bd 54 be 90 bd
       -0.006903845 -0.09697641 -0.08256954 -0.07067552
000060 66 05 97 bc 68 67 c5 ba c5 15 df 3c 5e 2c d3 bd
       -0.018435191 -0.0015060725 0.02723206 -0.10311197
000070 81 ea 48 bd 70 e3 5f bd 10 87 91 bd a9 48 df bb
       -0.049051765 -0.05466026 -0.07105839 -0.0068140817
000080 ea c5 eb bd 4f ea 8c bd 61 79 2e be 5f cf 04 be
       -0.115123585 -0.06880628 -0.1703849 -0.12969731
000090 d3 62 95 bd 92 fe 04 bd 4b b7 9b bd 2c 4f 84 bc
       -0.0729424 -0.03246934 -0.0760332 -0.016151033
0000a0 f1 b9 f3 bd 54 60 98 bd 87 c7 8a 3d f4 1a 83 b9
       -0.119007 -0.07440248 0.06776338 -0.0002500635
0000b0 d8 a7 21 bd 94 2c b9 bd 01 bb 20 bd 2e b8 c5 bd
       -0.03946671 -0.09041706 -0.03924084 -0.0965427
0000c0 19 1b c4 3b 73 32 9f 3d 08 44 37 bb 33 fd 86 3d
       0.0059846756 0.07773294 -0.0027964134 0.06591263
0000d0 dc cc 3a 3d 17 ae ae bd 17 55 99 bc 8f 65 b0 bc
       0.045605525 -0.08529299 -0.018717332 -0.021532802
0000e0 c7 fa 2c bd 60 d1 fe bd d4 01 0a 3d 74 ba 82 3d
       -0.042231347 -0.12442279 0.03369315 0.06383219
0000f0 e2 23 0d 3e 8e 92 36 be a1 c5 c5 bc 10 08 48 3d
       0.1378322 -0.17829344 -0.024142088 0.048835814
000100 79 3b d9 3c 46 93 f0 3d bc 85 2e bd 14 83 02 3c
       0.026517617 0.1174684 -0.042608008 0.007965822
000110 83 f6 02 be 6b 90 f1 bd d7 9c 66 3d fd d8 62 bd
       -0.1278935 -0.11795124 0.056301918 -0.055382717
000120 df c0 5f bc 56 39 9b bd 93 d9 38 bd 75 1a f6 3c
       -0.013656824 -0.07579295 -0.04512937 0.030041913
000130 d4 5c 77 3d 2f 03 d8 bd da dc 95 3d e2 32 76 3d
       0.060391262 -0.10547482 0.07317515 0.06010712
000140 28 10 62 3b b7 2e 1c 3d 59 55 e8 bb 20 4c e2 3b
       0.0034494493 0.03813049 -0.0070902524 0.0069060475
000150 ea 9d cc bd 12 d4 08 be 8a e8 41 3d 73 6c 14 3d
       -0.09991057 -0.13362148 0.047340907 0.036236238
000160 eb 45 59 3b 51 51 ad bd 84 00 67 3d 8b d4 91 bd
       0.0033153247 -0.084627755 0.056396976 -0.071206175
000170 f8 3b e8 bd 13 94 d2 bd dc dd 1b be b5 88 0d 3c
       -0.11339563 -0.10282149 -0.15221351 0.0086385505
000180 76 72 a8 3d 12 be 1c 3d 4d b0 de bd a0 bf 44 bd
       0.08224957 0.038267203 -0.108734705 -0.04803431
000190 f2 16 ef ba 81 5d 64 bd 43 80 71 bd 4d 2f 47 bd
       -0.0018241091 -0.055753235 -0.05896021 -0.048629094
0001a0 d9 d9 fc bd 2e 67 8d bd 82 0f 76 bc f6 04 fc bd
       -0.12346239 -0.069044456 -0.015018346 -0.12305634
0001b0 5d 38 ac bc 14 51 ab bd 3e 99 91 3d 59 5d 01 be
       -0.02102297 -0.08365074 0.07109307 -0.12633266
0001c0 2a 49 a5 3d c9 a3 c8 3c 8a 5f 82 3c 0c 2e 36 3c
       0.080705956 0.024492161 0.015914697 0.011119377
0001d0 0b 68 5c 3c 9f 1a ff bd 92 bb 39 3d 8f 32 cc bd
       0.01345254 -0.124562494 0.045344897 -0.09970581
0001e0 c7 c4 18 3d cd c3 c6 3c 3e 4f 30 bd 00 e3 15 bd
       0.037297036 0.024263287 -0.04304432 -0.036593437
0001f0 83 2a b3 bc 19 4e d8 bd c3 7d 3d bd c1 87 bf bc
       -0.021870857 -0.10561771 -0.046262514 -0.023380162
000200 16 44 51 bd ba 91 ad 3a e3 54 87 bc be c1 5e 3c
       -0.051090322 0.0013242282 -0.01651997 0.013595996
000210 88 f0 75 bc 64 dd 9a bd 2b 18 cc 3c d7 f7 6c bd
       -0.01501096 -0.07561758 0.024913868 -0.057853546
000220 99 a4 e4 bd 7b f4 cd bc 78 30 d3 3c 8d c6 2b bb
       -0.11164207 -0.025140991 0.025779948 -0.0026210875
000230 c0 42 c3 3d ba 93 34 3c 81 86 a8 3d 7d a9 f6 3c
       0.09534216 0.011021549 0.082287796 0.030110115
000240 7e 92 96 3b 54 73 5c 39 49 fa eb 3b be cd 5f bd
       0.0045951 0.00021023798 0.007201467 -0.05463957
000250 04 cb 34 bd 03 46 7b 3c b1 b9 53 bc 99 cb 53 bd
       -0.044138923 0.015336516 -0.01292269 -0.051707838
000260 37 8d 75 3d c2 a7 e9 bd 48 f5 20 b8 c8 3d b0 bc
       0.059949126 -0.114089504 -3.837541e-05 -0.021513835
000270 c8 e5 bf 3b 32 15 92 bd e7 ec dc 3c ba 50 ae 3c
       0.0058562495 -0.07132949 0.026968433 0.021278728
000280 82 51 52 3c c0 9b 6e bd 99 cc 1a bc 90 01 80 bd
       0.012836816 -0.058254004 -0.009448194 -0.06250298
000290 2e c9 9e bd 6f f1 25 bd 82 bb 85 bd bd 22 ec bc
       -0.07753216 -0.040513452 -0.06529905 -0.028825158
0002a0 2b 20 62 3d 7f 77 d9 bc dc b2 8a 3d 20 ff 39 3c
       0.05520646 -0.026546238 0.06772396 0.01135233
0002b0 fd 67 79 bd 52 fe ce bd 66 13 71 3c 9e df c2 bd
       -0.060890187 -0.101071015 0.014714098 -0.09515308
0002c0 79 de ed bd 9b a8 34 3d 9a 72 0f bd 7b 79 96 ba
       -0.11614699 0.044106107 -0.035021402 -0.0011480296
0002d0 68 64 70 bd 14 62 a5 bd 9f 23 c0 3c 58 87 a3 3d
       -0.058689505 -0.080753475 0.023454485 0.07984799
0002e0 88 0f 08 3c 2a f4 c3 bd 39 90 13 3d 78 04 5d bd
       0.008304484 -0.09568055 0.036026213 -0.05395934
0002f0 31 f8 91 3c 3e de b7 bc 2c 0f 39 bd 0e a7 19 3d
       0.017818542 -0.02244484 -0.045180485 0.03751283
000300 7e 04 44 3d 52 f1 ab 3d 09 8a 7e 3d db 1f ac bd
       0.047855847 0.083956376 0.06214336 -0.084045134
000310 64 ed 98 bc 0c 37 95 bd 18 e7 2d bd 53 2b 01 be
       -0.018667884 -0.0728589 -0.042456716 -0.12614183
000320 32 24 84 bc b8 d8 bf 3d e4 83 82 3d 61 f3 00 bd
       -0.01613054 0.09367508 0.063728124 -0.031482104
000330 64 99 8a 3d 95 03 bf bc 66 52 43 bc 3b d0 d5 bb
       0.06767538 -0.023317138 -0.011921501 -0.006525067
000340 0a ba 8f bd 50 a5 3f 3c 14 0f 66 bd da ad d3 bc
       -0.07017906 0.011697128 -0.056166723 -0.025839735
000350 10 44 f3 bd e6 a5 f9 bc 54 90 ac 3c 2a 92 cd 3b
       -0.11878216 -0.030474614 0.021064915 0.0062735276
000360 80 9d 92 3c 3f 71 80 3d 60 ec 9d bc 2e 76 4e 3c
       0.017897367 0.062716 -0.019277751 0.012601418
000370 7e 49 6a bd fc 2e 26 bd ff bb 93 bd 97 f5 09 3c
       -0.057198994 -0.04057215 -0.07213592 0.00842037
000380 3f 31 09 be c5 cc e7 bb 5c ee 51 bd e4 a0 6d bd
       -0.13397692 -0.007073971 -0.051252708 -0.058014765
000390 26 99 ed bd 57 7d 7d 3d 5d 05 da bd 8c 5d 3c 3d
       -0.11601476 0.06188711 -0.10645554 0.04598765
0003a0 87 53 2b 39 08 71 c6 bd 74 93 41 bd b3 dd c7 bd
       0.00016338947 -0.09689528 -0.047259763 -0.09759083
0003b0 e9 a1 78 3c 9a db 2c bd 36 7f 8d bc e9 ab 49 bd
       0.015175321 -0.042201616 -0.017272573 -0.049236212
0003c0 b7 c6 fd 3c ce 23 91 bd 5c 5a e0 bc dc 8c 91 bd
       0.030978544 -0.07086907 -0.027386837 -0.07106945
0003d0 d4 de b0 3c 10 29 06 be d6 b1 67 bd de c6 ef bd
       0.021590628 -0.13101602 -0.056566082 -0.11707853
0003e0 4d 5e a7 3d 2a c2 31 bd d7 2e fa bc 41 c3 89 bd
       0.08172283 -0.04339806 -0.030539913 -0.06726695
0003f0 96 c8 f6 bc 37 33 2e bc b0 05 1d 3d b8 5f 65 bd
       -0.030124944 -0.010632328 0.038335502 -0.055999488

lstm.weight_ih_l1 f4 [512, 128]
000000 f1 38 3a bd b2 37 c5 bb 16 4c 8e 3d 2b 25 6c bd
       -0.04546446 -0.0060186023 0.06948106 -0.057652634
000010 d0 d2 03 be a1 99 e8 bc ff ad 15 bd ef 5c de bc
       -0.12873387 -0.028393568 -0.03654289 -0.027143924
000020 7e d3 df bd c2 f3 77 3d 07 96 a1 3d aa f3 86 bd
       -0.10929011 0.0605352 0.078899436 -0.06589444
000030 1e 69 ec bc a1 63 7c bc 28 d9 97 3c 35 6e 24 bc
       -0.028858718 -0.015404613 0.018536165 -0.010036041
000040 c0 1c 54 bd 6c d6 61 bd e4 fb 62 bd 72 d7 80 bd
       -0.05178523 -0.05513613 -0.055416003 -0.06291093
000050 97 2c 8d 3d af 16 8c bd 18 1a bf bc 82 64 be bd
       0.068932705 -0.06840264 -0.023327872 -0.09296514
000060 50 a4 aa bd e5 f9 06 bc 11 82 85 3c c1 aa 83 bd
       -0.08332121 -0.00823829 0.016297372 -0.06429053
000070 3b fd 83 bc ef a1 84 bd 07 fe 19 bd fd 62 14 bd
       -0.01611196 -0.06476199 -0.037595775 -0.036227215
000080 f2 9a 31 3d c7 f9 56 bd c7 e1 23 3d c6 a2 84 3d
       0.043360658 -0.0524843 0.04001024 0.06476359
000090 6e dd b1 3b 62 80 cf 3c b2 d9 39 bd 65 a4 c3 3c
       0.005428008 0.025329772 -0.045373626 0.0238821
0000a0 24 17 aa bd b8 af cd bc da 03 6a bd b5 98 2a 3d
       -0.08305195 -0.025108203 -0.05713258 0.04164954
0000b0 8c 5b 06 be 05 92 b4 bb 6a 68 6d bd a1 37 e1 bd
       -0.1312086 -0.005510571 -0.057960905 -0.109969385
0000c0 d4 90 0f bd 73 e5 fb 3c e9 7e 27 3d b2 f6 f1 bd
       -0.03505023 0.030749058 0.040892515 -0.118146315
0000d0 06 53 e3 3d 21 d4 31 3d 4c 49 51 bb cf 6b ab 3d
       0.1109982 0.043415193 -0.0031934557 0.08370172
0000e0 5c 07 ca bd 1f d7 bf 3d d9 31 ea bd 9c a8 d9 3d
       -0.09864685 0.09367203 -0.11435289 0.10627863
0000f0 0e 7b 17 bd 4b f4 a3 3d 5b fb 6a bd 98 98 9d bc
       -0.03698259 0.080055796 -0.057368618 -0.019237801
000100 9c db f1 bc ee 28 79 bd d7 e1 2e 3d 99 d4 0f be
       -0.029523663 -0.06083005 0.042695846 -0.14045943
000110 a7 d7 38 3d d0 b2 95 bd ae 74 8c bd 49 51 88 bd
       0.045127537 -0.073094964 -0.068581924 -0.06656129
000120 3b 3d 82 bb e0 aa ac 3d 9a 91 9d bc 0b 71 9d 3d
       -0.0039745844 0.08431029 -0.019234467 0.07687577
000130 2d 94 9e bd 60 fe 9d 3d f1 97 f2 bc bf 6f 28 3d
       -0.07743106 0.07714534 -0.029613467 0.041122194
000140 06 cb a3 bc 23 a7 ca bd c9 4d 99 bd 64 56 dc 3c
       -0.01999427 -0.0989516 -0.074855395 0.026896663
000150 48 51 d7 bc 39 a9 5f bd 33 ac de bd b6 4b 84 3d
       -0.026283875 -0.054604743 -0.10872688 0.06459753
000160 c3 cb 5e bd 8c 43 94 bd 2f 90 02 3d d8 47 8d bd
       -0.05439354 -0.07239446 0.031875785 -0.06898469
000170 aa d4 85 bd 1f 92 24 3d d9 46 19 3c b9 f0 0c bd
       -0.06534703 0.040178414 0.00935527 -0.03440926
000180 af 00 4c bb 06 ee 10 ba 0c 70 02 3e d9 3e 67 bc
       -0.0031128337 -0.00055286323 0.12738055 -0.014114105
000190 c6 9f 23 b9 0b 32 81 3d 40 c6 34 bc 41 bf 89 bc
       -0.00015604412 0.06308373 -0.011033595 -0.01681483
0001a0 6c 68 0c bd 0c d1 65 3b 9a 9f 33 bc ce 0e 91 3c
       -0.034279272 0.0035067229 -0.010963345 0.017707255
0001b0 93 d5 f8 bc 68 4f 91 3d 62 b9 21 3d fe b1 b1 bd
       -0.030375278 0.07095224 0.039483435 -0.086765274
0001c0 a9 38 95 bd ac b2 63 bd 8a 63 eb bc d3 77 63 3d
       -0.07286198 -0.055590317 -0.028733987 0.055534195
0001d0 56 39 de 3d c3 01 0e bd 10 96 0c bc 8c ce 03 3d
       0.1085078 -0.03466965 -0.0085807 0.0321794
0001e0 8c f6 87 3d 8d 45 3b 3d eb 6b 51 bd 85 33 9b 3c
       0.06638822 0.045720626 -0.05112831 0.018945465
0001f0 29 b2 b9 bc a8 fd a2 bd e4 ed 4b 3a 7c 29 cb 3d
       -0.022667961 -0.07958537 0.0007779284 0.09920022
000200 8c 2e f8 3d 4d 36 82 3d a4 ee 98 3d 0e 03 7f bd
       0.12118253 0.06358013 0.07467392 -0.062258773
000210 93 6f 8e bd f6 80 a5 3a 43 d0 81 3b c2 6e 4d 3d
       -0.06954875 0.0012626934 0.0039615943 0.050154455
000220 01 a4 f6 bc 11 df 56 3d c9 3f e5 bd 4b 20 0a bc
       -0.0301075 0.052458826 -0.11193807 -0.008430551
000230 19 5c f8 3d bd 06 67 bd 01 49 76 3d 56 b4 34 3d
       0.12126941 -0.05640291 0.060128216 0.044117294
000240 79 51 86 bc e6 d2 4c bd 10 be 94 3d 00 16 41 bd
       -0.016396271 -0.050005816 0.07262814 -0.04714012
000250 b9 8b d4 bd 36 fd b5 bd b0 21 f3 bc 53 9a d5 bc
       -0.103782125 -0.08886187 -0.02967915 -0.026074564
000260 12 b2 91 3d 5b 08 50 bd 4e b3 a8 3d e9 47 08 bd
       0.07114042 -0.05078922 0.08237325 -0.033271704
000270 18 ab 2e 3e e4 72 c3 bc 8e 3c 11 3e e2 64 3f bd
       0.17057455 -0.023858495 0.14183256 -0.04672707
000280 7c 46 10 bd b0 95 58 bd 8c 71 c3 3c 75 8d 85 3d
       -0.03522347 -0.052877128 0.023857854 0.065211214
000290 4d 5f df 3b 70 de 69 bd 71 03 b1 3c 25 e6 f1 3c
       0.0068167807 -0.0570969 0.021608086 0.029528687
0002a0 2a 64 75 3d c7 94 d4 3d 36 01 01 3e 7d 33 c8 3d
       0.059909977 0.103799395 0.12598118 0.097754456
0002b0 1e 6c 5d 3d 5c 0e 37 3d bb b2 60 3d 5e 56 d6 3d
       0.054058187 0.04469143 0.05485795 0.10465692
0002c0 6f 69 4d bd 33 60 45 3c 72 1e 9e 3c 08 9f e7 bc
       -0.050149377 0.012046861 0.019301627 -0.028274074
0002d0 8e 8b 1a be cb aa 2b bd 95 8e bf 3c ad 70 6f bd
       -0.15092298 -0.041910928 0.023383418 -0.058457065
0002e0 3d 29 37 3d 30 38 c2 3c 9e 31 b0 bd bd 78 bf bc
       0.044717062 0.023708433 -0.08603214 -0.023373002
0002f0 5e 67 07 3e 51 b3 86 3d f1 d7 21 bd 23 a6 2a 3d
       0.13223025 0.06577171 -0.03951258 0.041662347
000300 f1 07 bc 3c 56 61 97 3d 59 d5 9c 3d 72 a4 0d bd
       0.022953006 0.07391612 0.0765788 -0.034580655
000310 82 74 d2 bc e8 bf b6 3d fe f0 ef 3c e5 8d 8c ba
       -0.02569032 0.08923322 0.029289719 -0.001072344
000320 96 ae 34 3d e8 1a a6 bd 33 32 e6 bd b3 9d 97 3d
       0.04411181 -0.08110601 -0.112400435 0.074031256
000330 75 a6 80 bd 1e a4 00 be 65 40 15 3b 2d 5e bb bd
       -0.06281749 -0.12562606 0.0022773978 -0.09148822
000340 87 5f 50 3d cf fb 1e bd bb fa e7 3d 96 85 a7 3a
       0.050872352 -0.038814362 0.1132712 0.00127809
000350 e7 4e 1c 3d 98 38 e3 b9 3f bd cb 3c 51 f9 b0 3c
       0.038161185 -0.0004333898 0.024870513 0.021603258
000360 47 f5 8e bd 39 a9 24 3d 03 31 16 bd 48 fb c4 3c
       -0.06980377 0.040200446 -0.036667835 0.024045601
000370 d8 1e e7 bd 80 ec 6a bd fc 75 5b bc e2 d7 38 3d
       -0.1128518 -0.05735445 -0.013394829 0.045127757
000380 e7 11 2c 3e f0 7d 81 bc 37 e9 b9 bc 74 75 9a 3d
       0.16803704 -0.015807122 -0.022694213 0.07541934
000390 52 8e 86 bc 95 19 d5 bd 6e f1 0a bd f3 98 19 3d
       -0.016425285 -0.1040527 -0.03392165 0.03749938
0003a0 49 62 aa bd 9f 67 ef bd ca 1e 88 3d f1 9a a0 bc
       -0.08319528 -0.11689686 0.066464975 -0.019605132
0003b0 57 08 c7 3b aa c7 99 bd e2 69 40 bd 1e 1b 1c 3b
       0.0060739922 -0.07508786 -0.046975978 0.0023819874
0003c0 93 ab 22 bd 47 1e 76 3d 19 4d de 3d 84 6a 97 bd
       -0.039714407 0.06008747 0.10854549 -0.07393363
0003d0 2f 8b 91 bd a6 48 0f bd fb 48 3c 3d 75 ff b0 3c
       -0.07106625 -0.034981392 0.045968037 0.021606186
0003e0 1b 4e d3 3d c0 72 ac 3d 42 4a e1 3c 80 22 3f bd
       0.10317632 0.08420324 0.02750123 -0.04666376
0003f0 97 8f f6 3c 20 47 ba bc 22 61 0f 3d 81 60 29 bd
       0.030097766 -0.022738993 0.035004742 -0.0413518

lstm.weight_hh_l1 f4 [512, 128]
000000 7f 7b 2b bc 1d 34 bc 3d c5 86 b4 bc a0 d3 6b 3d
       -0.0104664555 0.09189627 -0.02203692 0.05757487
000010 c5 c4 fb bb 02 88 f6 bc f4 c4 b4 3d 42 ae fb 3d
       -0.007683369 -0.03009415 0.08826628 0.122890964
000020 28 03 e3 3d f2 ef e2 bd b1 56 74 bd 5a 71 9b 3d
       0.110845864 -0.11080922 -0.059652988 0.075899795
000030 24 63 5e 3b 55 fd 93 bd 3d a3 27 3d 20 8d b0 bd
       0.0033933604 -0.072260536 0.04092716 -0.086206675
000040 ac 30 23 bc 27 19 94 bc ac c7 a8 3d 64 96 92 bd
       -0.009960335 -0.0180784 0.082412094 -0.07157591
000050 f2 c6 15 3d b7 ed 6f bd e0 49 63 3d 89 35 63 3d
       0.036566682 -0.058576312 0.055490375 0.055470977
000060 ba 1e 9f 3d 4d d0 71 3d 0b bf 86 3d 76 3c 83 39
       0.077695325 0.05903654 0.06579407 0.00025031314
000070 1b 79 55 bd ca 77 b3 3d 1c 5d db bd 90 62 c7 ba
       -0.05211745 0.08763082 -0.107111186 -0.0015211869
000080 8a 7d 07 be a3 92 53 3d 39 e3 f5 3c 28 71 bb 3d
       -0.13231483 0.051653516 0.030015575 0.09152442
000090 ee 7f 52 3d ae ae e1 3d d5 ab 8a 3d 43 90 27 3d
       0.051391535 0.11019646 0.067710556 0.040909063
0000a0 a9 1b e5 3d fa 72 11 3d 15 f8 3f 3d a9 e5 a2 3c
       0.111869164 0.03551004 0.04686745 0.019884901
0000b0 3d 3f 9e bc 42 76 92 bc 52 a3 5e 3d ab 74 b1 bc
       -0.019317264 -0.017878655 0.054354973 -0.021662077
0000c0 d7 5d 81 bd 3c cd 2c bb 77 6b 52 bd 64 c5 87 bd
       -0.06316727 -0.0026367446 -0.051372018 -0.06629446
0000d0 6e f0 72 bd eb 01 e1 3d 11 bb d2 bd f8 eb a4 bd
       -0.059311323 0.10986694 -0.10289586 -0.0805282
0000e0 b7 cd 7c bd db f6 f0 3c 2a cd 97 bd 60 f2 92 3c
       -0.061719622 0.029414585 -0.07412179 0.017937839
0000f0 53 b5 fd bd c6 84 02 bd f8 aa fd 3c 50 f9 de bc
       -0.123881005 -0.031864904 0.030965313 -0.02721849
000100 4c ad 91 3d 9a 2c ec 3d 3c aa 8e bb 30 28 c8 3b
       0.07113132 0.115319446 -0.0043537896 0.0061083063
000110 09 c5 30 3d aa 9a 6f 3d 03 c3 8e 3d 78 0e d1 bd
       0.043156657 0.05849711 0.06970789 -0.10207838
000120 49 57 10 bd 80 31 85 bb ab f5 7f bc 15 01 72 3d
       -0.03523949 -0.0040647388 -0.015622537 0.059083063
000130 b3 46 94 bd fa 0c 90 3d 23 03 42 bd 5b 43 82 bd
       -0.07240047 0.07033725 -0.047366273 -0.06360503
000140 5a 8d 04 bd 55 1e 13 bd 53 79 03 3c 04 15 ac bd
       -0.032361366 -0.0359176 0.008024531 -0.08402446
000150 91 32 98 bd e7 02 3c 3d 24 cb 8c bb ba cb 07 3c
       -0.0743152 0.045901205 -0.004296677 0.008288318
000160 49 9d e1 3d 8a 8f c8 bc d7 4e 26 3c 12 33 c0 3c
       0.11016328 -0.024482507 0.010150633 0.023461852
000170 87 12 00 be 48 f5 c2 b9 18 22 56 bb 7d 3a 0f 3d
       -0.12507068 -0.00037185312 -0.003267413 0.03496789
000180 88 93 cd 3c c6 ce fd bd 2b e9 80 3a 19 66 c9 bd
       0.025094762 -0.123929545 0.0009835114 -0.09833927
000190 c4 15 87 bd fc 37 bc bd 86 5f 7f 3d fa 9b d5 bd
       -0.06595948 -0.09190366 0.062346958 -0.10430141
0001a0 20 0e 17 3d fb 38 d1 bc 78 b6 12 3e aa 83 0e be
       0.036878705 -0.025539866 0.14327419 -0.13917413
0001b0 86 8f 84 3c fd 20 51 3d e8 6c 02 b7 97 08 33 bd
       0.016181719 0.05105685 -7.7739605e-06 -0.043709364
0001c0 ce 5b 1e 3b b6 70 a0 bd b5 20 ae bd 59 16 47 bc
       0.0024163607 -0.07833998 -0.08502332 -0.012151324
0001d0 1c f2 7a 3c 3e d3 2e bd a9 15 5e 3d 24 b6 5a bc
       0.015316512 -0.042681925 0.054219875 -0.01334909
0001e0 c8 1c 60 bd 18 86 a7 3b 38 83 4e bc e0 65 6b bc
       -0.054714948 0.005112421 -0.012604527 -0.014367551
0001f0 27 bb 1d 3c 1a a6 95 3d 9c 45 57 bd 2c 0b 9e 3d
       0.00962714 0.07307072 -0.05255662 0.077169746
000200 86 43 1f bd f5 ef cc bc f0 d0 ae 3c be 7c ed 3c
       -0.038882755 -0.025016764 0.021339864 0.028990146
000210 0d f3 0a bd eb 5f ad 3d c8 12 82 bd 0a 2a 6d 3d
       -0.033923198 0.084655605 -0.063512385 0.05790142
000220 d0 b4 42 3d 40 be bd bc 38 0d 1b bc cd 1e f9 3c
       0.047535717 -0.023162007 -0.009463601 0.030410195
000230 10 1c 24 bd bf 99 2f 3d 9a 71 85 ba 52 49 6e bd
       -0.040065825 0.042871233 -0.0010180951 -0.058175392
000240 03 b6 4d bd 58 a7 0d bd 63 a8 82 bd 5a b3 95 3d
       -0.050222408 -0.03458342 -0.063797735 0.07309599
000250 f1 d5 96 bc 3c ee b8 bd 50 bc d7 bc 31 e2 cc bc
       -0.018412562 -0.090298146 -0.026334912 -0.0250102
000260 54 aa 05 3d d6 ee b8 bd 36 f7 68 bd 4b 49 a3 3d
       0.03263314 -0.09029929 -0.056876384 0.07972964
000270 30 77 0d 3d e1 81 b5 3c 13 ac b6 bd 55 99 16 bd
       0.034537494 0.022156658 -0.08919539 -0.036767323
000280 72 4a b2 3d 84 59 83 3a db 20 54 bd 94 99 cd b8
       0.087056056 0.0010021185 -0.051789146 -9.803768e-05
000290 90 e0 41 3c 38 19 38 bd 54 36 84 bd cd 8f 5a bd
       0.011833325 -0.044945925 -0.06455675 -0.053359795
0002a0 8c b7 e5 bc 0b a1 ac bd ee d7 18 3d 9e fd 28 3d
       -0.028041624 -0.08429154 0.0373153 0.041257493
0002b0 b4 8a 56 bd 68 24 15 3b 61 53 a1 bd ea e9 0a bd
       -0.05237837 0.0022757296 -0.078772314 -0.033914484
0002c0 34 41 3e 3c ae b2 b0 bd a8 9c 16 3c 0d b3 e4 3c
       0.011612225 -0.086278304 0.009192623 0.02791741
0002d0 ea 7c 86 3d 8e fe e7 3b fd cb 29 3d 61 55 9a 3c
       0.06566794 0.007079906 0.041454304 0.01883954
0002e0 39 ed a1 bc b0 3b af 3d f2 cc a3 bc a9 80 04 bd
       -0.019766437 0.08556306 -0.019995186 -0.032349262
0002f0 71 73 87 bd 1a 06 a4 3d 70 d4 4e 3d 35 d5 a1 bd
       -0.066138156 0.08008976 0.050495565 -0.07901994
000300 a7 ca 7f 3d e8 a9 1c bc 1c 70 b8 3c d8 db 62 3d
       0.062449124 -0.009561993 0.022514395 0.05538544
000310 6a 80 82 3d 74 0d 3d 3d 34 e1 3e 3c 14 e6 fe 3c
       0.06372149 0.046155408 0.011650372 0.03111557
000320 ea c9 06 bd e4 60 78 3d b1 bc 7f bd aa 9a e6 3c
       -0.032907404 0.060639277 -0.06243581 0.028149921
000330 6d 5a 04 3d 39 29 67 3d 25 42 4a bd c2 dd 51 3d
       0.0323128 0.056435797 -0.049379487 0.051236875
000340 b3 4a 83 3d 53 5d dd 3a f1 45 84 3c 65 71 d8 bd
       0.06410732 0.0016888775 0.016146632 -0.10568503
000350 c7 64 b4 3d 68 34 a5 bc 2c 59 43 3d 06 11 a0 bd
       0.08808284 -0.02016659 0.047692463 -0.07815747
000360 c5 7c 9d bd 97 2a 90 3d db 9a 09 3d db 31 85 3c
       -0.076898135 0.07039373 0.033594947 0.016259125
000370 ff d5 8d 3d fd fc 86 bd 34 ea b2 3d d6 2a 30 3d
       0.06925582 -0.065912224 0.08736077 0.0430096
000380 01 03 94 bd f8 8b 27 bd f5 f3 76 bd d0 e2 35 3d
       -0.072271354 -0.04090497 -0.06029125 0.04440576
000390 4e e4 03 bd 96 92 3e bd 64 71 67 bd e8 f2 93 3d
       -0.03220015 -0.046526514 -0.056504622 0.07224065
0003a0 c5 fd 8c 3c fa 5b 7d bd ca 19 e1 bb 8d a0 04 bd
       0.01721085 -0.061855294 -0.0068695294 -0.032379676
0003b0 1f cc f4 bc 12 80 96 bd e1 5a cc 3c bb 16 48 bd
       -0.029882489 -0.07348646 0.024945678 -0.048849802
0003c0 2c 33 92 bc 74 f5 59 bd 4a d2 7f 3d b1 5a be 3d
       -0.017846666 -0.053212598 0.062456407 0.09294642
0003d0 96 27 82 bb 5d 0f 1f 3d a3 25 97 bd bb f4 8b 3c
       -0.003972004 0.03883301 -0.073802255 0.01708447
0003e0 23 13 71 bd c6 40 85 3d 4c ef fd bc 41 de a7 3d
       -0.05885614 0.06506495 -0.030997895 0.081966884
0003f0 c8 93 f3 bd 32 05 59 3d 41 b4 1e 3c a7 db 96 3d
       -0.118934214 0.05298347 0.009686531 0.07366114

lstm.bias_ih_l1 f4 [512]
000000 34 24 14 bd b3 be f2 3c 6e 85 01 bd 6d 3c 13 3d
       -0.03616734 0.029631948 -0.03162139 0.0359463
000010 ef 41 a3 bd 42 11 5b bd 96 ff 14 bd ee 2b 01 bd
       -0.0797156 -0.053483255 -0.03637656 -0.031536035
000020 0a c2 fb 3d 24 a4 21 3c 11 45 fc ba 86 de 08 bd
       0.122928694 0.009865794 -0.0019246658 -0.03341534
000030 23 86 be bc ed 22 08 3d 67 45 56 3d 6a 58 23 3d
       -0.02325732 0.033236433 0.05231228 0.03987924
000040 72 49 3b 3d 45 a5 cd bd 8e 95 96 bd 2b 86 92 bc
       0.04572434 -0.10041288 -0.07352744 -0.017886242
000050 06 ec ca bc 37 f3 c0 3c 17 b2 27 bd 5e 72 e6 bd
       -0.024770748 0.023553474 -0.040941324 -0.112522826
000060 41 09 13 bd d0 6d 1f bb 81 d9 f8 bc 2e fc da 3c
       -0.035897497 -0.0024326928 -0.030377151 0.026731577
000070 5e 9b 37 3d c9 97 d2 bc 4d c8 10 bd 66 51 d3 3b
       0.044825904 -0.025707142 -0.03534727 0.0064489124
000080 28 cc 77 3d db 81 75 3d 23 b2 72 3c 3e 13 25 3d
       0.060497433 0.059938293 0.014812979 0.040301554
000090 f1 80 10 bd 0d b9 83 3c 6e 1e 86 bd 26 74 cc 3d
       -0.035279218 0.01607945 -0.06548773 0.09983091
0000a0 b1 c6 70 3d 42 0b 7c 3d a1 58 a5 bc 3a 4b 13 be
       0.058783237 0.061534174 -0.020183863 -0.14384165
0000b0 89 37 d1 3c 3d b0 6e bd 67 0e 36 3d 52 e7 71 bd
       0.025539177 -0.058273543 0.04444733 -0.059058495
0000c0 2b ba 88 3b 92 46 be bd 77 71 4a bd c5 fc 0c bc
       0.0041725836 -0.09290804 -0.049424615 -0.008605187
0000d0 a0 03 07 3d c9 74 4e bd c9 33 07 3c dc a8 2d bd
       0.03296244 -0.050404344 0.008252093 -0.042397365
0000e0 70 44 72 3d 72 a9 e0 ba 51 6b 20 bd 56 a6 54 bc
       0.0591473 -0.0017140342 -0.039164845 -0.012979111
0000f0 79 02 10 3d ef 10 77 bd d9 7e c9 bc e9 8e b6 bd
       0.035158608 -0.060318884 -0.024596618 -0.08913977
000100 a1 c4 5c bd c9 1e 3b bd db 62 b6 bd 8a 08 73 3d
       -0.053898457 -0.045683656 -0.08905574 0.059334315
000110 2d b9 5f bd 4e 02 2a 3d bd d8 c1 3c e1 9b 93 bd
       -0.054619957 0.041506104 0.02366292 -0.07207466
000120 68 21 9e bd 16 7c 52 3d 76 1d f6 bd cc fe 92 bd
       -0.077212155 0.05138787 -0.12017338 -0.07177505
000130 f8 5f 9a 3b 84 be 0d be 45 39 f4 bc e7 d6 af bd
       0.0047111474 -0.13842207 -0.029812464 -0.08585911
000140 b4 60 15 bd c0 c2 4f bd a3 3d d8 bd a5 28 a0 bc
       -0.036469176 -0.050722837 -0.10558631 -0.01955063
000150 d8 14 ea 3d d1 a0 f7 bc 18 3d 71 3d 35 a5 4c bc
       0.11429757 -0.03022805 0.058896154 -0.01249056
000160 ea fb 14 3d c3 04 9a bd ff ef ad bc eb 30 70 3d
       0.036373056 -0.075204395 -0.021232603 0.0586404
000170 9b 03 00 3e ec d8 a6 bd f6 77 a0 3b 8d 46 8e 3c
       0.12501375 -0.08146843 0.004897113 0.017367626
000180 61 37 a8 3d fc 7d 63 3d 79 5e a7 bc f3 5d a6 bd
       0.08213688 0.05554007 -0.02043079 -0.08123388
000190 72 eb da 3d 0c 81 39 3d f3 2b 18 3d b9 72 48 3d
       0.10689439 0.045289084 0.03715129 0.048937533
0001a0 d8 a2 1b bb f3 b7 89 3d 3a f2 a5 bd 1f 13 b4 bd
       -0.0023748185 0.06724539 -0.08102842 -0.087927096
0001b0 07 05 8f 3c f3 ea bc bd 0d 1d 27 bd fa e8 26 bd
       0.017458452 -0.092245005 -0.04079919 -0.040749528
0001c0 c3 54 91 3d 64 2f 8f bd 77 54 17 3d 93 d8 05 3d
       0.07096245 -0.06991461 0.036945786 0.032677244
0001d0 4f 8b 08 bd 6d 72 9d bd e3 8e a9 bd f3 ca 90 3d
       -0.03333598 -0.076878406 -0.082792066 0.070699595
0001e0 a7 99 ce bd 7e bc a4 bd 5f d8 32 3d 12 4a af bb
       -0.100879006 -0.080437645 0.04366338 -0.005349406
0001f0 f5 bc 6d 3d f1 de 1d bb f9 f8 19 bd 2b d4 b8 bc
       0.05804153 -0.0024089182 -0.037590954 -0.022562107
000200 6c 16 0b be 48 ce 2c 3d e6 16 91 3c 7d 2a 45 bc
       -0.13582772 0.042188913 0.017711114 -0.012034056
000210 ea 7f f2 3c 78 7c d0 bc 47 33 01 bd b3 10 32 3d
       0.02960201 -0.025449976 -0.031543043 0.043472957
000220 63 4d 36 bc 89 5f b2 3d 8b 01 41 bd 11 0e d8 bc
       -0.011126849 0.08709628 -0.047120612 -0.026373895
000230 1a a3 15 be c6 ff 9a bd 44 6f aa 3d c1 71 40 bd
       -0.14613 -0.07568316 0.083220035 -0.046983484
000240 0d 28 9f bd 4e df 01 3d 49 01 20 bd 2a 38 91 bc
       -0.07771311 0.0317071 -0.039063726 -0.017726976
000250 8b 29 1a bb a8 59 19 bb 93 e3 cf bc 4d 34 80 ba
       -0.0023523297 -0.0023399387 -0.02537707 -0.0009781212
000260 7d b9 10 bd 17 05 76 bd 9e 6d 5d bd a6 d2 d4 bd
       -0.035333145 -0.060063448 -0.054059617 -0.103917405
000270 42 c5 81 bd a3 39 52 3d a6 d7 b6 bd 5d b7 b1 3c
       -0.06336452 0.051324498 -0.089278504 0.02169388
000280 8c 90 4b bd 77 ee 78 3d b9 fc f9 3c 23 6e 29 bd
       -0.049698398 0.060774293 0.030516015 -0.0413648
000290 88 be 43 bd 2d c7 6b bc 4d f8 ea bd 35 7e 8f bd
       -0.047789127 -0.014390749 -0.11473141 -0.07006494
0002a0 f0 20 b3 bd 06 55 29 3d 5d 36 39 bd e0 3a 90 bc
       -0.08746517 0.04134085 -0.04521786 -0.017606199
0002b0 c2 38 98 bc 48 b0 08 bd 2d 23 15 3d 31 34 dd 3c
       -0.018581752 -0.03337124 0.0364105 0.027002426
0002c0 74 32 d8 bc a9 f5 95 bd bc 20 a0 bc bc e8 4d 3c
       -0.026391245 -0.073222466 -0.019546859 0.012567695
0002d0 04 77 ca bb 65 80 11 3d c2 00 16 bd de fb c1 3a
       -0.0061787385 0.035522837 -0.036621816 0.0014799794
0002e0 31 4c 38 3c 8a 8b c7 bc b8 58 e4 3c 21 72 0c be
       0.011248634 -0.02435853 0.027874336 -0.13715412
0002f0 80 8a d3 3c af fd 2c bc 74 72 13 bd 11 04 86 bc
       0.025822878 -0.01055853 -0.035997823 -0.01635936
000300 67 10 4d 3c 55 a9 e5 bd 07 c9 93 bc 7f aa f1 3c
       0.012516118 -0.11213938 -0.018040193 0.029500244
000310 87 e2 5a bd 7f 90 ce bd 26 bf ea 39 ba 51 58 3d
       -0.05343869 -0.10086154 0.00044774375 0.052812316
000320 1c ac 1f bc 78 51 9e bd 8e 00 a0 3c bd 62 ae bc
       -0.009745624 -0.07730383 0.019531514 -0.021287316
000330 04 da d2 3c 40 1f d8 bd 10 d3 bd 3c 30 24 59 bc
       0.025738724 -0.105528355 0.023171932 -0.013253257
000340 4a 62 2d 3d 0c a7 2a bd 45 04 d0 3c 44 ba df b9
       0.042330064 -0.041663215 0.02539266 -0.00042672653
000350 f4 cc 1b 3c 8a cb 37 bd 76 af 2e bd c3 bf 57 bb
       0.009509314 -0.044871844 -0.0426478 -0.0032920695
000360 42 66 57 3d 20 47 72 3d d0 ec 02 3d 23 8d 31 3d
       0.052587755 0.05914986 0.031964123 0.04334749
000370 39 64 ab 3d 4c 6f cd 3c a3 bb a1 3c ed ee 66 3d
       0.08368725 0.025077485 0.019742792 0.0563802
000380 2b 94 2e bd 52 3f 79 bd c9 a8 43 3d e2 29 54 3c
       -0.042621773 -0.060851403 0.047768388 0.012949439
000390 2b 2a 31 3d d3 a7 1b 3d 9c 47 9c bd ba 25 23 bc
       0.043253105 0.038001847 -0.07630846 -0.009957725
0003a0 dd 66 18 bd 03 e4 43 bd e4 7c 45 3c d0 95 5e bd
       -0.037207473 -0.04782487 0.012053702 -0.05434209
0003b0 f7 3d c8 3c 41 f4 82 bd eb 27 02 3d 49 20 3b bc
       0.02444361 -0.06394244 0.03177635 -0.011421272
0003c0 a1 a6 c8 3b cf 91 96 3d 18 98 cf bd 7d ea 07 3d
       0.0061233793 0.073520295 -0.101364315 0.03318261
0003d0 b4 2a 00 3d 91 a0 d2 3a 1b 06 36 3d f0 5a 5a 3d
       0.031290725 0.0016069581 0.044439416 0.05330938
0003e0 69 16 d3 bd f8 c1 3f 3c c4 f6 1f bc 89 ef c1 3c
       -0.10307009 0.011703961 -0.009763423 0.02367379
0003f0 0e 6e cb bc 30 75 77 3d d3 2b ed bd 58 50 84 bd
       -0.024832752 0.060414493 -0.115806244 -0.06460637
