04_Models_Weekly/20250811_182143_GDEA_Weekly_WithSentiment/best_model.pth (torch, 278325 bytes, 11 tensors)

lstm.weight_ih_l0 f4 [256, 63]
0.08292794 0.09539373 -0.03830962 0.11644031 -0.009314167 0.025223836 -0.06085688 0.11262995
0.13847174 -0.08055797 0.124851584 0.04145259 0.11708295 0.04314404 0.0821882 0.019132579
0.13600628 0.018694524 -0.02598341 0.049517833 -0.01780094 0.0013379472 -0.036522854 0.10386261
-0.099821925 -0.04098739 -0.018619858 -0.06825799 0.025042832 -0.039507397 0.121212766 -0.09785938
0.113142274 0.033797763 -0.012261657 0.0938826 0.030006723 0.09984477 0.022442982 -0.011547811
0.15662023 -0.048379224 0.0557448 0.1238123 0.055460356 -0.047314685 0.08028942 0.037933126
0.05194077 -0.07666721 -0.11124503 -0.03837143 -0.0837504 0.11748685 0.0454214 0.04076468
0.026114635 0.024248488 0.12500991 -0.10205542 0.03718766 -0.09402225 0.07124015 -0.05692146
0.023597715 -0.035896286 0.09693558 -0.082900256 -0.07454975 -0.07455425 0.108660296 0.031683687
0.10983663 -0.11540069 -0.13185087 -0.1046298 -0.091819085 0.03478816 0.04208073 0.09971242
-0.08844858 -0.09483221 0.05507146 -0.053784087 0.06404102 -0.039376076 0.058477767 -0.11834988
-0.075829856 0.034276616 0.014061713 -0.031695526 0.1106385 0.07237757 -0.10324525 -0.079482146
0.080645196 -0.05106918 -0.0570632 -0.130328 -0.09281266 0.021519136 -0.026024038 -0.094670594
-0.02059974 -0.101856485 -0.11871267 -0.098797694 -0.12758495 -0.10300404 0.11433381 0.0018792681
0.017167462 -0.12968598 -0.09576195 -0.055314843 0.0063396795 -0.12800828 -0.0737862 -0.0933033
-0.011022977 -0.048777435 -0.02012414 -0.08425875 -0.095537946 -0.0724232 -0.052056305 -0.10615575
0.07564042 -0.04873382 0.117119804 0.03894776 -0.10584962 0.10645307 -0.01182753 -0.040326428
-0.09715901 -0.11546668 0.05683353 -0.008936842 0.059353974 -0.08780556 0.113045365 -0.09268289
-0.0032010213 0.038258564 0.08459429 0.11337839 0.121128984 -0.0814441 0.028798234 -0.036503848
0.0070484737 -0.087084986 0.10041787 -0.0030933002 0.075248465 0.052371997 0.05788139 -0.06760977
0.14625198 0.044730697 0.026797863 -0.11281709 0.06020049 0.01409209 0.055616297 0.11750158
0.030056942 -0.059724342 -0.06757491 0.012576401 0.10010011 -0.01761809 -0.07057214 -0.032457046
-0.08437766 0.051855147 0.10450645 -0.099740386 0.04456785 0.062272176 0.015681155 -0.019796317
0.09478757 0.045058377 0.05697194 -0.03987553 -0.018031886 0.035429794 -0.0033642834 -0.04656137
0.058623463 0.10686692 -0.012374669 -0.027987108 0.0035076146 -0.025173124 0.032634202 0.032310948
-0.12512171 -0.05139595 0.092061795 0.05270583 -0.019914877 -0.092926495 -0.06253331 -0.12327656
-0.04581369 0.043604907 0.07168713 0.045514345 -0.1062996 -0.07201787 -0.011051022 0.14078985
0.037137907 -0.058952775 0.065625586 -0.02692597 -0.060222697 0.09991196 -0.057681292 -0.021339323
-0.11567448 0.10301703 0.09785677 0.06449435 -0.106396966 -0.05128091 -0.098995835 0.090207085
0.05721347 0.10406955 0.0663453 0.011128044 0.0005849461 -0.09491586 -0.1159118 -0.115683936
0.04741877 -0.06785874 -0.043172833 -0.08069367 0.004376406 -0.06643551 -0.085129604 0.041482892
-0.02164157 0.07574252 -0.02511532 -0.096011296 -0.027219936 -0.061388995 -0.03154698 -0.108919
00000000: 20d6 a93d ca5d c33d 8cea 1cbd 4278 ee3d
00000010: 739a 18bc 38a2 ce3c 1045 79bd 88aa e63d
00000020: 89cb 0d3e 94fb a4bd 30b2 ff3d 31ca 293d
00000030: 30c9 ef3d ceb7 303d 4952 a83d edbb 9c3c
00000040: 3b45 0b3e 4225 993c 29db d4bc 36d3 4a3d
00000050: 47d3 91bc 0f5e af3a fd98 15bd ecb5 d43d
00000060: 706f ccbd 65e2 27bd ac88 98bc d8ca 8bbd
00000070: a026 cd3c 82d2 21bd 663e f83d 806a c8bd
00000080: 23b7 e73d 866f 0a3d 1ee5 48bc 8545 c03d
00000090: a9d0 f53c 6a7b cc3d 58da b73c 0833 3dbc
000000a0: 0e61 203e 4b29 46bd a954 643d 4e91 fd3d
000000b0: 662a 633d 0bcd 41bd c86e a43d c45f 1b3d
000000c0: d8bf 543d b303 9dbd 6fd4 e3bd 5c2b 1dbd
000000d0: 5485 abbd f29c f03d ca0b 3a3d ddf8 263d
000000e0: 5cee d53c c4a4 c63c 9902 003e 6f02 d1bd
000000f0: 1652 183d bd8e c0bd 5be6 913d 7a26 69bd
00000100: ff4f c13c fc07 13bd 2986 c63d 9cc7 a9bd
00000110: 8aad 98bd e6af 98bd 4a89 de3d c1c6 013d
00000120: 07f2 e03d 3257 ecbd ea03 07be 2648 d6bd
00000130: a50b bcbd 087e 0e3d d85c 2c3d 0636 cc3d
00000140: 8724 b5bd 6437 c2bd 9c92 613d b44c 5cbd
00000150: f027 833d cf48 21bd 6286 6f3d 6c61 f2bd
00000160: af4c 9bbd a365 0c3d 1963 663c 2bd3 01bd
00000170: 7096 e23d b13a 943d 3f72 d3bd 89c7 a2bd
00000180: 4f29 a53d eb2d 51bd 1abb 69bd b474 05be
00000190: 9014 bebd e648 b03c 5d30 d5bc a8e2 c1bd
000001a0: c9c0 a8bc 229a d0bd a11f f3bd 7256 cabd
000001b0: a1a5 02be c8f3 d2bd d827 ea3d c651 f63a
000001c0: c7a2 8c3c 67cc 04be d71e c4bd d191 62bd
000001d0: 16bd cf3b 9a14 03be 381d 97bd cd15 bfbd
000001e0: b799 34bc d9ca 47bd 61db a4bc da8f acbd
000001f0: 66a9 c3bd 9d52 94bd fe38 55bd 3068 d9bd
00000200: 5de9 9a3d 1d9d 47bd 82dc ef3d b087 1f3d
00000210: b0c7 d8bd 1104 da3d 42c8 41bc 532d 25bd
00000220: 4efb c6bd cb79 ecbd 47ca 683d d56b 12bc
00000230: 271d 733d 67d3 b3bd 5484 e73d 87d0 bdbd
00000240: 3ac8 51bb 03b5 1c3d c53f ad3d ee32 e83d
00000250: 7912 f83d 2acc a6bd 46ea eb3c 0f85 15bd
00000260: e2f6 e63b 9d59 b2bd e2a7 cd3d f7b8 4abb
00000270: de1b 9a3d 0584 563d 0915 6d3d fe76 8abd
00000280: 14c3 153e 8937 373d 3187 db3c a50c e7bd
00000290: ca94 763d 82e2 663c eacd 633d aba4 f03d
000002a0: fa39 f63c 83a1 74bd b764 8abd 400d 4e3c
000002b0: 4901 cd3d d053 90bc 2088 90bd aef1 04bd
000002c0: 32ce acbd 1066 543d 7a07 d63d b044 ccbd
000002d0: c78c 363d 1c11 7f3d c475 803c e32b a2bc
000002e0: fc1f c23d 228f 383d 695b 693d 8654 23bd
000002f0: 9bb7 93bc d51e 113d 4f7b 5cbb 23b7 3ebd
00000300: 281f 703d 0bdd da3d 20bf 4abc 3845 e5bc
00000310: 02e0 653b de37 cebc 71ab 053d 7c58 043d
00000320: e81f 00be 8f84 52bd e58a bc3d 12e2 573d
00000330: 8624 a3bc 3f50 bebd 7711 80bd 6c78 fcbd
00000340: 23a7 3bbd 0f9b 323d b4d0 923d 406d 3a3d
00000350: 9bb3 d9bd 1b7e 93bd 590f 35bc 372b 103e
00000360: eb1d 183d 7778 71bd b566 863d da93 dcbc
00000370: 13ac 76bd a49e cc3d 3843 6cbd cecf aebc
00000380: bee6 ecbd 98fa d23d 2169 c83d 9d15 843d
00000390: a7e6 d9bd ee0b 52bd 54be cabd 7ebe b83d
000003a0: ac58 6a3d 6b22 d53d 0be0 873d 6652 363c
000003b0: 1157 193a 3f63 c2bd 2a63 edbd b3eb ecbd
000003c0: 2f3a 423d 86f9 8abd ffd5 30bd b942 a5bd
000003d0: f467 8f3b 570f 88bd 6e58 aebd f7e9 293d
000003e0: a949 b1bc e51e 9b3d a5be cdbc 92a1 c4bd
000003f0: 58fc debc 0773 7bbd 6837 01bd ed10 dfbd

lstm.weight_hh_l0 f4 [256, 64]
-0.08461007 -0.072556555 0.06504588 0.024615563 -0.07491283 0.12704965 -0.017443225 0.10287684
0.13110308 0.004576674 -0.12721434 0.046867974 -0.006879815 -0.07341497 -0.036439203 -0.07957086
0.029789254 0.07859175 0.043372758 0.039052315 -0.031846542 0.0011055227 0.1331326 -0.07883571
-0.12127107 0.106150486 0.08487191 -0.031769022 0.06423087 -0.049899355 -0.023457684 0.006692596
-0.053389255 0.0022547 -0.06418624 -0.091520354 0.081999175 -0.080379896 -0.13811944 0.0345724
0.06447339 0.05839801 -0.08642154 0.08031592 -0.02979613 -0.014663412 0.054543678 0.054718908
-0.020801507 0.06328574 -0.0404567 -0.03081142 0.062461082 -0.047391698 0.008716589 0.11670395
0.108080596 0.022060301 0.08500258 -0.019590786 -0.038880907 0.10541646 0.096245304 0.075381644
-0.043340154 0.0476267 0.1147696 0.022437459 0.08751564 -0.091913804 0.044497237 -0.013462807
0.09809709 0.059229694 0.125814 -0.057955034 0.028156599 0.057319604 -0.07407203 -0.032870274
-0.11988053 -0.102789916 0.043114025 -0.028487459 0.10165463 0.018726664 0.037016634 0.0024297968
-0.10053982 -0.000114072594 -0.07445462 -0.055247698 0.107151404 -0.0765345 -0.07895821 -0.029126637
-0.041177057 0.04638208 0.08230826 0.0059277415 0.012072168 0.044619445 0.089095205 0.020631718
-0.113348976 -0.09090826 0.11199798 0.060812823 0.13455324 -0.066759974 0.041485403 -0.048767976
-0.08389892 -0.06811167 0.117650226 0.108701125 -0.063876376 -0.09186431 0.03945667 -0.04187408
0.0055222916 0.008663562 -0.108383045 0.03483614 -0.004116908 -0.081789546 -0.103577904 0.074640915
-0.12251992 -0.061198488 0.073271245 -0.08099522 -0.054973215 -0.07197832 0.07787129 0.031925905
0.01926217 0.038155433 0.023213701 -0.021422943 -0.016653497 -0.091577224 -0.034675337 0.016763167
-0.006220755 0.037383057 0.0727777 0.08213098 0.1450483 0.012957338 0.05432179 -0.09225036
0.075026155 -0.045245387 -0.09741872 -0.08678825 -0.08611219 -0.06567682 0.059060995 -0.107860684
-0.020767987 -0.02227702 0.034277316 -0.04844211 0.082409136 -0.07400683 0.068820916 -0.1295398
-0.10383797 0.05890596 0.015973557 0.08476181 0.08400241 -0.09897762 0.09460691 -0.02691371
-0.02329185 -0.062549025 -0.012097691 -0.11451672 -0.0023823052 0.073188394 -0.042106062 0.09520686
-0.058161624 0.05439992 0.0053623435 -0.038185976 0.11846688 0.011515511 0.015810853 -0.014992427
-0.008402635 0.09797566 -0.021835925 0.064549446 0.0476794 0.07070646 -0.103062645 -0.1077707
-0.040885277 -0.03636535 0.11787535 0.121210925 -0.034704883 -0.014420752 0.0034757443 0.034830872
0.03792301 0.020468457 0.07911171 0.02778225 0.064987555 0.04570638 -0.016044516 0.10397049
0.0051997746 0.011105631 -0.03392851 0.052316155 -0.04554888 0.08928468 0.078344904 0.0036642991
-0.012241075 0.04915806 -0.11132621 -0.051758718 -0.08644658 -0.02015939 -0.061311487 -0.046952736
0.06325926 -0.027098613 -0.088401586 0.001433992 0.023078144 -0.061439827 0.097673096 -0.09233779
0.1208818 0.051724054 -0.04921448 -0.12240345 0.061716955 -0.028270183 0.047327533 0.054379597
-0.06933687 0.03769742 -0.028472869 -0.10900453 -0.006406988 0.045681376 -0.10190624 0.108776204
00000000: 0b48 adbd 8898 94bd c636 853d 94a6 c93c
00000010: e66b 99bd 4e19 023e 18e5 8ebc 18b1 d23d
00000020: e33f 063e edf7 953b 7a44 02be a2f8 3f3d
00000030: 1270 e1bb 965a 96bd 4641 15bd 0cf6 a2bd
00000040: 9808 f43c b6f4 a03d a2a7 313d 52f5 1f3d
00000050: 8571 02bd 30e7 903a ea53 083e 9e74 a1bd
00000060: f75c f8bd 6d65 d93d 53d1 ad3d 3c20 02bd
00000070: 798b 833d 4463 4cbd 542a c0bc 904d db3b
00000080: b1ae 5abd 97c3 133b 1374 83bd 066f bbbd
00000090: 2fef a73d 379e a4bd 2f6f 0dbe ca9b 0d3d
000000a0: a00a 843d c032 6f3d c7fd b0bd ac7c a43d
000000b0: 0317 f4bc cf3e 70bc 3169 5f3d ef20 603d
000000c0: ec67 aabc f49b 813d edb5 25bd 3b68 fcbc
000000d0: 31d7 7f3d cc1d 42bd 06d0 0e3c 7b02 ef3d
000000e0: 5c59 dd3d ceb7 b43c d515 ae3d db7c a0bc
000000f0: 9641 1fbd 96e4 d73d 421c c53d b161 9a3d
00000100: 7285 31bd 3714 433d 530c eb3d c3ce b73c
00000110: 663b b33d 4e3d bcbd bc42 363d 1b93 5cbc
00000120: 21e7 c83d d69a 723d 63d5 003e 4262 6dbd
00000130: aba8 e63c f6c7 6a3d 14b3 97bd fba2 06bd
00000140: ec83 f5bd 8583 d2bd 5598 303d 885e e9bc
00000150: 4d30 d03d a968 993c c19e 173d 3a3d 1f3b
00000160: d2e7 cdbd 423a efb8 aa7b 98bd 694b 62bd
00000170: 3272 db3d 1fbe 9cbd d8b4 a1bd fc9a eebc
00000180: 46a9 28bd 23fb 3d3d 3c91 a83d 803d c23b
00000190: 58ca 453c e1c2 363d 8c77 b63d d903 a93c
000001a0: 8223 e8bd 1c2e babd 325f e53d de16 793d
000001b0: 53c8 093e 74b9 88bd 99ec 293d eec0 47bd
000001c0: 32d3 abbd 227e 8bbd 9af2 f03d b29e de3d
000001d0: 9ed1 82bd 5b23 bcbd 519d 213d 2884 2bbd
000001e0: 57f4 b43b 9df1 0d3c eef7 ddbd 57b0 0e3d
000001f0: 21e7 86bb 4781 a7bd a720 d4bd 56dd 983d
00000200: b9eb fabd 44ab 7abd 3c0f 963d d2e0 a5bd
00000210: 982b 61bd 5f69 93bd fc7a 9f3d bdc4 023d
00000220: b3cb 9d3c df48 1c3d a92a be3c 2b7f afbc
00000230: ea6c 88bc d78c bbbd ba07 0ebd e952 893c
00000240: 7ad7 cbbb fa1e 193d 7a0c 953d 4a34 a83d
00000250: 8b87 143e 044b 543c 8680 5e3d c2ed bcbd
00000260: 50a7 993d 3a53 39bd 7783 c7bd 0abe b1bd
00000270: 965b b0bd 9281 86bd f1e9 713d 10e6 dcbd
00000280: a021 aabc 4c7e b6bc 5f66 0c3d 3c6b 46bd
00000290: 1fc6 a83d e590 97bd fbf1 8c3d 15a6 04be
000002a0: 00a9 d4bd 6047 713d fada 823c 9a97 ad3d
000002b0: 7509 ac3d c7b4 cabd 45c1 c13d 247a dcbc
000002c0: 8dce bebc b419 80bd 6535 46bc be87 eabd
000002d0: 7320 1cbb cce3 953d 6877 2cbd d0fb c23d
000002e0: e23a 6ebd 73d2 5e3d 99b6 af3b e668 1cbd
000002f0: c39e f23d 8eab 3c3c c385 813c cca2 75bc
00000300: 35ab 09bc 76a7 c83d 41e1 b2bc 8032 843d
00000310: 794b 433d 8cce 903d 8212 d3bd e2b6 dcbd
00000320: 5277 27bd d5f3 14bd a268 f13d 6f3d f83d
00000330: b526 0ebd 0545 6cbc 50c9 633b d1aa 0e3d
00000340: 2855 1b3d 77ad a73c 5205 a23d 9a97 e33c
00000350: 3218 853d 9d36 3b3d ca6f 83bc 7bee d43d
00000360: df62 aa3b 64f4 353c 9ff8 0abd 7749 563d
00000370: 7691 3abd e3da b63d 4b73 a03d bd24 703b
00000380: ca8e 48bc f659 493d fffe e3bd f300 54bd
00000390: e80a b1bd 4e25 a5bc c121 7bbd 8351 40bd
000003a0: 128e 813d e9fd ddbc e40b b5bd c9f4 bb3a
000003b0: 600e bd3c 54a8 7bbd d508 c83d 981b bdbd
000003c0: e190 f73d 9adc 533d 1f95 49bd a9ae fabd
000003d0: ebca 7c3d df96 e7bc 84da 413d 24bd 5e3d
000003e0: 7d00 8ebd 9c68 1a3d ef3f e9bc c43d dfbd
000003f0: b6f1 d1bb 651c 3b3d 38b4 d0bd 0fc6 de3d

lstm.bias_ih_l0 f4 [256]
0.025973372 -0.110602655 -0.019544667 0.0426208 -0.07736414 0.03838858 -0.07624565 0.02296404
-0.006225223 -0.08175496 0.0044480357 -0.06936289 -0.027990386 0.030668799 0.0032296043 -0.021194119
0.12132393 0.096625514 -0.04892623 0.05203932 0.063922755 0.05175316 0.008635432 -0.04363271
0.013850967 -0.07539998 -0.03395818 -0.049675684 0.03824007 0.049755283 -0.118506566 -0.09890325
0.006241701 0.043602888 -0.13103057 0.0051950198 -0.034891475 -0.107664526 0.11666664 -0.1021291
-0.031342037 0.101005554 -0.083851665 -0.030543828 -0.07289878 -0.049996637 0.03347919 0.05264195
0.076973855 -0.05414103 0.043964457 -0.098429725 0.1081537 -0.08524484 0.073026076 -0.09462914
-0.06366322 -0.12994555 0.014801361 0.046184015 -0.09584514 0.02754564 -0.036556534 0.013551418
-0.0751732 -0.10436011 -0.01502091 0.037868083 -0.13167593 -0.10719189 -0.08520732 -0.011946045
-0.08227693 -0.0648676 -0.056327626 -0.1009614 -0.07841862 -0.045839477 -0.028987998 0.10690511
8.876962e-05 0.09626455 0.022804953 0.084421955 0.054536276 0.017378852 0.11025759 -0.06384133
-0.048267398 0.020063754 0.006122394 -0.04153257 0.061026506 -0.118284345 0.09377761 0.02260379
-0.009849379 0.11378712 -0.05538752 -0.1321202 -0.06347231 0.09317035 -0.066127405 0.0069340146
-0.055672698 0.05325859 -0.056463644 0.094748184 0.10409642 0.00060127175 -0.08859356 0.0047890227
-0.044738412 -0.10995309 -0.03589073 -0.034400128 0.031480517 -0.018651979 0.044114757 -0.030843616
-0.13353047 -0.014038147 0.015652435 0.09084744 -0.115033336 -0.06987962 -0.09940099 -0.043401137
-0.069907606 0.096182406 -0.08931759 -0.08927008 -0.015652826 0.012797042 0.11739974 0.032404494
0.11087482 0.03895425 -0.11307303 0.02389644 0.019733705 -0.031422004 0.032870658 -0.070433594
0.12237395 -0.085821845 0.11395332 0.09100474 0.07364999 -0.024574418 -0.11962635 0.09617612
-0.093017444 -0.09806637 -0.0062836716 -0.090830006 0.0118940845 0.09295857 -0.034417335 -0.030593682
-0.07555199 0.033591893 0.027098943 0.10318663 -0.11683208 0.033389285 -0.074276015 0.07176754
-0.025334405 0.10894353 -0.028957188 -0.116761304 -0.0125065455 0.10420808 -0.06332676 0.015943315
-0.038057398 -0.05376729 0.057909142 -0.035168663 -0.09100286 0.11906098 -0.09353305 -0.018789914
0.12436302 -0.0048514307 0.055449285 0.10239059 -0.0045133056 0.0007541566 -0.025880525 0.048791695
-0.0046031666 0.10320846 0.008884479 -0.10472297 0.10298801 0.018754635 0.05219951 0.015949275
0.099112816 -0.077832595 -0.0018522204 -0.12934878 -0.031157102 -0.11351705 0.13494222 -0.110155396
0.018640565 -0.0710575 0.06799221 0.038072743 0.028271392 0.11566515 0.0983847 0.12387358
-0.052901957 -0.05574575 0.098486125 0.063911736 0.008383313 -0.05579704 -0.107881434 0.069743805
0.02234894 0.10988298 -0.0087227775 0.092650525 0.047069985 0.008985734 0.03596165 0.07472031
0.10637848 0.09620331 0.007594032 0.08147615 0.029486842 0.10232497 0.06809994 -0.030331792
0.057610925 -0.02400488 -0.03840698 -0.06328668 0.012198752 0.101482466 0.11948433 0.081429385
0.054080475 -0.07691974 0.011425327 0.09642509 0.06329678 -0.10836433 -0.09204955 0.10869567
00000000: 1cc6 d43c a583 e2bd 231c a0bc 2693 2e3d
00000010: 1771 9ebd 583d 1d3d ae26 9cbd 151f bc3c
00000020: f5fc cbbb 256f a7bd d4c0 913b 220e 8ebd
00000030: 184c e5bc 223d fb3c c5a7 533b 4a9f adbc
00000040: ae78 f83d 99e3 c53d df66 48bd 2f27 553d
00000050: efe9 823d 1ffb 533d a17b 0d3c 36b8 32bd
00000060: 2bef 623c 4e6b 9abd bc17 0bbd bb78 4bbd
00000070: 9fa1 1c3d 32cc 4b3d 92b3 f2bd ca8d cabd
00000080: 2f87 cc3b f198 323d e12c 06be fc3a aa3b
00000090: 5dea 0ebd 387f dcbd ebee ee3d 1029 d1bd
000000a0: 8260 00bd 00dc ce3d 6cba abbd 0d37 fabc
000000b0: f54b 95bd 46c9 4cbd 7a21 093d 169f 573d
000000c0: 78a4 9d3d fcc2 5dbd 1314 343d 8695 c9bd
000000d0: b07f dd3d d994 aebd b28e 953d eccc c1bd
000000e0: dd61 82bd 7210 05be 6881 723c 732b 3d3d
000000f0: 754a c4bd 65a7 e13c 4ebc 15bd c406 5e3c
00000100: 68f4 99bd c1ba d5bd 431a 76bc 901b 1b3d
00000110: 0ed6 06be 6c87 dbbd 2d81 aebd 58b9 43bc
00000120: cf80 a8bd 4ed9 84bd ccb7 66bd dac4 cebd
00000130: f199 a0bd 2dc2 3bbd 3d78 edbc 11f1 da3d
00000140: d429 ba38 5926 c53d 74d1 ba3c 6be5 ac3d
00000150: 6e61 5f3d 185e 8e3c bbce e13d 3ebf 82bd
00000160: 09b4 45bd be5c a43c 5d9e c83b 0e1e 2abd
00000170: eef6 793d 103f f2bd 7a0e c03d 952b b93c
00000180: 4a5f 21bc 3909 e93d 06de 62bd 854a 07be
00000190: c5fd 81bd 19d0 be3d ce6d 87bd bb36 e33b
000001a0: 0e09 64bd ae25 5a3d 6c46 67bd 560b c23d
000001b0: 8130 d53d aa9e 1d3a 8a70 b5bd 3ced 9c3b
000001c0: a03f 37bd 162f e1bd 2802 13bd 26e7 0cbd
000001d0: b7f1 003d 09cc 98bc adb1 343d c0ab fcbc
000001e0: 36bc 08be 4200 66bc 8939 803c 390e ba3d
000001f0: 9996 ebbd 0c1d 8fbd bf92 cbbd 64c5 31bd
00000200: b82b 8fbd 48fb c43d 24ec b6bd 3bd3 b6bd
00000210: 5b3a 80bc afaa 513c 466f f03d 93ba 043d
00000220: 5612 e33d 7e8e 1f3d d592 e7bd 78c2 c33c
00000230: 94a8 a13c 5cb4 00bd 62a3 063d 7d3f 90bd
00000240: 329f fa3d 5dc3 afbd 5c60 e93d b160 ba3d
00000250: ced5 963d 4a50 c9bc a9fe f4bd fcf7 c43d
00000260: ee7f bebd 05d7 c8bd 42e7 cdbb 1505 babd
00000270: 68df 423c 1061 be3d 31f9 0cbd 9a9f fabc
00000280: 00bb 9abd a797 093d 9afe dd3c 8353 d33d
00000290: a845 efbd 34c3 083d 061e 98bd dcfa 923d
000002a0: 198a cfbc c91d df3d a037 edbc 8d20 efbd
000002b0: 41e8 4cbc 0c6b d53d 76b1 81bd 8e9b 823c
000002c0: 13e2 1bbd 173b 5cbd 2332 6d3d 040d 10bd
000002d0: b55f babd 3ed6 f33d 418e bfbd 4eed 99bc
000002e0: 0ab2 fe3d c0f8 9ebb ca1e 633d 28b2 d13d
000002f0: 5ae4 93bb 98b2 453a 6503 d4bc cdd9 473d
00000300: 29d6 96bb f55e d33d 3590 113c ff78 d6bd
00000310: 61eb d23d 52a3 993c 27cf 553d 0ea8 823c
00000320: a9fb ca3d b266 9fbd 34c6 f2ba 0274 04be
00000330: 2e3d ffbc a17b e8bd 4b2e 0a3e 2799 e1bd
00000340: 19b4 983c 9886 91bd 803f 8b3d 2af2 1b3d
00000350: 6899 e73c dae1 ec3d eb7d c93d 6eb1 fd3d
00000360: b9af 58bd a855 64bd 18b3 c93d 28e4 823d
00000370: 2a5a 093c 708b 64bd f1f0 dcbd d7d5 8e3d
00000380: 2015 b73c 540a e13d fbe9 0ebc 8fbf bd3d
00000390: 75cc 403d e638 133c 864c 133d f606 993d
000003a0: f6dc d93d 3e06 c53d 5cd7 f83b f8dc a63d
000003b0: 648e f13c c18f d13d fb77 8b3d 617a f8bc
000003c0: 6ff9 6b3d e2a5 c4bc a350 1dbd 729c 81bd
000003d0: 46dd 473c 0ad6 cf3d 33b4 f43d 73c4 a63d
000003e0: 7d83 5d3d 1988 9dbd 4b31 3b3c 857a c53d
000003f0: bea1 813d 1eee ddbd 7984 bcbd d69b de3d

lstm.bias_hh_l0 f4 [256]
0.018506352 -0.12222484 0.03810723 0.037740316 -0.013834686 0.056983355 -0.085288614 0.0342516
-0.02444612 0.003963986 0.02521327 0.10942202 -0.04252019 -0.10497979 -0.055081647 -0.055223513
0.12404111 0.03723752 -0.06385395 0.052151766 0.07744954 0.029272148 0.0022610975 -0.07531754
0.007207851 -0.10962269 -0.0501297 0.030145042 0.03273878 -0.09140724 -0.02443037 0.07364457
0.12287311 -0.009515874 0.04028669 0.0029704387 -0.04002953 0.012927819 -0.072349794 -0.027639704
-0.06982828 -0.086533874 -0.044263355 0.00933847 -0.096278824 -0.02690049 -0.10472474 -0.10846328
-0.0797785 -0.1004281 0.003606776 0.07557087 0.019817907 -0.11379941 0.11956457 -0.08202794
-0.06383548 0.014955825 -0.043617282 -0.0026456749 -0.04304901 -0.023240475 -0.12524247 -0.009222876
0.024269741 0.06466477 0.0033328314 0.06258877 -0.006668245 0.03609763 -0.036469083 0.02403847
0.009193717 -0.0921003 0.12515964 0.06921911 0.056182977 -0.094432816 0.12196718 0.124094404
-0.00045403952 -0.023203166 0.11602509 -0.07728405 0.12904242 -0.0070415204 -0.064219125 0.0144099435
0.022632416 0.010374939 0.076672256 -0.09444336 -0.01741527 -0.013199534 -0.10678118 -0.10484411
-0.037094455 -0.04195482 0.0012940224 -0.063412845 0.14045428 0.037295338 -0.060554843 -0.04536972
-0.12713037 0.030409882 -0.0667328 0.084868155 0.06100367 -0.05123534 0.021259762 -0.03334117
-0.08993028 -0.10408102 -0.071867526 0.10476902 -0.078983404 0.05339236 -0.027775055 0.030427532
0.079700254 0.065660395 -0.124049 -0.0011131642 0.028271625 -0.00023576259 -0.016928898 0.11267037
-0.10996803 0.009087054 0.02802535 0.100811765 0.060978804 -0.0627621 -0.0053906585 -0.087523215
0.012723751 0.0200901 0.11000017 0.101796366 -0.08846125 0.11694502 -0.116787866 0.035653517
0.07130652 0.066452734 0.08683467 -0.034200277 0.09123506 0.022710236 -0.006630191 -0.032895744
-0.10036558 -0.03277775 -0.0027490144 0.018300382 -0.031218283 -0.012913173 -0.0022998496 -0.06425014
-0.017880943 -0.11487366 0.012675489 0.117133036 -0.054037705 0.07318516 -0.034079295 -0.052015204
0.067833796 -0.12425162 0.09184757 0.08808556 0.045846384 -0.016904078 -0.0535892 -0.08319676
0.118589856 0.058093 0.07262252 -0.07139972 0.07048576 -0.072531156 0.09956717 0.09818682
-0.111468166 -0.10774173 -0.10033549 -0.054990716 0.0329555 -0.08815781 0.10237301 -0.07873496
-0.027883355 0.01756003 -0.063307226 -0.009993171 -0.10690827 -0.1222887 0.022271082 -0.0366918
0.1016466 -0.05952806 0.097279996 0.08018092 -0.046407323 -0.0122785345 0.06608848 -0.07465072
0.06050408 -0.038336154 -0.009251422 -0.06704131 0.12043172 -0.07072633 -0.026970917 0.05770821
-0.09224158 0.010886253 0.11535419 0.044873115 0.08042273 -0.086601265 0.05335526 0.0025724203
0.014551896 -0.04852165 -0.04086154 0.07352231 0.11062753 -0.09558024 0.11499411 0.095612876
-0.014497886 -7.9686695e-05 0.055852063 -0.104119696 0.050419908 0.124294996 -0.016521223 -0.11775289
-0.04396764 0.064118356 0.000516771 -0.014108708 0.034705695 0.048600405 0.08552168 0.006430523
-0.12936409 0.0645968 0.07349063 -0.007401412 -0.077525355 -0.044990074 0.049062856 0.08214413
00000000: a29a 973c 0451 fabd 5416 1c3d 9795 1a3d
00000010: e1aa 62bc 6167 693d ccab aebd 684b 0c3d
00000020: 3b43 c8bc 53e4 813b 0f8c ce3c a718 e03d
00000030: a729 2ebd a5ff d6bd 4b9d 61bd 0d32 62bd
00000040: 4409 fe3d 5f86 183d dcc5 82bd 179d 553d
00000050: dd9d 9e3d 25cc ef3c ec2e 143b 1540 9abd
00000060: d62f ec3b dc81 e0bd cd54 4dbd bcf2 f63c
00000070: 1919 063d b833 bbbd 3322 c8bc f7d2 963d
00000080: e6a4 fb3d 78e8 1bbc a803 253d b1ab 423b
00000090: 01f6 23bd 34cf 533c 212c 94bd a96c e2bc
000000a0: 2102 8fbd ac38 b1bd 7e4d 35bd 6200 193c
000000b0: d52d c5bd 6b5e dcbc ed79 d6bd ff21 debd
000000c0: e962 a3bd 3fad cdbd a95f 6c3b e6c4 9a3d
000000d0: 2a59 a23c aa0f e9bd 45de f43d 44fe a7bd
000000e0: 2dbc 82bd 4709 753c 09a8 32bd 0f63 2dbb
000000f0: 2954 30bd cf62 bebc 903f 00be 8c1b 17bc
00000100: 56d1 c63c f76e 843d a26b 5a3b 8b2e 803d
00000110: 4b81 dabb 1cdb 133d 9b60 15bd 53ec c43c
00000120: 3ea1 163c 159f bcbd d929 003e c0c2 8d3d
00000130: 1f20 663d fe65 c1bd eec9 f93d 3525 fe3d
00000140: 270c eeb9 9114 bebc 909e ed3d 1a47 9ebd
00000150: b223 043e 8ebc e6bb 5185 83bd af17 6c3c
00000160: 9e67 b93c a6fb 293c 5806 9d3d 856b c1bd
00000170: 78aa 8ebc dc42 58bc 17b0 dabd 82b8 d6bd
00000180: 5bf0 17bd d1d8 2bbd 309c a93a 98de 81bd
00000190: 3fd3 0f3e ffc2 183d 5b08 78bd 99d5 39bd
000001a0: 772e 02be 251e f93c 35ab 88bd 5bcf ad3d
000001b0: fcde 793d 26dc 51bd f428 ae3c c090 08bd
000001c0: 5e2d b8bd 6e28 d5bd 482f 93bd 2491 d63d
000001d0: 0dc2 a1bd f3b1 5a3d 8388 e3bc 2943 f93c
000001e0: e339 a33d f578 863d 670d febd 98e7 91ba
000001f0: e599 e73c 0a37 77b9 79ae 8abc b9bf e63d
00000200: eb36 e1bd dee1 143c 6b95 e53c 6676 ce3d
00000210: e9c4 793d 6a89 80bd 1fa4 b0bb 5f3f b3bd
00000220: 4877 503c fe93 a43c c547 e13d 9d7a d03d
00000230: 2c2b b5bd df80 ef3d 7a2e efbd 6c09 123d
00000240: 2709 923d 5f18 883d 60d6 b13d 9715 0cbd
00000250: 72d9 ba3d d10a ba3c 1342 d9bb b0bd 06bd
00000260: 788c cdbd f641 06bd cf28 34bb afea 953c
00000270: 7cbd ffbc c691 53bc 13b9 16bb 9495 83bd
00000280: 0e7b 92bc e242 ebbd dbac 4f3c 72e3 ef3d
00000290: a456 5dbd 1ae2 953d bb96 0bbd e50d 55bd
000002a0: 72ec 8a3d a277 febd 941a bc3d 3466 b43d
000002b0: 6bc9 3b3d 6c7a 8abc 5980 5bbd 1063 aabd
000002c0: 3ddf f23d edf2 6d3d 1ebb 943d 043a 92bd
000002d0: d75a 903d 378b 94bd dfe9 cb3d 2c16 c93d
000002e0: 6c49 e4bd b2a7 dcbd b27c cdbd f23d 61bd
000002f0: 59fc 063d 158c b4bd f1a8 d13d cb3f a1bd
00000300: a26b e4bc 0dda 8f3c 38a7 81bd 66ba 23bc
00000310: b9f2 dabd 7f72 fabd d871 b63c 244a 16bd
00000320: 182c d03d b2d3 73bd bc3a c73d e535 a43d
00000330: 9b15 3ebd e82b 49bc 6659 873d 7ae2 98bd
00000340: 20d3 773d 5f06 1dbd 4793 17bc f44c 89bd
00000350: e8a4 f63d f7d8 90bd 1df2 dcbc 725f 6c3d
00000360: 27e9 bcbd 415c 323c d13e ec3d dfcc 373d
00000370: acb4 a43d 015c b1bd 0c8b 5a3d 0d96 283b
00000380: 136b 6e3c a3be 46bd 6e5e 27bd dd92 963d
00000390: b090 e23d 93bf c3bd 0882 eb3d afd0 c33d
000003a0: 8b88 6dbc 781d a7b8 22c5 643d b53c d5bd
000003b0: 1b85 4e3d 608e fe3d 8457 87bc 6d28 f1bd
000003c0: 6917 34bd 7c50 833d ea77 073a 3628 67bc
000003d0: 8f27 0e3d 3811 473d fe25 af3d 23b7 d23b
000003e0: 0578 04be 544b 843d 4182 963d 8b87 f2bb
000003f0: 9dc5 9ebd 8347 38bd 22f6 483d 2e3b a83d

lstm.weight_ih_l1 f4 [256, 64]
-0.121763125 0.022842115 0.008725666 0.0512883 -0.043491613 -0.011991646 -0.104728505 -0.023756823
-0.09639926 0.09061974 0.036617003 0.05786754 -0.06352172 -0.03554179 0.0276314 -0.009509614
0.032362618 0.027094845 0.014013633 -0.12138098 0.108793415 -0.009398472 0.023869945 -0.07809698
0.10293217 -0.065706596 0.06718204 0.04043887 -0.004231777 0.011491183 -0.09186921 -0.12250038
0.062337443 0.07103637 -0.11003106 -0.034913663 -0.14125554 -0.10214707 0.009437634 -0.009565539
0.118649125 0.09176385 -0.06503616 0.08787081 0.06567602 0.086111605 -0.043221943 -0.0038879644
-0.032224353 -0.04366298 0.13968661 0.095354274 -0.14790833 0.045082342 -0.032082554 -0.0945043
0.047351718 0.01683585 -0.038194064 0.124994285 -0.0746924 0.07942114 0.08329476 -0.06748827
0.06256042 -0.07078258 -0.04429109 0.09005314 0.10644369 -0.08683663 0.13159499 -0.123639524
0.053991336 -0.100685515 -0.050391376 -0.1130636 0.10747011 -0.08000262 -0.10564588 -0.039938934
0.10403811 0.041410156 0.0535392 0.09099967 -0.03593848 0.101796195 -0.12608764 -0.10839336
0.06776664 -0.088843405 0.0028066416 0.014309313 0.076020285 0.091955185 0.045246128 -0.00916477
-0.09856054 -0.06354581 -0.03580134 0.043004926 -0.08713558 -0.034466777 0.005505166 0.02611491
-0.06452451 0.07723488 0.023363441 0.0885197 -0.07584002 -0.027099403 0.034411598 0.06409435
-0.08897557 -0.048643894 0.0050437963 -0.078582816 -0.11790906 0.034164272 0.054118697 -0.12901181
-0.044925343 -0.12711221 0.03238654 0.05356176 -0.12728529 0.03870014 -0.05859701 -0.023281185
-0.1139141 -0.015628878 0.059267156 -0.06812483 -0.060593776 -0.096853174 -0.052254826 0.08770718
0.093875624 -0.06871182 0.10030307 0.057103686 0.039003875 -0.066841125 -0.016458975 0.13442093
0.128189 0.07063395 -0.03629809 -0.04763763 0.019511627 0.104973964 -0.037717994 -0.0662077
-0.1031473 -0.11030034 -0.05152415 0.04802039 -0.06295541 0.026420979 -0.08178545 -0.014479021
-0.082457684 -0.065424375 0.079775296 0.03734804 0.059891503 0.030121269 -0.0070315185 0.12389142
-0.05510046 0.043403916 0.009813967 -0.026941562 -0.07284407 -0.043666765 -0.088672094 0.08467097
-0.043299798 0.015415705 0.17801742 -0.008129692 -0.13407356 0.017461246 0.04200946 -0.060653113
-0.103708886 -0.10889327 -0.05041407 0.00789527 -0.1226892 -0.08940214 0.0071634883 -0.100803286
0.02376647 0.01561817 0.12536116 0.008984579 0.036533024 0.10284848 0.036069084 0.13557534
-0.039443318 0.14020382 -0.09243213 0.06459374 0.04510951 -0.012335919 0.11850333 0.065725185
-0.0058633722 -0.042699598 0.07534824 0.017313013 0.02350933 0.0047185984 -0.056714226 -0.082206674
0.08163295 0.039618295 0.014423612 -0.012341971 -0.06449997 0.021751849 -0.04964249 0.027900951
0.09141409 -0.095779 0.12418497 -0.0624822 0.11282754 0.08776982 0.08094847 0.11975638
-0.112079404 -0.11508876 -0.0028516892 -0.041672707 -0.058226667 -0.046326928 -0.075232685 0.0043937075
-0.08361704 0.021210995 0.016597074 -0.0762538 -0.02220978 -0.001758952 0.08385647 0.092055835
0.056422092 0.018028399 -0.008170562 0.13418345 -0.08029035 -0.0664939 0.036844425 -0.07009311
00000000: f25e f9bd 631f bb3c 19f6 0e3c ae13 523d
00000010: 4324 32bd 9c78 44bc e67b d6bd ab9d c2bc
00000020: fa6c c5bd d896 b93d b6fb 153d 8306 6d3d
00000030: ad17 82bd 4594 11bd 3f5b e23c 36ce 1bbc
00000040: aa8e 043d 02f6 dd3c 7099 653c 9796 f8bd
00000050: 15cf de3d 0cfc 19bc e78a c33c 4ff1 9fbd
00000060: 1ace d23d 2e91 86bd bd96 893d 3ba3 253d
00000070: b8aa 8abb 8445 3c3c ed25 bcbd 7be1 fabd
00000080: 8c55 7f3d 847b 913d f757 e1bd a101 0fbd
00000090: 4ba5 10be 7c32 d1bd 4ea0 1a3c c7b8 1cbc
000000a0: 50fe f23d afee bb3d ae31 85bd 9cf5 b33d
000000b0: 2681 863d 485b b03d 7e09 31bd 38cd 7ebb
000000c0: affd 03bd f4d7 32bd 020a 0f3e 1a49 c33d
000000d0: 4875 17be 43a8 383d ff68 03bd 788b c1bd
000000e0: e0f3 413d 56eb 893c 6171 1cbd 01fd ff3d
000000f0: 54f8 98bd 8da7 a23d 7196 aa3d 4a37 8abd
00000100: ad1f 803d 75f6 90bd 936a 35bd c86d b83d
00000110: 26ff d93d 67d7 b1bd d6c0 063e b836 fdbd
00000120: 0526 5d3d 3534 cebd 3067 4ebd e48d e7bd
00000130: 4a19 dc3d 6ad8 a3bd de5c d8bd 0297 23bd
00000140: ef11 d53d b29d 293d ec4b 5b3d 095e ba3d
00000150: 3a34 13bd 867a d03d 1e1d 01be 57fd ddbd
00000160: 3cc9 8a3d 88f3 b5bd a2ef 373b 9c71 6a3c
00000170: 86b0 9b3d 0053 bc3d 0154 393d d527 16bc
00000180: 1cda c9bd 4e24 82bd 6da4 12bd ef25 303d
00000190: 2474 b2bd 092d 0dbd ae64 b43b f0ee d53c
000001a0: 6d25 84bd 522d 9e3d b064 bf3c d149 b53d
000001b0: 0352 9bbd 91ff ddbc 2df3 0c3d e643 833d
000001c0: d338 b6bd d23e 47bd 6e46 a53b 07f0 a0bd
000001d0: 4e7a f1bd d6ef 0b3d 91ab 5d3d ac1b 04be
000001e0: a303 38bd b429 02be c0a7 043d 9363 5b3d
000001f0: 1357 02be 0a84 1e3d 6b03 70bd 2fb8 bebc
00000200: cc4b e9bd 2208 80bc 1ec2 723d 0885 8bbd
00000210: 2e31 78bd f55a c6bd 2809 56bd d29f b33d
00000220: dd41 c03d c8b8 8cbd b26b cd3d 8ee5 693d
00000230: 87c2 1f3d 00e4 88bd f9d4 86bc a4a5 093e
00000240: fa43 033e 88a8 903d 4ead 14bd ad1f 43bd
00000250: d9d6 9f3c 97fc d63d 2f7e 1abd e797 87bd
00000260: e43e d3bd 25e5 e1bd fd0a 53bd 07b1 443d
00000270: c4ee 80bd cf70 d83c 217f a7bd 6a39 6dbc
00000280: 93df a8bd 37fd 85bd 3b61 a33d 42fa 183d
00000290: cb50 753d e1c0 f63c a768 e6bb c9ba fd3d
000002a0: 05b1 61bd 4ec8 313d c3ca 203c 8db4 dcbc
000002b0: 462f 95bd ecdb 32bd b799 b5bd f967 ad3d
000002c0: 215b 31bd 2792 7c3c 334a 363e 6632 05bc
000002d0: 944a 09be e30a 8f3c 1d12 2c3d 666f 78bd
000002e0: 5365 d4bd 6f03 dfbd fc7e 4ebd 2a5b 013c
000002f0: 7a44 fbbd 7818 b7bd b2bb ea3b f471 cebd
00000300: e6b1 c23c 5ae3 7f3c ad5e 003e 0e34 133c
00000310: a7a3 153d 39a2 d23d 2dbd 133d 43d4 0a3e
00000320: 518f 21bd 9791 0f3e 0e4d bdbd b949 843d
00000330: c0c4 383d 981c 4abc e0b1 f23d ed9a 863d
00000340: 8821 c0bb c6e5 2ebd 2e50 9a3d 05d4 8d3c
00000350: a396 c03c 799e 9a3b 2d4d 68bd f95b a8bd
00000360: 2d2f a73d cb46 223d 0351 6c3c fa35 4abc
00000370: 8f18 84bd ef30 b23c ec55 4bbd 8990 e43c
00000380: 4f37 bb3d c827 c4bd b154 fe3d 56ed 7fbd
00000390: 2012 e73d aac0 b33d 50c8 a53d d542 f53d
000003a0: e389 e5bd a8b3 ebbd 68e3 3abb 00b1 2abd
000003b0: 167f 6ebd 4ec1 3dbd 9813 9abd 17f9 8f3b
000003c0: 693f abbd aec2 ad3c 96f6 873c f42a 9cbd
000003d0: 49f1 b5bc a38c e6ba f1bc ab3d c587 bc3d
000003e0: da1a 673d 4bb0 933c d2dd 05bc 6367 093e
000003f0: 446f a4bd f42d 88bd 2eea 163d fa8c 8fbd

lstm.weight_hh_l1 f4 [256, 64]
-0.010678807 0.044867862 0.12618454 -0.044732284 -0.11495689 0.0016806629 -0.03348548 -0.067568555
0.054769505 0.12294575 0.0931901 0.007855419 0.096647814 -0.038748067 -0.11621614 -0.06408512
-0.116641775 0.02439118 0.08548282 0.053641316 -0.02821303 0.053797606 -0.009276979 -0.1169263
0.120952114 0.032970563 -0.104116626 0.0016294501 0.11563119 0.0032833582 0.006205972 -0.048667256
-0.06335047 -0.053039603 0.011476069 -0.117169 -0.050255563 0.10449913 0.020779088 -0.021122832
0.02356369 -0.033573866 0.008223221 -0.10859426 0.12986541 -0.079899006 0.079057515 -0.09504437
0.016953537 -0.095300265 -0.0034530112 0.05556862 -0.13184611 -0.0764243 -0.07961621 -0.07857658
0.06918067 0.09791287 -0.08291781 0.0695072 0.007319446 -0.11248843 -0.099230774 0.0073830634
-0.022549253 -0.06820592 -0.012027487 -0.09109189 0.083011426 -0.08818301 0.047473934 -0.0455376
0.0405576 0.07395998 0.04545651 0.041518014 0.072112456 -0.08148365 0.045401417 0.10880119
0.06501729 -0.024986606 -0.086776555 0.10541868 -0.0111586675 -0.006881761 -0.060868856 0.11983556
-0.041022208 0.0013891382 0.038331006 -0.11319032 -0.052531026 0.053302366 0.0717313 -0.009474866
0.035073668 -0.0640499 -0.13293776 -0.06133807 -0.09914398 0.1179405 -0.0748763 0.052880127
-0.038218703 -0.05723504 0.02154077 0.03402738 0.050173108 0.08170678 -0.006503835 0.08371222
0.05539364 -0.05855065 -0.09263972 -0.122023724 0.085236005 0.09344757 0.096780226 -0.043654606
0.08131447 0.067753576 0.082981005 -0.08819696 0.045436885 -0.094979584 0.04967032 0.0012552844
-0.07305371 0.11562093 -0.09897812 -0.0018777128 0.030291349 -0.07244435 0.08051025 -0.004472395
-0.10577329 -0.045182645 0.03768724 0.062291607 -0.0354644 -0.03798564 0.0654805 -0.07985617
-0.046006422 0.0081088655 0.109376766 -0.09769936 -0.06268113 0.072248295 0.069101036 -0.10618855
-0.06484127 -0.05591449 0.06634859 0.10370906 0.007650701 -0.0055434345 -0.100175925 0.06477391
0.052769337 -0.06624791 0.0064826137 0.037977353 -0.049126092 -0.048756037 -0.06322845 -0.06565845
-0.11204714 -0.10286045 0.02244853 0.027594054 -0.029184816 0.005979983 0.10824837 0.05598813
-0.043863494 0.14109701 -0.027087707 0.037662927 -0.028613359 0.06376437 0.018075513 -0.004723391
0.07390373 0.059017334 0.0740088 0.1178133 -0.020227272 0.0745524 -0.10767294 0.02892309
-0.105867736 -0.022583792 -0.061761867 0.08469595 0.12127351 -0.09706379 0.121473186 0.09490981
-0.000101524114 0.014133353 0.021235108 -0.102084145 0.099947594 0.1351861 -0.019409556 0.06249763
0.05134472 0.06533692 0.10665217 0.055223156 -0.022008574 -0.050105914 -0.041632302 0.012109941
-0.008331789 -0.105183 0.1342559 0.058934636 -0.013363677 -0.07997695 -0.0014734789 -0.07008055
-0.049944256 -0.052805863 0.10796567 -0.015592906 0.050762076 0.045833915 0.023868542 0.114464276
-0.017308902 0.037337415 -0.067007706 -0.044052288 -0.13885893 0.006013589 -0.03580182 -0.06855731
-0.08801052 -0.00197146 0.052285485 -0.10024594 -0.006495003 0.09661633 -0.04446151 -0.052758742
-0.089805305 -0.04538844 0.09296455 -0.092863634 -0.0742365 -0.0636002 0.027364641 0.084623516
00000000: 2af6 2ebc 5dc7 373d 8536 013e 3339 37bd
00000010: 856e ebbd b049 dc3a 1228 09bd 6261 8abd
00000020: fd55 603d fbca fb3d 73da be3d 04b4 003c
00000030: 4aef c53d 4bb6 1ebd ba02 eebd 0f3f 83bd
00000040: e2e1 eebd 03d0 c73c 9e11 af3d ffb6 5b3d
00000050: 031f e7bc e15a 5c3d 78fe 17bc 0e77 efbd
00000060: beb5 f73d 240c 073d 193b d5bd 4693 d53a
00000070: 0cd0 ec3d 9c2d 573b 775b cb3b 5157 47bd
00000080: e4bd 81bd 0e40 59bd 1f06 3c3c 4df6 efbd
00000090: c7d8 4dbd a403 d63d e838 aa3c ca09 adbc
000000a0: a408 c13c c084 09bd b0ba 063c ab66 debd
000000b0: 70fb 043e 17a2 a3bd e8e8 a13d 9fa6 c2bd
000000c0: 25e2 8a3c c92c c3bd ea4b 62bb ec9b 633d
000000d0: ab02 07be 5884 9cbd d30d a3bd c2ec a0bd
000000e0: 98ae 8d3d 8b86 c83d d0d0 a9bd ca59 8e3d
000000f0: f7d7 ef3b 5660 e6bd 8139 cbbd a0ed f13b
00000100: 36b9 b8bc 8caf 8bbd f00e 45bc 638e babd
00000110: e501 aa3d 4b99 b4bd 0774 423d a285 3abd
00000120: ba1f 263d 5478 973d 9b30 3a3d cb0e 2a3d
00000130: b2af 933d e6e0 a6bd d6f6 393d 29d3 de3d
00000140: c927 853d b6b0 ccbc e8b7 b1bd c0e5 d73d
00000150: d8d2 36bc 6580 e1bb 9f51 79bd 596c f53d
00000160: e706 28bd be13 b63a f900 1d3d 54d0 e7bd
00000170: c62a 57bd 9553 5a3d dce7 923d 783c 1bbc
00000180: 68a9 0f3d 982c 83bd d620 08be a13d 7bbd
00000190: 000c cbbd ca8a f13d bf58 99bd d598 583d
000001a0: 378b 1cbd 4a6f 6abd 4576 b03c 4b60 0b3d
000001b0: 5182 4d3d e255 a73d 1f1e d5bb 5071 ab3d
000001c0: 71e4 623d ced2 6fbd e5b9 bdbd 93e7 f9bd
000001d0: 3790 ae3d 7161 bf3d b634 c63d 2ccf 32bd
000001e0: 3388 a63d 63c2 8a3d f2f1 a93d 9ca0 b4bd
000001f0: 071c 3a3d a884 c2bd 1b73 4b3d 5b88 a43a
00000200: 2f9d 95bd abca ec3d 0ab5 cabd 961d f6ba
00000210: 9025 f83c b45d 94bd 8fe2 a43d 2b8d 92bb
00000220: ab9f d8bd 7011 39bd ef5d 1a3d 7c25 7f3d
00000230: 1e43 11bd d596 1bbd a41a 863d a28b a3bd
00000240: 3b71 3cbd 0cdb 043c ed00 e03d 9a16 c8bd
00000250: f75e 80bd eaf6 933d d884 8d3d 6279 d9bd
00000260: 80cb 84bd 9806 65bd c5e1 873d 6a65 d43d
00000270: bbb2 fa3b b3a5 b5bb 0929 cdbd 2fa8 843d
00000280: a924 583d fcac 87bd 1b6c d43b 248e 1b3d
00000290: 7138 49bd 69b4 47bd eb7d 81bd f077 86bd
000002a0: f978 e5bd 80a8 d2bd fbe5 b73c ed0c e23c
000002b0: ff14 efbc bcf3 c33b 52b1 dd3d cf53 653d
000002c0: 35aa 33bd bc7b 103e 0ae7 ddbc 7144 1a3d
000002d0: 9066 eabc e596 823d 1913 943c adc6 9abb
000002e0: d75a 973d 29bc 713d ed91 973d 1948 f13d
000002f0: aab3 a5bc eeae 983d a183 dcbd 1ef0 ec3c
00000300: 2fd1 d8bd a501 b9bc 03fa 7cbd 1275 ad3d
00000310: 3f5e f83d 61c9 c6bd efc6 f83d 1360 c23d
00000320: 58e9 d4b8 948f 673c 40f5 ad3c 7e11 d1bd
00000330: 53b1 cc3d 3a6e 0a3e ca00 9fbc 84fd 7f3d
00000340: d74e 523d 5dcf 853d 746c da3d ad31 623d
00000350: 534b b4bc dc3b 4dbd a286 2abd c668 463c
00000360: 0e82 08bc 2f6a d7bd 617a 093e 7265 713d
00000370: 53f3 5abc f5ca a3bd bf21 c1ba 6486 8fbd
00000380: 5992 4cbd f64a 58bd 1b1d dd3d 6379 7fbc
00000390: e5eb 4f3d 58bc 3b3d f687 c33c 3f6c ea3d
000003a0: 66cb 8dbc 1eef 183d 563b 89bd 2c70 34bd
000003b0: 0931 0ebe a40d c53b eea4 12bd c667 8cbd
000003c0: dc3e b4bd 9c33 01bb 4e29 563d be4d cdbd
000003d0: 09d4 d4bb c8de c53d 461d 36bd 8d19 58bd
000003e0: d8eb b7bd 3be9 39bd 3364 be3d 4a2f bebd
000003f0: 4e09 98bd d240 82bd d02b e03c 184f ad3d

lstm.bias_ih_l1 f4 [256]
-0.0015090801 -0.032583933 -0.03310777 -0.12043552 -0.04759627 0.13913308 0.094167374 0.050171483
-0.08718892 0.060034882 -0.028853197 -0.059644386 0.044050906 -0.070901394 0.011677194 -0.032922357
-0.10330133 0.05909446 0.024903312 0.079041846 -0.024126243 0.0026196397 -0.06433017 0.08761377
-0.073596366 0.03345234 0.11010398 -0.12910171 -0.07278419 0.065090895 -0.013525852 -0.059447248
-0.12774523 0.12241712 0.0667622 0.0074255588 0.051336262 0.0683675 0.11963501 -0.055427864
-0.06974746 -0.08893777 -0.10037008 0.06772407 -0.10213095 0.09080473 0.10268585 -0.117428735
0.09173259 0.09374756 -0.13197154 -0.03512646 0.076099 -0.047515515 -0.017762715 -0.038771015
0.06668319 -0.07740088 -0.04900663 -0.031673413 0.034080297 -0.071060315 -0.09933231 -0.050157767
0.02091543 0.03592346 -0.087457806 -0.15556855 -0.11208494 0.08759326 0.047985863 -0.04932141
-0.03649297 -0.09931004 -0.116228335 -0.013091329 -0.08885521 -0.023128731 -0.0830434 0.060049903
0.05476454 -0.010515542 0.006557792 0.03263924 0.057333373 0.02470502 -0.04130425 0.020962805
0.089541726 0.044542924 -0.12977466 0.0030310696 -0.12596817 0.08601472 0.051272187 -0.0642383
0.10675108 0.07815123 0.065710485 0.08542984 0.04957784 -0.06240748 -0.049872193 -0.11314958
0.056126654 0.049349025 0.014250577 -0.06649543 -0.07765258 -0.10573537 -0.019079292 -0.03733834
-0.11355576 0.061454177 0.0408752 0.055434708 -0.049274184 0.014186876 0.118837014 -0.031352915
0.011287633 0.058227666 -0.025782688 0.11603393 0.067536324 -0.013873649 -0.08008694 -0.0145013835
0.098608695 0.04913409 -0.09496255 -0.094399296 -0.11549121 0.010570185 -0.060960393 -0.04341273
-0.021049451 0.024870208 -0.038828347 0.081882976 -0.08896837 -0.07699918 -0.08462409 -0.10080808
0.0042085247 -0.10518784 -0.010895458 -0.097387575 -0.05247937 0.028831732 0.12183376 -0.037080523
-0.08368641 -0.08566406 -0.069989115 -0.045814656 -0.06294832 0.032815155 0.11461829 -0.05135844
0.012426151 0.12624103 -0.09640953 0.12187638 0.052301347 -0.09242394 0.065767944 0.008220604
0.020005029 -0.05931513 0.084844 -0.0054054474 0.10670155 0.030361004 -0.08948083 0.051386263
-0.019197183 -0.06809048 -0.0064665386 -0.09268894 0.018178059 0.06539221 0.031353995 0.11832548
0.009990058 -0.07646498 0.07039861 0.11892049 -0.089944 -0.0061995685 -0.1084523 0.03320775
0.027052857 -0.026510162 -0.070641 0.0987338 -0.012647046 -0.051447444 0.076471515 -0.07110717
-0.029263064 -0.050450627 -0.11771232 -0.008917093 0.034118336 -0.07399762 -0.09220803 0.107429855
-0.042121977 0.0732046 -0.014749156 -0.10720026 0.016872976 -0.12747715 -0.012016672 0.03485278
-0.010508134 -0.096593924 0.029242942 0.05242921 0.010211735 0.12059823 -0.11441537 0.08228905
-0.10921846 0.08488317 -0.032843746 -0.027317414 0.055932637 0.003644429 0.001407911 -0.059179436
0.0971247 0.070700884 -0.053150494 -0.104870625 0.10478116 -0.085606724 -0.068537414 -0.0071093705
-0.031833418 -0.04233111 -0.039305314 0.06360257 0.07845381 -0.05402758 -0.043964334 0.07083116
-0.09857201 0.108982064 -0.09018182 -0.008403293 0.028521905 -0.108448364 0.001272953 -0.034049753
00000000: 53cc c5ba bb76 05bd 039c 07bd e6a6 f6bd
00000010: 4ef4 42bd e778 0e3e d3da c03d 9d80 4d3d
00000020: 1b90 b2bd 23e7 753d 8a5d ecbc ac4d 74bd
00000030: b96e 343d c034 91bd b451 3f3c 98d9 06bd
00000040: a68f d3bd 080d 723d 0802 cc3c b1e0 a13d
00000050: 66a4 c5bc 43ae 2b3b 89bf 83bd d96e b33d
00000060: b1b9 96bd 5205 093d 327e e13d 3d33 04be
00000070: e10f 95bd 604e 853d 899b 5dbc f57e 73bd
00000080: a5cf 02be d4b5 fa3d 9fba 883d 1a52 f33b
00000090: f945 523d 4304 8c3d 3303 f53d 5408 63bd
000000a0: c2d7 8ebd 0125 b6bd d48e cdbd ebb2 8a3d
000000b0: 082a d1bd d5f7 b93d f54c d23d 7a7e f0bd
000000c0: 4cde bb3d b9fe bf3d 8c23 07be c3e0 0fbd
000000d0: cbd9 9b3d a19f 42bd 1d83 91bc 5bce 1ebd
000000e0: 3291 883d 5a84 9ebd 2dbb 48bd fbbb 01bd
000000f0: c897 0b3d 1288 91bd bd6e cbbd 3b72 4dbd
00000100: d656 ab3c 7a24 133d 141d b3bd 5d4d 1fbe
00000110: ca8c e5bd 1864 b33d d38c 443d 3f05 4abd
00000120: a779 15bd 1063 cbbd 1f09 eebd 037d 56bc
00000130: b8f9 b5bd 7778 bdbc a812 aabd e3f6 753d
00000140: c850 603d 6149 2cbc bfe2 d63b b9b0 053d
00000150: 66d6 6a3d 2f62 ca3c a52e 29bd 30ba ab3c
00000160: a761 b73d a472 363d a6e3 04be e9a4 463b
00000170: cdfd 00be 7c28 b03d c902 523d 5f8f 83bd
00000180: 4fa0 da3d c10d a03d 3893 863d d7f5 ae3d
00000190: 2212 4b3d fc9e 7fbd c946 4cbd f8ba e7bd
000001a0: 10e5 653d 3422 4a3d 417b 693c c22e 88bd
000001b0: 5108 9fbd c98b d8bd 2d4c 9cbc 16f0 18bd
000001c0: ec8f e8bd 60b7 7b3d c16c 273d 810f 633d
000001d0: bad3 49bd 1270 683c d260 f33d ea6b 00bd
000001e0: c4ef 383c 2280 6e3d 3736 d3bc 32a3 ed3d
000001f0: 7c50 8a3d 4d4e 63bc 9f04 a4bd 3697 6dbc
00000200: 5bf3 c93d d440 493d ba7b c2bd 6b54 c1bd
00000210: a886 ecbd 922e 2d3c 9bb1 79bd 8cd1 31bd
00000220: e66f acbc 9bbc cb3c 790a 1fbd 43b2 a73d
00000230: 0c35 b6bd bfb1 9dbd 654f adbd 7774 cebd
00000240: aae7 893b b96c d7bd dd82 32bc 2373 c7bd
00000250: 9cf4 56bd 8630 ec3c fa83 f93d bfe1 17bd
00000260: c863 abbd a470 afbd 7456 8fbd 26a8 3bbd
00000270: 0ceb 80bd 2f69 063d febc ea3d 3a5d 52bd
00000280: 0e97 4b3c 5445 013e 5c72 c5bd 539a f93d
00000290: f039 563d c348 bdbd 58b1 863d b6af 063c
000002a0: 96e1 a33c 6cf4 72bd b1c2 ad3d 2e20 b1bb
000002b0: 5886 da3d a4b7 f83c ba41 b7bd 677a 523d
000002c0: 6943 9dbc 0673 8bbd 42e5 d3bb b3d3 bdbd
000002d0: 27ea 943c 5aec 853d 0c6d 003d a154 f23d
000002e0: 57ad 233c ac99 9cbd 252d 903d 968c f33d
000002f0: 8f34 b8bd c025 cbbb 3d1c debd da04 083d
00000300: f49d dd3c d72b d9bc 3bac 90bd f234 ca3d
00000310: 8e35 4fbc 8eba 52bd 199d 9c3d a3a0 91bd
00000320: 18b9 efbc 51a5 4ebd 2813 f1bd 0019 12bc
00000330: abbf 0b3d 108c 97bd 90d7 bcbd 2f04 dc3d
00000340: 1888 2cbd 4bec 953d 72a6 71bc cf8b dbbd
00000350: 3239 8a3c 5f89 02be 93e1 44bc cac1 0e3d
00000360: 4f2a 2cbc 09d3 c5bd e58e ef3c 03c0 563d
00000370: 1f4f 273c 34fc f63d 9b52 eabd 2987 a83d
00000380: eead dfbd 3ad7 ad3d 2a87 06bd c5c8 dfbc
00000390: 9f19 653d 5fd7 6e3b a789 b83a 2366 72bd
000003a0: 51e9 c63d a0cb 903d 55b4 59bd 69c6 d6bd
000003b0: 8197 d63d 9452 afbd 585d 8cbd b9f5 e8bb
000003c0: c263 02bd 6363 2dbd 9cfe 20bd 1042 823d
000003d0: 64ac a03d 064c 5dbd f213 34bd ed0f 913d
000003e0: 1fe0 c9bd fd31 df3d 3fb1 b8bd f7ad 09bc
000003f0: c5a6 e93c 2d1a debd 37d9 a63a c177 0bbd
