04_Models_Weekly/20250811_182131_GDEA_Weekly_NoSentiment/best_model.pth (torch, 263989 bytes, 11 tensors)

lstm.weight_ih_l0 f4 [256, 49]
0	0x3d951e74	0.07281199
1	0x3da8a05c	0.08233711
2	0xbcb01a7a	-0.021497
3	0x3dfd9e82	0.123837486
4	0xbd33e8da	-0.043923236
5	0x3ccea238	0.025223836
6	0xbd794510	-0.06085688
7	0x3d4f7a57	0.05065378
8	0x3dabacb6	0.08382551
9	0xbdeb401a	-0.11486836
10	0x3db119cd	0.08647499
11	0xbae6f928	-0.0017621862
12	0x3d9ca180	0.07647991
13	0xbb0a7c0a	-0.0021131062
14	0x3d16189e	0.03664457
15	0xbccb95f7	-0.024851782
16	0x3da45f74	0.08026019
17	0xbbba032f	-0.005676649
18	0xbda8eaad	-0.08247886
19	0x3c219b6f	0.009863718
20	0xbda3a8e8	-0.07991201
21	0xbd22b92f	-0.039727386
22	0xbd9b456b	-0.075816
23	0x3d86b1c3	0.06576874
24	0xbe0002ac	-0.12501019
25	0xbdb8eaca	-0.090291575
26	0xbd83a621	-0.06428171
27	0xbdd69acb	-0.10478743
28	0x3c338976	0.010958066
29	0xbe23900a	-0.15972915
30	0x3dae6d66	0.0851696
31	0xbe091dc0	-0.13390255
32	0x3d82bd90	0.063838124
33	0x3cb5810b	0.022156259
34	0xbd7d5536	-0.06184884
35	0x3d3697ea	0.04457847
36	0xbbfb3074	-0.007665688
37	0x3d98e583	0.07465651
38	0xbc6f78bd	-0.014616189
39	0xbd8e3702	-0.06944086
40	0x3d607c61	0.054806117
41	0xbd7817c2	-0.060569532
42	0x3cf0c3ac	0.029390179
43	0x3db74c41	0.08950091
44	0x3d8cf1eb	0.0688208
45	0xbd8e723e	-0.06955384
46	0x3d61a4e1	0.05508888
47	0x3b931383	0.00448841
48	0x3d3c949b	0.04604016
49	0xbdcd86c3	-0.100354694
50	0xbe0ef698	-0.13961256
51	0xbcbd29a8	-0.023091152
52	0xbd7cd393	-0.06172521
53	0x3dcbf73b	0.09959265
54	0x3d1378d8	0.036003917
55	0x3d5413cc	0.051776692
56	0x3cf25762	0.029582683
57	0x3c1202d0	0.008911803
58	0x3da221be	0.07916592
59	0xbdcb317f	-0.0992155
60	0x39d7bbf8	0.00041148043
61	0xbda43c70	-0.0801934
62	0x3d1a6d9e	0.037702195
63	0xbd720ddf	-0.05909526
64	0x3d770d60	0.06031549
65	0xbc743c5c	-0.014906969
66	0x3d83bdeb	0.06432708
67	0xbd835b56	-0.06413905
68	0xbda07ca6	-0.07836275
69	0xbdad6ff9	-0.08468623
70	0x3dd1acf5	0.10238067
71	0x3d2eb81e	0.042656057
72	0x3dd00c0a	0.10158546
73	0xbe0ffebd	-0.14062019
74	0xbe051183	-0.12994961
75	0xbdf91c90	-0.12163651
76	0xbdd7bbc5	-0.10533861
77	0x3d32d92c	0.043664142
78	0x3cbbba6c	0.022916041
79	0x3da7196b	0.08159145
80	0xbdb1d27f	-0.08682727
81	0xbdbabc32	-0.09117927
82	0x3db71120	0.08938813
83	0xbd46ca0e	-0.048532538
84	0x3d8f27d4	0.069900185
85	0xbd5604ec	-0.052250788
86	0x3d0b72d7	0.034045067
87	0xbdf5440a	-0.11975868
88	0xbd47a758	-0.048743576
89	0x3d8a1585	0.06742386
90	0x38b2bd2e	8.522939e-05
91	0xbd7884e0	-0.060673594
92	0x3d888a83	0.06667044
93	0x3dad2bb2	0.084556
94	0xbdfe2970	-0.12410247
95	0xbd9500be	-0.07275532
96	0x3da9254a	0.082590654
97	0xbd33adc7	-0.0438669
98	0xbd424be7	-0.047435667
99	0xbdfb8885	-0.122818984
100	0xbdb0e6ac	-0.08637747
101	0x3c8de474	0.017320849
102	0xbc099e38	-0.008399539
103	0xbdb9d3aa	-0.09073575
104	0x3b402840	0.0029320866
105	0xbd95e0a3	-0.07318237
106	0xbdc390d3	-0.095491074
107	0xbd844508	-0.06458479
108	0xbdd38bac	-0.10329375
109	0xbd97b7ea	-0.07408126
110	0x3e10bbe9	0.14134182
111	0x3d17f846	0.037102006
112	0x3d363075	0.044479806
113	0xbdd4f675	-0.103985704
114	0xbd8e8419	-0.069587894
115	0xbd1d2940	-0.038369417
116	0x3cfe81ba	0.031067718
117	0xbdd70deb	-0.105007015
118	0xbd29b4fd	-0.04143237
119	0xbd8f3955	-0.06993357
120	0x3b8a6eb5	0.004224623
121	0xbd03bb42	-0.032161005
122	0xbc6bbd9f	-0.014388471
123	0xbd966b5f	-0.07344698
124	0xbda7a699	-0.08186073
125	0xbd998732	-0.074964896
126	0xbd1150b7	-0.035477366
127	0xbda3859c	-0.07984468
128	0x3dd54234	0.10413018
129	0xbcd0c937	-0.025486572
130	0x3df350bb	0.118806325
131	0x3d8220ce	0.06353913
132	0xbda21ca8	-0.07915622
133	0x3dc836fd	0.09776113
134	0xbd0959b9	-0.03353283
135	0xbd5bb7fb	-0.053642254
136	0xbdd67012	-0.104705945
137	0xbddb9142	-0.10721065
138	0x3dd77487	0.10520273
139	0xbd01607d	-0.03158616
140	0x3d2daaf2	0.042399354
141	0xbdbbfff2	-0.09179677
142	0x3dd09625	0.10184888
143	0xbdd3d96c	-0.10344204
144	0xbc4de46e	-0.012566669
145	0x3c869d9e	0.01643258
146	0x3d9c4287	0.076298766
147	0x3dc03dd0	0.0938679
148	0x3ddc9bcb	0.10771903
149	0xbdf51934	-0.11967698
150	0x3b97f4ec	0.0046373513
151	0xbd7e0843	-0.062019598
152	0xbc606e00	-0.013698101
153	0xbdbf9d0c	-0.09356126
154	0x3dc84ec6	0.0978065
155	0xbdb97e07	-0.09057241
156	0x3d6a527c	0.05720757
157	0x3d10ae78	0.035322636
158	0x3d1012e2	0.035174258
159	0xbd912f6e	-0.070891246
160	0x3dc8e67f	0.09809589
161	0x3cccb820	0.024990141
162	0x3c5bc06f	0.013412579
163	0xbdfc2142	-0.12311031
164	0x3d189131	0.03724784
165	0xbc9ac5a1	-0.018893065
166	0xbd685f9f	-0.056731816
167	0x3db9500c	0.09048471
168	0x3c9800f4	0.018555142
169	0xbd9cdaa8	-0.07658893
170	0xbd90b38f	-0.07065498
171	0xbc869ad5	-0.016431252
172	0x3d651b72	0.055934377
173	0xbd85c59d	-0.06531832
174	0xbdbd6f3a	-0.092497304
175	0xbd2f4fba	-0.042800643
176	0xbe0e7521	-0.13911869
177	0x3cc49ba7	0.024000002
178	0x3d9c0222	0.07617594
179	0xbe06b2a5	-0.13154085
180	0x3dae627b	0.085148774
181	0x3d5bf464	0.053699866
182	0x3c104482	0.008805396
183	0xbd89c6a5	-0.067273416
184	0x3d606206	0.054780982
185	0x3d442c54	0.047893837
186	0x3c82e6f0	0.01597926
187	0xbda857c2	-0.082198635
188	0xbcead84d	-0.028667593
189	0x3bc8d25e	0.0061285933
190	0xbd1ac8bf	-0.037789103
191	0xbd1616df	-0.036642905
192	0x3d7229d8	0.059121937
193	0x3dda1105	0.106477775
194	0xbd01fb3d	-0.03173374
195	0xbcd69b84	-0.026197203
196	0x3d410843	0.04712702
197	0x3d1e2dc2	0.038617857
198	0x3d37a159	0.044831607
199	0x3d6f61e3	0.05844296
200	0xbd921af7	-0.071340494
201	0xbd3cf284	-0.04612972
202	0x3dd795cc	0.10526618
203	0x3daf80d1	0.08569492
204	0x3ad49036	0.0016217295
205	0xbd5266e1	-0.051367644
206	0xbd2ac56e	-0.04169219
207	0xbdf26906	-0.11836438
208	0xbd0bcd21	-0.034131173
209	0x3da7bfd6	0.08190887
210	0x3dd56069	0.104187794
211	0x3d809953	0.06279244
212	0xbd9c2520	-0.076242685
213	0xbd16196c	-0.036645338
214	0xbc55737f	-0.013028025
215	0x3e1f8425	0.15577753
216	0x3d61aec8	0.055098325
217	0xbc06d784	-0.008230094
218	0x3d50b33a	0.050952174
219	0xbc4e518d	-0.012592685
220	0xbd4c4552	-0.049870797
221	0x3e0129ad	0.12613554
222	0xbc6dfd33	-0.014525699
223	0x3c596508	0.013268717
224	0xbe0faf53	-0.14031725
225	0x3df0ddd0	0.117610574
226	0x3e0869bc	0.13321584
227	0x3dac2b9c	0.08406755
228	0xbd560e3b	-0.052259665
229	0xbda29658	-0.07938832
230	0xbd87eee2	-0.0663736
231	0x3e032fd5	0.12811215
232	0x3dcac393	0.09900584
233	0x3e0b7e5e	0.13622424
234	0x3dd541a2	0.10412909
235	0x3d8a45f7	0.06751626
236	0x3cd5e7c7	0.026111497
237	0xbda0bbae	-0.07848297
238	0xbdbf78e0	-0.09349227
239	0xbdb616cd	-0.08891068
240	0x3d8e40e2	0.06945969
241	0xbd311af7	-0.043238606
242	0xbbff8fff	-0.007799148
243	0xbd612120	-0.05496323
244	0xbb612720	-0.0034355596
245	0xbdcb08e6	-0.099138066
246	0xbdb69a0f	-0.08916103
247	0x3d4d9504	0.05019094
248	0xbc8f8b4b	-0.017522475
249	0x3dae0f5a	0.08499022
250	0xbd24410c	-0.040101096
251	0xbdbbcb10	-0.091695905
252	0xba04e4cc	-0.0005069494
253	0xbd3b90ef	-0.045792516
254	0xbd10967e	-0.03529977
255	0xbde27245	-0.110569514

lstm.weight_hh_l0 f4 [256, 64]
0	0x3d8ca681	0.068676956
1	0x3dddc892	0.108292714
2	0x3bbabce3	0.0056987866
3	0x3db396ac	0.08768973
4	0xbdbcb9a7	-0.09215098
5	0xbde10af9	-0.10988421
6	0xbe06fee9	-0.13183178
7	0xbcaf6bf7	-0.021413786
8	0xbd1862cf	-0.037203606
9	0xbd891ddd	-0.06695149
10	0xbd647a5f	-0.055780765
11	0xbd824815	-0.06361405
12	0x3e190e3d	0.14946838
13	0xbcea0e96	-0.028571408
14	0x3e0af785	0.13570984
15	0x3ca2b8f6	0.019863587
16	0x3d85e928	0.06538612
17	0x3dc36c03	0.09542086
18	0xbdbaa941	-0.09114314
19	0xbd38d605	-0.04512598
20	0xbdb8c7fe	-0.090225205
21	0x3de21f36	0.11041109
22	0x3d8dcdee	0.069240436
23	0xbcbd9342	-0.023141507
24	0xbdb6227e	-0.088932976
25	0x3d561552	0.052266426
26	0x3d4477c7	0.04796579
27	0xbd77cd53	-0.060498547
28	0xbdb2c289	-0.08728511
29	0xbd3b6faf	-0.045760807
30	0x3d32d0ce	0.043656163
31	0xbdc0358c	-0.09385213
32	0xbd1d5a0e	-0.03841596
33	0x3d7a5ea2	0.061125405
34	0x3d3e7226	0.04649558
35	0xbc970f41	-0.01843989
36	0x3d3ac142	0.04559446
37	0x3cc86d3a	0.024466146
38	0x3cc19694	0.023631372
39	0x3e03697c	0.12833208
40	0x3d3dfc1e	0.046383016
41	0x3daf6299	0.08563728
42	0x3dab2c88	0.08358103
43	0xbdf4b1c7	-0.11947971
44	0xbda24c02	-0.079246536
45	0x3d5cf96e	0.053948812
46	0x3d3a2221	0.045442704
47	0xbdb8cdc6	-0.09023623
48	0x3d78a398	0.06070289
49	0xbe16e55f	-0.14735936
50	0xbd86940e	-0.06571208
51	0x3d3aaa78	0.045572728
52	0xbd2a2eef	-0.041548666
53	0xbdc0f91a	-0.09422512
54	0x3d86b097	0.065766506
55	0x3ba952df	0.0051673497
56	0xbd13e051	-0.036102597
57	0xbdedfe06	-0.11620717
58	0xbc797a4a	-0.01522691
59	0xbc2f69ee	-0.010706408
60	0xbdaa0082	-0.08300878
61	0x3c961b75	0.01832364
62	0xbda0c7a1	-0.07850576
63	0x3d8fc44e	0.07019864
64	0x3dccc56a	0.09998591
65	0x3dbec816	0.09315507
66	0xbc08bcdc	-0.008345809
67	0xbe2198c7	-0.15780936
68	0x3c23f3d5	0.010006865
69	0xbc9e63dc	-0.019334726
70	0xbe029271	-0.12751175
71	0x3d7cff9c	0.061767206
72	0x3d0a4dd7	0.03376564
73	0x3dde2f88	0.108489096
74	0xbdffc407	-0.12488561
75	0xbda29672	-0.079388514
76	0x3d3a04e2	0.045414813
77	0x3cf7d7ea	0.030254323
78	0xbdb03372	-0.086035624
79	0x3e0508c0	0.12991619
80	0x3d88f0aa	0.06686528
81	0xbda4578c	-0.08024511
82	0x3e1380fb	0.14404671
83	0xbdd27df3	-0.10277929
84	0xbdf6c614	-0.12049499
85	0x3c68f6e0	0.014219016
86	0x3e1c9bce	0.1529381
87	0x3d9bfaf6	0.076162264
88	0xbd198d1d	-0.03748809
89	0x3e007d89	0.12547888
90	0x3da67001	0.08126832
91	0xbc484236	-0.012222817
92	0x3dd6da74	0.104908854
93	0x3b4a7f67	0.0030898692
94	0xbce9d194	-0.028542317
95	0xb9271a60	-0.00015936187
96	0xbd9c9654	-0.0764586
97	0xbc238eb4	-0.009982754
98	0xbd6011ee	-0.0547046
99	0xbdd9d656	-0.106365845
100	0x3d3c571d	0.045981515
101	0x3cb2b9b0	0.021817058
102	0xbe0939ef	-0.13401006
103	0xbdf43f1f	-0.11926102
104	0x3d89cb0c	0.06728181
105	0xbd86ed58	-0.065882385
106	0xbd486ca8	-0.048931748
107	0xbdb33693	-0.087506436
108	0x3d04e5d5	0.032445747
109	0x3d6b6f8d	0.05747943
110	0x3d482264	0.048860922
111	0x3d59ab2d	0.05314176
112	0xbb01a05a	-0.0019779415
113	0xbd5acb9a	-0.053416826
114	0xbd195cf6	-0.03744217
115	0x3da93684	0.08262351
116	0x3cb1295d	0.021626169
117	0x3c158281	0.009125353
118	0xbce7ccb3	-0.02829585
119	0x3e11bd4c	0.14232367
120	0x3d18be24	0.037290707
121	0xbcce8e30	-0.025214285
122	0xbd59de83	-0.05319072
123	0x3da0d141	0.07852412
124	0xbd627f77	-0.05529734
125	0xbde7db59	-0.11321134
126	0x3c90c9f5	0.017674426
127	0xbd837695	-0.06419102
128	0xbdcf232f	-0.101141326
129	0xbdbd2983	-0.09236433
130	0x3d075f69	0.033049975
131	0xbdb4bbef	-0.08824908
132	0x3e0291fd	0.12751003
133	0xbb5efb3c	-0.003402426
134	0xbd46c80e	-0.04853063
135	0xbdaa5f08	-0.08318907
136	0xbd2b2749	-0.041785512
137	0x3dfe3fd6	0.124145195
138	0xbd9aba9a	-0.07555123
139	0xbded11ad	-0.11575637
140	0x3d08e7a4	0.033424035
141	0x3d55ddaa	0.05221335
142	0xbddf68e0	-0.10908675
143	0xbd58ff78	-0.05297801
144	0x3dcf3e15	0.10119263
145	0xbdd4bfdd	-0.103881575
146	0x3d3a82e3	0.04553498
147	0xbd91747c	-0.07102296
148	0xbdd93c65	-0.106072225
149	0xbdf7e98c	-0.121050924
150	0x3df2da30	0.11858022
151	0x3cf0d435	0.029398063
152	0x3cbdc372	0.023164485
153	0x3d716b0d	0.058939982
154	0x3d50c874	0.050972417
155	0x3d8aaafd	0.06770895
156	0x3dde9ddd	0.10869954
157	0x3d81ba0c	0.06334314
158	0x3cba8cfd	0.022772307
159	0x3ca397ed	0.019969905
160	0x3cde1b9e	0.027112778
161	0xbd95ed04	-0.07320598
162	0x3d59c179	0.053163026
163	0x3cdcb338	0.026940927
164	0x3d3e0213	0.046388697
165	0xbcda212f	-0.026627151
166	0x3ddfe0a5	0.109315194
167	0x3b79fe09	0.0038145802
168	0xbcdff845	-0.027340064
169	0xba07c96e	-0.00051798567
170	0xbd68403e	-0.05670189
171	0xbca27c3f	-0.019834636
172	0x3debc7fa	0.11512752
173	0x3d2000d7	0.0390633
174	0xbc92fee6	-0.01794381
175	0x3c23f6de	0.010007588
176	0x3ce123af	0.027482836
177	0xbd800cde	-0.06252454
178	0xbd89f7f6	-0.06736748
179	0x3ddd950f	0.10819446
180	0x3b56157e	0.003266662
181	0x3d0190d3	0.031632256
182	0xbd8fa006	-0.07012944
183	0xbdbe3c4e	-0.09288846
184	0x3cb64ad6	0.022252481
185	0x3d7a325c	0.061083183
186	0xbdff5d9b	-0.12469026
187	0xbdf28797	-0.11842268
188	0xbd0a5607	-0.03377345
189	0x3daf0245	0.08545355
190	0xbddd8e23	-0.10818126
191	0x3dd05100	0.101716995
192	0x3dd6475a	0.10462828
193	0xbcefd01f	-0.029274045
194	0x3ca1cf7d	0.019752258
195	0xbcb708c3	-0.022343045
196	0x3e0a24ed	0.13490649
197	0x3be91a97	0.0071137655
198	0x3cb0433a	0.021516431
199	0xbd8943f8	-0.06702417
200	0xbc0e58fb	-0.008688207
201	0xbd6b5b81	-0.05746031
202	0xbbf82871	-0.0075731804
203	0xbc9ff576	-0.019526225
204	0x3ce5119c	0.027962498
205	0x3d5662d8	0.05234036
206	0xbdc44f93	-0.0958549
207	0x3dcab584	0.098979026
208	0x3d9ba8e8	0.07600576
209	0x3d7ed082	0.062210567
210	0x3dc1e0d6	0.09466712
211	0x3d3dac97	0.046307173
212	0x3dbb28ae	0.091386184
213	0x3d2ed7a4	0.04268612
214	0x3dc57583	0.09641554
215	0xbda895ea	-0.08231719
216	0x3d8b083e	0.067886814
217	0x3cc4ad16	0.024008315
218	0x3d6058bb	0.05477212
219	0x3b452d34	0.0030086758
220	0xbda9753a	-0.08274312
221	0xbd9a565f	-0.07536005
222	0xbdd6cde7	-0.104884915
223	0xbc922461	-0.017839612
224	0x3d153354	0.036425903
225	0x3d8c4ec3	0.0685096
226	0x3d969aa3	0.07353713
227	0xbdbdd902	-0.092699066
228	0x3cfee428	0.031114653
229	0x3de181b3	0.11011066
230	0xbdc6fb92	-0.09715952
231	0xbdc13ae1	-0.094350584
232	0x3c15904d	0.009128642
233	0xbd4db175	-0.050218064
234	0x3b4823c5	0.0030538898
235	0xbd984955	-0.07435862
236	0x3cbebb9a	0.023282815
237	0xbdce4c98	-0.10073203
238	0x3dea079d	0.11427233
239	0xbdbf7d3f	-0.09350061
240	0xbdec7f92	-0.115477696
241	0xbd5afb8b	-0.053462546
242	0xbc485364	-0.012226913
243	0x3dff5a45	0.124683894
244	0x3ccfc1d5	0.025360981
245	0xbd24e8b5	-0.04026099
246	0xbde1d916	-0.11027734
247	0x3db06edc	0.08614895
248	0x3b83af39	0.004018691
249	0xbd168fa8	-0.036758095
250	0xbd090bd7	-0.033458557
251	0x3c2412d9	0.010014259
252	0x3dd05970	0.10173309
253	0xbd8c600b	-0.06854256
254	0xbd637d86	-0.05553963
255	0x3d8affd8	0.067870796

lstm.bias_ih_l0 f4 [256]
0	0xbdab9379	-0.083777376
1	0x3dd89cd3	0.10576787
2	0xbda9532e	-0.082678184
3	0xbdebd67e	-0.115155205
4	0x3dea227d	0.11432359
5	0xbd800c73	-0.062523745
6	0x3de0c923	0.10975864
7	0xbd9d8abb	-0.07692476
8	0x3d884f29	0.066557236
9	0xbdcc1d94	-0.09966579
10	0xbe1a9fd5	-0.15100034
11	0xbd55b5db	-0.052175384
12	0x3d0c30af	0.034226116
13	0x3d9f7952	0.07786812
14	0xbd056c27	-0.032573845
15	0x3d03764e	0.032095246
16	0xbd9f2cc1	-0.07772208
17	0x3c2c3096	0.010509631
18	0x3d83b2bc	0.06430575
19	0x3da356a5	0.079755105
20	0x3dbcf60f	0.092266195
21	0xbe0098db	-0.1255831
22	0xbda58853	-0.080826424
23	0x3dddc860	0.10829234
24	0xbde09f20	-0.10967851
25	0xbd8e6305	-0.0695248
26	0xbdc3e8f0	-0.09565914
27	0x3d958f18	0.073026836
28	0xbdea8cd6	-0.114526436
29	0xbdde0259	-0.108402915
30	0xbc656b8b	-0.014002691
31	0x3cc05eb1	0.023482652
32	0x3cf80fb9	0.030280935
33	0x3d4b1dc1	0.049588922
34	0x3d9a628f	0.0753833
35	0xbdb626ae	-0.08894096
36	0x3b4f0dfe	0.0031594033
37	0xbd3e22bd	-0.046419848
38	0xbb08377a	-0.002078502
39	0xbdaad1e4	-0.08340815
40	0x3d956bc6	0.07295947
41	0xba5c7242	-0.000840936
42	0x3d2f0c33	0.042736243
43	0xbd09f008	-0.033676177
44	0xbd9dcc04	-0.077049285
45	0x3c7c4f0a	0.015399704
46	0x3d994d15	0.07485405
47	0x3dbea67a	0.09309097
48	0x3d655b97	0.05599555
49	0xbcef1695	-0.029185573
50	0xbdf2c3ed	-0.11853776
51	0x3d8ffbae	0.07030426
52	0x3d7a930c	0.06117539
53	0x3de5b860	0.11216807
54	0xbdf53954	-0.11973825
55	0xbd41e8f8	-0.047341317
56	0xbded8242	-0.1159711
57	0x3d013d6f	0.03155273
58	0xbc145ad6	-0.00905486
59	0x3dc4b104	0.096040756
60	0xbd7ad593	-0.061238836
61	0x3c39757a	0.0113195125
62	0xbe05ba43	-0.13059334
63	0xbcd40933	-0.025883293
64	0xbdfe80e2	-0.12426926
65	0x3d098116	0.03357037
66	0x3dfeba9d	0.124379374
67	0xbce3b279	-0.027795063
68	0x3c64f50b	0.013974438
69	0xbcad765c	-0.021174602
70	0x3b5c520e	0.0033618244
71	0xbbd3698c	-0.006451791
72	0x3cedbb33	0.029019928
73	0x3cc215b3	0.023691988
74	0x3dc03dbf	0.09386777
75	0x3da6e68a	0.081494406
76	0x3d840313	0.06445899
77	0xbdaea728	-0.08527976
78	0xbd9c74f3	-0.07639494
79	0xbdb1e8b2	-0.08686961
80	0xbcf24751	-0.029575022
81	0x3d1783b7	0.036990847
82	0x3de4a969	0.11165125
83	0xbdd717b8	-0.10502571
84	0x3c7b78a9	0.015348592
85	0xbcbb4835	-0.02286158
86	0x3c0f07d0	0.00872989
87	0x3d123497	0.035694685
88	0x3c900412	0.017580066
89	0x3c6f39f9	0.014601224
90	0xbd0b2834	-0.033973888
91	0x3ca5c891	0.02023724
92	0xbdcd967a	-0.10038467
93	0x3d6d2ba0	0.057902932
94	0x3d91a0c7	0.07110744
95	0xbd9ffd53	-0.0781199
96	0xbc040034	-0.008056689
97	0xbd9728a6	-0.073808
98	0xbda09e38	-0.07842678
99	0x3dabf149	0.08395631
100	0x3ddae5a9	0.106883354
101	0x3db4af50	0.08822501
102	0x3cae16af	0.02125105
103	0x3c093589	0.00837458
104	0x3cfde33e	0.030992147
105	0xbd25c5fe	-0.040472023
106	0x3cce459d	0.025179679
107	0x3db2de18	0.08733767
108	0x3d840553	0.06446328
109	0xbda9a8bb	-0.08284136
110	0xbe0003fe	-0.12501523
111	0xbdab7746	-0.08372359
112	0xbdc884bf	-0.09790944
113	0xbd59ce9d	-0.053175557
114	0xbdcd3e9f	-0.1002171
115	0xbdd718b7	-0.10502761
116	0xb8d0d818	-9.9584635e-05
117	0x3dbef4ec	0.09324059
118	0xbcf352bb	-0.029702535
119	0xbdd20dc2	-0.1025653
120	0x3de70054	0.112793595
121	0xbd4f1eef	-0.05056661
122	0xbdde5414	-0.108558804
123	0x3da3fccd	0.08007202
124	0xbcf9a77b	-0.030475369
125	0xbdf93951	-0.12169135
126	0xbd24227e	-0.040071957
127	0xbd8c7a7b	-0.06859299
128	0x3a287b11	0.000642703
129	0x3cc12435	0.023576835
130	0x3d697723	0.056998383
131	0x3dce675c	0.10078308
132	0xbde8ffb5	-0.11376897
133	0x3d659713	0.05605228
134	0xb8e08286	-0.00010705464
135	0xbb9affbb	-0.0047301925
136	0xbcec77fb	-0.028865805
137	0xbde82a67	-0.113362126
138	0x3dc2a9c2	0.09505035
139	0x3db91f49	0.0903917
140	0xbdc71fe6	-0.09722881
141	0xbd2fe73e	-0.04294514
142	0x3d3f2516	0.046666227
143	0x3c0f64f0	0.008752093
144	0x3c7bdf34	0.01537304
145	0x3d6f9bcc	0.05849819
146	0xbd5357fb	-0.051597577
147	0xbda83968	-0.082140744
148	0xbde0a432	-0.10968818
149	0x3d55cbbd	0.052196253
150	0x3d76b45a	0.06023059
151	0xbcb004e5	-0.021486709
152	0xbd74d15b	-0.05976997
153	0xbd2d8436	-0.042362414
154	0xbda6fd8c	-0.08153829
155	0xbda0ffb8	-0.078612745
156	0x3df11ff8	0.11773676
157	0xbdd05f2b	-0.10174402
158	0x3df41e47	0.119198374
159	0x3d8100d2	0.062989846
160	0x3d274534	0.04083748
161	0x3dca2b4f	0.09871542
162	0x3ab69838	0.0013930863
163	0x3c185868	0.009298421
164	0xbd0489c8	-0.03235796
165	0x3dfcf820	0.123520136
166	0xb8b024c0	-8.399179e-05
167	0xbd9d6b34	-0.07686463
168	0xbdd81b13	-0.10552039
169	0x3c792d7a	0.015208596
170	0xbc89cc61	-0.016821088
171	0x3d282a90	0.041056216
172	0x3d897f1a	0.06713696
173	0xb8cebf22	-9.858447e-05
174	0xbcc19470	-0.02363035
175	0x3db58fc2	0.0886531
176	0x3d872ef9	0.06600756
177	0x3de4a8aa	0.111649826
178	0x3d93aa9c	0.072102755
179	0x3d8becaa	0.068322495
180	0x3da62bbd	0.08113811
181	0xbdcceedd	-0.10006497
182	0xbd8fd10d	-0.07022295
183	0xbd4eae1e	-0.05045902
184	0x3cf3ea2a	0.029774744
185	0xbd858707	-0.06519895
186	0x3c1f2f2b	0.009715836
187	0x3c80561d	0.015666062
188	0x3dab13da	0.08353396
189	0x3da612c0	0.08109045
190	0x3cce132f	0.025155632
191	0xbd258c11	-0.04041678
192	0x3ce21743	0.027598983
193	0xbda2b32b	-0.0794433
194	0x3dc29920	0.095018625
195	0xbdac41b5	-0.0841097
196	0x3df1b7e0	0.118026495
197	0x3df1febf	0.11816167
198	0x3dcbeca9	0.09957249
199	0x3df00c49	0.11721093
200	0xbba4e287	-0.005031887
201	0x3da8a6f2	0.08234967
202	0xbde06e9a	-0.109585956
203	0xbde97bb4	-0.114005476
204	0xbda703c4	-0.08155015
205	0xbdbdd09e	-0.09268306
206	0x3d6bf05f	0.057602283
207	0xbd65c043	-0.05609156
208	0xbc5f6903	-0.013635877
209	0x3c8b622c	0.017014585
210	0xbcd1f604	-0.025630005
211	0xbe06a853	-0.13150148
212	0xbe0ac0b7	-0.13550077
213	0x3de8a2f6	0.11359207
214	0xbdff4b78	-0.124655664
215	0xbd2b5da2	-0.041837342
216	0xbdb44ec2	-0.08804084
217	0xbdcc5ce7	-0.09978657
218	0xbdbb76df	-0.09153532
219	0x3c2226ce	0.009896947
220	0x3aee8e5f	0.0018200389
221	0x3d956633	0.072948836
222	0x3d930a42	0.07179691
223	0x3d3f2755	0.04666837
224	0xbd50d771	-0.05098671
225	0xbd802706	-0.06257443
226	0x3ca03146	0.019554745
227	0xbdede554	-0.116160065
228	0xbde7534c	-0.112951845
229	0xbcb59e23	-0.022170132
230	0xbd5f6616	-0.054540716
231	0x3e08fec9	0.13378443
232	0xbd013bc0	-0.031551123
233	0x3dac7b23	0.08421924
234	0x3d9c84d4	0.076425225
235	0x3c5d9f52	0.013526754
236	0xbd01591e	-0.03157913
237	0x3dafa06a	0.085755184
238	0xbd88b825	-0.06675748
239	0xbc3a9889	-0.011388906
240	0x3c3978ec	0.011320334
241	0xbdaefd84	-0.08544448
242	0x3dab973a	0.083784536
243	0x3cf0d167	0.029396726
244	0x3c7201f2	0.014770972
245	0xbd818bd0	-0.06325495
246	0xbd82cb2d	-0.06386409
247	0x3e026074	0.12732106
248	0xbd7481ec	-0.059694216
249	0x3b965511	0.0045877774
250	0x3e02f33c	0.12788099
251	0x3dfe213b	0.12408682
252	0x3dd4d9eb	0.10393127
253	0x3d452c0d	0.048137713
254	0x3ce08f53	0.027412092
255	0xbc49a845	-0.012308185

lstm.bias_hh_l0 f4 [256]
0	0x3cbd4187	0.023102535
1	0xbd98ee5e	-0.0746734
2	0xbd676858	-0.056495994
3	0xbd6312e7	-0.05543795
4	0xbda094ab	-0.07840856
5	0xbcb1f042	-0.02172101
6	0x3d9078d5	0.07054297
7	0x3d168450	0.036747277
8	0x3cb85ccf	0.022505192
9	0x3dae9ae6	0.08525638
10	0xbdbf90ac	-0.09353766
11	0xbd18e011	-0.03732306
12	0x3c2d4cee	0.0105774235
13	0x3dbf8fe5	0.093536176
14	0x3d7a0fc4	0.06105019
15	0xbdb181bf	-0.08667325
16	0x3dd54231	0.10413016
17	0x3d38c6b2	0.045111366
18	0x3ddbedd7	0.10738724
19	0xbd808361	-0.062750585
20	0x3d3d9e7c	0.04629372
21	0xbd14a650	-0.03629142
22	0x3ca2388e	0.019802358
23	0x3e001891	0.12509371
24	0xbc22288f	-0.009897365
25	0x3d02f677	0.03197333
26	0xbd605515	-0.05476864
27	0x3d9f11cf	0.077670686
28	0xbd33c31e	-0.04388725
29	0xbd02fb44	-0.031977907
30	0x3ae65698	0.0017573414
31	0x3da62e3f	0.081142895
32	0x3cacab75	0.02107785
33	0xbcd992e2	-0.026559297
34	0xbcb92d0b	-0.022604486
35	0x3d045ccf	0.03231507
36	0xbdd559a6	-0.1041749
37	0xbd88a36b	-0.066717945
38	0xbca27d20	-0.019835055
39	0xbcbd79f3	-0.023129439
40	0xbd090479	-0.03345153
41	0xbcecdc5a	-0.028913666
42	0x3c91b6f7	0.01778744
43	0xbda6b264	-0.08139494
44	0xbda995e6	-0.08280544
45	0x3daf95d8	0.08573502
46	0x3cd1c0aa	0.025604565
47	0xbda1f3d9	-0.079078384
48	0x3c3ec141	0.011642755
49	0xbda3d1f9	-0.079990335
50	0x3c5786c9	0.013154694
51	0xbdfa81e6	-0.122318074
52	0xbdd27a4b	-0.10277232
53	0x3dca4a87	0.09877496
54	0xbdc239ab	-0.094836555
55	0xbdb6be52	-0.089230195
56	0x3ccf04b9	0.025270807
57	0xbc12d637	-0.008962206
58	0x3d7169f1	0.058938924
59	0x3dcfe988	0.101519644
60	0x3cba8999	0.02277069
61	0xbdfb0d3c	-0.12258384
62	0xbbd3dfe7	-0.0064659
63	0x3d14a7d4	0.036292866
64	0x3d87ce63	0.06631162
65	0xbd531925	-0.05153765
66	0xbdbd775a	-0.0925128
67	0xbc92035b	-0.017823866
68	0xbdaa9a48	-0.08330208
69	0xbd584d40	-0.052808046
70	0x3daa2c63	0.08309247
71	0x3d07bbbe	0.03313803
72	0x3dd0d196	0.10196225
73	0xbda986cb	-0.08277663
74	0x3cb0b6bb	0.021571508
75	0xbccbb326	-0.024865698
76	0xbdc70ce8	-0.097192585
77	0xbd7e3fb7	-0.062072482
78	0xba0ba0ab	-0.00053263706
79	0x3d60625c	0.054781303
80	0x3d9d61ab	0.07684644
81	0xbd963d5c	-0.07335922
82	0x3d4fbcec	0.05071728
83	0x3d32cedd	0.04365431
84	0xbd980df4	-0.07424536
85	0xbd674500	-0.056462288
86	0xbd951a0d	-0.072803594
87	0xbde024a5	-0.109444894
88	0x3d9b312c	0.07577738
89	0xbd9863ba	-0.07440896
90	0x3d03f962	0.03222025
91	0xbd101bbc	-0.0351827
92	0xbe0a06bb	-0.1347913
93	0x3d46a651	0.048498455
94	0xbc17b182	-0.00925863
95	0x39ac0122	0.0003280724
96	0xbd84de29	-0.06487686
97	0x3cda1728	0.02662237
98	0x3d6608bf	0.056160685
99	0x3cb3e591	0.021960052
100	0xbde56597	-0.11201017
101	0xbddc94d2	-0.10770573
102	0xbd94b150	-0.07260382
103	0x3db5e1a4	0.08880928
104	0xbcd4df6e	-0.025985446
105	0xbd8612ad	-0.06546531
106	0x39f86cf7	0.0004738343
107	0xbd119c25	-0.0355493
108	0x3c62d4aa	0.013844648
109	0xbdea44ae	-0.11438881
110	0xbcf078b5	-0.029354433
111	0x3de75d2a	0.112970665
112	0x3b545631	0.0032400007
113	0x3e0c4aff	0.13700484
114	0x3da28d55	0.07937113
115	0xbc9f7e95	-0.019469539
116	0x3dd240fe	0.102663025
117	0xbd336a9b	-0.04380284
118	0x3da37780	0.07981777
119	0x3c20dffc	0.009819027
120	0xbe0723f4	-0.13197309
121	0x3d5d2ede	0.053999774
122	0x3cd543b5	0.026033262
123	0xbdb144c3	-0.086556934
124	0x3da28cf3	0.0793704
125	0xbde4f1fd	-0.11178968
126	0xbdf6c307	-0.12048917
127	0xbb8a098e	-0.004212565
128	0x3c28a952	0.010294275
129	0x3dd0ab4a	0.10188921
130	0xbd8d6ddd	-0.069057204
131	0xbda9d4d2	-0.082925454
132	0x3c9148e3	0.01773495
133	0x3dec0cf8	0.11525911
134	0x3dec06c0	0.11524725
135	0xbcab5318	-0.020913646
136	0xb9aaa86c	-0.0003255041
137	0xbc69833a	-0.014252478
138	0x3de586c4	0.11207345
139	0x3c836650	0.016039997
140	0xbb5f09f2	-0.0034033027
141	0x3cceb7ce	0.02523413
142	0xbdc73730	-0.09727323
143	0xbc684fb7	-0.014179162
144	0xbdc8cbce	-0.09804498
145	0x3d20ed4d	0.039288808
146	0x3dae52fb	0.08511921
147	0x3ccd39e3	0.025052017
148	0xbd16130e	-0.036639266
149	0x3db646eb	0.08900245
150	0x3ca615ec	0.020274125
151	0xbdd0a5cb	-0.101878725
152	0xbdd00e6a	-0.10158999
153	0x3d4a905a	0.04945407
154	0x3dda4eb6	0.10659544
155	0x3dda91bc	0.10672328
156	0x3cd9c40f	0.026582746
157	0xbd9cff51	-0.07665885
158	0xbd9329e1	-0.07185722
159	0x3ca16330	0.019700617
160	0x3d987421	0.07444025
161	0xbcb453d6	-0.022012632
162	0x3d21b07f	0.03947496
163	0x3daa1903	0.08305552
164	0x3d5c544c	0.05379133
165	0xbd01d983	-0.031701576
166	0xbce34313	-0.027741944
167	0xbd90d750	-0.070723176
168	0x3b94ad11	0.0045372327
169	0xbdc7c60e	-0.09754573
170	0x3da22437	0.07917064
171	0x3cbb28a2	0.022846524
172	0x3d49acc8	0.049237043
173	0x3dc5b195	0.09653012
174	0xbcc14b3f	-0.02359545
175	0x39bf2f4a	0.00036465592
176	0xbd35d45a	-0.044391967
177	0x3d59d060	0.053177238
178	0x3d3d2820	0.046180844
179	0x3d768fd0	0.060195744
180	0x3b1df536	0.0024102456
181	0x3d4b613c	0.049653277
182	0xbd8db9c1	-0.06920195
183	0xbd9b69cd	-0.07588539
184	0xbdddeb45	-0.1083589
185	0x3d9fe29b	0.078068934
186	0xbdeac7ed	-0.11463914
187	0xbd8522fa	-0.06500812
188	0xbc7a26ce	-0.015268041
189	0xbc87bf1b	-0.016570618
190	0x3dabde54	0.08392015
191	0x3de50a94	0.11183658
192	0xbd9be8a3	-0.07612731
193	0xbd0a674a	-0.03378991
194	0xbdcb79af	-0.09935319
195	0xbdac1924	-0.08403233
196	0xbcaa9e7c	-0.020827524
197	0xbcc3a760	-0.023883522
198	0x3db6effd	0.08932493
199	0xbc3dadff	-0.011577128
200	0x3cdaaaa6	0.0266927
201	0xbde72ae7	-0.1128748
202	0xbd92dcd9	-0.071710296
203	0x3c9a0887	0.018802894
204	0xbd1c2ffe	-0.038131706
205	0x3e0c1096	0.13678202
206	0x3b6b065e	0.003586195
207	0x3dcae8ac	0.0990766
208	0x3d63db0f	0.055628832
209	0x3dff06a3	0.12452438
210	0xbdd1e309	-0.10248382
211	0x3d5283c7	0.051395204
212	0xbdf1e5f0	-0.11811435
213	0x3dea6bb3	0.11446323
214	0x3dba28bc	0.09089801
215	0xbd15e242	-0.03659273
216	0xbc26e269	-0.010185816
217	0x3d6228ed	0.05521481
218	0xbdfd5598	-0.12369841
219	0x3d3bc5ef	0.04584306
220	0xbcbfa18d	-0.023392463
221	0x3b8f0c44	0.004365476
222	0x3d9fc1e2	0.07800652
223	0xbd885090	-0.06655991
224	0xbdee0239	-0.11621518
225	0xbcff340b	-0.031152746
226	0x3bd7a13c	0.0065805
227	0xbcf4568f	-0.02982643
228	0xbd9085e8	-0.070567906
229	0xbd564532	-0.052312084
230	0x3d9393b5	0.07205907
231	0xbd8516fb	-0.06498524
232	0x3dabceb6	0.08389036
233	0x3d573b97	0.052547064
234	0xbd64c246	-0.055849336
235	0xbd23cf4e	-0.039992623
236	0x3ca69b5b	0.020337751
237	0x3d7548db	0.059883934
238	0xbc56e866	-0.013116932
239	0xbdbda9a2	-0.092608705
240	0x3dec2b85	0.11531738
241	0xbb2ab8c1	-0.0026050063
242	0x3d0c75a5	0.034291882
243	0x3dcbc889	0.099503584
244	0x3d03e785	0.032203216
245	0x3dc9c8c4	0.09852746
246	0xbd1c3148	-0.038132936
247	0xbd74bb21	-0.059748773
248	0x3d633a55	0.05547555
249	0x3e00b773	0.1256998
250	0x3e0bc2e9	0.13648571
251	0x3dfc6560	0.12324023
252	0x3d3e1b57	0.046412792
253	0xbe03d7b8	-0.12875259
254	0x3dbfb6e6	0.09361057
255	0x3e017b9a	0.12644807

lstm.weight_ih_l1 f4 [256, 64]
0	0xbdf082a4	-0.11743668
1	0xbcba2b0e	-0.022725608
2	0x3c19e01c	0.009391811
3	0xbc5e1b33	-0.0135562895
4	0x3da27089	0.07931621
5	0xbd6f6203	-0.05844308
6	0xbd38be0f	-0.04510313
7	0xbdece9c0	-0.11568022
8	0xbcf91236	-0.030404191
9	0xbd6c5a8d	-0.057703543
10	0xbd6b456b	-0.05743925
11	0x3dc4e07c	0.096131295
12	0xbcc77a80	-0.024350405
13	0xbd9e051d	-0.07715819
14	0xbdb8644e	-0.090035066
15	0x3d1fec6b	0.039043825
16	0xbd8bc85b	-0.06825324
17	0x3dae924a	0.08523996
18	0x3d1aeade	0.037821643
19	0xbd8dc0e3	-0.06921556
20	0xbd8ad398	-0.067786396
21	0xbd3afe04	-0.045652404
22	0xbde97eb2	-0.11401118
23	0x3d302ef7	0.04301354
24	0xbdd2703c	-0.10275313
25	0x3d8d4030	0.068970084
26	0xbd911fc0	-0.07086134
27	0x3c8d9201	0.017281534
28	0x3c5da45b	0.013527955
29	0x3d81232c	0.06305537
30	0x3d566a54	0.052347496
31	0x3d8bf83b	0.068344556
32	0x3ddf9856	0.10917728
33	0x3e08ae98	0.13347852
34	0xbd17758a	-0.03697733
35	0xbd7864ef	-0.060643133
36	0xbcd12a04	-0.02553273
37	0xbd39952b	-0.045308273
38	0x3aba205a	0.0014200315
39	0xbd886590	-0.066599965
40	0xbdca3865	-0.09874038
41	0xbd1a8e1c	-0.037733182
42	0x3df1371d	0.1177809
43	0x3ddc7bfe	0.10765837
44	0xbd8197b7	-0.063277654
45	0x3dbd7524	0.092508584
46	0xbc7763b3	-0.015099454
47	0xbc8285e4	-0.015932985
48	0xbe07512c	-0.13214558
49	0x3df46f60	0.119353056
50	0xbdea353c	-0.11435935
51	0x3cda1e8a	0.02662589
52	0xbdc9b03a	-0.09848066
53	0x3df32b4c	0.118734926
54	0xbde34150	-0.11096442
55	0x3d7ea83b	0.062172156
56	0xbdd21cbe	-0.102593884
57	0xbc73c7a9	-0.014879146
58	0x3d6890ec	0.056778833
59	0x3df289d7	0.11842697
60	0x3cac858f	0.02105978
61	0x3df57411	0.119850285
62	0x3db2b763	0.087263845
63	0x3dbe224b	0.092838846
64	0x3de66aae	0.11250816
65	0xbcf54f2a	-0.029944975
66	0x3d07e737	0.033179488
67	0xbdb5552d	-0.088541366
68	0x3d53a3ee	0.051670007
69	0x3dae0928	0.0849784
70	0x3d517fbb	0.051147204
71	0xbde79da8	-0.113093674
72	0xbd2315d6	-0.039815746
73	0x3d230cbb	0.039807063
74	0xbdac0ee6	-0.08401279
75	0x3e041b87	0.12901126
76	0xbd9f4874	-0.07777491
77	0x3b0fa948	0.0021920968
78	0xbd3f59b6	-0.046716414
79	0xbd311927	-0.043236878
80	0xbe02ee9a	-0.12786332
81	0xbd842f25	-0.064543046
82	0xbd8a5db6	-0.06756155
83	0x3d8f4f8a	0.06997593
84	0x3c35f663	0.011106106
85	0x3c0a5dac	0.008445185
86	0x3d88947a	0.06668945
87	0x3dc4413a	0.095827535
88	0xbdde5338	-0.108557165
89	0x3ab9a8d8	0.0014164699
90	0xbd180e31	-0.03712291
91	0x3daea53e	0.08527611
92	0xbcb0131c	-0.021493487
93	0xbd28c483	-0.041203033
94	0xbda507a6	-0.080580994
95	0xbd511eab	-0.051054638
96	0xbdccb079	-0.09994597
97	0xbdb4b4f2	-0.08823575
98	0x3d4f6ffa	0.0506439
99	0x3c865fd5	0.016403118
100	0xbe25ba62	-0.1618438
101	0x3cd758ad	0.026287401
102	0xbc7f5897	-0.015585086
103	0x3c96c689	0.018405216
104	0x3dadf5a8	0.08494121
105	0x3dbeea7a	0.093220666
106	0x3cd4d582	0.025980715
107	0x3e133d1b	0.14378779
108	0x3e0115c6	0.12605962
109	0xbc9f466d	-0.019442761
110	0xbe0305e0	-0.1279521
111	0x3c5236f7	0.012830487
112	0x3d961499	0.073281474
113	0x3dc8836b	0.09790691
114	0xbd0f6c36	-0.035015307
115	0xbc728a91	-0.014803545
116	0x3dccf61b	0.100078784
117	0x3d995a32	0.074879065
118	0x3d994371	0.074835666
119	0x3d97fe59	0.0742156
120	0xbd014076	-0.031555615
121	0xbe0459ac	-0.12924832
122	0x3d4bc7cb	0.049751084
123	0xbd6d5a10	-0.05794722
124	0xbd6712ce	-0.056414418
125	0xbc2c5ab1	-0.010519669
126	0xbc20d8f8	-0.009817354
127	0xbd9bb97d	-0.076037385
128	0x3dcc9ea7	0.09991198
129	0x3d6d19ec	0.05788605
130	0xbcb6f61b	-0.02233415
131	0xbcd831aa	-0.02639087
132	0x3ba96bb1	0.0051703085
133	0x3dac7b1f	0.08421921
134	0x3d9a1e77	0.07525342
135	0xbe0a8396	-0.13526759
136	0xbcf8e967	-0.030384732
137	0xbc900066	-0.017578315
138	0xbdcc0f4d	-0.09963856
139	0xbdc8e7e5	-0.09809855
140	0x3ca6565a	0.020304848
141	0xbccd3981	-0.025051834
142	0xbe0dac88	-0.13835347
143	0x3dc253d9	0.09488649
144	0xbdcd7a7a	-0.10033126
145	0xbe402b2f	-0.18766473
146	0xbc836078	-0.01603721
147	0xbdd4d23f	-0.10391664
148	0x3dfb3d7f	0.12267589
149	0xbb882149	-0.0041543585
150	0xbd4fb379	-0.050708268
151	0x3d16ea95	0.03684481
152	0xbd954c29	-0.07289917
153	0xbaff4118	-0.0019474356
154	0x3d8a9e48	0.06768471
155	0x3d9ccc41	0.07656146
156	0xbddc8f63	-0.10769536
157	0x3d93a2e4	0.07208803
158	0xbe0913bc	-0.13386434
159	0x3d312f26	0.043257855
160	0xbda805d6	-0.08204238
161	0x3cb12286	0.021622907
162	0xbdabea08	-0.08394247
163	0x3dd90160	0.105959654
164	0x3d182037	0.037140097
165	0x3b843da3	0.004035668
166	0x3e1394b3	0.14412193
167	0xbe00e5ff	-0.12587737
168	0xbda0eb96	-0.078574345
169	0x3da9f4c4	0.082986385
170	0x3d83d81d	0.06437705
171	0x3d61c37b	0.055118065
172	0xbcf2dcf6	-0.029646378
173	0xbd4b9c84	-0.04970981
174	0x3de349b4	0.11098042
175	0x3ccda7c7	0.025104417
176	0xbe05e522	-0.13075688
177	0x3de8ec67	0.11373215
178	0x3bc430ea	0.0059872763
179	0xbdff3624	-0.124614984
180	0xbd45d22f	-0.04829615
181	0xbdc5e197	-0.096621685
182	0xbd5287f6	-0.051399194
183	0x3cc255f0	0.023722619
184	0xbd29d393	-0.04146154
185	0x3d79f596	0.061025225
186	0xbda4eb31	-0.08052672
187	0x3e1215c3	0.14266114
188	0xbdd231a3	-0.10263374
189	0xbdea1e18	-0.11431521
190	0xbbd03925	-0.0063544684
191	0x3dd65e96	0.104672596
192	0xbd1286b4	-0.035772994
193	0xbdb745fb	-0.089488946
194	0x3dc3fb53	0.09569421
195	0x3da89ba3	0.0823281
196	0xbcde1915	-0.02711157
197	0xbdc23975	-0.09483615
198	0x3d4d15db	0.05006967
199	0x3bf9bebb	0.007621614
200	0x3db9d092	0.09072985
201	0xbdc8e71b	-0.09809705
202	0xbd0139c8	-0.031549245
203	0x3e05e003	0.13073735
204	0x3d970315	0.07373635
205	0xbd80e682	-0.06293966
206	0xbd32b95e	-0.04363381
207	0x3dc1293a	0.094316915
208	0x3d5247fd	0.051338185
209	0xbde241db	-0.11047717
210	0x3d56900a	0.05238346
211	0xbc83033a	-0.01599275
212	0x3dd3cfc2	0.10342361
213	0xbdb3e622	-0.08784129
214	0xbd80082d	-0.062515594
215	0x3e02d546	0.1277667
216	0xbd1419c6	-0.036157392
217	0xbde60fe9	-0.11233503
218	0x3d8c9cdf	0.06865858
219	0x3ba36245	0.00498608
220	0x3d2e73ec	0.04259102
221	0xbd21c10b	-0.03949074
222	0x3dc1c94f	0.09462225
223	0xbc35d886	-0.0110989865
224	0xbc821c3e	-0.015882608
225	0x3d8c592a	0.06852944
226	0xbc686933	-0.014185238
227	0xbdf4c9bf	-0.119525425
228	0x3c9933e8	0.018701509
229	0x3d8f6f36	0.07003634
230	0xbd46c7d4	-0.048530415
231	0xbd891e5d	-0.066952445
232	0x3de1607c	0.11004731
233	0xbd7f3592	-0.062306948
234	0x3cfcb0a5	0.03084595
235	0x3d5c8e52	0.053846665
236	0x3da49dee	0.08037935
237	0xba952f28	-0.0011381852
238	0x3d18ea9a	0.03733311
239	0x3e04e992	0.12979725
240	0xbcbd9c12	-0.02314571
241	0xbc8fc908	-0.017551914
242	0x3de1f1aa	0.11032422
243	0x3d8567a2	0.06513907
244	0x3e076915	0.1322368
245	0xbdda23c3	-0.10651352
246	0xbd5fbcce	-0.054623418
247	0xbdd335f2	-0.103130236
248	0xbd24c096	-0.040222727
249	0x3de664a6	0.11249666
250	0xbd18bdd7	-0.03729042
251	0xbd37a416	-0.04483422
252	0xbd4543e5	-0.048160452
253	0x3db435f0	0.0879935
254	0xbdcc3f3a	-0.09972997
255	0xbd9f31e3	-0.07773187

lstm.weight_hh_l1 f4 [256, 64]
0	0xbdf0f223	-0.11764934
1	0x3c1e60c5	0.009666626
2	0xbe00a503	-0.12562947
3	0xbd9fa955	-0.077959694
4	0xbda7dfca	-0.08196981
5	0xbdd29df9	-0.10284037
6	0xbd77db04	-0.060511604
7	0x3d91f7ac	0.07127318
8	0x3da7d88f	0.08195602
9	0x3de08f10	0.10964787
10	0xbdd0c5cd	-0.101939775
11	0xbd94b2cb	-0.072606646
12	0x3b1bf851	0.002379913
13	0x3c16f3cf	0.009213402
14	0xbd533179	-0.051560853
15	0x3d9f9caa	0.07793553
16	0xbd0fb18e	-0.03508144
17	0x3dd96e88	0.10616785
18	0xbddf09a5	-0.108905114
19	0xbc2699d0	-0.010168508
20	0xbca7e4ca	-0.020494837
21	0xbd3abc44	-0.0455897
22	0xbd21270e	-0.039343886
23	0x3bb829ac	0.005620202
24	0x3de4e526	0.11176519
25	0xbd755568	-0.059895903
26	0xbd6635df	-0.05620372
27	0x3de1b2a3	0.110204004
28	0xbcf5f883	-0.030025726
29	0x3c6c1b9a	0.014410878
30	0xbdf3d667	-0.119061284
31	0x3d6c73ea	0.05772773
32	0x3d884492	0.06653704
33	0x3dcc9fc5	0.09991411
34	0xbd66580d	-0.056236316
35	0xbcca6fa3	-0.024711436
36	0xbbb73423	-0.005590932
37	0xbde7525f	-0.11295008
38	0xbe042659	-0.12905253
39	0xbe16e0f7	-0.14734255
40	0xbd534ab1	-0.051584903
41	0xbdb25290	-0.08707154
42	0xbc8ca7a9	-0.01716979
43	0xbe0efdc6	-0.13963994
44	0xbd929f89	-0.07159335
45	0xbd3b674f	-0.04575282
46	0x3d056769	0.032569323
47	0xbdf7ca71	-0.120991595
48	0x3cf65de7	0.030074073
49	0x3c563e64	0.0130763985
50	0xbdaa01c8	-0.08301121
51	0x3d83ce5e	0.06435846
52	0x3c8f1796	0.017467301
53	0x3d91f6c4	0.07127145
54	0xbca4e578	-0.02012895
55	0x3d8c03a3	0.06836631
56	0x3ddd120d	0.107944585
57	0xbdab77e3	-0.08372476
58	0x3de15bb4	0.11003819
59	0xbde31293	-0.11087527
60	0xbdae0cda	-0.08498545
61	0x3df82e8c	0.12118253
62	0xbd8d2912	-0.06892599
63	0x3d8fd394	0.07022777
64	0xbdb4b72b	-0.08823999
65	0x3dd1f791	0.10252298
66	0xbd60e359	-0.054904316
67	0x3df7d0a6	0.121003434
68	0xbda069e9	-0.07832701
69	0x3cb19479	0.021677243
70	0xbd9aa2dd	-0.07550595
71	0xbdca0702	-0.09864618
72	0xbdcca304	-0.0999203
73	0x3d899407	0.06717687
74	0x3e05d4cc	0.13069457
75	0x3b832022	0.0040016333
76	0x3dfd94d8	0.12381905
77	0xbdaf391b	-0.08555814
78	0xbd88da22	-0.066822305
79	0x3d28c931	0.041207496
80	0xbd9f2855	-0.077713646
81	0xbc9d5ff5	-0.019210795
82	0xbdf48821	-0.11940027
83	0x3d5106c0	0.051031828
84	0xbda6028e	-0.08105956
85	0x3d0f310a	0.034958877
86	0x3d3b7457	0.045765247
87	0x3d20d4c7	0.03926542
88	0xbe109259	-0.14118327
89	0xbd441e5c	-0.047880515
90	0x3da2d480	0.079506874
91	0x3e04713b	0.12933819
92	0x3de5427b	0.11194321
93	0x3d4b0ca9	0.04957262
94	0x3dac77ab	0.08421262
95	0xbe12f877	-0.14352594
96	0xbde7f4ae	-0.11325966
97	0xbb69ecff	-0.003569424
98	0xbdaeb74a	-0.08531053
99	0xbbde93d2	-0.006792524
100	0x3e0a566e	0.13509533
101	0xbde5f142	-0.11227657
102	0xbb1a1aa7	-0.0023514421
103	0x3d802429	0.06256897
104	0x3d68f965	0.056878466
105	0xbd382b3f	-0.044963118
106	0xbd8168d2	-0.06318821
107	0x3de2409b	0.11047479
108	0x3c28b3a6	0.010296738
109	0xbd7839b6	-0.060601912
110	0x3cd6864c	0.026187085
111	0xbce543f2	-0.0279865
112	0x3d9ec8ae	0.0775312
113	0xbccfa364	-0.025346465
114	0x3d3a7590	0.045522273
115	0x3e10bbc0	0.14134121
116	0x3de94007	0.11389165
117	0xbb90550c	-0.0044046696
118	0x3dc66804	0.09687808
119	0x3dce698e	0.10078727
120	0x3c3124d5	0.010812004
121	0x3dee2161	0.1162746
122	0x3dab01e5	0.08349971
123	0xbe00ec70	-0.12590194
124	0xbab93567	-0.0014130295
125	0xbdad2beb	-0.08455642
126	0xbce0544f	-0.027383951
127	0xbdd8217a	-0.1055326
128	0x3d40d197	0.04707488
129	0xbda92577	-0.08259099
130	0x3d377b63	0.044795405
131	0xbd7e1f7b	-0.06204174
132	0x3cd62aa8	0.026143387
133	0xbe0506f8	-0.1299094
134	0xbc954419	-0.018220948
135	0xbd9fd9cf	-0.078052156
136	0x3d9eff97	0.07763594
137	0xbddf33a1	-0.10898519
138	0x3e011036	0.1260384
139	0x3dc98367	0.09839516
140	0xbc72b988	-0.014814742
141	0xbdddcf0b	-0.10830506
142	0xbd954383	-0.072882675
143	0xbdf7981f	-0.12089562
144	0x3dcf58d6	0.10124366
145	0xbcf77642	-0.030207757
146	0x3dc08dd0	0.094020486
147	0xbc251ba7	-0.010077394
148	0x3ca6a4e2	0.020342294
149	0x3b83356c	0.004004171
150	0x3dfe0825	0.12403897
151	0x3dba2425	0.09088925
152	0x3d2fecf4	0.042950585
153	0xbddd04b5	-0.107919134
154	0x3db33151	0.08749641
155	0xbd12a042	-0.035797365
156	0xbd0fd29e	-0.03511297
157	0x3da3d1c4	0.07998994
158	0x3de1c039	0.11022992
159	0x3d9251ab	0.07144483
160	0x3dd3c6c4	0.10340646
161	0xbc02a0d8	-0.007972918
162	0xbddaa841	-0.10676623
163	0xbd2cefea	-0.042220987
164	0x3daf634f	0.085638635
165	0x3deec9b4	0.116595656
166	0xbd0b1f91	-0.03396565
167	0x3de16989	0.11006457
168	0x3cb15a8e	0.021649625
169	0xbdb2d426	-0.0873187
170	0xbdbe9cbf	-0.09307241
171	0x3cbd14c4	0.02308119
172	0xbd01e246	-0.03170993
173	0xbdf16e3d	-0.117886044
174	0xbe045ecf	-0.12926792
175	0xbd5828a1	-0.05277312
176	0x3dd24b8f	0.10268318
177	0xbdf94689	-0.12171657
178	0xbda08b43	-0.07839062
179	0xbce19df6	-0.027541142
180	0xbe025b2a	-0.12730089
181	0xbdcf0ba9	-0.10109646
182	0xbddf7be2	-0.10912301
183	0x3d12fbc9	0.035884652
184	0xbd9b2f41	-0.07577372
185	0x3ca6d29c	0.020364098
186	0xbd703d95	-0.05865248
187	0x3d2591d2	0.04042227
188	0x3dd84d35	0.10561601
189	0xbdac93f4	-0.08426657
190	0xbda1c51a	-0.07898922
191	0xbdc134a5	-0.09433869
192	0x3dcc3111	0.09970296
193	0x3c8b3c7c	0.016996615
194	0xbd39f31c	-0.045397863
195	0xbdaa18be	-0.083055004
196	0x3d733302	0.059374817
197	0x3c9d6e08	0.019217506
198	0x3dbbd209	0.091709204
199	0xbdb1b9ca	-0.086780146
200	0x3d8b0665	0.06788329
201	0x3d4e0dfa	0.050306298
202	0xbc8f39dc	-0.017483644
203	0xbde98fc9	-0.11404378
204	0x3dab9752	0.083784714
205	0x3dcfb860	0.101425886
206	0x3c77a1c9	0.015114256
207	0x3dbec15d	0.09314225
208	0x3ddbd03a	0.107330754
209	0x3d70e9b8	0.05881664
210	0xbe12a1c3	-0.1431952
211	0xbda8537e	-0.0821905
212	0x3c58b363	0.013226363
213	0xbdb18119	-0.086672015
214	0x3d64f619	0.05589876
215	0xbda35272	-0.079747096
216	0x3c81a64d	0.015826369
217	0xbdd5fba5	-0.10448388
218	0xbe044575	-0.12917121
219	0x3dc32353	0.09528222
220	0x3dc80137	0.09765857
221	0x3db957e6	0.090499684
222	0x3d1018f0	0.035180032
223	0xbb808f36	-0.003923322
224	0xbd910048	-0.07080132
225	0xbdbebb54	-0.09313074
226	0xbc9484bd	-0.0181297
227	0xbd177422	-0.036975987
228	0x3d7bff1d	0.06152259
229	0xbd53b0e7	-0.05168238
230	0x3ca3b587	0.01998402
231	0xbd4f321b	-0.050584894
232	0x3cfc122f	0.03077039
233	0x3c34ebc1	0.011042536
234	0xbca5fd8d	-0.020262504
235	0x3c8fb96b	0.017544469
236	0xbdd1d907	-0.10246473
237	0xbd183759	-0.03716216
238	0x3cda582f	0.026653377
239	0x3bb49e5c	0.005512042
240	0xbc2ec13d	-0.010666189
241	0xbdb6de49	-0.08929116
242	0xbdd4618e	-0.103701696
243	0x3dfb49d3	0.1226994
244	0xbd636e43	-0.055525076
245	0xbc177489	-0.009244093
246	0xbe075947	-0.1321765
247	0x3de8c4f7	0.11365693
248	0x3d3ab6e5	0.045584578
249	0x3cc83954	0.024441399
250	0xbde96480	-0.11396122
251	0xbdad6067	-0.08465653
252	0x3ddfb337	0.109228544
253	0xbb48f803	-0.0030665405
254	0x3db8e6d1	0.090284
255	0xbc885538	-0.016642198

lstm.bias_ih_l1 f4 [256]
0	0xbd747ea9	-0.059691105
1	0x3deb9816	0.115036175
2	0x3d837db7	0.064204626
3	0x3cf9f476	0.030512076
4	0x3c8e2679	0.01735233
5	0x3d533438	0.05156347
6	0xbd971d89	-0.0737868
7	0x3d76aab0	0.060221374
8	0x3d50e1ed	0.05099671
9	0x3da08895	0.07838551
10	0x3d8bab45	0.068197764
11	0xbdadf495	-0.08493916
12	0x3d3ba2fc	0.04580973
13	0xbdd3ea98	-0.103474796
14	0x3cf5c16d	0.02999946
15	0xbdcc5673	-0.099774264
16	0xbd05037e	-0.032474034
17	0xbdbbe6b4	-0.091748625
18	0x3d62f7fc	0.055412278
19	0x3d82e184	0.0639067
20	0xbc7ca382	-0.015419843
21	0xbd3b60d7	-0.04574665
22	0xbdb4d5f2	-0.08829869
23	0xbd9bd371	-0.076086886
24	0x3cfb7f80	0.030700445
25	0xbcfa58e1	-0.030559959
26	0xbdb05bb2	-0.086112395
27	0xbdec738b	-0.115454756
28	0xbc889781	-0.016673805
29	0x3b2d2d53	0.002642472
30	0xbd2daa0c	-0.042398497
31	0xbd0d8cf9	-0.03455827
32	0x3dd11ef4	0.10210982
33	0xbd9332d1	-0.07187427
34	0x3da408f7	0.080095224
35	0x3b32b80b	0.0027270343
36	0xbd0ed648	-0.034872323
37	0xbd4deb3c	-0.050273165
38	0xbd14e8ee	-0.03635495
39	0xbc0f06a7	-0.008729613
40	0xbdc841a3	-0.09778144
41	0x3dccb58c	0.09995565
42	0xbc619a47	-0.013769693
43	0xbd68de58	-0.05685267
44	0xbe07ed1f	-0.13274048
45	0xbd373935	-0.04473229
46	0x3d956871	0.07295311
47	0xbd07d326	-0.03316035
48	0x3d2e6022	0.04257215
49	0xbd50a027	-0.050933983
50	0x3da8d728	0.08244163
51	0x3d2ce1ba	0.042207457
52	0xbab31d25	-0.0013665302
53	0x3c573e49	0.0131374085
54	0x3deb3cff	0.114862435
55	0xbdd28697	-0.10279577
56	0x3d1b1188	0.037858516
57	0x3d946aa2	0.07246901
58	0xbcfa8a31	-0.030583473
59	0x3d925489	0.0714503
60	0x3ce6dc69	0.028181272
61	0xbd2d1e65	-0.042265315
62	0x3d525d12	0.05135829
63	0x3c810cab	0.01575311
64	0x3cbb799b	0.022885134
65	0xbd0f4307	-0.03497603
66	0xbd8ca489	-0.0686732
67	0xbda4a6b0	-0.080396056
68	0x3d1164a6	0.035496376
69	0xbd47fb88	-0.048823863
70	0xbd3bc0c9	-0.04583815
71	0xbd720770	-0.059089124
72	0xbd84517c	-0.064608544
73	0xbd61e061	-0.055145625
74	0x3d3ff418	0.046863645
75	0x3d87e3e8	0.066352665
76	0xbdf50ad3	-0.11964955
77	0x3b3dd087	0.0028963403
78	0x3d193535	0.037404258
79	0x3d838465	0.06421737
80	0x3d5039b7	0.05083629
81	0xbd2259d4	-0.039636448
82	0xbba27cfb	-0.0049587465
83	0xbcefd676	-0.029277068
84	0xbdd33a6c	-0.103138775
85	0x3d33235d	0.043734897
86	0x3ccc47d6	0.024936598
87	0xbd877257	-0.066136055
88	0x3d4abf90	0.049499094
89	0xbcfe29cb	-0.031025788
90	0xbcf37325	-0.029717991
91	0xbd6984f8	-0.057011575
92	0x3cef5b31	0.029218288
93	0xbc6551cd	-0.013996554
94	0x3cdb952e	0.026804533
95	0xbc973b26	-0.018460821
96	0x3a3763d4	0.00069957715
97	0xbc0574fc	-0.008145567
98	0x3c0a3f17	0.008437893
99	0x3c8ed067	0.017433358
100	0xbd9b682d	-0.07588229
101	0xbdab48d3	-0.083634995
102	0x3d631d3d	0.055447806
103	0x3de29799	0.11064071
104	0xbdb65596	-0.08903043
105	0x3ddd742c	0.10813174
106	0xbe034953	-0.1282094
107	0xbd75bc01	-0.059993748
108	0xbbd53f3b	-0.006507782
109	0xbdca7d60	-0.09887195
110	0xbd08ca6c	-0.03339617
111	0xbdcc725a	-0.09982748
112	0x3d2fec3f	0.04294991
113	0xbdb88db5	-0.090114035
114	0x3c885984	0.016644247
115	0x3ce105f7	0.027468665
116	0xbd06308a	-0.032761134
117	0x3e02f1db	0.12787573
118	0x3e03910e	0.12848303
119	0x3dbcc61f	0.09217476
120	0x3def6f76	0.11691181
121	0xbbe6ed5b	-0.007047338
122	0x3d065671	0.03279728
123	0xbcbc05b3	-0.022951936
124	0x3d31071e	0.043219678
125	0x3dc5dbe4	0.096610814
126	0xbe0eb73c	-0.13937086
127	0xbbbf7eb0	-0.0058439597
128	0x3defa14c	0.11700687
129	0xbd309145	-0.04310729
130	0xbd6296bf	-0.055319544
131	0x3ded82ef	0.11597239
132	0xbc02f01a	-0.007991815
133	0xbdcab2c2	-0.098973766
134	0x3cc6621d	0.024216706
135	0xbd33a4c8	-0.04385832
136	0xbd53b3ac	-0.05168502
137	0xbd6aa45f	-0.057285663
138	0xbc706ba2	-0.014674099
139	0xbd0ff22c	-0.035143062
140	0x3da6d1da	0.08145495
141	0x3dc4b768	0.096052945
142	0xbc0ec7eb	-0.008714656
143	0xbd474c3b	-0.048656683
144	0x3db00e81	0.085965164
145	0x3d6226fd	0.055212963
146	0x3d4b1985	0.049584884
147	0xbd8a05de	-0.067394
148	0x3bfbbe19	0.0076825735
149	0x3a65abce	0.00087612576
150	0x3dc2aa3b	0.09505125
151	0x3c9d6ce3	0.01921696
152	0x3ae9492c	0.0017798296
153	0xbe03643f	-0.1283121
154	0xbd11dce5	-0.035611052
155	0x3d5b0863	0.053474795
156	0xbd3e2bc2	-0.04642845
157	0xbd90c974	-0.07069674
158	0xbdf05169	-0.11734278
159	0xbdc3436b	-0.09534343
160	0x3cd71257	0.026253862
161	0x3cf58bc5	0.029973874
162	0xbd5409bc	-0.051767096
163	0xbda7a78f	-0.08186256
164	0x3de8e7b1	0.11372317
165	0x3db410a3	0.08792236
166	0x3db040cc	0.08606109
167	0xbd6fe41c	-0.05856715
168	0xbc7e2709	-0.015512236
169	0xbc0fa286	-0.008766776
170	0xbdba869c	-0.09107706
171	0xbcaca351	-0.02107397
172	0xbd953b04	-0.07286647
173	0x3dbb8c73	0.09157648
174	0xbca039c4	-0.019558795
175	0xbdfc2582	-0.123118415
176	0xbd51a4a0	-0.05118239
177	0x3d71e64f	0.05905753
178	0xbd018501	-0.031620983
179	0x3dc41422	0.095741525
180	0xbd3d3839	-0.046196196
181	0xbd27ab3e	-0.040934794
182	0xbd924a1a	-0.0714304
183	0xbc5372fb	-0.012905831
184	0x3d86f8c7	0.06590419
185	0x3d78a5ee	0.060705118
186	0x3dcc8413	0.09986129
187	0x3d3166eb	0.04331104
188	0xbd8515d0	-0.06498301
189	0xbdff9b8a	-0.124808386
190	0xbde4a6af	-0.11164605
191	0xbcb719a7	-0.0223511
192	0xbbefa01b	-0.007312787
193	0xbd0f0c83	-0.03492404
194	0xbd925a3f	-0.07146119
195	0xbdbb3181	-0.091403015
196	0x3d8a553e	0.0675454
197	0xbd2c2c77	-0.042034592
198	0xbd7f5413	-0.06233604
199	0x3c19f58a	0.00939692
200	0xbdd7cf51	-0.10537589
201	0x3dd3efa0	0.10348439
202	0x3dc87420	0.09787774
203	0x3bbf09c9	0.005830024
204	0x3dd3c0e6	0.10339527
205	0xbdd52254	-0.10406938
206	0x3c3f2572	0.0116666425
207	0x3d9d3d6e	0.076777324
208	0xbe0fb422	-0.14033559
209	0xbd63fb4c	-0.055659577
210	0xbdbaed0f	-0.091272466
211	0xbd842db6	-0.06454031
212	0x3df23fe2	0.11828591
213	0xbce811be	-0.028328773
214	0xbb8dea0e	-0.00433088
215	0xbd860c02	-0.06545259
216	0xbd58b622	-0.05290807
217	0x3d1e6408	0.038669616
218	0xbda9c96e	-0.08290373
219	0x3c4a199d	0.012335208
220	0x3dc68a07	0.096942954
221	0xbd360a0d	-0.04444318
222	0x3c877dd5	0.016539494
223	0x3d8d3022	0.06893946
224	0x3dd3d4c2	0.10343315
225	0xbcf5f197	-0.030022426
226	0x3da114e7	0.07865315
227	0x3da6090d	0.08107195
228	0xbdde7c71	-0.10863579
229	0xbdc41a31	-0.09575308
230	0x3d8b53c2	0.06803085
231	0x3d9c919e	0.07644962
232	0x3d6fc368	0.058535963
233	0x3d8376b8	0.06419128
234	0xbdadbdb8	-0.084834516
235	0xbd0343f4	-0.032047227
236	0x3c1208c3	0.008913222
237	0x3dd1db3d	0.102468945
238	0xbc8116a4	-0.015757866
239	0xbdc786f5	-0.09742538
240	0xbd9501eb	-0.072757564
241	0xbdb471a1	-0.088107355
242	0xbd2a84d5	-0.041630585
243	0x3ddbb2a7	0.107274346
244	0x3cc16c36	0.02361117
245	0x3d61909e	0.05506956
246	0xbd7743d2	-0.060367413
247	0x3dd1d0d8	0.10244912
248	0x3dc0d821	0.09416223
249	0x3df1e4bd	0.118112065
250	0x3cc19412	0.023630176
251	0x3c4c0938	0.01245337
252	0x3d931cd5	0.07183234
253	0xbd4216ca	-0.047385015
254	0xbda3b408	-0.079933226
255	0x3d4ece6a	0.05048982
