04_Models_Weekly/20250811_182936_HBEA_Weekly_WithSentiment/best_model.pth (torch, 278325 bytes, 11 tensors)

lstm.weight_ih_l0 f4 [256, 63]
000000 32 f7 cc 3d bc 24 db 3d c2 cd c3 bc 00 5c c6 3d
       0.10008086 0.10700366 -0.023901824 0.09685516
000010 8a 15 0a bd 38 a2 ce 3c 10 45 79 bd fe 10 49 3d
       -0.033711948 0.025223836 -0.06085688 0.04908847
000020 5e bf df 3d d5 a9 e6 bd 12 17 d4 3d 1e a9 d9 3c
       0.10925172 -0.11262862 0.10355963 0.0265699
000030 91 cb ac 3d 3e a8 6a 3c 93 e2 24 3d 1e 28 8c bd
       0.08437265 0.014322339 0.04025514 -0.06843589
000040 92 f0 be 3d de 44 65 3d 93 09 84 bd 68 e7 fc 3c
       0.09323229 0.05597388 -0.06447139 0.030872062
000050 10 54 b0 bd 33 83 b3 bb 1e a2 6a bd 02 44 00 3e
       -0.08609784 -0.0054782867 -0.057283513 0.12525943
000060 13 85 d4 bd 92 63 e6 bd ec c1 ac bc 20 b4 16 be
       -0.103769444 -0.1124946 -0.021088563 -0.1471715
000070 3d 4d 82 3d 9d 62 57 bd a9 53 36 3d 93 bf 32 be
       0.06362388 -0.05258428 0.04451338 -0.17455892
000080 2a 28 c0 3d ca bf 31 3e de d6 f4 39 8c b6 98 3d
       0.09382661 0.17358318 0.00046699395 0.07456693
000090 af 56 47 bd ed ef eb 3d 08 02 67 bd b9 b6 83 bc
       -0.048666652 0.115203716 -0.05639842 -0.01607834
0000a0 36 b2 2f 3e c5 1e db bd c4 d1 e9 3c 9b 36 51 3d
       0.17157826 -0.10699228 0.028542407 0.051077466
0000b0 50 ba aa 3c f5 33 ea bd 4f ea e4 3b 0e 39 bb 3c
       0.020840794 -0.11435691 0.0069859396 0.022854354
0000c0 83 52 6c 3d 76 02 13 be b6 90 02 be f5 ff 45 bd
       0.057695877 -0.14356408 -0.12750515 -0.048339803
0000d0 f6 5c c7 bd cf 9a 63 3d d4 7a 0b bb 0d 90 3d 3d
       -0.09734528 0.05556756 -0.0021282928 0.046279956
0000e0 7b de 73 3c 43 76 a1 3d 1c fb 3f 3d 19 4f c1 bd
       0.014884586 0.07883885 0.046870336 -0.09438915
0000f0 20 a4 5b 3c 9c c9 bd bd 8b b0 43 3d ce ac 29 bd
       0.01340583 -0.092669696 0.047775786 -0.041424565
000100 0a aa 0f 3d d7 0d 91 bd 5b b2 67 3d 7e 0b 31 bd
       0.03507427 -0.07082718 0.056566577 -0.04322385
000110 8a ad 98 bd e6 af 98 bd 55 48 f3 3d fc 67 12 3c
       -0.07454975 -0.07455425 0.118790306 0.008935925
000120 ec 69 d7 3d 1d 8c c1 bd 83 c0 f8 bd 4a 4a 10 be
       0.1051825 -0.094505526 -0.12146094 -0.14090839
000130 d1 04 93 bd bf 0c 76 3d d5 1b 46 3d ed cd 23 3e
       -0.07178653 0.06007075 0.048366386 0.15996523
000140 61 68 85 bd 55 6f a1 bd 37 c6 42 3d 03 35 8a bd
       -0.06514049 -0.07882563 0.047552314 -0.067483924
000150 75 68 61 3d 94 61 34 bd 8b 83 64 3d 94 35 11 be
       0.05503126 -0.04403837 0.05578951 -0.14180595
000160 94 73 69 bd 37 5c 11 3d e4 8e cc 3c 5a c7 ab bd
       -0.05699499 0.035488334 0.02497048 -0.08387633
000170 fd 2b 80 3b cb 76 aa 3d 25 36 bd bd 4d d4 d6 bd
       0.003911494 0.08323439 -0.09238843 -0.10489712
000180 95 bb af 3d 13 7a b0 bd 53 ea a8 bd 9b 62 ff bd
       0.085807 -0.08617034 -0.08247819 -0.124699794
000190 cb f8 97 bd fa fc e1 3c 41 38 8c bd 92 4a 1b be
       -0.074205 0.027586449 -0.06846667 -0.15165165
0001a0 ae 9d ba 3b d1 b7 ab bd 44 bd d3 bb 0d 8b ab bd
       0.0056950664 -0.083846696 -0.006461771 -0.08376131
0001b0 6a c6 96 bd c4 ca bb bc 19 12 f1 3d 25 88 b6 3d
       -0.07362063 -0.022923835 0.1177103 0.08912686
0001c0 f4 54 3b 3d 9d a7 07 be 0c 02 bf bd 93 35 47 bd
       0.045735314 -0.13247533 -0.09326562 -0.048635077
0001d0 29 47 05 3e e5 06 7d bc f6 c5 2e bd 00 65 9c bd
       0.13015427 -0.015443538 -0.04266926 -0.07636452
0001e0 40 67 63 bd 19 b1 c3 bd ba dd 96 bc e2 06 f5 bd
       -0.05551839 -0.09555263 -0.018416274 -0.119642034
0001f0 e1 05 c6 bd ac 6a da bd 33 cd 0a bd 71 f9 b4 bd
       -0.0966909 -0.10664877 -0.0338871 -0.0883664
000200 93 ae 2c 3e f6 05 39 3d 38 e3 0d 3e b0 87 1f 3d
       0.1686347 0.0451717 0.13856208 0.03894776
000210 b0 c7 d8 bd 2d ed aa 3d be fe c0 bc 53 90 11 bc
       -0.10584962 0.08346019 -0.02355897 -0.008884507
000220 e1 3a 7b bd 0c 3d 07 be 30 c2 16 3c c4 0f 36 3c
       -0.06133545 -0.13206881 0.009201571 0.011112157
000230 6c dc a4 3d 9b f2 91 bd 0b 7a eb 3d d7 75 2d bd
       0.08049855 -0.071263514 0.11497887 -0.04234871
000240 46 f4 d7 bb 17 e0 81 3d da f7 d6 3d 3a dd 03 3e
       -0.006590399 0.0634157 0.10496493 0.1287736
000250 3d c7 de 3d 8c 85 99 bd 87 95 d2 3c fa 3a c3 bc
       0.108778454 -0.07496175 0.025706066 -0.023831833
000260 d2 d7 1f bd c2 5b 56 bd b8 2f f9 3d f3 51 37 bd
       -0.03902418 -0.0523336 0.12167305 -0.044755887
000270 57 73 dd 3d 81 99 ae 3d ee 8f 24 3d d1 08 f8 3c
       0.10813015 0.08525372 0.040176325 0.030277641
000280 46 45 f0 3d da 64 dd 3c 6c 55 76 3d 0b bc 0a be
       0.11731963 0.027025629 0.06014006 -0.13548295
000290 73 1a bb 3d 41 3b 42 bc 96 05 9d bd 94 d0 0b 3e
       0.09135904 -0.011854948 -0.07667081 0.13653785
0002a0 81 4f 24 3c 22 44 e9 bd 24 14 9f bd 1f 22 e9 bc
       0.010028721 -0.113899484 -0.077675134 -0.028458653
0002b0 9e d3 65 3d 77 dd 4a bc 8b a7 09 be 5e ee 95 bc
       0.056110017 -0.012381903 -0.13442819 -0.018302139
0002c0 db 18 9c bd cd 99 3c 3d 17 27 c8 3d 43 2c 0b be
       -0.07621928 0.046045113 0.09773081 -0.13591103
0002d0 72 56 3e 3c 7a fc 78 3d 11 da 1d bc d2 0a 54 bd
       0.01161729 0.060787655 -0.009634511 -0.05176813
0002e0 e5 bd 0b 3e cb 4a 94 3d f5 e5 65 3d 06 c7 9e bc
       0.13646658 0.07240828 0.056127507 -0.019382011
0002f0 57 fe 9d bc b8 c7 79 bc bc c3 33 bd 47 3e dc bd
       -0.019286318 -0.015245371 -0.04388784 -0.10754066
000300 05 19 67 3b 51 86 a1 3d 20 bf 4a bc 38 45 e5 bc
       0.0035262716 0.07886947 -0.012374669 -0.027987108
000310 be 97 43 b9 35 4f a5 bc c6 34 4e 3b 0c d0 e9 3b
       -0.00018653178 -0.02017937 0.003146456 0.007135397
000320 55 75 da bd 14 f1 e7 bc 77 34 c4 3d d4 c0 b6 3c
       -0.106669106 -0.028313197 0.095803194 0.022308744
000330 c6 e9 11 bd a2 1f eb bd 0e 69 06 be ff 05 f6 bd
       -0.035623334 -0.11480643 -0.13126013 -0.120128624
000340 90 f1 a1 bd d1 48 5c 3c 38 a5 73 3d 78 2b e3 3c
       -0.079074025 0.013445095 0.059483737 0.027730688
000350 b4 5b 28 be a9 62 0e be 5f 0d c6 bd 2c eb 97 3d
       -0.16441232 -0.13904823 -0.09670519 0.07417902
000360 c0 bf 69 bd 26 18 78 3c 41 49 57 3c 15 00 f7 bd
       -0.057067633 0.015142476 0.013140024 -0.120605625
000370 94 98 1d be 78 65 c8 3c c7 f6 03 be 94 bc cc bd
       -0.15390235 0.024462447 -0.12887107 -0.09996906
000380 f5 b5 43 be 3b 3e a8 3c a1 76 44 3d 42 97 df bc
       -0.1911238 0.020537486 0.047964696 -0.027293805
000390 5c cc 2e be 38 0a 63 be 9b ae b1 bd 5c f6 87 3d
       -0.17070144 -0.22171867 -0.086758815 0.06638786
0003a0 db f6 13 3d 1a a6 c3 3d e6 8d 7d 3d 41 ec ff 3c
       0.03612409 0.09553166 0.061902903 0.031240584
0003b0 a4 f8 d1 bc b6 0f 9e bd c8 bd b8 bd f7 80 13 be
       -0.025631256 -0.077178404 -0.09020573 -0.14404665
0003c0 30 2c 8c 3c 2b 66 c1 bd 1a b3 0b bd 35 c6 48 bd
       0.017110914 -0.09443315 -0.03410635 -0.04901715
0003d0 69 85 49 bd 80 fb e3 bd f8 51 82 bd 27 18 82 3c
       -0.049199495 -0.11131954 -0.063632905 0.015880657
0003e0 c4 02 b6 bd 2c bc 75 3d fb a9 ab bd 0d 11 d0 bd
       -0.08887246 0.059993908 -0.083820306 -0.10159502
0003f0 80 4a c9 3b 1b 55 03 bd a4 35 71 3c 6e 33 95 bd
       0.0061429143 -0.032063585 0.014722262 -0.072852

lstm.weight_hh_l0 f4 [256, 64]
000000 05 8d 05 bd f7 dd ae bd 95 ca fb 3d cb 45 19 bc
       -0.03260519 -0.0853843 0.12294499 -0.009355019
000010 8c 53 42 bc 53 ad 24 3d 35 7b 9a bd 94 95 ea 3d
       -0.011860739 0.040204357 -0.07543031 0.11454311
000020 b9 e4 18 3e 7e a7 03 3e 24 b3 21 be b2 09 05 3d
       0.14931001 0.12856862 -0.15790993 0.03247995
000030 02 b2 81 bb 47 a3 14 bd 32 92 f2 bc 8c ed f6 bd
       -0.0039579878 -0.036288526 -0.029610727 -0.12057027
000040 9e 84 a6 3c 2b b0 ee 3d 8e c0 14 3d 37 24 27 3d
       0.020326909 0.11654695 0.036316447 0.04080602
000050 7f 90 f3 bc e9 60 6b bd 36 f9 4b 3e 23 ff 9a bd
       -0.029731987 -0.057465468 0.19919285 -0.07568195
000060 f5 fd 69 be 38 c0 64 3d ef 8f 42 bd 18 e5 04 bd
       -0.22850783 0.055847377 -0.047500547 -0.032445043
000070 cc 1b 33 3c 23 c3 d1 3c 9d c9 e5 bc ed 45 9f 3c
       0.01093192 0.025605744 -0.028050238 0.019442523
000080 7d 28 45 bc 50 92 89 bd 2f be a1 bd f1 23 c5 bd
       -0.012033579 -0.0671736 -0.07897603 -0.09625996
000090 22 5b 9e 3d 07 6b eb bd e9 c0 08 be 86 af f5 bc
       0.07732226 -0.11495023 -0.1335484 -0.029990923
0000a0 a0 5f a0 3d c5 28 50 3d 1e e3 04 be 51 2e f1 3d
       0.07830739 0.05082013 -0.12977263 0.11776412
0000b0 43 a7 75 bd 2f e7 d1 3c 51 a6 7d 3d 63 80 71 3d
       -0.059973966 0.025622932 0.06192619 0.05896033
0000c0 1f eb a7 bd 0e c8 b0 3c 5c 29 9f bd d4 dc e6 3c
       -0.08199143 0.021579769 -0.077715605 0.02818147
0000d0 6d 87 39 bc 3b ba 5c bc 13 b6 b5 3c 93 42 1c 3c
       -0.011323792 -0.013472135 0.022181546 0.009537357
0000e0 ed 0b 10 3e b5 84 7c 3d 17 8c 83 3c aa 72 a0 bc
       0.1406705 0.061649997 0.016058011 -0.019585926
0000f0 4b 85 f4 bc f0 56 12 3e f7 17 e7 3d 43 a3 a8 3d
       -0.029848715 0.14290977 0.11283868 0.08234265
000100 1b 3b 6b bd 75 06 98 3d df 60 2c 3e cd cc b4 bc
       -0.057429414 0.074231066 0.16833828 -0.022070313
000110 9d 57 6a 3d 6e c5 03 be e6 48 46 3d cf f7 7a bc
       0.05721246 -0.12868282 0.048409365 -0.015317871
000120 e5 69 01 3e 43 f2 a7 bd 22 f6 06 3e bb eb 72 bd
       0.12638052 -0.08200505 0.1317983 -0.05930684
000130 77 23 4e 3d 2a 4f e5 3d 9e 30 fa bd c7 cd 5c bb
       0.05032679 0.1119674 -0.12216304 -0.0033691989
000140 c8 86 18 be c1 92 31 be 94 da 5f 3d 49 33 20 bd
       -0.14895165 -0.17341138 0.05465181 -0.03911141
000150 38 6e b8 3d c8 f9 f6 3c e0 af 32 3d 43 72 d9 3d
       0.090053976 0.030148402 0.04362476 0.10617497
000160 e2 2f cd bd e5 10 8b 3d 5c 97 11 3d bf 02 9f bd
       -0.100188985 0.06790332 0.03554474 -0.07764196
000170 be 27 ad 3d 10 5e d3 bd 56 fd dc bd d1 57 28 bd
       0.08454846 -0.103206754 -0.107905075 -0.041099373
000180 24 7c 83 bb 1f 3c 23 bc b3 9f b8 3d 2a a3 69 bd
       -0.0040126015 -0.009963064 0.09014835 -0.05704037
000190 ae ca 23 3d 34 a6 ad bc dc 7c be 3d 48 0a 55 3d
       0.039988212 -0.021197416 0.09301159 0.052011758
0001a0 bd 67 a3 bd 30 00 45 be fe 55 02 3e 48 80 9f 3d
       -0.07978771 -0.19238353 0.12728116 0.077881396
0001b0 fb 96 15 3e 0e 36 7e bd ec 6e ae 3b 0f d0 95 bc
       0.14608376 -0.06206327 0.0053232815 -0.018287687
0001c0 4a 4f a7 bd 78 0c ae bd d2 86 de 3d e9 33 b2 3d
       -0.0816942 -0.08498472 0.10865559 0.08701307
0001d0 4c 21 34 3d f5 aa 53 be fd 7c bd 3d d9 5c b3 3d
       0.043977067 -0.20670684 0.09252355 0.08757944
0001e0 c6 83 fe 3c a2 75 08 3d 24 41 b7 3c 8f 54 3d 3d
       0.031068694 0.03331531 0.022369929 0.04622322
0001f0 79 bc 3a bc 21 41 65 be b1 82 23 be d4 21 c6 3d
       -0.011397474 -0.22388126 -0.15967824 0.09674421
000200 1a ee 1e bd 91 61 a6 bd f1 7a ec 3d ec ba f8 bd
       -0.03880129 -0.08124078 0.11546887 -0.121450275
000210 49 5f 1e be e2 58 db bd 8c a8 b8 3d 88 0c 63 3d
       -0.15466036 -0.107103124 0.09016523 0.055431873
000220 82 1f 74 bc 9d 2c 74 3c 7f f1 c0 3d df 60 89 bd
       -0.01490009 0.014903215 0.09421062 -0.0670793
000230 5c bc 87 3b 9c ed 71 bd a8 5e b6 bc 66 ad 72 bc
       0.0041423272 -0.059064493 -0.022261932 -0.014811849
000240 7e aa e8 bc 7d dc 6f 3c cf b5 6b 3d 60 51 0d 3e
       -0.02840161 0.014639971 0.057546433 0.13800573
000250 ed fb ed 3d a5 44 0a 3d 79 02 e0 3d a7 b0 6b bb
       0.11620317 0.03375687 0.109379716 -0.0035963447
000260 5d fb 19 3e 2d 6f ca bd 20 cd da bd d1 c3 3d be
       0.15037294 -0.09884486 -0.10683656 -0.1853173
000270 a9 0f e1 bd be 37 73 ba fc 35 db 3d 74 af 9e bd
       -0.10989315 -0.00092780206 0.10703656 -0.07748309
000280 f8 1b a9 3d 78 13 d4 bd 76 a9 a1 3d 82 63 fe bd
       0.08257288 -0.10355276 0.0789365 -0.12421323
000290 ff 03 9f 3d 89 d3 4e be 90 ea 0a 3d 2a a3 cf bd
       0.07764434 -0.20197882 0.033915102 -0.10138543
0002a0 dd 94 2a be ee 0d 21 bd a9 c7 bf 3d 84 24 0b 3e
       -0.1665835 -0.039319925 0.09364254 0.13588148
0002b0 5c 50 07 3e 13 3a 21 be 0f 2b 14 3d 31 07 3b 3c
       0.13214248 -0.1574481 0.036173876 0.011415289
0002c0 77 46 71 3c f4 39 03 be d7 ae 0f be e6 2b e4 bd
       0.014726273 -0.12815076 -0.1403154 -0.111411855
0002d0 da 0d 7c 3d 34 44 af 3d 06 96 79 3d 01 35 1a 3e
       0.061536647 0.085579306 0.06093409 0.15059282
0002e0 02 f1 65 bd 76 9e 5f 3d f4 3e 00 3e 4d b5 47 bd
       -0.056138046 0.05459448 0.12524015 -0.048756886
0002f0 00 11 23 3d a6 72 95 bd 10 1f 4b 3d f2 78 ad 3d
       0.039811134 -0.07297258 0.04959017 0.08470334
000300 f7 3b a9 bc 6b 6c 13 3e 7b 20 a7 3c cd fd 72 3d
       -0.020658476 0.14396827 0.02040123 0.059324075
000310 67 39 10 bc 28 67 a4 3d 1e c6 d8 bd d6 44 c3 bd
       -0.008802748 0.08027488 -0.10584663 -0.09534614
000320 fc 2a 6a bd e5 fc 0e bd 8e 97 0a 3e 2d 7d c0 3d
       -0.0571699 -0.034909148 0.13534376 0.093988754
000330 b9 98 52 bd 5b 61 d8 bc 6d 2a 15 bd f1 6c ca 3d
       -0.05141518 -0.02641361 -0.036417414 0.0988406
000340 fe 14 66 3d a8 b9 16 3d 1f 17 c5 3d de 11 f1 3b
       0.056172363 0.03679815 0.096235506 0.0073568663
000350 e8 0e e5 3d 5c ed 05 bc b6 3c bf 3d da 2b bb 3d
       0.11184484 -0.008174267 0.093377516 0.091392234
000360 f8 25 f1 3c 1d 98 21 bb 6b e4 79 bc cc 6b c2 3d
       0.02943705 -0.0024657317 -0.015252213 0.09493217
000370 27 07 be bc 3a e3 31 3e 88 12 ed 3d 0c 72 e7 bb
       -0.02319677 0.17371836 0.115758 -0.007063156
000380 16 de 94 bd 09 cb 73 3d 95 ad 55 bd f9 82 42 bd
       -0.07268922 0.0595198 -0.052167494 -0.047488187
000390 07 f3 13 bc ee ea 51 bc 00 22 22 bd 6b 96 a3 bd
       -0.00903011 -0.012812359 -0.039583206 -0.07987674
0003a0 15 b1 00 3d 1f 7d 09 3b 91 02 c3 bd ba 07 65 bd
       0.03141888 0.002097912 -0.09521974 -0.05591557
0003b0 a6 b5 b0 3d 01 bb 31 bd 70 cb 14 3e 6d ff ce bd
       0.08628397 -0.04339123 0.1453073 -0.10107312
0003c0 5f 7a 40 3d 0d 77 81 3d 34 8e ba bd cf 60 f1 bd
       0.046991702 0.06321535 -0.09109154 -0.11786043
0003d0 84 fe ae 3d 24 4d 57 3d 3f 99 59 bc 11 9e 77 3d
       0.08544639 0.0525638 -0.013281166 0.06045348
0003e0 96 72 df bc a4 d8 97 3c 79 75 8d bd 09 23 e1 bd
       -0.027276319 0.01853592 -0.06907172 -0.109930106
0003f0 10 1a 07 3c 9d 7a a9 3d 1b f2 15 be e8 98 ed 3d
       0.00824596 0.0827534 -0.14643137 0.1160143

lstm.bias_ih_l0 f4 [256]
000000 70 60 34 3c 91 25 e8 bd d5 db 33 bc 1e e1 80 3c
       0.011009321 -0.1133529 -0.010977705 0.015732344
000010 b2 03 96 bd de d5 d0 3d 3c 68 0d be 2a 2c 1e 3a
       -0.073249236 0.10197042 -0.13809294 0.00060338026
000020 4a b5 42 bd 73 af 7d bd e1 56 87 bb f1 9d 31 bd
       -0.047536172 -0.0619349 -0.00413023 -0.043363515
000030 4a cb e3 bc 73 af 2a 3d fc 5f a9 bc 59 7b ee 3c
       -0.027806897 0.041671228 -0.020675652 0.029111551
000040 43 ed b8 3d 92 f4 e2 3d 4f 1e b6 bc d6 6b bc 3c
       0.09029629 0.11081804 -0.02223125 0.023000639
000050 0e 95 3b 3d ee c9 a5 3c 87 c4 13 3d 8b 75 5f bd
       0.045796447 0.02023789 0.036076095 -0.054555457
000060 9f 8a 6e 3d 64 41 43 bd 63 6a 9e 3c cd c3 0f 3d
       0.058237668 -0.047669783 0.019337839 0.03509884
000070 ef f3 82 3d 9b c6 51 3d de f6 1d be d5 ba e4 bd
       0.06394183 0.051214796 -0.15426204 -0.11168448
000080 78 e5 0d 3d 86 d5 30 3d 47 ab c9 bd eb c7 df 3c
       0.034642667 0.04317238 -0.09847122 0.027317008
000090 7d 33 aa bd 17 17 ac bd 34 e7 9c 3d d7 db 8c bd
       -0.08310602 -0.084028415 0.07661286 -0.068778686
0000a0 da 34 7e bd 76 5e 0a 3e 9d bd b5 bd 4e ec d2 3a
       -0.062062122 0.13512596 -0.088740565 0.0016092153
0000b0 5e e6 a0 bd 87 2d d1 bd 4c 84 ff bb 76 09 d9 3c
       -0.07856439 -0.10213762 -0.0077977534 0.02649377
0000c0 4f 56 0f 3d 4f bb b7 ba 7f cc 5e 3d 51 64 81 bd
       0.03499442 -0.0014017614 0.05439424 -0.06317962
0000d0 ee 94 ed 3d bf e7 a0 bd 77 b9 c8 3d 5d 2d d9 bd
       0.11600672 -0.07856702 0.098009996 -0.106043555
0000e0 38 af 2f bd 3d 18 d5 bd c9 71 6e 3d 07 bf 88 3d
       -0.04289171 -0.10405014 0.058213983 0.066770606
0000f0 72 87 83 bd bc 3c c2 3d 14 6b 5d bc dc b3 d3 bc
       -0.064223185 0.094842404 -0.013514299 -0.0258426
000100 83 b9 a7 bd fd a4 d6 bd 85 f6 62 bd 68 2c 54 3c
       -0.081896804 -0.10480688 -0.05541088 0.01295004
000110 44 0f 14 be 2c 6b 7f bd 70 c4 0f be 38 a2 bc bc
       -0.14458948 -0.062358066 -0.14039779 -0.02302657
000120 8a 4b d6 bd 12 1a f4 bc 04 c9 95 bc a6 d4 39 bd
       -0.10463627 -0.029797588 -0.018284328 -0.045368813
000130 78 29 ac bd 8c 1a 6b bd ca a9 ef bc 40 98 13 3e
       -0.08406347 -0.057398364 -0.029255766 0.14413548
000140 15 94 59 3b 0b 03 c8 3d 47 78 4f 3d 84 58 96 3d
       0.0033199836 0.097662054 0.050651815 0.07341102
000150 c6 00 49 3d 1f dd da bc 75 6f fc 3d 3b 2d a6 bd
       0.049073003 -0.026716767 0.12325946 -0.08114096
000160 41 42 61 bd da 96 8c 3d 95 27 bf 3d 8b 7b 6f 3d
       -0.054994825 0.0686471 0.093337215 0.05846743
000170 50 cb c9 3d a6 42 ec bd 6e e3 88 3d de d3 af 3c
       0.09853232 -0.1153615 0.06684004 0.02146333
000180 9c 7a de 3c a0 ca fb 3d 0d 7e 17 bd 76 71 d4 bd
       0.027158074 0.12294507 -0.036985446 -0.103732035
000190 7a d3 b0 bd 82 6b 27 3e 87 b0 c6 bd 81 fa 13 3d
       -0.08634086 0.16349605 -0.09701639 0.03612757
0001a0 45 b4 6b bc 2e 3c c9 3d a9 f7 98 bd bd ba 2e 3e
       -0.014386241 0.098259315 -0.074691124 0.17063423
0001b0 46 11 d0 3d c8 f1 a5 bc f7 cf e6 bd b0 c6 85 bc
       0.10159545 -0.020256892 -0.11270135 -0.016330093
0001c0 df ce be bd 53 c6 4a bd 05 0a d8 bb cf 43 c4 3c
       -0.09316801 -0.049505543 -0.0065929913 0.023958115
0001d0 cd 8a 93 3d b2 d1 41 bc 28 f3 9b 3d f9 38 6c bc
       0.072042085 -0.01182978 0.07614738 -0.01441788
0001e0 2e 17 fc bd 94 55 af 3c 12 80 96 3d 63 8e f4 3d
       -0.12309109 0.021403112 0.07348646 0.119412206
0001f0 81 62 f3 bd ff 52 2e 3c 33 b0 87 bd fe 11 b0 bd
       -0.118840225 0.010639905 -0.06625404 -0.08597182
000200 76 4c 56 bd b3 49 c3 3d 68 10 9f bd 49 eb b1 bd
       -0.052319013 0.095355414 -0.07766801 -0.08687455
000210 c4 a9 64 bc ac c2 83 3c 36 83 d8 3d 4d 49 26 3d
       -0.013956491 0.016084038 0.105719015 0.04059725
000220 f3 7f b1 3d be f7 da 3c d2 46 d6 bd e7 d5 aa 3c
       0.086669825 0.02672946 -0.10462727 0.02085395
000230 d4 44 0a 3d d0 60 b5 bc f4 b7 b8 3c 7b 4e 8c bd
       0.033757046 -0.02214089 0.022548653 -0.068509065
000240 fb 2f e0 3d a1 56 c6 bd 2e 1f d8 3d 43 52 c4 3d
       0.109466515 -0.09684492 0.10552822 0.09586003
000250 85 49 a6 3d e1 8f 7d bc 76 6a f9 bd db 47 94 3d
       0.081194915 -0.015476198 -0.12178509 0.07240268
000260 dd a0 a0 bd c3 d8 c2 bd fa ce c0 3b eb 64 cb bd
       -0.07843182 -0.09514 0.0058840485 -0.09931358
000270 67 55 20 3b 16 06 cd 3d 27 3e 0e bc b7 80 c1 bc
       0.0024464966 0.100109264 -0.00868181 -0.023620946
000280 03 a0 62 bd e1 84 68 3d 8e f8 07 3d 8f af b2 3d
       -0.05532838 0.05676735 0.033196025 0.087248914
000290 ce 48 e6 bd 2a 58 01 3d 39 10 94 bd 87 dc 96 3d
       -0.11244355 0.03157822 -0.07229657 0.07366281
0002a0 14 a2 e3 bc 2f 11 db 3d b1 b3 09 bd db 7d f5 bd
       -0.027787246 0.10696637 -0.033618633 -0.11986896
0002b0 8c b4 8c bc 1d e3 bf 3d db d4 6e bd 3d b3 f1 3c
       -0.017175935 0.0936949 -0.058308464 0.029504413
0002c0 03 20 11 bd 9a c8 46 bd 2e df 32 3d 8b 82 41 bd
       -0.03543092 -0.048531152 0.043669872 -0.047243636
0002d0 34 6a a2 bd 71 63 ff 3d ee 00 c8 bd cf 82 a8 bc
       -0.07930413 0.12470139 -0.09765802 -0.020570187
0002e0 94 0e f3 3d 93 3d 6d bc 5f bd 62 3d 00 f8 d0 3d
       0.11868015 -0.0144800125 0.05535638 0.10203552
0002f0 f5 ba ad bc 48 38 11 bc e9 04 f5 bc 3c c5 72 3d
       -0.021207312 -0.008863516 -0.029909568 0.05927013
000300 7e ef 2f bc 9b bf c4 3d d5 f1 b2 3c 16 52 fd bd
       -0.010738252 0.09606858 0.02184383 -0.12369172
000310 c8 db d1 3d 5c 95 7f 3d 7d 3f 1b bc ea 65 91 bc
       0.10246998 0.0623983 -0.009475586 -0.017748792
000320 3e a2 62 3d 24 a3 6e bd 7f 95 6f bb 73 72 cf bd
       0.055330507 -0.05826105 -0.0036557612 -0.10129251
000330 3a 02 b0 bc d4 9a b2 bd 08 f5 e2 3d ed 42 89 bd
       -0.021485437 -0.08720937 0.11081892 -0.06702218
000340 3d c8 6b bc b4 ec 5b bd ae 39 94 3d f5 f1 69 3c
       -0.014391002 -0.053692535 0.07237564 0.014278878
000350 c1 52 4f bb c8 6c c2 3d c2 c1 0a 3e ac a6 e4 3d
       -0.0031635019 0.094934046 0.13550475 0.11164603
000360 df 09 77 bc a0 01 c7 bc 7a 07 28 3e 91 05 fe 3d
       -0.015078037 -0.024292767 0.16409102 0.124034055
000370 e6 d5 d2 3c d8 bb 17 bd 6e 7d 0f be 04 fe 81 3d
       0.02573676 -0.037044376 -0.14012691 0.06347278
000380 c4 fb 6c 3d ef 8f fa 3d 2a 29 a9 3c be 1f fb 3d
       0.05785729 0.122344844 0.020649511 0.12261914
000390 a7 02 c6 3b 42 91 2c 3d 2b be 8c bb 99 46 d7 3d
       0.0060427967 0.042130716 -0.0042951307 0.10511512
0003a0 0b 21 be 3d b9 21 0d 3e e2 c9 21 3c 66 c0 e8 3d
       0.09283646 0.13782395 0.009874793 0.11364822
0003b0 b6 58 dc 3c 27 4c 3d 3d 3d 64 1f 3d bc ec 56 bd
       0.02689777 0.046215203 0.038913954 -0.05247186
0003c0 94 da 7f 3c 91 f7 18 3d 72 0e 00 bd 1d ab ab bc
       0.015616078 0.037345473 -0.031263776 -0.020955617
0003d0 71 25 88 3c f6 3a e4 3d 8e a2 30 3e bf 6e 9b 3d
       0.016619416 0.111440584 0.1724951 0.075894825
0003e0 62 81 b2 3d aa 82 67 bd a0 6e 76 3d 29 d6 f8 3d
       0.08716084 -0.056521095 0.060164094 0.12150223
0003f0 9a 45 c5 3d 6d b7 3a bd 9c 5f 83 bd af 56 86 3d
       0.09632416 -0.045585085 -0.064147204 0.06559502

lstm.bias_hh_l0 f4 [256]
000000 1a 26 68 3b ef f2 ff bd 75 2d 3f 3d fa cb 31 3c
       0.00354231 -0.12497508 0.04667421 0.010851854
000010 c7 3f 1f bc e1 ea f6 3d cd aa 16 be 38 d2 42 3c
       -0.009719796 0.12056518 -0.14713593 0.01189094
000020 a3 ab 86 bd b9 d6 c2 3c 25 46 88 3c e9 ab 0a 3e
       -0.06575706 0.023784028 0.01663501 0.13542141
000030 3c 69 2d bd 35 77 c0 bd ee c3 a1 bd b9 25 a1 bb
       -0.042336687 -0.09397737 -0.07898699 -0.004917827
000040 de 7d be 3d 69 a8 52 3d fa 33 18 bd a4 57 bd 3c
       0.09301351 0.05143014 -0.037158944 0.02311308
000050 0c fd 72 3d bf 01 13 bb 21 51 f3 3c aa 9e b0 bd
       0.059323356 -0.002243146 0.029701771 -0.08624013
000060 cd 54 53 3d 4a b7 a7 bd d8 81 4f 3b f7 5a eb 3d
       0.051594544 -0.081892565 0.0031663086 0.114919595
000070 55 5f 6f 3d 98 36 b8 bd 65 85 76 bd d6 4b 79 3d
       0.058440525 -0.08994788 -0.06018581 0.06086334
000080 9a e7 1a 3e 2c f6 22 bc 4f 30 95 3d a6 8e cd 3c
       0.15127411 -0.009946387 0.07284605 0.025092434
000090 4f b9 b4 bd 0f c4 15 3d d8 33 e6 bd 7d 20 bb 3b
       -0.08824407 0.03656393 -0.11240357 0.00571066
0000a0 52 ec cd bd 94 af 56 bd f3 53 49 bd 09 f3 29 3d
       -0.1005484 -0.052413538 -0.049152326 0.041491542
0000b0 3d c8 d0 bd 8a e0 a1 bd 80 81 15 be 94 d7 09 be
       -0.101944424 -0.079041556 -0.14600182 -0.13461143
0000c0 4f 5c f9 bd 4e 55 43 bd 73 f9 65 3c 1a f6 e2 3d
       -0.121758096 -0.047688775 0.014036524 0.110820964
0000d0 08 ae e2 3c 8a 62 db bd 7d 04 14 3e b4 5e bf bd
       0.027670875 -0.10712154 0.14454837 -0.09344235
0000e0 d8 63 30 bd c8 53 27 3d d8 84 56 b9 cb f8 92 3c
       -0.04306397 0.040851384 -0.00020458119 0.0179409
0000f0 78 38 3b bc 3d 74 34 3d 67 4e d1 bd 7e 22 47 bd
       -0.011427037 0.044056166 -0.10220032 -0.04861688
000100 fb bc 8f 3c ba 84 83 3d 3e c9 17 bd 97 4c 1a 3d
       0.017546168 0.064218 -0.037057154 0.037670698
000110 96 69 a0 bc 6f bf a5 3d 02 b8 bb bd a0 4d 54 3c
       -0.019581597 0.08093154 -0.09165956 0.01295796
000120 92 b4 57 bc 6e 98 69 bd a4 1e 27 3e 47 9d ff 3d
       -0.01316561 -0.057030134 0.16320282 0.1248117
000130 30 01 4f 3d 29 12 d9 bd 8f 3d f9 3d 4b 32 25 3e
       0.050538242 -0.10599167 0.121699445 0.16132466
000140 58 01 36 3b ee a1 b2 bc 30 53 13 3e 01 d4 b4 bd
       0.0027771797 -0.02180573 0.14387202 -0.08829499
000150 18 17 fd 3d 2f 75 51 bd 29 c9 51 bd e4 61 3d bb
       0.123579204 -0.051137146 -0.051217232 -0.0028897459
000160 20 4b 82 3c 3d 7e 71 3d ff d1 27 3e f2 13 b6 3b
       0.015904963 0.05895828 0.16388701 0.005556577
000170 96 94 a4 3c e6 5f 28 bc 98 ed 08 be 76 0e d9 bd
       0.020090383 -0.01027677 -0.13371885 -0.10598461
000180 88 82 b6 b8 fe 55 06 bd b9 59 a1 3c 26 76 0f bd
       -8.7027496e-05 -0.032796852 0.019696103 -0.035024785
000190 c8 d0 f0 3d 77 68 dc 3d f2 46 bb bd da 83 84 bc
       0.11758572 0.107621126 -0.09144391 -0.016176153
0001a0 de ce af bd ec 70 9a 3d a1 ff ad bd c0 9c 24 3e
       -0.08584379 0.075410694 -0.08496023 0.1607542
0001b0 89 a0 6f 3d bf a5 93 bd e9 a4 3a bb b5 11 5f bd
       0.058502708 -0.07209348 -0.0028479642 -0.054460246
0001c0 3a ae 0d be 03 b9 32 bd c1 5d 2e bd d9 0a 27 3e
       -0.13835993 -0.043633472 -0.04256988 0.16312732
0001d0 21 60 1d bd 92 a3 76 3d 8f 82 8b 3b 27 e9 3f 3d
       -0.038421754 0.060214587 0.004257507 0.04685321
0001e0 29 9b b8 3d 71 0e cf 3d b8 9b 87 bd 17 e2 e0 3c
       0.090139695 0.10110176 -0.06621498 0.027451558
0001f0 94 6a c8 3c de 6b a4 3d d9 db 84 3c 73 90 8f 3d
       0.024464883 0.080283865 0.016218113 0.070099734
000200 6c 31 bd bd 69 55 07 3c 26 82 22 3d 57 5e d3 3d
       -0.09237942 0.008260109 0.0396749 0.10320728
000210 c8 5b 80 3d 42 9c 73 bd 82 d9 8b bc 00 78 a2 bd
       0.06267506 -0.05947519 -0.01707149 -0.079330444
000220 8e 1b 3c bc c0 dd 00 3c cb 93 f2 3d 76 3f ca 3d
       -0.011481179 0.007865369 0.118445955 0.098753855
000230 dd 72 98 bd 64 41 01 3e 1b 29 02 be 4f eb 19 3d
       -0.074437834 0.12622601 -0.12710993 0.037577923
000240 cf 33 6f 3d 3c 0a 63 3d 30 95 a0 3d 17 65 f0 bc
       0.058399018 0.055429682 0.07840955 -0.029345078
000250 29 4d ca 3d 90 49 02 3d b4 fe 0f bc d6 1d 68 bd
       0.098779984 0.031808436 -0.008788753 -0.05666908
000260 66 ad af bd 09 8b f4 bc e4 50 1a 3c ce d6 20 3c
       -0.08577995 -0.029851453 0.0094187 0.009816838
000270 38 91 26 bd c6 d2 bc bb 29 fc bf 3c d4 9b 6a bd
       -0.040665835 -0.005762431 0.023435669 -0.057277516
000280 1c 87 19 3b 4f cc bb bd ef c8 99 3c 7f 3f cf 3d
       0.0023426479 -0.09169828 0.01877257 0.10119533
000290 c1 5c 4b bd 97 2c 92 3d 0e 7b 03 bd 73 4a 4d bd
       -0.049649004 0.07137411 -0.032099776 -0.05011983
0002a0 76 e6 85 3d 27 42 01 be a5 8e b2 3d e2 08 ae 3d
       0.065380976 -0.12622891 0.087186135 0.08497788
0002b0 2a a9 28 3d 0a 9a e0 bc 62 f2 46 bd 21 9d 8e bd
       0.041176952 -0.027417202 -0.048570998 -0.06963564
0002c0 45 40 f8 3d b5 b2 81 3d 53 23 6f 3d ce f4 aa bd
       0.121216334 0.06332914 0.058383297 -0.08347474
0002d0 5e 50 a8 3d fd fd 88 bd 33 77 c3 3d d8 70 c5 3d
       0.08218454 -0.066890694 0.0954422 0.09640664
0002e0 f6 ec ef bd ec 5f f0 bd 6c ad cd bd 3a b2 62 bd
       -0.117151186 -0.11737046 -0.10042843 -0.05534575
0002f0 dc 36 85 3c 8b 3e c8 bd 8f 68 c9 3d 14 ca 8b bd
       0.01626151 -0.09777554 0.09834396 -0.06825653
000300 e3 56 0b bd 7a b9 2a 3c 8e 39 4e bd a3 41 ed bc
       -0.03401841 0.010420198 -0.050347857 -0.028961962
000310 54 02 dc bd 9e 10 a1 bd 21 66 21 bd 97 28 90 bd
       -0.107426316 -0.078644976 -0.03940404 -0.07038992
000320 18 03 6d 3d 77 a9 23 bd 16 89 c3 3d 65 ab dd 3d
       0.05786428 -0.039956536 0.095476314 0.108237065
000330 17 78 16 bd 4a da 65 3c d4 e3 2b 3d 91 18 01 bd
       -0.03673562 0.014029095 0.04196532 -0.03151757
000340 02 0e e1 3c 75 cb ab bc a9 83 9f bb da 07 ba bd
       0.0274725 -0.02097104 -0.00486799 -0.09083529
000350 00 44 b6 3d 07 4e bb bd ae 48 26 3c 0a 4a 3a 3d
       0.08899689 -0.09145742 0.010149164 0.045480765
000360 1b e5 5e bd ee 6b 2d 3d 58 4d 39 3e d7 07 d7 3d
       -0.05441771 0.042339258 0.1809591 0.10499542
000370 d7 3e c8 3d 26 f4 8a bd 5f ee ac 3c 2c 63 72 bb
       0.09777611 -0.06784849 0.021109758 -0.003698538
000380 fc 0b 4d 3d 30 b3 13 bd 60 3d 3c bc 0c f3 d3 3d
       0.050060257 -0.03605956 -0.011489242 0.10349092
000390 9c 8a 8e 3d 31 bc 7f bd d9 0f 99 3d 28 08 01 3e
       0.069600314 -0.062435333 0.07473726 0.12600768
0003a0 16 b4 e5 bc c4 26 2a 3d af 1c 6e 3d 4c 59 93 bd
       -0.028039973 0.041540876 0.058132824 -0.071947664
0003b0 42 ea 43 3d aa a4 8b 3d 80 37 3b bd 16 40 0f be
       0.047830828 0.068185166 -0.045707226 -0.1398929
0003c0 11 0d b0 bd d6 7a 00 3e 7d 00 fb 3b 95 32 e7 3c
       -0.08596242 0.12546858 0.0076599703 0.028222362
0003d0 fb 42 20 3d 1e db 6f 3d 74 db 0d 3e 31 e2 6a 3a
       0.039126378 0.058558576 0.13853246 0.0008960097
0003e0 69 30 c5 bd 20 12 ae 3d 61 53 fa 3d 91 cc 90 3c
       -0.09628374 0.08499551 0.122229345 0.01767567
0003f0 7a 43 36 bd a8 ba 91 3c ee 9f 9d 3d 10 ec 1f 3d
       -0.044497944 0.0177892 0.0769652 0.039043486

lstm.weight_ih_l1 f4 [256, 64]
000000 6d e7 d6 bd 1e 23 48 3d 4e 9f e1 bc af aa 3d 3d
       -0.1049336 0.048861615 -0.027541783 0.046305355
000010 9d 80 f2 bc 00 05 37 3c 8d b3 fb bd 8e 45 9d bc
       -0.029602343 0.011170626 -0.12290106 -0.019198205
000020 38 8e a9 bd 46 3b c0 3d c1 31 4a 3c 6c ec bc 3d
       -0.08279079 0.093863055 0.012340964 0.092247814
000030 3b 51 8a bd 2b ab 4f bd c1 47 46 3d 7f 43 26 bc
       -0.06753775 -0.050700348 0.048408274 -0.010147928
000040 f4 e0 f3 3c 39 10 0d 3c 0d 81 0b 3d 51 c8 05 be
       0.029770352 0.008609825 0.03405862 -0.13064696
000050 49 31 0d 3e 76 3d 6b bb de ca c4 bc 2c bb a6 bd
       0.13788332 -0.0035894788 -0.024022516 -0.08141169
000060 ed 8c cf 3d 9e 2f 9e bd e3 99 2c 3d f8 80 72 3d
       0.10134301 -0.07723926 0.042138945 0.059205025
000070 b1 39 8e bb 5a 84 8b bc 9e 6f d2 bd 02 9f e7 bd
       -0.0043403734 -0.017030884 -0.102751955 -0.11309625
000080 c5 1c e7 3c 89 de 49 3d c3 b0 04 be e9 86 5e 3d
       0.02821196 0.04928449 -0.12958054 0.05432788
000090 b3 72 fc bd 45 4f 2b bd 72 53 b6 3b c0 16 48 bd
       -0.12326565 -0.041823644 0.0055641467 -0.04884982
0000a0 5a 36 06 3e e1 26 04 3e d9 d1 b4 bd 51 5e 98 3d
       0.13106671 0.12905456 -0.08829088 0.074398644
0000b0 99 37 54 3d 77 27 06 3e 8a 3e a2 bd ad c2 58 bc
       0.051810835 0.13100992 -0.07922085 -0.013230008
0000c0 60 5e 20 bd ea ac 25 bd c2 06 e6 3d c4 56 ab 3d
       -0.039152503 -0.040448107 0.11231758 0.083661586
0000d0 fd e5 29 be e6 9f 28 3d 7a 18 a4 bd 56 95 a3 bd
       -0.1659164 0.041168116 -0.08012481 -0.07987468
0000e0 95 85 98 3d d5 12 8b 3d 28 3a 8d bc b5 23 17 3e
       0.07447354 0.06790701 -0.017239645 0.14759715
0000f0 4d 4c a0 bd c6 3f d4 3d a2 7a ac 3d 4a 62 95 bd
       -0.07827053 0.10363726 0.08421828 -0.07294138
000100 4a 74 b3 3d bd 62 aa bd d7 46 e9 bd 73 17 ab 3d
       0.08762415 -0.08319614 -0.11390465 0.08354082
000110 c9 6b 07 3e df 18 99 bd aa d8 c8 3d 58 38 08 be
       0.1322471 -0.07475447 0.098069504 -0.13302743
000120 15 06 66 3d 52 48 08 be be 99 b6 bd 82 2c 7a bd
       0.056158144 -0.13308838 -0.08916043 -0.061077602
000130 62 6b c5 3d ce cb 26 be 55 20 7b bd c3 d2 9c bd
       0.09639622 -0.16288683 -0.06131013 -0.07657387
000140 1d b9 f7 3d ea 18 1c 3c 48 04 84 3d 2b 5b 1f 3a
       0.120958544 0.009527424 0.06446129 0.0006078954
000150 b6 1d 55 bc 4b f6 1d 3e 5f 21 62 be 07 ae 88 bd
       -0.013007572 0.15425985 -0.22083043 -0.06673818
000160 d1 4a ac 3d d8 9b 11 be ce ee 94 3b 0d 8f 04 3d
       0.084127076 -0.14219606 0.0045450693 0.032362986
000170 05 1b 88 3d e2 2b 60 bc 76 41 94 3c fe 7f 7c 3c
       0.066457786 -0.0136823375 0.01809762 0.015411375
000180 c8 40 cd bd bc 3b bd bd 0c 76 bd bd 8b 0f ad 3d
       -0.10022122 -0.09239909 -0.09251031 0.0845023
000190 b3 87 6d bd 87 78 03 bd 7d 1f 05 bd 49 6e 53 3d
       -0.05799074 -0.032097366 -0.032500733 0.051618848
0001a0 b0 d1 fe bd 7b c6 be 3c 3e bf 35 3d 33 53 dc 3d
       -0.124423385 0.023288002 0.044371836 0.107580565
0001b0 c0 32 e4 bd 18 aa 79 3c f0 db 8e 3a 2c 32 a4 3d
       -0.11142492 0.015238307 0.0010899287 0.08017382
0001c0 65 0c 88 bd f9 52 68 bd 06 8c cb bc 15 a2 fe bc
       -0.06642989 -0.056719754 -0.024847042 -0.031083146
0001d0 0b 3e 32 be f4 c4 5a bd b5 ff 73 3d 91 d8 f4 bd
       -0.1740648 -0.053410485 0.059570033 -0.11955369
0001e0 65 61 94 bd 18 c2 aa bd b6 32 67 3d b5 15 02 3e
       -0.07245139 -0.08337802 0.056444846 0.12703593
0001f0 13 78 1a be 9c 05 0a bd c4 3f 04 bd 83 16 21 3c
       -0.15084867 -0.033696756 -0.032287374 0.009832027
000200 76 b0 8f bd 15 b6 10 bd bd e8 fc 3d 1e b1 c0 bd
       -0.07016079 -0.035329897 0.12349079 -0.094087824
000210 64 0f c6 ba 6f 4e e0 bd 0f c2 4c bd d5 6b f9 3d
       -0.0015110788 -0.1095246 -0.049989756 0.121787705
000220 86 20 77 3d 26 90 31 3b 6f 79 19 3e 52 66 c3 3c
       0.06033375 0.0027093976 0.1498773 0.023852501
000230 4a cd 6a 3d 44 96 ec bd f0 85 28 bc 79 59 c7 3d
       0.057324685 -0.115520984 -0.010285839 0.097338624
000240 81 80 9d 3d 82 8a 89 3d 69 58 bb bd 5e ad 39 bc
       0.07690526 0.067158714 -0.09147722 -0.011332838
000250 7b c8 0a 3d 4b 4b 4b 3d 08 71 df bc 03 20 71 bd
       0.0338826 0.04963235 -0.027275577 -0.05886842
000260 84 0a d4 bd 0e c0 24 be d7 3b bf bd cf 2f 4f 3d
       -0.10353568 -0.16088888 -0.093375854 0.050582703
000270 c1 c5 c0 bd 43 89 cf 3d a2 ca 8d bd 27 ec fd 3c
       -0.094127186 0.101336025 -0.06923415 0.030996395
000280 2e 99 7c bd 97 74 a8 bd bd 50 4d 3d 75 d2 ed 3c
       -0.06166952 -0.08225363 0.050125826 0.029031018
000290 bd 8b 08 3e a0 18 2e 3d 83 5d fc 3c 7d 65 d1 3d
       0.13334556 0.042503953 0.030806309 0.102244355
0002a0 eb 15 bd bd cf 4f 98 3d df fd 4c 3c a1 67 69 bc
       -0.09232696 0.07437097 0.012511699 -0.014245898
0002b0 77 55 a1 bd a2 38 47 bc 58 c1 d0 bd 47 89 b5 3d
       -0.07877629 -0.012159498 -0.101931274 0.08864074
0002c0 0a 84 b1 bd 51 cf e8 bb c7 53 c6 3d 52 ba d7 bb
       -0.086677626 -0.007104792 0.09683948 -0.0065834904
0002d0 8c 19 11 be 5b ee 5e 3d 87 79 e1 3c 3f b7 cb bd
       -0.14169902 0.054426532 0.027523769 -0.09947061
0002e0 8c 38 09 be 1d 3c 0e be 9b da a3 bd 8d 82 a6 3c
       -0.13400477 -0.13890119 -0.0800068 0.020325923
0002f0 fd 44 09 be b5 a9 e6 bd e9 13 92 3d 29 dd a8 bd
       -0.13405223 -0.11262838 0.07132704 -0.08245308
000300 e1 a7 8d 3c fc c0 3f 3d 51 03 8d 3d 17 4b 09 3c
       0.017291965 0.046814904 0.06885398 0.008379719
000310 6c 3f 91 3d a0 33 ed 3d 9e 4c d6 3c da f0 eb 3d
       0.07092175 0.11582112 0.02615958 0.11520548
000320 64 f8 2b ba 23 2f ff 3d ad c7 df bd 39 c0 0b 3e
       -0.00065601454 0.124601625 -0.10926757 0.13647546
000330 b4 58 ae 3c 72 8d c8 bc 00 3b 33 3e 4c dc 3b 3d
       0.021282531 -0.024481509 0.17502975 0.04586439
000340 0f b4 65 3d 6a 5b 32 bd 00 1c f1 3d 2f 6f df bc
       0.05607992 -0.04354421 0.11772919 -0.027274696
000350 ab db 31 3d 2c a2 62 3d 0d b9 cf bd 66 30 73 bd
       0.043422382 0.05533044 -0.101427175 -0.05937233
000360 97 9a 94 3d 92 86 09 bc 3d 49 f3 bc ab df 87 3c
       0.07256048 -0.0083939005 -0.029698009 0.016586145
000370 77 92 0f bd 3a d6 63 bd 09 7c 9e bd d8 e4 95 3c
       -0.03505179 -0.055624224 -0.077385016 0.018297598
000380 35 63 20 3d 58 eb 24 be 0a 4c 5d 3d 6b 3b e0 3c
       0.03915711 -0.16105402 0.054027595 0.027372083
000390 26 7f c3 3d be b9 11 3e cb 5a 00 3d ce 3b d6 3d
       0.09545736 0.14231011 0.031336587 0.104606256
0003a0 f2 21 e4 bd e1 35 df bd c7 57 24 3c 66 58 b3 bd
       -0.11139287 -0.108989485 0.010030693 -0.08757095
0003b0 f2 64 94 bd bb 4a cb 3b 4f 39 f5 bd 61 ef 5f bb
       -0.07245816 0.006203977 -0.11973821 -0.003416978
0003c0 6a 7a 4b bd 18 73 0a 3d 27 06 d5 3b 80 5e 76 bd
       -0.04967729 0.03380117 0.0065009776 -0.060148716
0003d0 74 4a ce bd da 15 f6 bc 63 cd 24 3d 13 a3 cd 3d
       -0.100727946 -0.030039717 0.040234935 0.100408696
0003e0 0b ca 2b 3d ed e1 39 3d f1 3f 8e 3c 07 2a 1a 3e
       0.04194073 0.045381475 0.017364474 0.15055095
0003f0 a7 ba a0 bd 9e 07 c0 bd c6 c7 29 3d fb 58 a3 bd
       -0.07848101 -0.09376453 0.041450284 -0.07975956

lstm.weight_hh_l1 f4 [256, 64]
000000 83 cb 83 3c 94 d6 25 3d 88 e9 e0 3d ce 6d 5e bd
       0.016088253 0.04048784 0.109820426 -0.054303937
000010 22 26 0a be c6 c5 d8 3c 24 38 af bc 4c 88 45 bd
       -0.13491109 0.026461493 -0.021389075 -0.048225686
000020 85 da c5 3c 2d d2 dc 3d e1 c2 a7 3d d3 97 8e bc
       0.02415205 0.10782275 0.08191467 -0.01740638
000030 44 f8 c7 3d 2f 38 46 bd 70 c1 04 be 4b 4d 8e bd
       0.0976415 -0.048393425 -0.12964416 -0.06948336
000040 03 9d bd bd 81 42 e8 3c 4b 12 9c 3d 52 57 6c 3d
       -0.09258463 0.028352024 0.076206766 0.057700463
000050 d9 69 18 bd bb 54 7b 3d 1e 0a 31 3c e1 0e ea bd
       -0.03721032 0.061360102 0.010805635 -0.11428619
000060 26 b2 f2 3d 24 82 83 3b 16 1d 04 be 88 04 10 3d
       0.11850385 0.0040133167 -0.1290172 0.03516057
000070 a7 bd bb 3d 30 6b 96 ba 37 69 dd 3c b2 64 17 bd
       0.09167033 -0.0011476036 0.02702771 -0.036961265
000080 16 a5 2f bd f3 d8 39 bd b4 28 c0 3c 63 cc c3 bd
       -0.042882048 -0.045372915 0.023456909 -0.09560468
000090 fd 90 63 bd db 6a af 3d 65 d1 4c 3c 69 ab ad bc
       -0.055558193 0.08565303 0.012501095 -0.021199899
0000a0 dc 03 d8 3c 70 37 8b bc b8 f2 b0 3c d7 6b e1 bd
       0.026369028 -0.016994208 0.021600112 -0.11006897
0000b0 4a a4 11 3e 02 a5 bd bd 94 03 b3 3d 8e 06 ba bd
       0.14222828 -0.09259988 0.08740917 -0.090832815
0000c0 52 1f 41 3c 82 81 d5 bd 70 01 16 bd 33 61 3b 3d
       0.0117872525 -0.10425092 -0.036622465 0.045746993
0000d0 07 99 13 be 9c 4e 99 bd 11 ce 7d bd 83 b2 a1 bd
       -0.14413844 -0.07485697 -0.0619641 -0.078953765
0000e0 e7 31 8f 3d a1 e4 d7 3d f1 15 7f bd 65 9b b5 3d
       0.0699194 0.105416544 -0.062276784 0.0886753
0000f0 f0 6e ee 3b d5 e5 bf bd 67 0c b9 bd 00 eb c5 bc
       0.0072764084 -0.09370009 -0.09035569 -0.024159908
000100 17 54 67 bd 73 ec 33 bd f7 e4 a0 bd 98 4e d1 bd
       -0.05647668 -0.043926667 -0.078561716 -0.10220069
000110 32 35 b6 3d b6 63 fa bd 47 d2 21 3d 92 02 c1 bd
       0.08896865 -0.122260496 0.039507177 -0.094243184
000120 1f 81 24 3d 96 ed e4 3d 57 f4 85 3d 00 60 78 3d
       0.040162202 0.111781284 0.06540745 0.060638428
000130 75 ca c5 3d 6e 55 0a be c9 66 89 3d 66 13 70 3d
       0.09657756 -0.13509151 0.06709058 0.05861225
000140 f4 67 40 3d 92 66 26 3c d1 f2 6e bd 9c 79 05 3e
       0.046974137 0.010156291 -0.058337037 0.13034672
000150 da e2 34 3c d8 62 4a 3d 53 cd 95 bd ce aa 70 3d
       0.011040414 0.04941067 -0.07314553 0.058756642
000160 63 90 f0 bc c4 10 7a 3c 69 0c bd 3d aa ec 11 bd
       -0.029365724 0.015262786 0.09230883 -0.03562609
000170 2e 7b 37 bd 55 b7 b5 3c 0a c6 de 3d 21 cc 00 bd
       -0.044795208 0.022182146 0.10877617 -0.031444672
000180 e7 8c 80 3c 93 00 c1 bc 85 fa b3 bd 85 58 a9 bd
       0.015692187 -0.023559844 -0.08788017 -0.08268837
000190 d3 a5 dc bd 7f b4 04 3e 73 0f 5b bd d2 22 b5 3d
       -0.10773816 0.12959479 -0.05348153 0.08844532
0001a0 c0 21 61 bd ba 01 81 bd 47 c1 66 bc 84 4f 48 3d
       -0.054963827 -0.062991574 -0.014084167 0.048903957
0001b0 36 29 33 3d af d5 ec 3d 35 7e af bc a5 38 a9 3d
       0.043740474 0.115641944 -0.021422485 0.08262757
0001c0 af 11 f1 3b ca 49 67 bd 9c 2a de bd 26 1a fd bd
       0.0073568444 -0.056466855 -0.10847971 -0.12358503
0001d0 d7 3c b6 3d cd 63 06 3e b4 0c af 3d 5d ea b4 bd
       0.08898323 0.13124008 0.08547345 -0.08833764
0001e0 a0 1b e3 3d aa b8 c5 3d 21 5a 0b 3e 4f 51 d7 bd
       0.110892534 0.096543625 0.136086 -0.10513555
0001f0 9a 49 94 3d 28 1e e8 bd 5b b5 aa 3d d2 39 fb 3c
       0.07240601 -0.11333877 0.08335372 0.03066722
000200 c5 f4 ae bd 4a 2e f8 3d 9f 50 cb bd be a2 2d bd
       -0.0854278 0.12118204 -0.09927487 -0.04239153
000210 38 8d 10 3d bc 2c bd bd 61 3a a6 3d 86 bc a2 bc
       0.035290927 -0.09237048 0.08116604 -0.019865286
000220 26 d6 04 be 80 f0 83 bc c5 20 4a 3d a4 ad 13 3d
       -0.12972316 -0.01610589 0.049347658 0.03605427
000230 6d af c9 3c 4f 0a c2 bc f3 af c4 3d cd 2b ff bd
       0.024619782 -0.023686556 0.09603872 -0.12459526
000240 f1 2e fb bc 7e 6f 29 3d fb 93 02 3e e3 8d ee bd
       -0.030662032 0.041366093 0.12751763 -0.116481565
000250 ff 0e e3 bc 9b 07 ed 3d 65 16 4e 3d b0 ce ca bd
       -0.027717112 0.11573716 0.050314326 -0.09902704
000260 c9 30 33 bd 22 8d 52 bd c3 2b a9 3d 25 24 0e 3e
       -0.043747697 -0.051404126 0.082603 0.13880976
000270 2e 8f 58 3c 91 d4 f5 bc 02 6d 82 bd 76 1d a1 3c
       0.01321773 -0.030008586 -0.06368448 0.019667368
000280 42 d1 2f 3d 66 b1 99 bd 27 d4 7c 3d b1 42 9b 3c
       0.042924173 -0.07504539 0.06172576 0.0189527
000290 7d 22 d8 bd 53 99 ff bc 6d d6 00 bd 0d bc 2b bd
       -0.10553453 -0.03120104 -0.031454492 -0.041927386
0002a0 4f 1c 12 be 95 60 d6 bd 5e d6 51 ba e1 ad ec 3c
       -0.14268611 -0.1046764 -0.00080046605 0.028891506
0002b0 3e c9 60 bd 76 e7 12 3d 4c f7 c8 3d ea f0 3b 3d
       -0.05487942 0.03586527 0.09812793 0.04588405
0002c0 4f 0c 8b bd a4 a4 17 3e ba 19 0e bd 11 7d 72 3d
       -0.06789457 0.14808899 -0.034692504 0.059201304
0002d0 f9 48 62 bb 4d d8 d0 3d eb 50 2c 3b ec 4a 22 bd
       -0.0034528358 0.10197506 0.0026293348 -0.039622232
0002e0 3a fb d5 3d b5 1a cd 3d 0b af 64 3d 48 c5 be 3d
       0.10448308 0.100148596 0.055830996 0.09314972
0002f0 24 15 61 3c d6 00 ae 3d 41 6f 60 bd fa 79 65 3d
       0.0137379505 0.08496253 -0.0547936 0.05602453
000300 93 ca ea bd d2 30 57 3b c8 65 89 bd 2f 11 a3 3d
       -0.11464419 0.0032835496 -0.06708866 0.07962262
000310 c7 b3 c9 3d 77 e4 e0 bd 9a e5 ad 3d 9e 29 a9 3d
       0.09848743 -0.10981076 0.08491059 0.08259891
000320 42 ca b3 3b ab cc ee 3c 44 d6 fb bb 95 84 47 bd
       0.0054867575 0.029150328 -0.0076854546 -0.048710424
000330 fa 85 14 3e 1b fa e8 3d 78 c1 34 bd b5 38 19 3c
       0.14504233 0.11375829 -0.04412982 0.009351899
000340 44 97 9e 3d 4c c3 6d 3d 94 a4 aa 3d 38 91 28 3d
       0.077436954 0.058047578 0.08332172 0.041154116
000350 26 2a 35 bd 51 2d 1e bb 10 bc 39 bc de 1f 55 bd
       -0.04422965 -0.0024135897 -0.0113363415 -0.052032344
000360 14 74 20 bd 77 7c d1 bd 1d ce f8 3d 21 a9 a2 3d
       -0.0391732 -0.10228818 0.12148688 0.07942415
000370 9c 9c b0 bc 7e c8 97 bd 49 3a 87 3d 0c cb ca bd
       -0.021559052 -0.07411288 0.06602914 -0.09902009
000380 4a ea 29 bd 36 68 ba bb 99 97 c3 3d 84 ae 5f 3c
       -0.0414832 -0.0056886924 0.09550399 0.013652448
000390 7f 59 05 3d 56 e8 28 bb e1 2d 29 3c e1 c1 10 3e
       0.032556053 -0.0025773249 0.01032588 0.14136459
0003a0 ba bc 90 3a 98 1d 90 3c 96 7c 42 bd 36 97 69 bd
       0.0011042573 0.017592236 -0.047482096 -0.05702897
0003b0 bf 07 dd bd b4 cd 86 3c 38 a8 a9 bd e5 d0 92 bd
       -0.10792493 0.016455509 -0.08284038 -0.0716875
0003c0 6b 41 cb bd f6 f9 74 ba da 90 0b 3d d9 04 0b be
       -0.09924587 -0.00093451084 0.034073688 -0.13576068
0003d0 07 99 19 bd 16 d4 f5 3d db bd c1 3a 41 b8 ca bd
       -0.037499454 0.12003343 0.0014781313 -0.09898425
0003e0 78 91 c7 bd 2a 68 1f bd 77 1c 29 3e 88 23 82 bd
       -0.09744543 -0.038917698 0.16514765 -0.06354433
0003f0 31 1d 4e bd f8 fc ce bd 3c f4 19 3c 31 e4 7e 3d
       -0.050320808 -0.10106844 0.009396609 0.06222934

lstm.bias_ih_l1 f4 [256]
000000 98 19 b6 3b 08 82 92 bc 55 d7 5b bd b2 1d a5 bd
       0.00555725 -0.01788427 -0.053672154 -0.080623046
000010 85 70 43 bc a8 c3 17 3e 6e 75 49 3d 09 bc 44 3d
       -0.011928682 0.1482073 0.049184255 0.048030887
000020 58 85 ea bd 48 54 09 3d 56 d4 cd bb 89 4a 8c bd
       -0.114512146 0.033527642 -0.006281416 -0.06850154
000030 d9 93 4b 3c 3f 31 9a bd fa c3 2d 3d 9a 15 57 bd
       0.012425386 -0.07528924 0.042423226 -0.052510835
000040 0f fc e5 bd 50 e0 94 3d 27 5b f1 bc 79 40 35 3d
       -0.11229717 0.07269347 -0.02946241 0.04425094
000050 a5 65 94 bc 8b d3 dd bb 18 e1 42 bd a4 6a 9a 3d
       -0.018114874 -0.0067696027 -0.047577947 0.07539871
000060 3f 36 63 bd 0f 02 1e 3d 7f 0f 03 3e 26 07 05 be
       -0.055471655 0.038576182 0.1279888 -0.12991008
000070 c5 aa 63 bd 8b 86 99 3d 44 4f f2 bc 35 86 83 bd
       -0.05558278 0.07496365 -0.029578812 -0.06422082
000080 c7 cf 1b be 61 83 ce 3d 7d 72 3d 3d 08 91 ab 3b
       -0.1521598 0.10083652 0.046251763 0.005235795
000090 74 b8 f2 b9 62 0f e7 3d 31 b8 10 3e bb 32 83 bd
       -0.00046295265 0.11282231 0.14132763 -0.064061604
0000a0 2f be 0b be e2 b1 e3 bd 7d 1e 9f bd 4a 64 00 3d
       -0.13646768 -0.11117913 -0.07769487 0.031345643
0000b0 15 0a b8 bd 22 1e 09 3e c3 31 95 3d 64 b9 df bd
       -0.08986298 0.13390401 0.07284882 -0.10924032
0000c0 67 0d ab 3d 9e b1 87 3d a0 c6 19 be 9c 31 97 bd
       0.08352166 0.06625675 -0.15017176 -0.07382509
0000d0 4f f6 63 3d 28 46 4f bd f1 09 78 bd bf 32 0d bd
       0.05565482 -0.050604016 -0.060556356 -0.034472223
0000e0 5f 1f b4 3d bb fd 1f be a6 01 42 bc 1e 5e 82 bc
       0.08795046 -0.15624134 -0.011841213 -0.01591402
0000f0 dc e7 f5 3c ee 21 fe bd c2 97 32 bd d2 9b fd 3b
       0.030017786 -0.12408815 -0.04360176 0.0077395225
000100 27 24 32 3d 48 c8 6b 3d a5 b5 d1 bd 9a cc d1 bd
       0.04349151 0.05756405 -0.10239724 -0.10244103
000110 f0 c7 96 bd 28 fa e9 3d 4d 8d 4c 3c 0b 35 f3 bc
       -0.07362354 0.11424667 0.012484861 -0.029688379
000120 ba 05 60 bd ce b1 ef bd d8 50 bc bd f4 60 9f bc
       -0.05469296 -0.117038354 -0.09195107 -0.01945541
000130 ec 1a da bd 4c 75 b9 bc e1 83 48 bd 2c 91 3e 3d
       -0.10649666 -0.02263894 -0.048953895 0.046525165
000140 2d be 33 3d 16 45 f0 3b 30 67 2f bd e4 f9 eb b8
       0.043882538 0.0073324544 -0.042823017 -0.00011252219
000150 a2 9e 8e 3d 1a 02 9d 3c d2 3f 86 bc 38 c6 0c 3b
       0.069638506 0.019166041 -0.016387854 0.0021480452
000160 11 66 cb 3d 11 27 9f 3d f2 54 d3 bd 94 60 0d bc
       0.09931577 0.07771123 -0.103189364 -0.008628983
000170 70 ca d4 bd 07 e9 e9 3d 19 88 36 3d 46 e6 99 bd
       -0.103901744 0.114213996 0.044563387 -0.07514624
000180 79 73 c4 3d a7 5b 43 3d 27 51 63 3d b7 67 ab 3d
       0.09592337 0.04769483 0.055497315 0.083693914
000190 27 5b 52 3c 4c f9 1d bc 88 da 79 bc 35 74 ea bd
       0.012839115 -0.009641957 -0.015249856 -0.11447946
0001a0 d7 1d e3 bb 2d ab 12 3d 7e 9c 6c 3d c0 dd c6 bd
       -0.0069310474 0.035807777 0.05776643 -0.09710264
0001b0 6d 05 55 bd 47 de a3 bd 6f 8d 15 bd 19 b5 cd bc
       -0.052007128 -0.080013804 -0.036511835 -0.025110768
0001c0 45 21 f8 bd ed c4 70 3d 43 4b 90 3c 54 45 53 3c
       -0.12115721 0.058781553 0.017614013 0.012894947
0001d0 38 a1 7e bd fe f4 ee 3b 84 ff b5 3d 52 ef e6 bc
       -0.06216547 0.007292389 0.08886626 -0.028190289
0001e0 82 a5 0d 3d 4c 97 bd b9 0d c2 14 bd 0f 3d 1f 3e
       0.03458167 -0.00036161614 -0.036317874 0.15550636
0001f0 5f db a5 3d f6 ac 6a bd 01 48 43 bd d4 a6 6d 3d
       0.08098482 -0.057293855 -0.04767609 0.058020428
000200 6f 7d f7 3d 66 6c 87 3d 32 bf ec bd 9b c8 cd bd
       0.120844714 0.06612472 -0.11559905 -0.10048028
000210 16 5a 00 be df a0 01 3d 37 6c 4f bd 91 52 0e bd
       -0.12534365 0.03164756 -0.05064031 -0.03474671
000220 01 d6 42 bd ef c4 32 3c 55 30 13 bd de 5a 94 3d
       -0.04756737 0.01091121 -0.035934765 0.07243894
000230 50 21 f5 bd 2a e2 c9 bd f9 96 b3 bd 09 9f 98 bd
       -0.119692445 -0.098575905 -0.0876903 -0.074522085
000240 54 69 e6 bc e4 4d 00 be 59 3b 8f 3c d8 2f b6 bd
       -0.028126396 -0.12529713 0.017484354 -0.08895844
000250 a7 62 27 bd e5 b6 0e 3d 83 65 f2 3d 30 cf d4 bb
       -0.040865567 0.03484239 0.11835768 -0.0064944252
000260 ed 37 c0 bd ef 8b d1 bd 0d 04 a8 bd 11 77 76 bd
       -0.09385667 -0.10231768 -0.082038976 -0.060172144
000270 07 49 a8 bd cd 70 1b 3d c8 12 ba 3d 2d cb 76 bd
       -0.08217054 0.037949372 0.090856135 -0.060252357
000280 81 85 e1 3b 2e 9a eb 3d 35 5c 89 bd 77 0a cf 3d
       0.00688237 0.11504017 -0.0670704 0.10109418
000290 81 29 5a 3d d3 ad ee bd 32 25 a3 3d 71 87 e8 bb
       0.053262237 -0.11654248 0.07966079 -0.007096224
0002a0 d5 ab 87 3b de e9 1f bd 54 98 e2 3d ae 48 63 3c
       0.004140357 -0.039041393 0.110642105 0.013872309
0002b0 f4 7c e0 3d 0d 89 83 3c 02 b8 8b bd 30 cd 77 3d
       0.10961333 0.016056562 -0.06822206 0.060498416
0002c0 62 5a f7 3a 96 a7 9a bd 34 f4 af ba 74 0c 84 bd
       0.0018871541 -0.07551496 -0.0013424219 -0.06447688
0002d0 23 c9 fa 3c 91 c8 41 3d 21 eb 2a 3c f0 93 0b 3e
       0.030613488 0.047310416 0.010432036 0.13630652
0002e0 81 8e e4 3b 2d f0 8d bd 17 fe 24 3d 52 1c 03 3e
       0.0069749956 -0.069305755 0.04028138 0.12803772
0002f0 03 59 87 bd 13 d1 5f 3c d5 d2 c3 bd 53 e6 b6 3c
       -0.066087745 0.013660687 -0.095616974 0.022326624
000300 13 96 ce 3c 41 02 25 bc 33 ec be bd 0a 24 0d 3e
       0.025218045 -0.010071338 -0.09322395 0.13783279
000310 b5 cf 8c 3c 30 87 6d bd d7 51 e1 3c 4a 59 94 bd
       0.017188886 -0.057990253 0.027504845 -0.07243593
000320 c7 99 7d bd 5f 59 aa bd 18 7c d4 bd 0b 20 99 bc
       -0.06191423 -0.083178274 -0.103752315 -0.018692037
000330 bb 66 2b 3b 76 f8 9c bd 2a b3 8e bd 2e 9c dd 3d
       0.0026153761 -0.07664578 -0.069677666 0.108208045
000340 64 5b 70 bd 3c 3f a0 3d a9 f9 8c bd ec 9b 12 be
       -0.058680907 0.07824561 -0.068835564 -0.14317292
000350 db 2a 8f 3c e1 bf 03 be 0f aa 22 3c 93 99 fb 3c
       0.01747649 -0.12866165 0.00992824 0.030712878
000360 07 e2 82 3b cd 7b c5 bd 64 4a 26 3d b1 16 49 3d
       0.0039942297 -0.09642754 0.04059829 0.049093906
000370 e9 3a f3 3c c5 84 01 3e 9c 6d 0e be 02 17 9d 3d
       0.029691176 0.12648304 -0.13909 0.07670404
000380 51 1e 07 be 87 57 85 3d 1c 57 7d bd 1f e3 fe bc
       -0.13195159 0.06510835 -0.061850652 -0.03111416
000390 b8 cf b5 3a 51 7a 3b 3d 64 cc 84 3c 1f 18 95 bd
       0.0013871109 0.045770947 0.016210742 -0.07279991
0003a0 a2 cb 06 3d 4b c6 44 3d 93 d3 04 bd df d7 13 be
       0.032909043 0.04804067 -0.032428335 -0.14437817
0003b0 fb 52 f5 3d cc 70 71 bd cc 2b c1 bd e8 22 84 bb
       0.11978718 -0.058945462 -0.09432182 -0.0040324815
0003c0 1c 85 3b bd a1 a6 96 bd e3 40 71 bd 84 61 dc 3c
       -0.04578124 -0.07356001 -0.05889977 0.026901968
0003d0 4d b6 65 3d 40 eb 78 bd 47 05 b0 bd 87 a3 89 3d
       0.05608206 -0.060771227 -0.085947566 0.067206435
0003e0 df 34 92 bd b9 11 06 3d cd e8 6e bd ff b5 33 3c
       -0.071389906 0.032731745 -0.058327485 0.010968684
0003f0 f9 28 2c 3c bf 68 19 be b9 c9 55 3d c4 f9 5c 3c
       0.0105078155 -0.14981364 0.05219433 0.013487283
