04_Models/weekly_GDEA_sentiment/best_model.pth (torch, 409269 bytes, 11 tensors)

lstm.weight_ih_l0 f4 [320, 64]
000000 75 04 f3 3d 37 62 d1 3c 35 70 b4 bd f9 ae e0 bd
       0.118660845 0.025559528 -0.08810464 -0.109708734
000010 10 dc 4b 3c 29 e4 d4 bc 6b 4e e3 bd 3d 8d 71 3d
       0.012442604 -0.025987701 -0.110989414 0.058972586
000020 ac 06 d6 bd ce fe 02 3e c1 c2 05 3e 07 38 62 bd
       -0.10450491 0.12792513 0.13062574 -0.055229213
000030 02 64 f2 bc 8c f4 9d 3c f2 6d 12 3b 9c 9f 38 bd
       -0.029588703 0.019281648 0.0022343365 -0.04507409
000040 c8 44 86 bd e5 69 1f 3e c4 5d 03 be 28 2b 6a bd
       -0.06556088 0.1556774 -0.12828737 -0.057170063
000050 68 7d 23 3e 51 03 5f 3d b8 ae 08 bd ee 66 0d bd
       0.15965807 0.054446522 -0.03336975 -0.03452199
000060 58 da 50 3d 6e a5 44 3d eb 06 22 3e d8 d7 68 3d
       0.05098948 0.04800933 0.15822951 0.05684647
000070 0a cb c9 3d d1 6d 19 bb 3b 16 28 3e 17 73 75 3e
       0.0985318 -0.0023411403 0.1641473 0.23969685
000080 0f 6b 05 3d ba 39 40 be 87 95 41 3d 88 53 49 3b
       0.032572802 -0.18772021 0.04726174 0.0030719955
000090 1d 91 6b 3e 3b 91 da 3c 1a 86 56 3d 6c 1e b5 bd
       0.23004575 0.02668058 0.052373983 -0.08843693
0000a0 94 06 1c 3e 0e 8f a5 3c c0 b9 16 3e bc 02 02 3e
       0.15236884 0.020209815 0.14719296 0.12696356
0000b0 ed 66 72 3e 93 ac 60 bb dc 3c 2f 3e 33 35 57 3c
       0.23672076 -0.003428255 0.1711306 0.013135242
0000c0 a1 1b 80 3e 47 c8 b5 3c a3 99 af bb 76 7b ce 3d
       0.2502108 0.022190226 -0.005358891 0.10082142
0000d0 15 55 14 3e bc ef c3 3e 4f 3c 99 3e 51 a0 c0 b9
       0.14485581 0.3826884 0.29928824 -0.0003674054
0000e0 a1 21 43 3c 03 b7 00 3e ed cc 2d 3d 22 d1 a2 bd
       0.011909873 0.12569813 0.04243176 -0.07950045
0000f0 6f cc bc 3d e7 c4 aa 3c ca 1d af 3d 09 d9 dc bc
       0.0921868 0.020845843 0.08550604 -0.02695896
000100 4e d9 09 3e e1 49 fa 3d d1 99 c2 3d 91 d7 9c 3d
       0.13461801 0.122211225 0.095019944 0.076583035
000110 25 5b 82 bd 51 41 a6 3b 63 3e 98 3c e5 12 9c bc
       -0.06365041 0.0050737043 0.018584436 -0.019051978
000120 dc f1 83 3d 0a 98 51 3d a7 3c d7 3d 53 40 9c 3c
       0.064426154 0.051170386 0.105096154 0.01907364
000130 36 34 42 3e 86 9b 9c 3d 9a 26 3d bd ea 7d ac 3d
       0.1896523 0.07646851 -0.04617939 0.08422454
000140 5c 99 7b bd 1a e8 de 3c 2e 6d 87 3d 9c 05 18 3d
       -0.06142555 0.027210284 0.06612621 0.037114725
000150 75 d7 de 3d 16 ce e7 3d 1d f5 db 3d b6 56 35 3e
       0.10880939 0.11318605 0.10740111 0.17708859
000160 be 01 4a 3e b2 8c 4b bc 53 1d 3e 3e 0f a4 7b 3d
       0.19727227 -0.012423681 0.18565874 0.061435755
000170 a1 34 b9 3d 70 7f 16 bd a2 1d 4f 3e 60 dc 48 3e
       0.09043241 -0.036742628 0.20226148 0.19615316
000180 37 96 d3 bb df c6 84 3d 1d 68 79 bc bc f1 ae 3c
       -0.006457116 0.06483244 -0.015222576 0.021355502
000190 48 b0 3f 3e 3f 91 b9 3d 08 de 40 3e 6f e5 59 3d
       0.1871959 0.090609066 0.18834698 0.05319732
0001a0 00 68 e9 3c 39 1f 58 3c 8d 77 88 3b 5d b5 35 3e
       0.028491974 0.013191038 0.004164642 0.17744966
0001b0 ea 27 51 3d 18 72 2e 3e c7 8b 9d 3d fa 13 71 3d
       0.051063456 0.17035711 0.07692676 0.05885694
0001c0 a4 02 27 3e 26 c8 f2 3d 73 31 81 3b 4e 80 0a 3d
       0.16309601 0.118545815 0.0039426624 0.033813767
0001d0 cd 62 0a 3e bf 12 62 3e 3c ea 5f 3e 6c 7f c2 3d
       0.13514252 0.22077464 0.21866697 0.0949696
0001e0 90 35 70 3d 3f 6b cf 3d 49 f9 08 3e 85 16 dc bc
       0.05864483 0.101278774 0.13376345 -0.026866207
0001f0 1b 5c 26 3e f1 60 84 3d d5 dc 97 3c 62 70 3e 3e
       0.16246073 0.064638026 0.018537918 0.18597558
000200 09 b5 83 3e d1 f1 16 3e a1 5e c5 3b 5c f4 33 bd
       0.25724056 0.14740683 0.0060232435 -0.04393421
000210 66 d5 66 3e ea ee e4 bd 65 46 3f 3d ec ad 4d 3e
       0.22542343 -0.11178382 0.046697993 0.20085877
000220 64 5f 7f 3e d5 23 ef 3d c0 42 a7 3d 3f 79 53 3e
       0.24938732 0.11676756 0.081670284 0.2065172
000230 d2 6b 7a 3e 7c c2 5e 3e 12 1b 22 3e 03 5d 51 3e
       0.24455193 0.21753877 0.15830639 0.20445637
000240 c9 63 02 3e 18 d8 61 3e d4 a2 a0 3d f3 dc b5 3d
       0.12733378 0.2205509 0.07843557 0.08880033
000250 28 95 86 3e ff b6 38 3e 04 08 a4 3e fa 7e 83 3e
       0.26285672 0.18038557 0.32037365 0.25682813
000260 dc 96 9a 3e 8e 73 55 3e 56 fe 63 3e 8a 03 90 3e
       0.30193222 0.20844862 0.2226499 0.281277
000270 b7 53 b4 bd 4d dc 52 3d 2f e1 65 3e 5c ac d4 3d
       -0.0880503 0.051479626 0.22449182 0.103844374
000280 b4 15 e5 3d d2 22 6c 3e 8d 7c c8 3d 7a 94 58 3e
       0.1118578 0.23060158 0.09789381 0.2115039
000290 05 c2 69 3e 2e e5 99 3e 01 96 8f 3e 56 6e 4a 3e
       0.22827919 0.30057663 0.2804413 0.19768652
0002a0 a1 de fc 3d 1a 35 89 3e 92 3c 4a 3e 77 43 30 3e
       0.123471506 0.26798326 0.19749668 0.17213236
0002b0 2f 01 68 3e c3 ca 3c 3e 4c a2 24 3e 6e 26 09 3e
       0.22656702 0.18436722 0.16077536 0.13393566
0002c0 6b 64 1a 3e cb a7 28 3e 6b ba 4b 3e da aa 77 3e
       0.15077369 0.16470258 0.19895332 0.24186268
0002d0 75 48 6d 3e 84 1e 3c 3e 30 a6 4d 3e 50 51 a4 3e
       0.23172171 0.18371016 0.20082927 0.32093287
0002e0 fa 9d 9e 3e f5 c4 d8 3d d6 9b 8a 3e 66 a3 0a 3e
       0.30979902 0.105844416 0.27072018 0.13538894
0002f0 07 cb 1e 3e e5 50 f8 3d fc 77 db 3d ec dc 77 3e
       0.15507136 0.121248044 0.107162446 0.24205369
000300 e4 6b b7 bd 43 52 27 3d 60 3b ba 3d 8a c2 9d 3d
       -0.089561254 0.040849935 0.09093356 0.07703121
000310 7c 7a cc 3d 67 23 a9 3d af 5c d9 bd ef 13 85 3d
       0.099842995 0.082587056 -0.10613381 0.06497943
000320 6d e2 1a 3d 5b 32 5d bd 15 fc fc bc 65 36 28 be
       0.037813593 -0.0540031 -0.03088192 -0.16427
000330 e9 b7 05 bd 3f e6 49 3d a0 54 9e 3c a5 78 e2 bd
       -0.032646094 0.049291845 0.019327462 -0.11058167
000340 19 51 11 3c d5 4e de 3d b0 f5 e8 bb 82 19 c0 bd
       0.008869433 0.1085488 -0.0071093664 -0.09379865
000350 96 2c d1 bd e8 97 5f 3d aa c3 e8 3c 70 16 96 bd
       -0.10213582 0.05458823 0.028413612 -0.07328498
000360 ab b0 a0 3d fa 03 da 3d 9c 89 83 bd 12 5d b5 bd
       0.07846197 0.1064529 -0.06422731 -0.088556424
000370 a4 aa 92 3d ee 4c 7c 3d 44 bc 9e 3d 56 b8 a4 bd
       0.07161453 0.061596803 0.077507526 -0.08042972
000380 3c 6e b6 bc 5c af 84 3e 52 4e 59 3d f9 c3 be bd
       -0.02226936 0.2591504 0.053053208 -0.093147226
000390 ca 3c 83 3d cd 74 ba 3d 6e 8d 51 bd fa 19 22 bd
       0.06408079 0.09104309 -0.05116027 -0.039575554
0003a0 4d 0c 59 3e 72 d5 c5 3c 47 57 2d bd 80 b0 10 be
       0.21196099 0.02414963 -0.042319562 -0.1412983
0003b0 f5 ea e3 3c 6f d7 6e 3d de 19 7e 3d 92 19 b0 bd
       0.027821997 0.058310922 0.062036388 -0.08598627
0003c0 c3 54 0b bd ca db 14 bd b9 6b 61 3d 32 16 aa bc
       -0.034016382 -0.03634242 0.055034373 -0.020762537
0003d0 73 3f 01 3d 15 39 07 bd f7 ac d1 bc 4c f6 8e 3d
       0.03155465 -0.033013422 -0.025595171 0.06980571
0003e0 61 7e a6 bc e7 54 2b be 2a 30 71 3d 1d 46 a5 3c
       -0.020323934 -0.16731606 0.058883823 0.020175034
0003f0 8d ac 5f 3b 78 61 1e be 5d fc 43 bd 7b 0e 6b 3d
       0.0034129948 -0.15466869 -0.047848094 0.057386857

lstm.weight_hh_l0 f4 [320, 80]
000000 dd 88 04 3d 8d 7b 98 bc f9 7f a3 bd b2 95 7b 3b
       0.032357085 -0.018613601 -0.07983393 0.0038388786
000010 a4 1c 3b bd 03 8d 04 be 78 59 16 3c 88 ed 44 be
       -0.04568161 -0.12944417 0.009176604 -0.19231236
000020 93 d9 59 3e 42 c1 0a be cb d9 1b 3d ad 8a 9f 3d
       0.21274404 -0.13550285 0.0380495 0.07790122
000030 83 11 73 be 42 9b 41 3d a6 f4 b7 39 f9 31 9a 3d
       -0.23737149 0.047267206 0.00035086757 0.07529063
000040 19 f8 7e bb 5d 3c 01 be 02 70 e4 bd f7 6f 7a 3d
       -0.0038905202 -0.12620683 -0.11154176 0.061141934
000050 cd 37 0c bc 5f ff 96 3d 7e f1 1b be f9 ee b5 3c
       -0.008558226 0.07372927 -0.1522884 0.022208678
000060 60 15 2b be 91 b6 26 3d 76 3d 26 3d 66 d4 db 3c
       -0.16707373 0.040701453 0.040585957 0.026834678
000070 ec f0 d0 3d 0c 45 00 3c bf 29 4f bc d4 e1 44 bd
       0.10202202 0.007828962 -0.01264423 -0.04806693
000080 a0 e6 81 bd fc 66 2f bc 45 51 81 3e ec 18 f9 bd
       -0.06342816 -0.010705706 0.25257316 -0.121629566
000090 d1 bc 16 be f7 a8 e9 3b d1 71 43 bd f4 7f 21 bd
       -0.14720465 0.007130738 -0.047715966 -0.039428666
0000a0 7a 28 f1 3d 8a 6c 29 be 16 fc c7 bc 13 b5 d3 bd
       0.117752984 -0.1654531 -0.024412196 -0.103372715
0000b0 e6 67 e2 bd b2 95 cd 3c 5e 01 e4 3d 90 9c e3 3c
       -0.11054973 0.025095794 0.11133073 0.027784616
0000c0 29 aa a5 3d 74 84 4e bd 9a 65 bf bd ed 12 0c 3e
       0.08089096 -0.050419286 -0.09345551 0.13679095
0000d0 9f e5 71 be 88 7e 61 be aa 87 6d bd f1 6e 87 3d
       -0.2362275 -0.22020924 -0.057990707 0.06612957
0000e0 61 1c ec bd 65 0c a5 bd 2a 9b bf 3d 7f 5b 26 be
       -0.1152885 -0.08059005 0.09355767 -0.1624584
0000f0 e7 3c 50 3d 2c 23 c5 bd 8c 5e 52 3e 0c c8 da bb
       0.05083933 -0.09625849 0.2054388 -0.0066766795
000100 c9 b1 b7 ba af 56 b5 bd 2f 1a ca 3c ee f5 05 be
       -0.0014014776 -0.08854424 0.024670688 -0.13082096
000110 5b ca 04 3d c3 fd 02 be 0c 5f 97 bb 07 50 00 3c
       0.032419544 -0.12792115 -0.004619485 0.00783158
000120 af c4 3d be 73 de 57 be be 10 aa bd 37 af 59 3d
       -0.1853206 -0.21080951 -0.083039746 0.053145614
000130 77 b7 7f 3e 74 60 ba 3d bb 36 3a 3e 25 ab 57 bd
       0.2497233 0.09100428 0.1818494 -0.05265345
000140 a7 84 46 bd 64 75 f8 bd fd f8 70 3d 25 9d d0 3d
       -0.04846635 -0.121317655 0.058831204 0.10186223
000150 e3 bf 2b bd 57 94 a4 3d d8 df 7b bd 46 d7 a4 3d
       -0.041931044 0.08036106 -0.06149277 0.08048873
000160 ac ef 3b 3d f4 b4 7e bb 39 c6 bc 3b 13 42 14 bd
       0.045882866 -0.003886518 0.0057609347 -0.036195826
000170 f2 93 39 be 10 c3 e2 3c 1d 18 09 3d 60 42 23 3d
       -0.18122843 0.027680904 0.03347026 0.039858222
000180 02 47 bc 3d 05 d0 2c be 09 3d 15 be 3b d0 a6 bd
       0.09193231 -0.16876228 -0.14574064 -0.081451856
000190 46 68 a3 bd fe 1c bd 3c 5c 46 fd 3d 7a 70 35 3d
       -0.07978873 0.023085114 0.123669356 0.04429672
0001a0 f1 67 67 3d 7a 42 6a bc b5 61 b8 bd a2 80 ce 3c
       0.05649561 -0.014298076 -0.09003011 0.025207821
0001b0 af 12 f9 bd b8 dc 31 3d 4e 0c b1 3d ee f6 2a 3d
       -0.12161767 0.043423384 0.08644925 0.041739397
0001c0 c5 ff e0 bd 03 0d 85 3d 4c d1 93 bc 9f c4 1d bd
       -0.10986284 0.064966224 -0.018044136 -0.03851759
0001d0 66 37 07 be 8d 62 1e 3e 8a d2 5b bd be f8 54 bd
       -0.13204727 0.15467282 -0.053667583 -0.05199503
0001e0 97 b9 26 3e e6 99 05 be 67 fc 69 bd bf 5d 53 3d
       0.16281734 -0.13046989 -0.057125475 0.051603075
0001f0 74 f9 84 bd c8 ed 92 bb 4e bd 23 3e 59 79 18 3c
       -0.06492892 -0.004483912 0.15990183 0.009306275
000200 fd 41 a2 bd e7 ab 05 3b 63 28 2e 3d 9d e9 45 bd
       -0.079227425 0.0020396651 0.042518985 -0.048318494
000210 bf 01 bf 3c 24 75 cf 3d 25 c5 be 3d 94 99 0b 3e
       0.023316262 0.10129765 0.09314946 0.13632804
000220 e6 fe 36 bd 0a 48 55 3d 49 30 3d 3e 75 d5 43 bd
       -0.044676684 0.052070655 0.1847545 -0.04781099
000230 7c 85 ae 3d 7a 0e 7f bd 5b 3f a1 3d 32 9a ba 3a
       0.08521554 -0.062269665 0.07873412 0.0014236628
000240 89 80 2a be 5b 55 c8 3c a6 bd ef bd 15 95 39 bd
       -0.16650595 0.024454763 -0.117060944 -0.04530819
000250 c7 e6 be 3c 42 2b 92 bd 1b 6d e5 bd 50 46 66 bc
       0.023303403 -0.07137157 -0.11202451 -0.01405485
000260 20 37 2a be f6 12 9e bc 07 99 91 bd 69 ef cb 3c
       -0.16622591 -0.01929615 -0.07109266 0.024894433
000270 9d 92 55 3d e1 9c 1c 3e 53 01 37 3d f1 ae 4f be
       0.052141774 0.1529422 0.044678997 -0.20281579
000280 9a eb 38 bd 18 4d e0 bd a9 1c 85 bd 06 94 4e 3e
       -0.045146562 -0.109522045 -0.06499607 0.20173654
000290 c1 82 46 be 33 02 7f 3e 0c da 0f be 49 44 19 be
       -0.19385816 0.24903183 -0.14048022 -0.14967455
0002a0 ed 6f 99 3d fb c8 ae bd a3 31 84 be 02 b8 70 3e
       0.07492051 -0.08534428 -0.2581912 0.23507693
0002b0 95 72 5b be e2 c8 4c be 47 11 f1 3d 2f 20 d3 bd
       -0.21430428 -0.19998506 0.117708735 -0.10308873
0002c0 16 f0 86 3e 22 8d b4 3c 7b a7 99 be 63 f4 7a be
       0.26355046 0.022039954 -0.3001059 -0.24507289
0002d0 7f e8 d3 3d 81 76 fe bd 14 d9 d8 3d c4 00 77 be
       0.103470795 -0.124249466 0.10588279 -0.24121386
0002e0 f6 fc a1 3d 00 f3 04 be 0f d3 71 be 54 ff 74 3e
       0.079095766 -0.12983322 -0.23615669 0.23925525
0002f0 75 d1 eb bd 23 e7 a2 be a1 48 2e 3e ec 80 9b 3b
       -0.1151456 -0.31816968 0.17019893 0.0047455933
000300 5c 1b 4d 3b f9 24 51 bd dd 5b 9a bd b8 f2 89 3d
       0.0031296825 -0.05106065 -0.07537053 0.06735748
000310 8c 63 8c bd 60 e9 d7 3d 0a c8 2a 3d a4 b6 02 be
       -0.068549246 0.105425596 0.04169468 -0.12764984
000320 02 d5 64 3e 27 b1 5e bd 18 49 fb 3c e5 bd 01 3d
       0.22346881 -0.054368164 0.030674502 0.03167524
000330 30 b5 62 3e f0 59 34 3e d9 71 0f 3e 35 82 55 3e
       0.2213943 0.17612433 0.14008273 0.20850451
000340 5c a8 29 be 29 2d 50 3e 67 37 26 be 9e d3 f4 3d
       -0.1656813 0.20329727 -0.16232072 0.11954425
000350 be 51 47 3e a9 5c bc 3d 31 b3 d7 bd 51 64 c9 3d
       0.19464776 0.09197361 -0.10532225 0.09833587
000360 ee c7 ed 3d f9 6d b5 3d 45 78 34 3e 16 35 e0 bd
       0.11610399 0.08858866 0.17624004 -0.10947625
000370 5b 37 0d be b2 78 82 bd ae 21 f8 3d 3d 7e 29 3e
       -0.13790648 -0.06370677 0.12115799 0.16552062
000380 67 03 40 bd 27 72 b8 3d 07 52 87 be ca 0b 0c 3e
       -0.046878245 0.09006148 -0.2642977 0.13676372
000390 bf ee 26 3e 72 f5 de bc da 41 50 be 8d 1e 1c 3d
       0.16302012 -0.027216647 -0.2033762 0.038115073
0003a0 93 43 d7 bd 69 d7 3f 3c de 5a 7d 3e 50 23 62 3d
       -0.10510936 0.011709073 0.24741694 0.055209458
0003b0 23 9e 0a 3e 26 58 98 bd 65 70 28 be e1 3d 64 bd
       0.13536887 -0.07438688 -0.16449125 -0.055723075
0003c0 4a 32 16 3e 49 be ec 3c 41 d6 97 3c 3f 6c dc 3d
       0.14667621 0.028899329 0.018534781 0.10762834
0003d0 e7 18 fc bc e0 cc 35 be 6f 35 f3 3d 5b be 0f 3d
       -0.030773593 -0.17753935 0.11875426 0.035093646
0003e0 41 07 09 be 80 1a 0f be e2 6a d3 3d 75 4e b2 bd
       -0.13381673 -0.13974953 0.10323121 -0.08706371
0003f0 75 3a 91 3d d5 8e b5 3c 97 a4 0e be 49 f2 a4 bc
       0.07091228 0.022162834 -0.13929974 -0.020135062

lstm.bias_ih_l0 f4 [320]
000000 a2 5c 8a 3d 10 5f 59 3c fa d1 20 3e 3d 1d 55 bd
       0.067559496 0.013267294 0.157051 -0.052029837
000010 c8 da e7 3d 09 3f 81 bd 0b 39 8d 3b ec 92 a1 3d
       0.11321026 -0.06310851 0.0043097786 0.07889351
000020 a4 2a a3 bd 0c 95 d0 3d af 56 bd 3d 76 46 11 3d
       -0.079671174 0.101846784 0.09245049 0.035467587
000030 d3 c8 dc bd b0 43 e4 3d 93 22 ab bd 5a 17 82 bb
       -0.10780492 0.11145723 -0.08356204 -0.003970069
000040 ed 83 5d 3d 88 50 c7 bd 3a 0b 18 bd 02 59 5c 3b
       0.054080892 -0.09732157 -0.03712008 0.0033622389
000050 0a 59 c4 3d 69 c5 7f 3c 67 2d c8 bd b5 e6 35 bc
       0.09587295 0.015611031 -0.09774285 -0.011102368
000060 09 05 7b 3e ae e2 bd 3b 18 5d 5b 3e d9 ec c6 3d
       0.2451364 0.0057948446 0.21422231 0.09713144
000070 7c 56 9a 3d 1e bd 96 bc 7c 6f 16 3e 8c 28 87 3e
       0.07536027 -0.018400725 0.14690965 0.26398122
000080 34 77 c6 3c b5 15 4c 3e 55 6b 23 3d 8b 7c c3 3d
       0.024226762 0.19930156 0.03989728 0.09545239
000090 87 43 ce bc db ae b0 3d 6c de 1b 3c 82 69 ed 3c
       -0.025178684 0.08627101 0.009513479 0.028980974
0000a0 11 74 70 bd 14 14 17 3c 61 9f c6 bd 92 22 51 3d
       -0.05870444 0.009221096 -0.09698368 0.05105836
0000b0 a4 3d 9c bd 59 11 9b bc 27 a4 0e 3d d2 01 58 3d
       -0.076289445 -0.01892917 0.034824517 0.05273611
0000c0 76 a5 a1 3d fd 73 0f 3c 32 68 76 3d bc 17 10 bd
       0.07892887 0.008755681 0.060157962 -0.035178885
0000d0 d3 26 20 3b f6 af 80 3d ca 99 9b 3c d1 d9 4a bd
       0.0024437204 0.06283562 0.01899423 -0.049524132
0000e0 48 17 0a 3d a4 16 fe bc a8 d3 d8 bd 9b 8a 14 3e
       0.03371361 -0.031016655 -0.10587245 0.14505999
0000f0 0a 3f 84 b9 4c ca 17 3d 1e 89 07 bc c3 b9 79 bd
       -0.0002522397 0.03705816 -0.008272437 -0.06096817
000100 42 cc 36 3e 38 01 35 bc 12 e2 c3 bc e7 d3 f5 3d
       0.17851356 -0.011047654 -0.02391151 0.12003308
000110 c6 42 81 3d 5b d4 8d bd 71 59 bd 3d 80 41 f9 bc
       0.06311564 -0.06925269 0.09245575 -0.03042674
000120 5e 4c b8 3d 14 c8 1c 3c 8d 5c 2e 3e 36 5c 54 3c
       0.08998941 0.009569187 0.17027493 0.012961438
000130 a9 61 4f 3d c5 1e 41 bd 67 64 a6 bd 17 09 4d 3d
       0.050630245 -0.047148485 -0.08124619 0.050057497
000140 43 e9 87 bd 50 da 36 bd cd 29 36 be 6c db ba bb
       -0.06636288 -0.044641793 -0.17789383 -0.0057024267
000150 e0 25 c6 3c 1a 61 85 bd f0 87 1b 3b ca 9c 9e 3d
       0.024187982 -0.06512661 0.0023732148 0.07744749
000160 78 fe 2f bd c4 e8 af bd 77 62 03 bd 7c 2d 70 3d
       -0.04296729 -0.085893184 -0.032076325 0.058637127
000170 9b 2c 3b 3b f9 26 9b bd 61 13 8e bd 09 de f3 bd
       0.0028560522 -0.07575793 -0.0693729 -0.11907584
000180 a0 73 e9 bd d4 8c 9f 3d 2e 17 86 3d bc a8 d1 bd
       -0.11399007 0.07790533 0.0654739 -0.10237262
000190 b2 35 1c bd 77 c0 a3 bd 66 ef a3 3d 6f 60 8c bd
       -0.038137145 -0.07995694 0.08004646 -0.06854331
0001a0 db 4a 83 3d b3 66 f7 38 34 cd ca bd cc ce 22 3c
       0.06410762 0.00011797007 -0.09902421 0.0099369995
0001b0 b1 0f b0 3d f0 de 72 3d 37 58 6e 3d 7f 41 33 be
       0.08596743 0.05929464 0.058189597 -0.17505454
0001c0 ae ec b5 3d c9 22 a3 bd 48 91 f0 bd cb 41 b2 3d
       0.08883034 -0.07965619 -0.1174646 0.08703955
0001d0 c2 e9 cc 3c cf cd ed bc be b2 b7 3d 4d 43 f4 bd
       0.025013808 -0.029028801 0.08969639 -0.11926899
0001e0 86 a3 53 3c 5c ca e3 bc 34 79 fc 3c 30 35 1f bc
       0.012917405 -0.027806453 0.030819513 -0.009717271
0001f0 f8 4c 82 3c 90 eb b9 bb 29 9a 75 3d d5 96 7e bd
       0.015905842 -0.005673833 0.05996147 -0.062155563
000200 5e d0 0e bd 79 8c 0f 3e c2 3a a5 3d b3 39 44 be
       -0.034866683 0.1401843 0.08067848 -0.19162636
000210 34 26 b3 3c 57 4f 44 3d 1d 61 de bd 93 93 96 bc
       0.021868803 0.047927227 -0.10858367 -0.018380916
000220 9a af 12 bd 3b bb 15 bd 41 62 95 3d 08 b0 d9 bd
       -0.035811998 -0.03655551 0.07294131 -0.106292784
000230 f4 5b 3f 3d 75 9a a6 bd 82 82 12 bd 62 35 a3 3d
       0.046718553 -0.08134929 -0.035768993 0.07969166
000240 47 29 2f bd 5f d7 2b 3d 15 ca 4c bd 48 94 58 bc
       -0.042763975 0.04195344 -0.049997408 -0.013218947
000250 4b 5f 55 bc 3a ab af bd f0 54 0e 3d 4f 20 d2 3c
       -0.013023208 -0.08577581 0.03474897 0.025650172
000260 33 29 a3 bd 90 75 28 3d 93 65 9d bb 27 89 20 be
       -0.079668425 0.04112774 -0.0048033684 -0.1567732
000270 6d 41 94 3d 2f fe 52 bb 54 b6 86 bd ff f3 ea 3d
       0.072390415 -0.0032194962 -0.06577745 0.1147232
000280 06 91 da 3d 25 1a cf bb 0d a5 94 3d 27 7e 71 3d
       0.10672192 -0.0063202553 0.072580434 0.0589582
000290 30 d6 18 bd 87 14 84 3d 2f 5f 59 3c 76 14 e4 bd
       -0.03731364 0.06449228 0.013267322 -0.11136715
0002a0 bd a9 88 bd cf 71 a6 bd 11 5c b9 3c 6a a1 f6 3c
       -0.06673 -0.08127176 0.022626908 0.030106265
0002b0 11 50 df bd ce 9b a6 3d 83 df 12 3d 18 2f 9b bc
       -0.10903943 0.08135186 0.03585769 -0.018943354
0002c0 36 c6 d2 3d 73 98 9f bd 6d ab 82 bd ec 45 d3 bd
       0.10291712 -0.07792749 -0.06380353 -0.10316071
0002d0 0d 09 e8 bc 5d 9d 97 bc 09 c2 02 3d c3 1e 21 3d
       -0.028324628 -0.018507654 0.031923328 0.039335977
0002e0 9d 8d a0 bd 97 3f 72 bb 7b 0f 46 3d c2 4f 78 3b
       -0.078395106 -0.0036964172 0.048354607 0.0037889336
0002f0 0d ae 96 bd 12 31 b3 3c 88 bd 2b bb bd ca 56 3c
       -0.07357416 0.021873984 -0.0026205499 0.01310986
000300 d3 39 cd 3d ba d8 cd bc 26 cf 67 3d af 3f aa 3d
       0.10020795 -0.025127757 0.056594037 0.08312928
000310 9c 21 d5 3b 87 4a ab 3d 1a 25 6d 3d 5d dd 7f bd
       0.0065042507 0.08363824 0.05789671 -0.062466968
000320 56 0f 7c 3d 96 8f 13 3d ac 17 74 bc af 64 9b 3d
       0.061538063 0.036025606 -0.014898222 0.07587563
000330 57 32 9e 3d 9b 3d 96 3d 03 a8 57 3d 53 50 ae 3d
       0.07724445 0.07335969 0.052650463 0.085114144
000340 30 3b ca bd a6 c7 b5 3d b9 6d b9 3b 74 44 a4 3d
       -0.0987457 0.088759705 0.005658832 0.08020869
000350 01 8e bc 3d 0f 33 07 be 44 8d 34 bc 1f 70 b8 3d
       0.092067726 -0.13203071 -0.0110200085 0.090057604
000360 0c 2e 2f 3d 8e e3 41 ba 8c be 90 3d 8e 60 b2 bd
       0.042768523 -0.0007396274 0.07067594 -0.087098226
000370 8a 02 91 bd e5 23 3b 3d fd f6 a9 bd 84 d0 7d bd
       -0.070805624 0.04568853 -0.082990624 -0.061966434
000380 a8 45 39 bd 97 50 9e 3d 23 5f 5d 3d fb 1c 60 3d
       -0.045232445 0.07730215 0.054045808 0.054715138
000390 34 88 99 bb c2 5e d4 bc a5 47 c3 3b d6 3d 71 3c
       -0.004685426 -0.02592409 0.0059594684 0.0147242155
0003a0 04 d4 fa bd f0 46 7b bd 88 44 c5 bd 86 12 dc bc
       -0.1224747 -0.06134695 -0.09632212 -0.026864301
0003b0 b7 4d ca bc f1 80 f7 bc fe 73 b9 3d cf d2 d4 bb
       -0.02469526 -0.030212851 0.09055327 -0.006494857
0003c0 e2 c3 5b 3d 6c 0a c4 3c 3d 72 37 3e bf 8b 5f bd
       0.053653605 0.02393075 0.17914672 -0.05457663
0003d0 c5 c8 97 3d d6 73 55 bd 25 1a 36 3d bd a5 b0 bd
       0.074113406 -0.052112423 0.044458527 -0.08625362
0003e0 8e 11 ea bd 78 96 0a 3e ce c4 6e 3d 18 44 cc 3d
       -0.114291295 0.13533962 0.058293156 0.09973925
0003f0 68 dd bd bc 59 ec 03 3c 3f 8b 95 bd 89 49 aa 3c
       -0.023176864 0.008051955 -0.0730195 0.020787017

lstm.bias_hh_l0 f4 [320]
000000 28 ab f2 3b b5 be 52 3d 24 d2 2c 3e 56 4e 4c bc
       0.0074056573 0.051451404 0.16877037 -0.012469849
000010 b1 a6 5d bd 02 7e c4 bd 01 0e 3b bd 40 04 b2 3c
       -0.054114047 -0.095943466 -0.045667652 0.021730542
000020 d8 2d 9e bd f8 08 29 3e 22 4d aa 3d f8 13 88 bd
       -0.07723588 0.16507328 0.08315493 -0.06644434
000030 1f f7 bf bc f7 05 d8 bc 17 de b1 bd 00 c2 b5 3d
       -0.023433266 -0.026370032 -0.086849384 0.08874893
000040 14 12 9f 3d 69 7e 28 3d 72 41 39 bd 61 2f 06 3e
       0.0776712 0.04113618 -0.04522843 0.13104011
000050 a7 b7 2b 3e 2a 00 7b 3d a9 42 82 bd 4b a8 05 bd
       0.16769277 0.061279453 -0.06360371 -0.0326312
000060 b1 9a 9c 3d dd 43 85 3d d7 01 e1 3d db 46 ef 3d
       0.076466925 0.065070845 0.10986679 0.116834365
000070 3f a9 9b 3c 08 3b a2 bc a3 11 25 3e 34 11 8e 3e
       0.019001601 -0.019803539 0.16120009 0.277475
000080 2c da 26 bd 7e de 66 3d 63 8c c4 3d 9e ed 6d bd
       -0.04073541 0.05636453 0.09597089 -0.058087938
000090 45 44 33 3e 06 b6 80 3c 24 e6 15 bc 2d 8a d4 bc
       0.17506512 0.015711796 -0.009149108 -0.025944794
0000a0 cc 78 e3 3d b7 0d 2a 3e 65 09 e5 bd 99 f4 09 be
       0.111070246 0.16606794 -0.111834325 -0.13472213
0000b0 57 94 68 bd 6d 7e 97 3b 4a 3f 89 bd 8c 32 a0 3d
       -0.056782093 0.0046232254 -0.067015246 0.07822141
0000c0 77 c6 16 3c 6b 99 ad bc b2 09 7e 3b 87 4f 2c bd
       0.009202591 -0.02119132 0.0038763103 -0.04206803
0000d0 8d cd b6 3d 97 c6 1a bd 83 7f aa 3d 6c bf ef bc
       0.089259245 -0.037787046 0.08325102 -0.029266082
0000e0 02 61 8c 3c 8e cf 5a bd 24 7f 17 3d 2e 84 22 3d
       0.0171361 -0.053420596 0.036986485 0.039676838
0000f0 c1 d2 b8 3d e6 c0 5c 3d 81 62 87 bd 58 89 32 bd
       0.09024573 0.0538949 -0.06610585 -0.043588012
000100 95 22 26 3e 0c 40 7c 3d ef a8 65 3d 4b 63 43 3d
       0.1622413 0.061584517 0.05606931 0.047702115
000110 a3 34 1c 3d a4 82 09 bd 81 98 02 bd dd 26 b0 3d
       0.038136136 -0.033571854 -0.03188372 0.086011626
000120 7a 3c b4 bd 5d 20 1d bd 6c ec 01 3e b7 ef 0e 3d
       -0.088005975 -0.038360942 0.12687844 0.03489658
000130 b4 e6 9b 3d 37 0b 1d 3d f8 7e d6 3d ef 4b f2 bd
       0.076123625 0.038340773 0.10473436 -0.118308894
000140 da e4 03 be 41 14 b3 bd 12 59 77 be b2 49 0b 3d
       -0.12880269 -0.087440975 -0.24155071 0.03400583
000150 d6 5b e8 3d 41 34 b6 bd d1 db 0a be e2 2a c1 3d
       0.11345641 -0.088966854 -0.13560416 0.09432007
000160 db b2 4b bd 75 5a 1a 3d 88 c4 79 3c 71 80 27 bd
       -0.049731117 0.037683923 0.015244611 -0.040893976
000170 e6 d3 8e bd 03 6a b8 3d 9a 3e 9c bd 45 e7 90 bd
       -0.0697401 0.09004595 -0.07629128 -0.07075361
000180 3b 17 f1 bc 14 e0 8d 3c 18 7a bd bc 31 e6 28 bc
       -0.029430022 0.017318763 -0.023129508 -0.010308788
000190 e6 df 08 be 8f bb b8 3c 25 28 d1 bd d6 2c 6b 3b
       -0.1336666 0.022550372 -0.10212735 0.0035884879
0001a0 78 0c f4 bb f8 ca 0f 3d 90 58 16 be 5d 92 12 bd
       -0.0074477755 0.035105675 -0.14682221 -0.035784114
0001b0 ea 79 b5 bb c0 aa 58 bd 67 90 3b bc 91 fb 96 3b
       -0.005538215 -0.052897215 -0.011448002 0.004607626
0001c0 77 22 f0 3c 6e d9 79 bd f7 d9 f6 3c cf db cc bd
       0.02931331 -0.060998373 0.03013323 -0.10002863
0001d0 1e a1 c7 bd 0e ee 96 bc ca 77 00 bd 7e ec d6 bd
       -0.097475275 -0.01842406 -0.03136424 -0.10494326
0001e0 9f bb 8e bd 2f 09 a2 bc bc d0 44 3d ed 1a 37 bd
       -0.0696938 -0.01977977 0.048050627 -0.044703413
0001f0 49 2d cf 39 ed 6f 06 bd 50 f4 68 bd 43 72 a3 bc
       0.00039515857 -0.032821584 -0.05687362 -0.019951945
000200 51 73 bf bd 58 9d ac 3d dd 93 75 3d 6c 47 e5 bd
       -0.09348167 0.084284484 0.059955467 -0.11195263
000210 a3 f7 8a bd 58 a5 a9 3d 60 76 88 bd fb 48 d3 bd
       -0.06785514 0.0828349 -0.06663203 -0.10316654
000220 83 ff ba bc fd 34 4d bd 02 b5 6c bd 11 e9 0c be
       -0.022826916 -0.05009936 -0.05778981 -0.13760783
000230 dd df 35 3d 20 12 82 bc 5c f6 9d bd a6 b5 a7 bd
       0.044402946 -0.015877783 -0.07713005 -0.081889436
000240 01 1a e7 bd 37 fe 12 bc 5c 1c d3 bd c6 8f 77 3c
       -0.11284257 -0.008971742 -0.103081435 0.015109962
000250 c1 92 be bd 52 b4 25 bd 7d 90 90 3d e3 ef fe bd
       -0.09305335 -0.04045517 0.07058809 -0.124480985
000260 4d 92 95 bd 82 3c ff bd 7b 3c 9c 3d 5a 7a f0 bd
       -0.07303295 -0.12462713 0.07628723 -0.11742087
000270 0f a8 34 3d f5 41 7d bd 9c 49 0c be d2 d6 4f bd
       0.044105586 -0.06183048 -0.13699955 -0.050741978
000280 14 8b a5 3c 51 06 5b 3b e1 ae 01 3d 3e 4e b1 bc
       0.02020792 0.0033420513 0.03166092 -0.021643754
000290 1b 6e 1a 3d fa 4b 39 3d 3d 60 cd bd f6 08 15 bc
       0.03770266 0.045238473 -0.100281216 -0.009096375
0002a0 a6 06 fd bc 5f 4a e4 3c ae 80 94 bd 4b 75 fd bd
       -0.03088696 0.027867494 -0.07251106 -0.123758875
0002b0 ab 92 8a 3d f9 90 83 3c 6c 29 65 bd 06 4f cb 3d
       0.06766256 0.01606034 -0.055947706 0.09927182
0002c0 d3 93 05 bd ac 28 8f 3d 2d 69 5d bd ef ba 33 bd
       -0.03261168 0.069901794 -0.05405538 -0.043879446
0002d0 d5 a2 06 be bd 0e d3 3d 41 47 c4 bc 71 3e ab bc
       -0.13148053 0.103055455 -0.023959758 -0.020903798
0002e0 83 a1 70 3d ec dc aa 3d 33 cf 25 bc d7 59 06 bd
       0.05874778 0.08342919 -0.010120201 -0.03280052
0002f0 7a 1a 12 3e 86 b4 4c bd 7c 5b 3a bc e4 4e ca bd
       0.14267913 -0.049976848 -0.011374351 -0.098783284
000300 76 49 86 3d e4 79 01 3d 9d f8 1c bc fe 94 57 bd
       0.0655698 0.031610385 -0.009580758 -0.052632324
000310 4e f9 a2 bc 5a 30 be 3d 14 10 29 bd 97 c2 7f bd
       -0.019894268 0.09286566 -0.0412751 -0.062441435
000320 db 0f fe bc fb 6b c1 3d 63 81 86 bd 10 cb 82 3d
       -0.03101342 0.09444424 -0.06567647 0.06386387
000330 b1 91 8e bd 7f 71 a6 3d aa 26 3e bd 18 22 34 bd
       -0.06961382 0.081271164 -0.04642359 -0.043977827
000340 f7 2e 82 3d a4 6d a7 3c c9 bc 79 bd ac 04 5f 3c
       0.06356614 0.020438023 -0.060971055 0.013611954
000350 2c bf a4 3d 68 66 fa bd 46 e6 3d 3d 11 2d b6 3d
       0.08044276 -0.12226564 0.046362184 0.088953145
000360 32 c8 d4 bd b5 f3 6f bc fe 4f 2e 3c 09 a1 99 bd
       -0.10389747 -0.014645507 0.010639189 -0.07501418
000370 42 21 17 39 63 e1 1b bd 9f 62 41 bd 1d 32 b6 bd
       0.00014412872 -0.038056742 -0.047213193 -0.08896277
000380 48 1b e9 bc 87 08 0c bd be d7 8d 3d c2 4b 8e bd
       -0.028455392 -0.03418782 0.06925915 -0.069480434
000390 38 91 8d 3d 79 4b b8 3c 92 4d 08 3d ec 5b 26 3d
       0.06912464 0.022496926 0.0332771 0.040615007
0003a0 76 63 30 3d 6f 68 e4 bc 01 f7 7a bc 6f c3 b3 bd
       0.043063603 -0.027881829 -0.015317679 -0.087775104
0003b0 97 ac bd 3d 9a d9 a1 bd f7 22 e6 bc 4e 61 a1 bc
       0.092614345 -0.07902832 -0.028092844 -0.019699719
0003c0 9e 0e 1a 3d be d8 2d 3e 64 ff 2e 3e dd 70 01 be
       0.037611596 0.16977212 0.17089611 -0.1264071
0003d0 64 cb ac bd a5 d5 df 3d 29 0d 84 bd c4 23 b7 3d
       -0.08437231 0.10929421 -0.064478226 0.089423686
0003e0 25 17 87 bc f9 42 07 3e 92 68 c5 bd f7 ec bc 3d
       -0.016490528 0.13209142 -0.09639086 0.09224885
0003f0 3c 9d 94 bc dd 60 77 bc 2f 03 7f 3c 8d 30 d5 3c
       -0.018141381 -0.015098778 0.015564724 0.026024127

lstm.weight_ih_l1 f4 [320, 80]
000000 72 a1 88 3e 7a 9b 07 3c 36 3f 3f 3d 67 82 0b 3d
       0.26685673 0.008276815 0.046691142 0.03405991
000010 3d 34 d2 3d 59 35 99 bd 2f 66 d3 bd 12 3b a9 3d
       0.1026387 -0.074808784 -0.10322224 0.0826322
000020 b8 5d ca bd b1 58 2b be d0 8d 8e 3c 9d de bc 3d
       -0.09881157 -0.16733052 0.017401606 0.092221476
000030 c8 02 9d 3d 36 7d 99 bd 7a 99 b5 3d 12 21 94 3d
       0.07666546 -0.07494585 0.08867164 0.0723287
000040 d1 d5 70 bd 83 33 f7 bc 5c 25 bd bd d8 31 8b 3d
       -0.05879766 -0.03017593 -0.09235641 0.06796616
000050 8b 06 22 3d e4 7c 1a be a9 ea a2 3c 5e 45 40 3d
       0.03955702 -0.15086704 0.019887285 0.046941154
000060 cf dc 01 3c bd 86 5d 3d 63 b0 63 bd c8 d5 c9 3c
       0.00792618 0.054083575 -0.055588137 0.024638072
000070 69 d8 73 bc 8f 57 82 3d 54 b1 c9 3d 06 f1 15 bd
       -0.014883139 0.06364357 0.09848276 -0.03660681
000080 45 10 25 3e 59 3a c7 3d 3d a5 16 3d c5 0a 37 be
       0.16119488 0.09727926 0.036778677 -0.17875202
000090 cf 15 26 be 99 76 22 3e 3b 61 81 3c 98 5d 4c 3c
       -0.16219257 0.15865554 0.015793433 0.012473486
0000a0 e8 ee a0 3d 90 c8 ad bd 33 3f d9 bb 30 bb 0a 3c
       0.07858068 -0.0848552 -0.0066298484 0.008467481
0000b0 82 51 fd bc 08 0a b8 bd bb 1b 72 bd 56 00 58 3d
       -0.030922655 -0.08986288 -0.059108477 0.052734695
0000c0 dc 75 c3 bb f6 d0 63 3d 18 ee 1c be f6 2b 36 3e
       -0.0059649777 0.055619203 -0.153252 0.17790207
0000d0 00 f5 21 3d 59 9c 1e 3d c4 b2 da 3c 7a 46 01 3e
       0.03954029 0.038723323 0.02669657 0.12624541
0000e0 b0 67 2c 3e 40 fa 91 bd c7 a9 00 3e 15 ba 83 3d
       0.16836429 -0.071278095 0.12564765 0.06431977
0000f0 a0 27 3e 3d 9e a5 84 3d 29 c0 1f bd 79 3d 15 3d
       0.046424508 0.064769015 -0.039001618 0.036435578
000100 41 a6 c8 bd 13 1d 90 bd ff 92 a0 bc 70 4f 5a bd
       -0.097973354 -0.070367955 -0.019601343 -0.053298414
000110 2d 5b 9b bc 1b 9e 25 3e 79 91 85 bd 9a fb 28 3d
       -0.018964374 0.16173594 -0.06521887 0.04125557
000120 f4 eb b4 bd 67 55 f5 bc d5 8c 14 be be 5d 2b 3d
       -0.08834067 -0.02994795 -0.14506848 0.041837446
000130 15 16 25 3d 05 b5 2d 3e 8f f5 03 3e 9d 31 cd bd
       0.040304262 0.16963585 0.12886642 -0.100192286
000140 cb dd 68 3e d8 a0 ad 3d 25 91 dd bd 7b ca 93 bd
       0.22740857 0.08477944 -0.108187 -0.072163545
000150 8d ed a9 3c b2 f3 d7 bd 78 4f 64 bd b8 81 7b bd
       0.020743156 -0.10544528 -0.05573985 -0.061403006
000160 e6 ae b2 3d 19 6e 59 bd d7 44 4f bd 87 99 41 bc
       0.087247655 -0.053083513 -0.05060276 -0.011816389
000170 f7 65 07 3d 76 b1 4a 3d c9 40 35 3d e9 4b 32 3e
       0.033056226 0.049485646 0.044251237 0.1741177
000180 13 dc 86 3d cc ca e0 bd 30 aa bf 3d 78 36 d6 3d
       0.065849446 -0.109761804 0.093586326 0.10459608
000190 ff 0c 8d 39 97 d7 f0 bd 05 37 6d 3d 87 23 9d bd
       0.000269033 -0.117598705 0.0579138 -0.07672792
0001a0 c8 7b a6 3c c2 54 ed 3b dc 74 5c bd 5f 74 49 bd
       0.020322695 0.00724277 -0.053822383 -0.049183246
0001b0 45 51 1f 3d 33 1b d0 3d 53 2a 1c bd 25 9e 0a bd
       0.038895864 0.10161438 -0.0381263 -0.033842225
0001c0 57 2c 36 bc d1 be 5a bc 89 1c af bc e3 db 2e 3d
       -0.01111897 -0.013351158 -0.021375911 0.04269017
0001d0 19 ae 8c be ec 06 ea 3d d7 c9 10 bd 49 b5 38 bd
       -0.27476576 0.114271015 -0.03534874 -0.045094762
0001e0 59 d5 b6 3d e1 5f a6 bd 64 79 08 be 1e b7 27 3d
       0.089274116 -0.08123756 -0.13327557 0.04094612
0001f0 6b 7c 05 be 4b 3c 72 bd 36 67 21 3d 5d 29 e9 bc
       -0.13035743 -0.05913953 0.03940507 -0.028462106
000200 d0 8a d9 3d b1 74 00 bd 0e 95 8e bd e9 09 82 3d
       0.106221795 -0.031361286 -0.06962024 0.063495465
000210 af 31 a2 3b d8 b9 eb 3a 03 bf 19 be ee ef 0f 3e
       0.0049497704 0.0017984463 -0.15014271 0.1405637
000220 87 f4 c3 3d e0 98 c8 bd 17 a3 64 3e b6 14 ec bc
       0.09568124 -0.097947836 0.22327839 -0.02881847
000230 34 6f 54 3d 97 d4 f9 3d af 34 47 3e 2a 20 40 3d
       0.051863864 0.121987514 0.19453691 0.046905674
000240 ff ef cd 3d b5 4a 17 3b 22 a2 ca bc 8e 0d d2 bd
       0.10055541 0.00230853 -0.024735514 -0.102564916
000250 46 72 1b bd 61 42 8f bd 86 c0 b7 bc 29 8c ab 3d
       -0.037950777 -0.06995083 -0.02243067 0.08376343
000260 b0 e8 9e bd 61 29 8c bd 21 28 b2 bc 3f 46 07 3e
       -0.07759225 -0.0684383 -0.02174765 0.1321039
000270 04 a3 11 bd d4 ac 17 3e 19 08 5b 3e 13 2f 35 bd
       -0.035555854 0.14812022 0.21389808 -0.044234347
000280 0e cb 78 ba 98 f0 68 bd 5d 18 c5 3d 64 6e 1b 3d
       -0.0009490707 -0.056870073 0.096237876 0.037947074
000290 98 4e 13 be 0c 24 73 3c b9 9a 54 bd 67 d6 31 3e
       -0.1438545 0.014840137 -0.051905368 0.17366944
0002a0 59 01 6f bd 19 c2 82 3c be c0 50 3e c0 5e 6c 3b
       -0.058350895 0.015961694 0.20386025 0.0036067218
0002b0 03 11 b3 3d 21 47 36 3d 89 e4 35 3e f7 57 9f 3d
       0.08743479 0.044501428 0.1776296 0.0778045
0002c0 71 ba bd 3d 49 7b 8a bd 1c fb a4 3d cd 39 29 3d
       0.092640765 -0.06761796 0.08055708 0.04131489
0002d0 17 e5 17 3d 05 83 4d 3d a4 b7 a7 3b fa cf bd 3d
       0.03708371 0.050173778 0.005118327 0.09268184
0002e0 f5 3d b4 3c d8 66 5d 3d ba e3 b7 3d c8 0d 13 bc
       0.0220022 0.054053158 0.08978982 -0.008975454
0002f0 e5 ec 9e bd aa 95 93 bb 9d 5f a0 bd 39 6e df bd
       -0.07760028 -0.0045039253 -0.07830737 -0.10909695
000300 a3 c8 fe bc f3 ed 3a 3e 3d 95 ea 3c b2 22 ae bd
       -0.03110153 0.18254833 0.028635615 -0.08502711
000310 1d 0b d2 bd 27 24 50 bd 43 25 70 3d 03 82 fe bd
       -0.10256026 -0.050815728 0.058629286 -0.124271415
000320 51 9c 76 bb 9e a7 42 be 0f a2 0a 3d 35 10 d3 bc
       -0.0037629793 -0.19009253 0.033845957 -0.025764564
000330 9d a2 50 3c 42 2f 44 3e 85 d8 33 3e 76 3a fc bc
       0.0127340825 0.19158652 0.17563064 -0.030789595
000340 5f 31 90 3d f7 05 0c 3e c9 7c d4 3d ed f4 47 3d
       0.07040667 0.1367415 0.103753634 0.048817564
000350 ee 5c 6b 3c 3a 29 ba bc 9c d1 a6 bd 18 d8 87 3e
       0.014365418 -0.022724736 -0.081454486 0.26532054
000360 ff e4 36 be c7 1c 54 3d 0b 7c 60 3e b3 03 83 bd
       -0.17860793 0.051785257 0.21922319 -0.0639719
000370 9b 43 95 3d c8 0d 23 3e 17 e3 05 3e f1 55 9d bd
       0.07288285 0.15923226 0.13074909 -0.07682408
000380 5c 46 8c 3d 61 82 8d 3b cc f3 3b be a2 cb f1 bd
       0.068493575 0.004318521 -0.1835472 -0.11806418
000390 18 00 e7 bd 31 fe 13 be a8 e0 59 3d a9 fa b7 bd
       -0.11279315 -0.14452435 0.053192765 -0.089833565
0003a0 31 93 c1 bd 9d 30 50 3d 2b 7d 79 3d 6e ec ad 3d
       -0.09451903 0.05082761 0.060910385 0.08492361
0003b0 4b f8 e2 3d 3b a3 49 3e 1d ed 41 bc 6e 47 78 be
       0.110825144 0.19691174 -0.011836317 -0.24245998
0003c0 ad 96 89 3d ab 51 01 3e b3 e0 04 be 51 38 9e bd
       0.06718192 0.1262881 -0.12976341 -0.07725585
0003d0 0f e8 c6 bd 18 50 8e 3d cf af 11 be 54 64 80 bd
       -0.097122304 0.069488704 -0.14227222 -0.06269136
0003e0 cc 5d 34 3c 7f 27 76 3d f4 b3 1e be 87 e7 2c bc
       0.011008691 0.06009626 -0.15498334 -0.010553247
0003f0 df a5 f6 bc 44 8c ea bd 9d d4 b4 3c 51 3f 78 bd
       -0.03010839 -0.11452535 0.022074038 -0.06060726

lstm.weight_hh_l1 f4 [320, 80]
000000 50 51 79 3d a8 a7 08 3d f6 1c 9a bd d7 67 9c 3d
       0.06086856 0.033363014 -0.07525055 0.076369934
000010 ab 76 cb 3c e9 e2 ff bd 08 dc 24 bd b1 8e 05 3c
       0.024836859 -0.124944516 -0.0402489 0.008151696
000020 34 09 81 bd 05 37 a9 3d ca fd bf 3c 88 17 ab 3d
       -0.063005835 0.08262447 0.023436446 0.083540976
000030 4f 2d b4 bb 55 e2 ee bb 27 6c 6c bd d0 99 bd 3d
       -0.0054985653 -0.0072901645 -0.05772033 0.09257853
000040 66 6e fd bd 69 ec 0e bd 28 81 b5 3d d7 0e bf 3d
       -0.123745725 -0.034893427 0.08862525 0.09329002
000050 94 99 db 3a 62 2d 05 bd d8 aa 60 3c 15 75 9c bc
       0.0016754144 -0.032513984 0.013712607 -0.019098798
000060 a5 db df bd 5b 05 98 3d be 59 24 be a1 ef 11 3e
       -0.10930566 0.074228965 -0.16049859 0.14251567
000070 f0 46 12 3d a3 f0 30 3c bf 98 0c 3c 5f e6 db bd
       0.035712183 0.01079956 0.008581339 -0.10737299
000080 d2 c9 34 3d 3a 54 00 3d 99 d2 1b 3c 27 6e dd bd
       0.044137783 0.031330325 0.00951066 -0.108120255
000090 cf a9 41 3d 4f 73 dc 3d 85 1a 18 bb 49 2a 53 3d
       0.047281083 0.10764181 -0.0023209166 0.051554
0000a0 7c 35 4b 3d cd 90 9a bb 09 f8 dc bd 63 2c 16 3e
       0.049611554 -0.0047169686 -0.107894965 0.1466537
0000b0 82 d8 cd 3d 45 d9 69 3b 88 db 7e 3d 4f 63 ad bd
       0.10051061 0.0035682481 0.06222108 -0.08466207
0000c0 7b 48 1e 3d e0 69 0a 3d 7c 1f c9 3d 3a bc 80 bc
       0.03864334 0.033792377 0.09820458 -0.015714753
0000d0 d2 89 b0 ba 2d 6b 28 be 1f 2d c1 bd 80 de e4 bd
       -0.0013468808 -0.16447134 -0.09432434 -0.11175251
0000e0 23 07 88 bd 94 65 b8 bd 79 36 30 3d 7c a6 77 bb
       -0.06641986 -0.090037495 0.0430207 -0.0037788441
0000f0 45 de 39 be 6c f5 fb 3c f6 d6 58 3c 61 30 c0 3d
       -0.18151195 0.030756675 0.013234844 0.093842275
000100 3c 35 05 3e 38 d8 a5 bb 63 bf ae bc cf 4d a3 3c
       0.13008589 -0.0050611757 -0.021331495 0.019934563
000110 69 8a f3 3a 0d f8 dd 3d 49 e7 6c 3d 86 0c 38 bc
       0.0018580678 0.108383276 0.05783776 -0.011233455
000120 ad f0 f0 3d 71 4f 7a bc 25 c1 0e 3e f5 7b 14 bd
       0.11764655 -0.015277729 0.13940866 -0.036251027
000130 b7 d6 84 3d b2 d9 06 bd 37 6e e4 bd b6 4b f7 3b
       0.06486266 -0.032922454 -0.11153834 0.0075468672
000140 60 3a 6f 3d 97 62 84 3d 58 1b c6 3d 67 23 95 bc
       0.05840528 0.06464117 0.09673184 -0.018205358
000150 fc 4c 48 bd 4a e7 c0 bc db 8f a0 3c cf 66 ff bd
       -0.048901543 -0.023547787 0.019599846 -0.12470781
000160 db 00 95 3d 88 21 cd 3c 66 b6 5e bd 2b 76 26 bd
       0.07275554 0.025040403 -0.054373167 -0.040640038
000170 15 a8 27 3d 05 08 0b 3e b9 bd bf 3d 53 71 ca bc
       0.04093178 0.13577278 0.093623586 -0.02471224
000180 2b b8 3f 3d 9b 6c d1 3d 56 3e a9 3d 7c f2 9c bd
       0.046806496 0.10225793 0.08263843 -0.07663438
000190 3e cf c7 bd 8d 8a b3 bc 70 5d db 3d d2 3e 4b 3d
       -0.09756325 -0.021916652 0.10711181 0.049620457
0001a0 ed 37 be 3b 4c a7 bf 3d 1a 75 00 be ae 86 55 3d
       0.0058050067 0.09358081 -0.1254467 0.052130394
0001b0 51 93 86 3d 6b ab 16 3d c0 81 0c 3e 73 81 92 3d
       0.06571067 0.03678457 0.1372137 0.07153597
0001c0 80 c1 f0 3d a5 11 80 3d 8a 66 94 bd ce 05 05 be
       0.11755657 0.062533654 -0.0724612 -0.12990496
0001d0 3c ce 48 bd b5 e4 3d bd 93 7c 87 3d d2 a6 64 3d
       -0.049024805 -0.04636069 0.066155575 0.055823155
0001e0 07 de d1 bc c1 01 98 bd fe 89 76 3d 12 5f 84 bd
       -0.025618566 -0.074222095 0.060190193 -0.06463446
0001f0 77 1a 9e 3d 7b c5 ff 3d b5 4f 8c bc ca 56 95 bc
       0.077198915 0.12488838 -0.017127851 -0.01822986
000200 93 2f f3 3c 60 14 99 bc 97 b4 e8 3c d2 76 e6 bc
       0.029685771 -0.018686473 0.028406424 -0.02813283
000210 8e 3f 84 3d e5 8d 84 bd 4a ab 9e 3d b2 56 96 bd
       0.064574346 -0.06472377 0.077475145 -0.073407546
000220 37 07 a1 bd 0d 78 e4 3d fc 5c ca bb f4 51 ac 3c
       -0.07862704 0.1115571 -0.0061756354 0.021035172
000230 3c c8 32 3d c1 5a 4a 3c 13 07 59 3d a8 22 8a 3d
       0.04364799 0.012350739 0.052985262 0.067448914
000240 de 2e d1 bd 9e d4 fb 3c 20 b6 46 3d d1 a9 57 3a
       -0.10214017 0.030741032 0.04851353 0.0008226904
000250 aa 3d 7b bd 5a 81 5c 3d 4e dd cc 3d b0 69 73 3c
       -0.061338104 0.053834297 0.10003148 0.014856741
000260 ea ab 97 3c da ed 70 3d 6f 30 9f 3d e7 1e b9 3d
       0.018514592 0.058820583 0.0777291 0.09039097
000270 1b d2 80 bd 6e 43 97 3d 38 30 c1 3d d0 cf c6 3d
       -0.062900744 0.07385908 0.09433025 0.09707606
000280 ef 80 65 be 48 29 a3 3d da 58 49 be d4 b7 74 3d
       -0.22412466 0.07966858 -0.196628 0.059745625
000290 98 ed cc bd 96 41 95 3c 4a 63 0a 3e 10 4c 09 3d
       -0.10006255 0.01821975 0.13514438 0.033519804
0002a0 ab 59 16 3e af 1d 1a be da a2 c7 b8 36 e0 ae bd
       0.14682643 -0.15050386 -9.519393e-05 -0.085388586
0002b0 81 54 9f bd ba a9 32 3d 83 c3 c1 bc 5e 87 ee bd
       -0.0777979 0.043618895 -0.023652798 -0.11646913
0002c0 91 e6 d9 bd 03 11 fc 3d 55 6e 1a 3d 12 df 76 3a
       -0.1063968 0.12307932 0.037702877 0.00094173953
0002d0 52 40 c8 bc 34 a8 06 3e a3 5d 51 3d 9d d8 f0 bc
       -0.024444733 0.13150102 0.05111469 -0.029400164
0002e0 06 e0 27 be 43 9f 45 3a 22 81 d2 bd 66 1a ce 3d
       -0.16394052 0.00075386855 -0.102785364 0.10063629
0002f0 96 62 81 3c 0a f3 01 bd 6e ec 9e bd eb 61 85 bd
       0.01579408 -0.03172592 -0.07759939 -0.06512817
000300 86 c6 04 3d 29 e0 7f bd 9a 36 b6 3d 10 40 bf bd
       0.03241589 -0.062469635 0.08897133 -0.09338391
000310 dd e3 62 3c 22 d2 a5 3d 1a 41 2f 3e 2e 99 ba bd
       0.013848272 0.0809672 0.17114678 -0.09111248
000320 50 0f dc ba b6 6d 84 3d e0 6c 05 bd 9a ef 96 3d
       -0.0016789231 0.06466238 -0.032574534 0.07369919
000330 fa af 91 3b 1e b7 20 be 48 d8 9d 3c 54 81 98 3d
       0.004446027 -0.15694854 0.01926817 0.074465424
000340 6a 54 11 3e bf f6 aa bd 94 89 8d 3d 4b de d1 3d
       0.14192358 -0.08347844 0.069110066 0.10247477
000350 61 9e 4b 3e 7b 87 3a 3d 43 f9 c0 3c 05 4a 63 bd
       0.19884636 0.04553936 0.023556357 -0.055490512
000360 b1 a9 c3 3d 98 59 70 3d 4d fa da bc 58 a9 e7 3c
       0.095538504 0.058679193 -0.02673068 0.028278992
000370 b7 60 8b bd b9 4d 5b 3e 19 37 84 bc 16 c4 55 bd
       -0.06805556 0.21416368 -0.016139554 -0.052188955
000380 f3 aa 4c bd 92 31 75 3a 88 9c c7 3d d3 cf 25 3d
       -0.049967717 0.0009353395 0.09746653 0.0404814
000390 90 5a c5 3c d2 39 b1 3c c4 09 b5 bd cb 50 a5 3d
       0.024091035 0.021634016 -0.08839753 0.08072051
0003a0 62 6c 3a be ef cd 7a 3c f7 40 ff 3c e3 1d 9d 3d
       -0.18205407 0.015307887 0.031158907 0.07671716
0003b0 23 d8 c1 bd 65 01 5d bd 33 58 45 3e 78 c1 50 bd
       -0.09465053 -0.053956408 0.19271927 -0.050965756
0003c0 cb 0f a0 bd 33 c1 38 3e 21 71 4d bd 21 8a 74 bc
       -0.07815512 0.1804245 -0.050156716 -0.014925511
0003d0 ea 57 6f 3d 5c c4 62 bd 61 3c d6 3c 64 37 dc bc
       0.05843345 -0.055363044 0.026151838 -0.026881881
0003e0 99 98 85 3d 44 a5 12 bb b1 5a 0d be 62 a5 07 be
       0.06523246 -0.0022376338 -0.13804127 -0.13246682
0003f0 5d 56 d5 bd b9 18 d5 3d cf f1 ac bd 37 65 ed 3d
       -0.10416863 0.10405106 -0.08444559 0.11591571

lstm.bias_ih_l1 f4 [320]
000000 68 df eb bc a6 c9 fc 3d c5 39 62 3d b3 24 66 3d
       -0.028793052 0.12343149 0.055230875 0.056187343
000010 72 7c fd bc 44 fd 40 3d 28 fd 5a 3e 4b 98 d5 3c
       -0.03094313 0.047116533 0.21385634 0.026073596
000020 7f 02 a4 bc 74 10 9a 3d 68 15 4a 3c 68 f6 aa 3d
       -0.020020721 0.075226694 0.012334205 0.083477795
000030 b3 07 c3 bc a4 0f f9 3d 6e 84 b2 3c 94 f7 cc 3d
       -0.023807382 0.12161186 0.021791663 0.10008159
000040 8b 1a 37 3e 48 ef c0 3c 63 ea 81 3e 31 e8 2e 3e
       0.17881219 0.023551598 0.25374135 0.17080761
000050 1c 8c 81 3c 69 c1 4b 3e 5e 57 8d bb 22 fb d9 3c
       0.01581388 0.19897999 -0.0043133935 0.026609007
000060 6c 5f 75 bc b1 19 2f bd 25 7f 63 3d 52 26 8c 3c
       -0.014976364 -0.04274911 0.055541176 0.017108116
000070 d6 5f 89 3d 64 76 47 3c 19 ee d1 3d df b1 b8 3c
       0.067077324 0.012174223 0.10250492 0.022545753
000080 c1 59 ec 3d cb 61 17 3e 51 73 61 3d b7 6d 8a 3e
       0.11540557 0.14783399 0.055041615 0.2703683
000090 21 8d 97 3d bc 45 3d 3c 77 86 fc 3d 61 4c dd 3d
       0.07399965 0.0115522705 0.12330335 0.10805584
0000a0 d0 18 69 bc 0c b7 cc 3d fd 0b fe 3d 53 c5 82 3e
       -0.014227107 0.09995851 0.1240463 0.2554117
0000b0 69 47 a0 3c ea e0 68 bd c8 18 29 3e e3 18 37 3d
       0.019565301 -0.05685512 0.1651336 0.04470147
0000c0 0d e8 21 3e df e7 9e 3d 38 09 86 3c b8 c2 2a 3e
       0.15811177 0.0775907 0.016361818 0.16675842
0000d0 94 f6 75 3e 0e 5a dd 3d e1 c4 83 3d 5a cf 08 3d
       0.24019843 0.10808192 0.06434036 0.03340087
0000e0 c5 62 10 3e f7 a1 ba 3d 82 cb 2c 3e 06 a2 78 3e
       0.14100178 0.091129236 0.16874507 0.24280557
0000f0 1b 4e 8f 3d 15 74 9e 3e 37 60 88 3d 48 f4 44 bd
       0.06997319 0.3094794 0.066589765 -0.048084527
000100 fa 44 16 3e 72 c2 42 3e 11 74 2c 3e c0 ef 0a 3e
       0.1467475 0.19019488 0.16841151 0.1356802
000110 e6 65 d1 3d 69 e9 05 3e c5 62 84 3e 41 e9 f4 3d
       0.10224514 0.1307732 0.25856605 0.11958552
000120 2b e5 36 3e 4e 39 94 bd 08 02 c0 ba 64 ad 32 bb
       0.17860858 -0.072374925 -0.0014649043 -0.0027263993
000130 97 e3 b7 3c da 55 e1 3d 2a a1 d2 3d 8a 73 74 3d
       0.02244739 0.11002703 0.10284646 0.0596805
000140 11 1c 76 3d ae b4 42 bc 46 11 e4 bd 8a 6b 32 3d
       0.06008536 -0.011883898 -0.11136107 0.04355959
000150 a8 d9 39 3d 08 91 70 3d db ef 0f be cb 3d 1d be
       0.04537359 0.058732063 -0.14056341 -0.15355603
000160 22 d0 b9 3d 47 15 57 bd d1 28 15 bd ce 16 0b be
       0.09072901 -0.052510526 -0.03641588 -0.13582918
000170 f2 df 95 bd 08 f7 f8 bd bf 6d 1f 3d ff 00 a5 bd
       -0.07318105 -0.121564925 0.03892302 -0.080568306
000180 17 98 b1 3d 84 af 7d 3d be af 69 bd 0e 8b b2 bd
       0.08671587 0.061934963 -0.057052366 -0.08717929
000190 92 61 82 bd cb 74 86 3d 15 0a c0 bd 7f 43 ac bd
       -0.06366266 0.06565245 -0.09376923 -0.08411311
0001a0 39 d1 21 3d bc a5 08 bd 79 27 05 bd f7 7b d3 bd
       0.03950617 -0.03336118 -0.032508347 -0.10326379
0001b0 8a 7a 34 3d 8c d3 bf bc 4b bf 83 3d 94 28 46 bc
       0.044062175 -0.023416303 0.064329706 -0.0120946355
0001c0 88 34 fe bc 0c 81 66 bd 2c 25 16 3a f7 52 78 3c
       -0.031030908 -0.056275412 0.0005727585 0.015156499
0001d0 a1 6b 64 bd 93 d8 50 3d 31 4b 31 bd aa b2 a9 3d
       -0.055766705 0.05098779 -0.0432846 0.082860306
0001e0 da 19 f8 bd 80 f6 b4 bd 2a d7 f6 bc 98 e5 f4 bd
       -0.12114306 -0.08836079 -0.030131895 -0.11957854
0001f0 a0 ec 51 bd c9 06 19 bc 37 69 5e 3d 01 12 cd bd
       -0.051251054 -0.009339997 0.05429956 -0.100131996
000200 4f 97 86 bd c1 c2 c7 3d c2 31 a5 bc be 89 fe 3c
       -0.065718286 0.09753943 -0.020165328 0.03107154
000210 01 7f ae bd 2d bb 88 3d 5c 86 b5 3d 25 0b 12 3d
       -0.08520318 0.06676326 0.08863518 0.03565516
000220 51 29 7b 3c 09 e9 b3 3d 44 c8 d2 3c 92 32 8f bc
       0.015329675 0.08784682 0.02573026 -0.017480168
000230 68 60 94 3d c8 42 08 be 64 82 8b 3d 7f 3f 88 3b
       0.072449505 -0.13306725 0.068119794 0.00415796
000240 08 0e 16 be 6d 19 ee bc 8a 06 8a 3d 41 5a 9e 3d
       -0.1465379 -0.029064858 0.067395285 0.07732058
000250 a9 b9 f7 bc 7c 64 8f bd 98 03 4d bd 94 4d 38 bd
       -0.030239897 -0.07001588 -0.050052255 -0.04499586
000260 e3 76 bb bd 9b e0 e3 bc 63 a6 3d bd cb e3 f5 bd
       -0.09153535 -0.027817061 -0.046301257 -0.12006339
000270 16 74 dd bc 19 2d f6 bd 5a 7c 08 bd d0 8f f5 bd
       -0.027032893 -0.120203204 -0.033321716 -0.11990321
000280 c9 41 0e 3c 7b f0 0a 3e 3a 3c f9 bd 2e f5 b2 3b
       0.008682677 0.13568299 -0.121696904 0.0054613566
000290 5e 71 ee bd a5 2a 3d bd 4c 9d 1d 3d 8e e5 57 3c
       -0.11642717 -0.046183247 0.038480088 0.013177289
0002a0 27 1c df bc 7a ff 10 bd d7 e6 ae bc 0a f8 d9 3d
       -0.027235104 -0.03539989 -0.021350307 0.10643013
0002b0 d4 3e cf bd 80 9d 51 35 df 4d 48 3d d1 1e da bc
       -0.101194054 7.808776e-07 0.04890239 -0.026626023
0002c0 15 3a a2 bd a9 57 05 3e b9 de a7 3d b4 e1 d5 bd
       -0.079212345 0.13021721 0.08196778 -0.1044344
0002d0 e1 3e 3a 3d 8a 58 b9 3a 85 c0 86 3d e1 4f 6f bd
       0.045470122 0.0014140767 0.06579689 -0.058425788
0002e0 c6 f0 a2 3d 62 be f6 3d 0d 1b 81 3d 44 21 f7 bc
       0.0795608 0.120480314 0.06303988 -0.03016723
0002f0 f6 14 00 3e b8 58 d2 bc 0f 18 87 bd d9 b8 93 bd
       0.12507996 -0.02567707 -0.06596386 -0.07212991
000300 f2 21 14 3e dc d3 00 3e 07 db 67 ba df 67 3f 3d
       0.14466074 0.12580818 -0.00088445883 0.04672992
000310 89 4c c0 3c 5c 6b c1 bd db aa fa 3d e8 d5 04 3e
       0.023473995 -0.09444305 0.12239619 0.12972224
000320 27 a0 ad 3d 55 fa 68 bb 70 64 14 bd 7b 54 0b 3e
       0.08477812 -0.00355496 -0.036228597 0.13606445
000330 fb 0d c1 bd be 75 9b 3d e1 3d 01 3d 58 10 b4 bd
       -0.09426495 0.07590817 0.031553153 -0.0879218
000340 35 7c de 3d 25 f3 10 bb d7 08 1e bb d4 e5 16 3d
       0.10863534 -0.0022117582 -0.0024114156 0.036840275
000350 c2 d8 98 3c 09 14 43 3b 65 1f 0a 3e 98 a4 fe 3b
       0.018658046 0.002976658 0.13488539 0.007771086
000360 63 3d 49 3d 99 c7 e2 3d 02 c8 2f 3d f0 55 1e 3d
       0.04913081 0.110732265 0.04291535 0.038656175
000370 1e 5a 15 be 30 21 78 3d 81 dc f4 3d 60 fb 96 3d
       -0.14585158 0.060578525 0.1195612 0.07372165
000380 0b bb 9c bd 4c a7 eb 3d 25 b8 b7 bd 3b 3d 81 3d
       -0.07652863 0.11506519 -0.0897067 0.06310507
000390 c0 3e 24 bd 3e f1 28 3d 46 8b 7a 3c 25 35 ae 3d
       -0.040098906 0.04124569 0.015291994 0.0850623
0003a0 f3 37 ce bb 99 9b 31 bd a6 78 17 3e 5b 0f 7c 3d
       -0.0062932908 -0.04336128 0.14792117 0.06153808
0003b0 8c e7 00 bb 16 64 a4 3d 9f a7 c1 bd 4c 50 bf 3d
       -0.0019669263 0.080269024 -0.09455799 0.09341487
0003c0 48 e9 54 3c 52 fa 27 bc 16 17 e8 3d a9 ca bf 3d
       0.012995072 -0.010252552 0.11332528 0.09364826
0003d0 89 57 c4 3d 1f ae 35 3c 5c 72 45 3d 03 f5 24 3e
       0.095870085 0.011088877 0.048204765 0.1610909
0003e0 cd 2d c4 bc 27 87 f5 3c 77 7d 40 3d e6 e7 eb 3d
       -0.02394762 0.029971672 0.046994653 0.115188405
0003f0 ea 24 4d bd aa c0 9a 3d 68 10 f9 3d 7a 0f 23 3e
       -0.050084032 0.07556279 0.12161332 0.15923873
