04_Models_Weekly/20250811_212811_HBEA_Weekly_NoSentiment/best_model.pth (torch, 916341 bytes, 11 tensors)

lstm.weight_ih_l0 f4 [512, 49]
00000000: 6471 793c 105e b43c 37dc adbb 7676 8a3d
00000010: 13b4 46bc b01c 923c a642 30bd e50d 5b3d
00000020: 7cc5 c13d a145 a6bd bc29 8f3d af88 963c
00000030: 68e8 a53d 1694 af3b 47b8 163d cb03 6b3a
00000040: 187d 413c 22ba ad3b 37bc 20bd ffec 413c
00000050: e9eb 4cbd 1ae4 ef3b c08b 78bc f150 493d
00000060: 5d26 98bd d5e6 f8bc 1a40 8bbc c09b 75bd
00000070: c4bd 18bd b462 21be fb13 9b3d 1f2c a2bd
00000080: 483b 8b3d 2fc8 583d 3dbb 3dbd 63ae 5e3d
00000090: 14d6 723b 448f a23d 1a23 b53b 004e 1ebd
000000a0: 6917 b3bc 85d5 50bc eb6e 3a3d 3811 b23d
000000b0: 5f43 df3d db19 4cbd ceac 2b3d 792e 643a
000000c0: edf7 293d 6b8c 7abd c77f bebd ecb0 7abd
000000d0: 3732 c0bd 6070 9d3d 958e d03c 19f6 153d
000000e0: b1a1 103d 9d67 9abc b61c 8c3d e30f 88bd
000000f0: d26a 343c ec37 aabd 07e2 e73c 1e00 e3bc
00000100: d398 c4b9 aa2a 053b cadb 7f3d 8d2f 66bd
00000110: 9fb2 9abd 8548 7bbd 0488 733d 845e 053c
00000120: 22a2 af3d a1b4 c4bd 0d5f e7bd 16f6 81bd
00000130: 9368 9abd f099 d73c 19cc 6d3d db21 703d
00000140: 1da9 77bd d0e8 b4bd 3578 3b3c 6e6e 57bd
00000150: 116f d13c b977 10bd 1a6d 663d d54e a9bd
00000160: cbe5 7fbd 2ec4 15bd b10a d9bb 5386 34bd
00000170: 7cc3 c23d e182 de3c 010b b2bd 6f0e a3bd
00000180: 21de 603d f558 78bd f4bc 31bd cc63 cebd
00000190: 8199 2bbe e3f3 afbd 4bc5 b83b 3f66 83bd
000001a0: 2ce0 073b dbeb 1cbd 6fa2 c3bd e501 90bc
000001b0: fc14 90bd fc4e 7fbd e601 833d fd95 963c
000001c0: 39f4 6d3d 6fe9 4fbd 3a86 01bd d3db 53bd
000001d0: 373d a93c bdd0 acbd 3bdc f3bb 33be aabd
000001e0: a781 6abc 5fbb 6abd fa63 4cbd be3e 34bd
000001f0: 3e2a b3bd 7c3c f8bc 68c2 33bd 0acd 15be
00000200: 31ea ca3d ed5a f33b 7c29 193d ef51 c4bd
00000210: 8551 00be fa6a b83c 987b 25ba 6f9b 78bd
00000220: 6ee8 4fbd bd1c 07be e514 713d a177 25bd
00000230: 44ea f83c afeb 20be d443 a33c a833 3cbd
00000240: 7753 eabc 0fdb 173d df49 bc3c 7505 9f3d
00000250: 146e b13d 13bb 4abe e69d d6bd 0d45 0e3c
00000260: 1db2 1ebc be7d 87bd 7dc1 013e 4e60 59bd
00000270: c808 ca3d 3fd0 833d 0e89 043d e1be 83bd
00000280: 7f8a cc3d b676 913d d4ab ba3d 1890 38bd
00000290: 74d6 843d 8db9 023d f298 a0bc e340 013e
000002a0: ea22 d13c 8363 aabc 5b43 8fbb 987d 97bb
000002b0: e539 9c3d 4d05 c2bd 8018 01bd 7cae 6dbb
000002c0: 434c c1bd e714 673d 8a19 bf3d 8b08 9bbd
000002d0: 4d7f 63bd d706 633d bad6 c03c 1f2e 4abc
000002e0: 5b21 d5bc 49f5 853d 8b4c 5b3d 90c2 093e
000002f0: 8f4a f1bb 483f bd3c df63 abbb 30a2 19bd
00000300: 433e cb3d 5fad be3d bd7b 203d 93b9 19bc
00000310: 58ad bcbc d674 05bd 7d23 1fbd 7b80 26bd
00000320: 6b46 b2bd 1e9b 05bd 1471 983d 1e0f 013d
00000330: d334 ecbc 888a b3bd b7d8 8fbd dc77 9dbd
00000340: 2f09 18bd 42e1 f43c 1688 273d 3cdf c43c
00000350: da9b 99bd 4b21 b1bd 5d49 b5bc e28b 3d3d
00000360: 5916 c4bc 1d87 4fbd 2db9 893c baf1 73bd
00000370: a56c b1bd 5c62 033d 451b 3dbd 2d49 67bd
00000380: f97c e7bc 56ae b43d fd1b f03c 2b5a b2bb
00000390: 4883 babd 33d2 c2bd 0566 d2bd 1263 153d
000003a0: e067 353c c715 8c3d d15e 313c 0cfe a0bc
000003b0: 6b54 3bbc 17b2 9ebd 0365 b3bd a0de bfbd
000003c0: 2363 253c 0989 78bd 760a 38bd 1286 8ebd
000003d0: 2608 2cbd f01b b3bd 647b afbd be29 2dbd
000003e0: 6773 d4bd 575e 593d 554a e8bc 34ca 84bd
000003f0: d056 a7bc cfdb a6bd 868f d5bc 6912 cebd
0.015224788 0.022017509 -0.0053057927 0.06760876 -0.012127894 0.017835945 -0.04303231 0.053480048
0.09461495 -0.081187494 0.06990382 0.018375723 0.081009686 0.0053582294 0.036796834 0.0008965104
0.01180961 0.00530173 -0.039241996 0.011836289 -0.05002967 0.007320893 -0.015170038 0.049149457
-0.07429192 -0.030383507 -0.01699834 -0.059962988 -0.03729035 -0.15760309 0.0757217 -0.07918572
0.067984164 0.052925285 -0.046321142 0.054365527 0.003705387 0.07937482 0.005527866 -0.038648605
-0.021861749 -0.0127462195 0.045515936 0.086946905 0.10901522 -0.049829345 0.041912846 0.0008704435
0.041496206 -0.06116907 -0.09301715 -0.061203882 -0.09384578 0.076874495 0.025458613 0.03661165
0.03531045 -0.018848235 0.06841414 -0.06643655 0.011011796 -0.083114475 0.02830602 -0.027710017
-0.00037497896 0.002031962 0.062465467 -0.05619769 -0.075536005 -0.061348457 0.059455886 0.00814021
0.08575846 -0.09604765 -0.112974264 -0.06345765 -0.07539477 0.02631852 0.05805597 0.058626037
-0.060464013 -0.08833468 0.011442234 -0.05259555 0.025565656 -0.035270426 0.05625639 -0.08266989
-0.062475007 -0.036564045 -0.006623589 -0.044073414 0.09509942 0.027162017 -0.08693505 -0.07961737
0.05489934 -0.06063171 -0.04339309 -0.100776285 -0.16757776 -0.085914396 0.0056387535 -0.06415986
0.0020732982 -0.038310867 -0.09552466 -0.017579028 -0.070352525 -0.062331185 0.063968465 0.018382067
0.058094237 -0.05075973 -0.03162215 -0.051723313 0.020659072 -0.08438251 -0.007442025 -0.08337059
-0.014313138 -0.057307597 -0.049900033 -0.044005148 -0.087482914 -0.030302279 -0.043886572 -0.14628997
0.0990795 0.0074266107 0.03739308 -0.0958594 -0.12531097 0.022511948 -0.00063126674 -0.060695108
-0.05075877 -0.13194557 0.058857817 -0.04039729 0.030385144 -0.15714906 0.019929804 -0.0459477
-0.028604252 0.037074145 0.022984443 0.07764713 0.08663574 -0.19797926 -0.104793355 0.008683455
-0.00968602 -0.0661578 0.12671466 -0.05307036 0.09864956 0.06436204 0.032357268 -0.06432892
0.099873535 0.071027204 0.09114805 -0.045059294 0.06486216 0.031915236 -0.01960418 0.12622409
0.025529344 -0.020799404 -0.004372043 -0.0046231262 0.0762823 -0.09473667 -0.031517506 -0.003626733
-0.09438374 0.05641642 0.09331043 -0.07569989 -0.055541325 0.055426445 0.02353989 -0.012340098
-0.026016882 0.06540925 0.053539794 0.13453126 -0.0073636244 0.023101464 -0.0052304114 -0.03750819
0.09923985 0.09310412 0.039180506 -0.009382623 -0.023031875 -0.032582127 -0.038852204 -0.040649872
-0.087048374 -0.032618634 0.07443443 0.031508557 -0.028833782 -0.08766657 -0.07023757 -0.07688877
-0.037118133 0.029892568 0.040901266 0.024032228 -0.075004295 -0.08648928 -0.022129709 0.04627598
-0.023936437 -0.050665963 0.016811932 -0.0595567 -0.086633004 0.032076225 -0.046168584 -0.05646627
-0.028257834 0.088223144 0.02931022 -0.0054428778 -0.09107071 -0.095127486 -0.10273365 0.036471434
0.011072129 0.06840091 0.010825829 -0.019652389 -0.011433701 -0.07748812 -0.08759501 -0.09368634
0.010094437 -0.060677562 -0.04493185 -0.06959166 -0.04199996 -0.08745563 -0.08568457 -0.042276137
-0.10373574 0.053068485 -0.028355757 -0.0648388 -0.020427138 -0.08147394 -0.026069414 -0.10062105

lstm.weight_hh_l0 f4 [512, 128]
00000000: 0eca 2f3d 61b6 313d fd03 783d afd4 99bb
00000010: 58bb e7bd 4638 3ebb 45cd 03be 0ad1 25bd
00000020: c9ad 263d 9eee b7bd 54cd 8c3c ad60 d33d
00000030: 87ac 08bd 2304 bb3d 2948 363b 90af 463d
00000040: 88e6 3abd 7d68 ccbc 0e1b b7bc 3908 333c
00000050: b7fe cc3d 6005 d8bc d33f 7e3d 352f 003a
00000060: 67ee c3bb 62f3 be3c 8be4 a1bd 11a5 413d
00000070: 5b43 783c 94a2 84bc 9774 8bbd 6acf e73c
00000080: fce0 71bc ccb9 073c bfcd abbc 3986 53bd
00000090: b1a3 5d3d 3ad0 31bc 86b1 003e 9441 f43d
000000a0: 49bd e43c fea3 ba3c 6562 a6bc cb22 26bd
000000b0: 939d 32bc 6b69 ebbc d141 4e3c c086 203d
000000c0: 24f4 bc3c 6e50 d0bc eed9 99bd eb23 cf3c
000000d0: 719b 14bd a6ec 4fbd 746f 4c3d b96c f23c
000000e0: 8791 8fbd f29f 363d c9b5 febc a6f7 a03d
000000f0: 539d 42bd 330c 4bbc 34f1 81bd 131b b23c
00000100: b47b 853d 7a86 86bb d01e 503d b34a 24bd
00000110: a040 04bd 0eb9 1abd 0034 ca3d 5e56 9dbd
00000120: c2a1 bcbd 2e75 023d 1f9c 4ebd 5fba 69bc
00000130: c2c4 6d3d 8cb3 a0bc 4eb7 a3bc fbc9 b3bd
00000140: 3723 e03c dab6 19bd 1ada 29bd c390 1f3d
00000150: 7614 c73b cfd0 9abd 53c1 aa3d 041a 04bd
00000160: 07fd 7a3d 5652 9f3d e988 7b3d 6608 613c
00000170: 3668 203c 11f5 6ebd c00b 38bd 1292 b4bd
00000180: 6856 a03b 6f0d 103e fea6 1b3d 63ee b4bd
00000190: 07be 81bd 95cb b73d 6afc ddbd 1078 3cbd
000001a0: 75d5 22bc 28f5 57bd 4ab3 a7bd 62dc 87bc
000001b0: ab04 aebd e87d 2fbc 62e2 103d c2e5 d03c
000001c0: 4351 a5bd 6d1b a63d c5f6 993d 2b2c dd3b
000001d0: 916e f4bc 3971 e43c bf90 f0bc 7caa 7b3d
000001e0: a370 0abe 29e0 cd3d f408 b13a efc7 363b
000001f0: 0be7 fd3c d216 aa3c f901 96bb ec3c fe3c
00000200: 9550 463d 8be8 043e b4ad 303d 80e1 863d
00000210: 532c debd b61f f73c 0602 c33d 65bc 393d
00000220: 75de 133d ffea 7e3d c345 2a3b a001 403d
00000230: 6fbb bd3d 1076 e7bc f005 babd b1d8 053d
00000240: 9b20 a73d abf5 ba3c b461 3c3c a4a4 943c
00000250: f912 9a3d 757b 753d 1e90 013c 26f8 4c3a
00000260: 0179 76bd 45e6 b93c 5ff7 71bd 45f1 703c
00000270: 9572 8e3d fce5 6cbd 0a25 363d 7e16 d4bc
00000280: b97d 0cbd dd3d 2e3d c21a 903b 318d d9bc
00000290: bf28 773d 9a59 1d3c 59b8 6cbd 698a febc
000002a0: b7e2 7bbc ca46 0cbd da02 c13d 310b e5bc
000002b0: 7526 debb 1823 4abd 3031 04bd 0b52 e4bd
000002c0: 2561 20bd 835a 41bd 35f8 1c3d ed16 473c
000002d0: 7624 d2bd a7d9 e0bc 4e88 96bd 6496 b93a
000002e0: 9dbc 483d fa15 633c d470 50bb 9fdc 973d
000002f0: 34a8 23bd 70f2 573d ec98 87bd 0e12 45bc
00000300: 7f13 7bbd 1ba7 60bd 2970 8ebb d95d 183d
00000310: c7e6 bd3c 720c 253a 22ca 903d 4397 48bd
00000320: 7900 98bc 304c 623d 228c 44bd f461 2fbd
00000330: 4746 f0bc 94c5 6b3d 06e3 84bd 5022 603d
00000340: 0d3b 5fbc 9c78 ce3d 1703 b83c 4c21 56bd
00000350: 4b91 bebd 7862 233d 60d0 b4bd 322e 64bd
00000360: ee6d 7e3d d974 08bb 34f3 5dbc 282e d5bd
00000370: 8c5c 19bd 78ac 493c 9f12 5b3d eaf9 64bc
00000380: 761f b9bc 24c8 abbb 2e3c afbd ad16 a0bd
00000390: 5962 84bd fb06 edbc a17e 99bd 9ac5 283d
000003a0: a349 a4bd 3e45 96bd e712 72bb 5216 72bd
000003b0: fafc 3dbd 7f75 aa3c c11f 313d 5129 76bd
000003c0: 3023 e2bc 3ca6 69bb afe4 41bc 8c14 9ebb
000003d0: 4840 f53d 3be5 c43c ced2 fabc d630 163d
000003e0: 2066 21bd 202a a43d a669 27bc b42c 773d
000003f0: e073 01bd 4d7b 97bd 987e 86bd 3c25 ec3d
0.042917304 0.04338682 0.06055068 -0.0046945433 -0.1131503 -0.002902524 -0.12871273 -0.04048256
0.04069308 -0.089810595 0.017187752 0.10321174 -0.03336766 0.091316484 0.0027814007 0.048507273
-0.045630008 -0.024952168 -0.022351768 0.010927253 0.100095205 -0.02636975 0.062072586 0.0004889847
-0.0059793475 0.023309413 -0.07904919 0.04727656 0.015152778 -0.016190805 -0.06809347 0.028297145
-0.014763113 0.0082840435 -0.02097213 -0.051641677 0.054111186 -0.010852868 0.1256772 0.119265705
0.02792229 0.022783276 -0.02031059 -0.040560525 -0.010901826 -0.02873679 0.012588934 0.039191008
0.023065634 -0.025428977 -0.0751227 0.025285682 -0.036281053 -0.050762795 0.049910977 0.029592859
-0.07010179 0.04458613 -0.031092541 0.07859735 -0.047513317 -0.012393045 -0.06344834 0.021741426
0.06517735 -0.0041053863 0.050810635 -0.0401103 -0.032288194 -0.03777414 0.098731995 -0.07682489
-0.0921054 0.031850033 -0.050441857 -0.014265626 0.05804897 -0.019616865 -0.019984867 -0.08778759
0.027360542 -0.037527896 -0.041467763 0.038956415 0.006075437 -0.07559358 0.08337655 -0.032251373
0.061276462 0.07779376 0.061409865 0.0137349125 0.009790471 -0.058339182 -0.04493308 -0.08816923
0.004893113 0.14067625 0.038001053 -0.08834531 -0.06335073 0.08974377 -0.1083916 -0.046012938
-0.009938587 -0.052724034 -0.081884935 -0.016584579 -0.08496984 -0.010711171 0.035372145 0.025500182
-0.0807214 0.081107 0.07517771 0.00674965 -0.029837878 0.02788602 -0.029365895 0.061441883
-0.1351953 0.10052521 0.0013506697 0.0027890166 0.030993959 0.020762835 -0.004577872 0.03103491
0.048416693 0.12979333 0.043134406 0.065859795 -0.10848298 0.030166488 0.0952187 0.045345683
0.036100823 0.06223583 0.0025981523 0.04687655 0.09264266 -0.028254539 -0.09083164 0.032677356
0.08160516 0.022822222 0.011497904 0.018144913 0.0752315 0.05993219 0.007907895 0.00078189594
-0.060173992 0.022692809 -0.059073802 0.014705961 0.069554485 -0.057836518 0.044468917 -0.025889631
-0.034299586 0.042539466 0.004397721 -0.026556583 0.060341593 0.009603882 -0.057792995 -0.031071858
-0.015373877 -0.034247197 0.09424372 -0.027959438 -0.006779487 -0.049349874 -0.03227347 -0.11148461
-0.039155144 -0.04720546 0.038322646 0.012151462 -0.102608606 -0.027447535 -0.07350217 0.00141592
0.049008 0.01386022 -0.0031805532 0.07415127 -0.039955333 0.05272144 -0.066209644 -0.01202823
-0.06129789 -0.054846864 -0.0043468666 0.037198875 0.023181332 0.0006296105 0.07069804 -0.04897238
-0.018554913 0.05524844 -0.047985204 -0.042818025 -0.029330386 0.057561472 -0.06488614 0.054720223
-0.013624919 0.10081598 0.02246241 -0.052277848 -0.09305056 0.03988883 -0.08828807 -0.055708118
0.062116556 -0.00208216 -0.013546754 -0.10409194 -0.037441775 0.012309186 0.053484555 -0.0139756
-0.02259801 -0.0052423645 -0.085564 -0.07816825 -0.06464071 -0.028933993 -0.07494856 0.041204073
-0.080218576 -0.07337426 -0.0036937536 -0.059103318 -0.046383835 0.02080798 0.043243174 -0.060097996
-0.02760467 -0.0035652062 -0.011834308 -0.0048242267 0.11975151 0.024035087 -0.030618098 0.036667667
-0.039404035 0.08015847 -0.01021806 0.060345367 -0.031604648 -0.07396565 -0.065671146 0.115305394

lstm.bias_ih_l0 f4 [512]
00000000: 232c 0d3d 862b 2bbd 8fa8 743d 8a1a 653c
00000010: 1250 c13c 8f47 0b3b 844a 65bd 035b 45bd
00000020: a3ef 35bd 071f 42bd e0d2 b4bd 5be3 8bbd
00000030: 82e4 d63b 3591 5d3d 9956 dd3c 4f03 30bd
00000040: 0734 e43b 56d4 5ebc 62c1 e0bc 593e 4ebd
00000050: a1ea 8e3d d1f5 1dbd d65d 65bd 92fb 383c
00000060: 6f46 263d faec ad3c e802 1dbd ce89 b0bb
00000070: e67b 8abd 2c40 1e3d 0793 a5bd 6ec6 92bd
00000080: bed9 fcbc 5fd3 4abd eec8 84bc be1a 633d
00000090: a490 6cbd 5ba7 dcba 2d5f 8abc 3d99 a03c
000000a0: 7bba 24bd ba90 ed3c ee7f 803c 6a3a b9bd
000000b0: e036 7cba ef1d 95ba 7f66 8cbd 78e4 abbd
000000c0: 9c05 07bd 6808 d1bb 6e4c 70ba 8847 2d3d
000000d0: 98b6 4a3c 665c 8abc 9913 803c 5f19 ac3b
000000e0: f5d1 a03d 95ed febb cd12 aa3d d607 8bbd
000000f0: 4c9f ac3c a222 67bd 89b2 32bd 4234 b0bd
00000100: 7e19 31bd 8758 a23c 1706 01bd de82 d63c
00000110: b0b8 18bd 2d22 ddbb aa9c 823c 0359 babd
00000120: f061 d13b 3dbf 91bd 921b 713d d052 023c
00000130: 19e5 febc 6532 8fbd cc2f ad3c 2aa8 2f3d
00000140: 57bf 95bc 64be a0bb 7e54 02bd 1276 6b3c
00000150: a20f 67bc 4b53 0d3d fe63 22bd 8458 cfbd
00000160: 08bb a0bd a43e 35bd 3f59 04bd 7b1d abbd
00000170: 21fe d0bd d47a aa3d 1381 753b 39c5 f93c
00000180: d3d2 eb3c 06e8 4fbd 2a82 543d d7bc 57bb
00000190: 5aae 83bd 3154 babd 4b1a 3a3c ee08 ac3d
000001a0: d62d b0bc cfdd 16bd 8288 473d c0f8 bf3d
000001b0: 1a1a 023d 55d6 c1bd e40a 733d c769 5cbc
000001c0: 2820 62bd f17f 1f3d e025 a53d 01ab 633d
000001d0: e448 babd 42f3 40bd 82ec a1bc ea46 c2bc
000001e0: a62f d0bc ef9e df3d 8a0e 523d f5bf 743b
000001f0: aec7 92bd aa5f 6c3a 2c6f 0fbc 6bba dcbb
00000200: fcc0 64bc ee8d 023d d106 bebd f70b 0bbd
00000210: 98c4 c2bb af68 c0bd 1972 2ebd 9a6b 65bd
00000220: eb1f 473d 3637 ff3b 09b3 47bd c206 b1bc
00000230: e6d9 743d c0e8 563d 5cbd 5e3c 6ed8 a9bd
00000240: 5483 23bd f83d a03d 90e6 82bd e079 a43d
00000250: 24cf a8bc bf2d 9abd f67f 443d f3ac b43c
00000260: 6c58 f1bc 891f 093d a939 713d 7235 afbd
00000270: 0339 9abc a930 e3bc e399 30bd 7631 2abd
00000280: bc02 803c 6ae4 0d3d 535c bcbc 10e5 a73d
00000290: 3bfc 5dbd bf92 c93c c61d 81bd 852f b6bd
000002a0: d9c9 4d3c c2b8 acbd 4aba aa3c b650 9fbc
000002b0: dacd cb3c 21f6 eb3c 0343 d93c 9b32 713d
000002c0: 2425 3dbd d207 283c 4ae3 853d b3f5 5a3d
000002d0: 844e 823d e69e 3cbd 6ae9 963b 82e2 013d
000002e0: e120 ae3b 72b9 89bd e5b7 1c3d 0272 133b
000002f0: 2f68 3dbd 1986 673d 67f2 16bd 7511 96bb
00000300: 802f 933c 0445 98bc 0fb2 87bd 6ba0 9e3c
00000310: c198 e0bd f2a3 b73c b200 88bc f1a9 3d3d
00000320: 8ab7 05bc ea4f 843d 6204 8cbd 6466 51bc
00000330: 2551 4ebc 3c75 28bd 3c2f 80ba fa50 91bd
00000340: 08e6 4e3c a27c a2bd fd60 f8bc 102c 8fbc
00000350: 4523 ae3d 74a0 a3bc 2ab5 ecbc ca02 b6bd
00000360: a756 013d f47b b73d 5823 9c3d 768c e23c
00000370: 7bc1 503d fae2 cc3c 388b 553d e920 b23c
00000380: 27d7 7b3b 8099 83bc 61fd c43d d7f9 72bd
00000390: 33dd 71bd 4521 9cbc 8b89 25bd ae9d 933d
000003a0: 640e 953d 64c1 a3bc f612 7abd cc61 73bd
000003b0: 9ab5 52bc 8bad 75bc a3b8 d73b 8422 273d
000003c0: c457 2fbd eeb5 17bd 7afe 67bd f3c1 353d
000003d0: 3930 1c3d 638a a43d b036 a2bd e877 583d
000003e0: 0e99 8d3c caf0 9a3c 7d9d a23d d6e5 e93b
000003f0: 1f70 03bd 3c7c 32bd 446e 99bc d1ba c1bd
0.03446592 -0.041789554 0.059731063 0.013983378 0.02359775 0.002125237 -0.055979267 -0.0481825
-0.04441799 -0.04739287 -0.08829284 -0.06830474 0.006558002 0.05409356 0.027018832 -0.042971905
0.00696421 -0.0136004295 -0.027435962 -0.050352428 0.06978346 -0.038564507 -0.055997692 0.011290448
0.040594514 0.021231163 -0.03833285 -0.0053875213 -0.06761913 0.038635418 -0.08084684 -0.07166754
-0.030865546 -0.049517985 -0.016209092 0.055445425 -0.057755128 -0.0016834544 -0.016891086 0.01960432
-0.040216904 0.028999675 0.015686002 -0.09044345 -0.0009621214 -0.0011376719 -0.06855487 -0.08393186
-0.032964334 -0.006379176 -0.00091666623 0.042304546 0.012372635 -0.016889762 0.015634345 0.005252048
0.07852546 -0.007779787 0.08304367 -0.06788604 0.021072052 -0.056429513 -0.043627296 -0.086037174
-0.043237202 0.019817604 -0.03149995 0.02618545 -0.037285507 -0.006748459 0.015943844 -0.09099009
0.006389849 -0.07116554 0.058864184 0.007954314 -0.031115102 -0.06992034 0.021140955 0.042884983
-0.018279715 -0.004905509 -0.03181886 0.014371412 -0.014102848 0.034503262 -0.03964614 -0.10124305
-0.078481734 -0.044249192 -0.032311674 -0.08355232 -0.10204721 0.08324209 0.0037460967 0.03048955
0.028787052 -0.050758384 0.051881947 -0.0032918954 -0.06429739 -0.090980895 0.011358808 0.08400141
-0.021506231 -0.036832627 0.04871417 0.09373617 0.031763174 -0.09464709 0.059336558 -0.013452954
-0.055206448 0.038940374 0.08063865 0.055583004 -0.09095934 -0.04710699 -0.019766096 -0.023715455
-0.025413346 0.10918986 0.051283397 0.003734586 -0.07166992 0.00090169406 -0.008754533 -0.00673609
-0.013962027 0.031873636 -0.09278644 -0.033946957 -0.005943846 -0.09394967 -0.04258928 -0.05601082
0.048614424 0.007788564 -0.048754726 -0.021609668 0.059778117 0.05246806 0.0135949515 -0.08293234
-0.039920166 0.078243196 -0.063916326 0.08031058 -0.020606585 -0.075282566 0.047973596 0.022055125
-0.029461108 0.03347734 0.05889288 -0.08555116 -0.018826013 -0.027733164 -0.043115508 -0.041551076
0.015626304 0.03464166 -0.022993242 0.08197987 -0.054195624 0.024606107 -0.06304507 -0.088957824
0.012560331 -0.08433677 0.020840783 -0.019447666 0.024878431 0.028803887 0.026521211 0.05888615
-0.046178 0.010255771 0.065374926 0.053456973 0.06362632 -0.046049975 0.004605462 0.031710155
0.005313978 -0.06724824 0.038261313 0.0022498374 -0.046241935 0.05652437 -0.036852267 -0.0045797178
0.017966986 -0.018587597 -0.06625759 0.019363603 -0.109666355 0.022417042 -0.016601894 0.046304647
-0.008161435 0.06460555 -0.068367735 -0.0127807595 -0.012592589 -0.04112743 -0.0009779702 -0.07095523
0.012628086 -0.07933928 -0.030319685 -0.017477065 0.08502821 -0.019973971 -0.02889498 -0.08887251
0.03157678 0.08959189 0.07623929 0.027654868 0.050965767 0.025010575 0.052134722 0.021744208
0.0038427801 -0.016064405 0.09618641 -0.059320297 -0.059048843 -0.019058833 -0.040414374 0.072078094
0.072781354 -0.019989677 -0.06105324 -0.05941944 -0.01286068 -0.014994989 0.0065832897 0.0408044
-0.04280831 -0.037038736 -0.056639172 0.044374418 0.038131926 0.08034208 -0.07920587 0.052848727
0.017284896 0.018913645 0.07940195 0.0071379943 -0.03208935 -0.04357551 -0.018729337 -0.094594605

lstm.bias_hh_l0 f4 [512]
00000000: 052f 01bc cb61 a8bd 7477 26bd d25f 3ebd
00000010: 92a3 09bd 871c 6dbd 197a e03c 3cb1 4b3d
00000020: 96c4 db3c 2b8a e6bd b771 86bc 8a91 353d
00000030: e3a2 d93c d596 35bd e1a8 6abd 50db 34bb
00000040: b83c 66bb 2f33 9dbd 98d5 8fbc 9f36 123d
00000050: 0303 393d 3b27 babd f0fe b53d 967b 83bd
00000060: fef6 233c d352 90bd 9e7c a73c 4d36 57bd
00000070: cc27 4a3d b5ef 123d 83e4 413d 7d7f fb3b
00000080: bc32 d73d b537 6c3c c4a6 a0bc 6b4e 09bd
00000090: ea8e 0ebb bdb1 75bc 910f 063d b20a e33b
000000a0: 7a9b c83a a11d 343d aaa1 7ebd e7e5 813c
000000b0: 112b 46bd 4075 80bd 909e 79bd a111 93bd
000000c0: 06f0 893d 7bd0 b33c f002 1bbd 4d64 84bd
000000d0: c74e aa3d ce36 1ebd e607 4bbd be81 a43d
000000e0: 037a 38bd ea7e aabd 4059 603d 3730 953d
000000f0: 45ff eabd 608e 523d cd42 883b 7ed2 63bd
00000100: 77eb 503c fcd0 6fbd aacc e03d d0cb 803d
00000110: 728a 933d 07ec 44bd a93e 0c3c 6759 98bc
00000120: 8735 303d 9812 973c d969 5d3c e9d3 ca3d
00000130: 11d5 85bd ea78 933c 3234 9dbc c4ec abbd
00000140: 4c97 043c d8f6 153d 66a3 01bd 0cf9 71bd
00000150: 12ca 75bd 89e2 0c3c b91d acbd 29e4 593a
00000160: 0bdf 063d 1cce 8c3d 65ff 1abd 8cb5 ef3c
00000170: cc72 eebc 191c 74bd 5f7a 603d a48a 58bb
00000180: 562d 663d dfc9 973c f906 913d d5fe 1bbd
00000190: 0e13 c4bd 5768 ae3c 0ffb 563d 2f70 45bd
000001a0: d5b6 97bc 555f dc3b 2ee7 da3c 8e59 483b
000001b0: 8ed9 afbc c371 f7bc 3a36 8ebd a737 753d
000001c0: 940e bc3c fcfa 933c 0568 36bc 3e36 a7bc
000001d0: 8c33 993d 04ad ca3c b855 1b3d 8598 9abd
000001e0: 8ed3 823d 715a 813d b5eb 98bd 3db5 e03c
000001f0: 3c26 813c 047a 4bbd a8c9 803c e42a 803b
00000200: bcb3 123d 2646 8dbd 83f7 b1bd fdce 933d
00000210: e161 ccbc cfe6 3d3c f989 02bd 6ff6 40bd
00000220: 41f4 8d3d 6ac1 41bd 64cf 8ebd 6a2f 963d
00000230: 48f4 2b3d 8e5e b43d 891e 75bd 2b9c a03c
00000240: 4cd4 91bd 135b 22bd 9920 9d3c b151 923d
00000250: b696 a23c 1b16 adbd f820 09bd d545 143d
00000260: 01d3 113d 43b2 b33c b94f c13c 10e8 aebc
00000270: 924c 34bd bd81 66bd dae0 823c 573b 033d
00000280: 5d00 3e3c b286 8c3d 8d2f c7bc 07d1 24bd
00000290: 50a0 383c 8311 0ebc 3b00 88bd ce5f 943d
000002a0: 5d62 e9bd b731 b93c 90cf c0bd 6ef7 39bd
000002b0: b09f 5e3d 080e 9c3a 2087 95b8 1a09 743d
000002c0: 1613 6c3d 2185 adbc 1993 b83d 0d17 3d3d
000002d0: 636a a43d d807 983d 3256 9bbd da12 393d
000002e0: f0aa 633c a155 14bd 68da 983d 2950 c8bc
000002f0: c38f f73c 3b6f 8cbd 0ffb 2ebd 43a7 21bd
00000300: 5197 0a3d 2ab4 0b3d 2fc4 49bd 0dd7 b23a
00000310: a08c 94bc e12c 003c 0646 21bd c4c3 8ebd
00000320: 8031 40bc 2e2f 273b 5c82 89bd 1250 ad3c
00000330: ecf0 07bd 3e2d 413c 6754 dd3b 4425 10bd
00000340: 803a 55bd 01f0 063d ba69 b9bd 6f39 643d
00000350: c296 5a3d 8925 b6bd 31ca a83d c742 7fbd
00000360: 9975 88bd 3c56 273d 56a7 e0bc f3ea 953c
00000370: e573 a53c c5b3 d13b a12c a6bc e587 433d
00000380: 51e1 2dbc 65c0 d9bc 33d3 b6bc 8e13 34bc
00000390: 4e18 473d ff89 87bd b915 363d c6d0 a53d
000003a0: 1c17 ba3d 6581 463d 2c5d d5bb a874 b8bd
000003b0: b7f5 a0bd 5187 eabd 6b1d d83b cf9b a13d
000003c0: 80cb 76bc 0db8 afbd 3db7 19bd 45e1 e2bd
000003d0: 7d18 183d 1b13 57bd 71ee 24bd 04bb a33d
000003e0: 5ca9 46ba 597f b73b 66f6 003d 9611 603d
000003f0: 45f7 f4bc 5087 01bd b2d3 163c b405 f2bd
-0.0078847455 -0.082217775 -0.040641263 -0.0464781 -0.03360326 -0.057888534 0.02740197 0.04972957
0.026827138 -0.11256822 -0.016411645 0.04432825 0.026566928 -0.044333298 -0.05728996 -0.002759654
-0.0035131406 -0.07675778 -0.017557904 0.035696622 0.045168888 -0.09089514 0.08886516 -0.064200565
0.010007618 -0.070470475 0.020445164 -0.05254202 0.04935436 0.035873134 0.047337066 0.00767511
0.10507724 0.0144175785 -0.01961077 -0.03352205 -0.0021752664 -0.014995989 0.03272969 0.006928765
0.0015305125 0.04397357 -0.062165894 0.015856696 -0.048380915 -0.06272364 -0.060942233 -0.07181097
0.06735234 0.021949997 -0.0378446 -0.06464443 0.08315807 -0.038626485 -0.04956808 0.08032559
-0.045038234 -0.08324988 0.054772615 0.07284587 -0.1147447 0.05140531 0.004158354 -0.055620663
0.012751452 -0.058548912 0.109765366 0.06288874 0.07204141 -0.048076656 0.008559861 -0.018597318
0.043019798 0.018441483 0.013514006 0.099037 -0.0653478 0.018001992 -0.019189928 -0.08394769
0.008092713 0.03661236 -0.03164997 -0.0590754 -0.060007162 0.008598932 -0.08404107 0.00083118916
0.032927554 0.0687525 -0.03784122 0.029261373 -0.029107474 -0.05959711 0.054804202 -0.003304162
0.05619558 0.018528877 0.07081408 -0.038084824 -0.09573947 0.021289987 0.052485522 -0.04820269
-0.018519798 0.0067252317 0.026721563 0.0030570957 -0.021466043 -0.030205613 -0.06943937 0.059867527
0.02295617 0.018064015 -0.011133199 -0.020411607 0.07480535 0.024740703 0.037923545 -0.07548622
0.06388007 0.063160785 -0.074668325 0.027430171 0.015765302 -0.04967691 0.015721157 0.003911363
0.03581594 -0.068981454 -0.08689787 0.07217214 -0.024949016 0.011590674 -0.031869862 -0.047110017
0.06931353 -0.047303595 -0.0697315 0.07333262 0.04198101 0.088070974 -0.059843574 0.019605717
-0.071205705 -0.039637636 0.019180583 0.07144488 0.019847255 -0.08451482 -0.033478707 0.03619941
0.03560162 0.021935588 0.023597585 -0.02135089 -0.044018336 -0.05627607 0.015976358 0.032039013
0.011596766 0.068616286 -0.024314666 -0.040238407 0.01126869 -0.008671167 -0.06640669 0.07244836
-0.113957144 0.022606714 -0.094145894 -0.045401983 0.05435151 0.0011906037 -7.130043e-05 0.059578992
0.05763539 -0.021181645 0.09012432 0.04616456 0.08028104 0.07423371 -0.075848 0.045183994
0.013895735 -0.036214475 0.07463533 -0.024452286 0.030219918 -0.06857153 -0.042719897 -0.039466154
0.033835713 0.034107365 -0.04925936 0.0013644412 -0.018133461 0.0078232 -0.03937342 -0.06970933
-0.011730552 0.00255103 -0.06714317 0.021156345 -0.033188745 0.011790572 0.0067544463 -0.03519179
-0.052057743 0.03294373 -0.09053369 0.055718835 0.05336643 -0.08893878 0.0824169 -0.062319543
-0.06663055 0.040853724 -0.027423542 0.01830051 0.020196864 0.006399604 -0.020284953 0.04773702
-0.010612802 -0.026580999 -0.022317505 -0.01099099 0.048607163 -0.066181175 0.04445431 0.08096461
0.09086439 0.048463244 -0.006511351 -0.090066254 -0.078593664 -0.11451591 0.006595304 0.07891046
-0.015063167 -0.08580027 -0.037528265 -0.11078123 0.03713273 -0.052508455 -0.040266458 0.07994655
-0.0007578337 0.005599898 0.031484984 0.05470427 -0.029903064 -0.031623185 0.0092057455 -0.11817494

lstm.weight_ih_l1 f4 [512, 128]
00000000: e094 393d a70d 21bd a368 85bd dbf5 26bd
00000010: 1585 a03c 6550 83bc 438c 3bbd af38 1d3d
00000020: 7d85 1f3d d4e4 93bd 0a05 33bd b4d2 7a3c
00000030: 5c77 973d b253 b9bd ab99 b9bb 3e84 2c3d
00000040: ffd4 823d 47b0 1abd 863c ce3c 8b9a cc3c
00000050: 664b 00bc c18b e6bb 7a2b 763d b679 8f3d
00000060: 5cd2 14bc b4e9 7cbd 7e14 e0bc ffbd 2abd
00000070: 3d29 34bd bdc1 0ebd a697 04bd e916 95bd
00000080: e352 6abd 75ba 59bd 25fb 2abd b8a5 ef3c
00000090: e844 693d c4bc 79bd 7d96 cbbb f077 8e3c
000000a0: 531f 91bd bd8a 223c 8cf2 fc3c 6305 4fbd
000000b0: 9603 45bd 5dfb 913d ab24 893d 16ac 3dbd
000000c0: f7c7 833d fc77 33bb 5f7a 86bd 62e6 b4ba
000000d0: 549e d63b e5c4 8abd 292c 20bd 366d 84bd
000000e0: e88b 3a3c 2e38 2e3c 977f a13c 36fe 983d
000000f0: 0df4 c1bd 5daa 8fbd 326c b43c c821 b2bd
00000100: c355 973d 8d43 913c a08b c2bc e120 c6bd
00000110: 666e bd3c aa4e 8d3c 78e7 93bc b9f1 77bc
00000120: bfa6 4ebd 68d4 9d3d bc4a a4bb b734 ac3c
00000130: 0675 653d 550d 8cbd d69f 39bd 9735 f5bb
00000140: 2215 323d 28e7 b1bc e483 813d fc06 cdbc
00000150: b461 a63d eca9 103d e10c 8e3c 0821 21bd
00000160: 8baf a73c e833 ccbd 1eba af3d 9d0f f33c
00000170: 4388 103c 050b 67bc 21fb 5e3d 1434 02bd
00000180: c30f 843d bfdf 5ebd 5868 ddbc 1b9c d4bd
00000190: 8168 b73d 8f6b 67bd dab8 a33d f010 33bd
000001a0: 58ad d53c 1307 80bd 5ed1 333d 3d14 e43c
000001b0: 8db7 f0bc 29b8 273c a7f7 e03c edf2 cc3d
000001c0: 3043 a93d 14f3 743c 0e53 edbd a662 d4bc
000001d0: c31d e13d 815c 08bd a089 01bd 060e a9bd
000001e0: 4e7b adbd b1d7 ef3c 52bb b6bc 3bd9 0d3c
000001f0: d76f 63bd 1df4 703d 9049 103d 1303 8d3d
00000200: b629 42bd 977b 4dbc 864e eebc 720f 80bd
00000210: e5e7 eabb efca 92bd 30b3 9dbd 328f 6abd
00000220: d730 c7bb 061a 19bc 2c67 b13d 2b2d 853d
00000230: a34f a43d c2a3 1cbd 4edf 50ba 4dca 94bc
00000240: d135 a23d 9d53 863c c983 093d 28e9 65bc
00000250: b5a6 c9bb 767f 26bd 87a8 753d 2244 27bd
00000260: 2d76 9fbd 8f1b 2b3c 5dc9 553d 2f1d 6f3d
00000270: 8507 ad3d c900 76bd 2a81 b3bd df71 933c
00000280: 1ad8 85bc 9e12 383d bf17 973d 0f84 f2bc
00000290: f4ed 04bd d764 9fbd 2774 55bc b54c 9e3d
000002a0: 8601 4b3c cfa2 48bd fe67 b93d b35a 00bd
000002b0: 2de9 12bd fda9 98bd bec0 06bd 4adf cf3c
000002c0: 9313 83bc fc05 2abd 4d37 19bd a1ca 3e3d
000002d0: ff9d 64bd f223 c9bb 3d86 833d 63ce 1dbd
000002e0: 7488 44bd 892d 7c3d 6c68 b03c 7462 52bd
000002f0: 0ff1 ed3c 5fb2 123d 4d4c 243c a70c ee3c
00000300: ea62 6a3d e0e7 c5bb 0360 813d c65f 3fbd
00000310: fab0 02bc ddb6 923c 6c72 8cbd 3955 91bc
00000320: 4661 b9bd 4ebe d93a c622 f73c e6fe 623d
00000330: d554 983d f666 9e3c 90f4 80bd f08e 143d
00000340: 35d9 9cbc dd10 04bc b63a 3ebd aded 19bb
00000350: 8bb6 70bb bcbb a83d e2e0 243d 7f07 98bb
00000360: 53c7 483c 2ec1 213c 88ee 86bd d15d 143d
00000370: a78a e53c 76b3 bcbd 7ba1 d53c f4cf 8a3c
00000380: e9a5 95bc 7874 ce3d dff4 11bd cb61 b8bd
00000390: 7b54 cc3c 65da 60bc 35a5 7fbd 860c 84bd
000003a0: 055a d43c ce8c 9fbd eb2c bdbd 216a 8f3c
000003b0: 6546 9ebd 2dfd 813c 1bc7 9abd 41e6 e03b
000003c0: 51b6 65bd 77cb 253c 411f a9bc 194c e7bc
000003d0: e43c 0a3d 2b6a 913d 0e21 5cbd 3fc6 af3b
000003e0: f54e 24bc 1291 c3bc 10f7 a0bd f56a 713d
000003f0: afa6 c4bd 445b a23c 3596 a13d 095d 3e3d
0.045307994 -0.03931966 -0.065140985 -0.04076181 0.019594708 -0.016029546 -0.04578806 0.038384136
0.038945664 -0.0722138 -0.043705977 0.015309025 0.07395813 -0.09049167 -0.0056640706 0.042118303
0.06388282 -0.037765767 0.025175344 0.024976036 -0.007830476 -0.007035703 0.060100056 0.070056364
-0.009083357 -0.061746314 -0.027353521 -0.0416851 -0.04398464 -0.034852732 -0.032371186 -0.072797604
-0.057207953 -0.053156335 -0.041743416 0.029253826 0.05695048 -0.060971037 -0.006213008 0.017391175
-0.07086053 0.009920773 0.030877374 -0.050542247 -0.048099123 0.07128022 0.06696447 -0.046306692
0.06434625 -0.0027384749 -0.06566309 -0.001380157 0.006549636 -0.06775836 -0.039104614 -0.06466143
0.011385895 0.0106335115 0.01971416 0.07470362 -0.09470377 -0.07014916 0.022024248 -0.086978495
0.073894046 0.017732406 -0.023748219 -0.0967424 0.023123931 0.017249424 -0.018054709 -0.015133315
-0.05045199 0.07706529 -0.005013792 0.02102123 0.056019805 -0.068384804 -0.045318447 -0.007483195
0.043477185 -0.02171667 0.06323984 -0.025027744 0.08124104 0.0353183 0.017340126 -0.03933814
0.020469448 -0.09970838 0.08580421 0.02967053 0.00882155 -0.014101748 0.054438714 -0.031787947
0.06448319 -0.0544126 -0.027027294 -0.10381337 0.089554794 -0.05649906 0.07994242 -0.043717325
0.026083633 -0.06251349 0.04390084 0.027841682 -0.029384399 0.010236778 0.02746184 0.10007272
0.08264768 0.0149505325 -0.11588107 -0.025925945 0.10992005 -0.033291344 -0.03162539 -0.08254628
-0.08470784 0.029277654 -0.022306118 0.008657749 -0.05552658 0.058826555 0.035226405 0.06885352
-0.04740306 -0.012541673 -0.029090177 -0.06252946 -0.0071687573 -0.07167613 -0.07700193 -0.057265468
-0.00607882 -0.009344583 0.086622566 0.06502756 0.08023002 -0.03824211 -0.00079678453 -0.01816287
0.07920421 0.016397292 0.033572946 -0.01403264 -0.006153906 -0.0406489 0.059975173 -0.04083646
-0.07786212 0.010443582 0.052193988 0.05837744 0.084487 -0.060059343 -0.087648705 0.017998634
-0.016338397 0.04493963 0.07377576 -0.029603986 -0.032453492 -0.077829055 -0.013028181 0.077294745
0.0123905 -0.04898339 0.09053038 -0.031336498 -0.035866905 -0.07454298 -0.032898657 0.025375027
-0.016000545 -0.041509613 -0.037406255 0.04657996 -0.05581474 -0.006138318 0.06422088 -0.038526904
-0.047981694 0.061566863 0.021534167 -0.051363423 0.02904561 0.03581464 0.010027957 0.029058767
0.057223238 -0.0060396045 0.06317141 -0.046722196 -0.007976765 0.017909462 -0.06857762 -0.017740833
-0.090517566 0.0016612501 0.030167948 0.05541887 0.074380554 0.019336205 -0.062966466 0.03626913
-0.019146541 -0.008060661 -0.04644271 -0.0023487613 -0.0036729898 0.082389325 0.040253527 -0.0046395655
0.012254554 0.009872718 -0.06588465 0.036222283 0.028020216 -0.09213917 0.026077976 0.016944863
-0.018267589 0.100808084 -0.035633918 -0.090030275 0.024942627 -0.013723944 -0.062413413 -0.06447701
0.02592183 -0.07790528 -0.09237083 0.01750666 -0.077282704 0.015867794 -0.075575076 0.006863386
-0.056082074 0.010119311 -0.020644786 -0.028234528 0.033749476 0.07100328 -0.05374246 0.005364209
-0.01002859 -0.023872886 -0.078596234 0.058939893 -0.09602105 0.01981891 0.07889978 0.046475444

lstm.weight_hh_l1 f4 [512, 128]
00000000: f0d0 463d 1b6a 833c 3b39 c5bc 1cd7 523d
00000010: 7339 59bd c8af 1cbd 4af0 30bc 67a8 2e3d
00000020: b9ae bb3d f42d 163d 0586 25ba 3b67 d4bc
00000030: 01aa 0bbd 2b96 2cbc f516 8dbd f721 4dba
00000040: 2cab 14bb dbe7 463d 5221 9fbd 693c b4bc
00000050: c19f b83d e87e f5bb 46ee adbb 4a3e 953d
00000060: 280b eebc 2e18 b4bd ce94 acbd 0a0c 273d
00000070: cc9a 22bb b4dc edbd aee1 bbbb 8285 acbd
00000080: e2f4 273b 6f88 cbbb e915 3b3d f34c a8bd
00000090: fe6c f13d 31ff 5a3c bdf1 103c 9401 023d
000000a0: ead3 393d e128 093e 9490 38bc 6599 babd
000000b0: ebec a2bc 33f1 543c cbc4 0f3d c604 6c3d
000000c0: b99e 943d 7c17 fc3d bba2 b43d 46a3 32bd
000000d0: 84df cd3c 4fd5 5fbd 57db a3bc 2407 7abc
000000e0: 5636 4dbb c9ec 373c 4e7e c23d b307 0a3d
000000f0: 5246 a5bd 1208 4d3d 1f11 983c 8d9a 38bd
00000100: 9887 df3d c4d4 46bc a31e 13bd e862 753d
00000110: 13ca c83c be51 c03c 6b5c 71bd 3960 76bd
00000120: 69b0 993d cba8 813d c005 2c3d 3bb7 b1bd
00000130: d9b6 b93c 5741 2abc 9f05 cfbb 1c26 01bd
00000140: e0d4 3b3d 1cf7 113d 2d58 043e 9b96 b3bc
00000150: df65 cdbd 888d 9b3d 1b61 64bd b67c 2bbd
00000160: d3ff aa3d 392f 613c e10e 413d 82ec 6f3c
00000170: 2e88 873c afc5 90bc 432c 923c 372f abbd
00000180: 44ab 113d a4d6 c5bd 6a17 edbc d40d 5cbc
00000190: 3114 4e3d 3bdf 12bd e18c f03b 9caa a9bd
000001a0: f76b 4a3d 2dea 9d3d 660c 99bd 80da 1fbd
000001b0: ac7f ac3d 3b79 2d3d 420f d7bc 15dd 953d
000001c0: a354 79bd 6cb9 9d3d b2ad 86bd 8e53 b73c
000001d0: 7dd2 d1bc 73fd 2e3d a3e2 a7bc fa2e 32bd
000001e0: 80d8 9cbd 504a 943d f9e0 be3d ebc1 71bd
000001f0: 673a cdbc 1bfd 0abd 7e13 d33c 9bf6 0ebd
00000200: bb42 84bd c35c 0cbc bcca 5ebc 5a7e da3b
00000210: 7b40 e53b cbdf 4bbd 435e 6bbd c7ff 3fbd
00000220: bc36 efbc df13 bb3d e9e9 3f3c 5c4e 8b3d
00000230: 21e8 33bd 7211 4e3d 867e 98bb d8db 533c
00000240: 4fc5 3bbd f334 aa3d 2315 733c 323d c8bb
00000250: 5cbc 963d 4402 9e3d 9900 c83d 4bc4 99bb
00000260: 8e4d e13c 93fb 25bd 9994 3d3d f627 c3bd
00000270: 9c81 69bd 20cf 78bd 6b1c ecbc e816 23bc
00000280: ab64 81bd e109 a93c 3fb6 6cbd 9c0e a0bd
00000290: 44cb 833d 067b 53bd 98b3 20bd 2d33 98bc
000002a0: 1099 b03c e0b2 eabc 0915 81bd d3f3 b63d
000002b0: b9b1 9d3d a3ed e0bc a4f4 903d 9174 363d
000002c0: f90a dfbc 5bc4 8a3d ec8d 99bc 93fb 893d
000002d0: 5313 b8bd 2cd0 bdbd d29d 8dbc f7c8 8ebc
000002e0: 62b0 5e3d 4254 04bc 3cfd 493c b532 d03c
000002f0: 9adf 47bd 656a ff3c f8ab bfbd 7192 793d
00000300: c48a 97bd 13cb 413d 78d1 42bc 12db 14bd
00000310: dc65 f83b c41c 7a3d 3566 caba 7466 3e3d
00000320: 3df7 8c3d ce0f 1b3d 68a5 29bc 99fb 063d
00000330: 9993 293d 09c7 df3c 104a a5bd da11 9a3d
00000340: a868 73bc 3670 0c3d 7ff0 19bc f80d 85bd
00000350: 2919 eb3c 0cd3 9ebd bb74 c4bd 16db a5bd
00000360: fd1b b53d 6e83 27bd 3935 23bc 6900 4abd
00000370: ee4d 86bd 9ab1 443d b613 093d 8f54 ce3d
00000380: c343 963d e290 3b3d 3bb9 d73c 8dc0 493d
00000390: 6cc7 6b3d 99e8 263d fb09 55bd 03c9 a03d
000003a0: 343d 44bc cf41 473d acd6 20bd da99 c6bc
000003b0: 9a9c 05bd 29f4 503d 3a6a 40bd f987 34bc
000003c0: 9670 dcbc cf89 babd 3b32 a33d b4a6 8fbd
000003d0: 7bd8 ed3c dddd ab3d 5200 653d e7c4 f5bc
000003e0: 0a38 be3d c517 b73d 83cc 8b3d 1edf 81bd
000003f0: 39f7 c33c a92a bdbb e5a5 f43c 71c5 003e
0.048539102 0.016041806 -0.024075141 0.051474676 -0.053033303 -0.038253576 -0.010799477 0.04264107
0.09164185 0.036664918 -0.0006314221 -0.02592813 -0.034097675 -0.01053385 -0.06889144 -0.00078251906
-0.0022685034 0.04856096 -0.07770027 -0.022001462 0.09014846 -0.007491935 -0.0053079454 0.07287271
-0.029058054 -0.087936744 -0.0842682 0.040782966 -0.0024811504 -0.116143614 -0.00573369 -0.08423902
0.002562814 -0.0062113325 0.045675192 -0.08217802 0.11788367 0.013366506 0.008846697 0.031739786
0.045368113 0.133945 -0.011264939 -0.09111289 -0.019888362 0.0129969595 0.035099786 0.05762174
0.072568364 0.12309167 0.08820101 -0.04361274 0.025130995 -0.054646786 -0.02000205 -0.0152604915
-0.0031312904 0.011225888 0.09496747 0.03369875 -0.08070053 0.050056525 0.018562851 -0.045069266
0.10914534 -0.012135688 -0.03591789 0.059908777 0.024510419 0.023476478 -0.058926027 -0.06015036
0.07504351 0.06331023 0.04199767 -0.086775266 0.022670196 -0.010391555 -0.0063178088 -0.031530485
0.04585731 0.035636052 0.12924261 -0.0219224 -0.10029196 0.07595354 -0.05575667 -0.04186698
0.08349576 0.013744169 0.04713333 0.01464379 0.016544428 -0.017672388 0.017843371 -0.08358615
0.035563722 -0.0966008 -0.028941829 -0.013431031 0.050312225 -0.03585742 0.007341013 -0.08284494
0.04941937 0.07710681 -0.07473068 -0.039026737 0.08422789 0.042351943 -0.026252393 0.07317559
-0.06087173 0.07701382 -0.065760985 0.02237871 -0.025613064 0.042722177 -0.020493811 -0.04350183
-0.076584816 0.072407365 0.09320254 -0.059022825 -0.025052262 -0.033932786 0.02576613 -0.03490315
-0.0645804 -0.008567038 -0.01359814 0.0066678943 0.006996212 -0.049773972 -0.05746294 -0.046874788
-0.029200904 0.091346495 0.011713483 0.06802055 -0.043922547 0.050309606 -0.0046537546 0.012930833
-0.045842465 0.083108805 0.014836582 -0.0061108107 0.073601454 0.07715276 0.09765739 -0.0046925894
0.027502801 -0.040523123 0.046284292 -0.09529106 -0.05700837 -0.060744405 -0.028822144 -0.009954192
-0.06318029 0.020634593 -0.05779099 -0.078152865 0.06435254 -0.051630996 -0.039233774 -0.01857909
0.02155736 -0.028649747 -0.0630284 0.089332245 0.076999135 -0.027457064 0.070779115 0.04454476
-0.027226912 0.06775733 -0.018744431 0.06737437 -0.08988061 -0.09268221 -0.017287169 -0.017429812
0.05436743 -0.008076729 0.012328442 0.025414804 -0.048797227 0.031178663 -0.09358972 0.060930673
-0.07399514 0.047312807 -0.011890762 -0.036341734 0.007580502 0.06106259 -0.0015441837 0.046484426
0.068830945 0.03785687 -0.010354377 0.032954786 0.041400526 0.027316587 -0.08070767 0.07522936
-0.014856495 0.0342867 -0.009395718 -0.06496805 0.02869852 -0.07755098 -0.09592577 -0.08098428
0.08843229 -0.040896825 -0.00996142 -0.049316797 -0.06557833 0.048020937 0.033466063 0.10074722
0.07337143 0.045792468 0.026333442 0.049255896 0.05756323 0.040749166 -0.05201147 0.0785084
-0.011977483 0.048646744 -0.039267227 -0.024243284 -0.03262005 0.0510141 -0.046976306 -0.0110187465
-0.026909154 -0.09108316 0.07968565 -0.07014218 0.02903389 0.083919264 0.05590851 -0.030001117
0.09288032 0.089400806 0.06826117 -0.06341384 0.023921596 -0.0057729078 0.02986426 0.12575318

lstm.bias_ih_l1 f4 [512]
00000000: c5a3 ebbd 661a 903c 82f0 90bc b61c 81bd
00000010: 5e19 313c f632 80bd b29f 8b3c 2618 6b3c
00000020: 5ee4 6c3d afea d0bd 46cb e83d e85c 1dbd
00000030: 678a 553b 3bec 423d 1707 99bb efa3 9dbd
00000040: b026 43bd b502 d0bd 9d29 1f3d 51ed 993d
00000050: 45ae 633d 8813 85bd 7869 02bd 7334 68bd
00000060: ee09 183c 1a3c 6bbd 9520 21bc 4c3f 16bc
00000070: ae01 423c a654 cf3c b68f b3bd f870 e33c
00000080: d8da f5bd 9a5f 303d 66ea 82bd fbca ce3c
00000090: 98ac 26bc 1b24 62bc 2945 77bd 4ebc 6c3d
000000a0: 725c 16bc 60f4 963d 9c3c 71bd e9b1 923d
000000b0: b5aa 42bd 3c26 433d 6801 b63d dd17 0b3d
000000c0: 11c8 afbd 797a 62bd 33f2 933c ab99 16bd
000000d0: 136d 3cbd 15ed b2bc 4dbe c2bb af6b 87bd
000000e0: 07c0 1dbd 1a18 593d 21ac 37bd 773e 273d
000000f0: 04c0 693d 1e6d 08bc 1a84 65bc 439d 55bd
00000100: 6ebe c8bc f125 45bd 5811 65bd 2672 42bd
00000110: 55c5 82bd 8323 00bb 37f9 5d3d 3fb3 11bc
00000120: ec4f edbb b7e5 71bd 4818 34bd d6ec 063d
00000130: 5c26 9a3c a4bb 373d 8bd3 98bd dd8a 6abd
00000140: 8ebc 913c e266 3c3d 3403 863d d906 23bc
00000150: d3bf e43c 9a37 c13c cbc0 f03c 823f 263d
00000160: 3a88 b7bd e42d 413d ad3b fcbc a73a 873c
00000170: 628c 6dbd 4b80 7bbd 87bd 54bd 60a2 89bd
00000180: 33ac fbbc 8a0c cdbd c5c8 173c cfaa 43bb
00000190: 6141 b93c 917a 903d 4065 323c 586f 4abd
000001a0: 189b a13d 6f3b a53d 73b0 c4bd 13c2 2abd
000001b0: 249d 6a3d cfdc 843c 5f66 a6bd d32a 013d
000001c0: 39c5 1b3d f6f9 583d 5512 31bd bdbc 67bd
000001d0: b75a 0f3d fb40 c3bd 2ac4 633d 3c96 21bd
000001e0: b174 713d 65bd 793d 2a4a bebd 8a85 cbbd
000001f0: 4fe6 f3bc 872e 90bc be98 393d d0d6 243c
00000200: 71fe c43c d85f ac3c 9014 323c d757 cd3c
00000210: 00d7 89bd 8eba 1abd 4951 b53c a299 293d
00000220: cc72 91bd 2a02 acbd 81f7 d13d 2d80 c9b9
00000230: 404d 723c 4568 0a3c 8bd5 493d d7e2 083c
00000240: fb6f da3c 7c70 7a3d 7b8b acbd b42c fb3c
00000250: 560d 76bd a465 12bc be58 2fbd cf31 b7bd
00000260: 9e56 ca3b 97eb 1c3d 1a88 bfbd 48a8 86bd
00000270: e0c9 b33d e356 a4bc 2af8 373d 6eab 6dbd
00000280: 674c d0bd 89fd 2d3d e67c 35bd 7d4b a1bd
00000290: 5710 3fbd 0a87 fb3c 438d b33c 6dfb 95bd
000002a0: b6e7 82bd 5a5d 4f3d 2600 abbd 1e58 3dbc
000002b0: c646 833c f78f b03d 1e6a 923d 47a7 2c3d
000002c0: ecb0 f7bd 189d ff3c 184a 263d 10a3 1dbd
000002d0: 48b1 b53d f984 afbc e2ee fcbc efde 00bd
000002e0: fbc5 64bd 3be5 3abd 1416 443d 4f44 943c
000002f0: de3a 49bd 664a 70bc 7620 30bd 3b56 a3bd
00000300: fc44 92bd 22c4 2bbd 8216 e5bd 7ee6 3fbd
00000310: e605 e8bb caf3 63bc 79a8 b1bd e7dd b8bd
00000320: 51fe 243d e2ea 07bd 1f60 54bc d22f c5bb
00000330: 6a3e 3f3d ed58 e6bc 0e21 b6bd d40a 7b3d
00000340: 9251 dbbc 32da 083c 4c34 a93d 9715 0a3d
00000350: 866f 80bd 1ff5 8cba 1590 bdbd e145 883c
00000360: ab9d b1bd af37 a1bd 02f9 0f3c d9a7 9bbd
00000370: d5b5 febb 40c7 5a3d 02b9 3b3c 4840 453d
00000380: 1080 fa3c 370c 173d a74b 75bb 6a87 253d
00000390: d8ac 753d 9475 28bd 1c17 81bd 8adc b23d
000003a0: 2dce a63d 2b97 aa3d 6d02 6fbd 2457 9a3d
000003b0: 524e 353d a8f7 5b3d 1039 7abc 28b2 df3c
000003c0: 2adc 48bd 6841 7b3d 5dd1 64bd ff9e 983d
000003d0: 6c79 c7bc c543 03bd f78f c3bd 1bc4 aebd
000003e0: a0b1 9b3d 3ee4 053c 58b8 1dbd 6e29 283d
000003f0: 3fbb 9bbd 81b9 12bd 5bd9 e53b fb25 27bc
-0.11505846 0.017590713 -0.017692808 -0.06304304 0.010809271 -0.0625972 0.017043922 0.014349019
0.057834975 -0.10201012 0.11366896 -0.03841868 0.0032583715 0.04758857 -0.0046700346 -0.076972835
-0.047644317 -0.10156766 0.038858045 0.07515968 0.05558612 -0.06497866 -0.031838864 -0.056690644
0.009279711 -0.057430364 -0.009834428 -0.009170365 0.011841221 0.025308918 -0.08767645 0.027763829
-0.12004632 0.043059923 -0.06392364 0.025243273 -0.0101729855 -0.0138025535 -0.06036869 0.05779677
-0.009177314 0.073708296 -0.058895692 0.0716284 -0.04752608 0.047643885 0.08886987 0.033958305
-0.085830815 -0.05529258 0.018059826 -0.036767643 -0.04600246 -0.021841565 -0.005943096 -0.06612336
-0.03851321 0.0530015 -0.04484189 0.040831055 0.057067886 -0.008326797 -0.014008546 -0.05215193
-0.024504866 -0.048131887 -0.055924743 -0.04747214 -0.06385294 -0.0019552417 0.054192748 -0.008892833
-0.0072421934 -0.059056964 -0.04396847 0.032940708 0.01881712 0.044856682 -0.074622236 -0.057261337
0.017790105 0.045996554 0.0654358 -0.009950363 0.0279235 0.023586083 0.029388806 0.04058791
-0.0896153 0.047162905 -0.030790174 0.01650746 -0.057995208 -0.061401647 -0.05193856 -0.06720424
-0.03072176 -0.10012157 0.009264176 -0.0029856449 0.022614183 0.07054628 0.010888398 -0.049422592
0.0789091 0.08067977 -0.096039675 -0.04168899 0.057278767 0.016218571 -0.081249945 0.03153498
0.038029883 0.052972756 -0.043230373 -0.05657648 0.03499862 -0.095338784 0.055607 -0.039449915
0.058949176 0.060971636 -0.092914894 -0.0993758 -0.029772906 -0.017600311 0.045311682 0.010060981
0.024047108 0.021041796 0.01086916 0.0250663 -0.06730461 -0.03777557 0.022133486 0.04140628
-0.07101974 -0.0839885 0.10252286 -0.00038433206 0.014788926 0.008447711 0.049275916 0.008354864
0.026664725 0.06114243 -0.08425041 0.030660965 -0.060071312 -0.008935366 -0.04280924 -0.08945047
0.0061748764 0.038310613 -0.09352131 -0.06575066 0.08778739 -0.020060962 0.044914402 -0.058024816
-0.101708226 0.042478118 -0.044308566 -0.07875726 -0.046646442 0.03070404 0.021917945 -0.07323346
-0.063918516 0.050626136 -0.08349638 -0.011556653 0.016024958 0.08621209 0.071491465 0.042151716
-0.12094292 0.031202838 0.040598005 -0.038485587 0.08871704 -0.021425711 -0.030875627 -0.031462606
-0.05585287 -0.045628767 0.047872618 0.018098978 -0.049128406 -0.0146661755 -0.042999707 -0.079754315
-0.07142064 -0.041935094 -0.11185934 -0.046850674 -0.0070807813 -0.013913104 -0.08674712 -0.090266995
0.040281598 -0.033182986 -0.01296237 -0.0060176635 0.046690382 -0.028118575 -0.088930234 0.061289623
-0.026772294 0.008352803 0.08261928 0.033711996 -0.062712714 -0.0010754204 -0.09255997 0.016634883
-0.08672651 -0.07871949 0.008787395 -0.07600374 -0.007773141 0.053412676 0.0114576835 0.048157007
0.030578643 0.036876883 -0.0037429126 0.040412344 0.05997929 -0.041127756 -0.06303236 0.08733471
0.08144794 0.08329614 -0.058351923 0.07536152 0.044264145 0.05370298 -0.015272394 0.027306631
-0.04903809 0.061341673 -0.055863727 0.07452201 -0.02434989 -0.032047052 -0.095489435 -0.08533498
0.07602239 0.008172093 -0.038505882 0.041055135 -0.07604074 -0.03582144 0.007014436 -0.010201926
