04_Models/20250810_155333_HBEA_LSTM_Classification/best_model.pth (torch, 849717 bytes, 47 tensors)

lstm.weight_ih_l0 f4 [256, 49]
000000 76 b4 71 bd fc 2f 34 bd 96 46 7c 3d 6c ad c7 bd
       -0.05900999 -0.043991074 0.061590753 -0.097498745
000010 2f 7a a1 3c df ad 18 be 8e cb 21 bd 5d 66 d1 bd
       0.019711582 -0.14910077 -0.039500766 -0.10224602
000020 e0 54 3b 3d 74 c0 34 3e 6c cc 1b be 61 52 88 3c
       0.04573524 0.1765154 -0.152147 0.016640844
000030 06 e3 de bb 07 c8 b2 3c b5 82 cb bd ad 7d da 3d
       -0.0068019656 0.021823896 -0.0993704 0.10668502
000040 74 3a 9d bd f2 c4 80 3a a7 8f 11 b9 f6 1e bb 3d
       -0.07677165 0.0009824319 -0.00013881792 0.09136765
000050 26 43 be 3d 82 80 f5 3c cc d2 81 bc ea eb 35 bd
       0.09290151 0.029968504 -0.015847586 -0.04441444
000060 f5 9c 52 3d f8 e1 e4 3c 3a e6 95 bc b1 ef 8b bc
       0.051419217 0.027939782 -0.018298257 -0.017082067
000070 96 ea 06 be 20 1a 08 3d fc 3a bf bd 38 5e b9 bb
       -0.13175425 0.03322804 -0.09337422 -0.0056569837
000080 8a 1e 15 3d f0 10 00 3e 3c 2b 66 3c f3 f0 27 3d
       0.036406077 0.12506461 0.014048394 0.04100127
000090 c0 9d 12 3c 4d 27 4e 3d ca 80 33 3c 94 89 80 3d
       0.008948743 0.05033045 0.010955999 0.06276241
0000a0 1b cf 28 3d f4 12 1a bd 7e 43 b2 bc f6 b7 80 bd
       0.041213136 -0.03761573 -0.021760698 -0.06285088
0000b0 33 49 94 3b e6 1d e1 3d 5c 85 a8 bc 49 84 a3 3c
       0.0045253276 0.10992031 -0.020571403 0.01996054
0000c0 84 56 39 bd 98 32 85 3d 7a 35 0b bc 62 5e 00 bd
       -0.045248523 0.065037906 -0.0084966365 -0.03134001
0000d0 07 4a 83 3d 28 e3 75 bd c7 e9 33 3d 4a 0a b2 3c
       0.06410604 -0.060031086 0.04392412 0.021733422
0000e0 46 53 4f 3c 99 a7 82 3b 26 f2 33 bd 92 54 10 3d
       0.012654131 0.0039872644 -0.043932103 0.035236903
0000f0 5f 7a bc 3c 5d 09 5a 3d 19 b8 da 3d 9d 22 e5 3d
       0.02300757 0.053231586 0.10679645 0.111882426
000100 3c c9 86 3c 52 82 8e 3d e3 42 a4 bc 0e 19 86 bd
       0.016453378 0.069584504 -0.020051425 -0.065477476
000110 cb 3c 24 3d a9 93 03 3e 05 99 28 bd fc 64 02 bd
       0.04009704 0.12849297 -0.041161556 -0.031834587
000120 69 46 2b bc 9f 02 29 be a7 5d 6a bc ea 58 2d bd
       -0.010453799 -0.16504906 -0.014304555 -0.042321123
000130 6b b3 d1 3c 27 f6 bb bb f3 ee 76 bd 91 eb 1c bd
       0.025598248 -0.0057361308 -0.060286473 -0.03831059
000140 de 46 79 3d a3 d6 a3 bd 56 07 36 bc 69 43 ec 3d
       0.0608586 -0.07999923 -0.011110147 0.11536295
000150 d5 48 70 bd b6 a6 30 3e 83 11 6c bd f9 68 11 3e
       -0.058663208 0.17251095 -0.057633888 0.142002
000160 ff 11 04 3d c3 b5 b9 3d b9 a9 b7 3c 95 4d 0c be
       0.032243725 0.090678714 0.022419797 -0.1370147
000170 24 d1 f4 3d 15 7e 4a bc d3 3d 6a 3d 92 04 db bc
       0.11953953 -0.012359162 0.057187866 -0.026735578
000180 c9 c0 fc bc da 03 68 bd c9 0a 47 bb 21 d3 d6 3c
       -0.030853646 -0.056644298 -0.0030371419 0.026223721
000190 bf da 85 3d 43 4e 84 3d 81 b4 c6 3d 3c ee 11 3c
       0.06535863 0.0646024 0.09702397 0.008906897
0001a0 43 99 8c bd 56 7a d9 3c c6 2d db bd 60 4e da 3d
       -0.0686517 0.026547592 -0.1070209 0.1065948
0001b0 b4 db 8c 3d 90 b5 3c bd f8 92 36 3d e6 1c 94 bd
       0.068778425 -0.04607159 0.044573754 -0.072320744
0001c0 e1 c5 17 bc 1d c4 8e 38 9d 19 62 bc 2b 84 82 bd
       -0.009263487 6.8076166e-05 -0.013800052 -0.06372865
0001d0 0a d9 d1 3d 48 f8 7c 3c 0c 4f 8a 3c e8 94 28 3d
       0.10246475 0.015440054 0.016883396 0.041157633
0001e0 cf fb 9a bd 9c 66 70 bd 37 9e 06 3d 9b c7 7d bd
       -0.0756756 -0.058691606 0.03286573 -0.061957937
0001f0 5b 1f 9a 3d 80 7a 0a bd 06 8d a0 3d 25 f3 71 3d
       0.07525512 -0.03380823 0.07839398 0.05906977
000200 49 3a d2 3b 17 3a cb 3d 20 b9 96 3c 05 c1 b0 3c
       0.0064156395 0.09923189 0.018398821 0.021576414
000210 55 72 8d bd e4 88 8a 3d b0 c5 c7 bb 8c 00 99 bd
       -0.06906573 0.06764391 -0.0060965642 -0.074708074
000220 ab c3 e2 3d 9c 38 b1 bc a1 af e0 3b 0e cc e6 3c
       0.11072477 -0.021633439 0.006856874 0.028173473
000230 51 3c 77 3c 70 c9 d5 bc 31 93 21 bd 45 00 c1 bd
       0.015090064 -0.02609703 -0.039447013 -0.094238795
000240 80 7f b3 3c 2d 5f e0 bd 37 f7 02 bd 7b 1a e0 bd
       0.021911383 -0.10955653 -0.031974044 -0.10942551
000250 3c 93 02 be 91 bc 8b 3d a0 2d 37 3d e3 d6 1e 3d
       -0.12751478 0.068230756 0.044721246 0.03877915
000260 65 1c e4 bc cc be 80 bc c8 97 7f bd 5f af 47 bd
       -0.02784557 -0.015715979 -0.06240061 -0.04875123
000270 a3 df a1 bd 16 34 b1 3d 1f 2f b1 bd 34 ed 23 bc
       -0.079039834 0.08652513 -0.08651566 -0.010005284
000280 f5 31 c5 bd 49 35 9a bd 2e 80 84 bd 06 eb 85 bd
       -0.09628669 -0.075296946 -0.06469761 -0.06538968
000290 91 b2 cb bc 43 d5 ab 3c c9 cd 1a bd af db 4d bd
       -0.02486542 0.020975715 -0.03779391 -0.050258335
0002a0 c4 27 5c bd 96 06 14 bd 9a 49 f7 3c 07 b2 59 bd
       -0.05374886 -0.036139093 0.030186463 -0.053148296
0002b0 59 90 ad bd 94 ac 30 bd 9c 32 d9 bc 4c 52 c7 bb
       -0.08474798 -0.043133333 -0.02651339 -0.0060828086
0002c0 2d 8f 83 3c ae 3a 6f 3d 43 6e 7f bd ae c9 d2 bd
       0.016059482 0.05840557 -0.062361013 -0.102923736
0002d0 25 c3 97 3d 0e 3c bc bd f6 17 4a bd 8f 40 fb 3c
       0.07410268 -0.09191142 -0.049339257 0.030670432
0002e0 a6 80 a9 3d db 30 06 be 7d 2c f3 bc c0 5c ff 3c
       0.08276491 -0.13104574 -0.0296843 0.031172156
0002f0 61 86 64 bd e2 78 d1 3a a3 6b ac bb a9 24 aa 3d
       -0.055792216 0.001598146 -0.0052618547 0.083077736
000300 95 5d 4f bd d3 d1 a2 3d 9f b3 f2 3d 09 80 9a bd
       -0.050626356 0.07950177 0.11850666 -0.07543952
000310 9f f5 16 3d 15 e6 20 bd a1 d8 17 3e 45 dc 4d 3c
       0.036855336 -0.039281923 0.14828731 0.012564723
000320 24 25 57 3d c4 92 f1 3d eb 70 9d 3d 42 65 ee 3a
       0.052525654 0.117955714 0.07687553 0.0018188136
000330 17 75 36 3b 6f 87 f1 bd 29 ff 45 bd d1 ac bd 3d
       0.0027840787 -0.1179341 -0.048339043 0.09261478
000340 a4 26 af bc f4 3b a8 3c 66 05 22 bd 5a de 45 3d
       -0.02138073 0.0205364 -0.03955593 0.048307754
000350 49 56 a6 3c 04 ae 14 3e 19 c6 a8 bd a3 91 b6 3d
       0.020304816 0.14519507 -0.08240909 0.08914497
000360 ab d9 7c 3c 32 b7 19 3d 43 44 35 3d af 87 db 3c
       0.015432755 0.037528224 0.044254553 0.026798097
000370 9b bf 56 3e 6b 3c 87 3c 87 7b a4 bd b8 17 b3 3d
       0.20971529 0.016508302 -0.080313735 0.08744758
000380 fe 47 51 3d 3b f8 45 3e 6c 3b e1 bc f8 e9 01 be
       0.051094048 0.19332974 -0.027494155 -0.12686908
000390 ca f9 6b bd be ee 82 bc 26 8d d1 3d 07 43 ca 3d
       -0.057611264 -0.015982982 0.10232 0.09876066
0003a0 c1 60 d4 bd 7b 25 42 3d 70 91 07 bc 3c 03 4c 3c
       -0.10370017 0.047399025 -0.008274421 0.012451943
0003b0 a2 b2 9d 3d 20 c8 21 3c ef 3c 31 3d 47 51 8f bd
       0.07700087 0.009874374 0.043271 -0.06997924
0003c0 a9 7f 67 3d ce ee 3c bd 98 59 b9 bc 07 63 77 3d
       0.05651823 -0.04612618 -0.02262573 0.060397174
0003d0 1f 80 11 3d b7 5d e6 3c 9d e1 41 ba 7f f0 a2 bd
       0.035522576 0.028120859 -0.0007395985 -0.07956027
0003e0 58 eb b0 bc 6d a4 9a bd 7d 63 ae bd 31 d0 b4 bd
       -0.021596596 -0.07550893 -0.0851507 -0.08828772
0003f0 3e f5 08 bc d2 ae 40 3d 84 81 d6 bc e0 e3 73 3d
       -0.008359252 0.04704172 -0.026184805 0.05954349

lstm.weight_hh_l0 f4 [256, 64]
000000 01 13 84 bd a5 55 a6 bd 48 e0 8b bc 78 1d 33 be
       -0.06448937 -0.08121804 -0.01707472 -0.1749171
000010 42 d8 fd bd 47 b7 ab 3d 45 8c 16 be 2d fa 78 bc
       -0.123947635 0.08384567 -0.14701946 -0.015196365
000020 04 59 c4 bd dc a8 1d bd 3b c2 63 3d 08 b5 e9 3c
       -0.09587291 -0.038491115 0.055605154 0.028528705
000030 bc 8b 04 3d a7 c1 ef 3d 7a 81 0f 3e ab 61 d2 bd
       0.032359824 0.11706858 0.14014235 -0.10272535
000040 5c cc 24 3d e7 32 4d 3d 4b 45 c6 3c e0 d2 9c 3c
       0.040233955 0.050097372 0.024202963 0.019143522
000050 92 20 2b bc c9 15 a1 bd 70 f3 0b bd 04 2a 15 3a
       -0.010444777 -0.07865483 -0.034167707 0.000569016
000060 b4 f1 03 3d cf 72 02 bd d9 7c 49 3d 21 0c b5 3d
       0.032212928 -0.03184777 0.04919133 0.08840204
000070 22 9c a4 3c 30 41 b5 bc 3f 2f 68 3d 1d 05 f7 3d
       0.020093981 -0.02212581 0.056685682 0.12061522
000080 13 ea de bb 40 64 0b 3d 8e d5 f8 3c 8f f8 f9 3b
       -0.006802806 0.034031153 0.030375268 0.0076285074
000090 c5 29 7c bc 02 82 3f 3c 94 e8 31 3d 87 b4 a4 bd
       -0.015390818 0.011688711 0.043434694 -0.08042245
0000a0 05 60 c4 bc 8c 22 47 3d ce 00 54 3c 0f fd 2a bc
       -0.023971567 0.04861693 0.012939645 -0.01043631
0000b0 8f ac c6 bd 63 5e 52 3d 12 25 02 bb 83 89 a5 3c
       -0.09700882 0.051359545 -0.0019858521 0.020207172
0000c0 c6 3d 2a 3d e9 52 9f 3c 46 e4 bc 3d ae 74 aa bc
       0.041562818 0.019448714 0.09223227 -0.02080759
0000d0 82 90 8e 3d 26 50 41 3d 6d 9f 20 3d 9a e2 83 3d
       0.069611564 0.047195576 0.03921454 0.06439705
0000e0 a2 7a 10 bd 79 95 09 bd 1f 99 6d 3c 4b d5 a4 3d
       -0.0352732 -0.033589814 0.014501839 0.08048495
0000f0 d6 de 94 bd d6 08 07 3c cd 78 1a bd 59 a7 50 3d
       -0.07269065 0.008241853 -0.03771286 0.050940845
000100 ca e0 e8 3b 06 bc d0 bd 85 22 81 3d 1d b5 84 bc
       0.007106875 -0.101921126 0.06305412 -0.016199643
000110 01 17 6c 3d a1 1a 11 bd 46 4b ab 3d 8a 17 97 bd
       0.057639126 -0.035425786 0.08363967 -0.073775366
000120 09 f8 10 3e 93 e0 1a bd 40 0f 8c 3d 91 46 0c bd
       0.14157118 -0.037811827 0.06838846 -0.034246985
000130 00 75 45 bd bf 91 90 3d 82 8b 64 bd 52 08 37 bd
       -0.048207283 0.07059049 -0.055797108 -0.04468567
000140 de e0 d1 3d 9d 7c 8f 3d 8b 64 31 bc 5a 23 41 bd
       0.10247968 0.0700619 -0.010827194 -0.047152855
000150 27 7f c9 3d e9 9a 48 bd c2 b8 ed 3c 21 3d bc 3c
       0.098387055 -0.04897586 0.029018763 0.022978367
000160 49 6c 04 bc 2c d2 bd bd 09 e4 87 bd 7d 43 f7 3d
       -0.008082458 -0.09268603 -0.06635291 0.12073419
000170 36 94 d6 bb 23 95 32 bd 69 92 49 3d bd 1c 31 bd
       -0.00654843 -0.04359926 0.049211893 -0.043240298
000180 aa ae 43 bc f2 a8 c9 bc ae df 86 3b fd 4d d8 3c
       -0.011943499 -0.024616692 0.00411602 0.026404375
000190 38 5c 8f bd 75 db b8 bd c9 5b c4 3d 75 e8 71 3d
       -0.07000011 -0.09026233 0.09587819 0.05905958
0001a0 e9 b8 bb bc db 96 26 b9 8b 88 a2 bd 7b 24 40 3d
       -0.02291532 -0.00015887192 -0.079362 0.04690979
0001b0 17 22 e3 bc 6d 85 5e bc 2a ca d1 bd cc 8b 00 bd
       -0.027726216 -0.013581616 -0.10243638 -0.03138332
0001c0 e0 f5 cc 3d 2e 63 ba bc c4 b9 b7 bc e5 11 79 bd
       0.100078344 -0.02275237 -0.022427447 -0.06080808
0001d0 d4 91 ae bd 88 ef 88 3d a7 c3 3f bb bf b4 c0 3d
       -0.08523908 0.06686312 -0.0029260905 0.094094746
0001e0 aa 46 4c bd 57 58 49 bd b0 77 8a bd 60 6e 43 bd
       -0.049872078 -0.049156513 -0.0676111 -0.047712684
0001f0 3d af f2 3c fd 2b 66 bd 7e b7 1d 3c fc ce 99 3c
       0.029624576 -0.056194294 0.0096262675 0.018775456
000200 f5 7a cc 3d 80 dd ab bd d9 26 91 bd 0f 03 a6 bd
       0.0998439 -0.08391857 -0.07087488 -0.08106052
000210 ea 41 b7 3c 22 cb 94 bd b3 ea d2 bd 61 9d 5b 3d
       0.022370297 -0.07265307 -0.102986716 0.053616885
000220 52 6e ba 3b 0d 7d 32 bd 23 5b ab bd bd 9f ef bc
       0.0056894207 -0.04357629 -0.08366992 -0.029250974
000230 7e c0 98 bd ca ad 91 bc bc ad 06 bc a7 cd f5 3d
       -0.0745859 -0.017783064 -0.008220132 0.12002116
000240 de 02 98 bd 63 0c ed bd f5 cf 7b 3d 95 31 c1 bc
       -0.07422422 -0.11574628 0.06147762 -0.023583213
000250 10 9d a7 3d 0d d1 cb bd 3e 83 c2 3d 14 ee 19 bd
       0.08184254 -0.09951983 0.09497689 -0.037580565
000260 af 7d f0 bc bc a1 82 3d 9a a7 66 3d a6 dc 21 3d
       -0.029356806 0.06378505 0.05631218 0.039517067
000270 f2 50 3b 3e 04 32 3a 3d b2 d6 b5 bc 90 84 a1 3d
       0.18292597 0.045457855 -0.022197101 0.078866124
000280 92 ca 74 bc 7f 4a ad 3d 71 07 a1 bc 78 26 b9 3d
       -0.014940875 0.084614746 -0.019656869 0.090405405
000290 78 2e 52 3d 30 f4 8f bd f7 90 65 bd 31 7c da bd
       0.051313847 -0.07028997 -0.056046452 -0.10668219
0002a0 b9 0b 1b be e7 74 04 3d b8 75 65 bd ce ce d3 3d
       -0.1514119 0.03233805 -0.05602047 0.10342179
0002b0 70 d6 00 3c 84 00 86 bd a2 ee 31 3c 54 f9 1c 3c
       0.007863626 -0.06543067 0.010860117 0.009580929
0002c0 26 93 d3 bb c7 c8 3b bc ed 96 c4 bc b5 6d 21 bd
       -0.0064567504 -0.011461443 -0.023997748 -0.039411265
0002d0 43 db 6a bd 74 77 2e 3d 37 a4 f1 3c 59 af fb bd
       -0.05733801 0.042594388 0.029497249 -0.12289304
0002e0 02 61 1f 3c 0f 05 6e 3d 79 83 0e bb d5 9e 98 3d
       0.009727718 0.058110293 -0.0021745844 0.0745217
0002f0 ff ea d9 bb 3d 19 b3 bc 7f 0c 0c 3a 34 8a cd 3d
       -0.006650328 -0.02186262 0.0005342438 0.10036126
000300 01 f0 d1 3c 18 eb 9b bc 07 09 49 3d fd 4e 3a bd
       0.025627138 -0.019033 0.049080875 -0.045485485
000310 94 08 1a bd 29 6a 93 bc 1c 49 82 3c e5 ac f1 3c
       -0.037605837 -0.017994957 0.015904002 0.029501388
000320 e5 e3 8a bc 43 18 7c bd bf 85 e3 3d e2 3b e3 bb
       -0.016954372 -0.061546575 0.111094944 -0.006934629
000330 08 bc 00 bd ac c2 62 3d fb 15 22 3d 78 7f 8f 3d
       -0.03142932 0.055361435 0.039571743 0.070067346
000340 fd 18 b2 39 b9 15 44 3d 40 5f 8c bc 13 20 82 3d
       0.00033969423 0.04787228 -0.017135262 0.06353774
000350 2b 6b 6a 3d 33 9d 97 3d ad 3e ed 3d 17 94 2b bd
       0.05723111 0.0740303 0.1158422 -0.041889276
000360 4f e5 74 bd 86 db 33 bd 69 cf 40 3d 87 e3 12 3c
       -0.059789 -0.043910526 0.0470728 0.00896538
000370 12 67 9d bd 20 f7 b5 3c 51 a4 6c bc d1 af 0c be
       -0.07685675 0.022212565 -0.014443473 -0.13738944
000380 85 cb 3a be 2b 07 73 bd 97 71 33 bc c7 f3 7c bd
       -0.18241699 -0.059333008 -0.010952375 -0.06175592
000390 52 71 d5 bb b4 d5 2e 3d ce df c8 bd 74 b7 04 3e
       -0.006513753 0.042684272 -0.09808312 0.12960607
0003a0 a5 f1 cf bc c5 09 fc 3c c0 c5 2b be 48 e9 24 bd
       -0.02538378 0.030766377 -0.16774654 -0.040261537
0003b0 4e 2f 30 3d e4 84 ae 3d fb a1 4f bd f3 28 40 3c
       0.043013863 0.085214406 -0.050691586 0.011728513
0003c0 ff 6f 5c 3d 21 6c 31 3b bb d5 ae 3d 85 f3 9f bb
       0.053817745 0.0027072506 0.085368596 -0.0048813247
0003d0 ff bf a8 3a 3f e8 f6 bc 99 ee 72 3d 74 79 be 3d
       0.0012874602 -0.03014004 0.059309576 0.09300509
0003e0 a7 86 98 bb 95 1a 1f 3d 6e a2 ce bd dd a0 89 3d
       -0.0046547237 0.03884371 -0.10089575 0.06720135
0003f0 7a 38 c6 3a b1 40 35 bd 35 ed 1a bd 7f 0b c4 bb
       0.0015123032 -0.044251148 -0.037823875 -0.0059828158

lstm.bias_ih_l0 f4 [256]
000000 57 0a 9d 3d d5 66 90 bf 28 36 53 3e 54 6c 20 bf
       0.07667988 -1.1281382 0.20626128 -0.62665296
000010 81 a2 67 bd 59 32 49 bf a8 c8 88 3f ec 93 da 3e
       -0.05655146 -0.7859245 1.0686235 0.4269098
000020 66 c2 b1 3e 82 f6 f5 be 55 44 57 3f be 2d 0c bf
       0.34718627 -0.48039633 0.8408864 -0.547573
000030 5c 92 e8 3e 16 e5 49 bf 8c 57 6a bf 08 5a 80 3f
       0.45424163 -0.7886518 -0.91539836 1.0027475
000040 2e 9a 2b c0 c6 14 cf 3e d9 88 2a 40 4e 41 d3 be
       -2.6812854 0.40445536 2.6646025 -0.4126076
000050 76 38 8a bc d4 49 80 be 35 b0 e7 be 50 84 ca bd
       -0.016872626 -0.25056326 -0.45251623 -0.09888518
000060 12 ba 2b 3f 0e 26 96 3d 96 11 81 3f 24 b8 04 3f
       0.67080796 0.07331477 1.0083492 0.51843476
000070 82 9d 10 be bb 27 31 3f 60 26 ad be ce b4 23 40
       -0.14122584 0.6920125 -0.3381834 2.5579104
000080 6b 65 06 c0 72 d1 af bf 49 1f dd be 19 bc 58 3f
       -2.09994 -1.3735793 -0.4318793 0.84662014
000090 6b 1f a6 be 20 92 52 3e c5 d3 0c bf 77 24 a3 3e
       -0.32445845 0.20563555 -0.55010635 0.31863758
0000a0 3e 37 4a 3f 85 b8 cf bf e4 95 d4 bc b8 d3 a5 be
       0.7899054 -1.6228186 -0.02595038 -0.3238809
0000b0 4d 7e 1b c0 7d df b0 3e 0c 52 60 3e 07 0b 5c 3f
       -2.4295838 0.34545508 0.21906298 0.85954326
0000c0 95 d4 6b bf 7f 35 98 3f 3d 06 b3 bf 9b 9d bf be
       -0.9212125 1.1891326 -1.3986279 -0.3742493
0000d0 86 c1 8d be e6 0a d8 be 86 c0 c7 be c4 f7 01 c0
       -0.2768671 -0.42195815 -0.3901407 -2.0307474
0000e0 75 4b c6 3e 75 e6 33 3e 64 0c af 3d 50 ae c1 3d
       0.38729444 0.17568381 0.08547285 0.094570756
0000f0 34 36 3c 3f aa 27 19 be bf ee f7 3f f1 7d 47 be
       0.7352021 -0.14956537 1.9369735 -0.19481637
000100 3a a0 0b bf 61 38 0e bf 3e 31 ba 3f ea 3c 42 3f
       -0.5454136 -0.5555478 1.4546278 0.758742
000110 00 56 f7 3d 21 1c ca 3e 99 e9 b5 3e a4 db 99 3d
       0.1207695 0.39474586 0.35529783 0.07512596
000120 eb fa 23 c0 1d c9 a8 3f b8 3e c8 bf 1d f2 9c bf
       -2.5621898 1.3186375 -1.564414 -1.2261387
000130 f3 d6 98 3f cc e7 fb bf 74 f0 34 3f 59 11 ae 3e
       1.1940597 -1.9680114 0.706794 0.3399761
000140 8b 15 9b bf 9b 8c 0d 40 9b 1c 54 3e e5 ce 8e be
       -1.2115949 2.2117069 0.20714037 -0.27892223
000150 80 7a 67 bf 12 6e 01 bf 1b 9f ac bf c4 cc 02 bf
       -0.90421295 -0.5055858 -1.3486055 -0.510937
000160 c9 9f 66 be 22 96 ae be 8e c9 11 3f 93 72 02 bf
       -0.2252189 -0.34098917 0.56948173 -0.50956076
000170 84 44 9a 3f 07 1b 81 3f 53 30 a9 3d 0b 19 5d 3f
       1.2052159 1.0086373 0.0826117 0.8636634
000180 a2 cc a6 bf 2a d1 af 3e 12 38 fa be f6 72 ba 3e
       -1.3031199 0.34339267 -0.48870903 0.36415833
000190 83 d3 b2 3f db 60 00 be 08 09 0a 3f d0 f9 17 be
       1.3970798 -0.12536947 0.5392003 -0.1484139
0001a0 a4 c8 b6 bf 9d ec b9 3e c6 a0 96 3f 42 8a 93 be
       -1.4279981 0.36313334 1.1767814 -0.2881642
0001b0 61 b9 be 3f e8 ca 14 bb a1 0a 95 3f 93 5a 5a be
       1.4900323 -0.002270395 1.1643869 -0.21323614
0001c0 f1 93 6e bf 78 da 07 be 4d 37 08 40 f2 fb c9 be
       -0.9319449 -0.13266933 2.1283753 -0.39450032
0001d0 bf 6b 63 3f 83 77 3f bf 96 25 82 3e ff 1c 55 3f
       0.8883628 -0.74791735 0.254193 0.8324737
0001e0 25 b1 10 3f 91 eb c4 3e c3 e7 89 3e 4a 9d 38 be
       0.565203 0.38460973 0.26934633 -0.18028751
0001f0 3d 65 43 3d 65 ac d4 3d cd d5 03 40 8c 53 fd 3e
       0.04770397 0.10384444 2.0599244 0.49477804
000200 b1 79 9d 3f 6d 35 a0 3d b9 26 0a 3e 3c 57 1c bf
       1.2302762 0.0782269 0.13491334 -0.6107061
000210 85 5b f5 3e 7a a4 b9 3e 16 54 8f bf ae a4 97 3f
       0.47921386 0.36258298 -1.1197536 1.1847131
000220 76 b6 b3 bf 9d 29 2b 3e f4 fe 99 bf ef 74 c2 bb
       -1.4040058 0.16715093 -1.203093 -0.0059343497
000230 47 ee 00 3f 82 eb 82 bc 70 80 c6 3f e8 2a e1 3f
       0.5036358 -0.01598144 1.5507946 1.7591219
000240 b8 51 08 3f e4 96 7a be ff 0b b2 3d b2 04 68 bf
       0.5324969 -0.24471623 0.08693694 -0.90632164
000250 f5 fe 83 be 16 3a 7c 3e 51 b2 9b bf 12 27 64 be
       -0.25780454 0.24631533 -1.2163793 -0.22280529
000260 54 b6 6b 3f b2 eb 1c 3f 9d 41 db bf 54 35 c5 bf
       0.92075086 0.6129714 -1.7129399 -1.54069
000270 a4 39 8f 3f 42 e9 60 bf 48 8f 2c c0 4c 66 b3 be
       1.1189466 -0.87855923 -2.6962452 -0.35038984
000280 43 57 63 be 67 d0 51 3f 9e fe 77 3e f4 1b f0 be
       -0.22201256 0.8195862 0.24218222 -0.46896327
000290 77 8e 55 bf 4b 87 57 3e 1f 4c 4d 3f 96 07 9a be
       -0.8342051 0.21047704 0.80194277 -0.30083913
0002a0 5c c2 c8 bf 50 92 a3 3e 9a b2 43 3f 0a 42 cc be
       -1.5684314 0.31947565 0.764444 -0.39894134
0002b0 87 5b 4a 3e b3 96 c5 bf 21 76 22 40 07 b6 26 3f
       0.19761477 -1.5436615 2.53846 0.651215
0002c0 55 a3 2d bf aa 32 12 be d7 0f 2a bf dc 41 61 3f
       -0.6782735 -0.1427714 -0.6643042 0.8799112
0002d0 87 b5 12 3f 05 a9 38 be ff df 23 3f 58 de 9c be
       0.5730824 -0.18033226 0.64013666 -0.30638385
0002e0 d3 ac 22 40 cd 95 cb 3e 28 da 0c 40 5a 6f c2 3e
       2.5417984 0.39762726 2.2008152 0.3797558
0002f0 4a 58 a7 3e 64 d1 79 3f 3c 4b 5c 3f 27 70 c7 3e
       0.32684547 0.9758513 0.860523 0.38952753
000300 48 d4 3f be 35 90 1c 3f e7 af 67 bf a5 de 67 3f
       -0.18733323 0.6115754 -0.9050278 0.90574104
000310 b7 00 26 3f 6a d3 9c 3f 1a 4d 08 bf e6 09 a7 3f
       0.6484484 1.2252018 -0.5324265 1.3049896
000320 c8 65 87 3b 11 72 6b 3f 81 1f fd 3c a4 7c d2 bf
       0.0041320063 0.91970927 0.030898811 -1.6444287
000330 46 96 79 bf 6c 40 16 40 02 2a 1d 3f c2 e8 4e 3e
       -0.97494924 2.347682 0.61392224 0.20205978
000340 e9 cb 4d be 90 ac 24 40 ef d0 6f 3f a9 2f 19 bd
       -0.20097317 2.5730324 0.9367818 -0.037398968
000350 c3 e0 0a 3f 8b e6 eb be 6d 6f 96 3f f4 04 38 3d
       0.5424921 -0.46074328 1.1752754 0.0449266
000360 a0 23 b9 3f e4 13 5e bf d3 90 b9 bc 54 2e 2a 3e
       1.4463997 -0.867491 -0.022652065 0.16619235
000370 fc 8d 69 be d6 18 18 bd 0e 86 16 3e 53 b0 ce be
       -0.22808069 -0.03713306 0.14699575 -0.403689
000380 91 18 86 3f 75 d2 89 be f8 12 5c bf 6e b5 51 3c
       1.0476247 -0.26918378 -0.85966444 0.012799604
000390 bc 79 3f bf 00 ee 85 3f 3a c6 6f bf 26 59 2a 3e
       -0.74795127 1.0463257 -0.93661845 0.1663557
0003a0 a2 68 59 bf cb 6a 08 3d 1c b2 9c be 27 4a 49 3f
       -0.8492528 0.03330497 -0.30604637 0.7862877
0003b0 37 b7 06 3f 2d f5 d6 bf a5 7e ce 3e 83 16 c3 bf
       0.52623314 -1.6793572 0.40330997 -1.5241245
0003c0 d6 04 1b bf cd 3b de bf fc eb f7 3f c7 99 91 bf
       -0.60554254 -1.7362 1.9368892 -1.1375054
0003d0 1c 1c bb be 11 f6 ec 3d 6f 38 9a bc e8 92 78 bf
       -0.36544883 0.11570371 -0.018825738 -0.9709916
0003e0 aa 06 af bf 82 33 d8 3e 79 c1 93 bf 24 80 07 40
       -1.3673909 0.42226797 -1.1543418 2.117196
0003f0 c4 08 6e bf 7a 50 be be e6 8c d9 3f 7e 4d 81 bf
       -0.92982125 -0.37170774 1.6996124 -1.0101774

lstm.bias_hh_l0 f4 [256]
000000 6c 90 e1 3f 23 a0 9b 3f 56 e9 a9 bf 6f f8 f8 3f
       1.7622199 1.2158245 -1.3274333 1.9450816
000010 76 81 a9 be 5e ca 6b 3e 59 44 7d bf 64 6c b6 be
       -0.33106583 0.23026416 -0.98932415 -0.3562957
000020 a1 23 e9 bf d3 db da be 9b b2 b1 be 82 c6 1f 3e
       -1.8213998 -0.42745838 -0.34706578 0.15603068
000030 75 65 87 3f b3 de 9a bf d6 c5 42 3e 77 de db be
       1.0577837 -1.2099212 0.19020781 -0.42943165
000040 e2 80 dd bf 78 d6 da 3f 36 f0 b1 3e 45 17 61 3f
       -1.7304957 1.7096701 0.3475358 0.8792613
000050 e4 e3 63 bf f2 05 59 3f 54 4a 8c bd 24 fe 05 bf
       -0.8901961 0.84774697 -0.068501145 -0.5234091
000060 16 53 86 bf cc b7 6d bf 7d 0d 11 bf 4f 88 06 3f
       -1.0494106 -0.92858577 -0.56661206 0.5255174
000070 49 7f b0 be 89 4c 39 bf e5 9e c2 3e 31 bb 7a bf
       -0.3447211 -0.7238241 0.38011852 -0.9794188
000080 32 3f 24 40 2b bb 12 3d 66 f1 2c 3f a9 78 22 bf
       2.5663571 0.03582303 0.67555845 -0.6346536
000090 6d 8f e0 bf a4 32 96 3f 35 78 a5 be 64 bf 3e be
       -1.754377 1.1734204 -0.32318273 -0.18627697
0000a0 b3 44 fa 3e 26 92 cd 3f 5e 31 3e c0 e9 12 3e 3f
       0.48880538 1.6060226 -2.9717631 0.74247605
0000b0 e8 20 83 bf 4f 33 9f 3f b8 41 59 3f fe f7 65 bf
       -1.0244417 1.2437533 0.84865904 -0.8983153
0000c0 15 0a 5b bf 64 55 d8 3e cd 75 23 3f 02 b9 48 3e
       -0.8556226 0.42252648 0.63851625 0.19601825
0000d0 53 66 a1 3e 16 02 6f be c9 b4 bd 3e 0c ae c8 bd
       0.3152338 -0.2334064 0.3705199 -0.09798822
0000e0 d2 35 1d 40 79 4f bd bf 71 f7 8a 3f db f6 58 bd
       2.45641 -1.4789878 1.0856763 -0.052969795
0000f0 02 9d db 3f 95 81 fe bf ed 58 ee bf 34 35 06 bf
       1.715729 -1.9883295 -1.8620888 -0.5242493
000100 78 4e 44 bf 06 1b ff bf 03 3b 90 3e 8e 4a ef be
       -0.76682234 -1.9930122 0.28170022 -0.46736568
000110 8b 03 85 bf ee 9b 29 3f 84 85 a6 bf 9f 2b 74 bf
       -1.0391706 0.66253555 -1.3009496 -0.9537906
000120 4c 25 08 bf e7 11 0f 3f 7c 66 d0 3f 23 d5 8a bd
       -0.5318191 0.5588669 1.6281276 -0.06778934
000130 8e 08 1b bf d4 88 4f bf 1f ed a3 3e e3 63 01 bf
       -0.6055993 -0.8106816 0.32016847 -0.5054304
000140 d6 47 86 3e ce 67 83 be 71 59 3f 3f f6 39 ab 3f
       0.2622668 -0.25665134 0.7474585 1.3377063
000150 58 e4 e0 3f 57 c5 5b 3e bf 29 02 3f f2 6c 70 bf
       1.7569685 0.21461998 0.5084495 -0.9391624
000160 7e 4b d2 3f 4f d3 0e 3f c7 83 87 3e 24 92 ea 3b
       1.6429288 0.5579118 0.26467726 0.0071585346
000170 9d c0 12 bf 83 99 2b 3f ee a6 af be 78 9b 76 bf
       -0.57325155 0.67031115 -0.34307045 -0.96330976
000180 4d 34 51 3d 20 d6 9e 3f 4f 09 b1 bf 2f 64 12 bf
       0.05107527 1.2409096 -1.3830966 -0.5718412
000190 c6 79 49 bf 41 81 c4 be 9c 1c 4c bf ab 4d 20 3f
       -0.78701437 -0.38379863 -0.79731154 0.6261851
0001a0 86 5a c5 3f 30 fd fb be a6 68 59 40 fa cc 12 bb
       1.541825 -0.49216604 3.3970122 -0.0022400008
0001b0 1c 0a 30 3d 95 ec 49 be a7 60 3c 3d 65 8f 07 3f
       0.04297839 -0.19719155 0.045990612 0.5295318
0001c0 75 eb 81 3f 7d d8 93 3f d3 88 6e 3f e0 64 e9 bd
       1.0149981 1.1550442 0.9317753 -0.113961935
0001d0 fc 16 8f 3c b9 78 80 be 13 12 8b 3f 86 97 d0 bd
       0.017467014 -0.25092104 1.0864891 -0.10185151
0001e0 d0 ed db be 8b 7c 57 be af 55 23 bf 65 77 73 3e
       -0.42954874 -0.21043603 -0.6380262 0.23776014
0001f0 69 8e 65 3e 03 ef 97 3f 0d 69 23 3f 52 a3 75 bf
       0.22417606 1.1869816 0.6383217 -0.9595233
000200 5f 53 16 3f dd af b1 be 2c 18 12 bf ff c7 9e 3e
       0.58720964 -0.34704486 -0.57068133 0.3101196
000210 92 5b 18 40 1d 71 31 40 af 78 dd bd ff db ae 3e
       2.380589 2.772529 -0.10814034 0.3415222
000220 44 38 65 3f c2 83 5f 3f 97 9e 4d 3f a2 25 94 bf
       0.8953898 0.8731042 0.80320114 -1.1573985
000230 02 37 22 3f d7 51 b8 bc 7f d8 a9 3e 50 ce cb bd
       0.63365185 -0.022499962 0.33172986 -0.0995146
000240 07 a0 d4 3f a3 e7 16 3f b2 65 b9 3f 4b 68 9e 3f
       1.6611336 0.589472 1.448416 1.2375578
000250 a7 03 40 c0 eb 57 57 3e 03 91 1d bf ab bd 75 3f
       -3.000223 0.21029632 -0.61549395 0.95992535
000260 5d a5 cf 3f 44 44 4f bf 8a 35 a7 bf 26 64 31 bd
       1.622234 -0.8096354 -1.3063214 -0.0433084
000270 73 49 05 bf 97 11 0d 40 3c 12 47 3e f7 9c 5d 40
       -0.520652 2.2041986 0.1944055 3.4627054
000280 15 67 a3 3f a1 9f c7 3d be bd c8 3f 26 6e f1 3e
       1.2765833 0.09747244 1.5682905 0.4715435
000290 27 e9 ce bf 53 0d 6a 3e dc 1e ab 3e 9c 7f 9f bf
       -1.6164902 0.22856645 0.3342198 -1.2460818
0002a0 26 b7 d2 3e d2 a3 ea be 59 94 ea be 4b bf 68 3f
       0.41155356 -0.4582811 -0.45816305 0.9091689
0002b0 65 37 d9 bf 94 f2 fc be de 2b fb be 19 93 a5 3f
       -1.697003 -0.49403822 -0.49056906 1.2935516
0002c0 89 62 df bf c3 e8 7f 3f e3 4c 00 bf b4 41 26 3f
       -1.7451946 0.9996454 -0.5011732 0.64944005
0002d0 73 51 00 be e7 4a ed be 16 e2 12 3f d0 3c 56 3f
       -0.1253107 -0.46346208 0.5737623 0.8368654
0002e0 da 20 32 3f 6b 71 38 40 c3 4a 9d be 96 b5 97 3f
       0.6958138 2.8819225 -0.307211 1.1852291
0002f0 65 23 08 40 fa ae f1 be 67 c2 9f 3f e7 a7 99 bf
       2.1271603 -0.4720381 1.2481202 -1.2004365
000300 01 8b aa 3e b2 d4 6e be 87 3b 57 3e e4 53 52 3f
       0.33309177 -0.23323324 0.21018802 0.82159257
000310 48 9d cc bf d3 a8 0c 3e 17 2d ef bf 6d 61 a3 3f
       -1.5985498 0.13736276 -1.8685635 1.2764107
000320 32 14 2d bf 3e 94 9a be e1 61 70 3e 8a 81 e4 be
       -0.6760894 -0.30191225 0.23474838 -0.4463008
000330 3f 28 fe bf da a7 cc 3e 01 80 59 bf c8 82 f4 bd
       -1.9856032 0.3997181 -0.84960943 -0.11939007
000340 28 e0 38 3e 9a cd ab 3e 90 80 62 3e 95 ba b4 3e
       0.18054259 0.335553 0.22119355 0.352986
000350 d0 0b 33 bf 65 60 ee 3b fc 2c 90 be ce ce 93 be
       -0.699399 0.0072746747 -0.2815932 -0.28868717
000360 d6 65 b7 3e bb da c5 be 7c b1 ad 3f 5e 50 95 3f
       0.35819882 -0.3864344 1.3569789 1.1665151
000370 11 0a a3 3f 5f d0 c1 be 3c f3 4e be 3b 12 4b bf
       1.2737447 -0.37854287 -0.20209974 -0.7932469
000380 99 12 b5 3e 0a d9 71 3e d7 63 1b bf e4 94 a2 be
       0.3536575 0.2361795 -0.6069922 -0.3175422
000390 da d7 cb be 22 76 1a 3f c6 ec 91 bf 1e 1e 70 3f
       -0.3981312 0.60336506 -1.1400383 0.93795955
0003a0 9c d4 bb 3e f1 44 d4 be 93 a4 96 bf 75 2b 47 40
       0.36685646 -0.41458848 -1.1768974 3.1120274
0003b0 91 16 f3 be 11 d9 e9 bd d9 44 46 be c3 fd 2d 3e
       -0.47478154 -0.11418355 -0.19362201 0.16991334
0003c0 94 ad 10 3f 4f e8 69 3f 41 7b 4c be 02 95 04 bd
       0.5651486 0.913701 -0.19968893 -0.032368667
0003d0 2b f4 29 bf 05 c3 9b be 1d 58 cb bf e4 d6 ae 3f
       -0.66388196 -0.30422226 -1.5886265 1.365933
0003e0 84 b8 06 3f f6 d9 1c bf b4 83 4c 3f 4f 48 1f 3f
       0.526253 -0.6127008 0.79888463 0.6221971
0003f0 34 3f 3f be e3 fe 4e 3f 4c 87 ce be 86 77 a2 be
       -0.18676454 0.80857676 -0.40337598 -0.31731814

lstm.weight_ih_l1 f4 [256, 64]
000000 03 2e 9e 3d 03 99 ac bc 80 89 36 ba fa 83 82 3d
       0.0772362 -0.021069055 -0.0006963238 0.06372829
000010 f8 f9 91 3d 3d f6 5e 3d 8d 57 b3 3d 3f 90 0a 3d
       0.07127756 0.05443405 0.08756933 0.03382897
000020 25 26 b0 3b 2e 9c 9e 3d bc ab 90 3d 4c aa d3 bc
       0.005375641 0.07744633 0.07064006 -0.02583804
000030 29 92 82 3d 3e dc 2d bd 18 18 fa bc 2e 1c 52 bd
       0.06375534 -0.042446367 -0.030529067 -0.051296405
000040 de ed 3b bd 13 7c 1e bc 83 5e b9 3d d1 2f 18 3e
       -0.045881145 -0.009673136 0.0905123 0.1486199
000050 2b e0 6c bc 76 2d da 3c 83 9f 5e 3d c7 bf c0 bd
       -0.014457743 0.026633006 0.05435134 -0.094115786
000060 ab 2b 47 bd ac 2e 35 be a7 3f 9b 3a 2c e4 9c bd
       -0.04862563 -0.17693585 0.0011844531 -0.07660708
000070 48 64 51 3d c5 74 2f bd 7a 77 a0 3c 17 da dd 3d
       0.051121026 -0.04283597 0.01958822 0.10832613
000080 d8 46 0a bd 96 f4 79 bc b4 85 38 3d ae 27 a0 3b
       -0.033758968 -0.015256068 0.045049384 0.0048875427
000090 59 14 3e bd cc 21 aa 3c 61 82 1d 3e 6e 37 40 bd
       -0.046406124 0.020768069 0.15381767 -0.046927862
0000a0 11 02 29 3d 6a 57 f8 3c 3f 3c c3 bd f3 ce 19 bd
       0.041261736 0.03031512 -0.095329754 -0.037550878
0000b0 2c d6 0a 3d a3 b0 f9 3a 59 f1 bc 3c 7d 70 0d 3e
       0.033895656 0.0019049834 0.023064302 0.13812442
0000c0 28 dc 03 be a7 0d 0b bd 38 60 14 be 33 e5 54 bd
       -0.12876952 -0.033948567 -0.1448983 -0.051976394
0000d0 6a c1 44 bb c9 ee 95 3c c4 9a 0c bd 2b 7f 02 be
       -0.003002251 0.018302338 -0.034327284 -0.12743823
0000e0 4e 4e c0 3d 3a 12 51 3d 2a 5e 4f 3c 3a 03 d9 bc
       0.093899354 0.051042773 0.012656728 -0.026490796
0000f0 da e7 e6 3d e1 60 87 bb 3e a7 4d bd b3 41 8e 3d
       0.11274691 -0.004131422 -0.050208323 0.06946125
000100 3e 59 49 bd dd c5 8a bc 00 9f 46 3c 13 e6 43 3c
       -0.049157374 -0.016940052 0.0121228695 0.011956709
000110 ba 15 53 3d a4 09 af 3d e6 43 98 bd bd 79 1d 3b
       0.051534392 0.08546761 -0.074348256 0.002402886
000120 b2 53 c0 bc 91 c9 06 3c 8d 8c 3c bc b2 0a 93 bd
       -0.023477409 0.008226768 -0.011508119 -0.07179774
000130 82 40 28 3d 5d 4a 5e bc 7e 4c c2 3c e7 ae 61 bd
       0.041077144 -0.013567534 0.023718115 -0.05509844
000140 96 0b 2c bd 10 fc 41 3d 08 99 08 3e a9 ae 25 bc
       -0.042003237 0.047359526 0.13339627 -0.010112443
000150 87 22 a5 3d 41 ab b6 bd ea ee d7 bc 01 91 b1 bc
       0.08063226 -0.08919383 -0.02635904 -0.021675589
000160 c5 11 19 3e d5 7d d3 b9 da 11 01 3d 0d fd ca 3d
       0.14948185 -0.00040338808 0.031511165 0.09911547
000170 e3 0f 88 bd f1 96 19 bb c8 ac 74 bc 91 aa 7b bd
       -0.06643655 -0.0023435915 -0.014933772 -0.06144196
000180 72 11 dd 3c c8 aa 90 bd 20 75 eb bb fc 47 96 3d
       0.026985858 -0.07063824 -0.0071855932 0.07337949
000190 32 65 17 bd 40 e8 03 3d 27 50 d6 3d 94 ba a5 3d
       -0.03696174 0.032203913 0.104645066 0.080922276
0001a0 76 97 48 3c 01 d1 97 3d 22 66 44 3c 44 e5 43 bd
       0.012243142 0.07412911 0.011987241 -0.047826067
0001b0 e6 f2 88 3c 46 f2 85 bd b9 be 59 bd 56 91 64 bb
       0.016717386 -0.065403506 -0.053160403 -0.0034876666
0001c0 9d 2c 11 be 01 85 e2 3c 04 0b 1e 3c 51 1d e5 bd
       -0.14177175 0.027651312 0.009646181 -0.11187232
0001d0 10 19 1c 3a 3e 91 d0 3d 75 bf 36 bc df 70 c0 bc
       0.00059546623 0.10183953 -0.011154045 -0.023491321
0001e0 64 ed 89 3c 0d a9 6e bc 08 7a c6 bd 5e df 43 ba
       0.01683683 -0.014566672 -0.09691244 -0.0007471944
0001f0 60 a4 ff 3c f3 a4 46 bd 7c 40 05 3e 7f 74 cf 3d
       0.03120631 -0.04849715 0.1301288 0.10129642
000200 ef d2 a0 3a af be 72 bd aa e9 9b bd c6 9f 3f 3d
       0.0012269894 -0.05926388 -0.07612927 0.04678323
000210 4f b5 b6 3d da 66 8e 3d 40 97 2b 3d da 9b 29 3d
       0.089213006 0.06953211 0.04189229 0.041408397
000220 85 59 18 3e 45 b6 1c 3e 80 58 23 3d 2d 98 49 3c
       0.14877899 0.15303905 0.039879322 0.012304348
000230 09 4c 83 3b d7 0f 19 3c 4c c3 56 3d f0 51 18 3e
       0.004006867 0.009342155 0.052432343 0.14875007
000240 9e 1b 25 bc 90 ab 84 bc d0 23 fe bc 1b e1 69 3d
       -0.010077385 -0.016195089 -0.031022936 0.057099443
000250 89 b2 ec 3c 9e 7a 86 bd f0 08 a9 3d 05 bf 84 bb
       0.028893726 -0.06566356 0.08253658 -0.0040510916
000260 5b 21 be 3b a3 e3 d0 3b e5 3b 09 3e 45 5f 0b bd
       0.005802316 0.0063747927 0.13401754 -0.034026403
000270 2d 62 f4 3c e7 bb 3b 3d aa e9 91 3b 7f 6f 9c bb
       0.02983197 0.045833495 0.0044529038 -0.0047740336
000280 fc ef dc 3c 0f 2b 05 3d e5 d4 0a 3d 38 cc 28 3c
       0.026969902 0.032511767 0.03389444 0.010302596
000290 76 e3 95 bd 8c 58 de bc 55 f6 af 3c 46 f9 df bd
       -0.07318775 -0.027141832 0.021479765 -0.10936217
0002a0 b6 e1 32 bd 60 ec ec bc 9d 08 a2 3d ca 2f 8b 3c
       -0.043672286 -0.028921306 0.07911799 0.016990561
0002b0 d5 53 3c bd f7 3f 36 3d 02 ff a7 bd 9e 2d 19 bd
       -0.045978386 0.044494595 -0.08202936 -0.03739702
0002c0 da e6 d5 bc 0f 64 f8 39 92 d5 a3 3d 04 29 f1 3d
       -0.026111055 0.00047376796 0.0799972 0.11775401
0002d0 a3 7f 9d bd 36 3b ce 3c 4c bb 03 bc e8 be 25 3c
       -0.076903604 0.025174718 -0.0080402605 0.010116316
0002e0 55 fd a9 bc 06 b8 09 3d 1e 9c ca 3d 0f 5d 10 bd
       -0.020750681 0.033622764 0.09893058 -0.035244998
0002f0 b4 ee 5b 3d 05 87 4c bd 12 60 04 3d 78 ca 3a bd
       0.053694442 -0.049933452 0.032318182 -0.045603245
000300 c9 b3 77 3d 58 f8 db 3c 80 a6 2b bc a4 1a d5 3d
       0.06047419 0.026851818 -0.010476708 0.10405472
000310 59 86 a0 3c 0c 28 03 3e b4 2e 64 bd 17 30 06 bb
       0.019595312 0.12808245 -0.055708602 -0.002047544
000320 ac b7 f9 bd 7c a5 03 be f7 6c 68 bc 99 37 5d 3c
       -0.12193236 -0.12856096 -0.0141861355 0.013502025
000330 09 42 dc 3d 3b d8 35 bc 2f 51 b1 3c f6 f9 cd bc
       0.10754783 -0.011098917 0.021645157 -0.025143605
000340 e4 6b 88 bd fb 15 b8 3c e2 e3 59 bd a2 2a 85 3d
       -0.066612035 0.022471419 -0.05319584 0.06502272
000350 e1 a3 ad 3b 1b 0f a8 bd 30 1a 03 be 05 07 b0 bd
       0.005299077 -0.08206006 -0.12802958 -0.08595089
000360 56 4c a2 bd be 7f 13 bd f6 5b df 3c 8c 4c 0e 3d
       -0.07924716 -0.036010496 0.02726553 0.03474097
000370 6f c7 12 bd f4 84 44 bd 66 63 ca bb cf db 65 3d
       -0.035834726 -0.047978356 -0.0061764 0.05611783
000380 76 34 f3 3d d3 b7 81 3c 11 b4 25 bd 70 b9 e9 bc
       0.118752405 0.015834725 -0.040454928 -0.028530806
000390 61 ae fa ba 14 e0 8a 3d f5 dd 31 38 52 fc 56 bd
       -0.0019125455 0.06781021 4.2406802e-05 -0.052486725
0003a0 f2 f0 6b 3c 89 7a 77 3c 0f 37 d5 bd ff 8d 65 3c
       0.014400708 0.015104898 -0.10410892 0.014010905
0003b0 cc 03 b2 bd d7 5a 04 be f6 a5 4f bd 6e f1 99 bc
       -0.086921304 -0.12925278 -0.050695382 -0.01879188
0003c0 76 26 c4 bd ca 76 9e 3d 17 86 13 3e cd 01 3e 3d
       -0.09577648 0.07737501 0.1440662 0.046388436
0003d0 ea 34 31 3d 90 ec c9 bd be 33 e6 bc 92 7e 9b 3c
       0.043263353 -0.09859574 -0.028100844 0.018981252
0003e0 19 6a 4c bd 45 37 9e bd fb 96 bd bc 60 26 e3 bd
       -0.04990587 -0.077253856 -0.023143282 -0.11091304
0003f0 ad 3f 9e bd f5 92 86 3d a5 5c 85 3d f6 0c 9f 3d
       -0.07726989 0.065709986 0.06511811 0.07766144

lstm.weight_hh_l1 f4 [256, 64]
000000 7a a0 9e bd 59 61 a5 bc 0d 28 8a bd 6a f5 e8 bc
       -0.07745452 -0.02018802 -0.0674592 -0.028437335
000010 41 a4 6e 3d 3d 49 14 3d 06 81 8a bb 8f 9a b8 3c
       0.058262113 0.036202658 -0.0042268066 0.022534637
000020 d3 7e 2b be 4a b8 95 bd ca 68 84 bc 85 8c 08 3d
       -0.16747598 -0.07310541 -0.016163249 0.033337135
000030 22 2d fb 3c e6 c5 12 3e 8a 76 f5 3b 01 52 06 bd
       0.03066117 0.14333305 0.0074909376 -0.03279305
000040 45 50 9f bd bf d2 63 3c 41 89 ad bd e1 4a b9 3d
       -0.07778982 0.013905226 -0.08473445 0.09047485
000050 70 90 05 bd ef 0b ce bc 59 06 c2 3c a9 f8 e0 3b
       -0.03260845 -0.025152175 0.023684667 0.00686558
000060 47 8e 12 bd d6 b6 18 bb 6f 08 05 3d 32 1d 97 bc
       -0.035780217 -0.0023302338 0.032478746 -0.018446539
000070 d1 c4 63 3d 0b cf d5 bc 69 a0 7d 3b 6c 3d 05 3d
       0.05560762 -0.026099702 0.0038700348 0.03252928
000080 84 39 b1 bc 73 69 ab bc 5b 25 57 3d 53 af 04 3d
       -0.02163387 -0.020924306 0.05252586 0.032393765
000090 9e 76 2d bd 75 10 14 bd 23 82 f0 3c e7 b5 9c 3d
       -0.04234945 -0.036148507 0.029358929 0.076518826
0000a0 6d ae 7e bd cc 44 55 3d f2 f0 06 bd 4b b3 b4 3d
       -0.062178064 0.052067563 -0.032944627 0.0882326
0000b0 6a 69 89 bd 43 a8 8b bc b9 45 a8 bd 53 4c 28 3d
       -0.06709559 -0.017048007 -0.082164235 0.041088413
0000c0 17 55 af bc 18 35 27 3d 47 f4 e2 bc 35 3c e4 bc
       -0.021402879 0.04082212 -0.027704371 -0.02786074
0000d0 67 6d 90 3d 89 56 8a 3d 0e 72 a2 bd af 6e 0d be
       0.07052117 0.067547865 -0.079319105 -0.13811754
0000e0 88 f3 90 bd d2 c0 8c bc 6c 8b 17 3e 89 a4 c6 bd
       -0.070777 -0.017181788 0.14799279 -0.09699351
0000f0 f3 07 f6 3d 7b da 9a 3c 05 f7 0f bd 99 a4 9e bc
       0.12013235 0.018903008 -0.035147686 -0.019365596
000100 79 30 83 3c 05 d4 ac bd bd 42 af bd 03 15 40 3c
       0.016014325 -0.08438877 -0.08557651 0.01172376
000110 9e 35 78 3c 81 0e 96 3c 03 80 0d bd a5 31 0d bd
       0.015149502 0.018317463 -0.03454591 -0.034471173
000120 d4 3a 3c bd 52 51 b1 3d bc 32 92 b9 d2 13 93 bd
       -0.04595454 0.08658089 -0.0002788509 -0.07181515
000130 4d 59 71 bc 1c 90 e5 bc 68 20 f6 3c 73 6c ef bc
       -0.014730764 -0.028022818 0.03004475 -0.029226517
000140 c3 ae 24 bb 8e 2c eb bd dd f5 9b 3b 5e fb 2b 3e
       -0.002512858 -0.114831075 0.004759534 0.16795108
000150 30 0e aa bd 4d 32 8a bc 7b 1d 06 be 44 bb 13 3d
       -0.08303487 -0.016869688 -0.13097183 0.036067262
000160 b8 a7 55 3c 22 31 b8 bd 49 57 7b 3d a3 5a 9a bd
       0.013040476 -0.08993746 0.06136254 -0.07536819
000170 ef f9 63 bd 9e 5c 06 3d a5 04 16 bd d7 f2 40 3d
       -0.055658277 0.03280317 -0.036625523 0.04710659
000180 6f fb 4b bd 79 e8 92 bb 91 68 73 3c ac 30 f2 bc
       -0.049800333 -0.0044832793 0.014856474 -0.029564224
000190 e6 b1 2f 3d c2 8a 74 3d 49 18 e2 3d 0e 55 27 3d
       0.042894267 0.059702642 0.11039788 0.0408526
0001a0 36 66 6c bd a5 c0 db 3b 2f 07 d6 3d 51 39 89 3d
       -0.057714663 0.0067063146 0.10450589 0.06700385
0001b0 7f 86 f8 bc 41 31 81 bd ef 92 a3 bd 32 de 2b bd
       -0.03033757 -0.063082226 -0.0798701 -0.04195995
0001c0 18 db 6b 3d be 94 a2 bd 46 47 e0 bb 63 5a ed 3d
       0.05758199 -0.079385266 -0.006844434 0.115895055
0001d0 4a 37 31 3d 42 da 3c 3e 01 a0 e1 3c 59 1c 0d 3e
       0.04326562 0.18442634 0.027542116 0.13780345
0001e0 ff d7 a1 3d a1 db 80 3d 55 86 d4 bd 97 91 ba 3c
       0.07902526 0.06291891 -0.10377184 0.0227745
0001f0 e5 b6 90 bd 0a 09 1c 3e 4f 31 4a 3d 02 3f 97 3d
       -0.07066134 0.15237823 0.04936343 0.07385065
000200 e8 a9 23 3c 8d 62 be 3c c3 35 86 bd b6 2e 9b 3c
       0.009989239 0.023240352 -0.06553223 0.018943172
000210 ea 74 a4 3d 2c ab a6 3d 35 2b 88 3b 7f fd 66 3c
       0.08030112 0.08138117 0.0041555413 0.014098524
000220 aa b7 a3 3d 81 2e 1b bb 73 2c ad bc 8d d1 3c 3d
       0.079940155 -0.0023678842 -0.02113936 0.04609828
000230 3e f1 47 bc c2 b3 84 bd b1 f4 8c bd 8e e8 30 3c
       -0.012203513 -0.064795986 -0.06882609 0.010797633
000240 a3 b9 85 bd 29 1e 8e 39 57 34 13 bd c9 af f5 3b
       -0.06529548 0.00027106822 -0.035938587 0.007497762
000250 18 92 79 3d 74 3d 98 3c f6 79 fd 3b f6 6b 89 bb
       0.06093034 0.01858399 0.007735486 -0.004193778
000260 41 b0 21 3c c3 1e dd bd c5 0a a9 bd ec 88 de 3c
       0.009868682 -0.10796883 -0.08254007 0.027164899
000270 10 14 7a 3d f6 c4 7c bd 2e 1a ba bd 17 22 9b bd
       0.06105429 -0.061711274 -0.09087025 -0.075748615
000280 c8 14 77 3b 65 d3 18 3d 7f 9d 17 bd 87 10 3b bd
       0.0037701596 0.037310977 -0.037015434 -0.04567006
000290 0d 96 e8 bd b4 de 55 3c 63 62 2b 3d 4d a7 fd 3d
       -0.11356745 0.013053585 0.041841876 0.12385426
0002a0 a6 b3 ba 3b a5 15 a0 bc 5e cc 32 3c 8d e4 89 3b
       0.0056976853 -0.01954157 0.010912983 0.0042081536
0002b0 6d f1 1e 3b c8 62 62 3b f8 43 7c bc 9f e4 78 bd
       0.0024252788 0.0034543741 -0.015397064 -0.060764905
0002c0 b7 80 4d 3a 0d 47 5a 3b f3 6d aa bd 01 65 aa bd
       0.00078393094 0.003330651 -0.083217524 -0.08320046
0002d0 22 55 51 bc 13 d3 8e 3d 65 37 4c 3d 40 ed 56 3d
       -0.012776645 0.06973853 0.049857516 0.052472353
0002e0 2f 96 3d bd 5c f0 16 bc 75 cb 95 3d 8c dc 2a 3d
       -0.046285804 -0.00921258 0.07314197 0.041714236
0002f0 d1 f2 28 3c d6 c2 6e 3c b0 0d 4d bd 83 21 1d bd
       0.010311798 0.01457282 -0.05006188 -0.038362037
000300 9d 1c b7 bb d2 6c 86 bd d1 75 90 3b 6b cc 01 bc
       -0.0055881278 -0.065637246 0.004408576 -0.007922272
000310 3f be 8b 3d ab f0 b2 bd aa 17 d6 bd 17 c9 55 bc
       0.06823396 -0.0873731 -0.10453732 -0.013048432
000320 5a 1c fd bc 70 8c cb 3c ee 1e 74 bd 70 61 94 bd
       -0.030897308 0.02484724 -0.05959981 -0.07245147
000330 60 85 bf 3d aa ee b2 bc c7 6f 2a bd 71 45 67 bd
       0.09351611 -0.02184232 -0.041610505 -0.05646271
000340 30 eb 98 3c f9 b0 f3 3d f1 f7 ab bd 26 62 aa 3c
       0.018666834 0.11898989 -0.083969004 0.020798754
000350 6d d0 0e bd f5 b6 88 bc 24 67 c5 39 9b 61 36 3d
       -0.03486674 -0.016688803 0.00037651614 0.044526678
000360 b9 90 a9 3b d0 d8 6b bd f1 40 64 3c 51 f3 21 3d
       0.005174723 -0.057579815 0.013931499 0.039538685
000370 0a 87 58 bd 32 7f f8 bc 91 56 a0 3d a1 f0 fa 3d
       -0.05286316 -0.030334089 0.07829011 0.122529276
000380 84 19 b6 bd 66 8e b4 3c 06 e6 36 bc bd 03 ad 3b
       -0.088915855 0.022040557 -0.01116324 0.0052799867
000390 4e a7 94 3d ba 6a 17 3d 5e 26 e7 3c 90 96 ca 3d
       0.07258473 0.036967017 0.028216537 0.09891999
0003a0 05 86 75 bd 3d 45 f8 3d 70 67 1b bd 4d 6a 71 3d
       -0.059942264 0.12122581 -0.037940443 0.058939267
0003b0 82 20 30 bd 9c 3e 5f bc f1 65 44 bc 46 0d 0e 3d
       -0.042999752 -0.013625767 -0.011987195 0.034680627
0003c0 8d 35 b1 3c 11 db 00 3e ac c6 68 3d b9 8c 6e bd
       0.02163198 0.12583567 0.056830093 -0.058239672
0003d0 a8 15 30 bd 35 f6 b5 bc 16 56 8c 3d eb e3 37 3e
       -0.042989403 -0.022212127 0.06852357 0.17958038
0003e0 53 cb 05 3e c4 e6 2a be d5 e2 be bd 77 c4 89 bd
       0.13065843 -0.16689593 -0.093206085 -0.06726926
0003f0 69 46 96 bd c5 ad a6 bd 5b b0 d5 3c cb 2b 93 3d
       -0.073376484 -0.08138613 0.02608507 0.07186087

lstm.bias_ih_l1 f4 [256]
000000 4b ff 58 3f 0e 99 19 bf 66 d0 90 3f bc e3 01 40
       0.84764546 -0.5999917 1.1313598 2.0295248
000010 7d ef b4 3f f0 4a ef 3f b4 c9 14 bf cd ba a4 3f
       1.4135586 1.8694744 -0.58120275 1.2869507
000020 e0 bc 5d 3f aa 11 07 be 64 9e 97 3e 7b 2d 91 3c
       0.86616325 -0.13190332 0.2961303 0.017721882
000030 02 95 bb 3e e6 cc 1f be 4a 78 24 40 bc 06 b5 be
       0.3663712 -0.15605506 2.5698419 -0.353567
000040 aa 3f 9a 3e af ca 58 be eb 03 11 bf e0 20 76 3f
       0.30126697 -0.21171068 -0.56646603 0.96143913
000050 fd ea 99 3e 9e df 0d be 84 9e 00 3f bd 67 66 bf
       0.30062094 -0.13854834 0.50241876 -0.9000204
000060 7b 71 bc 3e 6a df f3 3f 20 6a 6e bf a6 71 47 3e
       0.3680533 1.9052556 -0.93130684 0.19476947
000070 32 55 86 bd 79 98 b2 be 7a b5 a5 3f ea 69 c7 bd
       -0.065592185 -0.34881952 1.2946007 -0.097369984
000080 ce 39 b0 3f 31 52 86 3f 24 4e de be e4 80 50 bf
       1.376764 1.0493833 -0.43418992 -0.8144667
000090 01 3e 8c 3f 44 e1 c2 bf 5d 01 bd bf c2 6d b4 bf
       1.0956422 -1.5224996 -1.4766041 -1.4095995
0000a0 35 87 ea bf eb 60 ee bf 5b e3 2a 3f d7 90 be 3e
       -1.8322512 -1.8623327 0.66753167 0.3721988
0000b0 01 4d b5 3f b0 be b9 3e 6e 1f 3d 3f 6f 56 ad 3f
       1.4164125 0.36278296 0.7387608 1.3542002
0000c0 09 b4 58 3e b5 38 3b be 86 1b b0 be 38 0b a2 bf
       0.21162428 -0.18283351 -0.34396 -1.2659674
0000d0 e0 cd b9 3e f0 9c c3 3f ba 5f bb 3f e7 36 04 40
       0.36289883 1.5282269 1.4638588 2.065851
0000e0 63 2f 85 bf 42 3f 95 be 06 7b 91 bd 52 3a f6 3e
       -1.0405086 -0.29149824 -0.07103543 0.4809137
0000f0 72 76 cf bf 41 df 87 3f 3b d9 1b bf 1c 0a 87 be
       -1.6208022 1.0615007 -0.6087834 -0.263749
000100 04 c3 16 3f 6e 7b 7f bf c7 05 7d 3f 6c d9 17 40
       0.5889132 -0.99797714 0.9883694 2.3726454
000110 86 7d 98 bd 4a 67 8a 3e ff 83 b7 bf f8 3f d5 be
       -0.07445817 0.27031928 -1.4337157 -0.41650367
000120 aa 40 87 3f 94 34 f1 3f 39 21 72 3f ce c8 09 40
       1.0566609 1.884417 0.94581944 2.1528811
000130 18 5c b7 be 02 2e ce be 87 3b b6 bf 32 dc 0e bf
       -0.3581245 -0.40269476 -1.4236916 -0.5580474
000140 eb 89 f8 3e 37 64 c4 3e 64 06 44 be 0f de 90 3f
       0.48542723 0.38357708 -0.19143063 1.1317767
000150 75 de b0 3e ff 78 28 bf f8 9b 17 bf c5 bf 53 be
       0.3454472 -0.65809625 -0.59222364 -0.20678623
000160 f6 37 1f bf f1 91 41 3e 26 d9 f3 3f 4f 32 86 be
       -0.62194765 0.18903328 1.9050643 -0.26210257
000170 2a e6 80 bf d1 96 48 bf 7d ae 88 be 57 cb 97 3f
       -1.007024 -0.7835513 -0.26695624 1.1858929
000180 1c 3a 86 3e 40 bf 3e 3d 10 52 92 3e f2 20 4a bd
       0.2621621 0.04656911 0.28578234 -0.049347825
000190 88 3e b0 bf d8 b9 90 3d 66 9f c2 be 92 f1 57 bf
       -1.3769083 0.07066697 -0.38012236 -0.8435298
0001a0 e4 bd 0e bf 7d 11 4e bf e1 cc bd bf f1 e5 51 3f
       -0.557585 -0.80495435 -1.4828149 0.8199149
0001b0 b1 2f 20 be 4d 7f f4 3e 2d 6b b5 3e c9 9f 36 3f
       -0.15643193 0.47753373 0.3543333 0.7133756
0001c0 66 41 7e be 9c 49 aa 3e a6 a7 4f bf 61 b0 79 bf
       -0.24829635 0.33259284 -0.81115186 -0.9753476
0001d0 3b 06 af bf df f0 48 3f a4 2f 71 bf 0a 53 47 3f
       -1.3673776 0.7849254 -0.9421332 0.7786108
0001e0 99 bb 20 3f cb 6c 30 3d 5e c4 84 3f 75 6e 84 3e
       0.6278625 0.043072503 1.0372427 0.25865522
0001f0 0b bf a1 bf b6 bf 8c bf 6d b5 29 40 8e 05 3d be
       -1.2636427 -1.0996006 2.6516984 -0.1845915
000200 0e da ad be 5f 86 09 3f 4b 75 f5 be 39 67 25 bf
       -0.33955425 0.5372066 -0.4794105 -0.6461063
000210 57 cb 07 40 75 eb 05 3f 44 00 81 3d 30 24 a6 bf
       2.1217859 0.52312404 0.06298879 -1.2979794
000220 67 eb 03 3d 09 f4 a6 3f 4c 50 a6 bf dd aa 17 3e
       0.03220692 1.3043224 -1.2993255 0.14811273
000230 ce cf 47 bf 94 9b 6e bf 50 d6 bf 3f 6d bf ac bf
       -0.7805146 -0.93206143 1.4987278 -1.3495919
000240 68 0d ee bf 40 8e 1d 40 25 5a 32 3f 3c 22 d0 3e
       -1.8597841 2.4618073 0.696688 0.4065112
000250 e3 2b ca 3e bd 5c bd 3f 4f 2e b2 be a2 5f f1 3f
       0.39486608 1.4793926 -0.34800956 1.885731
000260 ea f7 06 3f 98 ad 52 3e ad 00 3b bf 57 02 37 bf
       0.52722037 0.20574033 -0.73047906 -0.71487945
000270 c6 ba e6 be 9c 4f 9a bf 22 1c a5 bf 28 19 34 3f
       -0.45064372 -1.2055545 -1.289921 0.70350885
000280 6e d8 c3 bf 2b 8e 1f 3f b4 cf 27 3f 35 50 88 3f
       -1.5300424 0.62326306 0.65551305 1.0649477
000290 b0 27 83 3e c2 10 7a bf 7a 0d 81 bf 04 ba b8 3f
       0.25616217 -0.9768182 -1.0082238 1.4431767
0002a0 d6 5c 28 be 8a 46 31 bf b2 16 16 40 0d 94 6e 3e
       -0.16441664 -0.6924826 2.3451352 0.23298664
0002b0 96 52 01 bf 0e 22 b9 be db 57 7f 3d de 0d de 3f
       -0.5051664 -0.36158794 0.062339645 1.7347982
0002c0 50 da 3c 3f de 34 90 bf a4 d8 b0 3f 6d a2 c3 3d
       0.7377062 -1.1266134 1.3816113 0.09552465
0002d0 79 e7 70 be 1d 84 80 3d 2a 6a 5c bf 81 f8 6e bf
       -0.235258 0.062751986 -0.86099494 -0.93347937
0002e0 74 1d f0 bf 46 40 da bc 7b e1 28 bf c7 8a 72 bf
       -1.8758988 -0.026641976 -0.65969056 -0.9474301
0002f0 24 86 8a 3f 71 e1 3e 3f d1 ec df 3e 6c 1f ab 3d
       1.0822186 0.74562746 0.43735364 0.083556026
000300 37 d8 1a bf 1a 4c f2 3f 37 b5 16 bf 1f 89 c5 be
       -0.6048617 1.8929474 -0.5887026 -0.38581178
000310 8d 86 e3 bf 7a 4d 5d 3e 84 e3 c4 bd 81 a6 f1 3d
       -1.7775437 0.21611586 -0.09613708 0.11799336
000320 75 55 00 3b 9a 1e 10 3f 8a 42 31 3e 34 15 ae be
       0.0019582186 0.56296694 0.17310539 -0.34000552
000330 7f 53 a0 3f b3 e8 04 40 58 5f 34 3f c6 2a 2a bf
       1.2525481 2.0767028 0.70457983 -0.6647152
000340 23 8c 51 bf 7f 0b c5 3f 7d 62 08 c0 6f d1 68 bc
       -0.81854457 1.5394133 -2.1310112 -0.014210089
000350 77 1d 18 3e 55 ad 39 3f 65 96 dc be ac 1b a0 3f
       0.1485499 0.7253011 -0.43083492 1.2508445
000360 55 79 b4 be 95 b0 9a bf 9a 01 07 bf 6b 09 2e bf
       -0.3524882 -1.2085139 -0.5273682 -0.6798312
000370 2e 33 a4 3c 40 84 99 bf 15 50 71 be 86 4c 53 bf
       0.020043936 -1.1993484 -0.23565705 -0.8253864
000380 6b 3b ce bf 9b 40 76 3f e8 b8 ae 3e 01 a0 a7 be
       -1.6111883 0.9619233 0.34125447 -0.3273926
000390 77 1f 44 3f 4c 29 9f bf 16 02 85 bf 50 e9 4c 3f
       0.7661051 -1.2434478 -1.0391262 0.80043507
0003a0 93 8d 64 bf aa 87 8b be da 60 02 bf e3 54 2e be
       -0.89278525 -0.2725194 -0.50929034 -0.17024569
0003b0 18 69 76 bf 70 36 e1 3f 53 73 22 bf 7c fe b9 3e
       -0.9625411 1.7594738 -0.6345722 0.3632697
0003c0 0a 0c 32 be b2 bf 24 be dd 34 df 3e 2e f3 f3 3e
       -0.17387405 -0.16088751 0.4359502 0.4764647
0003d0 c3 9a 06 3f e1 4b e6 3f ce 88 64 bf 00 ef 7c bf
       0.525799 1.7991906 -0.8927125 -0.98802185
0003e0 57 f8 fc be a0 c7 e7 3e 3d 77 b1 bf a3 df 9b 3f
       -0.49408218 0.4526949 -1.3864514 1.2177624
0003f0 3d 86 71 3f fd 50 15 3f 9a 15 bd bf 8b 09 ef 3e
       0.94345456 0.58326703 -1.4772217 0.46686968
