04_Models_Weekly/20250811_212803_GDEA_Weekly_NoSentiment/best_model.pth (torch, 916341 bytes, 11 tensors)

lstm.weight_ih_l0 f4 [512, 49]
000000 d5 97 71 3d f4 96 83 3d 1d f5 0c bc 86 5c be 3d
       0.05898269 0.064252764 -0.008603361 0.09294991
000010 75 fe ca bc b0 1c 92 3c a6 42 30 bd 03 6f 3e 3d
       -0.024779538 0.017835945 -0.04303231 0.046492588
000020 9e ac a3 3d c9 6c 8c bd 7f 4e 99 3d 44 fe a0 3c
       0.079919085 -0.068566866 0.07485675 0.019652493
000030 28 ee 8a 3d 20 96 29 3c fb 96 2d 3d c6 97 3d bc
       0.06783706 0.010350734 0.042380314 -0.01157183
000040 07 e6 8e 3d d7 07 c9 3b 79 8b 1d bd 9d 5f 92 3c
       0.06977468 0.006134968 -0.03846309 0.017867858
000050 52 9b 3d bd f2 dc 44 bc 60 b7 0f bd 5d f7 6d 3d
       -0.046290703 -0.012015568 -0.03508699 0.058097232
000060 01 8c 93 bd 77 57 2b bd de 2a ee bc ec 63 65 bd
       -0.07204438 -0.04183146 -0.029073175 -0.056003496
000070 5a dd 15 3b 27 f6 80 bd 7f 98 9a 3d 9a a7 a2 bd
       0.0022867532 -0.0629695 0.075486176 -0.07942124
000080 66 88 89 3d 93 5f 2a bb bb af 04 bd 9f 48 5b 3d
       0.06715469 -0.0025996908 -0.032394152 0.053536054
000090 78 d4 03 3c f0 99 8d 3d a3 07 a8 3b 8a fc e9 bc
       0.008046262 0.06914127 0.0051278635 -0.028562803
0000a0 53 97 31 3d 74 7d df bc 03 51 ff 3c ae 79 b7 3d
       0.043357205 -0.0272815 0.03116656 0.089587554
0000b0 b4 5e 58 3d f4 2a 1c bd 09 e5 41 3d ec a4 84 3c
       0.05282469 -0.0381269 0.047337566 0.016191922
0000c0 b6 16 26 3d 1b 81 4e bd 21 b0 a5 bd ef e2 08 bd
       0.040549003 -0.050416093 -0.080902345 -0.033419546
0000d0 38 ec 81 bd 1a ed b0 3d 95 8e d0 3c 19 f6 15 3d
       -0.06343883 0.086389735 0.025458613 0.03661165
0000e0 2b 42 14 3d d3 4a 7c 3c 75 92 9c 3d e9 38 54 bd
       0.036195915 0.015398699 0.07645122 -0.051812086
0000f0 0b 2d 3a 3c 6f 2b 22 bd 10 e5 36 3d 87 64 c4 bc
       0.011363278 -0.039592203 0.044652045 -0.023973716
000100 3b 62 1e 3d 6e b4 7e ba 20 b6 90 3d 39 6c 1c bd
       0.0386679 -0.0009716217 0.070659876 -0.038189147
000110 ec 6c 2a bd 99 0d 36 bd df 84 b9 3d b0 35 1f 3d
       -0.041607782 -0.04444656 0.09058546 0.03886956
000120 e4 e4 be 3d cc 17 8d bd 42 8d 88 bd 15 7e 78 bd
       0.09321001 -0.068893045 -0.06667568 -0.060667116
000130 f6 84 5b bd 05 af fa 3c 42 aa 5e 3d c4 04 9f 3d
       -0.0535936 0.030601034 0.05436159 0.07764581
000140 7a c1 29 bd eb cf 20 bd 8e 9e 98 3d c2 63 19 bc
       -0.04144428 -0.039260786 0.07452117 -0.009362163
000150 a8 dc 98 3d ad 02 70 bc dc b2 5f 3d 83 cc 84 bd
       0.07463962 -0.014649075 0.054613933 -0.0648432
000160 8c 4c cd bc 35 49 71 3d a1 73 af 3c 87 66 eb bc
       -0.025060914 0.058907706 0.02141744 -0.028735412
000170 b6 1c 83 3d 0a d5 98 3d df 94 95 bd a6 71 1c bd
       0.064019606 0.07462509 -0.073037855 -0.03819432
000180 e9 20 96 3d 95 87 9b bc 54 cb 1d bc c7 1f 81 bd
       0.07330496 -0.018985549 -0.009630997 -0.06304889
000190 ee 33 b3 bd 16 ec 7b bc 15 65 63 3c 3f 66 83 bd
       -0.08750139 -0.0153761115 0.01387908 -0.06415986
0001a0 2c e0 07 3b eb 5f 48 bd 8c 5b aa bd fa 82 2d bd
       0.0020732982 -0.0489196 -0.083182424 -0.042361237
0001b0 f3 fe 6a bd e8 0e 98 bd c1 61 a0 3d a9 be 0e 3d
       -0.057372045 -0.07424718 0.07831145 0.034849796
0001c0 bd 3d 20 3d 90 8d b3 bd 2c ee 6e bd f1 75 22 3c
       0.03912138 -0.08767235 -0.058332607 0.009915815
0001d0 98 ef 08 3c f8 90 8c bd af 5d da bc e6 26 3d bd
       0.008357905 -0.06863588 -0.026656 -0.046179675
0001e0 f4 1d 63 bc 81 26 89 bc fc 7f 5a 3a 20 49 3a bd
       -0.013862122 -0.016741993 0.0008335111 -0.045479894
0001f0 4a 45 38 bd 28 d2 16 bd 95 8a 92 bc ef c0 82 bd
       -0.044987954 -0.036821514 -0.017888347 -0.063844554
000200 ae 24 b5 3d 95 f9 51 bb 0a 45 b9 3d f3 5c 2f 3d
       0.08844887 -0.0032039632 0.09046371 0.042813253
000210 93 e9 54 bd 00 cb 9a 3d fb a6 1b bc df 8d dc bc
       -0.051980566 0.075582504 -0.00950026 -0.026923118
000220 11 ae 71 bd d1 7d 8c bd 88 1f 8a 3d be fa 46 bc
       -0.059003893 -0.06859935 0.06744295 -0.0121447425
000230 37 52 24 3d 52 cc a2 bd c1 07 76 3d 63 60 57 bd
       0.04011747 -0.07949127 0.06006599 -0.052582156
000240 58 95 93 bc a3 1b f8 3c 98 95 34 3d fb 4e 5b 3d
       -0.018015549 0.030286616 0.044087976 0.05354212
000250 78 e6 80 3d 49 57 cb bd da e8 b0 bb b6 bb 74 bd
       0.062939584 -0.09928758 -0.005398852 -0.059749328
000260 1d b2 1e bc be 7d 87 bd 0f eb 85 3d 3d 1a be bd
       -0.00968602 -0.0661578 0.065389745 -0.09282348
000270 53 4e f5 3c cb f0 2a 3c 7d 1c a2 ba c6 27 9f bd
       0.029944574 0.010433386 -0.0012368109 -0.07771258
000280 f4 88 5c 3d a2 ed bf 3a 06 ca 9d bc 4c 2b de bd
       0.053841546 0.0014642964 -0.019261371 -0.10848102
000290 3e fc af 3c 81 5e 38 bd c4 be 6d bd 72 ae 79 3d
       0.021482583 -0.045012 -0.058043256 0.06095738
0002a0 42 28 81 3a 69 ad 99 bd a6 66 8a bd 24 bd 92 bc
       0.0009853917 -0.075037785 -0.0675786 -0.017912455
0002b0 d4 58 f4 3c 67 20 f5 bc e2 80 5a bd ec a4 02 bd
       0.029827513 -0.029922677 -0.05334557 -0.031895563
0002c0 5a 57 c0 bd e6 73 e5 3c 09 ec 84 3d 04 68 d2 bd
       -0.09391661 0.028009366 0.06490333 -0.10273746
0002d0 1c cb ea 3c 50 e4 a8 3c df 39 65 bb 1a 72 17 bd
       0.028661303 0.02061668 -0.003497712 -0.03697405
0002e0 1d e2 04 3d 25 01 32 3d 0a ca 84 3c 55 ab 4e bd
       0.0324422 0.043458123 0.016209621 -0.050456364
0002f0 96 de 2c bd da 56 2e bc 18 4d eb bc 5a 40 51 bd
       -0.042204462 -0.010640824 -0.028723285 -0.05108676
000300 8a 6b 33 3d 33 a5 5f 3d 81 c0 b9 bc d2 a1 2a bd
       0.04380373 0.054600906 -0.0226748 -0.04165823
000310 4a bc 84 b9 68 24 b5 bb 4a 93 f5 3c b2 41 18 3d
       -0.00025317288 -0.0055280216 0.02997746 0.037172027
000320 95 51 92 bd 1e 9b 05 bd 14 71 98 3d 66 d9 0b 3d
       -0.07144467 -0.032618634 0.07443443 0.034142874
000330 89 44 c1 bb 9d da 7c bd 1d 0c 4f bd a0 51 a1 bd
       -0.0058980626 -0.061731923 -0.05054866 -0.07876897
000340 a1 3a 02 bd 5b e3 16 3d 5b 68 73 3d 2b 5d 2b 3d
       -0.031794194 0.036837917 0.059425693 0.0418369
000350 58 dc 80 bd 1b 96 75 bd b5 d2 3c bc f5 58 a9 3d
       -0.06292027 -0.059957605 -0.011524846 0.0826892
000360 38 b4 4b 3c a5 0a ee bc 8d d5 00 3d 07 c6 11 bd
       0.012433104 -0.02905781 0.031453658 -0.035589244
000370 78 f1 5d bd 45 fb 84 3d e8 97 1c bd 08 26 6f bc
       -0.05418536 0.06493238 -0.038230807 -0.01459647
000380 8e 2f b5 bd 0e 8e 7c 3d 2a 2b 90 3d 08 fd 11 3d
       -0.08846961 0.06165891 0.07039483 0.0356417
000390 90 b9 7a bd 83 ea a6 bd 13 4c 90 bd 0f d8 87 3d
       -0.061212122 -0.08150198 -0.0704576 0.06633007
0003a0 c3 16 3c 3d cd 85 9e 3d b3 5a 4c 3d 56 1e b1 3c
       0.045920145 0.07740364 0.049891185 0.02162091
0003b0 67 b4 99 ba 51 fc 9d bd 58 78 af bd f4 b4 c6 bd
       -0.0011726738 -0.07714141 -0.085678756 -0.09702483
0003c0 14 70 33 3d 5a d3 37 bd eb 22 ce bc 30 18 5b bd
       0.043808058 -0.044879295 -0.025163135 -0.053489864
0003d0 33 fa c0 bc 48 91 b9 bd 10 54 ad bd 56 00 2a 3d
       -0.023556804 -0.09060913 -0.08463299 0.041504227
0003e0 27 91 20 bc c6 a3 2f 3d 55 4a e8 bc 34 ca 84 bd
       -0.009800232 0.042880796 -0.028355757 -0.0648388
0003f0 cc 57 90 bc a5 b9 32 bd cd ee 0d bd 7e 4e c2 bd
       -0.01761999 -0.043634076 -0.034651566 -0.094876274

lstm.weight_hh_l0 f4 [512, 128]
000000 92 c8 74 3c 62 18 17 bd 95 f8 83 3d 0b 0d d8 3c
       0.014940398 -0.036888488 0.06443898 0.026373407
000010 35 f1 c4 bd b2 bd d2 bb a8 81 99 bd 1b cc 20 bd
       -0.09616319 -0.006431305 -0.07495433 -0.03925715
000020 3f 65 ed 3b 0d a5 a9 bd 5e 27 c6 3b 72 cf 4c 3d
       0.0072447355 -0.08283434 0.0060471734 0.050002523
000030 74 d2 ef 3b a6 bb 92 3d 42 05 98 bc 0e 7a 01 bb
       0.007318789 0.07164697 -0.018557195 -0.0019756588
000040 11 f4 8b bd 79 b2 85 bc 38 59 2b bb 45 6c 89 3d
       -0.06833661 -0.016320454 -0.0026145708 0.06710104
000050 33 74 84 3d 99 ba 1c bc 73 be 9a 3d d0 34 6a 3b
       0.06467476 -0.009565973 0.075558566 0.0035737045
000060 34 37 1f 3d 22 3f 86 3d ee 97 73 bd 39 32 bd 3d
       0.038871005 0.065550104 -0.059471063 0.09238095
000070 fc 33 66 3c 7b ba 35 bd 40 27 8c bd b1 13 23 ba
       0.01405048 -0.044367295 -0.06843424 -0.0006220891
000080 d8 79 80 bc bf 17 83 3d 82 72 28 3d 8f 24 72 bd
       -0.0156831 0.064010136 0.04112483 -0.059116896
000090 8b f9 d0 3c c1 a9 4e bd 5b 89 9f 3d 6a 80 53 3d
       0.025509616 -0.05045486 0.0778987 0.051636137
0000a0 d1 6c 36 3d 4c 7d 38 3d e4 c5 f1 bc fd 14 f9 bc
       0.04453737 0.045041367 -0.029513307 -0.030405516
0000b0 09 27 b5 3c 2b 50 c2 bd 34 fb 0e bd 26 cd 42 3c
       0.02211334 -0.09487947 -0.034907535 0.0118897315
0000c0 a0 99 91 3d dd 14 04 3c 58 c9 b8 bc 64 87 98 3d
       0.0710938 0.008061615 -0.022556946 0.07447699
0000d0 b7 1f cb 3c a5 dc 39 bd 89 8b 53 3d a9 d2 e0 3c
       0.024795396 -0.04537644 0.051646743 0.0274442
0000e0 9d 5e a2 bd 06 06 06 3b 7e 32 3d bd b0 26 a3 3d
       -0.07928202 0.0020450368 -0.04619073 0.079663634
0000f0 0a c7 68 bd 25 76 7e bc a5 47 6a bd f3 1b 32 3c
       -0.056830443 -0.015531098 -0.05719723 0.010870921
000100 4c ce a4 3d ee d9 d5 bc 74 7b 06 3d b8 20 cf bc
       0.080471605 -0.026104894 0.032832578 -0.025284156
000110 da 38 9e bc 6c 21 67 3c 76 fd 75 3d 37 b2 c4 bd
       -0.019314218 0.0141070895 0.060056172 -0.09604304
000120 2d 29 46 bd 8f 83 84 3d 5e 87 4d bd 75 a3 82 3c
       -0.048379112 0.06470405 -0.050177924 0.015947083
000130 55 5c 27 3d 6d b9 67 bb bc 92 93 bb 1c 10 4c bd
       0.04085954 -0.0035358325 -0.004503576 -0.04982005
000140 84 9f 59 bc c3 14 e0 bc 87 6b 85 bc e7 05 ab bc
       -0.01328266 -0.02735365 -0.016286625 -0.020876838
000150 48 60 ae bc 4d fe 37 bd 82 7c 9d 3d 87 4e 07 3d
       -0.021286145 -0.044920254 0.076897636 0.033033874
000160 0d 5d 45 3d 8e 54 20 3d f2 54 40 3c 2e e2 67 3d
       0.048184443 0.039143138 0.011739003 0.056612186
000170 64 9a d8 3c 68 35 fd bc 2c f2 21 bc 21 eb 9c bd
       0.026440807 -0.030909255 -0.009884398 -0.07662035
000180 e2 b1 51 bd 8c 3b 9f 3d 1d d9 88 3d 01 55 9c bd
       -0.051195033 0.077750295 0.06682036 -0.07633401
000190 eb 1a 05 bd 5e 12 41 3d fd d8 a6 bd f7 08 e3 3b
       -0.032496374 0.047136657 -0.08146856 0.006928559
0001a0 82 95 be bd 5b be 52 bd c6 c3 24 bd 46 96 76 39
       -0.0930586 -0.05145107 -0.040225767 0.0002351637
0001b0 49 23 b3 bc 21 bb 30 bd 2b 7e 4e 3d ac 8a 02 bd
       -0.021867411 -0.04314721 0.050413292 -0.03187053
0001c0 e4 61 9e bd 45 bb 09 3d 95 76 5d 3d 77 e9 ed bc
       -0.07733515 0.03362586 0.054068167 -0.029041989
0001d0 2e f5 3a b9 2f 55 dd 3c ae 8c 03 bb fc 6e e9 bb
       -0.00017829679 0.027018158 -0.0020072865 -0.007123826
0001e0 47 03 81 bd 3f 87 2b 3d 22 18 8d 3c 75 89 05 3d
       -0.06299453 0.041877028 0.017223421 0.032601792
0001f0 c6 01 af bc 87 90 bd bc 77 5a 10 bd 58 b9 6f 3c
       -0.02136315 -0.023140205 -0.035242524 0.014631592
000200 6d aa 1f 3d c6 3a 8e 3d 82 01 c7 3d d7 4a a9 3d
       0.03898089 0.06944804 0.097170845 0.08266228
000210 50 46 8a bd ab 96 6e 3c 23 27 95 3d 94 97 2c 3d
       -0.06751692 0.014562289 0.07282855 0.042136744
000220 84 be 7a 3d 5e 1a b0 3d 11 b1 ce bc 2e da 2f 3d
       0.061216846 0.08598779 -0.025230916 0.04293268
000230 24 5a 3c 3d 8f 12 46 3c c2 45 59 bd 62 0d 5c 3c
       0.045984402 0.012089386 -0.05304504 0.013430925
000240 0d 3c 9e 3d 06 e2 5e 3c ea 8f a1 bb aa 3f 40 3c
       0.077262975 0.013603693 -0.004930486 0.011733929
000250 a7 19 bc 3d 19 b7 22 3d 48 55 9a bc 37 07 86 3c
       0.0918458 0.039725397 -0.018839493 0.016360862
000260 46 92 12 bd 18 5f a8 3c e8 a3 b1 bd 0b f1 5c 3d
       -0.03578403 0.020553157 -0.08673841 0.053940814
000270 e8 67 62 3d ab 7c 85 bd 99 d6 71 3d a2 0a 70 bc
       0.055274874 -0.06517919 0.059042547 -0.014650973
000280 c2 be 29 bc 3c fb eb 3c 12 09 4f 3c b2 6b 4f bd
       -0.010360422 0.028806321 0.01263644 -0.050639816
000290 63 27 44 3d a7 05 1a 3c 8c 94 8a bd 30 c5 58 bc
       0.047889125 0.009400762 -0.06766614 -0.013230607
0002a0 c7 5a 57 bd a2 86 6a bd 9e 3a a4 3d be 94 d4 bb
       -0.052576806 -0.057257302 0.08018993 -0.006487458
0002b0 17 f3 2b bc b3 79 63 3c 37 c1 0e bc a6 4a 8e bd
       -0.010494969 0.013883996 -0.008713058 -0.06947832
0002c0 0b de 00 bd bd 0a 03 bd c1 fc 42 3d af 8d cb 3a
       -0.031461757 -0.031992663 0.047604326 0.0015529896
0002d0 b3 ce c3 bd ce b2 11 bd 39 1b 87 bd 53 bb d1 3b
       -0.09560909 -0.035570912 -0.06596989 0.0064005046
0002e0 04 04 6c 3d f2 76 0b 3d f0 cf 56 bc b0 ca 1e 3d
       0.057621017 0.034048982 -0.0131111 0.038767517
0002f0 55 00 93 3b 0a 1d bf 3d 73 f6 c0 bd 1b 56 f7 bc
       0.0044861236 0.09331711 -0.094220065 -0.030192425
000300 70 db d4 bc 23 b0 a6 bd 66 46 c4 3c 00 d6 92 3d
       -0.025983542 -0.08139064 0.02395935 0.071697235
000310 48 0c 43 3d cd d1 17 3c cd 7b a4 3d 97 66 c1 bc
       0.047619134 0.009266329 0.080314256 -0.023608489
000320 43 f7 72 bc f0 7c 03 3d 66 38 13 bd e4 93 97 bd
       -0.01482946 0.03210157 -0.035942458 -0.07401255
000330 60 58 6d bc 70 bf a1 3d b8 05 21 bd 8a d8 9b 3c
       -0.014486402 0.07897842 -0.039312094 0.019024152
000340 1f 50 7e bb e3 4c b7 3d 42 f6 4e 3d db 3e 7f bd
       -0.003880508 0.08950212 0.05052782 -0.062315803
000350 9c e6 94 bd 8d 5b 68 3d b8 df c3 bd f4 8d 4c bd
       -0.07270548 0.056727935 -0.09564155 -0.049940065
000360 36 ef d1 3d e6 cf b8 3c 96 78 0a bc fd ed 9b bd
       0.10250704 0.022560071 -0.0084516015 -0.07613752
000370 1a 04 3f bc 0a df 14 3d 54 ba 4b 3d b6 d8 13 bd
       -0.011658693 0.03634552 0.049738243 -0.036095344
000380 ec ac 3d bc ba 27 ff 3c e3 df d0 bd 1e 3f df bc
       -0.011576872 0.031146873 -0.10198953 -0.027251776
000390 45 91 b7 bd 5c 51 d0 bc 8d f4 2e bd ba c0 34 3d
       -0.08963255 -0.02542942 -0.04271369 0.04412911
0003a0 de 80 4d bd 47 e5 b5 bd 84 01 9d bc 7f 3d 5d bd
       -0.050171725 -0.08881622 -0.019165762 -0.054013725
0003b0 6f f1 27 bd 7b 6c 07 bd 43 fe 28 3d f3 54 a5 bd
       -0.041001733 -0.03306244 0.041258108 -0.080728434
0003c0 b3 1f 68 bd 9d 6d 2e 3c fe 83 45 3d c9 93 5a 3c
       -0.056670856 0.010646251 0.04822158 0.013340899
0003d0 c2 38 9b 3d d6 8c 1c 3d 13 cb 7b bd c1 46 76 3d
       0.07579185 0.03822025 -0.061472964 0.06012607
0003e0 01 df 20 bd 0f f8 6e 3d ec 5a eb bc 35 1e 95 3d
       -0.039275173 0.058342036 -0.028729878 0.07281152
0003f0 69 d3 18 bd cd ce ac bb 54 7c 49 bd 16 0e 90 3d
       -0.03731099 -0.005273676 -0.049190834 0.07033937

lstm.bias_ih_l0 f4 [512]
000000 ca 6c 87 3c a7 81 56 bc 13 54 a9 3d 72 8b be bc
       0.016531367 -0.013092435 0.08267989 -0.023259852
000010 8d 38 38 3d 7c 77 ca 3c b4 2d 9a bc bf ec 5b bd
       0.044975806 0.024715178 -0.018820621 -0.053692576
000020 1f 35 4c bd e8 24 24 bc 9f f8 86 bd 50 6c bb bd
       -0.049855348 -0.010018565 -0.065903895 -0.09151518
000030 d3 28 71 3c 39 8c 73 3d 49 49 49 3d 56 34 6f bb
       0.014719206 0.0594599 0.049142156 -0.00364997
000040 80 1e 09 bd 40 25 10 bd 64 f6 9f ba be 69 9e bd
       -0.033476353 -0.035191774 -0.0012204167 -0.077350125
000050 51 15 67 3d 86 21 ad bc 0d da a4 bd 83 22 5f 3c
       0.056416813 -0.02113415 -0.080494024 0.013619068
000060 b5 6d 1b 3d 57 49 fb 3c 97 78 08 bd 22 1d 43 ba
       0.03794642 0.03067462 -0.03331813 -0.0007443001
000070 b8 42 35 bd 1e c9 9e 3d 66 0f 48 bd 60 98 95 bd
       -0.04425308 0.07753204 -0.04884281 -0.07304454
000080 08 25 70 bd ea ae 38 bd 1f 2d b9 bc bb 87 6b 3d
       -0.058629066 -0.045088686 -0.022604523 0.05750249
000090 5d 2e 17 bd 31 4e 0a 3d f7 22 48 bd 0d dc dc 3c
       -0.03690945 0.033765975 -0.04886147 0.026960397
0000a0 3f 78 c1 bb d2 33 ac 3c 6b 36 1b 3d 9f d7 ae bd
       -0.005904227 0.021020804 0.037893694 -0.0853722
0000b0 fe d0 cf 3b f9 54 8b 3c 78 28 71 bd 23 a5 c9 bd
       0.0063420525 0.017008292 -0.058876485 -0.098459505
0000c0 c7 3c 32 bd db 23 35 3c b8 f0 36 bc 2f 33 fb 3c
       -0.043514993 0.011055912 -0.01116579 0.030664055
0000d0 39 9d 4a 3c e5 cd 49 bd c8 06 c8 bb 0e c9 d3 bc
       0.012366586 -0.049268622 -0.006104324 -0.025852706
0000e0 1c e1 9a 3d 3f 6b b1 bb f2 24 c7 3d 05 b3 bb bd
       0.075624675 -0.005414396 0.09723844 -0.09165005
0000f0 8e 43 90 3d f1 d1 7a bd 4d aa b7 bd 00 17 de bc
       0.07044135 -0.061235372 -0.08968029 -0.027110577
000100 80 27 51 bd c8 34 0d 3d ef d3 4d bd 05 1a 25 3d
       -0.05106306 0.034474164 -0.050250944 0.040308017
000110 fd f0 4f bd c8 8c c2 bb 1e cd 9c 3c 62 cf 76 bd
       -0.050766934 -0.0059371926 0.019140776 -0.06025637
000120 a9 3f e3 bb 3f 2a a0 bd 36 e6 93 3d dc ee 1f bd
       -0.006935079 -0.07820558 0.072216436 -0.039046153
000130 1d 98 1c bd b4 24 9a bc df b1 66 3c 74 0a 3f 3d
       -0.038231004 -0.01881633 0.014080494 0.04664083
000140 6f d4 30 bd 85 87 94 3c 3a 52 2e bd 17 ea 08 3c
       -0.043171342 0.018131027 -0.042558886 0.008356593
000150 de 33 96 ba 9f ae 3f bc de 0a f8 bc 76 24 27 bd
       -0.001145955 -0.011699348 -0.03027862 -0.040806256
000160 e0 6b a2 bd 5b e1 8a bd 31 cf 93 bd e6 92 bb bd
       -0.07930732 -0.067812644 -0.07217253 -0.09158878
000170 06 26 9c bd 70 5b 77 3d a8 21 8e 3a b9 a8 38 3c
       -0.0762444 0.060389936 0.001084377 0.011270695
000180 9d f3 1c 3d f7 03 70 bd 17 d6 58 3c 0c b4 23 bd
       0.038318265 -0.05859753 0.013234637 -0.039966628
000190 c0 f4 08 bd 22 76 bc bd 1e 0a 35 3c 35 5a 5d 3d
       -0.033436537 -0.092022195 0.011049775 0.054041106
0001a0 03 93 fa bc c0 d8 41 bd 90 1c c5 3d 76 82 9e 3d
       -0.030587679 -0.04732585 0.096245885 0.07739727
0001b0 e5 c0 da 3c ad cf 6c bd 51 4d 6e 3d 5e c9 5d bb
       0.026703307 -0.057815243 0.058179203 -0.0033841948
0001c0 7e 42 38 bd 45 2c 31 3d ba d0 b9 3d 92 b5 8d 3d
       -0.044985287 0.04325511 0.090730146 0.069193974
0001d0 cd 0a c1 bd 2e df 67 bd b8 23 08 bd 91 90 2a bd
       -0.09425888 -0.056609325 -0.03323719 -0.041641776
0001e0 39 85 28 bd d3 94 66 3d e8 53 41 3d e3 38 da ba
       -0.041142676 0.056294274 0.04719916 -0.0016649034
0001f0 af d6 c1 bd d1 d8 8f 3c 9c fd 60 3b 10 13 aa 3c
       -0.09464776 0.01755944 0.003433085 0.020761043
000200 ab 78 c1 bc c3 d7 8b 3d 68 5f 96 bd 57 b7 49 bd
       -0.02361711 0.06828263 -0.07342416 -0.049247112
000210 85 42 dc 3c de 16 9c bd c4 63 b5 bc 53 14 8a bd
       0.026887188 -0.07621549 -0.022142299 -0.06742158
000220 30 10 30 3d e3 9e 1c 3d b5 5d 11 bd 18 36 07 bd
       0.042984188 0.038237464 -0.035489757 -0.033010572
000230 76 7d 7d 3d 6a 9b 5f 3d 86 8e 69 3c 29 41 29 bd
       0.061887227 0.054591574 0.014255172 -0.041321907
000240 20 ea 86 bd 73 7d 8f 3d 84 68 5d bd 65 78 59 3d
       -0.065876245 0.070063494 -0.054054752 0.053093333
000250 47 dd b9 bc ac cc 82 bd 42 c5 19 3d f9 33 0b 3d
       -0.022688521 -0.06386694 0.037541635 0.03398511
000260 c2 ec 22 bd a2 9a 2f 3d 72 7f 54 3d a2 6f b6 bd
       -0.03977657 0.04287208 0.051879354 -0.08908011
000270 1d 82 fb 3b c2 26 86 3b 61 a6 b4 bb fd bd 4b bd
       0.007675423 0.0040939758 -0.005512998 -0.049741734
000280 5a 0a 53 b9 59 86 0b 3d 16 76 cb bc 70 d3 98 3d
       -0.00020126384 0.03406367 -0.024836581 0.074622035
000290 62 67 22 bd cc ab 60 3d 17 5f a7 bd 8c 82 ac bd
       -0.039649375 0.05485134 -0.08172434 -0.08423337
0002a0 66 2e 1e 3d dd 0e bc bd 44 0c 0d 3d 86 3d 7c bc
       0.038618468 -0.091825224 0.034435526 -0.015395528
0002b0 31 be 14 3d 72 fa b9 3c 1d 69 f4 3c 1d 5c 1e 3d
       0.036314193 0.02270243 0.029835278 0.038662065
0002c0 44 7d 50 bd 82 ce d9 3c 0e ba 76 3d b9 c0 29 3d
       -0.050900713 0.026587728 0.06023603 0.04144356
0002d0 10 f0 79 3d 1a 44 8b bd 8a 08 83 bc 38 da 4e 3b
       0.061019957 -0.06800099 -0.015995283 0.0031563174
0002e0 a4 68 1e 3b ae 90 51 bd 42 55 d3 3c c8 2d 14 bc
       0.0024171257 -0.051163368 0.02579749 -0.009044118
0002f0 c1 73 62 3b 02 74 63 3d 1d d7 8c bd d9 6e 36 3d
       0.0034553858 0.055530556 -0.06876967 0.044539306
000300 5c 5b 2e 3d ac af 46 bc 76 6b ad bd c1 65 03 3d
       0.042567596 -0.012126844 -0.08467762 0.032079462
000310 19 f2 ae bd 0c bb a3 3c 33 7d 85 bc 51 f7 70 3d
       -0.0854227 0.019986652 -0.016295051 0.05882961
000320 c6 e5 96 bc a4 f8 4b 3d ef 76 51 bd c0 b1 36 bd
       -0.018420111 0.04979767 -0.051138815 -0.04460311
000330 cf 55 af bc b0 e7 84 b9 48 db b3 bc a8 fc a3 bd
       -0.021403221 -0.00025349623 -0.021955147 -0.08007175
000340 1c 45 e8 bc f9 92 82 bd 83 79 3b bd 87 45 dc bc
       -0.028353266 -0.06375689 -0.04577018 -0.026888622
000350 33 e2 b7 3d 04 f3 b5 bc b8 28 0a bd 46 c4 fe bc
       0.08978691 -0.022210605 -0.03373024 -0.03109945
000360 72 d4 6c 3c 10 30 91 3d af 28 e4 3c 41 bd 2a 3c
       0.014454948 0.07089245 0.02785143 0.010421098
000370 0f f4 96 3d 05 2e 1b bc bd 59 40 3d f3 aa 1b 3c
       0.07370769 -0.009471421 0.04696058 0.009501207
000380 29 99 84 3c d3 22 c6 bc b9 39 2e 3d 30 28 6a bd
       0.016186314 -0.024186527 0.042535517 -0.057167232
000390 57 23 b9 bc 59 52 c5 bc 46 ae 4f bd 58 6e 24 3d
       -0.02259986 -0.024087118 -0.05070331 0.040144295
0003a0 06 f8 99 3d 7f 34 c3 bb 4b 40 b9 bc ed 69 32 bd
       0.0751801 -0.0059571858 -0.022613665 -0.04355805
0003b0 fc 1c f4 bc 4f 13 e4 3c 94 6e fb 39 03 d9 a1 3c
       -0.029798977 0.027841238 0.00047956838 0.0197568
0003c0 e4 bc 21 bd d1 8e 17 bd ac 44 19 bd 77 38 9c 3d
       -0.03948678 -0.037001435 -0.037419006 0.07627957
0003d0 d0 25 ce 3c 42 5a 75 3d 2f 5f b5 bd e1 bf f4 3c
       0.025164515 0.05990053 -0.088560455 0.029876651
0003e0 e6 42 8e bc 8b a5 06 bd 0e f3 94 3d 9e 30 f5 ba
       -0.017365884 -0.032872718 0.072729215 -0.0018706506
0003f0 45 5e 52 bd 1b d7 33 bd 5e 1f 3e bc 24 57 7e bd
       -0.051359434 -0.043906312 -0.011604158 -0.062094823

lstm.bias_hh_l0 f4 [512]
000000 06 83 d3 bc 82 38 5b bd 9d ef 90 bc 1a 76 ab bd
       -0.025819313 -0.053520687 -0.017692382 -0.083721355
000010 37 4c 48 bc 43 95 10 bd 58 38 84 3d 81 1f 35 3d
       -0.012225202 -0.035298597 0.06456059 0.044219498
000020 a1 39 af 3c 40 ff 99 bd 5b dd c3 3b 87 ff ac 3c
       0.021389784 -0.07519388 0.0059773154 0.021117939
000030 11 3f 0e 3d d1 9b 1f bd dc 0a 10 bd 53 c2 15 3d
       0.034728114 -0.038966957 -0.035166606 0.036562275
000040 cc 08 34 bd 40 6b c9 bd bd d8 0d 3c f5 85 0e 3c
       -0.0439537 -0.098349094 0.008657631 0.00869893
000050 14 43 02 3d be 74 96 bd cf d3 83 3d 70 6d 7d bd
       0.031802252 -0.073464856 0.06436884 -0.061871946
000060 ad 28 f1 3b 6d f7 79 bd 1d 91 d0 3c 7f 31 44 bd
       0.0073595853 -0.06102698 0.02545982 -0.047898766
000070 6c ee 94 3d e3 20 99 3d a0 7d a2 3d 5f 60 ce 3b
       0.07272038 0.07476976 0.07934117 0.0062981094
000080 ac 56 9e 3d d1 64 9a 3c f9 0a d5 bc 6f e1 00 bd
       0.07731375 0.018846901 -0.026006209 -0.03146499
000090 9d f2 98 3c f9 8d a7 3c b1 08 47 3a ef 0a 6a 3c
       0.018670375 0.02045344 0.00075925427 0.014284833
0000a0 58 d0 12 3d 2c 6f 13 3d 33 ab 23 bd f1 70 ab 3c
       0.035843223 0.035994694 -0.03995819 0.020927878
0000b0 16 40 28 bd 12 97 36 bd f4 f9 51 bd 49 d2 b0 bd
       -0.041076742 -0.044577666 -0.051263765 -0.08633859
0000c0 e7 a8 68 3d 35 52 21 3d e7 fd 44 bd 4b 3b 9c bd
       0.056801703 0.03938504 -0.048093703 -0.07628497
0000d0 98 4b aa 3d 41 6b 91 bd 47 09 92 bd ca 9b 49 3d
       0.083151996 -0.07100535 -0.07130676 0.049220838
0000e0 b3 5b 44 bd c4 a6 a5 bd bc 3e 8d 3d 1c 0a 49 3d
       -0.047939014 -0.08088449 0.06896731 0.049081907
0000f0 89 e3 85 bd 1e df 3e 3d b2 99 2b bd 29 a8 58 3b
       -0.065375395 0.0465995 -0.041894622 0.0033059216
000100 cb 66 a1 3b 7e c8 33 bd b6 65 ba 3d 15 b8 9d 3d
       0.004925584 -0.043892376 0.09101431 0.077011265
000110 9d dc 6f 3d 65 99 41 bd 9d 9f 40 3c ce d7 46 3c
       0.058560003 -0.04726543 0.011756805 0.012136413
000120 b0 42 f3 3c b2 cc 3a 3c bc 16 dc 3c 6f 24 55 3d
       0.029694885 0.011401342 0.02686631 0.0520367
000130 db 67 94 bd 73 87 8d 3d 14 0b d7 bc a2 3b a4 bd
       -0.07246371 0.069106005 -0.0262504 -0.080191866
000140 db 9d 89 bc 62 52 74 3d 21 a1 2d bd 0b 4e 85 bd
       -0.016798904 0.05964888 -0.042389993 -0.06509026
000150 c5 b7 40 bd 4a 06 1a bd 6e ee 98 bd 0c f4 7a 3d
       -0.047050256 -0.037603654 -0.07467352 0.061267897
000160 47 7d 03 3d 31 18 39 3d 48 22 9f bd dc df ad 3c
       0.032101896 0.045189086 -0.077702105 0.021224909
000170 82 92 58 bb 28 db a8 bd 4c 93 55 3d 28 82 b8 bc
       -0.003304631 -0.08244926 0.052142426 -0.022523
000180 c7 9b 86 3d 14 24 2f 3c 3e c1 03 3d 88 1b 99 bd
       0.06572681 0.010689754 0.032166712 -0.07475954
000190 1a df 84 bd 65 e0 a5 3c 10 b7 55 3d ee 13 a0 bd
       -0.06487866 0.020248601 0.052176535 -0.07816301
0001a0 03 1c e2 bc fb f0 76 bb 1b 12 98 3d 87 9b 59 bc
       -0.027601248 -0.0037680257 0.07425328 -0.0132817095
0001b0 fb 4c d9 bc 54 20 d9 3b 01 95 90 bd c8 3a 8f 3d
       -0.026525965 0.0066261683 -0.0705967 0.069936335
0001c0 ec e4 07 3d ca 53 b7 3c 90 8a 88 ba f4 d7 de bb
       0.0331773 0.02237882 -0.0010417271 -0.006800646
0001d0 a3 71 92 3d 67 aa 79 3c 65 50 c8 3c 10 4f bf bd
       0.07150581 0.015238381 0.024452398 -0.09341252
0001e0 b0 39 45 3d 76 2f 28 3c fe 48 a1 bd ae 79 b4 3c
       0.04815072 0.010265222 -0.0787525 0.022030678
0001f0 c1 56 ec bb 12 3f 07 bd d8 a0 e4 3c 39 a6 00 3d
       -0.0072124903 -0.033019133 0.027908728 0.031408522
000200 37 4f d6 3c ac 6a 05 bd 1c 50 8a bd 96 f2 68 3d
       0.02616082 -0.032572433 -0.06753561 0.056871973
000210 88 23 01 3c 9a 3a f0 3c 0f 27 3b bc 86 b3 6f bd
       0.0078820065 0.029324818 -0.0114228865 -0.058520816
000220 63 6c 82 3d 05 13 8a bc 79 49 67 bd 2d ac 7d 3d
       0.063683294 -0.016854772 -0.056466553 0.061931778
000230 cc 97 34 3d eb b7 b8 3d 32 6a 72 bd bb bd 7a 3d
       0.044090077 0.090194546 -0.059183307 0.061216097
000240 c1 fc c6 bd 12 dc 43 bd f7 e9 ed 3c 0b 28 35 3d
       -0.09716178 -0.047817297 0.029042227 0.04422764
000250 9b 88 91 3c 08 b5 95 bd ad db 33 bd 55 23 45 3d
       0.017765334 -0.073099196 -0.04391067 0.0481294
000260 e0 24 cf 3c 40 54 00 3d 44 db 87 3c c9 d0 cb bc
       0.025286138 0.031330347 0.016584046 -0.02487983
000270 9c 7f 8f bc 20 49 c8 bc 7c 75 5b 3d b6 5d c3 3c
       -0.017516904 -0.024448931 0.05357884 0.023848396
000280 89 a2 8a bb ae 57 8b 3d 55 49 d6 bc 1f f4 42 bd
       -0.0042308015 0.06803833 -0.026158014 -0.047596093
000290 e1 79 d3 3c 1e bc b0 3c 8d 41 ae bd c7 0c 9e 3d
       0.025814952 0.021574076 -0.085085966 0.07717281
0002a0 6a 04 b4 bd 69 b2 77 3c f9 f7 a4 bd 72 5e 29 bd
       -0.087899044 0.01511822 -0.080551095 -0.041349836
0002b0 7c bb 86 3d 54 eb a0 bb 2c 84 54 3b 9e 32 21 3d
       0.065787286 -0.004910866 0.0032427413 0.039354913
0002c0 eb ba 58 3d 30 ea 9e bb db 0c ae 3d 0a e2 0b 3d
       0.052912634 -0.0048496947 0.08498546 0.034151115
0002d0 ee 13 9f 3d 62 26 56 3d ec 86 c5 bd f5 3b 88 3c
       0.07767473 0.0522827 -0.09644875 0.016630152
0002e0 9e 34 34 3c d8 e6 a4 bc 8b a7 7e 3d 9e 6a 12 bd
       0.010998873 -0.020129606 0.0621715 -0.03574621
0002f0 a7 ab a3 3d 47 78 8e bd 77 db 98 bd 23 27 1e 3c
       0.079917245 -0.06956535 -0.074637346 0.009652886
000300 f1 5a 6f 3d c6 2a 26 3d 7e 9b 8a bd 13 b1 66 3c
       0.058436338 0.040568136 -0.06767939 0.014080304
000310 85 38 c8 3b 44 b6 b0 3b 4c 04 20 bd 31 3a 6a bd
       0.0061102533 0.0053928215 -0.039066598 -0.057184402
000320 bf 22 b4 bc 61 d1 48 bc e2 72 4c bd 66 c0 2e bc
       -0.021989224 -0.012256951 -0.04991425 -0.010665989
000330 81 07 2c bd ae b6 57 3d 7c 06 69 bc 91 7c 35 bd
       -0.041999344 0.05266445 -0.014222737 -0.04430825
000340 51 8b be bd 3b c3 46 3d 43 0e d9 bd ab ac 3d 3d
       -0.09303916 0.04852603 -0.10598423 0.046307247
000350 ae 14 6e 3d 30 ba ba bd 1a e3 9e 3d 26 fa 94 bb
       0.05812519 -0.09117544 0.0775816 -0.0045464216
000360 5f 86 ab bd d4 7c b5 3c 07 43 9b bd 5c d2 8b 3a
       -0.083752386 0.02215425 -0.07581144 0.001066755
000370 89 e0 2f 3d 0d 0d e6 bc a1 8f d0 bc 28 62 11 3d
       0.042938743 -0.028082395 -0.025459113 0.035494
000380 6c da e2 3a d7 24 0e bd 4a 95 9b bd f3 cc 10 bc
       0.0017307526 -0.034703102 -0.07596834 -0.008837926
000390 e8 31 ae 3d 47 d6 91 bd fa f0 0b 3d 86 d4 48 3d
       0.085056126 -0.07120948 0.03416536 0.049030803
0003a0 bb 00 bf 3d 85 fb 7f 3d 26 c7 02 3d bb f8 97 bd
       0.09326311 0.062495727 0.031928204 -0.074204884
0003b0 3b a6 c3 bd c2 cc 92 bd 68 dd 00 3a 97 01 6d 3d
       -0.0955319 -0.07167961 0.00049158046 0.057862844
0003c0 f0 5f 40 bc 81 a4 af bd fc fa 95 bc d1 89 a1 bd
       -0.011741623 -0.085762985 -0.018308155 -0.078876145
0003d0 56 f6 c5 3c d2 66 95 bd 87 3f 4b bd 03 5e 69 3d
       0.024165314 -0.07295002 -0.04962113 0.056974422
0003e0 a2 08 11 bd 04 2e 3d bd d3 42 cb 3c 4b 2b 3b 3d
       -0.035408624 -0.046186462 0.024812138 0.045695584
0003f0 c9 69 49 bd 32 e2 02 bd 6f c8 85 3c 77 76 af bd
       -0.04917315 -0.031953998 0.016330926 -0.08567517

lstm.weight_ih_l1 f4 [512, 128]
000000 9e 33 76 3d 41 16 92 bd ca 65 81 bd 09 fa 33 bd
       0.06010782 -0.07133151 -0.06318243 -0.043939624
000010 24 64 70 3d da e0 3b bd 3a e5 42 bd 36 18 ad 3d
       0.05868925 -0.045868732 -0.04758189 0.084518835
000020 c7 84 8d 3d f1 6e 3e bd 90 c2 9e bd a8 5d 50 bb
       0.06910091 -0.04649252 -0.077519536 -0.0031794105
000030 17 a9 31 3d 2e 43 31 bd f1 a5 3d 3b e5 c1 88 3c
       0.043374147 -0.04327696 0.002893802 0.016694019
000040 18 5d b2 3d 15 ef 93 bd 28 cb df 3c 3d 75 d0 3c
       0.087091625 -0.07223336 0.027318552 0.025446529
000050 20 96 a6 bc 46 38 31 bd eb 19 2d 3c 7f b0 c3 3d
       -0.020335257 -0.043266557 0.010565261 0.09555148
000060 0a 4c 07 3d 6e c0 89 bd 2e c1 82 bd fa 1f a6 bc
       0.0330315 -0.06726156 -0.06384502 -0.02027892
000070 3f fa 61 bd df cb f9 bc 4c a4 fe bb 3c bb 47 bd
       -0.055170294 -0.030492721 -0.0077710506 -0.048762545
000080 05 49 36 bd 5c c3 c1 bc 07 2a 52 bd bd 4f 24 3d
       -0.04450323 -0.023652725 -0.05130961 0.040115107
000090 e4 92 4d 3d fe 8d 7a bd 7d 60 8b bc 39 5c 11 3c
       0.050188914 -0.06117057 -0.017013783 0.008872085
0000a0 3c 9e b1 bd 8e cd 09 bd 6e c5 06 3d bf 81 4c bc
       -0.08672759 -0.033643298 0.032903127 -0.012482106
0000b0 ee 14 91 bd d9 68 84 3d e2 c3 4b 3c 88 3c 87 bc
       -0.0708407 0.064653106 0.012436839 -0.016508356
0000c0 4f 9f 98 3d ea bb c0 3c e1 22 a2 bd 20 1d 98 bc
       0.07452261 0.023527104 -0.07916809 -0.018568575
0000d0 56 0c b7 3c 2f 9c 45 bd 75 f7 77 bd 24 a3 15 bd
       0.02234475 -0.04824465 -0.060538728 -0.036532536
0000e0 65 0b be 3c 66 e1 26 bb 59 28 1e 3d d2 6e f0 3c
       0.023198793 -0.0025463938 0.038612697 0.029349718
0000f0 05 f6 7c bd bd 2e 5a bd 0f 19 8d bc 47 f6 cb bd
       -0.06175806 -0.05326723 -0.017223863 -0.09959083
000100 e9 0b 01 3d 65 1f 6e bc 34 90 77 3c 8a 4f a4 bd
       0.0315055 -0.014533852 0.015110064 -0.08022983
000110 ed 2d 1d 3d 0e 30 e6 3b 52 19 2e 3c 1d a6 f4 bb
       0.038373876 0.0070247715 0.010626154 -0.0074660913
000120 c1 ef b9 bc 38 10 89 3d 68 cb 64 3b 94 82 c3 bc
       -0.022697331 0.066925466 0.0034911279 -0.023865975
000130 f1 21 48 3d 25 dc 14 bd 4b 9c 1d bd 07 ec 15 bc
       0.048860494 -0.03634276 -0.03847913 -0.009150512
000140 32 cd 08 3d 29 d6 7c 3c a2 c6 7a 3d 2f 0b 1d bd
       0.033398814 0.015431919 0.061224587 -0.038340744
000150 6a 98 af 3d d8 cb 98 3c a1 d6 82 3c df 12 2f bd
       0.085739926 0.018651888 0.015971484 -0.042742606
000160 32 69 70 3d 36 cc 9b bd 32 a4 8e 3d e5 bf 65 3d
       0.058694072 -0.076073095 0.069649115 0.056091208
000170 be 8b 3e 3d eb 19 9d 3c c1 d7 ad 3d b8 f4 92 bd
       0.046519987 0.019177398 0.084884174 -0.07175583
000180 d1 5b 7f 3d 6d f4 4f bd e0 77 2a bd 5c 1a 97 bd
       0.062343422 -0.050770212 -0.041618228 -0.073780745
000190 01 18 3b 3d 2e f2 5f bd e1 d2 ab 3d e8 49 c7 bc
       0.04567719 -0.05467432 0.08389831 -0.024327233
0001a0 94 45 7c 3d ec 59 48 bd 59 54 47 3d 7c 0d fe 3c
       0.061589792 -0.04891388 0.048664425 0.03101229
0001b0 76 2d 45 bc 29 3a 55 bc a1 f6 0a 3d f2 3a 52 3d
       -0.0120347645 -0.013014355 0.03392661 0.051325746
0001c0 39 07 0b 3d b3 73 11 3d 01 e8 94 bd 2a e6 7a bb
       0.033942435 0.03551073 -0.07270814 -0.003828416
0001d0 16 7a 86 3d 78 9d e8 bc cd 3a a5 bd 48 1d 8f bd
       0.06566255 -0.0283954 -0.08067856 -0.06988007
0001e0 f2 2a b5 bd 29 b4 9c 3b f9 a4 91 bd 09 5a f8 3c
       -0.08846082 0.004782219 -0.07111544 0.03031637
0001f0 da 0c 24 bd c5 f2 b5 3d 95 d4 25 3d 97 3d 1f 3d
       -0.04005132 0.08884195 0.040485937 0.038877096
000200 68 eb 05 bd 7e ac a4 bc ab c4 14 bd 87 01 7f bd
       -0.032695204 -0.020101782 -0.03632037 -0.062257316
000210 9c 78 fa bc d7 ec 9e bd 48 7d 9e bd 3c 87 67 bd
       -0.03057509 -0.07760017 -0.07738739 -0.056525454
000220 6c bc d0 bb e0 2a 04 bd d1 ec c6 3d 26 ed ae 3d
       -0.006370118 -0.03226745 0.09713138 0.08541326
000230 f4 63 9a 3d d8 60 45 bd 12 a3 1d 3c 20 8f 1d bc
       0.07538596 -0.04818806 0.0096213985 -0.009616643
000240 01 6f a2 3d ed f3 36 3c 1a 59 53 3d 7b d3 43 bc
       0.079313286 0.011166555 0.051598646 -0.011952276
000250 b2 c0 22 bd 60 d5 23 bd 95 b3 46 3d 42 43 72 bd
       -0.03973455 -0.039998412 0.048511107 -0.059146173
000260 82 f1 6b bd b3 bb 72 3c 8d bb 82 3d fe be a5 3d
       -0.057603367 0.014815259 0.06383429 0.080930695
000270 db 2d 61 3d fd af 81 bd cd fd 4f bd 3f bf ae 3c
       0.05497537 -0.06332395 -0.050779153 0.021331428
000280 d3 66 8f bb f3 26 70 3d 6b 9c 8c 3d 4e e1 1b bd
       -0.0043762713 0.058630895 0.06865772 -0.038056664
000290 d8 33 06 bd ae a8 0d bd ef 05 1e bd f4 75 5c 3d
       -0.032764286 -0.034584694 -0.038579877 0.053823426
0002a0 99 30 43 3c 36 55 60 bd 4e 72 a1 3d a9 54 34 bd
       0.011913442 -0.054768763 0.0788313 -0.04402605
0002b0 13 d6 bd bc 51 61 d9 bd 7a cd 50 bd 4e 88 5d 3c
       -0.023173368 -0.10614265 -0.050977208 0.013521267
0002c0 22 96 8b 3c c0 7c 20 bc 34 ba f2 bb 2d a8 88 3d
       0.017039362 -0.009795368 -0.007407451 0.06672702
0002d0 62 dc 10 bc ab 68 e8 bc 6c 6b 6b 3d b9 ff f1 bc
       -0.008841606 -0.028370222 0.057475492 -0.029540883
0002e0 ec e5 64 bd 65 2a f6 3c c6 59 66 3c 33 95 44 bd
       -0.055883333 0.030049512 0.01405949 -0.04799385
0002f0 93 71 89 3b c3 e4 8a 3c 73 93 b3 ba e8 60 67 3d
       0.0041944473 0.016954785 -0.001370056 0.0564889
000300 b0 6a 8a 3d 15 05 5e 3b 51 40 22 3d 9f 47 7f bd
       0.0675863 0.003387754 0.03961212 -0.062324163
000310 43 1c da bb a0 40 9d 3c 1b 27 a7 bd 1b d1 e5 bc
       -0.006656201 0.019195855 -0.08161756 -0.02805381
000320 96 82 bd bd 92 ad 5f 3c b4 a3 77 39 25 86 80 3d
       -0.09253423 0.013652222 0.0002361674 0.06275586
000330 d1 d4 c6 3d 41 39 3a 3c cc d2 b4 bc ae b8 5e 3d
       0.0970856 0.011366189 -0.022073172 0.054375343
000340 36 73 3f bd 91 5e 4c bc 6b 23 0e bd b1 12 d6 3b
       -0.046740733 -0.012473718 -0.034701746 0.00653299
000350 16 f5 06 bd b5 fd a2 3d b8 06 b4 3c 4d 17 b1 3c
       -0.032948576 0.07958547 0.02197586 0.021617556
000360 53 5a d6 3c ec 67 b1 bb bb fe 89 bd 49 9f ac 3d
       0.026166117 -0.005414 -0.06738039 0.08428819
000370 81 8c f9 3c 2b 5d 9f bd 9a e5 08 3d c4 75 4f bc
       0.030462505 -0.07781442 0.03342209 -0.012662355
000380 89 40 87 bd d1 b4 61 3d 6f 0a 47 bd 82 15 a4 bd
       -0.06604106 0.05510408 -0.048593935 -0.08011915
000390 40 45 0d 3d 58 05 06 bd f4 96 3c bd 2e 1c a3 bc
       0.03448987 -0.03271994 -0.046042398 -0.019910898
0003a0 dc ad 03 3c 40 e0 8d bd 65 be 85 bd af 98 e5 3c
       0.008037057 -0.06927538 -0.065304555 0.028026907
0003b0 b0 b2 77 bd af 51 e8 3b 42 6b b7 bd 78 d1 65 bc
       -0.060473144 0.0070898156 -0.08956005 -0.014026992
0003c0 39 34 86 bd 28 26 0a bc 20 74 dd bc 54 91 54 bd
       -0.065529294 -0.008431949 -0.027032912 -0.05189641
0003d0 ae 38 7d 3d 0e 44 96 3d 45 23 32 bd 9b 27 c4 bc
       0.061821632 0.07337199 -0.043490667 -0.023944667
0003e0 15 d6 eb 3c d8 f4 87 bc 82 2d a7 bd a5 cd 61 3d
       0.028788606 -0.016596243 -0.08162977 0.05512776
0003f0 f7 63 9d bd 03 ed 90 3c bc 72 88 3d c3 a2 65 3d
       -0.076850824 0.017691141 0.06662509 0.056063425

lstm.weight_hh_l1 f4 [512, 128]
000000 65 ba 95 3d 08 de 25 3d 77 c0 9e 3b 52 5e 90 3d
       0.073109426 0.04049495 0.004844721 0.0704924
000010 83 4f 4e bd 5c 21 25 bd e5 51 4e bc 81 bf 75 3c
       -0.050368797 -0.040315017 -0.012592767 0.014999271
000020 4c 33 9a 3d 2e f7 af 3c 0a f6 8b bc 9c 45 2b 3c
       0.07529315 0.02148017 -0.017085094 0.010453608
000030 a9 dc c3 ba f8 d0 db 3c c1 7b 32 bd 50 22 05 3d
       -0.0014943081 0.026833043 -0.043575052 0.032503426
000040 4c 69 01 3c 8f 0d bc 3c 5c 50 8c bd 3c a4 09 bd
       0.00789864 0.022955684 -0.06851265 -0.03360389
000050 4b 63 94 3d 8f 72 82 bd 63 54 88 3c 7f b8 81 3d
       0.07245501 -0.063695066 0.016641801 0.06334018
000060 26 1e c9 bc 42 dc f1 bc 27 c6 2b bd ab dd fe 3c
       -0.024550509 -0.029523972 -0.04193702 0.031111559
000070 2e d8 ea 3c 3b ef b7 bd 67 77 46 bd 57 1e e0 bc
       0.028667536 -0.089811765 -0.048453715 -0.027358217
000080 34 de cc 3a ff a3 7a ba a7 67 0b 3d f2 f4 71 bd
       0.0015630187 -0.00095611805 0.034034397 -0.05907149
000090 3e 2e 84 3d c8 a3 a0 3c 0f 54 8b 3a c6 4e 93 3b
       0.064541325 0.019609347 0.001062991 0.0044954745
0000a0 c4 55 9c 3d ab 1c 8c 3d f3 62 54 3b 17 fd 8a bd
       0.07633546 0.068414055 0.003240761 -0.06786554
0000b0 03 6d 81 bd 07 84 55 bb 8c 34 8d 3c f3 21 a5 3d
       -0.063196205 -0.0032579915 0.01723697 0.08063116
0000c0 9b 08 54 3d 5c fd 7c 3d fd 1d 92 3d 98 b5 d1 bc
       0.05176602 0.06176506 0.07134626 -0.025599286
0000d0 2c 1d 4f 3d 1f e5 8b bd 21 01 2e bd f9 b2 8e bb
       0.05056493 -0.06830811 -0.042481545 -0.0043548313
0000e0 08 e1 7f bc db f8 0b 3c 12 be b6 3d 93 1a 8c 3c
       -0.0156176165 0.0085432185 0.08922972 0.017102515
0000f0 1c dc 5d bd b5 cf 6d 3d 2c d1 6c 3d 9b e9 28 bd
       -0.05416499 0.058059413 0.05781667 -0.04123841
000100 6d 5d 84 3d 37 e9 86 3a 87 2b 08 3b e5 11 f3 3c
       0.06463132 0.0010292892 0.0020777897 0.029671619
000110 58 97 8d bc 59 1d 42 3d 73 9c af bd 24 d0 ab bd
       -0.01728408 0.04739127 -0.08574762 -0.08389309
000120 d4 3a 42 3d e5 2f 3d 3d 88 b3 ff 3c 42 9e 8c bd
       0.047419384 0.046188254 0.031213537 -0.06866123
000130 41 fd 08 3d 5e 40 29 bc d1 5e 9d bc 1a 29 06 bd
       0.033444647 -0.010330288 -0.019210251 -0.03275404
000140 00 4c 4e 3d d6 d7 55 3d 62 2c b2 3d aa e1 c1 bc
       0.050365448 0.05220779 0.086998716 -0.023667175
000150 73 a8 93 bd 56 05 81 3d 9f 1b 8c bc 1c 9e 16 bd
       -0.072098635 0.06299846 -0.017103015 -0.03677188
000160 84 53 bf 3d 6b 8f 43 3d 37 8a 43 3d 53 0a ae ba
       0.09342101 0.047744196 0.047739234 -0.0013278223
000170 83 b7 00 bd 48 a3 d4 bc 92 b9 22 3c 83 90 3b bd
       -0.03142501 -0.025956765 0.009931939 -0.045792114
000180 c2 d6 95 3d 26 a9 6c bd 13 d1 eb bc 73 f9 85 3c
       0.073163524 -0.0577785 -0.028786218 0.016354298
000190 94 b1 6c 3c 1a 51 0c bc f4 77 a2 3c 54 47 76 bd
       0.014446635 -0.008564258 0.019832589 -0.060126618
0001a0 be e6 65 3d 40 44 a7 3d b2 d8 60 bd ee 3d b8 bd
       0.056128256 0.081673145 -0.054894157 -0.08996187
0001b0 f6 20 50 3d 9f 8d 1f bb 8f 82 24 bd 31 fa 29 3d
       0.050812684 -0.0024345887 -0.040163573 0.041498367
0001c0 7d 76 5d bd e4 c1 a2 3d 1d cc 33 bd ba 70 eb 3c
       -0.054068077 0.07947138 -0.04389583 0.028740276
0001d0 f3 15 aa bc b5 02 a5 3b db 91 9c 38 df 1e 7d bd
       -0.02076242 0.005035723 7.4658274e-05 -0.06179702
0001e0 37 8c 93 bd 3a f3 34 3d 89 12 a2 3d ff d1 06 bd
       -0.07204478 0.04417727 0.079136916 -0.03291511
0001f0 5a d5 13 bd 68 f1 0d bd 37 c4 8e bb b1 77 8c bd
       -0.03609214 -0.03465405 -0.0043568867 -0.06858767
000200 e2 0c 0e bd fa 05 96 bb 4c f0 1a bc c3 b7 78 bc
       -0.034680255 -0.004578349 -0.009456705 -0.015180531
000210 1c 2d f8 bb 55 d2 63 bc b4 5b 5b bd 92 86 87 bd
       -0.007573737 -0.0139051275 -0.05355425 -0.06617464
000220 cf 43 53 bc ee cf a4 3d f7 34 b9 3b 11 34 81 3d
       -0.012894585 0.08047472 0.005652066 0.06308759
000230 36 48 39 bd 6e 74 54 3d 5b f5 41 bc 85 ed 1c 3c
       -0.04523488 0.05186885 -0.011838282 0.009578113
000240 a7 68 90 bd c6 d1 b2 3d e2 1d da 3c a3 51 53 bc
       -0.07051211 0.08731417 0.026625577 -0.012897882
000250 a7 14 91 3d 6e 79 50 3d fa f2 cf 3d c6 60 77 3a
       0.07084017 0.050897054 0.10153766 0.00094367226
000260 32 79 0f 3d 2b 00 23 bd 89 a8 3a 3d e3 93 95 bd
       0.03502769 -0.039795082 0.045570884 -0.07303598
000270 22 84 2b bd 6b 98 4e bd e0 a9 0f bd 31 82 9b bb
       -0.04187406 -0.050438326 -0.035074115 -0.0047457446
000280 46 02 b0 bd 38 b5 04 3d 84 bf a6 bd a3 a2 8b bd
       -0.085941836 0.032399386 -0.081419975 -0.0681813
000290 d8 de 7f 3d d7 15 2c bd 18 79 2a bd 34 30 99 bc
       0.06246838 -0.042013016 -0.04161939 -0.018699743
0002a0 43 b4 00 3c a0 42 18 bd 51 58 98 bd e4 5b 84 3d
       0.007855478 -0.037172914 -0.0743872 0.06462839
0002b0 c0 e6 ac 3d 28 8e 2c bd 26 70 a4 3d 90 ee 09 3d
       0.084424496 -0.04212776 0.08029203 0.033674777
0002c0 78 6d ea bc 5b 8b ab 3d b2 88 02 bc 76 b5 55 3d
       -0.028616652 0.08376189 -0.007967161 0.052175008
0002d0 51 52 ba bd d2 7c 8f bd 17 9d d5 bc 20 57 b9 bb
       -0.09097732 -0.070062295 -0.026075883 -0.005656138
0002e0 b4 7a 43 3d b7 6e 5e 3b 7a 86 48 3b e3 45 5b 3d
       0.04772444 0.0033940503 0.0030597732 0.053533446
0002f0 45 b6 7b bd 99 20 67 3d af d8 b8 bd 43 33 6f 3d
       -0.061453123 0.056427572 -0.09025704 0.058398496
000300 64 8d 7d bd 7f c6 3f 3d ae c7 c8 bb 21 78 6d bd
       -0.06190242 0.04682016 -0.0061273193 -0.057975892
000310 d6 f7 c1 3c b8 cb 8a 3d e0 a1 98 3c d8 39 10 3d
       0.023677748 0.067771375 0.018631876 0.035211414
000320 2d b1 5b 3d 89 8c 0b 3d da 2b 92 3c e0 00 91 3c
       0.053635765 0.03406957 0.017843176 0.017700613
000330 22 83 2a 3d dc a2 fe 3c ae a6 d6 bd 74 75 7f 3d
       0.041628964 0.031083517 -0.104810104 0.06236787
000340 9c b4 ac bc 09 f2 19 3d f0 94 1a 3b 34 2f b0 bd
       -0.021082215 0.03758434 0.0023587309 -0.08602753
000350 24 6b 8b 3c 22 c1 90 bd f9 46 a5 bd 4f 15 9f bd
       0.017018862 -0.07068087 -0.080701776 -0.07767736
000360 1c e8 56 3d ff 98 2a bd af 37 93 3c 4f 30 48 bd
       0.05246745 -0.041649815 0.017970888 -0.048874196
000370 8a 78 83 bd 34 60 7b 3d 43 74 72 3d 44 5c 82 3d
       -0.064194754 0.061371043 0.059192907 0.063652545
000380 40 73 a2 3d 6c 5d 1b 3d 84 6c 92 3b 59 cb e8 3c
       0.079321384 0.03793089 0.0044685025 0.028417276
000390 26 eb 70 3d 63 f6 3d 3d 0e 79 d0 bc 20 27 a2 3d
       0.058818005 0.04637755 -0.025448348 0.07917619
0003a0 dc e8 91 3b df 9b e5 3c 5f f8 5e bd 51 84 26 bd
       0.004452808 0.028028427 -0.054436084 -0.04065353
0003b0 6c 86 51 bc b1 e0 95 3d d6 e2 1e bd f6 6b b6 3c
       -0.012788396 0.07318247 -0.038790546 0.022268277
0003c0 b9 ee 21 bd 84 c0 b9 bd e0 cf 9a 3d c9 71 7c bd
       -0.039534304 -0.090699226 0.0755918 -0.06163195
0003d0 72 13 79 3d ef 80 b8 3d 06 fe 93 3d f1 9d 3b bd
       0.06080956 0.09008967 0.072261855 -0.04580492
0003e0 b2 b6 ca 3d da 23 8a 3d e6 99 a1 3d 5b c5 97 bd
       0.098981276 0.067451194 0.07890682 -0.074106894
0003f0 98 07 08 3d 36 68 86 bc 17 a2 bf 3c 7c 13 b7 3d
       0.033210367 -0.016407114 0.02339272 0.08939263

lstm.bias_ih_l1 f4 [512]
000000 52 13 6d bd ba 62 c9 3c a6 6e df 3b c0 14 bf bd
       -0.057879753 0.02458321 0.0068186102 -0.093301296
000010 eb f6 bd 3c 0d 30 a1 bd e7 a3 e4 3b 5e e2 9b 3c
       0.023189029 -0.07870493 0.0069775465 0.019028839
000020 d1 cd 8e 3d 3e 8b 99 bd 66 c8 a4 3d f7 44 67 bc
       0.0697285 -0.074972615 0.080460355 -0.014115564
000030 4d cf 10 bb 5f 81 7d 3d 8c e8 13 bd 27 f9 76 bd
       -0.0022096217 0.061890956 -0.036110446 -0.060296204
000040 e8 9f 91 bd 6c 60 da bd 58 ca ce 3c 25 0e 9d 3d
       -0.07110578 -0.10662922 0.02524297 0.076687135
000050 e6 ce 57 3d 9c 1a 7f bd 44 49 ab bc 83 4d 8f bd
       0.052687548 -0.062281236 -0.02090896 -0.06997206
000060 8a a1 1b bb c3 83 68 bd a5 b4 fb bc 46 1b 4b bc
       -0.0023747408 -0.056766283 -0.030725786 -0.012396639
000070 98 ab 66 3a db 05 fe 3c 43 05 bf bd db f4 49 3d
       0.0008799373 0.031008651 -0.093271755 0.049305778
000080 6e 27 ae bd ac dc 2c 3d 60 49 6c bd 1b 5a 42 3d
       -0.08503614 0.042202637 -0.057687163 0.047449213
000090 71 80 17 bd b0 eb 4a 39 ac 8d 97 bd 50 59 79 3d
       -0.036987726 0.00019352022 -0.07400069 0.06087619
0000a0 2c 61 7a 3a d8 e3 dc 3c 26 4d ae bd c6 80 80 3d
       0.0009551223 0.026964113 -0.08510809 0.062745616
0000b0 31 24 7a bd d3 c5 df 3c d7 71 82 3d 4d 6c 26 3c
       -0.06106967 0.02731601 0.063693695 0.010157657
0000c0 da 5f 80 bd 96 d0 1a bd 8f fe 83 bc 35 03 42 3b
       -0.06268282 -0.03779658 -0.016112594 0.0029603962
0000d0 5d 2c 6b bd 39 eb 19 bd 65 8e 85 3b 66 c7 aa bd
       -0.057415355 -0.03757784 0.0040758126 -0.083388135
0000e0 87 66 0d bd aa 3a 34 3d a6 9f 69 bd 81 4e 87 3c
       -0.034521606 0.04400126 -0.05703702 0.016516926
0000f0 20 8e aa 3d c4 ab 27 bc bd 43 45 bc 3a 21 f8 bc
       0.083278894 -0.010233823 -0.012040076 -0.030289281
000100 c7 5d 96 bc f6 b3 85 bd 84 d7 14 bd 0c 92 3a bd
       -0.018355263 -0.065284654 -0.036338344 -0.045549437
000110 fc 66 27 bd 88 26 3d 3c f9 07 4b 3d 1c 73 9c bc
       -0.040869698 0.011544831 0.04956815 -0.019097857
000120 1c 06 f2 bc 6f 9d 80 bd 3b d2 60 bc 0f 14 ab 3c
       -0.029543929 -0.06280028 -0.013721998 0.020883588
000130 f0 f0 c3 3b 57 88 f4 3c 56 d6 d4 bd 45 54 47 bd
       0.0059796497 0.029850168 -0.10392444 -0.04866435
000140 69 84 d0 ba 2c 7a 53 3d fe f0 58 3d dd 4f 9a bc
       -0.0015908602 0.051630184 0.052964203 -0.01883691
000150 f6 8a 41 3d 48 64 00 3d 56 76 26 3d 18 0c 5b 3d
       0.047251664 0.031345636 0.040640198 0.05347833
000160 1d 2d b6 bd 35 ea 58 3d 41 4d 8c bd 88 a3 0e bb
       -0.088953234 0.052957732 -0.068506725 -0.0021764953
000170 ad 6a 6f bd 55 be 14 bd 95 7c 22 bd aa 7f 0a bd
       -0.058451343 -0.036314327 -0.039669592 -0.033813156
000180 ef 98 88 bd 7d b0 b0 bd 3b 38 02 3d 7f 61 33 bc
       -0.06669795 -0.086274125 0.031791907 -0.010948538
000190 17 d6 cf bb 66 88 72 3d d5 ce 86 3c 26 1f 79 bd
       -0.00634266 0.05921211 0.016456047 -0.06082072
0001a0 d9 47 95 3d 1c d9 5b 3d 2f d6 6b bd b6 ff 28 bd
       0.072890945 0.05367385 -0.05757731 -0.04125949
0001b0 c7 35 a9 3d 2b 0d 8f 3c 7e 88 9d bd 4a b3 61 3c
       0.0826221 0.017462334 -0.076920494 0.013775656
0001c0 81 8d 1d 3d 70 83 35 3d ec 4b 4e bc 6f 32 a3 bd
       0.038465027 0.0443148 -0.012591343 -0.07968604
0001d0 39 f6 cd 3c b9 b2 a0 bd df 59 58 3d 74 c0 49 bd
       0.025141822 -0.07846589 0.052820083 -0.049255803
0001e0 e9 33 7b 3d a3 b6 83 3d 1a dd 83 bd 2d 72 2a bd
       0.061328802 0.064313196 -0.06438656 -0.041612793
0001f0 5f 7b 0e bd 00 3f f9 b9 f1 b6 81 3d e6 9f de 3c
       -0.034785625 -0.0004753992 0.063337214 0.027175855
000200 3d 92 ad 3d 8e c6 dc 3c 94 bb 11 3d ed 98 0a bb
       0.08475158 0.026950147 0.03557928 -0.002114828
000210 b9 0d 6f bd a2 63 54 bd 28 f5 ac 3c aa 13 4d 3d
       -0.058362696 -0.05185283 0.021112993 0.05006758
000220 03 94 61 bd a8 d7 49 bd 9b 13 97 3d e1 1e 50 3c
       -0.055072796 -0.04927793 0.07376786 0.012702675
000230 83 df 2b 3c 29 46 e3 3c d1 ca 0d 3d 22 af 9a 3c
       0.010490301 0.027743416 0.03461725 0.018882338
000240 b8 e4 4c 3c 30 68 64 3d 9b 8c b9 bd 9f 08 45 3d
       0.012505703 0.055763423 -0.090600215 0.048103925
000250 8c b1 80 bd 9a 87 20 bb cd fc 07 bd ac ec c3 bd
       -0.062838644 -0.0024494887 -0.033200074 -0.09566626
000260 33 23 eb bb 76 72 f6 3c 6c 57 df bd 9e 33 85 bd
       -0.007175827 0.030083876 -0.10905346 -0.06503986
000270 84 4d ae 3d 6f c6 48 bc 2c c0 db 3c 13 75 20 bd
       0.08510879 -0.0122543415 0.026825033 -0.03917415
000280 e5 ea 81 bd 73 7a 57 3d a0 0a 27 bd bf 33 5c bd
       -0.06343631 0.05260701 -0.040781617 -0.053760286
000290 14 c3 93 bd 1d 9d 22 3d 72 08 b8 3b 91 b0 60 bd
       -0.072149426 0.039700616 0.005616241 -0.054855887
0002a0 c9 ae 89 bd b8 2f ef 3b a5 11 af bd 8c 48 94 bc
       -0.06722791 0.0072993897 -0.08548287 -0.018101
0002b0 9e 7f ad 3b f2 b4 87 3d f8 de 3c 3d ec d6 9a 3c
       0.005294754 0.066263095 0.046111077 0.01890131
0002c0 54 e1 90 bd cd 98 42 3d 23 f5 4f 3c 09 53 85 3b
       -0.07074228 0.047509003 0.0126927225 0.0040687365
0002d0 a7 d0 a0 3d a7 aa 11 bd 25 1b d6 bc 52 52 12 bd
       0.07852297 -0.035563137 -0.02613599 -0.035723038
0002e0 05 6e 3d bd 5b 7a 72 bd 37 d6 25 3d 9b 51 02 3c
       -0.0462475 -0.05919872 0.040487494 0.007954027
0002f0 e6 bc 12 bc ec 9a 90 bc 63 b3 2f bd da 9a 6f bd
       -0.00895617 -0.017651998 -0.042895686 -0.058497287
000300 66 90 7a bd 4f c1 6d bd 42 09 c0 bd f2 bf 0d bd
       -0.061172865 -0.05804568 -0.09376766 -0.03460688
000310 e4 ff 9c 3c e8 c9 89 3b 1b 8a b9 bd 13 1e cc bd
       0.019164987 0.0042049773 -0.09059545 -0.09966674
000320 6c 01 3e 3c 07 cc 23 bd df 96 87 3c 5e 60 8a bc
       0.011597019 -0.039989498 0.016551433 -0.016891655
000330 f4 f0 14 3d 9d 17 07 bd b1 55 da bd e1 0e 91 3d
       0.036362603 -0.032981504 -0.106608756 0.07082916
000340 8c 86 2e bd 0b f0 b2 3c 5f 12 91 3d e6 37 22 3d
       -0.042608783 0.021842977 0.07083582 0.03960409
000350 c7 d0 48 bd 2d bd 95 3c ef 1e a1 bd 36 99 d7 3c
       -0.04902723 0.018278683 -0.07867228 0.026318174
000360 6d a6 a0 bd 19 f6 93 bd 48 f3 8a bc cb dc b3 bd
       -0.07844243 -0.07224674 -0.016961709 -0.08782347
000370 a2 cb ae bb c1 0a a5 3d 9f 97 7b 3c f5 45 ac 3d
       -0.0053343335 0.08058692 0.0153559735 0.08411781
000380 f4 76 b0 bb f2 6b 3f 3d 34 87 25 3c ca fc 25 3d
       -0.005385274 0.046733804 0.010103036 0.04052428
000390 94 90 19 3d 14 32 4c bd 69 06 68 bd a7 21 91 3d
       0.037491396 -0.049852446 -0.05664674 0.07086497
0003a0 94 ca af 3d 85 86 69 3d a1 ad a9 bc 0a 54 9b 3d
       0.085835606 0.057013053 -0.020712676 0.075843886
0003b0 3f 2f 7f 3d 8e ee 54 3d 02 c8 7f bc 14 f3 30 3d
       0.062300917 0.051985316 -0.01561165 0.043200567
0003c0 b5 22 14 bd 31 5b 5b 3d 3e e6 f7 bc 82 cf 82 3d
       -0.03616591 0.053553764 -0.030261155 0.06387235
0003d0 0d bf cb bc bb 57 94 bc 7e 8d aa bd 59 85 97 bd
       -0.024871374 -0.01810824 -0.08327769 -0.07398481
0003e0 fe 75 a3 3d 8a 08 01 3d 5a 03 c5 bb 1b a6 a6 3d
       0.079814896 0.031502284 -0.0060123624 0.08137151
0003f0 d9 81 a9 bd 91 54 56 bc 11 74 d2 3c f8 71 bd 3c
       -0.082767196 -0.013081686 0.02569011 0.023125634
