04_Models/weekly/GDEA/sentiment/best_model.pth (torch, 946869 bytes, 11 tensors)

lstm.weight_ih_l0 f4 [512, 64]
0	0x3e29873e	0.16555497
1	0x3dcfbd8a	0.101435736
2	0x3e0307d7	0.1279596
3	0x3d72cfc2	0.059280165
4	0x3d29078a	0.041266955
5	0xbd6765f5	-0.05649372
6	0xbd429549	-0.04750565
7	0x3be59493	0.007006237
8	0x3dc548b8	0.096330106
9	0x3e4fb301	0.20283128
10	0x3e196662	0.14980462
11	0x3df15fd6	0.117858574
12	0x3defc696	0.11707799
13	0x3d15f961	0.03661478
14	0x3d96726a	0.073460415
15	0x3e028f31	0.12749936
16	0xbd23fb9a	-0.040034868
17	0x3e47d669	0.19515385
18	0x3dd0847e	0.10181521
19	0x3d70ab42	0.058757074
20	0x3d544063	0.051819216
21	0x3de07a98	0.10960883
22	0x3da137f1	0.07871998
23	0x3d8ee487	0.06977182
24	0x3d8d16ac	0.0688909
25	0x3d8176f1	0.063215144
26	0x3deae9f6	0.11470406
27	0x3e8e56d3	0.27800617
28	0xbdaa5a7f	-0.08318042
29	0x3d011bfe	0.031520836
30	0x3e8d0ae3	0.27547368
31	0x3e7dde34	0.24791795
32	0x3e080023	0.13281302
33	0xbc389604	-0.011266235
34	0x3db60b49	0.08888871
35	0x3e55e6ed	0.20888872
36	0x3e86cf10	0.2632985
37	0x3e56cd55	0.20976765
38	0x3de31204	0.110874206
39	0x3d3952e5	0.04524507
40	0xbe147b48	-0.14500153
41	0x3d2b5e11	0.041837756
42	0x3dc445f1	0.09583653
43	0x3e50dad4	0.20395976
44	0x3e5a7381	0.21333124
45	0x3cbb9908	0.02290012
46	0x3e632579	0.22182263
47	0x3df5eea9	0.120084114
48	0x3e36db4c	0.17857093
49	0x3db41c7d	0.08794496
50	0x3e1c9d42	0.15294364
51	0x3e22d9db	0.15903418
52	0x3dc52948	0.096270144
53	0x3e8f6634	0.28007662
54	0x3e807b7a	0.25094205
55	0x3e55477c	0.2082805
56	0x3dca0ba5	0.09865502
57	0x3da9c3cc	0.082892984
58	0x3e0c47cd	0.13699265
59	0x3d298202	0.04138375
60	0x3e83ca8c	0.25740469
61	0x3d5a1af7	0.053248372
62	0x3e3237ff	0.17404173
63	0x3b035b47	0.002004342
64	0xbe065ec7	-0.13122092
65	0x3d27b1a9	0.040940914
66	0x3c378753	0.011201697
67	0xbdca72db	-0.09885188
68	0xbdd45a46	-0.10368781
69	0x3c7def98	0.015499018
70	0x3d1c9d76	0.038236104
71	0x3c534666	0.012895202
72	0xbce2f68e	-0.027705457
73	0xbd874454	-0.066048294
74	0xbd1f3e7e	-0.038877957
75	0xbc009612	-0.00784828
76	0x3d3b1e21	0.04568303
77	0xbd143f4b	-0.036193173
78	0xbde7e438	-0.11322826
79	0xbde12e6d	-0.10995183
80	0xbdd7ad17	-0.10531061
81	0x3bea0243	0.007141383
82	0xbdc134b4	-0.094338804
83	0x3b8401d2	0.0040285373
84	0xbd831493	-0.064004086
85	0x3d9390df	0.07205366
86	0xbd929a53	-0.07158341
87	0x3cc0e842	0.02354825
88	0x3ca8e28e	0.020615842
89	0x3b8ca81f	0.0042925025
90	0xbc4520e4	-0.0120317675
91	0xbca81ff0	-0.020523041
92	0x3d0bf93b	0.03417323
93	0xbdb5ab95	-0.08870617
94	0xbd084fcb	-0.03327922
95	0xbdd686b9	-0.10474915
96	0xbdbde26c	-0.09271702
97	0x3dc107e8	0.09425336
98	0xbd087714	-0.033316687
99	0x3d1fa307	0.038973834
100	0xbdd3944b	-0.10331019
101	0xbc46e064	-0.01213846
102	0xbd12cc4c	-0.035839364
103	0xbd2fe271	-0.04294056
104	0x3de5dfaf	0.11224305
105	0xbd6d574f	-0.057944592
106	0x3b65b64a	0.003505128
107	0x3c68ce5c	0.014209356
108	0xbddab8be	-0.10679768
109	0x3d16b102	0.0367899
110	0x3ca2f827	0.019893719
111	0x3d360cf2	0.04444594
112	0x3da94212	0.08264555
113	0x3b519742	0.0031981026
114	0x3d17f60a	0.037099876
115	0xbde01000	-0.10940552
116	0xbdd95908	-0.106126845
117	0xbd48072e	-0.048834972
118	0xbd4dd263	-0.05024947
119	0xbcd721fd	-0.026261324
120	0xbde289c0	-0.1106143
121	0xbdb82fdd	-0.08993504
122	0x3d4b25ee	0.04959672
123	0xbca6a630	-0.020342916
124	0xbde64f8c	-0.11245641
125	0xbd808674	-0.06275645
126	0xbdbcd623	-0.09220531
127	0xbdd1a931	-0.10237349
128	0x3da75228	0.08169967
129	0xbd022f85	-0.0317836
130	0xbe1ab606	-0.15108499
131	0x3d027aad	0.031855274
132	0xbcc3ec34	-0.023916341
133	0xbd93b900	-0.0721302
134	0xbca0f941	-0.019650104
135	0xbcb45c9f	-0.022016821
136	0xbdd84f1c	-0.10561964
137	0x3d833a23	0.06407573
138	0xbc975d47	-0.018477095
139	0xbe13357d	-0.14375873
140	0x3da24183	0.079226516
141	0x3cca8198	0.024719998
142	0xbdd0b8cb	-0.101914965
143	0x3c4687ff	0.012117385
144	0x3d58b5f8	0.052907914
145	0xbd64245c	-0.055698738
146	0xbdf7ee11	-0.121059544
147	0x3ce906ed	0.028445685
148	0x3ce9e6d4	0.02855245
149	0x3d15fa4e	0.036615662
150	0xbc1b416d	-0.009476048
151	0x3d24da76	0.040247403
152	0x3cb8d946	0.022564542
153	0x3d5d574c	0.05403833
154	0x3e0d3d0a	0.13792816
155	0x3e0a4ada	0.13505116
156	0x3cc81ec5	0.024428735
157	0x3d67403b	0.05645774
158	0x3d8ec7be	0.069716915
159	0x3dc66a16	0.09688203
160	0xbd4d086a	-0.050056852
161	0xbdb964ad	-0.090524055
162	0x3c75381d	0.014966992
163	0x3d41a6a6	0.04727807
164	0x3b8cfd84	0.0043026824
165	0xbd5f120b	-0.054460566
166	0xbc5ec658	-0.0135970935
167	0xbcbaa61f	-0.02278429
168	0xbc1ef732	-0.009702491
169	0xbdaf4c96	-0.085595295
170	0x3d5d1884	0.053978458
171	0xb9fbff52	-0.0004806468
172	0x3c1d6b13	0.009608048
173	0xbdac8111	-0.08423055
174	0x3d90cfe6	0.070709035
175	0xbd4ea901	-0.050454143
176	0xbd16b644	-0.036794916
177	0xbd39fa64	-0.045404807
178	0x3c6a720a	0.014309416
179	0xbda6a013	-0.081360005
180	0xbc3a1997	-0.01135864
181	0x3cc9351f	0.024561463
182	0xbd0b8efb	-0.034071904
183	0x3c2609f1	0.010134206
184	0x3d08b4e4	0.033375636
185	0x3d13083b	0.03589652
186	0x3d256117	0.040375795
187	0xbcd72274	-0.026261546
188	0x3be7b6fe	0.007071375
189	0x3d074a8f	0.03303009
190	0x3d8158d3	0.0631577
191	0xbc8b58b7	-0.017010076
192	0xbb09427f	-0.0020944176
193	0xbc54d9ea	-0.012991408
194	0xbd8f913c	-0.07010123
195	0xbe628c16	-0.22123751
196	0xbca802d5	-0.020509163
197	0x3c6bf85a	0.014402473
198	0x3d5c5317	0.05379018
199	0x3d9c1a7a	0.076222375
200	0x3cbca330	0.023027033
201	0x3d21c47d	0.039494026
202	0x3d99a997	0.0750305
203	0xbdba3d9c	-0.09093782
204	0x3d3f0645	0.04663684
205	0x3da6fb1e	0.081533656
206	0x3cd3abb9	0.02583872
207	0xbdd9ccd5	-0.10634772
208	0x3c9da24f	0.019242434
209	0x3de5c2e8	0.11218816
210	0x3b5c83b0	0.0033647828
211	0xbd0e6464	-0.03476371
212	0xbd83fb46	-0.06444411
213	0x3c7f1180	0.015568137
214	0xbdf05045	-0.1173406
215	0x3d8378d1	0.06419528
216	0xbd27f5d7	-0.041005936
217	0xbce339ef	-0.027737586
218	0x3d991689	0.07475001
219	0xbcdcda0c	-0.026959442
220	0xbd6f0e28	-0.05836311
221	0x3e1c9554	0.15291339
222	0x3d971171	0.073763736
223	0x3db3c78a	0.087782934
224	0x3cf3f069	0.029777722
225	0xbd951e9f	-0.07281231
226	0x3da77012	0.081756726
227	0xbd5c9e44	-0.05386187
228	0x3d14cf46	0.036330484
229	0x3dd713d4	0.10501829
230	0x3d583940	0.052788973
231	0xbd04cb99	-0.03242073
232	0xbcb2cf66	-0.02182741
233	0x3e0ebe1e	0.13939711
234	0xbdb3b952	-0.087755814
235	0x3d010eed	0.031508375
236	0xbccf0a6e	-0.025273528
237	0xbdb2fe7c	-0.08739945
238	0x3d75060b	0.059820216
239	0xb9b7b77e	-0.00035041192
240	0x3d173d96	0.036923967
241	0x3d9edd3a	0.07757039
242	0x3ce5e24b	0.028062006
243	0x3d09525e	0.033525817
244	0x3d785de1	0.060636405
245	0x3df3bed3	0.11901631
246	0x3dce3340	0.10068369
247	0x3dd9ed12	0.10640921
248	0xbd20c807	-0.03925326
249	0x3df4c3b3	0.11951389
250	0x3d8f6693	0.07001986
251	0xbe0e2c05	-0.1388398
252	0xbd643f89	-0.055724654
253	0x3d92affa	0.07162471
254	0x3cb856a1	0.022502245
255	0x3d9a5539	0.07535786

lstm.weight_hh_l0 f4 [512, 128]
0	0xbe073bf9	-0.13206472
1	0xbe25b31a	-0.16181603
2	0xbe281cea	-0.1641728
3	0x3d728f9e	0.059218995
4	0x3c2f141a	0.010685945
5	0x3dc9d700	0.09855461
6	0xbe602512	-0.21889141
7	0x3c58a37f	0.013222574
8	0xbb07f8a9	-0.0020747578
9	0xbcc137cb	-0.023586174
10	0xbe03bb15	-0.12864335
11	0xbe2cf71a	-0.16891137
12	0x3e06e888	0.13174641
13	0xbc8a5167	-0.016884519
14	0xbb903149	-0.0044004065
15	0x3ca9a370	0.020707816
16	0x3db55303	0.08853724
17	0xbc90187b	-0.017589798
18	0x3dd6a099	0.1047985
19	0xbb92cb86	-0.0044798283
20	0xbd2862ee	-0.04110997
21	0xbd43d8c0	-0.04781413
22	0x3d625d55	0.05526479
23	0xbd133607	-0.035940196
24	0xbcc89e24	-0.02448947
25	0xbdfeac8a	-0.12435253
26	0xbe3ceb46	-0.18449125
27	0x3dc87370	0.09787643
28	0xbc867dac	-0.016417347
29	0xbe065d84	-0.13121611
30	0x3d1392f2	0.03602881
31	0xbc16e914	-0.009210844
32	0x3cb09c5c	0.021558933
33	0x3e2d4103	0.16919331
34	0xbdbe3fb3	-0.092894934
35	0xbdaa0d44	-0.083033115
36	0x3e115462	0.14192346
37	0x3e2501e0	0.16113997
38	0x3cb83115	0.022484342
39	0xbdbb085b	-0.09132453
40	0xbd706550	-0.05869037
41	0xbdf51be7	-0.119682126
42	0xbda22451	-0.07917083
43	0xbd26537d	-0.040606964
44	0x3d82c871	0.063858874
45	0x3d5eace5	0.054364104
46	0xbdcd91fa	-0.100376084
47	0x3e4577d0	0.19283986
48	0xbd6e0f54	-0.058120087
49	0x3dfd713e	0.12375115
50	0x3cb0df12	0.021590743
51	0xbd5f99a6	-0.05458989
52	0xbdbf98f0	-0.093553424
53	0x3d72ee75	0.05930944
54	0xbda3b546	-0.079935595
55	0xbde7ff62	-0.11328007
56	0xbc73cc20	-0.01488021
57	0xbd9f2978	-0.077715814
58	0xbe236a5e	-0.15958545
59	0x3dfb98ff	0.12285041
60	0x3e2dca0b	0.16971605
61	0x3d2a63bf	0.04159903
62	0x3e11f0b3	0.14251976
63	0xbd692fa0	-0.056930184
64	0xbd247a76	-0.04015585
65	0x3c73c737	0.0148790395
66	0xbd610e36	-0.054945193
67	0xbdc2d155	-0.09512583
68	0x3cab02d5	0.020875374
69	0xbc720ca2	-0.01477352
70	0x3cdc83a9	0.02691825
71	0x3c5c2824	0.013437305
72	0x3dc27cc6	0.09496455
73	0xbdb97019	-0.09054584
74	0xbd3fffe8	-0.04687491
75	0xbdb0735a	-0.086157516
76	0xbd930210	-0.07178128
77	0xbc8b943e	-0.01703846
78	0xbdc4080d	-0.09571848
79	0x3e46741a	0.19380227
80	0x3e1205d6	0.14260039
81	0x3e1647dd	0.14675851
82	0x3d11fe6c	0.035643026
83	0xbe066ba5	-0.13127
84	0xbd6c09b0	-0.057626426
85	0xbdc9b443	-0.09848835
86	0x3a8b22c4	0.0010615219
87	0xbdc8a30e	-0.09796725
88	0xbd36d7c6	-0.04463937
89	0xbd4ce87d	-0.050026406
90	0x3e614f54	0.22002918
91	0xbba0d302	-0.0049079666
92	0xbd95175f	-0.07279848
93	0x3e4eeec9	0.20208277
94	0x3e6056a1	0.21908046
95	0xbddd91f7	-0.10818856
96	0x3e0d5b61	0.1380439
97	0xbe4a8a0c	-0.19779223
98	0x3d469741	0.04848409
99	0x3ded09b2	0.11574115
100	0x3da19efd	0.07891653
101	0xbcf4c642	-0.029879693
102	0x3d7dfb80	0.062007427
103	0x3e53c430	0.20680308
104	0x3e02874e	0.12746927
105	0xbe53ebfc	-0.2069549
106	0x3e2a6287	0.16639148
107	0xbd110ba2	-0.035411485
108	0x3e681a5e	0.22666308
109	0xbd945be5	-0.0724409
110	0x3e022f78	0.1271342
111	0x3d8b1e25	0.06792859
112	0xbc62128f	-0.01379837
113	0x3e313310	0.17304635
114	0x3d2bb539	0.041920874
115	0xbd1271bb	-0.035752993
116	0x3d6bfb64	0.05761279
117	0xbd0a474b	-0.033759397
118	0x3e135500	0.14387894
119	0x3cdcc732	0.026950452
120	0xbdf0cec0	-0.117581844
121	0x3ce95a8f	0.028485565
122	0xbdb8fde8	-0.09032804
123	0x3dd6bba0	0.104850054
124	0xbd8c3842	-0.06846668
125	0xbd697fb3	-0.05700655
126	0xbde89521	-0.11356569
127	0xbd109217	-0.035295572
128	0xbdc8d731	-0.098066695
129	0x3d78d72a	0.06075207
130	0xbcc68a31	-0.024235817
131	0xbd89bfc1	-0.06726027
132	0xbd7fb21e	-0.062425725
133	0x3c6d14d3	0.014470297
134	0x3d01c6fe	0.031683914
135	0x3df7e086	0.12103371
136	0xbde2e33e	-0.11078499
137	0x3da60d6a	0.08108027
138	0x3dcdb5b5	0.100444235
139	0x3d42c629	0.04755226
140	0xbde97f47	-0.11401229
141	0x3c94bea0	0.018157303
142	0xbd821975	-0.06352512
143	0xbb2a0418	-0.0025942381
144	0xbd110412	-0.035404272
145	0x3ce227bd	0.02760684
146	0xbd6f36a5	-0.058401722
147	0x3b8d8b24	0.0043195654
148	0xbd9ac660	-0.07557368
149	0xbd257f9c	-0.0404049
150	0xbd02f11b	-0.031968217
151	0xbd763765	-0.060111422
152	0xbc42ba77	-0.011885277
153	0xbd3a489d	-0.045479406
154	0x3dab9a10	0.083789945
155	0xbe17b9b8	-0.1481694
156	0xbdabe69c	-0.083935946
157	0x3d0495d2	0.032369442
158	0x3c97676d	0.018481934
159	0xbd070e5a	-0.03297267
160	0xbce96884	-0.02849222
161	0xbd06d428	-0.03291717
162	0xbc3d9cb8	-0.011573009
163	0x3d9108b2	0.070817366
164	0xbe0dbf81	-0.13842584
165	0x3d6ba67a	0.05753181
166	0x3cd90362	0.02649087
167	0xbd0f9ebb	-0.035063487
168	0x3deeecba	0.11666246
169	0x3da9c184	0.08288863
170	0x3de4d7af	0.11173951
171	0xbd283606	-0.041067146
172	0x3c7ec972	0.015550958
173	0xbd88afae	-0.06674133
174	0x3da83138	0.08212513
175	0xbd0b62d7	-0.034029808
176	0x3c775782	0.015096547
177	0x3d7bf642	0.061514147
178	0x3d6e7984	0.058221355
179	0x3db9fa39	0.09080929
180	0x3d87bc0e	0.066276655
181	0x3d07ecfe	0.033184998
182	0x3d10ef2a	0.035384335
183	0xbd5cec30	-0.053936183
184	0x3d8a7342	0.06760265
185	0xbdb3d4cd	-0.08780823
186	0x3dc7c60f	0.097545736
187	0xbdc2ef44	-0.095182925
188	0xbdb7ba1f	-0.08971047
189	0x3da38987	0.07985216
190	0xbdc7707c	-0.097382516
191	0x3d17d58a	0.03706888
192	0x3c116d3f	0.008876144
193	0xbd17a61a	-0.03702364
194	0xbb585ead	-0.0033015416
195	0xbda73028	-0.08163482
196	0x3d1d4ae8	0.038401514
197	0x3c8f7c16	0.017515223
198	0x3d49366b	0.049124163
199	0xbd259704	-0.040427223
200	0x3d1f3173	0.038865518
201	0xbd7164a6	-0.058933876
202	0x3d44eca6	0.048077248
203	0xbd4a8aeb	-0.04944889
204	0x3d5ec472	0.054386564
205	0x3c0a2ad5	0.0084330635
206	0x3e0fe190	0.14050889
207	0xbdac5e15	-0.08416382
208	0xbd886b3d	-0.06661079
209	0xbd19ae26	-0.037519597
210	0xbd6ebdd3	-0.0582865
211	0x3d797e46	0.06091144
212	0x3ca0dc34	0.019636251
213	0x3bdddeb8	0.006770935
214	0xbc2a618a	-0.010399232
215	0x3bbd2c59	0.005773109
216	0x3d0d23a2	0.03445781
217	0xbd14e12e	-0.03634756
218	0x3d408a11	0.04700667
219	0x3b83339f	0.0040039564
220	0xbc2939f7	-0.010328761
221	0xbd43ceeb	-0.047804754
222	0x3d415c57	0.047207203
223	0x3d415839	0.047203276
224	0x3d3c8bd9	0.046031807
225	0x3dd7d99f	0.10539555
226	0x3d6424ce	0.055699162
227	0xbc17ba91	-0.0092607895
228	0xbbb56ccd	-0.0055366517
229	0xbd2cacf8	-0.042157143
230	0x3ce5bb18	0.028043315
231	0xbc67a61a	-0.014138723
232	0xbd8958e2	-0.06706406
233	0x3dd2e166	0.102968976
234	0x3d243afb	0.04009531
235	0xbc681583	-0.014165285
236	0x3c2de58c	0.01061381
237	0xbd7db10b	-0.06193642
238	0x3d02e47b	0.031956177
239	0xbd4a37f5	-0.04936977
240	0xbd6da640	-0.058019876
241	0xbd3a5436	-0.045490466
242	0x3d55f3a8	0.05223432
243	0x3d1c62b7	0.03818008
244	0xbb879979	-0.0041381684
245	0x3d8300ea	0.06396659
246	0xbd0d3d5a	-0.034482338
247	0xbc8dd1d4	-0.017311968
248	0x3cd37f47	0.025817527
249	0xbc171765	-0.009221886
250	0xbc96a976	-0.018391352
251	0x3d23cbbd	0.03998922
252	0xbda99780	-0.082808495
253	0x3d200fad	0.03907745
254	0x3b1dbee4	0.0024070079
255	0xbd688eed	-0.05677693

lstm.bias_ih_l0 f4 [512]
0	0x3e04cee4	0.12969548
1	0x3d7074eb	0.05870525
2	0x3cc64658	0.024203464
3	0xbc6e82e1	-0.014557571
4	0xbd6e6f83	-0.058211815
5	0xbbdb05cb	-0.00668404
6	0x3da22807	0.07917791
7	0xbb339e37	-0.0027407536
8	0x3db73274	0.0894517
9	0x3e24c075	0.16089042
10	0x3e46338d	0.19355603
11	0x3da9eb04	0.08296779
12	0x3dd180f4	0.10229674
13	0xbdc771f1	-0.097385295
14	0x3d5214d8	0.05128941
15	0xbca873c3	-0.020563012
16	0xbd66d717	-0.05635747
17	0x3b21b4fe	0.002467453
18	0x3d88747c	0.06662843
19	0xbdd60496	-0.104500934
20	0x3e107b8b	0.14109628
21	0x3db8b309	0.09018523
22	0x3b234e5e	0.0024918537
23	0x3d924390	0.07141793
24	0xbd4dc956	-0.050240837
25	0xbd53fc77	-0.05175444
26	0x3b11d27b	0.00222507
27	0x3df6a958	0.120440185
28	0x3c254e5e	0.010089485
29	0x3d00d14a	0.031449594
30	0xbb9c24c8	-0.004765127
31	0xbd53df31	-0.051726524
32	0xbdaaf60b	-0.0834771
33	0x3d35018c	0.04419093
34	0x3e0b2470	0.13588119
35	0x3d9cb44c	0.076515764
36	0x3dbe716e	0.09298979
37	0xbba8b43d	-0.005148439
38	0x3dbb07df	0.09132361
39	0x3e042d03	0.12907796
40	0x3e316964	0.1732536
41	0x3e74a97b	0.23892777
42	0x3d349d02	0.044095047
43	0xbd3a1650	-0.045431435
44	0x3c8a415d	0.01687687
45	0x3dc5f051	0.09664977
46	0x3d9ee0d5	0.07757727
47	0x3d8f5ab6	0.069997236
48	0x3dace91c	0.084428996
49	0xbd9eec9b	-0.07759973
50	0xbb38e650	-0.0028213449
51	0xbb4db29d	-0.003138698
52	0x3c2b18d7	0.010442934
53	0xbcd447da	-0.025913168
54	0x3db74f5f	0.08950686
55	0xbd9253f8	-0.07144922
56	0xbbe6993e	-0.007037311
57	0x3d4fc991	0.050729338
58	0x3d82d7ab	0.06388792
59	0x3cfa1c2e	0.030531015
60	0xbd086b42	-0.033305414
61	0x3db54e22	0.08852793
62	0x3db7144b	0.089394175
63	0xbd4b3e83	-0.049620163
64	0x3cac069b	0.020999243
65	0x3d6b4df2	0.05744738
66	0xbcf753ca	-0.03019132
67	0xbb9c9c60	-0.0047793835
68	0x3da58b42	0.08083202
69	0x3a5f750a	0.0008524215
70	0x3c57ec07	0.013178832
71	0xbc8e49c6	-0.017369162
72	0xb9859287	-0.00025476908
73	0xbd935ee1	-0.07195831
74	0x3ca31751	0.019908579
75	0xbd433afc	-0.047663674
76	0x3cdd25c3	0.026995545
77	0x3d24679a	0.040137865
78	0x3cc4d233	0.024026012
79	0x3dd3a323	0.1033385
80	0x3d32a3bd	0.043613184
81	0x3e35604b	0.17712514
82	0xbda44043	-0.080200695
83	0x3cb84657	0.022494478
84	0x3d68d7fd	0.056846607
85	0xbd531fb8	-0.05154392
86	0x3d9269c3	0.07149079
87	0xbc8f1b87	-0.01746918
88	0x3a9696bf	0.0011489018
89	0x3dfe4f69	0.1241749
90	0xbc7c3f6a	-0.0153959785
91	0xbc1ce1d2	-0.009575324
92	0xbd045ea7	-0.03231683
93	0x3c94e0d3	0.01817361
94	0xbd4bd40a	-0.049762763
95	0x3da682f5	0.08130447
96	0xba0219ca	-0.00049629493
97	0x3c03a5e1	0.008035154
98	0x3d68e945	0.05686309
99	0x3d7af669	0.06127015
100	0x3dac4140	0.08410883
101	0xbd095902	-0.03353215
102	0xbd40108c	-0.04689078
103	0xbdc25f12	-0.094907895
104	0x3ca4cc10	0.020116836
105	0xbd3e3dd5	-0.046445686
106	0x3c984689	0.018588321
107	0xbcd9757b	-0.026545277
108	0x3d0e2227	0.03470054
109	0xbdac061a	-0.08399601
110	0x3d8039fe	0.06261061
111	0x3db6f324	0.08933094
112	0x3d8b837d	0.06812189
113	0xbddabef7	-0.10680955
114	0x3ceba2ed	0.028764213
115	0x3c9d33e7	0.019189788
116	0x3db840ba	0.089967206
117	0x3c32ace0	0.010905474
118	0xbd2a91c7	-0.04164293
119	0xbd4d9134	-0.050187305
120	0x3d2d0af0	0.04224676
121	0x3d743801	0.059623722
122	0x3e016b6b	0.12638633
123	0x3d4e3273	0.05034108
124	0xbb816c4b	-0.003949677
125	0xbd118e6b	-0.03553621
126	0xbc34d08f	-0.011036052
127	0x3cc68fe6	0.024238538
128	0xbe16216e	-0.1466119
129	0x3d3c5128	0.045975834
130	0xbd6f7953	-0.058465313
131	0x3bb942f4	0.0056537334
132	0xbdbe7a4c	-0.0930067
133	0xbbd433a9	-0.006475885
134	0xbdacd304	-0.084386855
135	0xbcf89dd0	-0.030348688
136	0xbd0a9818	-0.033836454
137	0xbd986a00	-0.07442093
138	0xbe1298a7	-0.14316045
139	0x3d761eca	0.060087956
140	0x3d715ea2	0.05892814
141	0xbda176ae	-0.078839645
142	0x3cbbf2d8	0.022942945
143	0x3dc8761f	0.09788155
144	0x3d3e33b9	0.046436045
145	0x3d2f1fd8	0.042754978
146	0xbd828cfa	-0.063745454
147	0x3d0c8bf8	0.034313172
148	0xbd62c94c	-0.055367753
149	0x3d2f529a	0.042803384
150	0xbd7d97c2	-0.061912306
151	0xbd836fc4	-0.06417802
152	0xbd3bbd71	-0.045834962
153	0x3d56952e	0.052388363
154	0xbd8826b3	-0.06648006
155	0xbdc4b924	-0.09605625
156	0x3b77138c	0.003770086
157	0x3ced4175	0.028961876
158	0x3cdd69d3	0.027028
159	0xbdb3601d	-0.087585665
160	0x38c3e0b0	9.340176e-05
161	0x3d38a12f	0.04507559
162	0xbd31d7aa	-0.043418564
163	0x3d0245ac	0.031804726
164	0xbcd6670e	-0.026172187
165	0xbd85331d	-0.0650389
166	0xbd686670	-0.056738317
167	0xbcd14728	-0.025546625
168	0xbc8877ab	-0.016658625
169	0xbe146741	-0.14492513
170	0x3d359b39	0.044337485
171	0xbd8e54e5	-0.06949786
172	0x3d0d7f2a	0.0345451
173	0x3d771794	0.06032522
174	0xbc76e3e9	-0.015068986
175	0xbd6ec840	-0.058296442
176	0x3cbaea83	0.022816902
177	0xbcd02593	-0.025408542
178	0xbd8414f2	-0.064493075
179	0xbd2acf11	-0.04170138
180	0xb96c014c	-0.00022507197
181	0xbd96aced	-0.07357202
182	0xbd59f117	-0.053208437
183	0x3ceb6884	0.02873636
184	0x3d80cef8	0.06289476
185	0x3d564be3	0.052318465
186	0xbd7441a6	-0.05963292
187	0xbdcd84f4	-0.100351244
188	0xbd4230e6	-0.047409914
189	0xbe12256a	-0.14272085
190	0x3b09cc98	0.0021026488
191	0xbd720f4c	-0.05909662
192	0xbdf640bf	-0.12024068
193	0xbdbd86eb	-0.09254249
194	0xbbee77a0	-0.007277444
195	0xbdcee03c	-0.10101363
196	0xbe063889	-0.13107504
197	0xbd9ce873	-0.07661524
198	0xbd344a3d	-0.04401611
199	0x3d289543	0.041157972
200	0xbdc582fd	-0.09644125
201	0x3d075892	0.03304345
202	0xbcb8a8f5	-0.022541502
203	0xbd9544f3	-0.07288542
204	0xbd75e192	-0.060029574
205	0xbddd7788	-0.108138144
206	0xbd7c41f2	-0.061586328
207	0x3bb41a65	0.0054963105
208	0x3cfc95e8	0.0308332
209	0xbe227fa9	-0.15869011
210	0x3d83eee3	0.064420484
211	0xbbb838bb	-0.005621997
212	0xbda58002	-0.08081056
213	0xbbb6a2b8	-0.005573597
214	0xbc901415	-0.0175877
215	0x3d2cd022	0.04219068
216	0x3d1d64c3	0.038426172
217	0xbd797d95	-0.06091078
218	0xbc0e705f	-0.008693784
219	0xbc954fde	-0.01822656
220	0x3d733a01	0.05938149
221	0x3d620fc9	0.055190835
222	0xbe384d34	-0.179982
223	0xbdc40ec0	-0.09573126
224	0xbd95f714	-0.07322517
225	0xbd14a9e3	-0.03629483
226	0xbdfd2d9a	-0.123622134
227	0xbc9e49c2	-0.01932228
228	0xbcfd9c8b	-0.030958435
229	0xbc1f389d	-0.0097180875
230	0x3c4d5316	0.012532016
231	0xbdb92f75	-0.09042255
232	0x3d86ae6e	0.065762386
233	0xbdc7a50d	-0.09748278
234	0xbe000998	-0.1250366
235	0x3c7fb86a	0.015607933
236	0x3d2fc636	0.042913638
237	0xbde4a888	-0.11164957
238	0x3dea893a	0.11451955
239	0xbcf76ed8	-0.030204222
240	0x3d06d2bd	0.03291582
241	0xbd4c6516	-0.04990109
242	0x3ca74c9c	0.020422272
243	0xbd6ea7ad	-0.058265377
244	0x3c1bd3ec	0.009510975
245	0xbd8e512b	-0.06949075
246	0x3d256cf9	0.040387128
247	0xbdcc0551	-0.099619515
248	0xbdcd6472	-0.10028924
249	0x3d1bbe47	0.03802326
250	0xbdd8e7bc	-0.10591075
251	0xbd893aa2	-0.067006364
252	0xbc8e8cd8	-0.017401144
253	0x3db7914e	0.089632615
254	0x3a59dfc4	0.0008311237
255	0x3db89524	0.09012821

lstm.bias_hh_l0 f4 [512]
0	0x3e0c312f	0.13690637
1	0x3aefdb10	0.0018299539
2	0xbd332958	-0.0437406
3	0x3ce8d8eb	0.028423747
4	0xbd2d2ef5	-0.04228111
5	0x3d1a8234	0.037721828
6	0x3dd1e347	0.10248428
7	0x3d991dcd	0.07476387
8	0x3cfbc078	0.030731425
9	0x3e04af32	0.12957457
10	0x3e3e147b	0.185625
11	0xbd1fbad5	-0.038996536
12	0x3c7d0f2d	0.015445513
13	0xbd2aa876	-0.041664563
14	0xbdcba25f	-0.09943079
15	0xbd21daf4	-0.03951545
16	0xbc85013f	-0.016235946
17	0x3ca5153c	0.020151727
18	0x3dbec58f	0.09315025
19	0xbc015597	-0.007893941
20	0x3d5bdee9	0.05367938
21	0x3db1758c	0.086649984
22	0x3d68a2d5	0.056795914
23	0x3d07f490	0.033192217
24	0xbd810238	-0.06299251
25	0x3c0a7524	0.00845078
26	0x3d69a05c	0.057037696
27	0xbd053bbf	-0.03252768
28	0xbdb8e250	-0.09027541
29	0x3d08f38e	0.033435397
30	0x3c05d1de	0.008167712
31	0xbcf4047b	-0.029787293
32	0x3d5ee98e	0.054421954
33	0x3b0f35fb	0.0021852243
34	0x3e1460e2	0.14490083
35	0x3cacd590	0.021097928
36	0x3c9b231f	0.018937645
37	0x3d2eb3e6	0.042652033
38	0x3db0983c	0.086227864
39	0x3d14aa06	0.03629496
40	0x3ce96b02	0.028493408
41	0x3e30e0cd	0.17273255
42	0xbd3fba7d	-0.04680871
43	0xbd4dc65c	-0.050238
44	0xbdd7ae9f	-0.10531353
45	0x3dbb187d	0.0913553
46	0x3ca80f9a	0.020515252
47	0x3d443f51	0.047911946
48	0x3c460460	0.012086004
49	0x3d85f1f1	0.06540287
50	0xbd91afff	-0.07113647
51	0x3c80d09d	0.015724475
52	0x3d7565ff	0.059911724
53	0xbc611841	-0.013738693
54	0xbd8d447f	-0.0689783
55	0xbd9cb8d2	-0.07652439
56	0x3d9f5ee4	0.07781771
57	0x3bd5d360	0.006525442
58	0xbccdde1d	-0.025130326
59	0xbdab153a	-0.08353658
60	0x3db4a4d2	0.088204995
61	0x3ddc2f42	0.10751201
62	0xbb1e2e1f	-0.0024136377
63	0xbd3629bd	-0.0444734
64	0xbd97e598	-0.074168384
65	0x3df39cad	0.11895118
66	0xbd527dcc	-0.0513895
67	0xbd730a6e	-0.05933612
68	0x3ca6d8b9	0.020367013
69	0xbd5a7681	-0.05333567
70	0xbd423a78	-0.04741904
71	0x3ded1a90	0.11577332
72	0xbd87a1df	-0.06622671
73	0x3d93a106	0.07208447
74	0xbc9e7ee5	-0.019347617
75	0x3d752a50	0.059854805
76	0x3d999e77	0.07500928
77	0x3cf7cf2c	0.030250154
78	0xbc825807	-0.015911115
79	0xbcd971e6	-0.026543569
80	0xbd88ca40	-0.06679201
81	0x3dff009b	0.12451287
82	0x3cd48602	0.025942806
83	0xbcbc2206	-0.022965442
84	0x3d9548f1	0.07289303
85	0xbced0c1b	-0.028936436
86	0x3e40f02e	0.18841621
87	0x3d06ff50	0.03295833
88	0x3dd9df7b	0.10638329
89	0xbd2668af	-0.040627178
90	0x3d906f28	0.07052451
91	0x3cff21cc	0.031144045
92	0xbd1b8f8e	-0.0379787
93	0xbd2e1070	-0.042496145
94	0xbdbb74c2	-0.09153129
95	0x3d9c1d0b	0.07622727
96	0x3bcb64f7	0.0062071043
97	0x3cc1ca3d	0.023656005
98	0x3d878a71	0.066182025
99	0x3d9c68e8	0.07637197
100	0x3c95199a	0.018200684
101	0x3c5a427f	0.013321518
102	0x3cb9f0e5	0.022697875
103	0x3cc95692	0.024577413
104	0x3d92bc75	0.071648516
105	0xbdb183d4	-0.08667722
106	0x3dd70010	0.10498059
107	0xbd84257e	-0.064524636
108	0xbc62866a	-0.013825992
109	0xbdc41542	-0.09574367
110	0x3d0745e6	0.033025645
111	0x3d4e4f92	0.050368853
112	0x3da55adc	0.08073971
113	0x3d124a08	0.035715133
114	0x3d7300d1	0.05932695
115	0xbd46f1a4	-0.04857029
116	0x3cb3efdf	0.021964965
117	0x3db575c0	0.0886035
118	0x3d7c98c5	0.06166913
119	0x3d6bf7e5	0.057609458
120	0x3d8c988e	0.06865035
121	0x3d4082cc	0.046999738
122	0x3dd6c04c	0.104858965
123	0x3c5ade66	0.013358688
124	0x3da86517	0.08222406
125	0x3dab6fb4	0.08370915
126	0xbd97a899	-0.07405204
127	0x3c02e9ce	0.007990314
128	0xbe332981	-0.17496301
129	0x3c0452bd	0.008076367
130	0xbdbf8cca	-0.09353025
131	0xbc347744	-0.011014763
132	0xbdc2a9a0	-0.0950501
133	0xbc17ee3f	-0.009273111
134	0xbd667385	-0.05626251
135	0x3bc71581	0.0060755615
136	0xbcd52106	-0.026016723
137	0xbe434d5c	-0.19072479
138	0xbdc576d0	-0.09641802
139	0xbd526f78	-0.051375836
140	0x3ce93552	0.028467808
141	0x3d346679	0.044043038
142	0xbe0a57b1	-0.13510014
143	0x3dc77c98	0.09740561
144	0x3dab059f	0.083506815
145	0xbdbe2dae	-0.092860565
146	0x3d4c20f6	0.04983612
147	0xbda39092	-0.07986559
148	0xbdf1abbf	-0.11800336
149	0x3bdd6160	0.006755993
150	0xbd809b19	-0.062795825
151	0xbc9c0607	-0.019045843
152	0xbbac7da8	-0.005264003
153	0x3ceb326c	0.028710566
154	0xbc15ff0b	-0.009155045
155	0xbd3aa2c4	-0.04556538
156	0xbc8e33ff	-0.017358778
157	0x3cf7f083	0.030266052
158	0xbd4a3138	-0.049363345
159	0x3a0cd27e	0.0005371942
160	0xbda5f8a1	-0.08104063
161	0xbd32d386	-0.043658756
162	0xbdb0f370	-0.08640182
163	0xbc614614	-0.013749618
164	0xbda228dd	-0.0791795
165	0x3da48f33	0.080351256
166	0xbd3a36ca	-0.045462407
167	0xbd624dd4	-0.055250004
168	0x3c88284e	0.016620781
169	0xbe388b36	-0.18021855
170	0xbd8c1cce	-0.068414316
171	0x3af6d00e	0.0018830316
172	0xbda7769c	-0.0817692
173	0x3cd1c242	0.025605325
174	0x3dc6f8b9	0.09715409
175	0xbdc8725a	-0.09787436
176	0xbcca1fe2	-0.024673406
177	0xbcf3bef1	-0.029754134
178	0x3d4cd45e	0.050007217
179	0x3d4dbdcd	0.050229836
180	0xbd8b1eca	-0.06792982
181	0x3cdb20a7	0.026748968
182	0xbc68ecef	-0.014216646
183	0x3d180d16	0.037121855
184	0x3c1965ee	0.009362681
185	0xbd280a8a	-0.041025676
186	0xbd25edbe	-0.04050993
187	0x3cb5f170	0.022209853
188	0xbdd1b1c6	-0.10238986
189	0xbdb6d27a	-0.08926864
190	0xbd06c82a	-0.032905735
191	0x3cf87e39	0.030333625
192	0xbe20660e	-0.15663931
193	0xbd9e77f0	-0.0773772
194	0xbd68cc0a	-0.05683521
195	0x3c86d73b	0.016460052
196	0xbc9180ac	-0.01776155
197	0xbd03d21c	-0.032182798
198	0xbb6fb696	-0.0036577336
199	0x3ca3efbd	0.020011777
200	0x3c9cb796	0.01913051
201	0xbe07e4d1	-0.1327088
202	0xbd950039	-0.07275433
203	0x3cf9c749	0.030490534
204	0xbde5a78e	-0.11213599
205	0xbd9391cf	-0.07205545
206	0x3c3edde1	0.01164958
207	0xbd6fa605	-0.058507938
208	0xbcb0a4ca	-0.021562953
209	0xbdfc7bda	-0.1232831
210	0xbcf204e8	-0.029543355
211	0xbc96e3f3	-0.018419242
212	0xbd8dc0f3	-0.06921568
213	0xbd021a70	-0.031763494
214	0x3d86b3f5	0.06577293
215	0xbd896716	-0.06709115
216	0x3c31a478	0.010842435
217	0xbc848cc6	-0.016180407
218	0xbd25eaca	-0.040507115
219	0xbc96ab98	-0.01839237
220	0xbd19a187	-0.03750756
221	0xba8376ea	-0.0010029946
222	0xbcc7b16d	-0.024376595
223	0x3d74e5be	0.05978941
224	0x3b65d624	0.0035070265
225	0x3d5ab053	0.053390812
226	0xbdbce5e8	-0.09223539
227	0x3d4d542e	0.050129108
228	0xbdc78cdd	-0.097436644
229	0xbda36e25	-0.07979993
230	0xbd20d415	-0.039264757
231	0x3c562c6a	0.013072113
232	0x3d4aedc4	0.049543157
233	0x3d8e1266	0.06937103
234	0xbc5ff031	-0.013668106
235	0x3c22bbf2	0.009932505
236	0xbd50722c	-0.050890133
237	0x3d222caf	0.039593395
238	0xbd1a8f10	-0.03773409
239	0x3d362a7f	0.04447412
240	0xbcf012a6	-0.029305767
241	0xbcfaadea	-0.030600507
242	0x3daeba50	0.0853163
243	0x3d0adf03	0.033904087
244	0xbd8e560a	-0.069500044
245	0x3c58ae75	0.013225188
246	0x3d8c443f	0.068489544
247	0xbd2efdc4	-0.04272248
248	0xbdbf4139	-0.09338612
249	0xbc13fe70	-0.009032831
250	0x3cb5436e	0.02212688
251	0x3cf4e404	0.029893883
252	0xbcad4222	-0.021149699
253	0xbcf88f5b	-0.030341795
254	0x3d1a20de	0.037629
255	0x3d98fccc	0.07470092

lstm.weight_ih_l1 f4 [512, 128]
0	0x3cd9d74c	0.02659192
1	0xbc5d61a8	-0.013512053
2	0x3d0cd044	0.034378305
3	0x3ce3cda5	0.02780802
4	0x3c156b5e	0.009119837
5	0x3d8ba514	0.068185955
6	0x3cef1b27	0.029187752
7	0x3d804b09	0.06264312
8	0x3dba210f	0.09088337
9	0x3c437dc3	0.011931839
10	0x3c44dfdd	0.012016264
11	0x3b95166e	0.004549793
12	0x3c99119a	0.01868515
13	0xbc58d64f	-0.013234689
14	0xbd352a2d	-0.044229675
15	0xbc655a57	-0.0139985895
16	0x3d1d210c	0.038361594
17	0xbe04d04f	-0.12970088
18	0x3de0b235	0.1097149
19	0x3d21e738	0.039527148
20	0x3d54e5da	0.051977016
21	0xbe083431	-0.1330116
22	0xbbdaa88f	-0.006672926
23	0xbd7e710d	-0.062119532
24	0xbdceaa31	-0.10091055
25	0xbc85c054	-0.01632706
26	0xbd102eca	-0.03520087
27	0x3e0b3385	0.13593872
28	0xbd351eab	-0.0442187
29	0xbdc389e6	-0.095477864
30	0xbca41369	-0.020028787
31	0xbd7f25f3	-0.06229205
32	0x3c957358	0.018243477
33	0xbd6aa368	-0.057284743
34	0xbcbac9e4	-0.022801347
35	0x3cf99a21	0.030469002
36	0xbd2443f7	-0.04010388
37	0x3d3b457f	0.045720574
38	0x3d19d94b	0.037560742
39	0xbce4d765	-0.02793474
40	0xbd5735d7	-0.05254158
41	0xbe02a547	-0.12758361
42	0xbde8e9ff	-0.11372756
43	0xbdd44250	-0.103642106
44	0xbb352aeb	-0.002764399
45	0xbd024c87	-0.031811263
46	0xbd9bb004	-0.07601932
47	0xbd7d0d1b	-0.061780076
48	0xbce57853	-0.028011477
49	0xbcd12d46	-0.025534283
50	0xbcdbfc04	-0.026853569
51	0x3cb94e7b	0.02262043
52	0xbd839c52	-0.064263
53	0x3d91fa1e	0.07127784
54	0xbdd4eb19	-0.10396404
55	0xbb2b240c	-0.0026114015
56	0xbded79f4	-0.11595526
57	0x3e043b41	0.12913229
58	0x3c784e37	0.015155367
59	0xbcf38e83	-0.02973104
60	0xbd26ca8e	-0.040720515
61	0x3d4f761e	0.050649755
62	0x39fe55e8	0.0004851066
63	0x3d9b2729	0.075758286
64	0x3d649bb6	0.05581256
65	0xbd80249d	-0.062569834
66	0xbcabf106	-0.020988952
67	0x3c0718d0	0.008245662
68	0xbdaf5eda	-0.085630134
69	0xbcbc4a24	-0.022984572
70	0x3dab539a	0.08365555
71	0x3a789d58	0.0009483895
72	0xbc886aa6	-0.016652416
73	0x3d9c9f71	0.076475985
74	0xbd64338a	-0.055713214
75	0xbda16f53	-0.078825615
76	0xbccf3741	-0.025294902
77	0x3d29ece7	0.041485693
78	0xbd46d96f	-0.048547205
79	0x3d626045	0.05526759
80	0x3dfac00e	0.12243663
81	0x3c951386	0.018197786
82	0x3d2bd45a	0.04195056
83	0xbe126a99	-0.14298476
84	0xbae82c6e	-0.0017713436
85	0xbb1ce69e	-0.002394117
86	0xbe2ce284	-0.16883284
87	0xbda022fc	-0.07819173
88	0xbdccde7e	-0.100033745
89	0x3e05697e	0.13028523
90	0x3e11aa95	0.14225228
91	0xbdd1a0dc	-0.102357596
92	0xbd211039	-0.03932211
93	0x3e00aad1	0.12565161
94	0x3dfa5d8d	0.12224875
95	0x3dbab8e1	0.09117294
96	0xbd437544	-0.047719255
97	0x3d3f8bd0	0.046764195
98	0x3da978ba	0.0827498
99	0x3d153ffe	0.03643798
100	0xbe0446ed	-0.12917681
101	0xbdcc6116	-0.09979455
102	0x3dbc9591	0.09208215
103	0xbcf05eb9	-0.029342042
104	0xbbd0eb92	-0.0063757384
105	0xbd56c304	-0.052432075
106	0x3d266b18	0.040629476
107	0x3d1e1717	0.03859624
108	0x3d7bd2cd	0.061480332
109	0xbca3938c	-0.019967817
110	0x3cd14436	0.02554522
111	0x3d39a532	0.04532356
112	0x3d0a4860	0.03376043
113	0x3d43299f	0.047647115
114	0x3d1535ae	0.036428146
115	0xbd301c36	-0.042995654
116	0xbc942185	-0.01808239
117	0xbd47e82c	-0.0488054
118	0x3d9b1c0d	0.0757371
119	0xbd5b5f4a	-0.05355767
120	0xbd02916b	-0.031876963
121	0x3c8e3861	0.017360868
122	0xbd45da07	-0.04830363
123	0x3c615ec7	0.013755507
124	0xbd399490	-0.045307696
125	0xbd1b7f73	-0.037963342
126	0x3d1fcd7b	0.03901432
127	0x3d7ea944	0.062173143
128	0x3d9dcc1a	0.07704945
129	0xbd8d6420	-0.06903863
130	0x3cf59ed5	0.029982964
131	0x3cc61b78	0.02418302
132	0xbd4fccfa	-0.05073259
133	0x3d0216cd	0.031760026
134	0xbdc881b0	-0.09790361
135	0x3bb3aeb5	0.005483473
136	0x3de47a33	0.1115612
137	0x3c88ce79	0.016700016
138	0xbc970a10	-0.018437415
139	0xbd048e71	-0.032362405
140	0xbbc51d4c	-0.0060154554
141	0x3d497ae1	0.049189452
142	0xbd693083	-0.05693103
143	0xbda6501e	-0.0812075
144	0x3d80bdca	0.062861994
145	0x3c0b9dc9	0.008521506
146	0xbd83f369	-0.06442911
147	0xbdc4b9cc	-0.096057504
148	0x3e02f36e	0.12788174
149	0x3cd38ace	0.025823023
150	0x3afc5c2f	0.0019253547
151	0x3cbb734e	0.02288213
152	0x3db6e2fd	0.08930013
153	0xbd96148a	-0.07328136
154	0xbd651785	-0.055930633
155	0xbd7fc974	-0.06244798
156	0x3cac6511	0.021044286
157	0xbcdb7ed7	-0.02679388
158	0xbd4f288e	-0.050575785
159	0xbdc982b0	-0.0983938
160	0x3d12f826	0.035881184
161	0x3c1e63dc	0.009667363
162	0x3c57b11d	0.013164786
163	0x3d022470	0.03177303
164	0xbbc0a3f9	-0.005878922
165	0xbe042c99	-0.12907638
166	0xbd0da9a2	-0.034585603
167	0xbd842159	-0.06451673
168	0xbd797038	-0.060898036
169	0xbe047991	-0.12936999
170	0x3d1ac4b4	0.037785247
171	0xbe10a0f5	-0.141239
172	0xb9cd5d12	-0.0003916999
173	0x3c76ee61	0.015071482
174	0x3cc4ca5d	0.024022276
175	0xbd1fb5d8	-0.03899178
176	0x3da8d778	0.082442224
177	0x3c22ea85	0.009943609
178	0x3cd99511	0.026560338
179	0x3be79fa7	0.0070685926
180	0xbdb7eff5	-0.08981315
181	0xbcca5081	-0.02469659
182	0xbcbf17b1	-0.023326727
183	0x3cf70c59	0.030157255
184	0x3c705e4e	0.0146709215
185	0xbc4e463a	-0.0125899855
186	0x3d2859ec	0.04110138
187	0xbd2354d7	-0.03987583
188	0x3d4dae23	0.050214898
189	0x3df25c92	0.11834063
190	0x3dbf7c12	0.093498364
191	0x3dc869e7	0.09785824
192	0x3d1f2253	0.038851094
193	0x3d26d661	0.04073179
194	0x3d31215d	0.04324471
195	0x3cf61fdc	0.030044489
196	0xbc533700	-0.012891531
197	0x3d3d96ef	0.04628652
198	0x3e2f33cb	0.17109601
199	0x3c524501	0.012833835
200	0x3da78f52	0.08181633
201	0xbdbb1b6c	-0.0913609
202	0xbdd8146f	-0.105507724
203	0x3c5c4747	0.013444728
204	0xbde77ee9	-0.11303503
205	0x3d3ff5ad	0.046865154
206	0xbdc8003a	-0.09765668
207	0x3dd96d30	0.10616529
208	0xbcd735d9	-0.026270794
209	0xbd8b7143	-0.06808712
210	0x3dde8792	0.10865702
211	0x3e05429d	0.13013692
212	0x3da739ff	0.08165359
213	0x3db1c4b5	0.08680097
214	0xbc19ad58	-0.009379707
215	0x395b2f20	0.00020903023
216	0x3d2b214d	0.041779805
217	0x3e01eaf2	0.12687281
218	0xbccdbedc	-0.025115423
219	0x3c07d6f0	0.008290991
220	0x3bce422e	0.0062945103
221	0x3acd6df0	0.0015673023
222	0x3d685ccf	0.056729134
223	0xbb95a4e4	-0.0045667756
224	0xbd40aadb	-0.04703794
225	0x3d474c95	0.04865702
226	0x3ca2a224	0.019852705
227	0x3d5e0503	0.054204
228	0x3c0c0bfc	0.008547779
229	0xbbe020f4	-0.006839866
230	0x3bb532a8	0.0055297203
231	0x3cd30730	0.025760263
232	0xbd8694ec	-0.06571373
233	0x3dac64ed	0.084176876
234	0x3d8442f6	0.06458084
235	0x3e15f458	0.14643991
236	0xbdc05102	-0.09390451
237	0xbbca71ec	-0.0061781313
238	0x3cf61f64	0.030044265
239	0xbd837ed0	-0.06420672
240	0x3d3f9a61	0.046778087
241	0xbdbccb06	-0.09218411
242	0xbc810bb3	-0.015752649
243	0xbd909e7a	-0.07061477
244	0xbdf172d6	-0.11789481
245	0xbddb32cf	-0.1070305
246	0x3d05541a	0.03255091
247	0x3e02f962	0.12790444
248	0xbd4f8a7b	-0.050669175
249	0x3db71db8	0.08941215
250	0xbdd73949	-0.10508973
251	0x3d9120a5	0.070863046
252	0x3da4a6cd	0.08039627
253	0xbe008032	-0.12548903
254	0x3de8f80e	0.11375438
255	0x3bdaaedf	0.0066736783

lstm.weight_hh_l1 f4 [512, 128]
0	0xbd36436c	-0.044497892
1	0xbdceeecf	-0.10104143
2	0x3cbb89d9	0.02289288
3	0x3d59f7f0	0.053214967
4	0x3d5462c8	0.051852018
5	0xbd214cba	-0.039379813
6	0x3de7e656	0.1132323
7	0xbd8b37a9	-0.06797726
8	0xbcd0d503	-0.025492197
9	0xbccfb87c	-0.025356524
10	0x3ce3e54a	0.027819294
11	0x3c5a3acd	0.013319683
12	0xbd99d10b	-0.07510575
13	0xbde9e9d1	-0.1142155
14	0xbe1b416a	-0.15161672
15	0xbe06f761	-0.13180305
16	0xbd0e6833	-0.03476734
17	0x3ac1d47e	0.0014788059
18	0x3da95ff0	0.08270252
19	0xbbe83a5b	-0.0070870346
20	0x3d77f71a	0.06053839
21	0x3c89d2c7	0.01682414
22	0xbd1ed1a0	-0.038774133
23	0x3dbd9480	0.0925684
24	0x3d685622	0.056722768
25	0x3dcba886	0.09944253
26	0xbd4789e2	-0.04871548
27	0xbd9e4443	-0.07727864
28	0x3dd1b3fd	0.10239408
29	0xbdca8b17	-0.098898105
30	0xbdfe3681	-0.124127395
31	0xbd20c14c	-0.039246842
32	0xbbd5996a	-0.0065185325
33	0x3c42ec06	0.011897093
34	0xbdf99810	-0.12187207
35	0x3e039417	0.1284946
36	0x3dbac0ab	0.0911878
37	0xbd5737d9	-0.052543495
38	0xbe0f639e	-0.14002845
39	0x3d4440fa	0.04791353
40	0xbd9d4450	-0.07679045
41	0x3ca1ec21	0.019765915
42	0xbc786e3f	-0.0151630035
43	0xbcee32fc	-0.029077046
44	0xbd15bb61	-0.03655565
45	0xbcca33e8	-0.024682954
46	0x3dca7850	0.09886229
47	0xba9af3f4	-0.0011821971
48	0x3d6692cc	0.05629234
49	0xbc8bd470	-0.017069072
50	0xbb30fe52	-0.0027007055
51	0xbdb4b30b	-0.08823212
52	0x3d19f74a	0.03758935
53	0x3d49d262	0.049272902
54	0xbd8594be	-0.06522511
55	0x3d402456	0.046909653
56	0x3da188e8	0.07887441
57	0x3d8169fa	0.063190416
58	0x3c29a866	0.010355091
59	0x3c517b98	0.012785815
60	0x3c99e805	0.018787393
61	0xbd08f97f	-0.033441063
62	0xbdd233f8	-0.102638185
63	0xbd3bc6e9	-0.045843992
64	0xbd5c139a	-0.05372963
65	0x3d4223c3	0.047397386
66	0xbdbed85e	-0.093186125
67	0xbd6a05d7	-0.057134476
68	0x3c5d7e48	0.013518877
69	0x3dcb27ba	0.099196866
70	0xbdd94330	-0.10608518
71	0xbd5e7686	-0.05431225
72	0x3d2d00b6	0.042237006
73	0x3d7b44b5	0.06134482
74	0x3b77e454	0.0037825303
75	0xbd52852c	-0.051396534
76	0xbd2e78a8	-0.042595536
77	0x3d72d04d	0.059280682
78	0x3d6d2f0a	0.057906188
79	0x3be38066	0.0069427965
80	0x3ce3a62d	0.0277892
81	0xbd7cc6d2	-0.061713047
82	0xbc86178e	-0.016368654
83	0xbd810f39	-0.063017316
84	0x3d02e58b	0.03195719
85	0xbd97a2c8	-0.07404095
86	0xbd78aa65	-0.060709376
87	0xbdfd06ff	-0.1235485
88	0xbd3eb00d	-0.046554614
89	0x3da14618	0.078746974
90	0xbdcdacdd	-0.10042737
91	0xbd2a1b64	-0.041530028
92	0xbcdacacb	-0.026708027
93	0xbdca03e0	-0.0986402
94	0xbd2655da	-0.04060922
95	0xbd7133d5	-0.05888732
96	0xbda0f8ac	-0.078599304
97	0x3d2bddf5	0.04195972
98	0x3b6b3f5f	0.0035895926
99	0x3d9a9310	0.07547581
100	0x3e0698e3	0.13144259
101	0x3d8ffc3b	0.07030531
102	0xbd8a11ea	-0.06741698
103	0x3d29db1b	0.04146872
104	0x3df0898a	0.117449835
105	0xbdb35781	-0.087569244
106	0xbe067d54	-0.13133746
107	0x3c5ac9bd	0.013353762
108	0xbdc7c8a7	-0.09755068
109	0x3d8b113e	0.06790398
110	0x3d6f6a52	0.058451004
111	0x3db31800	0.08744812
112	0x3dd3abd2	0.103355065
113	0x3c7576a3	0.0149818985
114	0xbc8a4c2b	-0.016882023
115	0xbd8adb4a	-0.06780107
116	0xbd0633cf	-0.032764252
117	0xbcf40c3c	-0.02979099
118	0x3dc19ecd	0.09454117
119	0xbcd8f965	-0.026486108
120	0x3dbb500c	0.09146127
121	0x3dca4a24	0.098774225
122	0x3ca9b805	0.02071763
123	0x3c893781	0.0167501
124	0xbda46b35	-0.080282606
125	0x3d084e90	0.033278048
126	0x3d1925a5	0.037389416
127	0xbd4249dc	-0.04743372
128	0x3d97d462	0.07413556
129	0x3bb3557d	0.0054728375
130	0xbd181a3d	-0.037134398
131	0xbd1fe2c1	-0.03903461
132	0x3d6023d8	0.054721683
133	0xbe01a067	-0.12658845
134	0xbc712b57	-0.014719806
135	0xbdd775db	-0.10520526
136	0xbdf22213	-0.118229054
137	0xbcd4a9da	-0.025959898
138	0x3c87d83e	0.016582604
139	0xbba48d6a	-0.0050217407
140	0xbda38dac	-0.07986006
141	0xbd97e2c1	-0.07416297
142	0xbd8a232b	-0.06744989
143	0xbd013aca	-0.031550206
144	0x3d6a1230	0.05714625
145	0xbc5ae6c1	-0.01336068
146	0x3d4f0343	0.05054022
147	0xbd18d168	-0.03730908
148	0x3e0867cf	0.1332085
149	0xbd40ce0c	-0.0470715
150	0xbdb3658d	-0.08759604
151	0x3c7133d4	0.014721829
152	0x3cdf9122	0.027290884
153	0x3c06f0c9	0.008236119
154	0xbd87b41f	-0.06626152
155	0x3db12357	0.08649319
156	0x3ce7ea02	0.028309826
157	0x3b367400	0.0027840137
158	0xbd621780	-0.055198193
159	0xbcd0ae3b	-0.025473705
160	0x3d85b8f5	0.065294184
161	0x3d915451	0.0709616
162	0x3d825411	0.06363691
163	0x3d84c3c9	0.064826556
164	0x3dadd4db	0.084878646
165	0xbc149554	-0.009068806
166	0xbc09a1d7	-0.008400402
167	0xbd0ed899	-0.034874532
168	0xbc3ee157	-0.011650405
169	0xbccb4c28	-0.024816588
170	0xbbb8418c	-0.005623048
171	0xbd8ffde2	-0.07030846
172	0x3d20056a	0.039067663
173	0x3c38b6bd	0.011274037
174	0x3d96a09b	0.07354852
175	0x3db8402b	0.08996614
176	0x3cebd60f	0.028788595
177	0xbc4764f3	-0.012170064
178	0xbd81e65d	-0.063427664
179	0x3c93d18c	0.018044256
180	0x3d5d08dd	0.05396353
181	0x3cc3c661	0.023898305
182	0x3dcd4ea5	0.10024766
183	0xbd19260c	-0.0373898
184	0xbdcac774	-0.09901324
185	0xb405f800	-1.2476812e-07
186	0x3d819b37	0.06328433
187	0x3d1bf41d	0.0380746
188	0x3d08da21	0.03341115
189	0xbd98fab2	-0.07469691
190	0x3bfcb600	0.007712126
191	0xbcdd8108	-0.027039066
192	0x3bdb5402	0.006693364
193	0x3d317905	0.043328304
194	0x3d54ce37	0.051954474
195	0xbdbe2292	-0.092839375
196	0x3da63564	0.08115652
197	0x3c675b5a	0.014120901
198	0x3c9fcf66	0.019508075
199	0x3bf9d02f	0.0076236944
200	0x3d5d4566	0.05402126
201	0x3d5b53ce	0.05354672
202	0xbdcb30ad	-0.099213935
203	0xbc0f6967	-0.008753157
204	0x3c82a4df	0.015947757
205	0x3c0b1644	0.008489195
206	0xbb9363e0	-0.00449799
207	0xbe059406	-0.13044748
208	0xbd6f6206	-0.05844309
209	0x3d376cf7	0.04478165
210	0xbd8013d4	-0.06253782
211	0xbcc9df8c	-0.024642728
212	0xbc5c5dc9	-0.0134500945
213	0x3da817b5	0.08207647
214	0x3dac223f	0.084049694
215	0xbbb15eb9	-0.005412903
216	0xbd6cfeea	-0.057860292
217	0x3d55a701	0.05216122
218	0x3d303e3c	0.0430281
219	0x3c041447	0.008061475
220	0xbd8be34e	-0.06830464
221	0x3d4cd6f0	0.050009668
222	0xbde2f53a	-0.110819295
223	0x3d8465d3	0.06464734
224	0xbd980c86	-0.07424264
225	0xbd5e5df4	-0.05428882
226	0x3d6f4130	0.058411777
227	0x3a703c6b	0.00091642764
228	0x3c790bbc	0.015200552
229	0xbd4e4e37	-0.05036756
230	0xbdfe8171	-0.12427033
231	0x3aed5c18	0.0018109111
232	0x3da2264f	0.07917463
233	0xbda33ff7	-0.07971185
234	0x3d9b81c4	0.0759311
235	0x3e22c998	0.15897214
236	0x3d335c43	0.04378916
237	0xbb8a6d36	-0.0042244447
238	0x3c92e28f	0.017930297
239	0x3d214d13	0.039380144
240	0xbcc4c531	-0.02401981
241	0x3d4f2f99	0.050582502
242	0xbaf29a40	-0.0018509105
243	0xbdc61c11	-0.09673322
244	0x3c2d31bf	0.010570942
245	0x3c05b729	0.008161345
246	0x3ba2a552	0.0049635554
247	0x3dcf0b52	0.10109581
248	0xbd8dd010	-0.069244504
249	0xbd84e9ed	-0.0648993
250	0xbd63f37c	-0.055652127
251	0xbdc3308f	-0.09530746
252	0xbe09f62e	-0.13472816
253	0x3cec4b89	0.028844612
254	0x3d90d0ef	0.07071101
255	0x3d754fb0	0.05989045

lstm.bias_ih_l1 f4 [512]
0	0x3dc51b76	0.096243784
1	0xbd07f1d7	-0.03318962
2	0x3dc68dd8	0.09695023
3	0x3d94b7a6	0.07261591
4	0x3d3c0f90	0.04591328
5	0x3d0426f8	0.032263726
6	0xbc350071	-0.0110474685
7	0x3d431d10	0.047635138
8	0x3cc946af	0.024569837
9	0x3cf62e6c	0.030051433
10	0x3c89d3c7	0.016824616
11	0x3d6de907	0.05808356
12	0x3da519bc	0.08061549
13	0x3d7316b3	0.05934782
14	0xba88c830	-0.0010435637
15	0x3db0523c	0.08609435
16	0x3db1601e	0.08660911
17	0x3d79ba13	0.06096847
18	0x3dfa94f9	0.122354455
19	0x3d87fc86	0.06639962
20	0x3dc66cae	0.09688698
21	0x3ddd0f24	0.107939035
22	0x3d6ed9fa	0.058313347
23	0xbd096a3e	-0.033548586
24	0x3bdf5dda	0.006816608
25	0x3d263b75	0.040584046
26	0xbcdf69be	-0.027272101
27	0x3ca81e77	0.02052234
28	0x3d23fa24	0.040033475
29	0x3df8e982	0.12153913
30	0x3d72e16d	0.059297014
31	0xbdb35ca6	-0.08757906
32	0x3d56d6ec	0.05245106
33	0xbd7087f2	-0.058723398
34	0x3e3032c7	0.1720687
35	0x3c8cb745	0.017177233
36	0x3d2c0fbd	0.042007197
37	0x3e149ea2	0.14513639
38	0x3dff85b6	0.12476675
39	0xbd124c9c	-0.03571759
40	0x3e1a5202	0.15070346
41	0x3da52253	0.080631875
42	0x3cb443d8	0.022005007
43	0x3dad0bf0	0.084495425
44	0x3dda4303	0.10657313
45	0xbacc19c6	-0.0015571646
46	0x3d5a3b76	0.053279363
47	0x3bfe1f59	0.007755202
48	0x3c91adfb	0.017783156
49	0xbd1ec2b1	-0.03875989
50	0x3dfdb165	0.12387351
51	0xbcba022d	-0.022706116
52	0x3d817439	0.06320996
53	0x3da5f9fc	0.08104321
54	0x3e27863d	0.16359802
55	0xbc913711	-0.017726453
56	0x3dc1909f	0.094514124
57	0x3e0f1c38	0.13975608
58	0xbcb08451	-0.021547468
59	0x3e35a0ae	0.17737076
60	0x3df7c797	0.120986156
61	0x3e447579	0.19185437
62	0x3d817fd3	0.06323209
63	0xbcb34eef	-0.021888224
64	0x3d895863	0.067063116
65	0x3e0593a6	0.13044605
66	0xbd3f5373	-0.046710443
67	0xbd8fefc7	-0.07028156
68	0x3dc02a0a	0.09383018
69	0x3d4ae4b7	0.049534526
70	0xbc1247de	-0.008928267
71	0x3da515f6	0.08060829
72	0xbd01d251	-0.031694714
73	0x3d67ea7c	0.056620106
74	0x3d4835bc	0.04887937
75	0x3d6a95b8	0.05727169
76	0x3e1b22a2	0.1514993
77	0x3d78ba9d	0.060724843
78	0x3d5a1d8b	0.05325083
79	0x3e06e624	0.13173729
80	0x3df60988	0.12013537
81	0x3d257108	0.040390998
82	0xbca257f5	-0.019817332
83	0x3d15a5bd	0.036535013
84	0x3e33a965	0.17545088
85	0xbda90b48	-0.08254105
86	0x3d1fa155	0.038972218
87	0xbcd6c47f	-0.026216744
88	0x3dda0279	0.10645003
89	0xbda101fe	-0.07861708
90	0x3e36a9b4	0.17838174
91	0xbdcb0b94	-0.09914318
92	0x3dd053cb	0.10172232
93	0x3d81412d	0.063112594
94	0xbd5e9ac4	-0.054346815
95	0x3dc267b2	0.094924346
96	0x3d55120d	0.052019168
97	0x3d1997d8	0.037498325
98	0xbc27cf57	-0.010242305
99	0x3dfc9a31	0.12334097
100	0x3c40fcbe	0.011779008
101	0xb9fd99a1	-0.00048370383
102	0x3d8b6965	0.06807212
103	0xbd64b715	-0.055838663
104	0x3c26b2e2	0.010174485
105	0xbd78642d	-0.06064241
106	0x3d5bb220	0.05363667
107	0xbd12dc06	-0.035854362
108	0x3daa237d	0.0830755
109	0x3de5ec43	0.11226704
110	0x3d458014	0.048217848
111	0x3e04bfbc	0.12963766
112	0xbcf934ce	-0.030420687
113	0xbd829d44	-0.06377652
114	0xbcb6e917	-0.022327943
115	0xbb687419	-0.003546959
116	0x3d25a3ee	0.04043954
117	0x3e0470f8	0.12933719
118	0x3e17ff3f	0.14843462
119	0xbd6cbc67	-0.057796862
120	0x3d10bffb	0.035339337
121	0x3dcacaa2	0.099019304
122	0xbd427b9a	-0.047481157
123	0x3d2d0036	0.04223653
124	0x3de8e5c1	0.11371947
125	0x3de4b64c	0.11167583
126	0x3b35e3fe	0.0027754302
127	0x3d535975	0.051598985
128	0xbc691d62	-0.014228197
129	0x3d54cadb	0.05195127
130	0xbd5a0157	-0.053223934
131	0x3c2e4791	0.01063718
132	0x3d100e3b	0.03516982
133	0xbd3035e2	-0.043020137
134	0x3cd5882a	0.026065905
135	0x3cb58016	0.022155803
136	0x3d886912	0.066606656
137	0x3c5b21d3	0.013374764
138	0xbdbfe7be	-0.09370373
139	0xbd9b406a	-0.075806454
140	0x3da6f533	0.08152237
141	0xbd84a848	-0.064774096
142	0x3dd0e2cc	0.10199508
143	0xbd555bcb	-0.052089494
144	0xbd57b745	-0.052665014
145	0x3d57e089	0.052704368
146	0xbd2be50e	-0.04196649
147	0xbcf93fc4	-0.030425914
148	0xbcbb7db1	-0.022887083
149	0xbd08bd0e	-0.03338342
150	0xbd86e96d	-0.06587491
151	0x3d2e59b0	0.042566
152	0xbbdc0f78	-0.006715711
153	0xbd916b47	-0.0710054
154	0x3d763d17	0.060116854
155	0xbda002a8	-0.07813007
156	0xbd5a42aa	-0.053286232
157	0x3cb307ed	0.021854365
158	0x3d58e21b	0.052950006
159	0xbd4c9185	-0.049943466
160	0x3ae898ca	0.001774573
161	0x3d89e511	0.06733144
162	0xbdb0b871	-0.086289294
163	0x3d137d0d	0.03600793
164	0xbd8802b5	-0.06641141
165	0xbdbc49fb	-0.09193798
166	0xbd5483cb	-0.0518835
167	0x3dad68d5	0.08467261
168	0x3d7fc5ef	0.062444624
169	0xbe1cc2c1	-0.15308668
170	0xbd9e99ca	-0.07744177
171	0x3ac5b5e9	0.0015084121
172	0xbdc9f52c	-0.09861216
173	0xbd8535cf	-0.06504404
174	0x3bd91a7a	0.0066254707
175	0xbd423f01	-0.047423366
176	0xbd492bb2	-0.049113937
177	0x3da3ac75	0.07991878
178	0xbd8507c4	-0.06495622
179	0xbd41c761	-0.047309283
180	0xbcf67931	-0.030087085
181	0xbd99a936	-0.075029776
182	0xbdfc0d26	-0.12307195
183	0x3c9e570f	0.019328622
184	0x3cd69d64	0.026198097
185	0x3db0498c	0.08607778
186	0x3d852dd2	0.0650288
187	0x3d04e9d6	0.032449566
188	0xbd2684ba	-0.04065392
189	0x3d0a3751	0.03374416
190	0xbdaac238	-0.083378255
191	0xbc5af4a7	-0.013363994
192	0xbdabc98c	-0.083880514
193	0xbc778889	-0.015108236
194	0xbd681248	-0.05665806
195	0x3d0c2e54	0.03422387
196	0xbd298cf6	-0.041394196
197	0xbd5cf9eb	-0.053949278
198	0x3ca2918f	0.019844798
199	0x3cdcb4fb	0.026941767
200	0x3d8d3d7c	0.06896493
201	0x3cce7144	0.025200494
202	0x3d1417ff	0.036155697
203	0xbddf5fe8	-0.109069645
204	0xbd218bdf	-0.039440032
205	0xbbf2d1a2	-0.007410244
206	0x3d1e277b	0.03861187
207	0xbde00ace	-0.10939561
208	0xbdb32511	-0.08747304
209	0x3d1f3d79	0.038876984
210	0xbd8bad56	-0.068201706
211	0x3cb0f6fb	0.021602144
212	0xbd23fec2	-0.040037878
213	0xbc5ca7a0	-0.013467699
214	0x3cf01c90	0.029310495
215	0xbbb2d9c4	-0.0054580886
216	0x3d187bfb	0.037227612
217	0xbd9d837d	-0.07691095
218	0xbe0a2c1d	-0.1349339
219	0xbd6930e4	-0.05693139
220	0xbdd425e1	-0.10358787
221	0xbd4a9b17	-0.04946431
222	0x3d280a9e	0.04102575
223	0x3c8a898b	0.016911289
224	0xbd55e70e	-0.052222304
225	0xbda18454	-0.07886568
226	0xbd829ae7	-0.063772015
227	0xbbceaba2	-0.0063070813
228	0x3d76a7fe	0.060218804
229	0xbdad70da	-0.0846879
230	0x3d5885dc	0.052862033
231	0x3cd924ae	0.026506748
232	0x3b9b2625	0.004734772
233	0x3cc43e3b	0.023955455
234	0x3d94d038	0.07266277
235	0x3b83b631	0.0040195216
236	0xbd0581fe	-0.032594673
237	0xbd33725e	-0.04381024
238	0xbd20ace5	-0.039227385
239	0xbd07a344	-0.033114687
240	0xbda8935c	-0.082312316
241	0x3d937c5b	0.07201453
242	0xbc0487bd	-0.008089003
243	0x3d4aad60	0.04948175
244	0x3ce02021	0.02735907
245	0x3d5a56d2	0.053305455
246	0xbc6ee472	-0.014580833
247	0xbceff6ac	-0.029292427
248	0xbd403a3e	-0.046930544
249	0xbdc2f917	-0.09520166
250	0x3c484dd3	0.012225586
251	0xbc90edbb	-0.017691484
252	0x3cb6c75d	0.02231186
253	0x3cd1cafa	0.025609482
254	0x3da5d87e	0.08097933
255	0xbd2e1e22	-0.042509206
