04_Models/weekly/GDEA/sentiment/best_model.pth (torch, 945013 bytes, 11 tensors)

lstm.weight_ih_l0 f4 [512, 63]
0	0xbd239b71	-0.039943162
1	0x3c77860d	0.015107644
2	0xbcdb3f99	-0.026763724
3	0xbd34ea36	-0.044168673
4	0xbce6c0f3	-0.028168177
5	0xbd5f8ab4	-0.054575637
6	0x3d3bdb86	0.04586365
7	0x3d6ab8b6	0.05730506
8	0xbd8d8720	-0.06910539
9	0x3cb6efa2	0.022331063
10	0x3da199dc	0.078906745
11	0x3bf78cba	0.0075546177
12	0x3d00b6f3	0.031424474
13	0xbc2e93e1	-0.010655374
14	0xbc38854f	-0.011262252
15	0x3cd0d2da	0.025491167
16	0xbd16d4c4	-0.036824003
17	0x3d5d9312	0.054095335
18	0x3d439ede	0.04775893
19	0x3d42f7ea	0.04759971
20	0x3d6163e7	0.055026915
21	0x3bfdddeb	0.007747402
22	0x3c9d07ce	0.01916876
23	0xbd9a9f47	-0.07549911
24	0x3d78b7ab	0.060722034
25	0xbdaa2f7c	-0.08309838
26	0xbd9cdf05	-0.07659725
27	0x3d43fc58	0.047848076
28	0x3ca37e2f	0.01995763
29	0xbc7a57f3	-0.015279758
30	0xbd94a0a8	-0.07257205
31	0x3d9163e6	0.07099132
32	0xbc55bf71	-0.0130461315
33	0x3d68a93f	0.05680203
34	0xbdd8be71	-0.10583199
35	0x3d43f98d	0.047845412
36	0xbd361953	-0.044457745
37	0xbd8e5ea2	-0.069516435
38	0x3d6055b4	0.054769233
39	0x3d30d9da	0.04317651
40	0x3d1eeaa6	0.038797997
41	0xbd56b128	-0.052415043
42	0x3d94cd05	0.07265667
43	0xbda47cc4	-0.0803161
44	0xba8f9b75	-0.0010956364
45	0x3d3df3a6	0.04637494
46	0x3dce64fe	0.100778565
47	0xbd69d89c	-0.05709134
48	0x3cc80277	0.024415238
49	0xbd4ba011	-0.049713198
50	0xbd930dbe	-0.071803555
51	0x3ca7976f	0.020457951
52	0xbd4d6981	-0.050149444
53	0x3d78921b	0.060686212
54	0x3d94dcd6	0.072686836
55	0xbd44cc54	-0.048046425
56	0xbcebc958	-0.028782532
57	0x3ccc438a	0.024934549
58	0xbd8cf210	-0.06882107
59	0xbcbfca9b	-0.02341204
60	0x3c5c59be	0.013449131
61	0xbce013a6	-0.02735312
62	0xbd65acd3	-0.05607302
63	0x3ccde50a	0.025133628
64	0xbd916d7f	-0.07100963
65	0xbd64a9d0	-0.05582601
66	0xbdbaa08c	-0.09112653
67	0x3d4a43a8	0.04938093
68	0x3d92fca2	0.07177092
69	0xba8d0447	-0.0010758721
70	0xbc5a5c87	-0.013327724
71	0x3b03650e	0.0020049247
72	0x3ca47fd5	0.020080486
73	0x3d8a6d03	0.067590736
74	0xbda74f25	-0.081693925
75	0x3ce44504	0.02786494
76	0xbdaf2101	-0.08551217
77	0x3d4ebf5e	0.05047547
78	0xbcac4b24	-0.021031924
79	0x3b045272	0.0020190743
80	0xbda1506a	-0.07876666
81	0xbd679ab0	-0.056544006
82	0xbd99e66c	-0.075146526
83	0xbca66721	-0.020312848
84	0xbd92cb19	-0.07167644
85	0x3d4af341	0.04954839
86	0xbdd57815	-0.104232945
87	0x3d533eab	0.051573437
88	0xbda4bcbf	-0.08043813
89	0xbc3c889b	-0.011507179
90	0xbd2a84fb	-0.041630726
91	0x3ce57333	0.028009033
92	0xbd743229	-0.05961815
93	0x3c23d0f5	0.00999855
94	0x3d1e7352	0.038684197
95	0x3d90c9d8	0.07069749
96	0x3d1f808a	0.038940944
97	0x3cefa4ca	0.029253382
98	0xbc0f3458	-0.008740507
99	0xbd2be68f	-0.041967925
100	0xbce8d506	-0.02842189
101	0x3d9aa45f	0.075508825
102	0x3d340f6c	0.04396002
103	0xbd2dda8c	-0.04244475
104	0x3dc84039	0.097778745
105	0xbd3d6d8a	-0.046247043
106	0xbd8c1a76	-0.068409845
107	0xbd99c67c	-0.07508561
108	0x3da860af	0.08221566
109	0xbbe4e21e	-0.006984963
110	0x3ce7a2e8	0.028275922
111	0xbd8ca479	-0.06867308
112	0xbcef3355	-0.029199282
113	0xbd6b3736	-0.0574257
114	0x3d0ec677	0.03485724
115	0xbda43122	-0.08017184
116	0xbd2a6a17	-0.04160508
117	0x3dbc2639	0.09186978
118	0x3d206410	0.039157927
119	0x3ca68f1b	0.02033191
120	0xbdc2fd43	-0.09520962
121	0xbdc84950	-0.09779608
122	0xbd4bed0c	-0.049786612
123	0x3cc3063f	0.02380669
124	0x3d32ed19	0.043683145
125	0xbd15c261	-0.036562327
126	0xbd69de53	-0.05709679
127	0x3c27446c	0.010209184
128	0xbd806ed0	-0.06271136
129	0x3d54175c	0.05178009
130	0xbbf57a58	-0.007491391
131	0x3d109439	0.035297606
132	0x3d9c65e5	0.07636622
133	0xbd366c65	-0.044536967
134	0xbdc01933	-0.09379806
135	0xbd6206d0	-0.05518228
136	0xbd8c4037	-0.068481855
137	0x3b5c8660	0.003364943
138	0x3d9abed6	0.0755593
139	0xbcae29a4	-0.02126009
140	0x3d49548b	0.049152892
141	0xbddcdfe9	-0.10784895
142	0xbdc77523	-0.09739139
143	0x3ca66370	0.020311087
144	0xbd99c768	-0.07508737
145	0x3d3aa924	0.04557146
146	0xbca53306	-0.020165931
147	0xbd98670d	-0.074415304
148	0xbd1bdd0c	-0.038052604
149	0x3d122415	0.03567894
150	0x3d9c4805	0.07630924
151	0xbc9e824a	-0.019349236
152	0x3da2d3af	0.07950532
153	0x3d4ece13	0.050489496
154	0x3cd29ee0	0.025710523
155	0x3cbcfa83	0.023068672
156	0xbb8163e3	-0.003948675
157	0x3ce587ae	0.028018799
158	0xbd8ef208	-0.069797575
159	0x3c9703f4	0.018434502
160	0xbd1ad1de	-0.0377978
161	0xbcf1cceb	-0.029516658
162	0x3b8022f0	0.003910415
163	0xbd9fcada	-0.07802363
164	0x3d8b2c5d	0.06795571
165	0x3d74ead1	0.05979425
166	0xbd725f3a	-0.059172846
167	0x3da5b8e0	0.08091903
168	0xbd8faa08	-0.07014853
169	0xbd65055a	-0.055913307
170	0xbdad08f0	-0.0844897
171	0x3d664853	0.056221317
172	0x3c9dfa7a	0.019284476
173	0xbd6dc080	-0.05804491
174	0x3dc1f7ad	0.094710685
175	0x3d3e63e3	0.04648198
176	0x3cb3c101	0.021942617
177	0xbc84c921	-0.016209187
178	0x3d834261	0.06409145
179	0x3cc60846	0.024173867
180	0xbd63834d	-0.05554514
181	0xbc6f33f8	-0.014599793
182	0x3d2cdbf8	0.042201966
183	0x3d452b3a	0.048136927
184	0x3d444602	0.047918327
185	0xbd35dd74	-0.044400647
186	0xbd82b716	-0.06382577
187	0xbda5dfd2	-0.08099331
188	0xbdbe28d7	-0.09285133
189	0xbd9f5476	-0.077797815
190	0x3ccdfd76	0.025145274
191	0x3d7fffc1	0.062499765
192	0xbd397b3d	-0.045283545
193	0x3d19226b	0.03738634
194	0xbccf05d4	-0.025271334
195	0x3da68c05	0.08132175
196	0x3d051424	0.03248991
197	0xbd630fd9	-0.055435035
198	0x3d8de03d	0.06927536
199	0x3d497a4e	0.049188904
200	0x3d2fd36f	0.04292625
201	0xbd5ac166	-0.053407095
202	0xbd418adc	-0.047251567
203	0x3d202a47	0.03910282
204	0x3d9a08e4	0.07521227
205	0x3d4b8c81	0.04969454
206	0xbc22f5fd	-0.0099463435
207	0xbda795cb	-0.081828676
208	0x3cb6dd8a	0.022322435
209	0xbc1737ca	-0.00922961
210	0x3d856c3f	0.06514787
211	0x3d0f8443	0.035038244
212	0x3d9b15b0	0.07572496
213	0x3d083a2b	0.0332586
214	0x3cb3a3ce	0.021928694
215	0x3d8ea5d2	0.069652215
216	0x3ba0529e	0.0048926612
217	0x3d41d01b	0.047317605
218	0xbd90973b	-0.07060095
219	0x3d835850	0.06413329
220	0xbc710f25	-0.014713083
221	0xbc670f5d	-0.014102784
222	0x3d1f67fe	0.038917534
223	0xbd91c534	-0.07117692
224	0xbd687275	-0.05674978
225	0x3c8ed1e6	0.017434072
226	0xbdb4ad9e	-0.08822177
227	0x3ba49aaa	0.00502332
228	0xbdc3f24d	-0.095676996
229	0xbc439087	-0.0119363135
230	0xbd194994	-0.037423685
231	0xbda79288	-0.081822455
232	0xbdbfc93d	-0.09364555
233	0xbdab9b2f	-0.08379208
234	0xbdd3feab	-0.103513084
235	0xbc454a89	-0.012041696
236	0x3d8313f6	0.064002916
237	0xbcf45e4e	-0.029830124
238	0xbd13577a	-0.035972096
239	0x3b82b322	0.0039886395
240	0x3d2be3b2	0.041965194
241	0xbd47f969	-0.04882184
242	0xbdd167f9	-0.10224909
243	0xbda060ab	-0.07830938
244	0xbcf05178	-0.029335722
245	0x3d77ed3a	0.06052897
246	0x3d8a71f0	0.06760013
247	0xbac7ccd6	-0.0015243541
248	0xbd37a269	-0.04483262
249	0x3d185a36	0.037195407
250	0xbc5fe75e	-0.013666002
251	0x3d3a0eed	0.04542439
252	0xbd063666	-0.032766722
253	0x3a10ce1d	0.00055238773
254	0xbdb1b437	-0.086769514
255	0x3c357ccc	0.011077117

lstm.weight_hh_l0 f4 [512, 128]
0	0x3d45985f	0.048241016
1	0x3d3fb3f7	0.046802487
2	0x3d0558af	0.03255528
3	0x3cdab8cc	0.026699446
4	0xbd196a79	-0.037455056
5	0xbd5a9445	-0.053364057
6	0xba8578c0	-0.0010183081
7	0x3cdafaf5	0.026730994
8	0xbcb81aea	-0.022473771
9	0xbd6b604d	-0.057464886
10	0x3d397367	0.045276072
11	0xbd4db796	-0.05022391
12	0x3c343734	0.01099949
13	0xbd9b31c2	-0.0757785
14	0xbce10be0	-0.027471483
15	0xbd05967c	-0.032614216
16	0xbd95d34a	-0.07315691
17	0xbd69be68	-0.05706635
18	0xbda54c47	-0.080711894
19	0xbda7f2d3	-0.08200612
20	0xbd08bd03	-0.03338338
21	0x3d8c3dba	0.06847711
22	0x3cebbe72	0.028777335
23	0x3d6758a8	0.056481034
24	0xbd9a3d39	-0.075312085
25	0x3d880aae	0.06642662
26	0x3d7c5989	0.061608825
27	0x3d888227	0.066654496
28	0xbd591431	-0.05299777
29	0x3d6bc26e	0.05755847
30	0x3cfb2a56	0.030659836
31	0x3d2195f4	0.039449647
32	0xbd7de31a	-0.06198416
33	0xbc0c7950	-0.008573845
34	0xbc8aaaa0	-0.016927063
35	0xbb79a4d2	-0.0038092625
36	0x3d890a91	0.066914685
37	0x3d3f51c6	0.046708845
38	0xbd60a468	-0.05484429
39	0xbd22b081	-0.03971911
40	0x3cdd1d49	0.026991503
41	0xbce7a0c7	-0.028274907
42	0x3d946dc8	0.072475016
43	0x3bbb0228	0.005707044
44	0xbaf54965	-0.001871389
45	0x3d8df773	0.06931963
46	0xbd554c83	-0.05207492
47	0x3cc8292b	0.024433693
48	0xbc6a0bf4	-0.014285076
49	0xbd8923f4	-0.06696311
50	0x3d9c7c6f	0.07640921
51	0x3d157fe4	0.03649892
52	0x3c976eea	0.018485505
53	0xbd8af90c	-0.06785783
54	0x3d25a6b7	0.040442195
55	0xbd6205d4	-0.05518134
56	0xbd38be4b	-0.045103353
57	0x3d29b4be	0.041432135
58	0x3d53d96d	0.051721025
59	0x3d8b9766	0.06815986
60	0x3da1e775	0.07905475
61	0xbbff12ce	-0.007784224
62	0x3d9c3b6c	0.07628521
63	0xbd4933eb	-0.04912178
64	0xbd8f2ce7	-0.06990986
65	0xbc05a548	-0.008157082
66	0xbd9b256f	-0.07575499
67	0x3da3a257	0.07989948
68	0xbd2af532	-0.041737743
69	0xbda7c270	-0.08191383
70	0x3dab766b	0.08372196
71	0x3d6879a8	0.056756645
72	0x3bda52e4	0.0066627134
73	0x3c4c42f0	0.012467131
74	0x3cb7cfdf	0.022437988
75	0x3c9ee819	0.019397782
76	0x3dc25286	0.09488396
77	0x3d34ba0b	0.044122737
78	0xbdbc1ea7	-0.09185534
79	0xbd3988b0	-0.04529637
80	0xbd22dcf9	-0.039761517
81	0xbd8ada34	-0.067799
82	0x3da2e367	0.0795353
83	0xbd8ea36b	-0.06964763
84	0x3d228f5f	0.03968751
85	0x3d3d140d	0.0461617
86	0xbcae4041	-0.021270873
87	0x3b1d12bd	0.0023967468
88	0xb9a33a5d	-0.00031133267
89	0xbcbc0fe7	-0.022956802
90	0x3ccf78f4	0.02532623
91	0xbd6dd26d	-0.058062006
92	0xbd27000e	-0.040771537
93	0xbda965e4	-0.08271387
94	0xbd3c0bc0	-0.045909643
95	0x3c350ec2	0.011050882
96	0xbd18cd93	-0.037305426
97	0xbcf88f81	-0.030341865
98	0x3dcb6c28	0.099327385
99	0xbd650bec	-0.055919573
100	0xbd6eba74	-0.058283284
101	0x3c4720ea	0.012153843
102	0x3db5e8d6	0.088823006
103	0xbcdea1c8	-0.027176753
104	0x3d3e700e	0.046493582
105	0x3b8a2a2e	0.004216454
106	0xbd5d4ce1	-0.054028396
107	0x3d8e5739	0.0695023
108	0x3c9318b1	0.01795611
109	0xbcb5d41f	-0.022195874
110	0xbc7d6173	-0.015465128
111	0xbd3f6740	-0.046729326
112	0xbd134f07	-0.03596404
113	0xbc7beb12	-0.015375869
114	0x3d8ad49e	0.06778835
115	0xbc0a3f39	-0.008437925
116	0xbd2a8906	-0.041634582
117	0xbd10dd57	-0.035367336
118	0x3d954fe0	0.072906256
119	0xbd2559ce	-0.040368848
120	0xbd662f0d	-0.056197215
121	0x3d888aea	0.06667121
122	0x3da89936	0.08232348
123	0x3d36f20a	0.04466442
124	0xbd2c6e59	-0.042097423
125	0x3b849af7	0.0040467936
126	0xbd58e1f8	-0.052949876
127	0xba80f8f3	-0.0009839818
128	0xbd1ca582	-0.038243778
129	0xbd980fc2	-0.074248806
130	0xbcf2a836	-0.029621225
131	0x3d59d0e9	0.053177748
132	0xbdbdbbc7	-0.09264331
133	0x3d1239c0	0.035699606
134	0x3db77a10	0.089588284
135	0x3d7c2d9e	0.06156694
136	0xbd40b53b	-0.047047835
137	0x3d748bb7	0.059703555
138	0x3d0fd621	0.03511632
139	0x3c5995bf	0.013280331
140	0x3dc9a410	0.098457456
141	0x3baf93f8	0.0053582154
142	0xbcf10032	-0.029419038
143	0x3db4e1bd	0.08832119
144	0x3d815352	0.0631472
145	0x3db5ce5f	0.08877253
146	0x3c9c094c	0.019047402
147	0x3cb96cbc	0.022634856
148	0x3d455425	0.04817595
149	0xbcbe6e10	-0.023245841
150	0x3cefda1b	0.029278805
151	0x3db25418	0.08707446
152	0xbd41af36	-0.047286235
153	0x3d258f8e	0.040420108
154	0xbc67a53d	-0.014138517
155	0xbd7dfac3	-0.062006723
156	0xbcc56bdf	-0.024099289
157	0x3d660194	0.05615385
158	0xbc00ea7e	-0.007868407
159	0x3d93a4a6	0.072091386
160	0xbb800159	-0.0039064107
161	0x3d464cb4	0.048412994
162	0x3d1a72ea	0.037707247
163	0xbd247d7c	-0.040158734
164	0xbda5f5bf	-0.08103513
165	0x3dce6ce0	0.1007936
166	0x3ced3506	0.028955948
167	0xbd534e35	-0.051588256
168	0x3c8291d7	0.015938682
169	0x3d34606e	0.044037275
170	0x3d86f78a	0.06590183
171	0xbdb965bd	-0.09052608
172	0x3c8f8006	0.017517101
173	0xb9f2676d	-0.00046234895
174	0xbd9c367a	-0.07627578
175	0x3cad9322	0.021188322
176	0xbda5f58d	-0.08103476
177	0x3d8849f8	0.066547334
178	0x3d2246d9	0.039618347
179	0xbd90dc35	-0.07073251
180	0xbda9d0dc	-0.0829179
181	0x3d0da4b4	0.0345809
182	0xbc978e8d	-0.01850059
183	0x3dd5f9bf	0.10448026
184	0x3dad4812	0.08461012
185	0x3d30a9af	0.043130573
186	0xbaaba506	-0.0013095445
187	0x3d893e2d	0.06701312
188	0x3d2c0c70	0.04200405
189	0x3d4c1c5c	0.049831733
190	0x3c3e9713	0.011632699
191	0x3ded60bf	0.115907185
192	0xbd54f5a2	-0.051992066
193	0xbd83ef5a	-0.06442137
194	0xbd0a1326	-0.033709668
195	0xbcb0bdda	-0.021574903
196	0xbdbe2e5e	-0.092861876
197	0x3cb987f5	0.022647837
198	0xbcaafd38	-0.020872697
199	0xbda29738	-0.07938999
200	0xbd442d7b	-0.047894936
201	0xbd6367b5	-0.055518825
202	0xbd6addbc	-0.05734037
203	0xbd2a8a59	-0.041635845
204	0x3d59d8a5	0.053185124
205	0x3d46c70f	0.04852968
206	0x3d83f4ca	0.06443174
207	0xbd14b051	-0.03630096
208	0xb8b446d4	-8.5962616e-05
209	0xbcf0e614	-0.029406585
210	0x3b668d21	0.0035179334
211	0x3b617362	0.003440105
212	0xbdb376f7	-0.08762925
213	0x3c5f69c4	0.013636056
214	0x3d9fb717	0.077985935
215	0xbd881008	-0.06643683
216	0xbd2011e7	-0.039079573
217	0xbd9e9e2f	-0.07745015
218	0x3cbe6242	0.023240212
219	0xbd9ceb81	-0.07662106
220	0xbcec66d8	-0.028857633
221	0xbcab77d7	-0.020931168
222	0x3d297e20	0.041380048
223	0x3c3ab84d	0.01139648
224	0x3beca610	0.0072219446
225	0xbd898045	-0.067139186
226	0x3d6da50e	0.058018737
227	0x3cf576b5	0.02996383
228	0xbd25442c	-0.040348217
229	0x3d8fc226	0.07019453
230	0x3d8e97af	0.06962525
231	0x3d46492b	0.048409622
232	0xbd77f7ed	-0.060539175
233	0x3a039787	0.0005019833
234	0x3dacb2a1	0.08432508
235	0xbd7f62a6	-0.062349938
236	0x3c8c9a9e	0.017163571
237	0x3d498ec0	0.049208403
238	0xbbb0e160	-0.0053979605
239	0x3ce48ed3	0.027900135
240	0x3dd3a3ad	0.10333953
241	0x3ccd5360	0.02506417
242	0x3c4219b4	0.011846948
243	0xbcc15adf	-0.023602901
244	0xbd7b3fce	-0.061340146
245	0x3d5bc3ac	0.053653404
246	0xbd43efe2	-0.047836192
247	0xbd06c7ff	-0.032905575
248	0xbc26972e	-0.01016788
249	0x3c44bbb0	0.012007639
250	0xbd2e7812	-0.042594977
251	0x3d9b8117	0.07592981
252	0x3d23152b	0.03981511
253	0x3d8ce74a	0.068800524
254	0xbda1c0a8	-0.078980744
255	0x3ce4e794	0.027942456

lstm.bias_ih_l0 f4 [512]
0	0x3cbb337e	0.022851702
1	0x3d62d783	0.05538131
2	0xbb6c83ee	-0.0036089378
3	0x3d80bc97	0.06285971
4	0xbcf53e46	-0.02993692
5	0x3d122714	0.0356818
6	0x3da69971	0.081347354
7	0x3d3477fb	0.044059735
8	0xbb130d6c	-0.002243842
9	0xbd6f26a4	-0.05838646
10	0xbba517cb	-0.0050382367
11	0xbd3f4568	-0.04669705
12	0x3d7e0141	0.062012915
13	0xbdcf917e	-0.10135172
14	0xbd6fd36d	-0.05855124
15	0xbc1d45c3	-0.009599152
16	0xbd9fdac5	-0.07805399
17	0x3d73e8fa	0.059548356
18	0xbd880210	-0.066410184
19	0xbd1b31f4	-0.037889436
20	0xbd9ae94e	-0.075640306
21	0x3d289183	0.041154396
22	0xbd6a2892	-0.057167597
23	0x3da00b4b	0.07814654
24	0xbda62ac2	-0.08113624
25	0xbca388b1	-0.01996264
26	0x3b778041	0.0037765654
27	0xbda6430d	-0.08118258
28	0xbcbced4b	-0.023062369
29	0x3d03669f	0.03208029
30	0x3ccaefde	0.02477258
31	0x3d8d2243	0.068913005
32	0xbd1fb9f3	-0.038995694
33	0xbd14d624	-0.036337033
34	0xbd74e6ee	-0.059790544
35	0xbc87535a	-0.016519237
36	0x3ca9d33b	0.020730605
37	0x3d415d2e	0.047208004
38	0xbd8f45a9	-0.069957085
39	0x3d833575	0.064066805
40	0x3bcd9e31	0.0062749614
41	0xbc65023e	-0.013977585
42	0x3d976ed2	0.07394184
43	0x3c57a54f	0.013161971
44	0xbdb039cb	-0.08604773
45	0xbd04fcb1	-0.032467548
46	0xbc4e483d	-0.012590465
47	0xba737585	-0.0009287226
48	0x3c93f878	0.018062815
49	0xbcd9db69	-0.02659388
50	0xbdb1530a	-0.086584166
51	0x3d171323	0.036883485
52	0x3d4d1a81	0.050074104
53	0xbb915f41	-0.004436404
54	0x3da4dedd	0.0805032
55	0xbd9352cb	-0.07193526
56	0x3cb80466	0.022463035
57	0xbcbb9f8b	-0.022903224
58	0x3da85639	0.08219571
59	0x3d225a47	0.039636876
60	0xbbf3e0b4	-0.007442558
61	0xbc1ced6f	-0.009578093
62	0xbdc81b07	-0.0977078
63	0xbcfc3729	-0.030788021
64	0xbd80f4b8	-0.062966764
65	0xbdb03614	-0.086040646
66	0x3d8f2e48	0.06991249
67	0xbb4550de	-0.0030108015
68	0xbdbc320f	-0.091892354
69	0xbd5872f5	-0.052844007
70	0xbcc5c8da	-0.024143625
71	0xbc3e2e0f	-0.011607661
72	0xbd618735	-0.055060584
73	0x3bf09dce	0.0073430305
74	0xbda80342	-0.082037464
75	0xbdb0feb8	-0.08642334
76	0x3bd38098	0.0064545386
77	0x3d9a558f	0.0753585
78	0xbcd3c9dc	-0.02585309
79	0xbd9c1d94	-0.07622829
80	0xbda73d08	-0.08165938
81	0xbc7e874e	-0.015535189
82	0xbd7c5d06	-0.06161215
83	0x3d09f8b7	0.03368446
84	0x3d208c3d	0.03919624
85	0x3d59ced9	0.05317578
86	0xbd0746c3	-0.033026468
87	0xbdb8d609	-0.09025199
88	0x3cf7fb2d	0.030271137
89	0xbd18142c	-0.037128612
90	0xbda9321a	-0.08261509
91	0xbcf5289a	-0.029926587
92	0x3cba4446	0.022737633
93	0xbd8d7864	-0.06907728
94	0xbda8708a	-0.0822459
95	0xbc14cf57	-0.009082637
96	0xbd833f41	-0.06408549
97	0xbbfece20	-0.007776037
98	0x3d201dc6	0.039090894
99	0x3de22d32	0.110437766
100	0x3d8cd25e	0.06876062
101	0xbdd39be8	-0.10332471
102	0xbda57423	-0.08078792
103	0xbc835f5a	-0.016036678
104	0x3d1fea5a	0.039041854
105	0xbcadfd6f	-0.02123901
106	0x3d87e55b	0.06635543
107	0x3dea2b07	0.11433988
108	0xbb6d58e3	-0.003621631
109	0xbcb5d182	-0.022194628
110	0xbbc83fb7	-0.006111111
111	0xbdb672e7	-0.08908635
112	0xbcabda98	-0.020978257
113	0xbdac9a5e	-0.08427881
114	0x3c920efb	0.017829409
115	0xbdae4ba2	-0.085105196
116	0x3b0e93a0	0.0021755472
117	0xbd7813ee	-0.06056588
118	0xbd310ba8	-0.043224007
119	0x3d72a9af	0.059243854
120	0xbcd2c076	-0.025726538
121	0xbdc3e5ee	-0.0956534
122	0xbd3e5f98	-0.046477884
123	0x3da86f2a	0.08224328
124	0xbbc79276	-0.0060904576
125	0x3d07873a	0.033087946
126	0xbcbd968b	-0.023143074
127	0xbdbe02c5	-0.09277872
128	0x3d2a681e	0.0416032
129	0x3d476f2b	0.048690002
130	0xbd5da493	-0.05411203
131	0xbbc9a63d	-0.0061538504
132	0x3d0a46c3	0.03375889
133	0xbd575946	-0.052575372
134	0xbc5f311d	-0.013622549
135	0x3d901537	0.070352964
136	0x3d92ebf1	0.071739085
137	0xbdb2191e	-0.08696197
138	0xbd97a9a3	-0.074054025
139	0xbd443cf7	-0.047909703
140	0x3d226208	0.03964427
141	0xbc9626a0	-0.018328965
142	0x3d9495e1	0.0725515
143	0x3b82dc60	0.003993556
144	0xbd42b769	-0.047538195
145	0xbd4448ad	-0.04792087
146	0xbd6d694d	-0.05796175
147	0xbd6c751e	-0.05772888
148	0xbd9bd328	-0.07608634
149	0x3ca14cf2	0.01969001
150	0x3d2d9382	0.042377003
151	0x3de0ac27	0.109703355
152	0x3ba543ec	0.0050434973
153	0x3d2482b4	0.04016371
154	0x3cca1274	0.024667002
155	0xb9070362	-0.00012875863
156	0xbd588fff	-0.0528717
157	0x3d30bdf3	0.0431499
158	0x3d78d645	0.06075122
159	0xbda79ab0	-0.08183801
160	0xbd5a9a3c	-0.053369746
161	0x3d03419d	0.032044996
162	0xbc852949	-0.016255038
163	0x3bca67d9	0.0061769304
164	0x3d020f3d	0.031752814
165	0xbd98ff64	-0.07470587
166	0x3c50a3e9	0.012734392
167	0x3d9ba520	0.075998545
168	0xbddd3d3c	-0.10802695
169	0xbd11b4b7	-0.035572734
170	0x3d0b1d4d	0.03396349
171	0xbd30e28a	-0.043184794
172	0xbd83955f	-0.06424975
173	0xbdc7fe43	-0.097652934
174	0xbd85f8eb	-0.06541618
175	0x3d856a7c	0.06514451
176	0xbd9b808e	-0.07592879
177	0xbc3dff55	-0.01159652
178	0x3d730914	0.05933483
179	0xbd816079	-0.06317229
180	0xbdd2ed32	-0.10299148
181	0x3d607f39	0.05480883
182	0xbb6c9772	-0.003610101
183	0x3da38893	0.07985034
184	0xbdb95476	-0.09049313
185	0xbce5c159	-0.028046297
186	0xbc924c6f	-0.017858712
187	0x3d2b0a49	0.041757856
188	0x3bfc944f	0.0077081094
189	0xbcb99b28	-0.022656992
190	0xbd7e4c4f	-0.062084492
191	0x3d52fcf2	0.05151076
192	0x3d2dc524	0.042424336
193	0xbd84a5d9	-0.064769454
194	0x3d56b871	0.05242199
195	0x3b900c9b	0.004396034
196	0xbd71950a	-0.058980025
197	0xbdb5f5e0	-0.088847876
198	0x3c071d1c	0.008246686
199	0xbdc0607e	-0.093934044
200	0xbd9ca09f	-0.076478235
201	0xbd221687	-0.039572265
202	0x3bf5aa4c	0.0074971076
203	0xbc76681a	-0.015039468
204	0x3d8743a7	0.066047005
205	0xbd8b9f5d	-0.068175055
206	0xbd61ee04	-0.05515863
207	0xbd4d55c3	-0.050130617
208	0x3c89c071	0.016815396
209	0xbbf2eecb	-0.0074137202
210	0x3c6e659f	0.014550596
211	0xbddf0212	-0.10889067
212	0x3d9aecb1	0.075646766
213	0x3cfc34e6	0.030786943
214	0xbcf6b1df	-0.030114112
215	0xbd87cbbd	-0.06630657
216	0xbd7c4213	-0.06158645
217	0x3d834897	0.0641033
218	0x3d80f96a	0.06297572
219	0x3d1dc325	0.038516182
220	0xbd826ebb	-0.063687764
221	0x3d4dc955	0.050240833
222	0x3d2868e4	0.041115656
223	0xbd264470	-0.04059261
224	0xbd153c0c	-0.03643422
225	0x3d5fe287	0.054659393
226	0x3b895f48	0.0041922666
227	0xbd97718b	-0.073947035
228	0xbc609fff	-0.013710021
229	0xbdbdd4cf	-0.09269106
230	0xbbfeaec5	-0.007772299
231	0x3d4d7bba	0.050166823
232	0xbd71b4e3	-0.059010398
233	0xbd93fdfc	-0.07226178
234	0xbdb1b198	-0.086764514
235	0x3dbedbc7	0.09319263
236	0xbc9602fb	-0.018311968
237	0x3da87c03	0.08226778
238	0xbc97fde4	-0.018553682
239	0x3d9d421e	0.076786265
240	0x3c9a1288	0.018807665
241	0xbd0e4e0f	-0.03474241
242	0x3cb97fb0	0.022643894
243	0x3d8a0bc7	0.067405276
244	0x3cc783c7	0.024354829
245	0xbc797a89	-0.015226969
246	0xbc89f936	-0.016842466
247	0x3d338ff4	0.043838456
248	0xbceb314f	-0.028710036
249	0xbd5ba5d4	-0.053624943
250	0xbcef5834	-0.029216863
251	0x3dc3a8d8	0.09553689
252	0xbdb05af4	-0.08611098
253	0xbd19ae02	-0.037519462
254	0xbd8ef5ac	-0.06980452
255	0xbd86ef72	-0.06588639

lstm.bias_hh_l0 f4 [512]
0	0x3d8b2459	0.06794042
1	0xbcbdf034	-0.023185827
2	0xbce1cf97	-0.027564807
3	0xbcc15212	-0.023598704
4	0xbdb5293e	-0.08845757
5	0x3de17632	0.11008872
6	0x3d485b83	0.048915397
7	0x3d1d83c7	0.03845575
8	0xbcfeb35c	-0.031091385
9	0xbdcb6544	-0.09931424
10	0x3d6c0dc6	0.057630323
11	0x3c4990db	0.012302603
12	0xba9e4b49	-0.001207688
13	0x3d902380	0.07038021
14	0x3c0795b1	0.008275435
15	0xbd61e20b	-0.055147212
16	0x3d244f3d	0.04011463
17	0x3d113705	0.03545286
18	0xbd980153	-0.074221276
19	0x3c35961b	0.011083151
20	0xbdbadc15	-0.091240086
21	0xbd469747	-0.048484113
22	0xbd2737bf	-0.040824648
23	0x3d3637e6	0.044486903
24	0xbd9c168a	-0.076214865
25	0x3d0f2955	0.034951527
26	0x3caf3637	0.021388156
27	0xbda07723	-0.078352235
28	0xbc307dc5	-0.010772173
29	0x3d19a68f	0.03751236
30	0x3c759511	0.0149891535
31	0xbdb4a14f	-0.0881983
32	0xbd8992f3	-0.067174815
33	0x3b904d21	0.0044037257
34	0x3ba80663	0.0051277145
35	0x3d45a836	0.04825612
36	0x3dad74d4	0.08469549
37	0x3d9cb5da	0.07651873
38	0xbb69b477	-0.0035660544
39	0x3c993145	0.018700251
40	0x3b8bea79	0.0042698947
41	0xbd05193e	-0.032494776
42	0x3d27b721	0.04094613
43	0x3d15451b	0.036442857
44	0xbd88a9be	-0.06673001
45	0x3d1d46c3	0.03839756
46	0x3cdda0df	0.027054248
47	0xbb9cdada	-0.0047868313
48	0xba8d709e	-0.0010791009
49	0x3da7a489	0.081856795
50	0xbd659f3b	-0.056060057
51	0xbcca7a38	-0.024716482
52	0xbdb46b31	-0.08809508
53	0x3cfc78e4	0.030819364
54	0xbb82000c	-0.0039672907
55	0xbd84702f	-0.0646671
56	0xbd990651	-0.07471908
57	0xbd3e64c1	-0.046482805
58	0x3d85d4ab	0.06534704
59	0x3d43d1d3	0.047807526
60	0x3da5a48e	0.08088027
61	0x3d83e786	0.06440644
62	0x3d8a8042	0.067627445
63	0x3d116d7e	0.03550481
64	0xbd8afaaa	-0.067860916
65	0xbd2331d9	-0.03984246
66	0xbda3dce4	-0.08001116
67	0xbd863a56	-0.065540954
68	0x3da61d65	0.08111075
69	0xbab56c32	-0.0013841449
70	0xbd9a6ca2	-0.07540251
71	0x3d1df28e	0.038561396
72	0xbdc676a9	-0.096906014
73	0x3cd717b2	0.026256416
74	0xbd9d2360	-0.07672763
75	0xbc9f4e09	-0.01944639
76	0x3cdb5a1f	0.026776372
77	0xbd3bcfe4	-0.045852557
78	0x3d3e31ed	0.04643433
79	0xbc9e509d	-0.019325549
80	0x3d47965c	0.04872738
81	0x3d07ecfa	0.033184983
82	0xbd3a1184	-0.04542686
83	0xbdebd478	-0.115151346
84	0x3d13528a	0.035967387
85	0x3c07905c	0.008274164
86	0x3bff7571	0.0077959825
87	0x3c9bd607	0.019022955
88	0x3d38e856	0.045143448
89	0x3d6ba955	0.057534534
90	0xbb50d49c	-0.0031865006
91	0x3bc42962	0.0059863785
92	0xbc6bd363	-0.01439366
93	0x3d3b5c81	0.045742515
94	0xbd0af74c	-0.033927247
95	0x3d951946	0.07280211
96	0x3d899218	0.06717318
97	0x3d37c661	0.044866923
98	0x3d75cf9c	0.060012445
99	0x3c639a95	0.013891836
100	0x3da1e25c	0.07904503
101	0x3d3dccd0	0.046337903
102	0x3d5fa66e	0.05460208
103	0x3d416a97	0.047220793
104	0xbbfff66c	-0.007811358
105	0x3d060403	0.03271867
106	0xbd9e73d6	-0.07736938
107	0xbb172b40	-0.002306655
108	0xbcb507a4	-0.02209837
109	0xbd8cee2b	-0.068813644
110	0xbbb6f4ee	-0.005583397
111	0x3d24e3ff	0.040256497
112	0x3ca44bfb	0.020055762
113	0x3cbf8d18	0.023382708
114	0xbd3a12d1	-0.0454281
115	0xbd08c386	-0.03338959
116	0xbbb4edea	-0.0055215256
117	0x3d23a438	0.039951533
118	0xbbeb7a69	-0.0071862233
119	0xbcf53896	-0.029934209
120	0xbcc108e9	-0.023563819
121	0xbcec5d46	-0.02885307
122	0x3d210448	0.039310724
123	0x3d83faf6	0.064443514
124	0xbdc38639	-0.09547085
125	0xbda93cff	-0.08263587
126	0xbca67e04	-0.02032376
127	0x3d996dc5	0.0749164
128	0x3bdff215	0.0068342783
129	0xbbab640d	-0.005230433
130	0xbca60520	-0.020266116
131	0xbd08b479	-0.033375237
132	0x3c81b6c5	0.015834222
133	0xbcf2358c	-0.029566549
134	0xbd08ead4	-0.033427075
135	0xbd719335	-0.05897828
136	0x3d1efcdd	0.038815368
137	0xbc2107cb	-0.009828518
138	0x3d4c6a83	0.049906265
139	0xbd6ec9c7	-0.0582979
140	0xbd0be00b	-0.03414921
141	0xbdc2b8a0	-0.09507871
142	0x3d8af906	0.06785779
143	0xbd74a7f9	-0.059730504
144	0xbdd4dc94	-0.103936344
145	0xbc913b9d	-0.017728621
146	0x3d9a7131	0.07541121
147	0x3cd364b2	0.025804851
148	0x3c5e015e	0.013550131
149	0x3d84b5f4	0.06480017
150	0xbd82bb4f	-0.063833825
151	0x3c3b220a	0.01142169
152	0xbc340657	-0.01098784
153	0xbd9de0c8	-0.07708889
154	0xbda8f1bf	-0.082492344
155	0xbd25f7e1	-0.0405196
156	0xbc6d36ba	-0.01447838
157	0xbd14a148	-0.036286622
158	0xbdb00988	-0.08595568
159	0xbdbce285	-0.09222893
160	0xbcd294f0	-0.025705785
161	0x3d9e7436	0.07737009
162	0xbd9f6d9b	-0.077845775
163	0x3d665fed	0.056243826
164	0xbc896651	-0.016772421
165	0xbda2d390	-0.079505086
166	0xbcbcfa49	-0.023068564
167	0x3cea3af5	0.028592566
168	0x3cb4e560	0.02208203
169	0x3d989037	0.07449382
170	0xbd3eb43f	-0.046558615
171	0xbd370237	-0.044679847
172	0xbcf40073	-0.02978537
173	0xbdd2efa3	-0.10299613
174	0xbd6b0689	-0.05737928
175	0x3ca17ab6	0.019711833
176	0xbd7e486f	-0.062080797
177	0xbd7787b8	-0.060432166
178	0x3d8547d9	0.065078445
179	0xbdaed379	-0.08536429
180	0xbdb3619d	-0.08758853
181	0xbce8bb91	-0.028409751
182	0x3d1e89b3	0.03870554
183	0xbd462959	-0.048379276
184	0x3d5eef03	0.054427158
185	0xbd8f861b	-0.070080005
186	0xbdab0dad	-0.08352218
187	0xbd17c4d9	-0.037052963
188	0x3cba9d54	0.022780098
189	0x3cc9730c	0.024590991
190	0xbd09b722	-0.033621915
191	0xbd47839c	-0.048709497
192	0xbbece567	-0.0072294953
193	0xbdb7f29a	-0.089818195
194	0x3d3af88d	0.045647193
195	0xbdbfb980	-0.09361553
196	0x3d8071b8	0.0627169
197	0x3d728ac7	0.05921438
198	0x3d3dc8c2	0.046334036
199	0x3c8f15d7	0.017466469
200	0x3d2a5884	0.04158832
201	0xbd83edee	-0.06441866
202	0xbda3cde1	-0.07998253
203	0xbd741253	-0.059587788
204	0xbd22c4c7	-0.039738443
205	0x3bcd022c	0.0062563624
206	0x3d381da7	0.044950154
207	0xbdaddfa6	-0.08489923
208	0x3d08dbe7	0.03341284
209	0x3d43cb3c	0.04780124
210	0xbd262e1c	-0.040571317
211	0xbde8fcbd	-0.11376331
212	0x3cc9e315	0.024644414
213	0x3d81eaf8	0.06343645
214	0xbd877488	-0.066140234
215	0xbdd21e96	-0.1025974
216	0xbd5f0b64	-0.054454222
217	0x3bd23a25	0.006415623
218	0x3d9736fb	0.073835336
219	0x3d1e0918	0.03858289
220	0xbda534c9	-0.080667086
221	0x3cec07d6	0.02881233
222	0x3d30b252	0.04313881
223	0xbc1fa09c	-0.009742882
224	0xbd071ebd	-0.0329883
225	0xbd731432	-0.05934543
226	0x3d87976e	0.0662068
227	0x3d06b4e4	0.032887354
228	0xbd694e44	-0.056959406
229	0xbcfa8201	-0.030579569
230	0xbddb3c3f	-0.107048504
231	0xbc2879ec	-0.010282975
232	0x3d2dea7d	0.042459954
233	0xbd212066	-0.03933754
234	0x3d2563e4	0.040378466
235	0xbd767f8f	-0.060180243
236	0xbd96afdb	-0.073577605
237	0x3aecfe10	0.0018081088
238	0x3bbcbfad	0.005760154
239	0x3cf31dda	0.02967732
240	0x3d24ef22	0.040267117
241	0xbc3defe2	-0.011592837
242	0x3db4d0c5	0.08828882
243	0x3d7b52ca	0.06135825
244	0x3b4cb6a6	0.0031236797
245	0x3d827a7e	0.0637102
246	0x3c8c1ec1	0.017104508
247	0x3d0640a8	0.032776505
248	0xbdb20784	-0.0869284
249	0xbddbb028	-0.107269585
250	0x3d1ef545	0.038808126
251	0x3d75032a	0.05981747
252	0xbd83c726	-0.06434469
253	0xbce660ec	-0.028122388
254	0x3d85ba82	0.06529714
255	0x3bb990d7	0.005663018

lstm.weight_ih_l1 f4 [512, 128]
0	0xbda34a3f	-0.07973146
1	0xbd4f2ce2	-0.050579913
2	0xbd0d1c53	-0.03445084
3	0xbd60538f	-0.054767188
4	0xbd99bfb0	-0.075072646
5	0x3cb88fd1	0.022529515
6	0x3d81b8ae	0.06334053
7	0xbd5a08dd	-0.05323111
8	0xb91fb099	-0.0001522921
9	0xbc3970e3	-0.011318418
10	0xbd814c52	-0.06313385
11	0x3dd2db5b	0.10295745
12	0x3b481ebe	0.0030535902
13	0x3d806452	0.062691346
14	0xbcca9a24	-0.024731703
15	0xbbdb5b7a	-0.0066942545
16	0xbdb8e567	-0.0902813
17	0xbda070ff	-0.07834052
18	0x3d87d41f	0.06632256
19	0xbc33428b	-0.010941158
20	0x3bfe96be	0.0077694347
21	0x3a14aa8c	0.00056711654
22	0xbd80358c	-0.06260213
23	0xbcd0fed2	-0.025512133
24	0xbccc8058	-0.024963543
25	0xbd21a7e6	-0.03946676
26	0xbcac6a3d	-0.021046752
27	0x3d9265d8	0.071483314
28	0x3d6efd05	0.058346767
29	0x3d3380e9	0.04382411
30	0xbd80234a	-0.06256731
31	0xbc8b980f	-0.01704028
32	0x3db5bf7e	0.08874415
33	0xbd61792b	-0.055047195
34	0x3d2d9bd1	0.042384926
35	0x3bda1fb9	0.0066566137
36	0xbd5e2898	-0.054237932
37	0x3d6ec617	0.058294382
38	0x3c54a0fe	0.012977837
39	0xbd9046b4	-0.070447356
40	0x3d90167e	0.0703554
41	0x3daa9abc	0.083302945
42	0xbd9f3f78	-0.077757776
43	0xbd2b50ba	-0.041825034
44	0x3c1bbaf1	0.0095050195
45	0x3db2bee3	0.08727815
46	0xbd9fd055	-0.07803408
47	0xbda59972	-0.08085908
48	0x3d89eb85	0.06734375
49	0xbd7111ee	-0.05885499
50	0x3c9fbb28	0.019498423
51	0xbd4c4ed0	-0.04987985
52	0xbc0e5881	-0.008688093
53	0x3db2e36d	0.08734784
54	0xbdaf7100	-0.08566475
55	0xbd02ac36	-0.031902514
56	0x3dab6402	0.08368684
57	0x3d8291a6	0.063754365
58	0xbcaea9c5	-0.021321187
59	0x3d751dbd	0.059842814
60	0xbd17d679	-0.03706977
61	0xbdbd404b	-0.092407785
62	0x3dbc30f4	0.091890246
63	0xbcaefc58	-0.021360561
64	0xbd86aa3f	-0.065754406
65	0x3dacd768	0.08439523
66	0xbd0062ac	-0.0313441
67	0x3db58670	0.088635325
68	0x3dbbe1a2	0.091738954
69	0x3cfd91cf	0.030953316
70	0x3dab3e3a	0.08361478
71	0x3d92551a	0.07145138
72	0xbc28d6be	-0.010305105
73	0x3d60f445	0.054920454
74	0xbd6a8090	-0.057251513
75	0xbce49421	-0.027902665
76	0x3dd1bf6c	0.10241589
77	0x3d5225ce	0.051305585
78	0xbdba4648	-0.09095436
79	0x3d2f8041	0.04284692
80	0xbd5e554b	-0.05428056
81	0xbdb8db8d	-0.09026251
82	0xbdb713b8	-0.08939308
83	0x3c958e9f	0.018256484
84	0x3d2d97da	0.042381145
85	0x3d6a3568	0.05717984
86	0xbd55faaf	-0.052241024
87	0x3d8ccfda	0.06875582
88	0x3c203b28	0.009779729
89	0x3d88ec84	0.06685737
90	0xbd67fecf	-0.05663949
91	0x3d75baa9	0.059992466
92	0xbd84ab81	-0.06478024
93	0xbc106266	-0.0088125225
94	0xbd790562	-0.06079615
95	0xbd5d2ae6	-0.05399599
96	0x3d4e17e6	0.05031576
97	0x3d6f802b	0.05847184
98	0xbd86948b	-0.06571301
99	0xbd923cf2	-0.07140531
100	0xbbff0f39	-0.007783797
101	0x3cd503b8	0.02600275
102	0xbc7f3063	-0.015575501
103	0x3db9bc6c	0.09069142
104	0x3d66e4c2	0.056370504
105	0x3daaa6a1	0.08332563
106	0xbd863141	-0.06552363
107	0x3d609ab8	0.05483505
108	0x3d32dfc0	0.043670416
109	0x3d07d540	0.033162355
110	0xbb60e9c6	-0.0034319027
111	0x3dc0d492	0.094155446
112	0xbd5472e0	-0.051867366
113	0xbd29d3ea	-0.041461863
114	0x3b1de9ae	0.0024095583
115	0x3d248827	0.040168907
116	0xbc3c9460	-0.011509985
117	0x3d2df910	0.042473853
118	0xbb942995	-0.0045215585
119	0xbcfe393b	-0.031033149
120	0xbc9ca21d	-0.01912027
121	0xbcfe099d	-0.031010443
122	0xbba09094	-0.0049000476
123	0x3d956f1d	0.07296584
124	0x3cf4dc76	0.02989028
125	0xbd9b2115	-0.07574669
126	0x3a683833	0.0008858472
127	0x3c4888cc	0.012239646
128	0x3d4b0dca	0.049573697
129	0x3d4ebaa4	0.050470963
130	0x3cee3b5c	0.02908104
131	0x3c285340	0.010273755
132	0xbcfdc978	-0.030979857
133	0xbdb360d4	-0.08758703
134	0xbd7ff8e3	-0.062493216
135	0x3d2c53b2	0.042072006
136	0xba82b028	-0.0009970712
137	0x3d626281	0.055269722
138	0x3d40ed10	0.04710108
139	0x3db6d70a	0.08927734
140	0x3d138f9f	0.03602564
141	0x3ca5466d	0.020175183
142	0xbd19278a	-0.037391223
143	0xbd339eba	-0.043852545
144	0xbd9b45ff	-0.0758171
145	0x3d4f6a4c	0.050638482
146	0xbda1f306	-0.07907681
147	0x3daf489c	0.08558771
148	0xbcd70f5b	-0.02625244
149	0xbd64977b	-0.055808526
150	0xbd410243	-0.047121298
151	0x3d9e05b6	0.07715933
152	0x3cbb032b	0.022828659
153	0x3bfd236b	0.0077251694
154	0x3cd8d9dd	0.026471073
155	0x3d106098	0.03524837
156	0xbd91c5e7	-0.07117825
157	0xbd894ef1	-0.0670451
158	0xbb9ed783	-0.0048474683
159	0xbd1fda52	-0.039026566
160	0xbca9ce35	-0.02072821
161	0x3da26bb9	0.07930703
162	0xbd86e632	-0.06586875
163	0xbcc121b9	-0.02357565
164	0x3c277413	0.010220545
165	0x3bb4f1c6	0.0055219857
166	0xbb5a0cf6	-0.0033271885
167	0xbba59ca6	-0.0050540743
168	0xbd2fdf36	-0.04293748
169	0xbdbcb566	-0.092142865
170	0xbd509f63	-0.050933253
171	0x3da81953	0.08207955
172	0x3c88d598	0.016703412
173	0x3d207f2e	0.039183788
174	0xbd3a7122	-0.045518048
175	0x3d9a8720	0.07545304
176	0xbc96d8bf	-0.0184139
177	0xbd601e4c	-0.054716393
178	0xbc6caf88	-0.014446147
179	0xbce70d50	-0.02820459
180	0x3d81c309	0.06336028
181	0x3c8e02cd	0.01733532
182	0xbd4d504f	-0.050125416
183	0x3da4773d	0.080305554
184	0x3ce99ada	0.028516222
185	0xbd214b49	-0.03937844
186	0xbd56679e	-0.05234491
187	0xbc41383d	-0.011793193
188	0xbc6ed796	-0.014577767
189	0x3d55760c	0.05211453
190	0xbbd92b3d	-0.006627469
191	0xbd5af61b	-0.05345736
192	0xbc8dd6be	-0.017314311
193	0xbd1d4502	-0.03839589
194	0x3d9eb031	0.077484496
195	0x3c7d6d56	0.015467962
196	0x3cc43b9b	0.023954203
197	0x3c0cef4a	0.008601973
198	0x3d5d21eb	0.053987425
199	0x3d9f0995	0.077654995
200	0x3b7a920d	0.0038234026
201	0x3d6b4da1	0.05744708
202	0x3d56cb16	0.05243977
203	0x3d1dbcce	0.038510136
204	0x3d399d13	0.045315813
205	0xbac65511	-0.0015131553
206	0xbda3179f	-0.0796349
207	0xbda1fdae	-0.07909714
208	0x3d054360	0.032534957
209	0xbc8105be	-0.015749808
210	0xbcb72081	-0.022354366
211	0x3cf086d1	0.02936116
212	0xbd8a124f	-0.06741773
213	0x3cce8372	0.025209162
214	0xbc4ba921	-0.01243046
215	0x3d37fa39	0.044916365
216	0x3d5295f9	0.051412556
217	0xbbb22301	-0.0054363017
218	0xbcbea39f	-0.02327138
219	0xbd3c898d	-0.046029616
220	0x3cef8fb1	0.029243322
221	0x3d6bd7f8	0.05757901
222	0xbc698c19	-0.014254593
223	0xbbc59cfe	-0.006030678
224	0x3d4fa122	0.050690778
225	0xbd07e4a0	-0.03317702
226	0xbd1d12de	-0.03834807
227	0x3c6456cf	0.013936712
228	0x3db7b280	0.08969593
229	0x3d8159d0	0.063159585
230	0xbc8af9d8	-0.016964838
231	0xbd71e1e0	-0.0590533
232	0x3d6bb1e0	0.05754268
233	0xbd1b9348	-0.037982255
234	0xbc2b01c6	-0.010437435
235	0x3c960195	0.018311301
236	0xbd9ae917	-0.075639896
237	0x3be9556e	0.0071207797
238	0xba2a04f6	-0.00064857246
239	0x3c850fff	0.01624298
240	0xbd834bb8	-0.064109266
241	0xbd921a38	-0.07133907
242	0xbd5ee693	-0.05441911
243	0x3d3cad13	0.046063494
244	0xbd98e89a	-0.0746624
245	0xbbd824b2	-0.0065961713
246	0xbdb2c293	-0.08728518
247	0x3da3773a	0.07981725
248	0x3da98908	0.0827809
249	0xbc1c0605	-0.00952292
250	0xbce382f8	-0.027772412
251	0x3d243838	0.040092677
252	0xbce03d9e	-0.027373131
253	0xbd8f25d4	-0.06989637
254	0xbcd53c03	-0.026029592
255	0xbd39b4f4	-0.045338586

lstm.weight_hh_l1 f4 [512, 128]
0	0x3d8dc5f6	0.06922524
1	0xbd55ecce	-0.052227788
2	0xbc8238fe	-0.015896317
3	0xbcf6421d	-0.030060822
4	0x3d5f60b9	0.0545356
5	0x3d2f3970	0.042779386
6	0xbd9a6539	-0.07538838
7	0x3ce815c7	0.028330697
8	0x3d97379c	0.073836535
9	0x3d03154f	0.032002743
10	0xbcdd0fe2	-0.026985113
11	0x3d42d265	0.04756393
12	0xbcf2131d	-0.02955013
13	0x3d26e396	0.040744387
14	0x3c7e22b9	0.015511208
15	0xbc27bd0d	-0.010237944
16	0x3b170236	0.002304209
17	0xbd9645f0	-0.07337558
18	0xbcc0f2af	-0.02355322
19	0xbd1eaa66	-0.038736723
20	0x3c5e45d1	0.01356645
21	0xbd21cad4	-0.039500073
22	0xbd96a52c	-0.07355723
23	0xbd78d69c	-0.060751542
24	0xbd0facc8	-0.035076886
25	0xbd9db1c0	-0.07699919
26	0x3cb1ea86	0.021718275
27	0x3d5fddca	0.054654874
28	0xbcebcb1f	-0.02878338
29	0xbb6bf4c3	-0.0036004044
30	0x3d3e9d9a	0.04653702
31	0x3d6e6af1	0.058207456
32	0x3cf95406	0.030435573
33	0xbd6d430b	-0.057925265
34	0xbba7686b	-0.005108883
35	0x3cb5293a	0.022114385
36	0x3d322c56	0.043499313
37	0x3dbd6996	0.092486545
38	0x3cb2ac0a	0.02181055
39	0xbd8c5f11	-0.0685407
40	0x3d451bdc	0.048122272
41	0xbc3e4b62	-0.011614652
42	0xbc7f0b3c	-0.015566643
43	0x3daa6830	0.083206534
44	0x3d632382	0.055453785
45	0x3cd08998	0.025456235
46	0xbd6e2884	-0.058144107
47	0xbcdd9573	-0.027048802
48	0x3bb09558	0.005388897
49	0xbd6f3121	-0.058396462
50	0xbd3e4f04	-0.046462074
51	0xbcb1ed47	-0.021719588
52	0xbcf772bd	-0.030206079
53	0xbd34c2aa	-0.04413096
54	0x3d99dad8	0.07512444
55	0x3d8f272b	0.069898926
56	0x3ce5e14c	0.028061531
57	0xbc16fbcd	-0.009215307
58	0xbda27391	-0.07932199
59	0x3d9a7212	0.075412884
60	0xbbec2048	-0.0072059967
61	0x3c5e83ca	0.013581226
62	0x3d6f5e68	0.058439642
63	0x3d6d2a74	0.057901815
64	0x3b4e6921	0.0031495767
65	0x3dc24105	0.09485058
66	0xbda9b936	-0.08287279
67	0xbd0c3c29	-0.03423706
68	0xbc4e2378	-0.012581699
69	0xbd5e10bf	-0.05421519
70	0x3d02494f	0.031808194
71	0x3cc8638e	0.024461534
72	0x3d59175f	0.053000804
73	0x3d970846	0.07374625
74	0xbd19b016	-0.037521444
75	0xbd0fd04d	-0.03511076
76	0x3d64d810	0.055870116
77	0xbd2cc539	-0.042180274
78	0x3c1dbbae	0.009627266
79	0x3da07854	0.07835451
80	0xbb63658e	-0.0034697982
81	0x3d60282e	0.05472582
82	0xbd3cbf25	-0.046080727
83	0x393ced9e	0.00018017596
84	0x3ce1fa1e	0.027585085
85	0x3da3bba8	0.07994777
86	0x3c586fe5	0.0132102715
87	0xbd5aee64	-0.053450003
88	0xbce9375a	-0.028468776
89	0x3d629119	0.055314157
90	0xbd99c93a	-0.07509084
91	0xbd0a358b	-0.03374247
92	0xbd4fc408	-0.05072406
93	0x3cc8f994	0.02453307
94	0xbda2c38c	-0.07947454
95	0x3c1f702a	0.009731332
96	0x3d8fbcd5	0.07018439
97	0xbda75826	-0.0817111
98	0xbc44ecb5	-0.012019326
99	0xbc810e75	-0.015753964
100	0x3b07a2ae	0.002069633
101	0xbd6f08a4	-0.05835785
102	0x3cdd6884	0.027027376
103	0xbc113bf5	-0.0088643925
104	0xbc9391d3	-0.01801387
105	0xbd645ac0	-0.05575061
106	0x3cb500c6	0.022095095
107	0xbc4089dd	-0.011751619
108	0x3be95dbf	0.007121771
109	0x3c85744a	0.016290803
110	0x3c5e717d	0.013576862
111	0x3c91b174	0.017784812
112	0x3d4a9486	0.04945805
113	0xbd9c68b5	-0.07637159
114	0xbd0a5a3e	-0.033777468
115	0x3c981a50	0.018567234
116	0x3da7fc28	0.08202392
117	0xbd61a90a	-0.05509285
118	0xbd37727e	-0.044786923
119	0xbce6733d	-0.028131122
120	0x3d5c4f69	0.05378667
121	0x3d193b25	0.03740992
122	0x3ad9e6c5	0.0016624561
123	0x3d4df047	0.050277974
124	0xbca0ad88	-0.019613996
125	0xbce34d42	-0.0277468
126	0x3dbb4c5d	0.091454245
127	0x3d8e50ad	0.069489814
128	0xbd5b6459	-0.053562496
129	0x3da24106	0.079225585
130	0xbd41c826	-0.047310017
131	0xbb1cedeb	-0.002394552
132	0xbc957955	-0.018246332
133	0x3db298c6	0.087205455
134	0x3ce14a3d	0.02750122
135	0xbca2a67c	-0.019854777
136	0x3bd0e9ac	0.006375512
137	0x3c6fd0cf	0.014637186
138	0x3cdf2343	0.027238494
139	0xbdb4474a	-0.0880266
140	0x3c3868f3	0.011255491
141	0xbcea123b	-0.028573146
142	0xbc819a35	-0.015820602
143	0x3d81fb8d	0.06346808
144	0xbdac94b5	-0.08426801
145	0xbd66023f	-0.056154486
146	0xbccc7efb	-0.024962893
147	0xbdb85fe8	-0.09002668
148	0xbcba43ce	-0.02273741
149	0xbd230fd1	-0.039810006
150	0x3c5679b7	0.0130905425
151	0xbd5db4f2	-0.05412764
152	0xbd1c2fb8	-0.038131446
153	0x3c04059b	0.008057977
154	0xbcb2946a	-0.021799285
155	0x3db526dc	0.088453025
156	0x3d9e1d0d	0.07720385
157	0xbd23a7d2	-0.039954968
158	0x3cbc98e0	0.023022115
159	0xbd232947	-0.039834287
160	0xbd77a57b	-0.06046055
161	0x3d54219d	0.05178987
162	0x3d305aa1	0.04305518
163	0xbd8079b1	-0.06273211
164	0xbd196fa3	-0.03745998
165	0xbd987756	-0.074446365
166	0xbd5d4637	-0.05402204
167	0xbd2b0b42	-0.041758783
168	0xbbffa920	-0.0078021437
169	0x3d9f4394	0.077765614
170	0xbd82b820	-0.06382775
171	0x3d904941	0.07045222
172	0x3d9238de	0.07139753
173	0xbbeeff32	-0.0072936052
174	0xbbb7ca95	-0.0056088665
175	0xbbc31709	-0.0059536737
176	0x3d928afe	0.07155417
177	0xbd710fd6	-0.058852993
178	0x3cf6999a	0.03010254
179	0x3c6b8fe8	0.014377572
180	0xbd5cfae4	-0.053950205
181	0x3d68991f	0.056786653
182	0xbd249da9	-0.04018942
183	0xbc6a3b8a	-0.014296422
184	0x3bf4ccdf	0.0074707116
185	0xbd1c2880	-0.03812456
186	0x3bf18584	0.0073706526
187	0x3d66a887	0.056313064
188	0x3cf02211	0.02931312
189	0xbd8e7c76	-0.06957333
190	0x3d12dc88	0.035854846
191	0xbd8150d1	-0.06314243
192	0xbd3e4912	-0.046456404
193	0x3d9264dc	0.07148144
194	0xbbe2426d	-0.006904891
195	0x3da50760	0.08058047
196	0xbd40ab51	-0.04703838
197	0x3daa45dd	0.083141066
198	0xbdae7265	-0.08517913
199	0xbd1c7be2	-0.03820408
200	0xbd02cfb4	-0.031936362
201	0x3ae3707f	0.0017352252
202	0x3d911cd0	0.07085574
203	0x3dcc8199	0.09985656
204	0x3c8c9eab	0.017165503
205	0xbc3c5ffc	-0.011497494
206	0xbdb41d59	-0.0879466
207	0x3da06298	0.07831305
208	0x3ca5e510	0.020250827
209	0xbc6705f3	-0.0141005395
210	0x3c8090e0	0.015694082
211	0x3d989ad7	0.07451408
212	0x3d34decd	0.044157792
213	0xbc893755	-0.016750017
214	0x3c84bf46	0.016204488
215	0x3daf744e	0.08567105
216	0xbc53c648	-0.012925692
217	0xbda461a7	-0.08026438
218	0x3cfaacb0	0.030599922
219	0xbd5bfd53	-0.053708386
220	0xbd13a233	-0.036043357
221	0xbcf1ba5d	-0.02950781
222	0xbd78ff9f	-0.060790654
223	0x3d4f4d11	0.050610606
224	0xbc74f3c5	-0.014950697
225	0x3db85786	0.09001069
226	0xbd761386	-0.060077213
227	0x3da84bcf	0.08217584
228	0x3ab96799	0.0014145254
229	0x3c6e4b42	0.01454431
230	0x3ca8c129	0.020599918
231	0x3cc7425e	0.024323639
232	0x3d891be7	0.06694775
233	0xbd0b2999	-0.033975217
234	0x3d4eb282	0.050463207
235	0xbdc231e7	-0.09482174
236	0xbd85b52a	-0.06528695
237	0x3d3c8ea2	0.046034463
238	0xbc031a93	-0.008001941
239	0x3b8b3494	0.004248211
240	0xba9ec48b	-0.0012113018
241	0xbd662fd6	-0.056197964
242	0xbd48a3b8	-0.04898426
243	0xbdab1428	-0.08353454
244	0xbceaeba2	-0.028676812
245	0xbdb3a454	-0.087715775
246	0xbd7bb959	-0.06145606
247	0x3c49bed8	0.012313567
248	0xbdc3138c	-0.09525213
249	0x3d44a665	0.04801025
250	0x3c2fc5a8	0.010728277
251	0xbd07b0c1	-0.03312755
252	0xbd23be22	-0.039976247
253	0x3c8a542a	0.016885836
254	0x3d7daf84	0.061934963
255	0x3d5b4168	0.053529173

lstm.bias_ih_l1 f4 [512]
0	0xbdb3a2ea	-0.08771308
1	0x3c336b62	0.010950895
2	0xbda3ba4d	-0.079945184
3	0x3d470921	0.04859269
4	0xbd5a6c08	-0.053325683
5	0x3d7158f2	0.058922715
6	0x3cff295e	0.031147655
7	0xbc278857	-0.010225377
8	0x3d98eca0	0.07467008
9	0xbdbf5e30	-0.09344137
10	0x3d08bd24	0.033383504
11	0xbb8cc708	-0.0042961873
12	0x3d8351e7	0.06412106
13	0x3d0ded88	0.034650356
14	0xbd905206	-0.07046895
15	0xbd3dd787	-0.04634812
16	0x3cc70ebe	0.024299022
17	0x3d04b8a0	0.032402635
18	0xbd605106	-0.05476477
19	0x3dacf4ee	0.08445154
20	0x3d7a0dda	0.061048366
21	0x3cf3ff6c	0.02978488
22	0xbc4cda8f	-0.01250328
23	0x3d26644a	0.040622987
24	0x3c8ce14d	0.017197276
25	0x3d84d55a	0.06486006
26	0x3d56ce37	0.052442756
27	0xbd6d8c3e	-0.057995073
28	0xbdb49ea4	-0.08819321
29	0xbd9bfef6	-0.07616989
30	0xbc3c334d	-0.01148684
31	0x3d58364c	0.052786157
32	0x3d683f63	0.056701075
33	0xbd9e8be3	-0.07741525
34	0xbc9b96e9	-0.018992858
35	0x3d200480	0.03906679
36	0xbcd368ba	-0.025806773
37	0x3d6728ce	0.0564354
38	0x3d904a49	0.07045419
39	0xbd3599fa	-0.044336297
40	0xbd760576	-0.0600638
41	0x3cb74cee	0.02237555
42	0xbd7f0139	-0.062257025
43	0xbbc9175b	-0.0061368174
44	0xbd5918ca	-0.053002156
45	0xbd51b860	-0.051201224
46	0xbda722a0	-0.08160901
47	0x3dbff253	0.093723916
48	0xbd56f758	-0.05248198
49	0x3d886592	0.06659998
50	0x3d7eef2f	0.062239822
51	0x3d8cc391	0.06873239
52	0xbbceff25	-0.0063170367
53	0xbd22e99c	-0.03977357
54	0x3d66a0ad	0.056305576
55	0xbd9087aa	-0.07057126
56	0xbd48a82b	-0.048988502
57	0xbd8eced2	-0.069730416
58	0x3d8a1be1	0.06743599
59	0xbbf90ff0	-0.007600777
60	0x3d81a239	0.0632977
61	0xbd47d322	-0.048785336
62	0xbd52220a	-0.051301993
63	0xbd2cfdc1	-0.042234186
64	0xbd8532b6	-0.06503813
65	0x3d0da05f	0.03457677
66	0xbd68ec3e	-0.056865923
67	0xbd44870e	-0.04798036
68	0x3d931689	0.071820326
69	0x3c9919e6	0.018689107
70	0xbc16fc2f	-0.009215399
71	0x3d0cf372	0.034411855
72	0xbd04a922	-0.03238786
73	0x3d802296	0.06256597
74	0xbda13095	-0.078705944
75	0xbc712c61	-0.014720053
76	0xbd9be64f	-0.07612287
77	0x3cdeeb51	0.027211817
78	0xbd289335	-0.041156013
79	0x3d1880b1	0.037232105
80	0x3d399910	0.045311987
81	0xbdaabe39	-0.08337063
82	0x3d9bb453	0.076027535
83	0xbc3283be	-0.010895668
84	0x3d5bbd45	0.0536473
85	0xbdc0a88d	-0.094071485
86	0xbcb4304a	-0.021995682
87	0xbb4c6482	-0.0031187837
88	0xbd98b5b3	-0.074565314
89	0xbc20598a	-0.009786973
90	0x3d93566a	0.071942165
91	0xbb8e8bd0	-0.004350163
92	0xba30b01a	-0.00067401084
93	0x3cf21d39	0.02955495
94	0xbc857259	-0.016289877
95	0xbd732cee	-0.05936902
96	0xbd9cbb60	-0.076529264
97	0x3d48883e	0.048958056
98	0x3c8e4c09	0.01737024
99	0xbcdf2be9	-0.027242618
100	0xbdbbcabd	-0.09169529
101	0x3d966785	0.073439635
102	0x3d105a0a	0.035242118
103	0x3d3ad2a8	0.045611054
104	0x3d6c737c	0.057727322
105	0xbdabe7ac	-0.08393797
106	0xbdab4c45	-0.08364157
107	0xbd5706d2	-0.05249674
108	0xbd8814be	-0.06644581
109	0xbd8916a9	-0.06693775
110	0xbd997bb2	-0.07494296
111	0x3cccfc9d	0.0250228
112	0x3d832d4d	0.06405125
113	0xbd768bab	-0.06019179
114	0x3d3e0254	0.04638894
115	0xbceff0bd	-0.029289598
116	0x3c941edf	0.018081127
117	0x3bc601a3	0.0060426756
118	0x3d6fed44	0.058575884
119	0x3d078313	0.033083986
120	0x3d75b8a4	0.05999054
121	0x3aee257c	0.001816913
122	0xbbd55583	-0.006510438
123	0xbdb1f6a1	-0.08689619
124	0x3bc0fbd7	0.0058893966
125	0x3d231529	0.0398151
126	0xbd8a852d	-0.067636825
127	0x3d87d0f1	0.06631649
128	0x3d2e63e5	0.042575736
129	0x3d83b12e	0.06430279
130	0x3d088f7b	0.03333996
131	0xbd8023a3	-0.06256797
132	0xbd09aac1	-0.03361011
133	0x3d603079	0.054733727
134	0x3cd11567	0.0255229
135	0x3d6313d7	0.055438843
136	0x3d9a9048	0.07547051
137	0x3cf566d9	0.029956268
138	0xbc7a3233	-0.0152707575
139	0x3d5ba43c	0.053623423
140	0xbc84117a	-0.016121615
141	0xbd319f34	-0.04336472
142	0x3c9040b0	0.01760897
143	0xba001a3f	-0.00048867235
144	0xbd4343de	-0.047672145
145	0x3d7098d1	0.058739487
146	0xbd306662	-0.04306639
147	0x3c975f22	0.01847798
148	0xbcf797cf	-0.030223755
149	0xbd181f76	-0.03713938
150	0x3d998006	0.07495122
151	0x3d13848d	0.036015082
152	0x3cf2961e	0.029612597
153	0x3d4f937a	0.050677754
154	0xbd96918e	-0.07351981
155	0xbd49a7be	-0.049232237
156	0x3d97dc53	0.074150704
157	0xbd6fce9c	-0.058546647
158	0xbd13505d	-0.035965312
159	0x3d61b2b9	0.055102084
160	0xbdae3586	-0.085063025
161	0x3c087482	0.008328559
162	0xbbd9c04d	-0.0066452385
163	0x3d168a8f	0.036753234
164	0x3b0ee6b8	0.0021805
165	0x3d2672d7	0.040636864
166	0xbdc1ad66	-0.09456901
167	0x3ceddc46	0.029035699
168	0x3ce6f760	0.02819413
169	0xbd17942b	-0.03700654
170	0x3c36bfa5	0.01115409
171	0x3d3b174a	0.045676507
172	0xbd6c5fc1	-0.057708506
173	0x3bb0404f	0.00537876
174	0xbc6d47b6	-0.014482429
175	0xbcd75906	-0.026287567
176	0x3d6e61e6	0.058198832
177	0xbd253760	-0.040336013
178	0x3d81d70f	0.06339847
179	0x3d10f454	0.03538926
180	0xbcec8644	-0.028872617
181	0x3c653c97	0.0139914965
182	0xbdc7cb5f	-0.09755587
183	0xbd2b8617	-0.041875925
184	0xbc18c9b9	-0.009325438
185	0xbde03f8e	-0.10949622
186	0x3d59a0de	0.05313193
187	0x3d2a5448	0.041584283
188	0x3d0751c2	0.033036955
189	0x3ca21a08	0.019787803
190	0xbc5928b2	-0.013254331
191	0x3d60d8cc	0.054894254
192	0xbb897752	-0.0041951323
193	0xbc17da01	-0.009268285
194	0xbd8eb096	-0.06967275
195	0xbbf9fcd5	-0.007629017
196	0x3b3edb48	0.00291224
197	0x3d585116	0.052811705
198	0x3c9c0d42	0.01904929
199	0xbda0d111	-0.07852376
200	0xbd996504	-0.0748997
201	0x3d840858	0.06446904
202	0xbd7f83e0	-0.062381625
203	0x3daa3d33	0.08312454
204	0xbd6a9595	-0.05727156
205	0xbd08a211	-0.033357684
206	0xbd98a1ef	-0.074527614
207	0x3cdfe9d2	0.027333174
208	0x3d500239	0.05078337
209	0xbd8fb26b	-0.070164524
210	0xbc860f30	-0.016364664
211	0x3dabce1c	0.083889216
212	0x3d8996b8	0.067182004
213	0x3c41835a	0.011811102
214	0xbd30331e	-0.0430175
215	0xbd39d41e	-0.045368306
216	0x3d301b39	0.04299471
217	0x3da4597f	0.080248825
218	0xbca150f8	-0.01969193
219	0x3dae1e09	0.085018225
220	0xbda5e75d	-0.0810077
221	0xbdaeead0	-0.08540881
222	0x3ac22688	0.0014812509
223	0xbca6de2e	-0.020369615
224	0xbd05d943	-0.0326779
225	0x3c3f3bcf	0.011671974
226	0xbd51e493	-0.051243376
227	0xbb1434fd	-0.0022614591
228	0xbd42e7af	-0.047584232
229	0xbc2f0235	-0.010681679
230	0xbd6ac271	-0.05731434
231	0xbd0c760f	-0.034292277
232	0x3d4389c2	0.047738798
233	0xbc32e8ed	-0.010919792
234	0x3d945647	0.072430186
235	0x3c839189	0.016060608
236	0x3db1e860	0.086869
237	0xbd7712ea	-0.060320772
238	0x3bfafe5a	0.0076597156
239	0xbd3fa42c	-0.046787426
240	0xbdbc04bc	-0.091805905
241	0xbabedc23	-0.0014561455
242	0x3ccaa90e	0.024738815
243	0xbca51753	-0.020152723
244	0xbdeacd0d	-0.114648916
245	0xbbb56a3f	-0.005536347
246	0x3d2014c6	0.03908231
247	0x3cbef694	0.023310937
248	0x3cb1dd16	0.021711867
249	0x3be20ffd	0.0068988786
250	0xbd587c3d	-0.052852858
251	0x3c6392ee	0.013890011
252	0xbdd0054b	-0.101572596
253	0x3d498435	0.049198348
254	0x3d8d134d	0.06888447
255	0x3d4dc405	0.050235767
