04_Models_Weekly/20250811_212726_GDEA_Weekly_WithSentiment/best_model.pth (torch, 945013 bytes, 11 tensors)

lstm.weight_ih_l0 f4 [512, 63]
0.04951679 0.049867712 -0.01784108 0.075989746 -0.03826317 0.017835945 -0.04303231 0.0049481494
0.046843886 -0.08916203 0.051756423 -0.0102349315 0.04070595 -0.011648791 0.009617988 -0.03978349
0.03524189 -0.005243426 -0.07663526 -0.003501276 -0.088319875 -0.033038523 -0.061009996 0.04293334
-0.084473975 -0.06322443 -0.0491306 -0.076068245 -0.012813945 -0.08806233 0.055132024 -0.09977542
0.045761727 -0.015052937 -0.06095128 0.032143086 -0.013143639 0.0567117 -0.013539456 -0.053162567
0.026391314 -0.04299923 0.015059204 0.054040264 0.032033294 -0.05651507 0.049402732 -0.006585229
0.014027763 -0.076837555 -0.11144351 -0.058310553 -0.0940544 0.06368329 0.017316844 0.018911954
0.010342661 -0.012193021 0.052907187 -0.06555605 -0.043332066 -0.06644513 -0.02552206 -0.010473042
0.049175624 -0.01647001 0.08148728 -0.032194406 -0.05271463 -0.052717816 0.09439406 0.02749343
0.08712889 -0.054433677 -0.09047488 -0.08202855 -0.044788208 0.050315462 0.02786292 0.086767234
-0.020853888 -0.059224937 0.05853697 -0.020936757 0.059780154 -0.025506625 0.06683142 -0.055881403
-0.042191334 0.047935598 0.03954809 -0.027282549 0.09516879 0.08089626 -0.043287866 -0.04477391
0.09044315 -0.027070371 -0.028921286 -0.06661258 -0.037823856 0.040265586 -0.003979296 -0.027823677
0.013782771 -0.053915344 -0.07212343 -0.040315785 -0.07472351 -0.05134221 0.09103016 0.017760754
0.03381463 -0.079755515 -0.052141953 -0.02576778 0.017376808 -0.077040374 -0.03652075 -0.0425932
-0.0068799183 -0.036321353 0.00056409545 -0.056864593 -0.053603828 -0.048531827 -0.015105134 -0.056437526
0.07708575 -0.01809854 0.084445454 0.027540226 -0.07484698 0.042817157 -0.031885356 -0.034808762
-0.068089984 -0.093388766 0.014601241 -0.014597476 0.034833845 -0.07158347 0.06104029 -0.05280686
-0.022427654 0.018681947 0.026780305 0.06902552 0.07498461 -0.0717958 0.02365728 -0.034302063
-0.008318048 -0.057883777 0.06605865 -0.10309554 0.05324948 0.03707338 0.032438364 -0.05449352
0.07672693 0.02313944 0.016623298 -0.07647982 0.04249658 -0.015421591 -0.04081073 0.08232693
0.022529338 -0.0494642 -0.039225735 -0.0076775546 0.048499964 -0.02475039 -0.057006285 -0.031638768
-0.067298464 0.032120507 0.06593921 -0.08559936 0.02044357 0.04919516 0.027082056 -0.03837718
0.046914175 0.0633971 0.00789295 -0.003274576 -0.05322787 0.014539769 -0.0038558198 -0.05933462
0.022556499 0.08326549 -0.008750212 -0.019789873 0.007286773 0.008569143 0.028534984 0.0301884
-0.0752163 -0.022920463 0.08183731 0.03473849 0.0053531257 -0.04571897 -0.048428 -0.07221266
-0.015236124 0.035725225 0.06818738 0.048420265 -0.07075386 -0.052174844 -0.0042979633 0.09043315
0.009446825 -0.009549479 0.051878627 -0.03834437 -0.06188875 0.07416473 -0.0012898222 -0.0007906641
-0.078277916 0.053671293 0.06794472 0.026026074 -0.030379837 -0.025180696 -0.041600864 0.07605466
0.051014982 0.08988921 0.06386596 0.050040547 0.0053677685 -0.047255993 -0.048984583 -0.077864915
0.046643782 -0.034831833 0.0070562544 -0.025713725 -0.015196803 -0.054975826 -0.050260637 0.03816795
-0.03818883 0.061554458 -0.037010796 -0.054545335 0.001725472 -0.025787944 -0.030416524 -0.09951966
00000000: 1ed2 4a3d 1642 4c3d 7527 92bc 83a0 9b3d
00000010: d7b9 1cbd b01c 923c a642 30bd 1624 a23b
00000020: 60df 3f3d 959a b6bd 8bfe 533d 6ab0 27bc
00000030: 48bb 263d 92da 3ebc c494 1d3c 03f4 22bd
00000040: cd59 103d 0cd1 abbb f2f2 9cbd aa75 65bb
00000050: 0de1 b4bd 6753 07bd 9ee5 79bd dfda 2f3d
00000060: b100 adbd cf7b 81bd 2b3d 49bd abc9 9bbd
00000070: 95f1 51bc 065a b4bd 1ed2 613d 0e57 ccbd
00000080: a670 3b3d 98a0 76bc 0da8 79bd 78a8 033d
00000090: 6b58 57bc 874a 683d 98d4 5dbc fec0 59bd
000000a0: 9932 d83c f61f 30bd e1ba 763c 5359 5d3d
000000b0: 5835 033d 597c 67bd 855a 4a3d e8c8 d7bb
000000c0: b4d4 653c 025d 9dbd 7f3c e4bd 0cd7 6ebd
000000d0: 989f c0bd 626c 823d 0edc 8d3c 3eed 9a3c
000000e0: 4474 293c 3dc5 47bc 35b5 583d 4042 86bd
000000f0: f77c 31bd 6214 88bd a413 d1bc 1f97 2bbc
00000100: 616c 493d 1dec 86bc cee2 a63d 48de 03bd
00000110: 4ceb 57bd a3ee 57bd ac51 c13d e739 e13c
00000120: a270 b23d d9f5 5ebd e54a b9bd 96fe a7bd
00000130: d773 37bd 9617 4e3d c740 e43c 05b3 b13d
00000140: c6d5 aabc d995 72bd 76c4 6f3d 9083 abbc
00000150: 09dc 743d 45f3 d0bc e9de 883d e6e3 64bd
00000160: d2d0 2cbd 1e58 443d 2efd 213d a77f dfbc
00000170: dbe7 c23d f0ac a53d 9e4e 31bd d964 37bd
00000180: 423a b93d afc2 ddbc 55ec ecbc 2d6c 88bd
00000190: 30ed 1abd 87ed 243d c164 82bb 7bee e3bc
000001a0: 22d1 613c 56d6 5cbd 73b5 93bd 2a22 25bd
000001b0: a408 99bd 364c 52bd 056e ba3d 007f 913c
000001c0: 3681 0a3d dc56 a3bd cd92 55bd f416 d3bc
000001d0: cf59 8e3c 58c7 9dbd c896 15bd 3576 2ebd
000001e0: f070 e1bb b3c5 14bd cedf 133a d9ea 68bd
000001f0: b08f 5bbd 4fc9 46bd 867b 77bc 092b 67bd
00000200: 22df 9d3d 6443 94bc bdf1 ac3d 0a9c e13c
00000210: 6049 99bd 0b61 2f3d 389a 02bd a293 0ebd
00000220: c372 8bbd 9c42 bfbd 0b3a 6f3c 412a 6fbc
00000230: efad 0e3d 5b9a 92bd 6205 7a3d 024c 58bd
00000240: 33ba b7bc e20a 993c 5f62 db3c 405d 8d3d
00000250: 8891 993d ad09 93bd e9cc c13c 5280 0cbd
00000260: 6c48 08bc 8a17 6dbd c249 873d c123 d3bd
00000270: 201c 5a3d 42da 173d 17de 043d 9934 5fbd
00000280: 0223 9d3d ec8e bd3c 952d 883c 74a1 9cbd
00000290: e510 2e3d d7aa 7cbc 2729 27bd 059b a83d
000002a0: 728f b83c f99a 4abd 2aab 20bd ff93 fbbb
000002b0: e6a7 463d 54c1 cabc 6c7f 69bd a797 01bd
000002c0: c7d3 89bd cb90 033d 230b 873d b84e afbd
000002d0: 4679 a73c dd80 493d 30db dd3c 6431 1dbd
000002e0: 1429 403d 57d6 813d 6f51 013c 459a 56bb
000002f0: 7805 5abd 3638 6e3c ecb1 7cbb dc08 73bd
00000300: 68c8 b83c 1987 aa3d 0d5d 0fbc 5f1e a2bc
00000310: e2c5 ee3b 9765 0c3c 33c2 e93c aa4d f73c
00000320: 010b 9abd b2c3 bbbc 529a a73d f249 0e3d
00000330: 4669 af3b d143 3bbd 705c 46bd 3be4 93bd
00000340: f0a0 79bc 9d54 123d d3a5 8b3d 5454 463d
00000350: 66e7 90bd 4ab5 55bd eed5 8cbb 0435 b93d
00000360: dbc6 1a3c 6b75 1cbc af7e 543d fc0e 1dbd
00000370: 0f7f 7dbd aee3 973d 400f a9ba 9244 4fba
00000380: 2c50 a0bd 6ed6 5b3d 9a26 8b3d a234 d53c
00000390: 23df f8bc bf47 cebc ab65 2abd 8cc2 9b3d
000003a0: 16f5 503d d617 b83d 28cc 823d 51f7 4c3d
000003b0: 1be4 af3b 808f 41bd 0fa4 48bd a477 9fbd
000003c0: 8d0d 3f3d d3ab 0ebd 2738 e73b 97a5 d2bc
000003d0: 03fc 78bc 552e 61bd 19de 4dbd ff55 1c3d
000003e0: e46b 1cbd 8720 7c3d a298 17bd ee6a 5fbd
000003f0: 3c29 e23a 3d41 d3bc 132c f9bc f7d0 cbbd

lstm.weight_hh_l0 f4 [512, 128]
0.03650515 -0.09431518 0.08548123 0.027558267 -0.053587914 0.082946844 -0.085921556 -0.01615117
-0.011602281 -0.005015699 0.03327654 0.029881123 0.01762402 0.035107706 -0.08678346 0.0014169705
-0.008829857 -0.019706681 -0.07535868 -0.08480135 0.045525182 -0.06308929 0.037056405 0.07788449
0.047860675 -0.030445803 -0.05256851 0.08737027 0.054319605 0.050785203 0.086003385 -0.053474676
-0.002566298 -0.07088889 0.024497116 0.0111215385 -0.060478635 -0.029592173 -0.0074841934 0.0034423913
0.07193501 -0.048477113 -0.04651246 -0.036656782 0.06602731 -0.073858164 0.059420973 0.03309237
0.05566646 -0.03900078 -0.07352678 0.019762855 0.049067073 0.043645885 -0.0070658065 0.04611611
-0.04492421 -0.03365767 -0.046208255 0.030072663 -0.0003242119 -0.06729919 0.0024246853 0.07684868
0.04831152 0.020682082 -0.07889781 0.046365134 0.066818 -0.046210002 -0.047338277 -0.027210414
0.06605031 -0.061344653 0.01657095 0.07374177 0.092711434 0.033467073 0.054085582 -0.08790009
-0.002161705 -0.06040452 -0.01823413 0.08374843 0.07773132 0.068750426 -0.051859383 -0.02634313
0.06060965 0.04153404 -0.025058882 0.07579604 -0.0037976813 0.05873813 -0.056334503 -0.008759439
-0.015697092 -0.07608181 -0.014948068 0.03879972 -0.063652284 0.06902405 -0.035271734 -0.010268225
-0.04350223 -0.017677637 0.046206 0.068996176 -0.07401453 0.010639697 0.08365985 -0.04362744
-0.067608334 0.023492485 -0.07188218 0.02644453 0.090365715 0.015758546 0.034606256 0.039192148
0.056862194 -0.02633782 -0.04009404 -0.062153608 -0.0733925 0.030604372 0.012654889 -0.03303111
0.028721873 -0.04255829 0.02218907 -0.04185867 -0.014255512 0.012776532 0.010773052 -0.032870706
0.07062669 -0.05034336 -0.03794171 -0.07920378 0.046281923 -0.040809218 0.03257676 -0.032834228
-0.045349054 0.057577237 -0.06674134 0.04427407 0.07398974 -0.11782518 0.04567524 -0.109216556
0.060895458 -0.067509115 -0.0019738702 -0.008967074 0.021061445 -0.01792643 -0.059470076 -0.017303633
0.0008503503 -0.057895094 0.010316626 0.0567292 0.05540001 -0.012981013 0.064578876 0.054796454
-0.01866813 -0.014646987 0.006848056 -0.10293383 -0.0041325367 -0.05838927 -0.032549586 -0.06523976
0.014359609 -0.004193569 0.03428167 -0.050929308 -0.055445198 0.011081192 0.06571831 0.048456848
-0.06381803 -0.110332295 -0.08406974 -0.06686392 -0.06298855 0.05834907 -0.022882508 0.038554054
0.052558668 -0.00065548474 -0.058748037 0.07467942 0.029443784 -0.13239634 -0.076244995 -0.00045031647
-0.010076185 -0.05007963 0.011821692 -0.088132605 0.06827131 0.07835085 0.05112566 0.029633153
-0.06487905 -0.043071084 0.063545085 0.044858493 0.057275068 0.04547779 -0.06413933 -0.037818484
0.06555009 0.0672006 0.06583526 -0.0016928592 0.07435585 -0.1074974 -0.10974083 -0.06962251
-0.027270835 -0.027190233 0.01760784 0.0050063618 -0.018896094 -0.104693726 -0.027118435 0.05952991
0.09009569 -0.020558527 0.012386099 0.0834719 0.060871214 -0.008009395 -0.04441779 -0.012707705
0.060255643 -0.05646473 0.034573272 -0.078084596 0.061267316 0.07580027 -0.058625784 0.065102465
0.04019804 0.016131189 -0.037987057 0.0019164799 -0.057280384 -0.031012664 -0.12882847 0.04450518
00000000: 6d86 153d 5128 c1bd c810 af3d e0c1 e13c
00000010: 007f 5bbd 09e0 a93d a4f7 afbd 754f 84bc
00000020: 7e17 3ebc bc5a a4bb fb4c 083d 42c9 f43c
00000030: 4060 903c 19cd 0f3d 87bb b1bd a4b9 b93a
00000040: 1bab 10bc e86f a1bc a755 9abd 55ac adbd
00000050: 9d78 3a3d f534 81bd 75c8 173d e781 9f3d
00000060: 8e09 443d 7a69 f9bc 1452 57bd 2fef b23d
00000070: 3c7e 5e3d 2504 503d 8b22 b03d 4308 5bbd
00000080: 562f 28bb 322e 91bd 2dae c83c 1d37 363c
00000090: 72b8 77bd 496b f2bc f73d f5bb be99 613b
000000a0: aa52 933d f08f 46bd d983 3ebd 6c25 16bd
000000b0: 5439 873d f342 97bd 6863 733d dd8b 073d
000000c0: 8402 643d 48bf 1fbd 3595 96bd b6e5 a13c
000000d0: 8efa 483d 07c6 323d 4888 e7bb 3fe4 3c3d
000000e0: 7302 38bd a0dc 09bd de44 3dbd f25a f63c
000000f0: fcfa a9b9 28d4 89bd 78e7 1e3b d762 9d3d
00000100: 4de2 453d 786d a93c 2d95 a1bd 5ee9 3d3d
00000110: e0d7 883d b346 3dbd c8e5 41bd 60e8 debc
00000120: 6345 873d 8844 7bbd cdbf 873c ed05 973d
00000130: 7edf bd3d c514 093d d888 5d3d f604 b4bd
00000140: 64ab 0dbb bb6a 77bd be5f 95bc 4c84 ab3d
00000150: 9931 9f3d 06cd 8c3d 816a 54bd 8ccd d7bc
00000160: d341 783d 991f 2a3d 4948 cdbc f43a 9b3d
00000170: 85e2 78bb 6597 703d 02bf 66bd c083 0fbc
00000180: 3097 80bc c8d0 9bbd bee8 74bc 75ec 1e3d
00000190: 215c 82bd 7b5c 8d3d 1879 10bd 0f3c 28bc
000001a0: 652f 32bd b1d0 90bc 8142 3d3d de4d 8d3d
000001b0: ee94 97bd 2052 2e3c db55 ab3d b0b2 32bd
000001c0: 3d76 8abd 5073 c03c f736 93bd 33a2 d83c
000001d0: a911 b93d 1118 813c 4abf 0d3d f287 203d
000001e0: 55e8 683d 69c2 d7bc a639 24bd c894 7ebd
000001f0: cf4e 96bd 05b6 fa3c 7456 4f3c a14b 07bd
00000200: 224a eb3c 9a51 2ebd dac5 b53c ff73 2bbd
00000210: f38f 69bc a954 513c 7581 303c 6fa3 06bd
00000220: baa4 903d d734 4ebd c468 1bbd 9735 a2bd
00000230: 1d92 3d3d 9127 27bd 356f 053d 2f7d 06bd
00000240: eebf 39bd 1cd6 6b3d afaf 88bd ba58 353d
00000250: ef87 973d 544e f1bd f615 3b3d eeac dfbd
00000260: 846d 793d 3842 8abd 0c5c 01bb a2ea 12bc
00000270: 0d89 ac3c 73da 92bc e596 73bd 59c0 8dbc
00000280: 0bea 5e3a 6823 6dbd 1107 293c e15c 683d
00000290: 1feb 623d 51ae 54bc ee41 843d 3f72 603d
000002a0: e8ed 98bc ebf9 6fbc a865 e03b f9ce d2bd
000002b0: 3b6a 87bb 9629 6fbd b752 05bd 6c9c 85bd
000002c0: 9144 6b3c 356a 89bb f06a 0c3d 409b 50bd
000002d0: 811a 63bd e38d 353c 5297 863d b07a 463d
000002e0: 07b3 82bd e6f5 e1bd c12c acbd f3ef 88bd
000002f0: 2400 81bd 6fff 6e3d 1974 bbbc dbea 1d3d
00000300: c247 573d d6d4 2bba c8a1 70bd 86f1 983d
00000310: 1734 f13c e892 07be 5626 9cbd 7418 ecb9
00000320: 9516 25bc 4c20 4dbd c5af 413c de7e b4bd
00000330: d4d1 8b3d 6976 a03d 2469 513d 3ac1 f23c
00000340: 4fdf 84bd 4e6b 30bd ed23 823d 8abd 373d
00000350: 4399 6a3d eb46 3a3d 7b5b 83bd 8ee7 1abd
00000360: 203f 863d 78a0 893d a3d4 863d eee2 ddba
00000370: e147 983d 9927 dcbd cdbf e0bd 3f96 8ebd
00000380: 1667 dfbc 0dbe debc 513e 903c 680c a43b
00000390: fbcb 9abc aa69 d6bd 7b27 debc a3d5 733d
000003a0: 1784 b83d 5b6a a8bc 11ef 4a3c 51f3 aa3d
000003b0: 1854 793d d639 03bc 6eef 35bd fa33 50bc
000003c0: 9fce 763d 9047 67bd b49c 0d3d d1ea 9fbd
000003d0: 70f3 7a3d 2c3d 9b3d 9721 70bd 7154 853d
000003e0: b3a6 243d 8e25 843c 5198 1bbd 6532 fb3a
000003f0: d69e 6abd 450e febc 9ceb 03be 104b 363d

lstm.bias_ih_l0 f4 [512]
-0.058064003 0.02365002 -0.0723366 0.06967462 -0.024990136 -0.0576008 -0.013490953 0.038074385
-0.07927994 -0.063364975 -0.08019559 0.089822136 -0.09558952 0.06212401 -0.10250286 0.022550149
0.060731623 0.021425953 -0.08505924 0.02667201 -0.041584637 -0.064333886 -0.050513193 -0.02688795
-0.06724003 -0.039589345 0.015116619 -0.047754858 -0.0054919836 0.05184174 -0.077016555 0.065888494
0.011572181 0.042435143 0.04718667 0.020705707 -0.012310689 0.006363564 -0.051061947 -0.022210741
-0.0075216237 0.053464398 -0.03574804 0.046200022 -0.023493094 -0.059024513 -0.052673735 -0.038524535
-0.09147465 0.05799847 -0.07451642 -0.0057609435 0.06672655 0.07103981 -0.10129791 -0.02449369
-0.079098634 0.040463556 0.08484468 -0.07669309 0.013556666 0.019425884 0.083096094 -0.0054138657
0.054623503 -0.0028798988 0.100233 -0.06563057 0.07577264 0.028889518 0.045338508 0.036012713
-0.011700544 0.076028675 0.07232573 -0.07138234 -0.031690646 0.09693747 -0.08686615 0.07329971
-0.05459283 -0.037791736 -0.0507836 -0.045961227 -0.027964339 -0.03042931 -0.10427324 0.0060006366
0.06808598 0.05621832 0.013183048 -0.08826351 -0.07731225 -0.021536687 0.053608757 -0.054761596
-0.02850239 0.036208577 -0.08968107 -0.009584506 0.039699975 -0.0021482732 -0.073387586 0.12451886
0.033586215 0.0886036 -0.026218407 0.055836175 0.019654667 -0.06652704 -0.093248084 -0.083609544
-0.078034684 -0.061997678 0.049744662 0.0041223583 -0.018719725 0.03707836 0.071908146 0.046205264
-0.07649808 -0.0017985326 -0.025820525 0.0076335575 0.052533217 -0.047256075 0.02034344 0.107123755
0.03326829 -0.0680759 0.0030892654 -0.03573337 -0.0460791 -0.07918074 -0.007901085 0.02964349
-0.013742068 -0.049629588 0.0073590158 -0.0517546 -0.0055670715 -0.04905329 0.0017776613 0.06755724
-0.044934615 0.06668326 -0.081138715 0.09511119 -0.020324161 -0.09629671 -0.043595042 -0.09082904
0.071570456 -0.016087385 -0.070105195 -0.0882646 -0.045754276 0.024919141 -0.045404255 0.010780635
-0.05514363 0.057900697 0.07812636 -0.08626442 -0.045760017 0.06258001 -0.07989435 -0.03640736
-0.032620497 -0.0193032 0.019117108 -0.016936004 0.07558468 0.04360819 -0.067558505 0.0009581842
-0.061471675 -0.016019825 -0.0050644833 0.0062341355 -0.080141604 -0.054702472 -0.08852954 0.059074547
0.061711293 -0.015095356 -0.0792694 -0.010814916 -0.0058071706 -0.038404834 -0.00088793144 -0.047588054
-0.0016690262 0.06561787 0.03107901 0.07167401 0.012071065 0.00728453 0.063966334 -0.036804706
-0.092292935 0.037841525 -0.05447766 0.04930156 0.056491684 -0.037180457 0.037074275 -0.07230608
-0.053423405 0.015730828 0.09864792 -0.08417116 -0.051861506 0.018244967 -0.02366714 0.0005168691
-0.034251235 -0.014813027 0.09932375 -0.061611146 0.0011292889 -0.048897773 -0.016327215 -0.008242449
-0.035717502 0.049045704 -0.07255914 0.0068488717 -0.07190165 0.07370377 -0.094416 0.044933684
-0.09978807 0.017769534 -0.073520415 -0.045767803 0.056368116 -0.07167747 -0.02001164 -0.06660487
0.016717076 -0.007385306 -0.06826763 0.07271234 -0.09941354 -0.020550037 -0.04122769 0.088419996
-0.025322154 -0.01044506 -0.041626103 -0.07854712 0.009722399 -0.11119661 -0.0237657 -0.06197454
00000000: 85d4 6dbd b0bd c13c 3625 94bd 91b1 8e3d
00000010: 1db8 ccbc d1ee 6bbd 2809 5dbc e3f3 1b3d
00000020: 855d a2bd 7fc5 81bd 963d a4bd abf4 b73d
00000030: 70c4 c3bd bf75 7e3d 05ed d1bd 17bb b83c
00000040: b9c1 783d 7b85 af3c 8a33 aebd 427f da3c
00000050: a754 2abd 7cc1 83bd ece6 4ebd 1e44 dcbc
00000060: 24b5 89bd 7028 22bd b2ab 773c 999a 43bd
00000070: 19f6 b3bb 0158 543d dbba 9dbd 8cf0 863d
00000080: 3f99 3d3c 79d0 2d3d cf46 413d 049f a93c
00000090: c6b2 49bc 7285 d03b 5526 51bd 4df3 b5bc
000000a0: f477 f6bb 7cfd 5a3d 896c 12bd 3c3c 3d3d
000000b0: 9774 c0bc b0c3 71bd 6ac0 57bd e7cb 1dbd
000000c0: 1057 bbbd ce8f 6d3d 119c 98bd 4cc6 bcbb
000000d0: eea7 883d 527d 913d 4775 cfbd fea6 c8bc
000000e0: 77fe a1bd 1dbd 253d 0cc3 ad3d 4411 9dbd
000000f0: c71c 5e3c 0823 9f3c 492e aa3d cc66 b1bb
00000100: e5bc 5f3d afbc 3cbb f646 cd3d 5269 86bd
00000110: b02e 9b3d b6a9 ec3c dfb4 393d 1182 133d
00000120: a3b3 3fbc ecb4 9b3d 831f 943d e730 92bd
00000130: 0dce 01bd 2787 c63d e1e6 b1bd 291e 963d
00000140: bb9c 5fbd 82cb 1abd 7702 50bd d741 3cbd
00000150: 7815 e5bc e346 f9bc 358d d5bd fda0 c43b
00000160: aa70 8b3d 2e45 663d b6fd 573c 80c3 b4bd
00000170: e355 9ebd b56d b0bc db94 5b3d b24d 60bd
00000180: d87d e9bc 724f 143d b5aa b7bd 5508 1dbc
00000190: 719c 223d 0bca 0cbb 3b4c 96bd be03 ff3d
000001a0: b391 093d ce75 b53d fcc7 d6bc 79b4 643d
000001b0: d302 a13c 543f 88bd daf8 bebd 7b3b abbd
000001c0: a6d0 9fbd 47f1 7dbd 0fc1 4b3d d914 873b
000001d0: 1c5a 99bc 7adf 173d 9444 933d bb41 3d3d
000001e0: 06ab 9cbd bdbc ebba 9185 d3bc ec22 fa3b
000001f0: 122d 573d 968f 41bd 49a7 a63c b363 db3d
00000200: 5544 083d 616b 8bbd 4675 4a3b 275d 12bd
00000210: 70bd 3cbd 8329 a2bd 8d73 01bc e8d6 f23c
00000220: 6926 61bc 6548 4bbd e623 f13b a2fc 53bd
00000230: fb6b b6bb 1aec 48bd 6a00 e93a 735b 8a3d
00000240: 5c0d 38bd 3c91 883d 0e2c a6bd a8c9 c23d
00000250: db7e a6bc 3637 c5bd b790 32bd 9304 babd
00000260: 8893 923d b1c9 83bc 5093 8fbd 12c4 b4bd
00000270: d668 3bbd 3a23 cc3c d0f9 39bd 43a1 303c
00000280: 49de 61bd 4829 6d3d b700 a03d 66ab b0bd
00000290: db6e 3bbd f329 803d a69f a3bd e21f 15bd
000002a0: 129d 05bd bf21 9ebc 7b9b 9c3c 60bd 8abc
000002b0: 24cc 9a3d 809e 323d 1d5c 8abd a72e 7b3a
000002c0: b9c9 7bbd 023c 83bc f7f3 a5bb b847 cc3b
000002d0: 4821 a4bd b30f 60bd fa4e b5bd 27f8 713d
000002e0: fbc4 7c3d 8352 77bc ff57 a2bd 0c31 31bc
000002f0: 144a bebb 634e 1dbd 12c4 68ba b1eb 42bd
00000300: 3ac3 daba a962 863d 6899 fe3c d3c9 923d
00000310: b7c5 453c 11b3 ee3b c800 833d 88c0 16bd
00000320: 1404 bdbd b7ff 1a3d f823 5fbd 6ff0 493d
00000330: d363 673d 894a 18bd 32db 173d 3615 94bd
00000340: 80d2 5abd f0dd 803c ec07 ca3d ee61 acbd
00000350: bb6c 54bd 7876 953c 97e1 c1bc 807e 073a
00000360: 064b 0cbd 57b2 72bc 406a cb3d f85b 7cbd
00000370: a604 943a 0849 48bd a7c0 85bc 560b 07bc
00000380: 844c 12bd 26e4 483d e399 94bd 806c e03b
00000390: 2c41 93bd 01f2 963d 2d5d c1bd 620c 383d
000003a0: b05d ccbd 6a91 913c df91 96bd 0577 3bbd
000003b0: 41e2 663d a3cb 92bd 73ef a3bc 2268 88bd
000003c0: 40f2 883c 7000 f2bb e6cf 8bbd 35ea 943d
000003d0: 5399 cbbd 8d58 a8bc 5ede 28bd 8b15 b53d
000003e0: 6870 cfbc c221 2bbc 2280 2abd 50dd a0bd
000003f0: b24a 1f3c 0cbb e3bd 49b0 c2bc 04d9 7dbd

lstm.bias_hh_l0 f4 [512]
0.018319627 -0.008618882 -0.026353788 -0.013025833 0.020867676 0.06918235 0.0840246 -0.07080572
-0.087665655 -0.056917466 -0.02511946 -0.018489124 0.028383449 -0.09132499 0.06537057 -0.029521037
0.08555067 0.057764277 -0.017439606 0.06580623 0.022521365 0.07795681 0.08100815 -0.078321174
0.07141166 -0.06901348 0.08567127 0.06300561 0.07059457 -0.011342957 -0.050950397 0.013936909
-0.06688602 -0.004433449 -0.070776984 0.027718844 -0.032426804 0.056745183 -0.07067574 -0.03969676
0.054291558 -0.07314834 0.043782745 0.07137963 -0.043192632 0.01939583 0.053366147 0.064656645
-0.027242668 0.061898287 0.09450945 -0.07757606 0.046857145 0.052469943 -0.069171816 0.016023533
0.034321018 -0.0142659275 -0.048456937 0.011800287 -0.056999005 -0.045107357 0.023241723 -0.06508852
0.06800913 -0.053903613 -0.04502613 -0.085779004 -0.032433424 0.089898616 -0.07852426 0.083793566
0.04082316 0.05042692 0.01018086 -0.079621576 0.06930815 0.03772128 -0.06361404 -0.0010995561
0.07388119 -0.06446823 -0.052066334 0.009371914 0.01721868 0.010033142 -0.097763844 -0.09552928
-0.04801748 -0.06846553 0.09436792 -0.056383662 -0.09080665 -0.054433834 0.06005165 0.01609142
0.026006784 -0.0781383 -0.072998606 0.025111958 0.08874155 -0.049417175 -0.0632803 0.068880506
-0.032799363 -0.057442673 0.049949497 0.010931136 -0.044605795 0.023951227 0.06996678 -0.0016092545
-0.08964424 -0.033657726 -0.009063228 -0.042174544 -0.09081819 -0.03861752 0.006379072 0.085493684
0.020602219 -0.05255828 0.06936452 -0.023747038 -0.0142334215 -0.008223234 -0.046638273 0.03460106
0.064888574 0.040440325 -0.01574321 -0.0035385974 0.034727808 0.030938111 0.015836557 -0.044444554
-0.0091091 0.08379315 -0.04176217 -0.048080664 0.052373085 -0.070070386 0.056699798 0.07832792
0.07598043 -0.0012906432 0.06600161 0.0038233192 0.10641402 -0.08874572 -0.04543848 -1.2098063e-05
0.041255813 0.01759785 0.05350651 -0.09783018 0.054203864 -0.0638822 0.055610813 -0.080237806
-0.03735783 0.019580087 -0.0499111 0.064433925 -0.08530067 -0.090373665 -0.08669938 0.09890613
0.023119804 -0.021011 -0.060556885 0.037062112 0.041487254 -0.041672368 0.060675684 -0.06898799
-0.04433938 0.0882369 -0.044137985 0.039540704 0.055603947 -0.04281671 -0.070970796 -0.052531455
0.051559884 -0.022161467 -0.017573988 0.0019231231 0.00964651 -0.06599498 0.049134396 0.03744929
-0.017248236 -0.030732227 -0.0595497 -0.045435626 -0.04188613 -0.006749175 0.06200583 -0.0334535
-0.06416442 0.011766531 -0.0013874797 0.062419668 0.051383663 -0.05197593 -0.09324554 -0.021415636
0.056910876 0.048199352 0.028719898 0.03469615 0.09007537 0.050219268 0.0023102018 -0.09145742
-0.023576599 -0.05123421 -0.050727777 -0.09449451 -0.07014914 0.04719481 0.010492409 0.01649982
0.025249409 -0.09804581 -0.01341849 -0.063414834 -0.044607375 -0.0040934323 -0.06103866 0.058701705
0.0187852 0.06953775 -0.043032523 -0.069777876 0.0435901 -0.06399051 0.03991075 0.057858054
-0.09608603 0.08306767 -0.05316077 0.0042756572 0.043905746 -0.06805256 -0.00807292 0.084204905
0.02921016 0.005165301 -0.07416712 0.03982717 0.0071556875 -0.020476922 0.054899875 -0.055368416
00000000: 0b13 963c 3636 0dbc e6e3 d7bc 4e6a 55bc
00000010: b0f2 aa3c 7aaf 8d3d 1715 ac3d 9702 91bd
00000020: 0d8a b3bd 4a22 69bd 53c7 cdbc 8176 97bc
00000030: 6884 e83c 9908 bbbd 01e1 853d 1ad6 f1bc
00000040: 3135 af3d 3c9a 6c3d 81dd 8ebc 6bc5 863d
00000050: ba7e b83c d2a7 9f3d 9ae7 a53d da66 a0bd
00000060: 4740 923d f056 8dbd 6b74 af3d 1609 813d
00000070: e393 903d cfd7 39bc 5db1 50bd a257 643c
00000080: 8afb 88bd 7746 91bb 86f3 90bd a112 e33c
00000090: f8d1 04bd a36d 683d 71be 90bd 1299 22bd
000000a0: d360 5e3d ccce 95bd 8955 333d 7c2f 923d
000000b0: c2ea 30bd 01e4 9e3c 7696 5a3d b46a 843d
000000c0: 042c dfbc 0f89 7d3d 2c8e c13d 33e0 9ebd
000000d0: 47ed 3f3d b9ea 563d f4a9 8dbd c943 833c
000000e0: 3294 0c3d a3bb 69bc c87a 46bd fe55 413c
000000f0: ca77 69bd 7ec2 38bd 6d65 be3c 214d 85bd
00000100: 5f48 8b3d 09ca 5cbd 526d 38bd e7ac afbd
00000110: e9d8 04bd c41c b83d 54d1 a0bd f69b ab3d
00000120: 3036 273d 758c 4e3d 9fcd 263c a310 a3bd
00000130: 6ef1 8d3d a181 1a3d 1448 82bd fb1e 90ba
00000140: 054f 973d eb07 84bd 8243 55bd a88c 193c
00000150: 300e 8d3c 0c62 243c 6938 c8bd dba4 c3bd
00000160: faad 44bd a837 8cbd f843 c13d 8ef2 66bd
00000170: d6f8 b9bd 03f6 5ebd b8f8 753d 27d2 833c
00000180: 2e0c d53c f906 a0bd 4b80 95bd 98b7 cd3c
00000190: 21be b53d aa69 4abd 1a99 81bd 3911 8d3d
000001a0: a058 06bd 0249 6bbd d897 4c3d 8218 333c
000001b0: 91b4 36bd 5d35 c43c be4a 8f3d 9fed d2ba
000001c0: 6697 b7bd afdc 09bd ef7d 14bc 37bf 2cbd
000001d0: e3fe b9bd 682d 1ebd 8907 d13b 5017 af3d
000001e0: fcc5 a83c 5a47 57bd fc0e 8e3d 2689 c2bc
000001f0: 4c33 69bc beba 06bc c607 3fbd d7b9 0d3d
00000200: 4de4 843d c1a4 253d e8f7 80bc d0e7 67bb
00000210: bf3e 0e3d ec71 fd3c abbb 813c 7e0b 36bd
00000220: 563e 15bc be9b ab3d cf0e 2bbd 3bf0 44bd
00000230: 2985 563d 1081 8fbd 0c3e 683d 636a a03d
00000240: a19b 9b3d cd2a a9ba da2b 873d a790 7a3b
00000250: 98ef d93d 51c0 b5bd b31d 3abd c9f8 4ab7
00000260: dbfb 283d 5e29 903c a429 5b3d 305b c8bd
00000270: df04 5e3d acd4 82bd 2ac8 633d b853 a4bd
00000280: 8604 19bd 6b66 a03c 956f 4cbd eff5 833d
00000290: 1eb2 aebd d415 b9bd 728f b1bd 4c8f ca3d
000002a0: be65 bd3c 431f acbc 7f0a 78bd 71ce 173d
000002b0: 8aee 293d a5b0 2abd 1187 783d 9349 8dbd
000002c0: 369d 35bd 8cb5 b43d 08ca 34bd 6ff5 213d
000002d0: f7c0 633d 9360 2fbd 2359 91bd 392b 57bd
000002e0: 7530 533d f78b b5bc 53f7 8fbc 4e11 fc3a
000002f0: 650c 1e3c 6028 87bd 2641 493d 6d64 193d
00000300: 2c4c 8dbc 27c2 fbbc 63ea 73bd b51a 3abd
00000310: ca90 2bbd 2f28 ddbb d3f9 7d3d 8a06 09bd
00000320: a368 83bd 68c8 403c 18dc b5ba c4ab 7f3d
00000330: ad77 523d b6e4 54bd 85f7 bebd d86f afbc
00000340: 611b 693d af6c 453d fe45 eb3c 8d1d 0e3d
00000350: 7079 b83d b8b2 4d3d c166 173b 074e bbbd
00000360: b623 c1bc f7da 51bd eec7 4fbd 5686 c1bd
00000370: 5aaa 8fbd 584f 413d 5ae8 2b3c a12a 873c
00000380: d9d7 ce3c 3ecc c8bd 3ad9 5bbc a3df 81bd
00000390: 39b6 36bd 3322 86bb ad03 7abd 3371 703d
000003a0: 6be3 993c cf69 8e3d df42 30bd b4e7 8ebd
000003b0: 888b 323d 750d 83bd 7479 233d 91fc 6c3d
000003c0: c1c8 c4bd 621f aa3d 1cbf 59bd d01a 8c3b
000003d0: 83d6 333d 245f 8bbd 4844 04bc 9f73 ac3d
000003e0: 254a ef3c af41 a93b eee4 97bd d121 233d
000003f0: 427a ea3b 38bf a7bc b1de 603d fec9 62bd

lstm.weight_ih_l1 f4 [512, 128]
0.03690971 0.030517723 0.011409599 -0.073310114 0.047249768 -0.038105354 0.05188343 0.0060703065
0.0683788 -0.04195548 -0.0536423 -0.059241112 -0.03801727 0.040288497 0.016902518 -0.03181895
0.025341485 0.037341498 -0.06608889 -0.074013546 0.034135275 0.033292983 0.0063001295 -0.030466402
-0.06927413 -0.018089153 0.06450444 -0.07773627 0.06358904 -0.01627089 0.024766082 -0.04108162
-0.07437411 0.013698036 -0.033232752 -0.05889163 0.04402795 -7.8043e-06 0.05987317 -0.066947624
-0.04142019 0.065876134 -0.012954664 -0.08193186 -0.04714403 -0.034309506 -0.065691225 0.09153017
0.05912511 -0.011498307 -0.087525725 -0.10810298 -0.013481453 -0.08595753 0.03915672 0.0010924877
0.0006835805 -0.018493878 0.027736453 0.011794605 -0.03236257 0.002968313 0.031467907 0.04968287
-0.01565837 -0.037742246 0.0049432097 -0.07039356 -0.022248818 0.08125629 0.09928103 -0.05787433
0.066051394 0.032027688 -0.06711479 -0.031555828 0.029711442 0.0149092795 -0.031036135 0.075420514
-0.004822766 0.013397757 0.076806985 0.06507815 -0.010530561 0.053047378 -0.073407926 0.034593433
-0.011840928 0.065587 -0.011726979 -0.044897478 0.01650106 -0.028678745 -0.011784563 -0.07892207
0.00427831 -0.025884127 -0.047732905 0.011375676 -0.031543672 0.050372135 -0.07262888 0.052144192
-0.07961664 0.09119575 -0.09218313 -0.045471776 -0.06994308 -0.0074397284 -0.04018018 -0.059631504
0.036724452 0.0038732912 0.078255475 0.068069965 -0.058696825 0.016921144 -0.011269123 -0.06302157
0.012971708 0.021739233 0.077403046 0.034887843 -0.073722415 -0.012699304 0.07331018 -0.09289085
0.04709411 -0.073682815 0.037541505 0.032645915 0.07730873 0.04496861 -0.020956792 0.037911955
0.05540944 -0.08884109 -0.0007495124 -0.047320347 -0.01713112 0.079125315 0.057757042 -0.009412081
-0.018828094 0.034615304 0.095529824 0.047858477 0.0026068916 0.10312305 -0.023779657 0.06073803
0.02419664 -0.039378393 -0.04604977 0.09317864 0.053030215 0.050008595 0.051616024 -0.046646915
0.03612098 -0.020547263 0.06735681 0.047439337 -0.032693356 -0.0051687155 0.041203346 -0.032841504
-0.005564499 0.08101958 -0.04219202 0.019969437 -0.08320375 -0.005438312 -0.02199709 0.060926072
-0.06878177 0.005323538 -0.06337812 -0.019507637 0.039190006 0.05368845 0.041347463 -0.0043161064
-0.02877831 0.09866311 0.050883297 -0.07248818 -0.016355678 -0.004217378 0.08915941 0.019633742
-0.030929836 0.051412635 0.007905658 -0.019712957 0.0057891137 -0.05622644 0.003136064 -0.041855507
-0.08425461 0.08881263 0.074879795 0.03498738 -0.07937044 0.078535765 -0.01651919 -0.08108562
-0.045925103 0.05337466 0.07207697 0.0013232247 -0.048763353 -0.09152456 0.07713224 -0.08189095
0.025827292 -0.0019671777 -0.019525126 0.074095994 -0.0390542 -0.052702215 -0.010646754 0.035081007
-0.056477863 -0.07585917 0.040354222 0.06572102 -0.0290656 0.003901384 0.087128244 -0.057829846
-0.05733539 -0.005068028 0.05159713 -0.078058235 0.027831106 -0.08106122 -0.083187886 0.023164995
0.0047229994 0.025065444 -0.025249224 0.027339213 -0.0042019384 -0.04792026 0.07382298 0.01666891
-0.0625719 -0.06666573 0.040962372 -0.009812528 0.02369854 0.05238432 0.018921662 0.023333002
00000000: a32e 173d 4e00 fa3c 54ef 3a3c 9d23 96bd
00000010: f988 413d 5c14 1cbd b883 543d 6ce9 c63b
00000020: 2f0a 8c3d 82d9 2bbd 07b8 5bbd cfa6 72bd
00000030: ffb7 1bbd 8d05 253d 2677 8a3c 9654 02bd
00000040: f298 cf3c 66f3 183d 9d59 87bd 6a94 97bd
00000050: 6ed1 0b3d 395e 083d 5171 ce3b ad94 f9bc
00000060: 98df 8dbd b42f 94bc e71a 843d 3234 9fbd
00000070: f83a 823d 884a 85bc 3de2 ca3c 3345 28bd
00000080: 7451 98bd ba6d 603c 111f 08bd 5a38 71bd
00000090: a756 343d 37ef 02b7 923d 753d d61b 89bd
000000a0: 38a8 29bd 11ea 863d cd3f 54bc e4cb a7bd
000000b0: 191a 41bd 2088 0cbd 1f89 86bd 2b74 bb3d
000000c0: 2c2d 723d 6563 3cbc b040 b3bd 1865 ddbd
000000d0: 50e1 5cbc 800a b0bd cc62 203d ce31 8f3a
000000e0: 5032 333a 7980 97bc 8f37 e33c 293e 413c
000000f0: 9d8e 04bd 0788 423b 7ee4 003d 4480 4b3d
00000100: fb45 80bc 9d97 1abd a6fa a13b 802a 90bd
00000110: 2743 b6bc b369 a63d da53 cb3d a20d 6dbd
00000120: f445 873d 772f 033d 7b73 89bd af40 01bd
00000130: 6965 f33c 0d46 743c 7e3f febc 1276 9a3d
00000140: 4b08 9ebb 4482 5b3c fb4c 9d3d b147 853d
00000150: 6088 2cbc 3548 593d e556 96bd d8b1 0d3d
00000160: 7400 42bc 7a52 863d 8422 40bc 6be6 37bd
00000170: 3b2d 873c b0ef eabc 0a14 41bc e5a1 a1bd
00000180: 1131 8c3b f30a d4bc 9483 43bd 0b61 3a3c
00000190: f033 01bd 0353 4e3d 73be 94bd 2695 553d
000001a0: 0d0e a3bd d6c4 ba3d 82ca bcbd 9d40 3abd
000001b0: 513e 8fbd f7c8 f3bb f993 24bd 2a40 74bd
000001c0: 616c 163d 0bd7 7d3b 6844 a03d 4468 8b3d
000001d0: 156c 70bd 369e 8a3c 21a2 38bc 7411 81bd
000001e0: 4987 543c 7a16 b23c 7d85 9e3d 8ee6 0e3d
000001f0: c7fb 96bd be10 50bc a623 963d 8f3d bebd
00000200: c1e5 403d 04e7 96bd 1fc5 193d b9b7 053d
00000210: 0a54 9e3d 0131 383d 94ad abbc 9149 1b3d
00000220: 02f5 623d 51f2 b5bd ed7a 44ba fbd2 41bd
00000230: 9056 8cbc 740c a23d a692 6c3d 2135 1abc
00000240: 603d 9abc c7c8 0d3d 24a5 c33d 4007 443d
00000250: 62d8 2a3b 2d32 d33d 8ecd c2bc 71c8 783d
00000260: 0838 c63c 3d4b 21bd af9e 3cbd 71d4 be3d
00000270: 3636 593d d0d5 4c3d 536b 533d d610 3fbd
00000280: 98f3 133d bc52 a8bc 5ef2 893d c04f 423d
00000290: 78e9 05bd 545e a9bb d7c4 283d d084 06bd
000002a0: 6756 b6bb 98ed a53d 8ad1 2cbd f296 a33c
000002b0: ba66 aabd de33 b2bb 3e33 b4bc 9e8d 793d
000002c0: 75dd 8cbd 1371 ae3b 63cc 81bd 7bce 9fbc
000002d0: b385 203d 6ce8 5b3d f55b 293d 206e 8dbb
000002e0: 7ec0 ebbc e20f ca3d 016b 503d af74 94bd
000002f0: 58fc 85bc ee31 8abb 3599 b63d f1d6 a03c
00000300: 9160 fdbc 0e96 523d bc86 013c 117d a1bc
00000310: 9bb2 bd3b b24d 66bd 6c86 4d3b ae70 2bbd
00000320: ae8d acbd 65e3 b53d 945a 993d ed4e 0f3d
00000330: f88c a2bd 5cd7 a03d 4153 87bc 3810 a6bd
00000340: f61b 3cbd 639f 5a3d 179d 933d 0e70 ad3a
00000350: 15bc 47bd 3a71 bbbd 82f7 9d3d 71b6 a7bd
00000360: c293 d33c c4eb 00bb 28f3 9fbc a4bf 973d
00000370: 4cf7 1fbd 47de 57bd b96f 2ebc 1ab1 0f3d
00000380: 5555 67bd 0d5c 9bbd 784a 253d be98 863d
00000390: fb1a eebc 5dae 7f3b 4b70 b23d fdde 6cbd
000003a0: 84d8 6abd b311 a6bb 8357 533d ffdc 9fbd
000003b0: 0ffe e33c 6d03 a6bd 695e aabd 84c4 bd3c
000003c0: 64c3 9a3b 0c56 cd3c 76d7 cebc 7cf6 df3c
000003d0: 6ab0 89bb 0948 44bd 8130 973d 3d8d 883c
000003e0: b225 80bd 0b88 88bd 29c8 273d bac4 20bc
000003f0: 7123 c23c f190 563d 9a01 9b3c da24 bf3c

lstm.weight_hh_l1 f4 [512, 128]
0.04696429 0.0071906094 -0.021297466 0.012778082 0.049751766 0.029666895 0.083075255 -0.08200562
-0.061173808 0.0023871243 0.013517532 0.06807089 0.00059732306 -0.056542855 -0.07717644 0.05100965
0.05475122 -0.08081551 0.08235117 -0.02733723 0.008643581 -0.044457987 0.02167069 -0.059429422
-0.09471837 0.0998693 -0.0029737467 0.092550665 0.015345125 0.07632969 -0.028036956 0.091554575
-0.06440466 -0.07806457 -0.064836666 0.03028476 0.032741275 0.08395812 0.058661986 0.042057276
-0.047340818 0.08478079 0.01911487 0.080730855 0.038242072 -0.033437833 0.03471958 -0.06378428
0.08439706 0.06599106 0.00029683163 -0.0029453852 0.022269463 -0.02117041 -0.06904921 -0.030457573
-0.040435474 0.02480734 0.05979442 -0.010930937 0.006275933 -0.010002557 -0.08437219 0.02880289
-0.02413891 0.069173545 -0.08659209 -0.090947375 0.07749131 -0.082732074 -0.08186654 0.04514082
-0.059735905 -0.041982964 0.031752285 0.011956402 -0.006695284 0.11515352 -0.0767902 -0.009101313
0.06847805 0.031509537 -0.0029180802 -0.080463596 -0.046389397 0.065231286 0.027556026 0.013736458
-0.07365012 -0.019022703 0.086589456 0.02888018 -0.029451136 0.08114424 0.08473265 -0.069845214
0.07270714 -0.07762677 -0.034662906 -0.014328565 -0.020802457 0.008509999 -0.08881075 0.010911156
-0.072055966 0.06471047 -0.073717415 -0.08435761 -0.04113465 0.06798896 -0.000105852174 0.06237588
0.08281088 -0.036908876 0.09069355 -0.0017747794 0.06649607 0.028190609 0.047612272 -0.0648562
-0.0060845665 0.0029065285 0.055950936 -0.047996607 0.011360241 -0.055610627 0.0033188642 0.027382113
0.04203075 0.07748041 0.045369346 -0.08362385 -0.0037591008 -0.035913534 0.01066547 -0.04633054
-0.015859617 0.02176769 -0.025591841 -0.0055338503 -0.037436165 -0.013150707 0.03388958 -0.056813426
-0.03712053 -0.052888967 -0.07706871 0.0898042 -0.016166154 -0.02484823 0.07927097 0.082448386
-0.025275588 0.026687758 -0.0039668963 -0.03705292 -0.057173785 0.058091447 -0.07633332 0.08160188
0.08317938 0.06551395 0.0019560116 -0.059988532 0.05006863 -0.06472881 -0.03132547 0.026079543
-0.010788048 -0.07593801 -0.009544912 0.07711706 0.04099214 -0.070141055 -0.021978615 -0.013081959
-0.06292089 0.06414431 0.082672276 0.051362693 -0.033889893 0.014515038 0.04012399 -0.08070581
0.08548793 0.031969965 0.061804343 -0.037766397 -0.04256972 -0.009280017 0.06842862 -0.08007295
-0.034040533 0.06544963 0.004548758 -0.083838694 -0.019485613 -0.002777443 -0.091686346 0.048376393
0.0043892777 -0.054017015 0.08247956 -0.028693164 -0.05118198 0.008740269 -0.0074767224 0.006595634
0.03729635 -0.039301094 0.10336865 -0.047016677 0.07208899 -0.008218735 0.05074441 -0.05125741
-0.06502335 -0.031377915 0.0003097675 0.02800633 0.10231712 0.06830392 0.030580422 0.047473248
0.03383236 0.04620384 0.07244445 -0.025301648 0.06610536 0.06918858 -0.06485837 0.08519119
0.005279856 0.09537734 0.05699897 0.055732787 0.05303143 -0.073349014 -0.006116038 0.065443315
-0.067326866 -0.031970978 -0.025238397 0.003957233 0.054645758 -0.027844263 0.08525888 0.06562056
0.021733426 0.094466284 -0.085445695 0.07624555 -0.028212782 -0.056204554 -0.08018898 -0.013417777
00000000: a15d 403d 349f eb3b 0678 aebc 295b 513c
00000010: 82c8 4b3d fd07 f33c 5c23 aa3d 90f2 a7bd
00000020: 6391 7abd 4d71 1c3b a378 5d3c c068 8b3d
00000030: ac95 1c3a 7b99 67bd ae0e 9ebd 7fef 503d
00000040: d142 603d 9a82 a5bd bba7 a83d 54f2 dfbc
00000050: ce9d 0d3c 9419 36bd bb86 b13c 446c 73bd
00000060: b4fb c1bd 4788 cc3d 31e3 42bb 348b bd3d
00000070: 1f6a 7b3c be52 9c3d c2ad e5bc f780 bb3d
00000080: 97e6 83bd 51e0 9fbd 16c9 84bd bf17 f83c
00000090: b71b 063d 3cf2 ab3d 8d47 703d 4044 2c3d
000000a0: 72e8 41bd 8da1 ad3d ca96 9c3c 3856 a53d
000000b0: b8a3 1c3d 1cf6 08bd 1e36 0e3d 55a1 82bd
000000c0: 5ed8 ac3d 5226 873d 11a0 9b39 5d07 41bb
000000d0: 736e b63c 916d adbc ac69 8dbd 2982 f9bc
000000e0: ab9f 25bd c338 cb3c feea 743d ac17 33bc
000000f0: 57a6 cd3b c4e1 23bc 54cb acbd 0af4 eb3c
00000100: f7be c5bc dcaa 8d3d 3257 b1bd 9e42 babd
00000110: c4b3 9e3d 6f6f a9bd a5a9 a7bd 95e5 383d
00000120: a3ad 74bd 54f6 2bbd af0e 023d c9e4 433c
00000130: 1d64 dbbb 9cd5 eb3d 2e44 9dbd ac1d 15bc
00000140: 383e 8c3d 2510 013d 433d 3fbb 19ca a4bd
00000150: cf02 3ebd fb97 853d 2dbd e13c e10e 613c
00000160: e0d5 96bd 80d5 9bbc d055 b13d 2196 ec3c
00000170: 8243 f1bc f42e a63d 5088 ad3d 020b 8fbd
00000180: 7be7 943d c9fa 9ebd b1fa 0dbd 5cc2 6abc
00000190: ea69 aabc 866d 0b3c 69e2 b5bd b5c4 323c
000001a0: 1492 93bd ec86 843d 28f9 96bd afc3 acbd
000001b0: cf7c 28bd cc3d 8b3d f4fc ddb8 da7d 7f3d
000001c0: c098 a93d c32d 17bd 8abd b93d b79f e8ba
000001d0: 172f 883d feef e63c 1605 433d 54d3 84bd
000001e0: 0b61 c7bb 757b 3e3b cf2c 653d 1798 44bd
000001f0: 4e20 3a3c f8c7 63bd 4d81 593b 7450 e03c
00000200: 7028 2c3d 0dae 9e3d 35d5 393d fb42 abbd
00000210: 3f5b 76bb 121a 13bd 39be 2e3c 18c5 3dbd
00000220: 07ec 81bc 2852 b23c fba5 d1bc 4d55 b5bb
00000230: aa56 19bd 1076 57bc cdcf 0a3d 32b5 68bd
00000240: b20b 18bd 1aa2 58bd 33d6 9dbd 44eb b73d
00000250: e26e 84bc 848e cbbc d158 a23d b3da a83d
00000260: c00e cfbc 49a0 da3c bdfc 81bb cdc4 17bd
00000270: 0f2f 6abd 4cf1 6d3d a554 9cbd e31e a73d
00000280: f359 aa3d 2e2c 863d 6e30 003b 89b6 75bd
00000290: c414 4d3d 8a90 84bd 234f 00bd c4a4 d53c
000002a0: 5ac0 30bc 6385 9bbd 4362 1cbc 8def 9d3d
000002b0: 60e7 273d 1da6 8fbd 7f0c b4bc b755 56bc
000002c0: abdc 80bd 185e 833d 1550 a93d b061 523d
000002d0: 21d0 0abd 7bd0 6d3c 0e59 243d 1649 a5bd
000002e0: 4c14 af3d f0f2 023d 8d26 7d3d f0b0 1abd
000002f0: 965d 2ebd 360b 18bc 4e24 8c3d 49fd a3bd
00000300: 166e 0bbd 750a 863d bf0d 953b 9fb3 abbd
00000310: 4ba0 9fbc c305 36bb 0dc6 bbbd 5326 463d
00000320: eed3 8f3b f240 5dbd 0beb a83d ed0d ebbc
00000330: 32a4 51bd 5833 0f3c 4bff f4bb 3020 d83b
00000340: 0fc4 183d 2ffa 20bd f1b2 d33d 8f94 40bd
00000350: 64a3 933d e0a7 06bc 5fd9 4f3d 4af3 51bd
00000360: f62a 85bd 2186 00bd 4a68 a239 886d e53c
00000370: a38b d13d ede2 8b3d cb83 fa3c 4f73 423d
00000380: cd93 0a3d 3d40 3d3d c15d 943d 6745 cfbc
00000390: 3f62 873d beb2 8d3d 77d4 84bd b878 ae3d
000003a0: a402 ad3b 3255 c33d c177 693d 1048 643d
000003b0: 7c37 593d 0238 96bd 0c69 c8bb 2507 863d
000003c0: abe2 89bd 00f4 02bd c1c0 cebc adab 813b
000003d0: 3bd4 5f3d a719 e4bc 359c ae3d 1264 863d
000003e0: 4c0a b23c 8a77 c13d 27fe aebd a026 9c3d
000003f0: 7e1e e7bc bf36 66bd 1f3a a4bd 3cd6 5bbc

lstm.bias_ih_l1 f4 [512]
0.038002875 0.06916289 0.060093325 -0.0060590636 -0.03242576 -0.010548964 0.08411144 -0.0156245055
0.07832627 -0.006000014 0.01749065 -0.03746033 -0.05506723 -0.014810945 -0.020612262 0.07582627
-0.016982174 -0.019459968 0.07665937 -0.008359627 0.0354497 -0.048009764 0.047168236 0.05099657
-0.02244683 -0.03327008 0.026241068 0.036624726 0.0012982821 0.015785595 -0.043978874 0.039889682
0.010949885 0.026922619 -0.0044015893 -0.023428796 -0.06104459 0.04832106 -0.07421634 -0.027011286
-0.04768455 -0.017368801 -0.003298098 0.051372267 0.060646866 -0.022697585 0.014389393 -0.06297819
0.0554972 -0.07270045 0.009078089 -0.057872087 -0.080519535 -0.015013497 -0.058042213 -0.1205283
0.039120004 -0.07200613 0.033177156 -0.0969734 0.061460704 -0.03440764 0.045355193 0.07861957
0.04728785 0.05915386 -0.045125723 0.042211313 0.07286238 -0.015791366 0.04620328 0.008858133
0.049220484 0.035730466 -0.097058386 -0.004149449 -0.082081586 -0.046112996 -0.070533894 0.07461003
0.081265986 -0.06309437 0.029508367 -0.039579764 0.06506386 -0.079179905 -0.06769942 -0.109783515
-0.06232173 -0.04590814 -0.015324106 -0.07124618 -0.10000078 -0.036525033 -0.03469127 0.07721236
0.032182243 0.054676652 -0.05480864 -0.032345466 0.03566084 0.07944229 0.06935186 -0.1201852
-0.062069558 -0.083353296 -0.08061594 0.02334069 -0.04030571 -0.054530464 0.06451541 0.0794116
0.041982062 -0.057401717 0.037802596 -0.085933335 -0.07410056 0.0095432 0.024449939 -0.060946085
0.0039999485 0.00937195 -0.017845213 0.0016236876 -0.02738774 -0.011710292 -0.0016612405 -0.02900292
-0.080571465 -0.0010715711 -0.024933092 0.010852313 0.07018788 0.0004830001 0.060351774 0.03332576
-0.08072401 0.032851804 0.053177923 0.094034314 0.070600286 -0.052500803 -0.06211167 -0.002976694
-0.09578132 -0.07209255 -0.05197619 0.0603223 -0.03348796 0.0063179387 0.05845864 -0.017612891
-0.067012064 0.015597967 -0.051095814 -0.030765172 0.057209138 0.08951213 -0.05724478 -0.060622502
0.037248306 -0.016934287 -0.07060235 -0.061581112 -0.024263425 0.055229567 -0.058353122 -0.12139762
-0.07887481 0.030420825 0.015355153 0.022679342 -0.047619008 0.000961616 -0.019369544 -0.095971145
-0.061119523 0.0042073615 0.04472948 -0.002137694 -0.013815204 -0.056011513 -0.082795225 -0.048166666
0.063403554 -0.06989398 -0.0062258183 0.036222618 -0.02794091 0.08287077 -0.03252512 0.04810162
0.00506094 0.014812244 0.018054685 0.030421436 0.044023853 -0.048508573 0.007225128 -0.06603179
-0.0065776715 -0.07635019 0.05352727 0.07568203 -0.015420959 -0.11474156 -0.03774153 -0.004932662
-0.04291996 -0.08142009 -0.015784029 -0.05237726 0.055555377 -0.079479866 0.047105983 -0.08652943
-0.005604367 -0.0907043 0.04621049 -0.01151088 -0.0077474485 -0.039829355 -0.014844457 -0.027167607
-0.0126498435 -0.07980521 0.024713513 -0.0050987117 -0.006362715 -0.028809628 0.010619213 0.011351246
-0.05829873 -0.07325075 0.031818945 -0.018178128 -0.074826725 0.055428907 -0.043271456 -0.011823846
-0.021257056 -0.0767808 -0.024954513 0.0769719 0.012733111 -0.01883807 0.02726724 -0.01326309
0.061763644 0.07178539 -0.063561104 0.053749826 0.0026420688 0.051899754 -0.01055905 -0.06586229
00000000: e7a8 1b3d 46a5 8d3d 6b24 763d 1c8b c6bb
00000010: e0d0 04bd 90d5 2cbc 9e42 ac3d edfd 7fbc
00000020: 8669 a03d c49b c4bb 8d48 8f3c 0170 19bd
00000030: 2d8e 61bd 9ba9 72bc 0cdb a8bc ce4a 9b3d
00000040: 331e 8bbc 836a 9fbc 96ff 9c3d d1f6 08bc
00000050: b433 113d e3a5 44bd 7b33 413d c8e1 503d
00000060: 6ae2 b7bc 3546 08bd 82f7 d63c cf03 163d
00000070: 1e2b aa3a cb50 813c 3123 34bd 5d63 233d
00000080: 2567 333c d38c dc3c 353b 90bb bfed bfbc
00000090: e409 7abd 4eec 453d bdfe 97bd c646 ddbc
000000a0: e050 43bd 0449 8ebc e724 58bb ba6b 523d
000000b0: d968 783d 49f0 b9bc 7dc1 6b3c b6fa 80bd
000000c0: 0851 633d f9e3 94bd 44bc 143c 480b 6dbd
000000d0: 6de7 a4bd 2cfb 75bc acbd 6dbd 8bd7 f6bd
000000e0: 4c3c 203d f377 93bd c5e4 073d fd99 c6bd
000000f0: 38be 7b3d 07ef 0cbd 5ec6 393d 4c03 a13d
00000100: e8b0 413d 514b 723d c0d5 38bd c5e5 2c3d
00000110: df38 953d e55c 81bc a73f 3d3d b421 113c
00000120: 6b9b 493d 1c5a 123d 8cc6 c6bd 1af8 87bb
00000130: 641a a8bd fbe0 3cbd 1374 90bd 25cd 983d
00000140: c86e a63d 9f37 81bd 88bb f13c 641e 22bd
00000150: 3340 853d 1329 a2bd fea5 8abd 2ed6 e0bd
00000160: 1245 7fbd 2c0a 3cbd f611 7bbc 84e9 91bd
00000170: 35cd ccbd 469b 15bd 6f18 0ebd 8421 9e3d
00000180: 87d1 033d a0f4 5f3d 067f 60bd ae7c 04bd
00000190: 1a11 123d a4b2 a23d 5908 8e3d a823 f6bd
000001a0: a63c 7ebd 22b5 aabd f819 a5bd fa34 bf3c
000001b0: 9a17 25bd 565b 5fbd a820 843d 8da2 a23d
000001c0: 62f5 2b3d 101e 6bbd e5d6 1a3d d1fd afbd
000001d0: 09c2 97bd 155b 1c3c 3d4b c83c 9aa2 79bd
000001e0: 0012 833b cf8c 193c 2030 92bc ead1 d43a
000001f0: 415c e0bc 86dc 3fbc fbbd d9ba 8897 edbc
00000200: a702 a5bd f673 8cba 7c40 ccbc e6cd 313c
00000210: aabe 8f3d 2d3b fd39 6c33 773d 9880 083d
00000220: a152 a5bd 9d8f 063d 18d1 593d 1095 c03d
00000230: e296 903d 150b 57bd ce68 7ebd a314 43bb
00000240: ff28 c4bd 42a5 93bd fce4 54bd 8414 773d
00000250: ac2a 09bd b606 cf3b 5472 6f3d e948 90bc
00000260: 9f3d 89bd 9e8e 7f3c d849 51bd 3e07 fcbc
00000270: 2154 6a3d 2352 b73d 8179 6abd 4d4f 78bd
00000280: ae91 183d c6b9 8abc f797 90bd 7a3c 7cbd
00000290: 17c4 c6bc 6638 623d af03 6fbd 519f f8bd
000002a0: 1e89 a1bd 1835 f93c 2e94 7b3c 07ca b93c
000002b0: 260c 43bd f514 7c3a e1ac 9ebc 858c c4bd
000002c0: 7758 7abd e8dd 893b 4236 373d 8e18 0cbb
000002d0: 2a59 62bc 546c 65bd 8b90 a9bd 694a 45bd
000002e0: b9d9 813d 9324 8fbd f301 ccbb 2b5e 143d
000002f0: 56e4 e4bc 26b8 a93d 0f39 05bd 3406 453d
00000300: 3ed6 a53b 0eaf 723c 6be7 933c 6036 f93c
00000310: 5b52 343d edb0 46bd c4c0 ec3b ad3b 87bd
00000320: 8289 d7bb 7d5d 9cbd 693f 5b3d 2eff 9a3d
00000330: 31a8 7cbc 9ffd eabd dd96 1abd 2ba2 a1bb
00000340: d7cc 2fbd 93bf a6bd 824d 81bc 8a89 56bd
00000350: 098e 633d 57c6 a2bd 34f2 403d 5736 b1bd
00000360: d6a4 b7bb 2dc3 b9bd 3647 3d3d 2198 3cbc
00000370: 4fde fdbb 1b24 23bd 2a36 73bc 9a8e debc
00000380: 4a41 4fbc ea70 a3bd fe73 ca3c 1813 a7bb
00000390: 527e d0bb 2b02 ecbc 35fc 2d3c 94fa 393c
000003a0: a6ca 6ebd 7d04 96bd 9554 023d 4cea 94bc
000003b0: c13e 99bd 6c09 633d 693d 31bd ceb8 41bc
000003c0: 4723 aebc 413f 9dbd 686d ccbc 72a3 9d3d
000003d0: 8a9e 503c 4c52 9abc 8c5f df3c 6e4d 59bc
000003e0: e0fb 7c3d 3804 933d 532c 82bd c728 5c3d
000003f0: 8f26 2d3b d694 543d deff 2cbc cfe2 86bd
