04_Models/20250808_173218_GDEA_LSTM_Classification/best_model.pth (torch, 452130 bytes, 38 tensors)

lstm.weight_ih_l0 f4 [256, 51]
0.014919545 -0.1657041 0.061509494 0.10673579 -0.041499425 0.045443777 0.017641783 0.08038118
0.04072633 -0.060870484 -0.032069452 0.041510068 -0.056909457 -0.05047874 -0.05281263 0.10954473
0.009104851 0.011420176 0.061281618 0.010399608 0.068811685 0.0922207 -0.028389145 0.079434894
-0.0022432357 0.046480816 0.012531374 -0.053253073 0.016324727 -0.056536168 -0.10295726 0.023092646
0.051817887 -0.03499346 0.009831574 0.052993193 -0.077312 -0.1358648 0.0056319633 -0.010279385
0.022758657 -0.014041009 -0.042912137 -0.001226035 -0.044658847 0.06288789 -0.062454313 0.0379928
-0.010925687 0.0005254728 0.053745013 0.014161173 -0.02980575 0.18335037 -0.008261627 -0.0867931
0.09720668 0.080183774 -0.115561284 0.0345044 -0.089493364 -0.021979114 -0.14963461 -0.09742515
-0.06505242 -0.048201498 0.02753353 -0.083807014 -0.06729499 -0.010228514 0.059242655 -0.0026728956
-0.039839063 -0.1219107 -0.15763219 -0.016381226 -0.09935136 -0.0133285 -0.022310724 -0.042957548
0.15335119 -0.078660816 -0.011307682 0.043713205 0.0008079688 -0.07792347 0.013521014 -0.056839716
0.0930376 -0.007634004 -0.013913131 -0.034116942 0.13430744 0.15780166 -0.056986067 0.015838888
-0.06416289 0.09415085 0.03311497 0.081122905 0.0033334699 0.054911636 0.010841046 -0.042805653
-0.026593931 0.058716573 0.0011201459 -0.089508854 0.06811041 0.021689914 0.067283206 0.045439698
0.13883688 -0.03749535 0.031865403 0.05163992 -0.01541541 0.099341236 0.0317297 0.060113326
-0.026355723 -0.047962964 0.095903695 -0.021215715 -0.04964922 0.053262264 -0.0006748552 0.026269134
0.09885163 -0.06720337 0.008089377 -0.034879845 0.05324109 0.06742927 0.09853307 -0.04096761
-0.01964786 0.0019410482 -0.022347283 -0.005959546 -0.003442036 0.12477723 -0.011728605 -0.05673591
0.08025948 -0.05940483 -0.05057362 0.08661883 -0.058514133 0.03749874 0.08015513 -0.035630878
-0.016125454 -0.05440668 0.040438037 -0.017369693 -0.09495871 -0.08306143 -0.0498386 0.031822626
0.0037974205 -0.026122987 0.017385101 0.0059213107 -0.020500697 0.0054074717 0.047586925 -0.0334981
-0.025210008 0.18156484 0.06315349 -0.15839362 0.010774319 0.008336584 0.009689773 0.04126188
0.09741743 0.006363913 0.08831126 0.037514094 -0.011946204 -0.020804044 -0.03649082 -0.099764846
-0.04428361 0.067683175 -0.064265095 -0.052740425 0.024380937 0.028773105 0.033655014 -0.046756566
-0.080712624 -0.037074625 -0.0457525 -0.103789404 -0.03954573 -0.0016834358 -0.04657026 -0.046622932
0.027945772 -0.02003234 0.071607575 -0.021531548 -0.004922671 -0.10862853 -0.10710319 -0.0154296905
-0.075420484 -0.047363013 0.048001222 -0.019709058 -0.07082475 0.030364225 -0.028789515 -0.03439957
-0.104663655 -0.06321154 -0.09419517 0.014658862 -0.024986891 0.009549004 -0.044089265 0.098716795
0.1205182 0.002298701 0.04861589 -0.033719134 -0.11161928 -0.051240645 -0.014035858 -0.09442702
-0.019565733 -0.052582063 0.020549702 -0.11579709 -0.0004900163 -0.014472332 -0.048520744 -0.050302558
-0.034708835 0.083047934 0.034523275 0.10132195 -0.05729937 -0.05906219 0.052376978 -0.056167826
-0.008365556 -0.04315614 -0.03576376 0.027312946 0.07233144 0.0019547795 0.012476385 0.054080855
00000000: 1b71 743c 56ae 29be 61f1 7b3d 4b98 da3d
00000010: 4dfb 29bd 4123 3a3d 8085 903c e39e a43d
00000020: a7d0 263d 5453 79bd 425b 03bd 7606 2a3d
00000030: e419 69bd ccc2 4ebd 0e52 58bd fd58 e03d
00000040: 832c 153c b11b 3b3c 6f02 7b3d 1e63 2a3c
00000050: 24ed 8c3d 35de bc3d 5a90 e8bc c3ae a23d
00000060: 4003 13bb ab62 3e3d 6450 4d3c e51f 5abd
00000070: 6fbb 853c 7892 67bd 42db d2bd ca2c bd3c
00000080: fe3e 543d 4d55 0fbd 9c14 213c 640f 593d
00000090: c155 9ebd 2420 0bbe 558c b83b de6a 28bc
000000a0: 5d70 ba3c 430c 66bc a3c4 2fbd e8b2 a0ba
000000b0: 32ec 36bd 5ecb 803d 18d0 7fbd 579e 1b3d
000000c0: a701 33bc e2bf 093a bb23 5c3d 4404 683c
000000d0: 302b f4bc 33c0 3b3e c65b 07bc 95c0 b1bd
000000e0: 4c14 c73d 6437 a43d 65ab ecbd 7c54 0d3d
000000f0: 4c48 b7bd 8b0d b4bc d139 19be d686 c7bd
00000100: 343a 85bd ef6e 45bd ff8d e13c 03a3 abbd
00000110: f5d1 89bd 7f95 27bc 6da8 723d bf2b 2fbb
00000120: 492e 23bd 51ac f9bd 556a 21be ec31 86bc
00000130: ba78 cbbd c85f 5abc fbc4 b6bc 41f4 2fbd
00000140: 1808 1d3e ec18 a1bd db43 39bc 9e0c 333d
00000150: decd 533a 5796 9fbd 3e87 5d3c c3d0 68bd
00000160: 7f8a be3d ab26 fabb e7f3 63bc 35be 0bbd
00000170: e487 093e c296 213e 396a 69bd 8ec0 813c
00000180: d567 83bd 29d2 c03d 90a3 073d c423 a63d
00000190: 5876 5a3b 06eb 603d a59e 313c fb54 2fbd
000001a0: 84db d9bc ca80 703d dcd1 923a 6b50 b7bd
000001b0: 787d 8b3d 0caf b13c c7cb 893d fa1e 3a3d
000001c0: 412b 0e3e b994 19bd 4c85 023d 6184 533d
000001d0: ea90 7cbc 6b73 cb3d 00f7 013d 6439 763d
000001e0: f5e7 d7bc d074 44bd 2869 c43d 94cc adbc
000001f0: fb5c 4bbd 8829 5a3d c4e8 30ba 5e32 d73c
00000200: b972 ca3d eca1 89bd 4e89 043c 2bde 0ebd
00000210: 5413 5a3d 5b18 8a3d b5cb c93d a7cd 27bd
00000220: 8df4 a0bc c56a fe3a a611 b7bc 4c48 c3bb
00000230: c893 61bb 348b ff3d 5629 40bc ea63 68bd
00000240: 155f a43d 7b52 73bd 4926 4fbd 3765 b13d
00000250: 84ac 6fbd 4798 193d 5f28 a43d aff1 11bd
00000260: 8719 84bc 8ad9 5ebd 5ba2 253d e34a 8ebc
00000270: b679 c2bd 1c1c aabd 8f23 4cbd 7158 023d
00000280: 25de 783b e0ff d5bc 336b 8e3c 8e07 c23b
00000290: 14f1 a7bc 2931 b13b 82ea 423d 4e35 09bd
000002a0: 3885 cebc 22ec 393e 9e56 813d f031 22be
000002b0: c586 303c 2b96 083c dbc1 1e3c 3802 293d
000002c0: ca82 c73d 5f88 d03b 89dc b43d 61a8 193d
000002d0: 03ba 43bc 3e6d aabc 6677 15bd 8351 ccbd
000002e0: bb62 35bd 7a9d 8a3d 6b9d 83bd 5806 58bd
000002f0: 88ba c73c 93b5 eb3c d7d9 093d d083 3fbd
00000300: a94c a5bd 90db 17bd f966 3bbd 8a8f d4bd
00000310: b4fa 21bd bba6 dcba 75c0 3ebd b0f7 3ebd
00000320: 88ee e43c dd1a a4bc fea6 923d ee62 b0bc
00000330: 5b4e a1bb a278 debd eb58 dbbd d0cc 7cbc
00000340: 0e76 9abd b8ff 41bd ee9c 443d e474 a1bc
00000350: 910c 91bd 65be f83c fdd7 ebbc 90e6 0cbd
00000360: e659 d6bd 0d75 81bd 66e9 c0bd b92b 703c
00000370: 4fb1 ccbc 6d73 1c3c f296 34bd 082c ca3d
00000380: 3fd2 f63d cea5 163b 7521 473d 131d 0abd
00000390: a698 e4bd b6e1 51bd a8f6 65bc f462 c1bd
000003a0: 5148 a0bc 4a60 57bd d957 a83c 0627 edbd
000003b0: 7074 00ba 5c1d 6dbc b0bd 46bd 0e0a 4ebd
000003c0: da2a 0ebd 0915 aa3d 4768 0d3d e281 cf3d
000003d0: bfb2 6abd 32eb 71bd 3e89 563d 3c10 66bd
000003e0: af0f 09bc 7ec4 30bd 057d 12bd 66bf df3c
000003f0: 8222 943d c21b 003b c069 4c3c e383 5d3d

lstm.weight_hh_l0 f4 [256, 64]
-0.11951399 -0.0010157799 -0.07950506 0.15205282 0.18356512 0.096812926 -0.019061001 -0.007544507
-0.15632197 0.044989828 0.01881909 -0.094110444 -0.06618685 -0.079107404 -0.07184535 -0.04200122
0.02299491 -0.07126683 -0.016313424 0.0016854908 -0.071840055 0.009916971 0.06867922 -0.021306865
0.03506743 -0.055328958 -0.00907142 -0.051933244 -0.0016023513 -0.057583336 0.018253285 -0.0023196135
0.034968026 0.09352212 0.09967694 -0.12251254 0.05280807 -0.019518659 0.026716247 -0.06303604
-0.0445232 -0.04265235 0.014383833 -0.023752432 -0.02751878 0.119102396 0.023012867 -0.09729444
-0.15470776 0.07706286 -0.028303819 -0.0023447596 0.006535074 -0.07875715 0.001242941 -0.17804304
0.07157488 0.029184842 -0.10914161 0.034489688 -0.085349135 -0.0057410137 0.16076675 -0.039237864
0.10290746 -0.090375386 0.0023545432 -0.063610286 -0.07260256 -0.1287762 -0.007756737 0.075436935
-0.051683046 0.08428876 0.04848087 -0.056540843 0.0062557408 0.2065004 -0.08076242 0.063866146
0.09804921 0.061087795 0.037770398 -0.04690953 -0.10064743 -0.07594372 -0.07862877 -0.023094095
-0.057087738 -0.14111902 0.009556514 -0.03760033 0.1570698 -0.07001041 0.051170606 -0.01951698
0.0627479 -0.04747237 0.0029770734 0.03527519 0.023483789 -0.06582706 0.10111504 -0.15643176
-0.06757374 0.019453906 -0.0041572885 -0.0064737857 0.052387953 0.11314525 0.00046896585 -0.07381312
0.007987603 -0.04307232 0.050223902 -0.06134156 -0.13216515 0.05757331 -0.0044431672 -0.05254777
-0.0106541505 -0.013892823 -0.02326014 0.12255408 -0.0005351111 -0.034462262 0.10583176 -0.014279175
-0.077717386 0.016520359 0.048657127 0.0867838 0.049292825 0.028722836 -0.06944073 0.051475048
-0.025929919 0.013519545 -0.012651007 0.11463565 -0.083059266 0.050267607 -0.03421562 0.03265508
0.047441512 0.02524768 -0.022606624 0.0626205 0.018929299 -0.05273763 -0.09216478 0.013953314
0.081294015 -0.12686582 0.0038823672 0.023568133 0.053809833 0.010007581 0.06999726 0.13132231
0.0024319566 -0.013704309 0.012407996 0.010643578 -0.028141247 0.0052244244 0.06148158 -0.11759469
-0.010935361 -0.030868499 -0.062441375 0.041602723 -0.089512 -0.0077507403 -0.11423003 0.0572833
0.004886309 0.10363357 -0.040851675 0.008290433 -0.011966403 -0.057874426 -0.020278191 0.0023879297
-0.0050850827 0.05017583 0.10367843 -0.09668717 -0.0027246128 0.16393903 -0.014097502 0.051372208
-0.01208254 -0.049192816 0.015834467 0.10547674 -0.06593838 0.057413075 -0.008261676 -0.025949571
-0.020329803 -0.0025793014 -0.071548745 -0.0947496 -0.008495189 -0.03700383 -0.01054268 0.013166974
-0.00013487528 -0.00927138 0.02530917 0.074079596 -0.026515981 -0.06334686 -0.013161058 0.10714241
-0.018724486 -0.022636047 -0.14856225 0.10314028 -0.14186482 -0.014475746 0.14134164 -0.03204371
-0.04411465 -0.061842777 -0.12726238 -0.009937022 0.040959112 0.082126595 -0.028303064 -0.011081046
0.056916676 -0.034826405 0.08700418 0.057231735 -0.13420653 0.05585326 -0.012915213 -0.051363233
0.03776206 0.03758482 -0.037339814 -0.041648645 0.038354345 -0.035190836 0.031612486 0.011278238
-0.163326 -0.020129409 0.048176304 0.035783958 0.08509261 0.016925517 -0.011924131 -0.042621806
00000000: c0c3 f4bd eb23 85ba 8dd3 a2bd bcb3 1b3e
00000010: 7ff8 3b3e db45 c63d d125 9cbc e937 f7bb
00000020: de12 20be 4147 383d 7e2a 9a3c fabc c0bd
00000030: f98c 87bd 1003 a2bd a823 93bd 7909 2cbd
00000040: d25f bc3c 58f4 91bd bba3 85bc b0eb dc3a
00000050: e120 93bd cb7a 223c b1a7 8c3d bc8b aebc
00000060: dea2 0f3d 9ea0 62bd 4ba0 14bc f4b7 54bd
00000070: fd05 d2ba 81dc 6bbd ea87 953c a804 18bb
00000080: a23a 0f3d 8688 bf3d 6c23 cc3d dbe7 fabd
00000090: 464d 583d 98e5 9fbc 08dc da3c 0a19 81bd
000000a0: f55d 36bd 3bb4 2ebd 2baa 6b3c 7694 c2bc
000000b0: 116f e1bc f5eb f33d 7b85 bc3c 4f42 c7bd
000000c0: b66b 1ebe 22d3 9d3d 69dd e7bc 8aaa 19bb
000000d0: 2d24 d63b 6e4b a1bd 2eea a23a ea50 36be
000000e0: da95 923d 0d15 ef3c a385 dfbd 0f45 0d3d
000000f0: 87cb aebd 1d1f bcbb 0aa0 243e e2b7 20bd
00000100: 25c1 d23d bb16 b9bd ae4e 1a3b 1c46 82bd
00000110: a7b0 94bd e8dd 03be 3a2c febb ae7e 9a3d
00000120: 9ab1 53bd 969f ac3d e093 463d 5f97 67bd
00000130: f5fc cc3b d774 533e c566 a5bd 41cc 823d
00000140: 06ce c83d 3237 7a3d 22b5 1a3d 3524 40bd
00000150: 3d20 cebd 6288 9bbd 1f08 a1bd d42f bdbc
00000160: d5d4 69bd 8181 10be ed92 1c3c ce02 1abd
00000170: e8d6 203e 9e61 8fbd 4598 513d 13e2 9fbc
00000180: f981 803d 6372 42bd 011b 433b b87c 103d
00000190: 1361 c03c 56d0 86bd 6715 cf3d a62f 20be
000001a0: 1a64 8abd cc5d 9f3c dd39 88bb 0d22 d4bb
000001b0: c094 563d b2b8 e73d 88df f539 552b 97bd
000001c0: 6fde 023c 9a6c 30bd 94b7 4d3d 4a41 7bbd
000001d0: 4d56 07be fed1 6b3d fd97 91bb 553c 57bd
000001e0: bf8e 2ebc b99e 63bc 0d8c bebc a2fd fa3d
000001f0: b346 0cba 4d28 0dbd 52be d83d 33f3 69bc
00000200: 4b2a 9fbd b455 873c b24c 473d b4bb b13d
00000210: 46e7 493d 274c eb3c f136 8ebd 80d7 523d
00000220: fb6a d4bc 1581 5d3c 2b46 4fbc 18c6 ea3d
00000230: fa1a aabd 68e5 4d3d ae25 0cbd 55c1 053d
00000240: 0852 423d 39d4 ce3c 8731 b9bc 2d3f 803d
00000250: 9e11 9b3c 6a03 58bd e3c0 bcbd 719c 643c
00000260: 7a7d a63d 1de9 01be 506f 7e3b f511 c13c
00000270: b367 5c3d d6f6 233c b95a 8f3d 5b79 063e
00000280: 7661 1f3b 0a88 60bc e84a 4b3c 6762 2e3c
00000290: 7988 e6bc a631 ab3b 1cd4 7b3d 7cd5 f0bd
000002a0: 3a2a 33bc efdf fcbc 87c2 7fbd 9e67 2a3d
000002b0: 1152 b7bd ecf9 fdbb 6ff1 e9bd e5a1 6a3d
000002c0: 551d a03b d63d d43d 1654 27bd 99d4 073c
000002d0: bb0e 44bc bc0d 6dbd 731e a6bc d07e 1c3b
000002e0: c4a0 a6bb 2c85 4d3d 5b55 d43d ec03 c6bd
000002f0: 6b8f 32bb a2df 273e 36f9 66bc aa6b 523d
00000300: d9f5 45bc 687e 49bd 49b7 813c 3004 d83d
00000310: b40a 87bd f929 6b3d fb5b 07bc 3294 d4bc
00000320: b08a a6bc 7f09 29bb 2688 92bd 140c c2bd
00000330: 682f 0bbc 5491 17bd 34bb 2cbc 4bba 573c
00000340: 4f6d 0db9 fce6 17bc 2d55 cf3c 0bb7 973d
00000350: 0b38 d9bc 00bc 81bd 7aa1 57bc 7b6d db3d
00000360: 1864 99bc 3b6f b9bc b420 18be 363b d33d
00000370: 0345 11be ae2b 6dbc ddbb 103e 4440 03bd
00000380: 90b1 34bd da4e 7dbd 1251 02be e4ce 22bc
00000390: bec4 273d fd31 a83d d4db e7bc 478d 35bc
000003a0: 7621 693d 22a6 0ebd 3f2f b23d d36b 6a3d
000003b0: 706d 09be 63c6 643d 549a 53bc 4162 52bd
000003c0: 64ac 1a3d 8af2 193d a2f1 18bd c597 2abd
000003d0: 7219 1d3d 4424 10bd 187c 013d 5cc8 383c
000003e0: ee3e 27be 6ee6 a4bc 8454 453d 3392 123d
000003f0: 0945 ae3d 62a7 8a3c 6e5d 43bc 3494 2ebd

lstm.bias_ih_l0 f4 [256]
-1.0673947 0.18586206 2.045996 -0.87391245 -1.7592475 1.131294 -1.3808248 1.0257971
-0.15631458 1.8405871 0.53931844 0.38397777 -1.4058038 1.5387172 -1.8228822 0.40513155
0.052609153 2.0322075 -0.44892478 -0.03776122 -0.8331771 1.2295119 -0.79682803 0.8508027
0.31443766 1.5754526 0.35338935 -1.1359483 0.44201294 1.0282208 -0.9877643 0.107074305
0.26450986 -1.7408199 0.20873018 0.032489628 0.5370711 -1.0836132 -0.16286157 0.008290915
-0.25906157 -0.49519083 0.14323017 -1.153213 0.1885289 -1.7070101 0.62477374 -0.24838105
-0.4639378 0.18805839 -2.1365478 1.0792615 0.50777465 2.4194772 -1.4112958 0.18623535
-1.832875 1.046939 -0.46816534 0.7870726 -1.0496575 0.43089294 1.0191995 -0.763207
-0.5466502 -2.8594015 1.2652173 -0.96780586 -1.5797552 0.5358767 0.84232515 0.10417526
-0.7792741 1.3045613 -0.7209345 0.68725306 -0.58164823 0.20465992 -1.4565035 0.02498901
1.4986327 -0.12861784 -0.26011574 1.4675786 0.7812378 -0.2544163 -2.2977748 -0.5297417
0.8512314 -1.4057518 2.1436288 -2.0388608 -0.96201676 0.36443013 0.46116972 0.44052333
-0.8841934 -0.093203135 -0.32700396 0.19864781 -1.7223428 -0.90149707 0.46341765 0.23638286
0.3158115 0.45629472 -0.9665495 3.2352183 -0.67692983 1.1399975 0.2468036 -1.6064857
1.1872324 1.6547801 -0.032181345 -0.008737552 -0.6362739 -0.51622576 0.7776897 1.2993486
-0.32310545 0.634058 0.9159196 -1.2426202 0.36165562 1.8158034 0.0315965 -0.356886
1.2244418 0.23835914 1.3199139 1.5287849 2.5217266 0.59194386 0.52679914 0.31322128
1.0802784 -1.148333 0.46237484 -1.2004406 -0.95031524 0.46591777 -0.32981354 -0.41536877
-0.10458597 -0.50890976 -1.2294538 0.12240215 0.1013933 -0.74710536 -1.7080435 -0.19742694
0.15127677 0.7762018 -1.2049053 0.93576634 0.93120337 0.7263156 -0.8656423 -0.52926224
0.5476338 -0.09238263 0.19554725 -1.7077216 0.5048907 0.02546478 -0.0795672 -0.437601
0.37753445 -0.009410301 0.40506652 0.78232735 1.279376 -0.8128337 -0.9869131 0.008324533
1.1141412 -1.4037124 1.525243 0.98831296 -0.3661905 -0.3960265 2.032875 0.27560318
0.15800147 -0.41660932 0.45282456 -1.0576303 -0.7927724 1.3002243 -0.3738372 -1.5242144
-1.3262762 -0.13470165 0.7966276 0.7173141 -0.79395086 -0.22351179 1.2498605 -0.038307425
-0.9370504 1.8608768 1.234242 0.5461862 0.22684169 0.03213182 0.9550275 -1.5400729
-1.5119385 1.5401053 0.20067683 -1.3619876 -0.8268485 -1.050684 1.3269739 -0.71240926
0.64526224 -0.2636754 -0.7786238 0.27167505 2.0134864 -0.2183772 -0.4401414 -1.4343344
-0.12867327 0.26838154 0.19567186 0.28281754 0.43759045 0.43798384 -1.0016643 1.3379288
0.3236253 -0.30130342 0.2332931 1.2845604 0.74859804 0.7572792 -0.010880053 0.23260196
0.16648972 -0.17011264 0.43152305 -1.100634 2.0094066 0.2579674 -0.46581513 0.51750773
1.2190539 0.32262588 0.7368511 -0.974433 -1.2486831 0.92088753 -0.311186 -0.051562916
00000000: 64a0 88bf a052 3e3e 99f1 0240 bab8 5fbf
00000010: 062f e1bf 3ece 903f debe b0bf 524d 833f
00000020: ee10 20be 5c98 eb3f c610 0a3f bc98 c43e
00000030: 61f1 b3bf aff4 c43f 3454 e9bf 676d cf3e
00000040: b27c 573d b00f 0240 78d9 e5be 82ab 1abd
00000050: 184b 55bf a560 9d3f ecfc 4bbf 35ce 593f
00000060: f9fd a03e 6ea8 c93f 73ef b43e c166 91bf
00000070: 854f e23e bd9c 833f 1fde 7cbf c649 db3d
00000080: d66d 873e 30d3 debf 5dbd 553e d813 053d
00000090: 7e7d 093f d6b3 8abf 2fc5 26be 9ed6 073c
000000a0: b8a3 84be a789 fdbe eeaa 123e 7c9c 93bf
000000b0: b80d 413e 4f7f dabf 2cf1 1f3f 9a57 7ebe
000000c0: 4189 edbe 6192 403e 33bd 08c0 3e25 8a3f
000000d0: 85fd 013f b7d8 1a40 57a5 b4bf 7bb4 3e3e
000000e0: a69b eabf 1902 863f 5eb3 efbe 977d 493f
000000f0: 2d5b 86bf 009e dc3e 2175 823f 8961 43bf
00000100: 44f1 0bbf 6f00 37c0 a4f2 a13f 20c2 77bf
00000110: 6b35 cabf 372f 093f 9fa2 573f d759 d53d
00000120: 827e 47bf ddfb a63f 2a8f 38bf d1ef 2f3f
00000130: e6e6 14bf 5f92 513e b56e babf c1b5 cc3c
00000140: 32d3 bf3f 65b4 03be e42d 85be 9ed9 bb3f
00000150: 33ff 473f da42 82be be0e 13c0 279d 07bf
00000160: 4dea 593f adef b3bf 3731 0940 b27c 02c0
00000170: bb46 76bf 9696 ba3e 701e ec3e 468c e13e
00000180: 805a 62bf 49e1 bebd 106d a7be 556a 4b3e
00000190: bb75 dcbf 83c8 66bf 1445 ed3e 590e 723e
000001a0: 0cb2 a13e 769f e93e ca6f 77bf d10d 4f40
000001b0: 464b 2dbf 70eb 913f 15ba 7c3e 53a1 cdbf
000001c0: 3bf7 973f d6cf d33f 96d0 03bd f327 0fbc
000001d0: d9e2 22bf 5f27 04bf ac16 473f 0e51 a63f
000001e0: 146e a5be a051 223f b579 6a3f 2e0e 9fbf
000001f0: ed2a b93e 3f6c e83f 556b 013d c3b9 b6be
00000200: 82ba 9c3f 6b14 743e f0f2 a83f 39af c33f
00000210: f863 2140 a289 173f 4fdc 063f 8a5e a03e
00000220: 9046 8a3f 93fc 92bf 65bc ec3e 0aa8 99bf
00000230: dc47 73bf c68c ee3e 52dd a8be 37ab d4be
00000240: 2b31 d6bd e947 02bf be5e 9dbf faad fa3d
00000250: 4aa7 cf3d 4c42 3fbf 2ba1 dabf 4a2a 4abe
00000260: 4ce8 1a3e 29b5 463f 563a 9abf 628e 6f3f
00000270: 5863 6e3f d2ef 393f bc9a 5dbf bb7d 07bf
00000280: bb31 0c3f 1b33 bdbd 8a3d 483e 9f96 dabf
00000290: 8440 013f 849b d03c 21f4 a2bd 3d0d e0be
000002a0: 324c c13e aa2d 1abc e164 cf3e 9b46 483f
000002b0: 98c2 a33f df15 50bf 56a6 7cbf 9f63 083c
000002c0: 2e9c 8e3f d9ac b3bf 2a3b c33f 1402 7d3f
000002d0: 527d bbbe fcc3 cabe a01a 0240 dc1b 8d3e
000002e0: 23cb 213e d14d d5be 9fd8 e73e 6e60 87bf
000002f0: 22f3 4abf c06d a63f 9767 bfbe 7519 c3bf
00000300: 6bc3 a9bf 3bef 09be c9ef 4b3f e6a1 373f
00000310: 5d40 4bbf 46e0 64be 6efb 9f3f 3fe8 1cbd
00000320: 89e2 6fbf 3631 ee3f a4fb 9d3f dcd2 0b3f
00000330: 3049 683e a89c 033d af7c 743f 1c21 c5bf
00000340: 3387 c1bf 2c22 c53f 3a7e 4d3e 9c55 aebf
00000350: 58ac 53bf d07c 86bf 48da a93f 7460 36bf
00000360: e82f 253f 7600 87be e453 47bf fe18 8b3e
00000370: f6dc 0040 469e 5fbe 375a e1be 4598 b7bf
00000380: edc2 03be 4e69 893e 345e 483e 76cd 903e
00000390: db0b e03e 6b3f e03e 8936 80bf 4041 ab3f
000003a0: 37b2 a53e 7144 9abe 63e4 6e3e 7a6c a43f
000003b0: 1fa4 3f3f 0ddd 413f 4042 32bc 352f 6e3e
000003c0: 487c 2a3e 0232 2ebe 97f0 dc3e 93e1 8cbf
000003d0: 1e9a 0040 4e14 843e 527f eebe 637b 043f
000003e0: f509 9c3f 382f a53e 46a2 3c3f 7174 79bf
000003f0: d9d4 9fbf 49bf 6b3f c553 9fbe a333 53bd

lstm.bias_hh_l0 f4 [256]
0.4382602 -2.316262 1.1653976 -0.32059288 1.0983769 -0.027525887 -1.1573093 0.5070686
-0.45324007 -0.30365008 -0.88675016 -0.2618985 1.4334863 -1.1260673 0.21378171 0.7074742
0.61079484 0.5496334 0.44248548 -1.7100714 1.17546 -2.0232842 -0.87132543 -0.60277796
-1.0116944 -0.08414899 1.3119366 0.2955429 0.5425618 -2.0104659 -0.58393043 0.40928233
0.56206816 -3.9674342 -0.6082314 0.09509339 1.0587482 0.4859765 -0.31307027 0.34727854
0.4002607 0.54587924 -1.0494074 0.7428023 1.1898035 -0.2773655 0.9293421 -0.7188004
-0.636229 0.03833535 -1.0055352 0.1649734 1.1073357 0.9779219 1.0335228 0.16118762
-0.7501588 -0.3655662 -0.68737435 0.021654444 0.09465009 -1.04009 0.59102446 -0.32272106
-0.32724756 0.78286874 1.0499821 0.482247 -0.1432546 -0.7202881 -1.7072053 -0.7486902
0.8044513 0.5089672 -1.018066 1.2523569 1.1831551 -0.16993207 1.0029038 1.5491714
0.46636522 -1.4928575 -1.4867553 0.7449824 -0.4965203 -1.8050373 -0.3691585 2.064608
0.8827816 0.64076996 -0.98185337 0.45466653 -0.51952416 0.69155824 -0.5841621 -0.43589085
3.4394798 -0.19755377 0.018093277 -1.2407686 -0.8755059 -0.30528566 -0.7517037 -1.0547897
0.67301446 -0.35560015 -0.60873944 0.7412886 -0.096079014 -1.7552376 -1.5784745 -0.4725042
-1.5428727 -0.5006318 0.800213 1.1452878 0.75830156 -1.8628068 0.4356247 0.12272593
0.27589637 0.111877896 0.77707314 0.016320636 -0.6821678 0.30429417 -0.52241665 -0.11250169
-1.0017062 0.44202793 -0.2755979 -0.3972322 -2.2595778 -1.4147308 2.0812032 -0.8356653
-1.5739298 -0.04788595 -0.47353363 0.72411066 0.055918403 -1.8586615 -2.2283611 1.6133983
-0.887251 -1.2854363 -0.38681272 -0.14416265 -0.6775792 -2.3593347 1.7851266 -1.2575343
-2.0305533 1.1791056 -0.36050624 0.814072 -1.7230533 -0.45804974 -0.6253213 -0.1093523
1.4410397 1.8084762 -0.009827067 -0.87438786 -1.8645345 0.14922501 -0.17535646 -0.73316455
-1.7364805 1.2510033 -1.844712 0.4001473 0.5036062 -0.07489021 2.9046278 -0.2586566
-1.4437299 -1.1702037 -1.2609886 -0.8864887 0.6543336 0.8789594 0.16591339 -0.95024353
1.1266696 -1.5409745 -0.5258788 1.0074005 1.0091022 0.17842 0.38839906 2.0357902
-1.9907112 1.1453321 -1.2226547 -0.92637986 0.07712278 0.7294874 2.346913 1.0786115
-2.0964406 -0.6845118 -0.7387466 0.3191975 -0.6260784 -1.0455331 -2.0716343 -0.43803763
-0.0009679013 0.24818471 -0.6810894 -0.061963603 -0.1586083 -0.111774735 -0.053655963 -2.0168493
2.3858206 -0.55951464 0.37326768 -0.23987375 0.5878566 -1.733068 0.76981646 0.38421726
-1.0346656 1.0811727 0.6943826 0.81594485 -0.067594655 -1.0869352 0.8780364 1.1799377
1.4787055 -0.55763143 -0.68646675 -0.35472345 -0.8099085 0.0024436328 -2.147342 0.33279237
1.0160935 -1.6222894 -1.015253 -1.2179998 -0.21257748 0.5989431 0.06849335 -0.15778343
0.09692789 -0.37871972 -0.3041935 -0.23084784 -2.290191 0.1586623 -0.05553859 0.806289
00000000: a463 e03e a33d 14c0 c02b 953f c024 a4be
00000010: 9d97 8c3f f87d e1bc b622 94bf 3fcf 013f
00000020: 150f e8be 0678 9bbe 0f02 63bf 8f17 86be
00000030: 7b7c b73f f922 90bf 98e9 5a3e 071d 353f
00000040: 0d5d 1c3f c6b4 0c3f 758d e23e 9fe3 dabf
00000050: 7975 963f 7d7d 01c0 2f0f 5fbf a84f 1abf
00000060: 347f 81bf 4e56 acbd 8aed a73f 6651 973e
00000070: 55e5 0a3f 79ab 00c0 777c 15bf 748d d13e
00000080: b3e3 0f3f 71ea 7dc0 0eb5 1bbf 53c0 c23d
00000090: 1085 873f e9d1 f83e bf4a a0be 7ece b13e
000000a0: f8ee cc3e bebe 0b3f fb52 86bf 4b28 3e3f
000000b0: 7b4b 983f da02 8ebe 5de9 6d3f 4e03 38bf
000000c0: e7df 22bf 8705 1d3d 61b5 80bf c9ee 283e
000000d0: 2dbd 8d3f 1759 7a3f 7a4a 843f 5e0e 253e
000000e0: 680a 40bf 7e2b bbbe c4f7 2fbf a964 b13c
000000f0: e8d7 c13d ab21 85bf 614d 173f b23b a5be
00000100: fe8c a7be 166a 483f d065 863f 14e9 f63e
00000110: 55b1 12be cd64 38bf b485 dabf 29aa 3fbf
00000120: 85f0 4d3f ad4b 023f fd4f 82bf 3b4d a03f
00000130: a071 973f ac02 2ebe 275f 803f 404b c63f
00000140: 6cc7 ee3e f415 bfbf ff4d bebf 2bb7 3e3f
00000150: e937 febe 760b e7bf 5802 bdbe 8a22 0440
00000160: fafd 613f 8009 243f be5a 7bbf 0dca e83e
00000170: 89ff 04bf f609 313f a68b 15bf 162d dfbe
00000180: 7020 5c40 894b 4abe 5a38 943c 81d1 9ebf
00000190: 2821 60bf 674e 9cbe a76f 40bf 5903 87bf
000001a0: ad4a 2c3f 3911 b6be 59d6 1bbf 17c5 3d3f
000001b0: 13c5 c4bd a0ab e0bf 740b cabf 12ec f1be
000001c0: da7c c5bf 6829 00bf c2da 4c3f ca98 923f
000001d0: 0d20 423f 7470 eebf 330a df3e bb57 fb3d
000001e0: 4a42 8d3e 3d20 e53d 44ee 463f dbb2 853c
000001f0: 8da2 2ebf 72cc 9b3e 19bd 05bf 4967 e6bd
00000200: e937 80bf 7c51 e23e 2b1b 8dbe 0562 cbbe
00000210: ec9c 10c0 e615 b5bf 6f32 0540 29ee 55bf
00000220: 8876 c9bf 0f24 44bd 0073 f2be 515f 393f
00000230: b20a 653d 9fe8 edbf 789d 0ec0 d683 ce3f
00000240: e222 63bf 2d89 a4bf 510c c6be 609f 13be
00000250: d575 2dbf 57ff 16c0 077f e43f e2f6 a0bf
00000260: 96f4 01c0 efec 963f 4694 b8be 0667 503f
00000270: 038d dcbf 7f85 eabe 0f15 20bf 19f4 dfbd
00000280: fd73 b83f 267c e73f b501 21bc e2d7 5fbf
00000290: 11a9 eebf 71ce 183e a590 33be acb0 3bbf
000002a0: fe44 debf e020 a03f 861f ecbf 1be0 cc3e
000002b0: 56ec 003f 0a60 99bd 6ce5 3940 a36e 84be
000002c0: 24cc b8bf 3cc9 95bf 1368 a1bf ecf0 62bf
000002d0: 6882 273f 7c03 613f 33e5 293e 2943 73bf
000002e0: b636 903f a73e c5bf fe9f 06bf 80f2 803f
000002f0: 432a 813f bcb3 363e 3edc c63e 634a 0240
00000300: a0cf febf 3e9a 923f f37f 9cbf 3b27 6dbf
00000310: 8cf2 9d3d b0bf 3a3f d333 1640 f10f 8a3f
00000320: 152c 06c0 2a3c 2fbf 7f1e 3dbf db6d a33e
00000330: ad46 20bf 07d4 85bf a895 04c0 7846 e0be
00000340: c2ba 7dba 2224 7e3e e05b 2ebf 8ccd 7dbd
00000350: 376a 22be 27ea e4bd 5bc6 5bbd 0f14 01c0
00000360: 49b1 1840 5a3c 0fbf f11c bf3e 77a1 75be
00000370: c57d 163f 2cd5 ddbf b112 453f 20b8 c43e
00000380: ec6f 84bf de63 8a3f 0fc3 313f c3e1 503f
00000390: 116f 8abd b120 8bbf fec6 603f 3308 973f
000003a0: 3946 bd3f efc0 0ebf 49bc 2fbf 509e b5be
000003b0: 2a56 4fbf 5b25 203b 0d6e 09c0 c363 aa3e
000003c0: 5a0f 823f 2ea7 cfbf cff3 81bf 6be7 9bbf
000003d0: e9ad 59be 5654 193f 3e46 8c3d fb91 21be
000003e0: 2182 c63d 8de7 c1be 40bf 9bbe 6063 6cbe
000003f0: 7d92 12c0 5f78 223e 6f7c 63bd f568 4e3f

batch_norm.weight f4 [64]
0.9977247 0.94256854 0.98616946 0.974303 1.0784371 0.96304035 1.0411326 0.9840239
1.0212078 0.9864962 0.9212899 0.9437834 0.9623859 0.96073 0.99725145 1.0744033
0.9524166 0.9743405 0.9882008 0.94645435 1.0061157 0.95757174 1.0799769 1.0008228
0.9655135 0.97048515 0.9418352 0.9588505 0.9573131 1.0010713 0.94983506 1.0401129
0.95749813 0.98469436 0.99998087 0.97117865 1.0224288 0.9193883 1.0014976 0.9273674
0.9528137 1.0602851 0.97728837 1.0238779 1.0553328 0.9525555 0.97645116 0.95926696
0.9391659 0.95328385 0.9798664 0.9398455 0.9642659 1.0267315 0.93952304 0.90523374
0.9718149 0.9466184 0.9445149 0.98818016 0.9872738 1.0331992 0.911699 1.0476106
00000000: e36a 7f3f 2c4c 713f 9a75 7c3f ec6b 793f
00000010: 3a0a 8a3f d089 763f d543 853f fee8 7b3f
00000020: f0b6 823f 048b 7c3f a8d9 6b3f ca9b 713f
00000030: ec5e 763f 67f2 753f df4b 7f3f 0c86 893f
00000040: 93d1 733f 616e 793f bafa 7c3f d54a 723f
00000050: 66c8 803f 6c23 753f af3c 8a3f f61a 803f
00000060: e52b 773f b771 783f 1d1c 713f 3a77 753f
00000070: 7912 753f 1b23 803f 6428 733f 6b22 853f
00000080: 991e 753f ee14 7c3f bffe 7f3f 2a9f 783f
00000090: f2de 823f 085d 6b3f 1331 803f f367 6d3f
000000a0: 99eb 733f 6cb7 873f 922f 7a3f 6e0e 833f
000000b0: 2515 873f adda 733f b4f8 793f 8592 753f
000000c0: 2d6d 703f 690a 743f 86d8 7a3f b799 703f
000000d0: 21da 763f f06b 833f 9584 703f 66bd 673f
000000e0: dcc8 783f 9555 723f bacb 713f 60f9 7c3f
000000f0: fabd 7c3f df3f 843f 1b65 693f 1b18 863f

batch_norm.bias f4 [64]
-0.00015617524 0.050568566 0.019472726 -0.051471144 0.06215261 0.020377062 -0.033072527 0.06589343
0.081036426 -0.00045231511 0.045541916 -0.014983055 0.014128473 0.041926075 0.055389326 -0.09341926
-0.014407284 0.087567836 0.09138923 0.016384088 -0.06384716 0.030535517 0.06287959 -0.022283755
0.005112525 0.01257985 0.013675847 -0.05744831 -0.097276144 -0.065178744 -0.031293355 0.028887518
0.04383813 -0.07238437 0.059173003 -0.04325972 0.02676959 -0.042636402 -0.0015986502 0.015555739
-0.05469526 -0.0017219204 -0.014916196 0.07128466 0.0776317 -0.013920712 0.07858284 0.025534475
-0.017672366 0.007129961 0.010105383 -0.022092938 -0.011390747 0.06867115 -0.0137470625 0.035384707
0.043815814 -0.025194107 -0.01068699 -0.0071060695 -0.0005208266 -0.04255776 0.003004188 0.028706415
00000000: f9c2 23b9 fc20 4f3d 4485 9f3c 68d3 52bd
00000010: bc93 7e3d cced a63c 0f77 07bd 22f3 863d
00000020: 6df6 a53d b524 edb9 298a 3a3d 7d7b 75bc
00000030: 1c7b 673c adba 2b3d ebdf 623d 9952 bfbd
00000040: 870c 6cbc c456 b33d 472a bb3d ec37 863c
00000050: 4dc2 82bd 9f25 fa3c 04c7 803d 6c8c b6bc
00000060: f886 a73b b71b 4e3c a910 603c eb4e 6bbd
00000070: b738 c7bd 6f7c 85bd 762d 00bd 84a5 ec3c
00000080: 9c8f 333d 423e 94bd 645f 723d 1b31 31bd
00000090: e64b db3c 82a3 2ebd cd89 d1ba 80dd 7e3c
000000a0: 2308 60bd 10b2 e1ba 1063 74bc b1fd 913d
000000b0: 5efd 9e3d b313 64bc 0af0 a03d ad2d d13c
000000c0: a3c5 90bc 73a2 e93b 0c91 253c 40fc b4bc
000000d0: 41a0 3abc 76a3 8c3d 5c3b 61bc 8eef 103d
000000e0: 3678 333d df63 cebc 7c18 2fbc 08da e8bb
000000f0: 1588 08ba 0c51 2ebd e9e1 443b b729 eb3c

batch_norm.running_mean f4 [64]
0.000395476 0.035907 0.44585648 0.16229074 0.0103549315 -0.31680945 0.12548289 -0.16680433
-0.007303892 -0.8218169 0.16586691 -0.6876545 -0.25926661 -0.26900107 -0.031358607 0.18977757
-0.18732905 -0.6183149 -0.11803903 -0.0001319665 -0.16783057 -0.053123135 0.08587747 -0.065740794
-0.94671494 0.26788753 -0.4022775 0.16877545 -0.1992222 0.07890103 -0.102395676 -0.14447714
0.20006259 0.0019170826 -0.06266821 -0.47377804 -0.3130304 0.002400116 -0.046139367 -0.6135216
-0.8168496 0.12997675 -0.13826598 0.7227641 0.26606926 -0.06589763 0.06014512 -0.12022063
-0.20703536 -0.06957409 -0.004384706 -0.035036527 0.54461664 0.020775007 0.34818777 -0.495754
0.10005852 -0.43275934 -0.014771179 -0.14269224 0.00064992474 0.6661252 0.1355776 0.15893196
00000000: e457 cf39 3813 133d 4d47 e43e 8b2f 263e
00000010: bba7 293c d934 a2be 967e 003e c1ce 2abe
00000020: 7d55 efbb 9862 52bf 04d9 293e 200a 30bf
00000030: 98be 84be 82ba 89be e271 00bd 0d55 423e
00000040: 30d3 3fbe e349 1ebf 72be f1bd 7d60 0ab9
00000050: c7db 2bbe a597 59bd 87e0 af3d 1ca3 86bd
00000060: e95b 72bf 8e28 893e 51f7 cdbe 79d3 2c3e
00000070: e800 4cbe dd96 a13d d3b4 d1bd d1f1 13be
00000080: 35dd 4c3e 9e46 fb3a 3158 80bd 0993 f2be
00000090: 8545 a0be 444b 1d3b a2fc 3cbd c00f 1dbf
000000a0: 0e1d 51bf a018 053e 9995 0dbe 1107 393f
000000b0: 3b3a 883e 56f5 86bd bb5a 763d 3c36 f6bd
000000c0: 1401 54be dc7c 8ebd 94ad 8fbb 7682 0fbd
000000d0: ff6b 0b3f 5930 aa3c ab45 b23e 78d3 fdbe
000000e0: 7beb cc3d a292 ddbe d102 72bc ea1d 12be
000000f0: b65f 2a3a 2e87 2a3f dbd4 0a3e 0fbf 223e

batch_norm.running_var f4 [64]
6.5526706e-06 5.9071826e-05 0.0013889015 0.0005159348 0.00025729198 0.009539498 0.00013244571 0.007150379
1.934146e-05 0.0002463283 0.0015229257 0.0009273132 0.0017961748 0.0011033337 4.662924e-05 0.00015887173
0.00020515222 0.000657214 0.00024270204 3.4288305e-06 0.0006218943 8.3679624e-05 0.00011811187 4.865621e-05
7.506341e-05 0.0007111533 0.0009939536 0.0008832212 0.009856897 0.00018344983 0.00026371426 0.00034136252
0.00025966004 6.691768e-08 0.0013175446 0.00074753416 0.00063155795 0.00011498655 0.0010033795 0.0026932603
0.002977438 0.00016216145 0.00048692295 0.0006296367 0.00074997253 0.0005455735 4.419001e-05 0.00040364818
0.0024748114 7.617718e-05 3.44312e-06 0.0004810345 0.0032443372 0.013897732 0.00033044425 0.0006166563
0.0001001031 0.0012580485 0.002286454 0.0015339146 1.2010608e-07 0.0011637612 0.0085328985 0.00040412418
00000000: 03df db36 e4c3 7738 cd0b b63a cc3f 073a
00000010: 25e5 8639 8e4b 1c3c 20e1 0a39 ba4d ea3b
00000020: 783f a237 a025 8139 e89c c73a ef16 733a
00000030: a06d eb3a bc9d 903a c493 4338 ce96 2639
00000040: 211e 5739 e348 2c3a d57d 7e39 dc1a 6636
00000050: 9f06 233a 287d af38 d4b2 f738 3514 4c38
00000060: 5d6b 9d38 b16c 3a3a 8c47 823a f987 673a
00000070: d37e 213c 705c 4039 2143 8a39 e7f8 b239
00000080: fb22 8839 62b4 8f33 76b1 ac3a 2bf6 433a
00000090: 238f 253a ef24 f138 d483 833a 6981 303b
000000a0: 1f21 433b e209 2a39 b149 ff39 340e 253a
000000b0: ce99 443a d104 0f3a a958 3938 bea0 d339
000000c0: 7230 223b 50c1 9f38 5a10 6736 5c33 fc39
000000d0: f29e 543b 50b3 633c 7a3f ad39 1ba7 213a
000000e0: 71ee d138 1ae5 a43a 55d8 153b a20d c93a
000000f0: 82f6 0034 5989 983a 92cd 0b3c a1e0 d339

fc1.weight f4 [64, 64]
0.20485918 0.105954036 -0.007560043 -0.0745605 0.034566723 -0.17209943 -0.13525407 0.031028
0.06792871 -0.16517997 -0.048029922 -0.07294969 0.10202775 -0.013104893 -0.112083726 0.33153784
0.19037458 0.13758112 -0.0011061047 -0.23306553 0.23177584 0.04762433 0.004883494 0.13423888
-0.15060385 -0.10007276 -0.026517276 0.010690031 0.2094936 -0.0054653008 0.10124077 0.17281972
-0.10894816 -0.06089919 -0.11472779 0.054978035 -0.14761731 -0.16064186 0.008700964 0.03558991
0.023465484 0.0430275 -0.16101192 -0.14468452 -0.17801231 -0.1586716 0.19397418 -0.08080121
-0.047615588 0.2694078 0.16197138 0.064797804 0.13480002 0.32635137 0.0376781 0.10976845
0.036773298 -0.104476534 -0.071102135 0.08811692 -0.055432677 -0.030477045 -0.2978272 0.062916785
0.15371141 -0.04016993 -0.11181132 -0.111781955 -0.2831573 0.25589493 0.15167253 -0.11890183
-0.0032470326 -0.10261509 -0.08089022 0.13717182 -0.090328366 0.16856197 -0.037262112 -0.06278405
0.0741597 -0.12696278 -0.027285066 -0.052078817 -0.05665973 -0.07680228 -0.14649959 0.0989426
0.13307446 -0.07274609 -0.07767898 0.05024874 -0.012260276 -0.008190071 0.02864822 -0.01927922
-0.14660399 0.0052529485 -0.10905667 -0.09713964 0.14234705 -0.025421293 -0.019406002 0.34514144
0.107453324 0.0038130623 0.10917741 -0.12475413 0.048633665 -0.043322362 -0.20364471 0.09851282
0.03711755 -0.061170228 -0.04239295 -0.074911386 0.11910311 -0.17372905 0.024407895 -0.014147322
0.10001946 0.062358525 -0.14834644 -0.15150413 0.06454282 0.15211222 0.06694111 0.16274634
0.13886198 -0.0149282105 0.09840115 -0.028923102 -0.09332981 0.029038936 -0.10921387 0.088488534
0.18873516 -0.004524409 -0.04222535 0.06385895 -0.099325396 0.09391475 0.15789597 0.17339125
-0.058124915 0.061727982 -0.13882 0.30633408 0.12413823 0.17045194 -0.11021583 -0.2339411
-0.044721473 -0.237506 0.18928449 0.1457934 0.19228436 0.10847127 -0.084458046 -0.11482362
-0.05176859 0.034252685 -0.054301623 -0.14342257 0.0004798286 0.009923229 0.060469985 0.23185845
-0.055342633 -0.04192709 -0.1374223 -0.06960972 -0.05094343 0.06520635 -0.1309584 -0.030192256
-0.09290504 0.07279583 -0.021126889 -0.02348197 0.0315466 0.10687083 -0.0946343 -0.21154788
0.10377502 0.048255764 0.036485627 -0.027866514 -0.027814282 0.0085592205 -0.15332587 0.028520392
-0.07779141 -0.17594488 -0.02896779 -0.04023251 0.115695745 -0.026555058 0.14668484 0.047038775
-0.37574437 0.052945662 -0.028469218 0.21328953 -0.232319 0.1758543 0.014666353 0.036990635
0.1536124 -0.18551168 0.038006734 -0.049920224 0.19747221 -0.051663805 -0.052065566 -0.15827915
-0.13284616 -0.072682165 0.028807485 0.0739299 -0.09195459 0.14975466 -0.12689123 0.05240654
-0.2678911 0.021293385 -0.0049138027 0.02574035 -0.23226707 0.07547309 0.16896702 0.19644725
0.39797285 -0.10301598 0.2640811 0.0020987357 -0.16527598 -0.047321495 0.08171894 0.15491495
0.28141254 -0.14174482 0.112374425 0.19554496 0.1073017 0.15704216 0.032239784 -0.071099
-0.1233454 -0.15472388 0.09440412 -0.0833522 -0.1010321 -0.22178878 -0.024167292 -0.19404842
00000000: 9bc6 513e 6efe d83d 3dba f7bb 2db3 98bd
00000010: d695 0d3d d53a 30be 0b80 0abe 6f2e fe3c
00000020: 351e 8b3d f024 29be 06bb 44bd a666 95bd
00000030: edf3 d03d e8b5 56bc 278c e5bd 54bf a93e
00000040: 8ef1 423e 11e2 0c3e b7fa 90ba bba8 6ebe
00000050: a556 6d3e bb11 433d b805 a03b eb75 093e
00000060: e537 1abe f2f2 ccbd c23a d9bc 3d25 2f3c
00000070: 7e85 563e 4416 b3bb 5257 cf3d a7f7 303e
00000080: 3720 dfbd 6e71 79bd 67f6 eabd a630 613d
00000090: fe28 17be 4d7f 24be 7d8e 0e3c bac6 113d
000000a0: b03a c03c 9b3d 303d 4fe0 24be 2e28 14be
000000b0: dc48 36be cf7a 22be 2ba1 463e 1b7b a5bd
000000c0: 9008 43bd d2ef 893e d3db 253e b6b4 843d
000000d0: 0409 0a3e 8717 a73e 5a54 1a3d 48ce e03d
000000e0: 999f 163d cbf7 d5bd ff9d 91bd a576 b43d
000000f0: 600d 63bd ffaa f9bc cf7c 98be 84da 803d
00000100: 8666 1d3e 3989 24bd 55fd e4bd f0ed e4bd
00000110: fef9 90be a904 833e 0b50 1b3e cd82 f3bd
00000120: 2bcc 54bb dc27 d2bd c6a9 a5bd c576 0c3e
00000130: 14fe b8bd 829b 2c3e 28a0 18bd ed94 80bd
00000140: 0ae1 973d 8802 02be ee84 dfbc 9950 55bd
00000150: 0814 68bd 844a 9dbd fd03 16be 6ba2 ca3d
00000160: ac44 083e e7fb 94bd 2816 9fbd 9fd1 4d3d
00000170: 53df 48bc a62f 06bc acaf ea3c 74ef 9dbc
00000180: 5b1f 16be ed20 ac3b 1a59 dfbd 26f1 c6bd
00000190: 6dc3 113e 5140 d0bc 56f9 9ebc 61b6 b03e
000001a0: 7d10 dc3d 92e4 793b 6898 df3d 187f ffbd
000001b0: 1834 473d ca72 31bd 3d88 50be 17c1 c93d
000001c0: 9208 183d a28d 7abd 3ba4 2dbd 246b 99bd
000001d0: 55ec f33d 07e6 31be 11f3 c73c 2bca 67bc
000001e0: 01d7 cc3d a76b 7f3d 21e8 17be e623 1bbe
000001f0: 072f 843d 4ec3 1b3e 6c18 893d faa6 263e
00000200: d631 0e3e 7495 74bc 8b86 c93d 24f0 ecbc
00000210: b323 bfbd 10e3 ed3c 85ab dfbd 7a39 b53d
00000220: ca43 413e 7e41 94bb 7df4 2cbd 7bc8 823d
00000230: 1d6b cbbd 6056 c03d 7baf 213e 7a8d 313e
00000240: 6414 6ebd 7bd6 7c3d d526 0ebe d2d7 9c3e
00000250: 2f3c fe3d f48a 2e3e d6b8 e1bd 418e 6fbe
00000260: dd2d 37bd c634 73be cbd3 413e dd4a 153e
00000270: 31e6 443e 2f26 de3d 57f8 acbd a528 ebbd
00000280: 4d0b 54bd 8b4c 0c3d 616b 5ebd 5edd 12be
00000290: 8191 fb39 0a95 223c 60af 773d 4d6c 6d3e
000002a0: f5ae 62bd bebb 2bbd 6eb8 0cbe 8a8f 8ebd
000002b0: 0faa 50bd e88a 853d f519 06be c055 f7bc
000002c0: ff44 bebd fb15 953d 4c12 adbc 435d c0bc
000002d0: 0237 013d 18df da3d a1cf c1bd 02a0 58be
000002e0: ff87 d43d d6a7 453d f471 153d 5148 e4bc
000002f0: c7da e3bc f93b 0c3c 7501 1dbe 99a3 e93c
00000300: 1a51 9fbd e52a 34be dc4d edbc d8ca 24bd
00000310: e4f1 ec3d fe89 d9bc 8d34 163e bbab 403d
00000320: 9161 c0be 8ddd 583d 4738 e9bc 9268 5a3e
00000330: 08e5 6dbe 2613 343e 254b 703c 7e83 173d
00000340: 924c 1d3e c6f6 3dbe f3ac 1b3d 2679 4cbd
00000350: 2836 4a3e 6d9d 53bd b442 55bd ee13 22be
00000360: d308 08be 63da 94bd adfd eb3c 8f68 973d
00000370: b052 bcbd 4959 193e c6ef 01be 3da8 563d
00000380: 0629 89be 776f ae3c f703 a1bb 6ddd d23c
00000390: 6bd7 6dbe a391 9a3d b105 2d3e 7829 493e
000003a0: 19c3 cb3e 0bfa d2bd a335 873e f18a 093b
000003b0: 1b3e 29be 2fd4 41bd 425c a73d 06a2 1e3e
000003c0: 4e15 903e 8e25 11be 9024 e63d f03c 483e
000003d0: fec0 db3d a9cf 203e dd0d 043d 5a9c 91bd
000003e0: 839c fcbd f06f 1ebe f356 c13d 8fb4 aabd
000003f0: ebe9 cebd 991c 63be 7cfa c5bc a1b4 46be

fc1.bias f4 [64]
0.006736158 -0.04655861 -0.012278205 -0.057899863 -0.043862276 -0.03172281 -0.012824351 -0.018058738
-0.024071064 0.0017872625 -0.013927859 -0.037791174 -0.040685438 -0.01139027 -0.029982988 -0.031571273
-0.052316148 -0.04954971 -0.025374724 -0.018403582 -0.02381097 -0.023545079 -0.022815127 -0.014804109
-0.032173906 0.00956052 -0.081517376 -0.041469004 -0.0064614746 -0.023372168 0.0011099913 -0.03445635
-0.0606012 -0.04880229 -0.029846564 -0.03227459 -0.004213352 -0.041466326 -0.058815025 0.009749368
0.00768789 0.031725053 0.012963524 0.026555872 -0.027649742 0.010058811 -0.05850494 -0.04942402
-0.06168918 -0.037592944 -0.04636224 -0.0651546 -0.02323947 0.017238252 -0.11893994 -0.043823764
-0.07609096 -0.0016537749 0.016760144 -0.07550124 -0.028936611 -0.06855772 -0.04167641 -0.05224275
00000000: fdba dc3b 3eb4 3ebd 862a 49bc 6828 6dbd
00000010: eea8 33bd c7ef 01bd 3a1d 52bc ebef 93bc
00000020: ae30 c5bc 9442 ea3a ad31 64bc ebca 1abd
00000030: c6a5 26bd 419e 3abc e29e f5bc e150 01bd
00000040: 7549 56bd a3f4 4abd a7de cfbc 1cc3 96bc
00000050: 390f c3bc 9ce1 c0bc cae6 babc ef8c 72bc
00000060: c9c8 03bd baa3 1c3c 95f2 a6bd 67db 29bd
00000070: c7ba d3bb fd76 bfbc 217d 913a 1a22 0dbd
00000080: f738 78bd e9e4 47bd c880 f4bc 5c32 04bd
00000090: 2910 8abb 98d8 29bd 06e8 70bd d0bb 1f3c
000000a0: b2ea fb3b 21f2 013d f664 543c b38b d93c
000000b0: b681 e2bc b6cd 243c e0a2 6fbd d770 4abd
000000c0: cbad 7cbd 0ffb 19bd 55e6 3dbd c66f 85bd
000000d0: b360 bebc 3c37 8d3c c996 f3bd 8c80 33bd
000000e0: 94d5 9bbd 7ac3 d8ba 924c 893c 65a0 9abd
000000f0: 790c edbc fd67 8cbd e2b4 2abd 7efc 55bd

fc2.weight f4 [32, 64]
-0.24961597 0.16084605 0.09946787 -0.010826254 -0.045660917 -0.1471503 0.28232914 -0.033440102
0.17335518 -0.16995108 -0.03514897 -0.04546592 -0.102830425 -0.14738208 0.09363477 0.11077978
-0.015249793 -0.06442519 -0.034183886 -0.15368837 -0.13883166 -0.26432896 0.25209886 0.16801988
0.009648406 -0.024245447 0.066498764 0.27002445 -0.24258362 -0.14272316 -0.21107578 0.21437877
-0.08109296 -0.1442846 0.044856563 -0.051689018 0.11641648 -0.07740269 -0.009171553 0.07729154
-0.124789834 -0.047485113 0.06996765 0.13621947 0.045913495 -0.33174148 -0.05089331 0.35972562
0.02413114 0.09078464 -0.17842573 -0.20922384 0.049763687 -0.07067349 0.10115935 0.16131365
0.07031697 0.0941604 -0.09738696 0.005848283 0.112151764 -0.067686185 0.19821338 -0.18861662
-0.16149788 -0.032442823 0.010502439 -0.11589239 -0.12449863 0.15220994 -0.14831042 0.0816649
-0.012980658 0.23482917 -0.039024517 0.018542994 -0.14637394 -0.11305635 0.18458565 0.088831015
-0.024505585 0.12059292 0.34120387 -0.0008866564 -0.052746594 0.10734342 -0.25323752 -0.0207338
0.19915158 0.3321392 0.14994591 -0.07219024 0.14552265 0.04058608 -0.16028267 0.24818522
0.0037170649 0.034284446 -0.32164508 -0.022797838 -0.120096736 -0.11386808 0.029772788 -0.08245312
-0.29421502 -0.1196957 0.0071878675 0.2794952 -0.076930836 -0.13569559 0.02295608 -0.12804231
-0.28602564 -0.18789335 0.21674028 -0.32999885 0.10769192 -0.17040987 -0.028000206 -0.045329206
0.32089385 0.3753944 -0.057362698 0.16625513 -0.04268349 -0.01674753 -0.09456532 0.08934764
-0.14014474 -0.10215563 0.062660605 -0.097157635 0.3329553 -0.20125863 0.050351884 -0.18895407
0.041916348 0.039502863 -0.042963114 -0.008751643 0.018924914 0.042871706 -0.12856777 0.077929236
0.16766201 -0.18110082 -0.32415748 0.34434608 0.00946976 0.13176449 -0.022407759 0.1191737
0.024367029 0.033875994 -0.13127998 -0.4332417 -0.11190041 0.14506862 -0.058338273 0.06419
0.24277051 -0.15993065 -0.16353327 -0.063761376 0.39037162 -0.13640629 0.18583182 0.029484652
0.09096429 0.2223386 -0.02966391 -0.32249904 0.046391148 0.0852476 0.044465195 -0.19290973
-0.019958895 -0.01865727 0.076236464 0.019282589 0.065712914 -0.1725452 -0.11420048 0.2393839
0.11948892 0.040046345 -0.13167766 -0.18900953 -0.114421405 0.10903641 0.13756822 0.101110935
-0.16593407 -0.19540456 -0.04419146 0.11047776 -0.03141817 0.11976759 0.004866382 0.047764264
0.1373021 0.029916376 -0.079136156 -0.1267689 0.033384923 -0.08780665 0.06544488 -0.100275725
-0.36834428 -0.11753818 0.03578736 0.19362018 -0.103533156 -0.15327491 -0.009264359 -0.011729793
-0.09438455 -0.05518995 -0.06526508 0.19269788 -0.0015230576 0.2743255 -0.050347596 0.06761703
-0.25512415 -0.1053178 0.1380351 -0.0066027916 0.12754084 -0.116498716 0.09973889 0.15883018
0.113641515 0.16497765 0.08812062 0.071088724 -0.114741795 -0.17093952 -0.010956943 -0.16229291
-0.19395941 -0.004484394 0.33725294 0.13801943 0.0011798708 -0.022579018 -0.2018127 0.19052911
0.045719005 0.26252663 0.147835 0.046162847 -0.04231912 -0.051989216 0.011952865 -0.17396311
00000000: 549b 7fbe d4b4 243e d0b5 cb3d 9a60 31bc
00000010: f106 3bbd 91ae 16be 728d 903e 7df8 08bd
00000020: 0584 313e a807 2ebe 5ef8 0fbd 793a 3abd
00000030: c298 d2bd 54eb 16be 96c3 bf3d 82e0 e23d
00000040: 45da 79bc 5bf1 83bd 6704 0cbd 7c60 1dbe
00000050: e329 0ebe 2056 87be 1a13 813e 670d 2c3e
00000060: 5914 1e3c 639e c6bc 8130 883d a540 8a3e
00000070: d767 78be 0526 12be 4024 58be 1c86 5b3e
00000080: 1114 a6bd 58bf 13be 84bb 373d ddb7 53bd
00000090: c36b ee3d 4d85 9ebd 4844 16bc 074b 9e3d
000000a0: d091 ffbd c07f 42bd 334b 8f3d 1e7d 0b3e
000000b0: ca0f 3c3d 05da a9be 8175 50bd f52d b83e
000000c0: abae c53c 4ced b93d 3cb5 36be c63e 56be
000000d0: 02d5 4b3d 43bd 90bd a22c cf3d 682f 253e
000000e0: 5802 903d 2bd7 c03d d172 c7bd f4a2 bf3b
000000f0: d3af e53d 0e9f 8abd 73f8 4a3e b724 41be
00000100: b35f 25be c4e2 04bd 6c12 2c3c fd58 edbd
00000110: 23f9 febd ecdc 1b3e b0de 17be ed3f a73d
00000120: d3ac 54bc 0f77 703e 2cd8 1fbd 7ae7 973c
00000130: 0de3 15be 168a e7bd 0504 3d3e 09ed b53d
00000140: f0bf c8bc 6cf9 f63d 46b2 ae3e 816e 68ba
00000150: d00c 58bd ded6 db3d 59a8 81be eed9 a9bc
00000160: 64ee 4b3e 260e aa3e 6c8b 193e 7ad8 93bd
00000170: e403 153e 973d 263d 2421 24be 4424 7e3e
00000180: 009a 733b d96d 0c3d aaae a4be 88c2 babc
00000190: 47f5 f5bd ab33 e9bd 10e6 f33c 2edd a8bd
000001a0: 5aa3 96be 0523 f5bd 3488 eb3b ff19 8f3e
000001b0: ea8d 9dbd c9f3 0abe 640e bc3c 861d 03be
000001c0: f471 92be 1d67 40be 2af1 5d3e 9cf5 a8be
000001d0: 958d dc3d ed7f 2ebe b060 e5bc 1eab 39bd
000001e0: 334c a43e b233 c03e 26f5 6abd c93e 2a3e
000001f0: e2d4 2ebd 1e32 89bc 76ab c1bd e5fb b63d
00000200: 1a82 0fbe f936 d1bd 3454 803d 95fa c6bd
00000210: 1e79 aa3e be16 4ebe c73d 4e3d 2d7d 41be
00000220: 7ab0 2b3d c1cd 213d 17fa 2fbd 0d63 0fbc
00000230: 6c08 9b3c 3e9a 2f3d 45a7 03be 5d99 9f3d
00000240: 97af 2b3e 7e72 39be f8f7 a5be 214e b03e
00000250: 0d27 1b3c 45ed 063e 7a90 b7bc 5711 f43d
00000260: 5d9d c73c 8ec1 0a3d 426e 06be dbd1 ddbe
00000270: 0b2c e5bd de8c 143e 1df4 6ebd 0c76 833d
00000280: d598 783e dcc4 23be 4475 27be 5395 82bd
00000290: cade c73e 17ae 0bbe b24a 3e3e cc89 f13c
000002a0: 7c4b ba3d bbac 633e ba01 f3bc 981e a5be
000002b0: a504 3e3d 4b96 ae3d 2321 363d 218a 45be
000002c0: d680 a3bc 22d7 98bc dd21 9c3d 85f6 9d3c
000002d0: 7e94 863d b0af 30be f1e1 e9bd 0e21 753e
000002e0: 9bb6 f43d a307 243d 82d6 06be b78b 41be
000002f0: c555 eabd 7b4e df3d afde 0c3e 4013 cf3d
00000300: 9fea 29be 2218 48be 1b02 35bd 2a42 e23d
00000310: 57b0 00bd b648 f53d 2c76 9f3b 76a4 433d
00000320: ec98 0c3e 3013 f53c 2312 a2bd b5cf 01be
00000330: a1be 083d f9d3 b3bd f707 863d 5c5d cdbd
00000340: 9f97 bcbe dbb7 f0bd c495 123d 5e44 463e
00000350: 3109 d4bd 19f4 1cbe 8ac9 17bc 512e 40bc
00000360: b04c c1bd db0e 62bd b3a9 85bd 9852 453e
00000370: 55a1 c7ba 6474 8c3e 4839 4ebd cc7a 8a3d
00000380: a29f 82be dcb0 d7bd 1359 0d3e 3b5c d8bb
00000390: 119a 023e e196 eebd e743 cc3d 61a4 223e
000003a0: e2bc e83d e7ef 283e 9578 b43d f796 913d
000003b0: bffd eabd c50a 2fbe c084 33bc 1d30 26be
000003c0: 4c9d 46be d3f1 92bb 6bac ac3e f754 0d3e
000003d0: e5a5 9a3a a2f7 b8bc fda7 4ebe 101a 433e
000003e0: da43 3b3d e469 863e 0f62 173e 4115 3d3d
000003f0: d056 2dbd a5f2 54bd f3d5 433c 6323 32be

fc2.bias f4 [32]
-0.0054510594 0.039388306 -0.0030280002 -0.0053202626 -0.014327775 -0.0023943626 -0.030537436 -0.0014663754
-0.0011511497 -0.04549331 -0.041684605 -0.016419403 -0.033152066 -0.042558003 0.01115874 0.023816155
-0.03424691 -0.046651322 0.00012783689 -0.045277532 -0.045896474 -0.033639975 -0.02157635 -0.023099717
0.002071534 -0.010206863 -0.0133116 0.0059525697 0.0074662296 -0.030703124 -0.0010082073 -0.011636274
00000000: cd9e b2bb a255 213d 6a71 46bb 9955 aebb
00000010: 0bbf 6abc bdea 1cbb a529 fabc 6533 c0ba
00000020: 2de2 96ba 3157 3abd 7abd 2abd fc81 86bc
00000030: 76ca 07bd 4d51 2ebd 26d3 363c 191a c33c
00000040: 7d46 0cbd 7515 3fbd f40b 0639 ef74 39bd
00000050: f1fd 3bbd 12ca 09bd e3c0 b0bc 9e3b bdbc
00000060: 93c2 073b b03a 27bc e618 5abc c60d c33b
00000070: 46a7 f43b 1e85 fbbc d325 84ba 12a6 3ebc

fc3.weight f4 [2, 32]
0.27050075 0.34362906 0.12844282 -0.2329371 0.29198042 0.12297774 0.40323806 -0.21226862
0.06394973 -0.15470496 0.2268771 0.33264542 -0.05741291 0.09283844 -0.03750852 0.122118235
-0.20015334 0.14741783 0.14640333 -0.32932097 -0.35061052 -0.17254448 -0.56707376 -0.16689853
0.32607204 0.15543926 -0.025731724 0.28365505 -0.28206387 0.5155619 0.012111294 0.15232195
-0.09700444 0.14283073 0.39152306 0.06883434 0.42925453 -0.23110667 0.25570276 -0.09570985
-0.2129218 0.22913325 0.4294153 0.09661719 0.29491585 -0.11227581 -0.16995175 0.057410814
-0.067121156 0.11237981 -0.18921347 -0.17686154 0.094495624 -0.20137006 -0.22222318 0.024168301
0.20029838 -0.29939756 0.12575026 -0.03571762 -0.21214539 0.16146159 -0.13215995 -0.39778206
00000000: 137f 8a3e 26f0 af3e 8486 033e 1087 6ebe
00000010: 757e 953e c1db fb3d 3875 ce3e f25c 59be
00000020: 13f8 823d fa6a 1ebe 7852 683e 8050 aa3e
00000030: cd29 6bbd 1422 be3d 89a2 19bd 2019 fa3d
00000040: fff4 4cbe b3f4 163e c1ea 153e c29c a8be
00000050: 3983 b3be 80af 30be bf2b 11bf 73e7 2abe
00000060: eaf2 a63e 782b 1f3e 56cb d2bc 3c3b 913e
00000070: ad6a 90be ddfb 033f 736e 463c 49fa 1b3e
00000080: 44aa c6bd 3842 123e b675 c83e 05f9 8c3d
00000090: 40c7 db3e 3aa7 6cbe 79eb 823e 8703 c4bd
000000a0: 2c08 5abe e8a1 6a3e 52dc db3e 3cdf c53d
000000b0: 36ff 963e dcf0 e5bd d507 2ebe 9a27 6b3d
000000c0: d176 89bd 6327 e63d 2dc1 41be 311b 35be
000000d0: ec86 c13d f433 4ebe 798e 63be 9afc c53c
000000e0: 051b 4d3e a34a 99be adc4 003e a44c 12bd
000000f0: a43c 59be 3056 253e f054 07be 17aa cbbe

fc3.bias f4 [2]
0.017484656 -0.017484665
00000000: fb3b 8f3c 003c 8fbc
